Experimenten/Experiment1Snake/PPO/ppo_snake_1200.pth (torch, 280852 bytes, 7 tensors)

shared.0.weight f4 [256, 9]
0	0x3e2cf732	0.16891173
1	0xbd4a09a4	-0.0493256
2	0x3edc3992	0.43012673
3	0xbe538834	-0.20657426
4	0x3c54e34d	0.012993646
5	0x3d5b6342	0.053561457
6	0x3f0233ba	0.5086018
7	0x3e800f67	0.2501175
8	0xbe56c311	-0.2097285
9	0xbe9cea9c	-0.30647743
10	0x3e4f68f0	0.20254874
11	0xbc2b866e	-0.010469062
12	0xbe68311e	-0.22674987
13	0xbd4296d9	-0.04750714
14	0xbea9c1d4	-0.33155692
15	0x3d370f82	0.044692524
16	0xbe56c6b6	-0.2097424
17	0xbe915f8b	-0.28393206
18	0x3e16a186	0.14710054
19	0xbb9bd5e9	-0.0047557247
20	0x3e579df1	0.21056344
21	0xbd47cd25	-0.048779625
22	0x3d7cce6a	0.06172029
23	0xbeab2219	-0.33424452
24	0xbe77f3a2	-0.24214032
25	0x3de94397	0.11389845
26	0xbea85e15	-0.3288428
27	0xbe282f43	-0.16424279
28	0xbe0a0409	-0.13478102
29	0x3e6d6a3f	0.23185061
30	0xbeda7f06	-0.42675036
31	0xbe87e292	-0.26540047
32	0x3e7d8df8	0.24761188
33	0x3e32ea9b	0.17472307
34	0x3e91267a	0.28349668
35	0x3cf127ad	0.029437864
36	0xbe6fa10c	-0.23401278
37	0xbe34a4e8	-0.17641032
38	0xbeb3fe1c	-0.35154808
39	0xbe877488	-0.26456094
40	0xbeb194f0	-0.34683943
41	0xbe514dde	-0.2043986
42	0xbe8f9053	-0.28039798
43	0xbe8df394	-0.27724898
44	0xbd29f01f	-0.041488763
45	0x3eccc3a0	0.39993
46	0x3e69e02d	0.22839423
47	0x3eb52024	0.35376084
48	0xbe84620d	-0.25856057
49	0xbbbb5e9d	-0.005718066
50	0xbcd60af0	-0.026128262
51	0xbe181b3e	-0.14854142
52	0x3eb2c682	0.34917074
53	0x3e18e1e0	0.14929914
54	0xbdba4e55	-0.09096972
55	0xbe5bda0c	-0.21469897
56	0x3ecff9f1	0.40620378
57	0x3ecc6f91	0.39928868
58	0xbcae3fb1	-0.021270605
59	0x3d03c4d9	0.03217015
60	0x3d830bd9	0.06398744
61	0x3e3f5b9e	0.18687293
62	0x3eeb439d	0.45950022
63	0x3e351d22	0.17686895
64	0xbd12b42a	-0.03581635
65	0xbe1a40c9	-0.15063776
66	0x3dacca66	0.08437042
67	0xbc9a9327	-0.018868996
68	0xbb0ae464	-0.002119326
69	0xbd848047	-0.064697795
70	0x3dd54b68	0.10414773
71	0xbe6bcda9	-0.23027672
72	0xbe6e941d	-0.23298688
73	0xbe42afa2	-0.19012311
74	0x3e86cb17	0.2632682
75	0xbdc38bc6	-0.09548144
76	0xbe302591	-0.1720183
77	0xbc5e3144	-0.0135615505
78	0xbbff5dc4	-0.00779316
79	0x3d9a1e30	0.07525289
80	0xbe0b5318	-0.13605917
81	0x3d47c56e	0.048772268
82	0xbdfbd7d0	-0.12297022
83	0x3eddea81	0.43342975
84	0x3da2e40d	0.079536535
85	0x3e333d55	0.17503865
86	0xbde38577	-0.11109441
87	0xbe719f01	-0.23595811
88	0x3e886f08	0.2664721
89	0xbec256fc	-0.3795699
90	0xbe8801a7	-0.2656376
91	0x3d1ea861	0.038734797
92	0x3e9ed32f	0.31020495
93	0xbeb342b0	-0.35011816
94	0xbe6e403f	-0.23266695
95	0xbd69304a	-0.056930818
96	0xbc97ffad	-0.018554533
97	0x3df58741	0.11988688
98	0x3ee3783b	0.44427666
99	0x3e77022a	0.2412192
100	0xbe1d58df	-0.15365933
101	0xbe3ae4e0	-0.18251371
102	0xbe47e1cd	-0.1951973
103	0xbdc07693	-0.09397616
104	0xbd48eff2	-0.049056955
105	0xbd9e3215	-0.07724396
106	0xbdb4aa96	-0.08821599
107	0x3f0008cb	0.50013417
108	0xbcc9f6d6	-0.024653833
109	0x3e951cbd	0.29123488
110	0x3cc4f94d	0.024044657
111	0x3e4bd9b2	0.19907263
112	0x3e0c2772	0.13686922
113	0xbd1a93b2	-0.03773851
114	0x3e821a08	0.25410485
115	0xbd9d9a9e	-0.076955065
116	0x3f00d725	0.50328285
117	0x3ebd4e14	0.3697363
118	0xbc729161	-0.014805169
119	0xbe689c07	-0.2271577
120	0x3d15a0d9	0.03653035
121	0x3e9969e5	0.29963604
122	0x3e2a44c6	0.16627797
123	0x3d0fb3d1	0.035083596
124	0xbdd54e3b	-0.10415312
125	0xbe531e00	-0.20616913
126	0xbebe9a5d	-0.37227145
127	0xbe9e433b	-0.30910668
128	0x3ec44fe3	0.383422
129	0xbe9fa2d8	-0.31178927
130	0x3dab4664	0.08363035
131	0xbe46a406	-0.19398507
132	0xbe30af04	-0.17254263
133	0x3e54c8b5	0.20779689
134	0xbd1091ca	-0.035295285
135	0xbe92f558	-0.28702807
136	0xbe9ed72f	-0.31023547
137	0x3e908177	0.28223774
138	0x3e71a4bd	0.23597999
139	0x3e271522	0.16316655
140	0xbe1b0e57	-0.15142189
141	0x3e8c9167	0.27454683
142	0xbd308e1c	-0.043104276
143	0x3e484b90	0.19560075
144	0xbdc2c3c6	-0.09509997
145	0xbe09215a	-0.13391629
146	0x3eb5828b	0.3545116
147	0x3da9ceec	0.0829142
148	0x3c123b1b	0.008925225
149	0xbddad254	-0.10684648
150	0x3ed54b9a	0.41659242
151	0xbe2485f1	-0.1606672
152	0xbe4498f3	-0.1919897
153	0x3e1c3ebc	0.15258306
154	0x3e60bcd3	0.2194703
155	0x3eb7fce7	0.35935137
156	0x3d766a19	0.060159776
157	0x3dcfc920	0.101457834
158	0x3e0bb351	0.13642623
159	0x3edbd2ee	0.42934364
160	0x3ec10afc	0.37703693
161	0x3eb906b2	0.3613792
162	0x3e34d190	0.17658067
163	0x3ec76822	0.38946635
164	0x3e08b5da	0.13350621
165	0xbddca5d1	-0.107738145
166	0x3e95c1f4	0.29249537
167	0xbe25ddae	-0.16197845
168	0x3ee5adc6	0.4485914
169	0xbd2a1236	-0.041521274
170	0x3ce8e23d	0.028428191
171	0xbda6ff51	-0.081541665
172	0x3e5477d4	0.20748836
173	0x3e85e642	0.26152235
174	0x3ed0187a	0.40643674
175	0x3e80aa31	0.25129846
176	0x3d9e3f48	0.07726914
177	0xbd2da9de	-0.042398326
178	0x3e94134e	0.28920978
179	0x3e1b8154	0.15186054
180	0x3cdb2fd1	0.0267562
181	0xbdf39bf9	-0.11894984
182	0x3d576492	0.052586146
183	0xbe88a55d	-0.26688662
184	0xbe4179ec	-0.18894166
185	0xbd857041	-0.06515551
186	0xbeb3d0ce	-0.35120243
187	0x3e97083f	0.2949848
188	0xbe7b1bd4	-0.24522334
189	0x3da108a3	0.078629754
190	0x3e1e6175	0.15466864
191	0x3e91c9c7	0.28474256
192	0x3d526ccd	0.05137329
193	0xbe47d30a	-0.19514099
194	0xbd0fc087	-0.035095718
195	0xbc885593	-0.016642367
196	0xbe02a108	-0.12756741
197	0x3d9f3ca0	0.07775235
198	0xbdda3e45	-0.10656408
199	0x3dceea6b	0.101033054
200	0x3eac210a	0.33618957
201	0x3ebe3bce	0.37155002
202	0xbe188292	-0.14893559
203	0xbe255be9	-0.16148342
204	0x3ec7c569	0.390178
205	0x3ea24c5e	0.3169889
206	0x3e02a6ae	0.12758896
207	0xbe30c372	-0.17262056
208	0xbdc0aa98	-0.09407538
209	0x3e6f50bd	0.23370643
210	0x3d5d6d10	0.05405909
211	0x3cb31fd2	0.021865759
212	0x3ea8ed39	0.32993487
213	0x3d51c861	0.051216487
214	0xbe5b683b	-0.2142648
215	0xbe87a08f	-0.26489684
216	0xbec1f793	-0.37884197
217	0x3e0f8d38	0.14018714
218	0x3d8baf0c	0.06820497
219	0x3d9b06b5	0.07569639
220	0xbd30ecf0	-0.04319471
221	0xbe695c8f	-0.22789215
222	0x3ee61d9f	0.44944474
223	0x3eb6253f	0.35575292
224	0xbe00ce22	-0.12578633
225	0xbd8a4b85	-0.067526855
226	0x3e1dc312	0.15406445
227	0x3ee76838	0.451967
228	0xbc559654	-0.013036329
229	0x3e71f018	0.23626745
230	0xbdcc95b9	-0.09989495
231	0x3ea36737	0.31914684
232	0x3e982d66	0.29722136
233	0xbe58f10a	-0.21185699
234	0xbe250001	-0.16113283
235	0x3da16eda	0.078824714
236	0x3d82c209	0.063846655
237	0xbea2b351	-0.31777433
238	0x3e3852cf	0.18000339
239	0x3cdf2fdc	0.0272445
240	0x3ec10dc6	0.3770582
241	0x3da08e6c	0.07839665
242	0x3e3848f7	0.17996584
243	0xbeb01ef4	-0.34398615
244	0xbe494cac	-0.19658154
245	0x3e3b7dbf	0.18309687
246	0xbecd697a	-0.40119535
247	0x3e73d011	0.2380984
248	0x3d9fec5f	0.07808756
249	0xbe45320d	-0.19257374
250	0x3e9a85f1	0.30180314
251	0xbe98eedf	-0.29869744
252	0xbe0d7cc4	-0.13817126
253	0x3e8188ac	0.25299585
254	0x3be3fa05	0.006957295
255	0x3e9af8b2	0.30267864

shared.0.bias f4 [256]
0	0x3e3b9e5a	0.18322125
1	0xbe573c08	-0.21018994
2	0xbe81faa3	-0.25386533
3	0xbe3c3638	-0.18380058
4	0xbdd2518c	-0.1026946
5	0x3e6934d6	0.22774062
6	0x3e92a62e	0.2864241
7	0x3ea2ef97	0.31823418
8	0x3df1efa2	0.118132845
9	0xbeba7675	-0.364185
10	0xbb612e57	-0.0034359896
11	0x3e808410	0.25100756
12	0x3ef17f79	0.47167566
13	0x3db9cb2d	0.09071956
14	0xbe981f09	-0.29711178
15	0xbeba2740	-0.3635807
16	0x3e17258f	0.14760421
17	0x3bb00784	0.0053719897
18	0x3e6fd123	0.23419623
19	0x3ea1005e	0.31445593
20	0xbec60366	-0.38674468
21	0x3eb72015	0.35766664
22	0x3ce201df	0.027588783
23	0xbe9b11d6	-0.30287045
24	0xbe2e3892	-0.17013767
25	0x3ead2796	0.33819264
26	0xbd5a7823	-0.053337228
27	0xbe2724fc	-0.16322702
28	0x3edc938b	0.43081316
29	0xbe89b323	-0.26894483
30	0xbe927e68	-0.28612065
31	0xbeb09fc7	-0.344969
32	0x3e927e57	0.28612015
33	0x3e97b827	0.29632685
34	0x3ec13a3b	0.3773974
35	0xbe3a3118	-0.1818279
36	0x3ecca205	0.3996736
37	0x3d94e8cf	0.07270967
38	0xbe9daaa8	-0.30794263
39	0xbe28d594	-0.16487724
40	0x3e92a28c	0.28639638
41	0xbe0969a8	-0.13419211
42	0x3ed0d975	0.40790907
43	0xbe092360	-0.133924
44	0x3f0e7811	0.55651957
45	0x3e19b115	0.15008958
46	0xbe27c6d4	-0.1638444
47	0xbd974b58	-0.073874176
48	0x3cb398f3	0.021923518
49	0xbe631ea6	-0.2217966
50	0x3df795fa	0.12089153
51	0xbdf9ecdc	-0.122033805
52	0x3e3d41d2	0.1848214
53	0x3e3bc85e	0.18338153
54	0x3ce1b331	0.027551265
55	0xbe9f0331	-0.31057122
56	0x3eda6721	0.42656806
57	0x3dee1624	0.11625317
58	0x3cd2a57d	0.025713677
59	0x3ea2465e	0.3169431
60	0x3f07f17e	0.5310286
61	0xbdc36483	-0.095406555
62	0x3ee396d3	0.44451007
63	0x3e87af98	0.26501155
64	0xbe271ee0	-0.16320372
65	0x3d81eda6	0.06344156
66	0x3eb31ad2	0.349814
67	0x3eba0681	0.36333087
68	0x3ecf9978	0.40546775
69	0x3e2fcb54	0.17167407
70	0x3ef37114	0.4754721
71	0x3edec096	0.43506306
72	0x3e86af58	0.26305652
73	0xbed94ce3	-0.42441472
74	0xbdafd122	-0.08584811
75	0x3ebf4470	0.373569
76	0x3db905c8	0.09034306
77	0xbe9b168c	-0.3029064
78	0x3e4ba3cc	0.19886702
79	0xbe07af9d	-0.13250585
80	0xbe9d92b7	-0.30775997
81	0x3ee605d0	0.4492631
82	0x3e45fd1b	0.19334833
83	0xbe4cb2e3	-0.19990115
84	0x3e730946	0.23734006
85	0x3ebda88e	0.3704266
86	0xbce8e85a	-0.028431106
87	0x3d9487e2	0.0725248
88	0xbe142e9c	-0.14470905
89	0xbd425749	-0.047446523
90	0x3dfd3f82	0.12365629
91	0xbdfe6568	-0.124216855
92	0x3e5435b2	0.20723608
93	0x3dd0f970	0.102038264
94	0x3eb49d44	0.35276234
95	0x3e3b81f0	0.18311286
96	0x3e979314	0.296044
97	0xbdd0a43e	-0.10187577
98	0xbe831d99	-0.2560852
99	0xbd30ccf4	-0.04316421
100	0x3e06acf4	0.13151914
101	0xbe35fe2a	-0.17772737
102	0x3ead86a4	0.33891785
103	0x3eaa77e0	0.33294582
104	0x3edc0da7	0.42979166
105	0xbda7332a	-0.08164056
106	0x3ecb9c72	0.39767796
107	0xbea93cf7	-0.33054325
108	0xbd59bc17	-0.053157892
109	0xbecd5dd4	-0.40110648
110	0xbec6bc45	-0.38815513
111	0xbc90516e	-0.017616954
112	0xbe5a1d05	-0.21300133
113	0xbe0e4dfd	-0.13896938
114	0x3d5b572c	0.05354993
115	0x3ebd0815	0.3692023
116	0x3ef3d4e9	0.47623375
117	0xbe95841e	-0.2920236
118	0x3cc57e4f	0.02410808
119	0xbedeb8d7	-0.43500397
120	0xbecfe4b5	-0.40604177
121	0xbe8499c7	-0.25898573
122	0x3e4e3f81	0.20141412
123	0x3e9dc2a5	0.30812564
124	0xbe80f668	-0.25187993
125	0xbea19801	-0.31561282
126	0xbe95bec6	-0.2924711
127	0x3ed5507e	0.41662973
128	0x3e90b96d	0.2826647
129	0xbe742891	-0.238436
130	0x3ea9e481	0.33182147
131	0x3bec1eda	0.007205826
132	0x3dee6dd4	0.11642042
133	0xbe978700	-0.29595184
134	0x3e46f24f	0.19428371
135	0xbe96de34	-0.29466403
136	0xbe608d95	-0.2192901
137	0xbe36fe5e	-0.17870471
138	0x3df6d528	0.12052375
139	0x3e2887a9	0.16458
140	0x3af06dc2	0.0018343257
141	0xbbcae6dc	-0.0061920714
142	0xbe206ab5	-0.15665706
143	0x3e9d69d8	0.30744815
144	0x3ec9aad8	0.39388156
145	0xbedcb232	-0.43104702
146	0x3e8b1a90	0.27168703
147	0x3e05017f	0.12988852
148	0x3e6e9747	0.23299895
149	0x3e9a83cc	0.30178678
150	0x3d5735de	0.052541606
151	0x3eb0aacc	0.34505308
152	0xbe070797	-0.13186489
153	0xbe9d6037	-0.3073747
154	0x3df9c1af	0.12195145
155	0x3ea80ac9	0.32820728
156	0x3e8290eb	0.2550119
157	0x3e3c2f8f	0.18377517
158	0x3cd45dae	0.025923576
159	0x3ea64079	0.32471064
160	0xbed9de53	-0.42552432
161	0xbe7b2c19	-0.2452854
162	0x3e72da18	0.23716009
163	0x3ee71ee8	0.45140767
164	0x3df6a06c	0.12042317
165	0xbe619d00	-0.22032547
166	0x3ed40a4e	0.41414112
167	0x3d52d388	0.051471263
168	0x3eb005bb	0.34379372
169	0x3e3dd94b	0.18539922
170	0x3ea7c0de	0.32764333
171	0x3e5418a2	0.20712522
172	0xbe7552d4	-0.23957378
173	0xbec2ec83	-0.3807107
174	0x3e8b3a41	0.27192882
175	0x3ecf52d2	0.40492874
176	0x3e56ab81	0.20963861
177	0xbd96dc44	-0.07366231
178	0x3e5df8e6	0.21676978
179	0xbe4b4aec	-0.19852799
180	0x3da3313c	0.07968375
181	0xbe2ee09b	-0.17077868
182	0xbe643d0f	-0.22288917
183	0x3f126b65	0.5719512
184	0xbd6ee951	-0.058327977
185	0xbec70422	-0.3887034
186	0x3a369acf	0.00069658173
187	0x3dd01fad	0.10162292
188	0xbe207744	-0.15670496
189	0xbe3d7044	-0.18499857
190	0xbe0c9f31	-0.13732602
191	0x3e76894e	0.24075815
192	0xbe539b85	-0.20664795
193	0xbebcb707	-0.3685839
194	0x3eda36c0	0.42619896
195	0x3ed50bc2	0.41610533
196	0x3e9d78d8	0.3075626
197	0xbd9106d9	-0.07081384
198	0x3e4da6e3	0.20083193
199	0x3ef0ec4d	0.47055283
200	0xbe3a5b4f	-0.18198894
201	0xbeba4220	-0.36378574
202	0xbda84d08	-0.082178175
203	0xbe86b913	-0.26313075
204	0xbe712384	-0.23548704
205	0xbe8ec3af	-0.2788367
206	0xbe5140d0	-0.2043488
207	0xbe96054c	-0.29300916
208	0xbeb215ff	-0.34782407
209	0x3e605fe2	0.21911576
210	0xbe885768	-0.26629186
211	0x3e8327ad	0.25616208
212	0x3cb396ed	0.021922553
213	0x3d3e6493	0.046482634
214	0x3f046cc5	0.5172847
215	0xbe02ba0d	-0.12766285
216	0x3e1c03ed	0.15235873
217	0x3cfabc18	0.030607268
218	0xbedbafdc	-0.42907608
219	0xbece6ac0	-0.4031582
220	0x3eecf177	0.46277973
221	0x3db9da8c	0.09074888
222	0xbe664f69	-0.2249123
223	0x3ee2c4ff	0.4429092
224	0x3e77002c	0.2412116
225	0xbe358dc5	-0.17729862
226	0xbe16d042	-0.14727882
227	0xbeabb729	-0.33538178
228	0xbeb58fd9	-0.3546131
229	0x3dbdade7	0.09261685
230	0x3efad3cf	0.48989722
231	0x3e760a9f	0.24027489
232	0x3f0b7923	0.54481715
233	0xbeb92172	-0.3615833
234	0xbe7da92a	-0.24771562
235	0x3ead1413	0.33804378
236	0xbee32138	-0.4436128
237	0xbdf55c4c	-0.11980495
238	0x3bdffce2	0.006835566
239	0x3f02bfb9	0.51073796
240	0xbe873bb8	-0.2641275
241	0x3da801ee	0.08203493
242	0x3d89c1eb	0.0672644
243	0x3e0ecd8e	0.139456
244	0xbd990b48	-0.07472855
245	0x3e1f22b8	0.15540588
246	0x3e10c65f	0.14138173
247	0xbe86c2d6	-0.26320523
248	0x3e83931a	0.25698167
249	0x3e18c323	0.14918189
250	0x3d19b3b0	0.03752488
251	0x3ee49c59	0.44650534
252	0xbed56445	-0.41678062
253	0x3e6ef49d	0.233355
254	0xbb1dad2e	-0.0024059522
255	0x3ea3b09d	0.31970683

shared.2.weight f4 [256, 256]
0	0x3b6e3de5	0.003635281
1	0xbd2bd7c8	-0.041953832
2	0xbc8a886c	-0.016910754
3	0xbd034a5b	-0.032053333
4	0x3cb12179	0.021622406
5	0x3e245b64	0.16050488
6	0x3dc78498	0.09742087
7	0x3d345c53	0.04403336
8	0xbd50bab8	-0.05095932
9	0x3be08dbe	0.0068528345
10	0x3c6a9056	0.014316639
11	0x3c5247fb	0.012834544
12	0x3dbcb7af	0.09214722
13	0xbca4c638	-0.02011405
14	0xbd97f9fa	-0.07420726
15	0xbcb60b48	-0.022222176
16	0x3d5996df	0.053122398
17	0x3d358105	0.044312496
18	0xbd0215ce	-0.031759076
19	0xbcb8b649	-0.022547858
20	0xbdc4b54f	-0.09604894
21	0x3da930d3	0.082612656
22	0x3d89f42a	0.06736024
23	0xbd16e7d4	-0.036842182
24	0xbd182104	-0.03714086
25	0xbc172f8b	-0.009227644
26	0xbd7db578	-0.06194064
27	0xbd9616a3	-0.07328536
28	0x3d63597d	0.055505265
29	0xbd0841fd	-0.033266056
30	0xbd494be9	-0.04914466
31	0xbd95539d	-0.072913386
32	0xbd58b678	-0.05290839
33	0x3cc63419	0.024194764
34	0xbd34f348	-0.044177324
35	0x3d806077	0.06268399
36	0xbd0e73cb	-0.034778398
37	0x3d1fb279	0.038988564
38	0x3bb730fd	0.0055905567
39	0xbc9a8be2	-0.01886553
40	0x3cfc0cde	0.030767854
41	0xbbf2e44d	-0.0074124695
42	0x3ccd7f01	0.025084974
43	0xbcdca1f5	-0.026932696
44	0x3e408392	0.1880019
45	0xbd084e81	-0.033277992
46	0xbd2067e2	-0.03916157
47	0x3d60d897	0.054894056
48	0x3d56b87e	0.05242204
49	0x3d463a03	0.048395168
50	0xbcb7723c	-0.022393338
51	0x3bb059a3	0.0053817793
52	0xbb3c01a8	-0.002868751
53	0x3d930f42	0.071806446
54	0xbc3eda8b	-0.011648784
55	0xbdacd596	-0.08439176
56	0x3d97aa19	0.074054904
57	0x3d84b6b2	0.06480159
58	0x3c4e7baf	0.012602731
59	0x3d3caa6f	0.046060976
60	0x3dcebcc9	0.10094602
61	0x3b380441	0.0028078707
62	0x3d58fcaa	0.052975334
63	0x3d24dc02	0.04024888
64	0xbba742c9	-0.005104397
65	0x3bdd7f12	0.0067595327
66	0x3d0fd830	0.03511828
67	0x3d88cde1	0.06679893
68	0x3dbb2c8b	0.09139355
69	0xbbbb938c	-0.005724376
70	0x3e0649ab	0.1311404
71	0x3d87dbc9	0.066337176
72	0xbaf58f5a	-0.0018734739
73	0x3c4e2867	0.012582875
74	0x3d7b20fc	0.061310753
75	0x3c8d3591	0.017237457
76	0xbc1eb560	-0.009686798
77	0xbd4a9a6f	-0.049463686
78	0x3cc36707	0.023852838
79	0x3c650860	0.013979048
80	0xbd558659	-0.052130077
81	0x3d8b2cb8	0.06795639
82	0x3d7a7485	0.061146278
83	0xbd205261	-0.039141063
84	0x3d72bc32	0.05926151
85	0x3d9fbf17	0.07800119
86	0x3cb8fc8c	0.022581361
87	0x3d571193	0.052506994
88	0x3d804f50	0.06265128
89	0xbca88d3d	-0.02057516
90	0xbc44fc67	-0.012023068
91	0x3c40a5a3	0.011758241
92	0xbab7518a	-0.0013986093
93	0x3cec5ef6	0.028853875
94	0x3d998bb5	0.0749735
95	0xbc623e73	-0.013808834
96	0x3d366487	0.044529464
97	0xbc000402	-0.007813456
98	0xbd03a8a2	-0.032143243
99	0x3c45fd0a	0.012084255
100	0xbb60a4ff	-0.0034278033
101	0x3d4d3703	0.05010129
102	0xbc2b6782	-0.01046169
103	0xbcf4762e	-0.029841509
104	0x3d7bb68a	0.06145338
105	0xbdae6d03	-0.08516886
106	0xbc49aa8f	-0.012308731
107	0xbd921f29	-0.071348496
108	0x3ced772b	0.028987488
109	0xbd10c25d	-0.03534161
110	0xbe07dd25	-0.13267954
111	0x3d29b33e	0.041430704
112	0x3c4707fa	0.012147898
113	0x3cd32b47	0.025777472
114	0x3d9c4580	0.076304436
115	0xbd022eb2	-0.031782813
116	0x3dce7397	0.10080641
117	0xbbab1fec	-0.0052223112
118	0x3cc3663d	0.023852462
119	0x3d884883	0.066544555
120	0xbd6fcffb	-0.058547955
121	0xbd1ff7de	-0.039054744
122	0x3dac5e2e	0.08416401
123	0x3e00a2f8	0.12562168
124	0x3d161bdb	0.03664766
125	0xbd93c13f	-0.07214593
126	0xbca1b24d	-0.01973834
127	0x3dab5c04	0.0836716
128	0x3d2d8420	0.042362332
129	0x3d5c2ba9	0.053752575
130	0x3da7bad9	0.08189935
131	0x3b8e8130	0.0043488964
132	0x3d07677c	0.033057675
133	0x3b85734a	0.0040725814
134	0xbc9488a8	-0.018131569
135	0x3d3f9e28	0.04678169
136	0xbcaa636a	-0.020799357
137	0x3d8cb630	0.06870687
138	0x3d151191	0.036393706
139	0x3d13f7cc	0.03612499
140	0x3d1a862a	0.037725605
141	0xbca87c4c	-0.020567082
142	0xbcb5fe74	-0.02221606
143	0xbcd97cec	-0.026548825
144	0xbc03db3f	-0.008047878
145	0xbd53128f	-0.05153137
146	0x3d678cc9	0.056530748
147	0x3ccadb05	0.02476264
148	0x3d48b647	0.04900196
149	0x3d9c96d1	0.076459534
150	0xbc258d75	-0.010104527
151	0x3cc270d7	0.023735447
152	0x3c103609	0.0088019455
153	0xbd500f97	-0.050796118
154	0x3c92dcdc	0.01792758
155	0x3c3aff9f	0.011413484
156	0x3dab1916	0.08354394
157	0xbc5095f0	-0.01273106
158	0xbc6706d8	-0.014100753
159	0xbc9991fe	-0.018746372
160	0xbd9d6cf3	-0.07686796
161	0xbca08b78	-0.019597754
162	0xbb8f7f6e	-0.0043792045
163	0x3e027d15	0.12743028
164	0x3d8573fc	0.06516263
165	0xbd4c1d58	-0.049832672
166	0xbc4dcb5f	-0.0125606945
167	0xbce2b154	-0.027672447
168	0x3d80580e	0.06266795
169	0x3d4e1688	0.050314456
170	0xbcf2633a	-0.02958833
171	0xbba3af3e	-0.0049952557
172	0xbd15b497	-0.036549177
173	0xbd7c32c5	-0.061571855
174	0xbb2dbec7	-0.0026511417
175	0x3e37a361	0.17933418
176	0x3cdc70b5	0.026909212
177	0x3cebc65c	0.028781109
178	0x3d8709bc	0.065936536
179	0xbd23615b	-0.039887767
180	0x3d4a5ac3	0.049402963
181	0x3c7f06e3	0.015565607
182	0x3e2b78a1	0.16745235
183	0x3da63211	0.08115018
184	0xbd0995c0	-0.03359008
185	0xbcd4d0cb	-0.025978466
186	0x3abf5400	0.0014597178
187	0xbcd84a09	-0.02640249
188	0x3c6d3755	0.014478524
189	0xbcd09eac	-0.025466286
190	0x3c0c7cb4	0.008574653
191	0x3dba21b6	0.09088461
192	0xbd33d141	-0.043900732
193	0xbd59aa21	-0.053140763
194	0x3c4d7c47	0.012541837
195	0xbca8ac62	-0.020590011
196	0x3d8ef7b6	0.06980841
197	0x3c93a2ae	0.018021908
198	0x3c8fec89	0.017568843
199	0x3d24ccda	0.040234424
200	0xbc7046c4	-0.014665309
201	0xbd263e61	-0.040586833
202	0xbd842cb5	-0.0645384
203	0x3b07aa81	0.0020700993
204	0xbd87f45d	-0.066384055
205	0x3d57b122	0.05265916
206	0x3cd10dd6	0.025519293
207	0x3c352b5f	0.011057704
208	0xbda70533	-0.081552885
209	0x3d2d1e1f	0.042265054
210	0xbd41f67f	-0.047354218
211	0x3d0955e5	0.03352918
212	0x3d4725cc	0.04862003
213	0xbd40ddec	-0.04708664
214	0x3c43d7be	0.011953292
215	0xbc1ef4b8	-0.0097019
216	0x3d062a3b	0.032755118
217	0x3cf901b1	0.030396314
218	0x3cc979aa	0.024594147
219	0xbda4d55e	-0.08048509
220	0x3daa5f78	0.083189905
221	0x3d5c77fb	0.05382536
222	0x3d15cf6d	0.03657477
223	0x3d09cb71	0.033641282
224	0x3cdb5687	0.026774658
225	0x3d1469c0	0.036233664
226	0xbc519270	-0.012791261
227	0x3c9f82b0	0.019471496
228	0xbd5de13d	-0.054169882
229	0xbc70c2c0	-0.0146948695
230	0x3dd38d02	0.103296295
231	0xbc93ee53	-0.018057978
232	0x3dcc5877	0.09977811
233	0x3cd42f2a	0.025901396
234	0xbd9f5e14	-0.07781616
235	0x3d772e20	0.060346723
236	0xbd7e1e37	-0.062040534
237	0xbd2f856d	-0.042851854
238	0x3d0159ff	0.031579968
239	0xbad4b18c	-0.001622723
240	0xbd37e349	-0.04489449
241	0x3cbaf5aa	0.02282222
242	0x3d70fc1e	0.058834188
243	0xbc9bc898	-0.019016549
244	0x3d9628bd	0.07331989
245	0x3cb630f1	0.022240134
246	0x39eeffaa	0.00045585382
247	0xbc769d86	-0.015052205
248	0x3d4f0363	0.05054034
249	0x3d462a6f	0.04838031
250	0xbd27e9c1	-0.04099441
251	0x3c289cdf	0.010291307
252	0xbd6b1389	-0.057391677
253	0xbd854379	-0.0650701
254	0x3d891d6b	0.06695064
255	0x3d80af1d	0.062834

shared.2.bias f4 [256]
0	0x3df4e325	0.11957387
1	0x3cec32b3	0.028832769
2	0x3e187910	0.14889932
3	0x3c5c2c83	0.013438347
4	0x3dee2744	0.11628583
5	0x3df9a3a4	0.12189415
6	0xbe891770	-0.26775694
7	0x3e10c983	0.1413937
8	0x3ce5222f	0.027970402
9	0x3e715e2b	0.23571078
10	0x3e3924b4	0.18080407
11	0x3c8f4515	0.017488996
12	0x3e2578e6	0.161594
13	0x3e66aaec	0.22526139
14	0x3e1fecff	0.1561775
15	0x3e5468f6	0.20743164
16	0x3e5d7f2d	0.21630545
17	0x3e745f0b	0.23864381
18	0xbcb71f98	-0.022353932
19	0x3dd78a74	0.10524455
20	0x3e802396	0.2502715
21	0x3e580c4d	0.21098442
22	0xbcc5436f	-0.024080006
23	0xbd42612d	-0.047455955
24	0x3cc78486	0.024355184
25	0x3c5c45d4	0.013444383
26	0xbd0a6206	-0.03378489
27	0xbdc63385	-0.09677795
28	0x3e45299e	0.19254157
29	0xbcd9f764	-0.026607223
30	0x3e09450c	0.13405246
31	0x3d0aacf3	0.033856343
32	0xbe457dd5	-0.19286282
33	0xbd5b400e	-0.053527884
34	0x3e4a0ca8	0.1973139
35	0x3e155234	0.14582139
36	0x3e4b8526	0.19875011
37	0x3e5d8bd8	0.21635377
38	0x3e70c898	0.2351402
39	0xbcaabbb4	-0.020841457
40	0xbcb1c374	-0.021699645
41	0x3e33d9c0	0.17563534
42	0x3e2a6cce	0.16643068
43	0xba999da2	-0.0011719952
44	0xbe38d191	-0.18048693
45	0x3de450ba	0.1114821
46	0x3e24695d	0.16055818
47	0xbdd46f82	-0.10372831
48	0x3e1e713f	0.15472887
49	0x3dfc8126	0.123293206
50	0x3e5929f9	0.21207418
51	0xbde70630	-0.11280477
52	0x3a909568	0.0011030855
53	0x3df31edb	0.118711196
54	0x3e1bf724	0.15230995
55	0x3e57934d	0.21052285
56	0x3e743c26	0.2385107
57	0x3e2b6c09	0.16740431
58	0x3e3fc424	0.18727165
59	0x3e6458d9	0.22299518
60	0x3de3f632	0.111309424
61	0x3e4b6447	0.19862472
62	0x3e4c2f4d	0.19939919
63	0xbce6e5c8	-0.02818574
64	0xbda5215a	-0.08063002
65	0x3e1b614e	0.15173838
66	0x3e33d70e	0.17562506
67	0x3e522798	0.20522916
68	0x3e5db7fc	0.21652216
69	0x3ce72899	0.0282176
70	0x3e29ad7f	0.1657009
71	0x3e4ea6c6	0.20180807
72	0x3e5d1aa8	0.215922
73	0x3e47ea43	0.19522958
74	0x3e4f25d9	0.20229281
75	0x3e101bac	0.14073056
76	0x3e1edace	0.15513155
77	0xbc9decc1	-0.019277932
78	0xbc8803a3	-0.016603297
79	0xbcb900f9	-0.022583472
80	0x3e2de4b7	0.16981779
81	0xbe026e0a	-0.12737289
82	0xbd09fd83	-0.033689033
83	0xbc8af26f	-0.016961304
84	0xbe3e4d9c	-0.18584293
85	0x3e339015	0.17535432
86	0x3e6d52e8	0.23176157
87	0xbc281979	-0.010259979
88	0x3d00e1c4	0.031465307
89	0x3e155adc	0.14585441
90	0x3e24ada6	0.16081867
91	0x3e4a3489	0.19746603
92	0xbc44fee5	-0.012023662
93	0x3e3aefe0	0.18255568
94	0x3e435ce4	0.19078404
95	0x3df3010a	0.118654326
96	0x3e3aa959	0.18228664
97	0x3b9c63b6	0.0047726287
98	0xbd252b7d	-0.040324677
99	0x3ddc61ad	0.10760818
100	0x3de4d07c	0.11172578
101	0x3e1c73be	0.15278527
102	0xbe8cde34	-0.27513278
103	0x3e08de48	0.13366044
104	0x3e37ece1	0.17961456
105	0x3b8e571d	0.004343881
106	0xbe6cd94c	-0.23129767
107	0x3e481402	0.19538882
108	0xbddecedf	-0.10879301
109	0xbc1d50f1	-0.0096018175
110	0x3e5fb474	0.21846181
111	0x3e0cf4c5	0.13765247
112	0x3defddbe	0.11712216
113	0x3cb19b33	0.02168045
114	0x3e1af5db	0.15132849
115	0x3ce2b5fd	0.02767467
116	0xbe4d6c7f	-0.20060919
117	0x3d91d0e9	0.071199246
118	0x3dfdcba3	0.12392356
119	0xbdf4ae65	-0.119473256
120	0x3e44f163	0.19232707
121	0x3d7b6eae	0.06138485
122	0x3e228bc6	0.15873632
123	0x3e0ff033	0.14056472
124	0x3e3a9f92	0.18224934
125	0x3e0f2a9b	0.13981096
126	0x3e46233e	0.19349381
127	0x3e1fa74e	0.15591165
128	0x3bb298be	0.005450337
129	0x3e74932d	0.23884268
130	0x3e4cc5a8	0.19997275
131	0xbd13115a	-0.03590522
132	0xbd473728	-0.048636585
133	0xbdf5ba67	-0.11998444
134	0xbca94782	-0.02066398
135	0x3e1aabcc	0.15104598
136	0x3e376a55	0.17911656
137	0x3d6902c0	0.05688739
138	0x3e288be5	0.16459616
139	0x3e4ee135	0.20203097
140	0xbde2f75a	-0.11082335
141	0xbd61ac43	-0.055095922
142	0x3e4287c7	0.18997107
143	0x3e0247b6	0.12722668
144	0xbd576775	-0.0525889
145	0x3e72dab3	0.2371624
146	0xbd536043	-0.051605474
147	0x3e453201	0.19257356
148	0xbda46027	-0.08026152
149	0x3e09d9fb	0.13462059
150	0x3e6689b4	0.22513467
151	0x3e1cd528	0.15315688
152	0x3e39d6f2	0.18148401
153	0x3d8a463f	0.0675168
154	0x3beabf14	0.0071638916
155	0x3e03b881	0.12863351
156	0xbe57c58f	-0.21071456
157	0x3c437340	0.011929333
158	0xbc3cb86c	-0.011518579
159	0x3e16ee5a	0.14739361
160	0x3e536b7d	0.20646472
161	0xbd109e10	-0.03530699
162	0x3e01364c	0.12618369
163	0xbd311093	-0.043228697
164	0x3e2b403d	0.16723724
165	0x3e7835d0	0.24239278
166	0xbe23f39a	-0.16010895
167	0x3a8bf15c	0.0010676789
168	0xbe04195e	-0.12900302
169	0x3d158df7	0.03651234
170	0x3e7256f9	0.2366599
171	0xbd36bea5	-0.044615407
172	0x3e241542	0.16023734
173	0x3e659492	0.22419956
174	0x3cf7f184	0.03026653
175	0xbd7874fa	-0.060658433
176	0x3e04b4cc	0.12959594
177	0x3e1a2876	0.15054497
178	0x3e08f45e	0.13374469
179	0x3e233b4d	0.1594059
180	0x3e69aed0	0.22820592
181	0x3e35a92a	0.17740312
182	0xbb6b4e78	-0.0035904925
183	0x3e26b57b	0.16280167
184	0xbd0c6d05	-0.034283657
185	0x3e1532ce	0.14570162
186	0xbc27cea0	-0.010242134
187	0xbc75b480	-0.014996648
188	0xbcce46f5	-0.02518032
189	0x3e282124	0.16418892
190	0x3e17a811	0.14810206
191	0xbd4aa750	-0.049475968
192	0xbcd4650f	-0.025927095
193	0x3b2ddecb	0.00265305
194	0x3e27faf3	0.16404323
195	0x3e5fac1d	0.21843
196	0x3e582c44	0.21110636
197	0x3e3a8fb3	0.1821888
198	0x3e309c55	0.17247136
199	0x3d19e2a6	0.037569664
200	0xbd27429c	-0.040835008
201	0x3e119195	0.14215691
202	0x3e2f9228	0.17145598
203	0x3e4f991e	0.20273253
204	0x3e539b8a	0.20664802
205	0x3e5ff103	0.21869282
206	0x3e252452	0.16127136
207	0x3e0161f4	0.12635022
208	0x3e705f55	0.23473866
209	0x3e1ed3ba	0.15510455
210	0x3e5c84f1	0.21535088
211	0x3e1945ca	0.14968029
212	0x3d3a396a	0.04546491
213	0x3de6c916	0.11268823
214	0x3e66f755	0.22555287
215	0x3e52eade	0.20597407
216	0xbd36e2a7	-0.044649746
217	0x3e5a7262	0.21332696
218	0x3e2ee718	0.17080343
219	0x3d98977b	0.074507676
220	0x3e20538a	0.15656868
221	0x3e752a20	0.2394185
222	0x3d91bd55	0.0711619
223	0x3e35e871	0.1776445
224	0x3e282e1c	0.1642384
225	0x3e38a539	0.18031777
226	0xbd5be2e4	-0.053683177
227	0x3d1b51b1	0.037919704
228	0x3e4820e1	0.19543792
229	0x3e10029d	0.14063497
230	0x3e035e34	0.12828904
231	0x3e17ee86	0.14837083
232	0x3e25daef	0.16196798
233	0x3e6aaf54	0.22918445
234	0xbd33892c	-0.04383199
235	0xbe36001f	-0.17773484
236	0x3c9d5451	0.019205244
237	0x3c9736cc	0.018458746
238	0x3e0bea7c	0.13663667
239	0xbe681e83	-0.2266789
240	0x3a70e1fe	0.0009188949
241	0x3e1c19f5	0.15244277
242	0xbe4acec2	-0.19805434
243	0xbe2553f7	-0.16145311
244	0x3c2708ef	0.010195001
245	0xbdff3506	-0.12461285
246	0x3e45e762	0.19326547
247	0x3e1e7d59	0.15477504
248	0x3df9690e	0.12178241
249	0x3deaec7d	0.11470888
250	0x3e0b725c	0.13617843
251	0xbdeaa9a8	-0.114581406
252	0x3e2b85ee	0.16750309
253	0x3e1c2a1b	0.15250437
254	0x3e79f7c8	0.24410927
255	0xbcfd68c9	-0.030933755

actor.weight f4 [3, 256]
0	0x3d4e8450	0.05041915
1	0xbcc8fcb6	-0.024534564
2	0x3c07f04c	0.008297037
3	0xbd101cb9	-0.035183642
4	0xbd7ca0bd	-0.06167673
5	0xbd73bca2	-0.059506066
6	0xbd8a2ec7	-0.06747203
7	0xbcc0be51	-0.02352825
8	0x3d0c6d69	0.03428403
9	0x3d34ed96	0.044171892
10	0x3d6690eb	0.05629055
11	0xbc892f10	-0.016746074
12	0x3d5dc99f	0.05414736
13	0xbb8c1441	-0.0042748754
14	0x3c8f261f	0.017474232
15	0x3ba45a3f	0.005015641
16	0x3dbca9d0	0.09212077
17	0x3cb9be3c	0.022673719
18	0x3c222e48	0.00989873
19	0xbc16ffbc	-0.009216245
20	0x3d289463	0.041157138
21	0x3d151951	0.036401097
22	0xbde5cc60	-0.11220622
23	0xbcd3c8ad	-0.025852526
24	0xbba07429	-0.00489666
25	0x3c8d7148	0.01726593
26	0x3cfb1d85	0.030653724
27	0xbdbcb663	-0.09214475
28	0xbd6f95c5	-0.05849244
29	0x3c3bc6b8	0.011460952
30	0xbda3b948	-0.07994324
31	0xbbafeeee	-0.005369059
32	0x3c92da32	0.01792631
33	0xbc9260a6	-0.017868351
34	0x3d97a059	0.07403631
35	0xbad19177	-0.0015988786
36	0x3d98c4b5	0.07459394
37	0xbd2dcae5	-0.042429823
38	0xbd814dfa	-0.06313701
39	0xbc916e6f	-0.017752854
40	0x3d2795ec	0.04091446
41	0x3d53d349	0.05171517
42	0x3d01b7fb	0.031669598
43	0x3d22249a	0.039585687
44	0x3c33507a	0.01094448
45	0xbce2a0a0	-0.027664483
46	0x3d15f106	0.03660681
47	0x3de06986	0.10957627
48	0xbc818a5d	-0.015813047
49	0xb7ae3cb0	-2.0770676e-05
50	0xbd81c568	-0.063364804
51	0xbbc7da6b	-0.0060990355
52	0x3d020880	0.031746387
53	0x3df64e9c	0.12026712
54	0x3d962287	0.07330804
55	0x3c6d1e5e	0.014472572
56	0xbd892d43	-0.06698086
57	0x3d32f45f	0.04369008
58	0x3d2757d2	0.040855236
59	0x3c2cc0f6	0.010544052
60	0x3d20eb11	0.039286677
61	0x3d9dee31	0.07711447
62	0xbd723c93	-0.0591398
63	0xbd794809	-0.060859714
64	0xbdf8f97c	-0.1215696
65	0xbcc67833	-0.024227237
66	0xbc11318c	-0.008861911
67	0x3ccc97ac	0.024974667
68	0x3c1ff623	0.009763273
69	0xbba7c14a	-0.0051194774
70	0x3d47806b	0.048706453
71	0x3da64da4	0.081202775
72	0xbdabce39	-0.08388943
73	0x3ada25e0	0.0016643368
74	0xbc3c0ed8	-0.011478148
75	0x3c2ab6a8	0.010419525
76	0x3bf1145c	0.0073571634
77	0x3b4c85c8	0.003120767
78	0x3cb97761	0.022639932
79	0x3db2a0e6	0.08722095
80	0xbd59509b	-0.053055387
81	0x3c1da091	0.009620802
82	0xbd04709a	-0.032333948
83	0x3d371e20	0.044706464
84	0x3b801a95	0.003909419
85	0x3d8ef1ac	0.06979689
86	0x3d89c519	0.067270465
87	0x3d4c4510	0.04987055
88	0xbd2285ab	-0.039678257
89	0x3d8235f8	0.0635795
90	0xbc2fdccf	-0.010733797
91	0x3d139d4e	0.03603869
92	0x3cc388de	0.023868974
93	0x3b256d44	0.002524213
94	0xbd2cec2e	-0.042217426
95	0xbcdb24a5	-0.026750872
96	0xbca602e9	-0.02026506
97	0xbc8fa7e4	-0.017536111
98	0x3d5ebb39	0.05437777
99	0x3c302084	0.01074994
100	0x3d754a19	0.05988512
101	0x3d1570c7	0.036484506
102	0xbcca09fe	-0.024662968
103	0x3cc301c7	0.023804558
104	0xbd1149c6	-0.035470746
105	0x3ce81876	0.028331976
106	0xbd32ae4c	-0.043623254
107	0xbd94a539	-0.07258076
108	0xbdc2fbc2	-0.09520675
109	0xbbca9bc3	-0.006183119
110	0x3d957e4e	0.07299481
111	0xbcc60e4f	-0.024176745
112	0x3d1efa44	0.03881289
113	0x3d4ba689	0.049719367
114	0x3d71a4e0	0.058995128
115	0xbcd7f981	-0.02636409
116	0x3da6b3de	0.08139776
117	0x3c4f9f9f	0.012672334
118	0xbcd49d5d	-0.025953943
119	0x3c245402	0.010029795
120	0x3d4784fa	0.0487108
121	0x3c92ea00	0.017933846
122	0x3b74fee4	0.0037383372
123	0xbd0e5d37	-0.034756865
124	0x3d4ccce8	0.0500001
125	0xbcd4afd4	-0.025962748
126	0xbd270957	-0.04078039
127	0x3daba8d6	0.08381812
128	0x3ca5e3a4	0.02025015
129	0x3c3e8af1	0.011629806
130	0xbca08599	-0.019594954
131	0x3d2e3840	0.042534113
132	0xbd5b9910	-0.05361277
133	0x3cc29790	0.023753911
134	0x3d092425	0.033481736
135	0xbc08319a	-0.008312607
136	0x3d952385	0.072821654
137	0xbe09dd30	-0.13463283
138	0xbcf407c6	-0.029788863
139	0xbd8a34d8	-0.067483604
140	0x3d9628fb	0.07332035
141	0xbd571690	-0.05251175
142	0x3c91dfd1	0.01780692
143	0x3bc918a4	0.0061369706
144	0x3c12c61b	0.008958365
145	0x3ccc62cf	0.02494946
146	0x3cdfe5ce	0.02733126
147	0x3b5bd8be	0.0033545936
148	0x3cb7dfbf	0.022445558
149	0xbb0c0075	-0.0021362577
150	0x3c2f47d6	0.010698279
151	0xbc3fe011	-0.011711136
152	0x3d4074d6	0.046986423
153	0xbd7e7b21	-0.062129144
154	0xbd5c627c	-0.05380486
155	0xbb3a2ed0	-0.002840925
156	0x3c55d12f	0.013050362
157	0xbcba4468	-0.022737697
158	0x3c672825	0.014108692
159	0x3b95f101	0.004575849
160	0x3b55ea09	0.0032640717
161	0x3d727d41	0.059201483
162	0xbdad264a	-0.08454569
163	0x3d6c640f	0.05771261
164	0xbca47ff2	-0.02008054
165	0x3d0df8e4	0.03466119
166	0xbd819d71	-0.06328858
167	0x3c97545d	0.018472845
168	0x3de9663a	0.11396451
169	0x3c9be3fe	0.019029614
170	0x3d50ff74	0.05102487
171	0xbc8a9cbd	-0.016920442
172	0x3cffb815	0.031215707
173	0xbcb9863e	-0.02264702
174	0xbc853c0b	-0.016263982
175	0x3bfa08d0	0.007630445
176	0xbd037b62	-0.03210009
177	0x3d4a7d69	0.049436007
178	0x3dc5cded	0.09658418
179	0xbd0b710a	-0.03404335
180	0x3c8efe25	0.01745517
181	0xbdbd6f56	-0.09249751
182	0xbd1b1df5	-0.037870366
183	0x3afd8bd7	0.0019344044
184	0xbd08655a	-0.03329978
185	0xbdb77b3e	-0.089590535
186	0xbc0fb654	-0.008771498
187	0x3d579916	0.05263623
188	0x3d773173	0.060349893
189	0x3c47749d	0.012173799
190	0x3dd5499d	0.10414431
191	0xbcf16fd0	-0.029472262
192	0x3ca704ce	0.020388033
193	0x3cc45c6e	0.023969855
194	0xbd0d12cd	-0.034441758
195	0xbd0e6558	-0.034764618
196	0xbda48ea4	-0.08035019
197	0xbc8e268f	-0.01735237
198	0xbd277dc8	-0.04089144
199	0x3cd20298	0.025636002
200	0x3bcf7507	0.0063310894
201	0x3cfbf643	0.030757075
202	0x3db05773	0.086104296
203	0xbd85f2d1	-0.06540454
204	0xbd4f6c8c	-0.050640628
205	0x3ce79938	0.028271303
206	0x3c35f531	0.0111058215
207	0xbdb46a40	-0.08809328
208	0x3d16cc77	0.036816087
209	0x3d8684d4	0.06568304
210	0x3d046346	0.032321237
211	0x3d41f50b	0.04735283
212	0xba32e774	-0.00068246503
213	0x3d841085	0.06448463
214	0xbd6919da	-0.05690942
215	0xbcb4533d	-0.022012347
216	0x3d010f6b	0.031508844
217	0xbc92de8a	-0.01792838
218	0xbc2eb756	-0.010663828
219	0xbe055c22	-0.13023427
220	0x3c8580e2	0.016296808
221	0xbd958c5e	-0.073021635
222	0x3be35e2d	0.006938717
223	0x3ca78423	0.02044875
224	0x3d549117	0.05189618
225	0xbd1f32bd	-0.038866747
226	0xbcbedd6b	-0.02329894
227	0x3d295a7d	0.041346062
228	0xbd4a2113	-0.04934795
229	0x3c116d57	0.008876166
230	0x3d364c6a	0.044506468
231	0xbd91c652	-0.07117905
232	0x3d4c9b6d	0.049952913
233	0xbd3afa06	-0.045648597
234	0xbcf8b5f1	-0.030360194
235	0x3cf3cf92	0.029762063
236	0xbba30f92	-0.0049762214
237	0x3cc7e9aa	0.024403412
238	0xbdaba12e	-0.08380352
239	0x3db80b24	0.089865
240	0x3d485fea	0.048919596
241	0xbd4a2e00	-0.049360275
242	0x3d8732ce	0.06601487
243	0x3be22f2a	0.006902595
244	0xbcdcad02	-0.026937965
245	0x3d97aed7	0.07406395
246	0xbc90bdf2	-0.017668698
247	0x3d2aa58a	0.041661777
248	0xbd6f4489	-0.05841497
249	0x3d30f2fd	0.04320048
250	0xbd33a6ec	-0.04386036
251	0xbc9bd760	-0.019023597
252	0xbd15f654	-0.03661187
253	0x3da33753	0.07969537
254	0x3c9ed87a	0.019390333
255	0x3c179b6a	0.009253362

actor.bias f4 [3]
0	0x3d7a8bb9	0.061168406
1	0xbc9dfa6a	-0.019284446
2	0x3ca28dd8	0.019843027

critic.weight f4 [1, 256]
0	0xbd464323	-0.04840387
1	0x3bc0fb54	0.0058893356
2	0xbd4d390c	-0.050103232
3	0x3d6205b8	0.055181235
4	0xbd9b0091	-0.075684674
5	0xbdab6062	-0.08367993
6	0x3dd00d03	0.10158732
7	0xbd988773	-0.0744771
8	0x3d2a2711	0.041541163
9	0xbd3584d2	-0.04431612
10	0xbd3b7a10	-0.045770705
11	0x3cd4015b	0.025879553
12	0xbd8de60d	-0.06928644
13	0xbd8071ce	-0.062717065
14	0xbd29df55	-0.04147275
15	0xbda8de65	-0.082455434
16	0xbd8c3a28	-0.0684703
17	0xbcfe0f32	-0.031013105
18	0xba369a80	-0.00069657713
19	0xbdc46e63	-0.09591367
20	0xbd391600	-0.045186996
21	0xbd721c14	-0.05910881
22	0x3d9b2d6f	0.07577025
23	0x3c11cb01	0.008898498
24	0x3bdfb31c	0.0068267714
25	0x3b19029b	0.00233475
26	0x3d050f36	0.03248521
27	0x3d5055e4	0.05086316
28	0xbd472d5b	-0.04862724
29	0x3d12c7ee	0.0358352
30	0xbd34a490	-0.04410225
31	0x3d5ddf75	0.054168183
32	0x3d948abf	0.07253026
33	0x3c01e3bc	0.007927831
34	0xbd192854	-0.037391976
35	0xbd91b532	-0.071146384
36	0xbdc0da4e	-0.09416638
37	0xbd705c00	-0.058681488
38	0xbd54a43a	-0.05191443
39	0x3d267980	0.040643215
40	0x3d1ce5a0	0.038304925
41	0xbd05c387	-0.032657173
42	0xbd9aed93	-0.07564845
43	0x3ca59770	0.020213813
44	0x3deee946	0.11665587
45	0xbdc08dbd	-0.094020344
46	0xbd637b93	-0.05553777
47	0x3d99b4e2	0.07505204
48	0xbdb489c1	-0.08815337
49	0xbda1eebb	-0.07906862
50	0xbd650059	-0.055908535
51	0x3d8ea0a3	0.06964233
52	0x3d1cd82f	0.038292106
53	0xbd182d4c	-0.037152573
54	0xbd5e55d4	-0.05428107
55	0xbd937f82	-0.072020546
56	0xbd82cac4	-0.06386331
57	0xbd38a229	-0.045076523
58	0xbd552e9e	-0.05204641
59	0xbdbd38ba	-0.09239335
60	0xbd47a2c0	-0.048739195
61	0xbd8251cd	-0.063632585
62	0xbd98a1e9	-0.07452757
63	0x3d54fa50	0.05199653
64	0x3d62be44	0.055357233
65	0xbd753b33	-0.05987091
66	0xbd23ac87	-0.039959457
67	0xbd942411	-0.072334416
68	0xbd196434	-0.037449077
69	0x3d405f13	0.04696567
70	0xbd431b21	-0.047633294
71	0xbcd6d18e	-0.02622297
72	0xbdaec5c7	-0.08533817
73	0xbd6dbe06	-0.05804255
74	0xbd16b810	-0.03679663
75	0xbdcc2de1	-0.09969688
76	0xbd2b6b22	-0.041850217
77	0x3d258c88	0.040417224
78	0x3d1f79cc	0.038934514
79	0x3d77be16	0.060484014
80	0xbd94f03e	-0.07272385
81	0x3d904a36	0.070454046
82	0x3d539ab8	0.051661223
83	0x3d1d5a18	0.038416
84	0x3d8729e5	0.065997876
85	0xbd7bd5f6	-0.061483346
86	0xbde26994	-0.11055294
87	0x3d294967	0.041329768
88	0x3d1b48ae	0.03791111
89	0xbd9e49f2	-0.07728948
90	0xbd03623b	-0.0320761
91	0xbd293c92	-0.04131753
92	0x3ccc6521	0.024950566
93	0xbd9e804c	-0.077393144
94	0xbd791eeb	-0.0608205
95	0xbdbc84ed	-0.09205041
96	0xbd96b6b3	-0.07359066
97	0x3cb99f32	0.022658918
98	0x3d58c9aa	0.052926697
99	0xbd3e012e	-0.046387844
100	0xbdb30ded	-0.087428905
101	0xbd316e0a	-0.043317832
102	0x3d63a56a	0.055577673
103	0xbdc3cfef	-0.095611446
104	0xbdc522d8	-0.096257865
105	0x3c43e4c8	0.011956401
106	0x3dcb2b22	0.09920336
107	0xbd1a0ce0	-0.037609935
108	0x3d912124	0.07086399
109	0x3d1a8406	0.037723564
110	0xbd925d45	-0.07146696
111	0xbd9905ce	-0.0747181
112	0xbd937e0e	-0.072017774
113	0x3d655e8d	0.055998374
114	0xbd5d0864	-0.05396308
115	0x3d1625fd	0.036657322
116	0x3daac73d	0.08338783
117	0x3d814535	0.06312028
118	0xbd27ceef	-0.04096883
119	0x3d8e72f4	0.06955519
120	0xbdb5f05b	-0.08883735
121	0x3d59f458	0.05321154
122	0xbd9e9794	-0.07743755
123	0xbdbea34b	-0.093084894
124	0xbdd067a0	-0.10176015
125	0xbd4b6398	-0.049655527
126	0xbda2c86a	-0.07948382
127	0xbd816538	-0.06318134
128	0x3ce4cb59	0.027928995
129	0xbd2e6290	-0.042574465
130	0xbd8e0479	-0.06934447
131	0x3b6497cf	0.0034880524
132	0x3d1d6f68	0.038436323
133	0x3d803e1c	0.062618464
134	0x3cf339c8	0.029690638
135	0xbda65ff2	-0.08123769
136	0xbd59249f	-0.05301344
137	0xbaab5402	-0.0013071301
138	0xbdb0180e	-0.08598338
139	0xbdac6f41	-0.084196575
140	0x3d83a121	0.06427217
141	0x3d5f9fd2	0.054595776
142	0xbd285080	-0.041092396
143	0xbd8ab81a	-0.06773396
144	0x3d270cc7	0.04078367
145	0xbd37f4d2	-0.044911213
146	0x3d186797	0.037208166
147	0xbd3da979	-0.0463042
148	0x3bd71274	0.006563479
149	0xbd9df844	-0.077133685
150	0xbda93c0e	-0.08263408
151	0xbdabc3f2	-0.08386983
152	0xbd4c41e8	-0.04986754
153	0x3ce0c52c	0.027437769
154	0x3c4b357d	0.012402889
155	0xbd4bbdb8	-0.049741477
156	0x3e09c202	0.13452914
157	0x3cd66ae7	0.026174022
158	0x3d1a37d0	0.037650883
159	0xbdb47e3a	-0.08813138
160	0xbda40078	-0.08007902
161	0x3d6432cb	0.055712502
162	0xbd774277	-0.06036612
163	0x3db28fcb	0.087188326
164	0xbda25608	-0.079265654
165	0xbd6ee9a2	-0.05832828
166	0x3dc6baa8	0.097035706
167	0x3d4ffd60	0.050778747
168	0x3d77c517	0.060490694
169	0x3c309e26	0.010779893
170	0xbd8f65d1	-0.07001842
171	0xbb88378b	-0.004157012
172	0xbdb65df4	-0.08904639
173	0xbd222e6f	-0.039595064
174	0x3b7a45f4	0.0038188668
175	0x3b983457	0.0046449113
176	0xbd9c958c	-0.07645711
177	0xbd8f956a	-0.0701092
178	0xbca9f933	-0.02074871
179	0xbdb94de1	-0.09048057
180	0xbdbd8591	-0.092539914
181	0xbd5445a5	-0.05182423
182	0x3cfa855e	0.030581173
183	0xbd16f708	-0.03685668
184	0x3d30c5ea	0.043157496
185	0xbdad8ac4	-0.08473733
186	0x3cfcebcb	0.030874154
187	0x3c1b96a2	0.009496363
188	0x3d00220d	0.031282473
189	0xbd942559	-0.07233686
190	0xbccd1161	-0.025032701
191	0x3d43cdc8	0.04780367
192	0x3d4fea35	0.050760467
193	0x3d9ec2d2	0.07752003
194	0xbd3c826c	-0.046022817
195	0xbd80d39c	-0.06290361
196	0xbd858fa7	-0.0652154
197	0xbdd22852	-0.10261597
198	0xbdb18ff1	-0.08670033
199	0x3d30ddd3	0.043180298
200	0x3cb98807	0.02264787
201	0xbcf9f0cc	-0.030510329
202	0xbd3057c6	-0.043052457
203	0xbdae629e	-0.085149035
204	0xbd8ea6c7	-0.06965404
205	0xbd4a1d75	-0.0493445
206	0xbd32dfe2	-0.043670543
207	0xbda53c8f	-0.08068191
208	0xbd73dbed	-0.05953591
209	0xbd98307e	-0.07431124
210	0xbd2da3c4	-0.042392507
211	0xbd950e12	-0.07278074
212	0x3bc4a9be	0.00600168
213	0xbdaed554	-0.08536783
214	0xbe03603a	-0.12829676
215	0xbdb64a9d	-0.0890095
216	0xbcd5f7d6	-0.026119154
217	0xbd80ebf4	-0.062950045
218	0xbd3ca4b5	-0.046055514
219	0x3c511ab1	0.012762711
220	0xbd6458eb	-0.05574886
221	0xbd4de482	-0.05026675
222	0x3d03fef4	0.032225564
223	0xbd9b8aa7	-0.07594805
224	0xbd8e6c7f	-0.06954288
225	0xbd453f5a	-0.04815612
226	0x3c5ae115	0.013359328
227	0x3d1fcce2	0.03901375
228	0xbdc4c285	-0.09607414
229	0xbd61463b	-0.054998618
230	0xbd9ef9a5	-0.0776246
231	0xbdac0157	-0.08398693
232	0xbd14aec1	-0.03629947
233	0xbd35628f	-0.044283446
234	0x3dad2aa1	0.084553964
235	0x3dedccca	0.11611326
236	0x3cd8c750	0.026462227
237	0x3c8ffa6d	0.017575467
238	0xbd336807	-0.04380038
239	0x3de38081	0.111084945
240	0x3d5cf206	0.05394175
241	0xbdb743bb	-0.089484654
242	0x3d33662c	0.04379861
243	0x3d885510	0.066568494
244	0x3cf8b27a	0.030358542
245	0x3db0a923	0.0862601
246	0xbdbc39af	-0.0919069
247	0xbd6e6f50	-0.058211625
248	0xbdb7a985	-0.0896788
249	0xbd914b06	-0.07094388
250	0xbd94883f	-0.072525494
251	0x3d775910	0.06038767
252	0xbdbc011f	-0.09179901
253	0xbd8a545a	-0.0675437
254	0xbd6ec430	-0.058292568
255	0x3d218ad2	0.03943903
