Experimenten/Experiment1Snake/PPO/ppo_snake_10600.pth (torch, 280864 bytes, 7 tensors)

shared.0.weight f4 [256, 9]
0.095090166 -0.10326577 0.28928262 -0.33934733 -0.004289873 0.008958215 0.56691533 0.49303392
-0.04568551 -0.49137416 0.2545007 0.14156048 -0.46727127 0.0029917909 -0.2840176 0.3462394
-0.15004915 -0.13906951 -0.04199827 0.13011737 0.47801897 -0.28456363 0.063636385 -0.13887021
-0.002205589 0.29553828 -0.4810688 -0.3062604 -0.1900069 0.103968434 -0.39367658 -0.2144222
0.22385553 0.24541086 0.34572232 0.28586015 -0.2568277 -0.17286102 -0.2887489 -0.28503275
-0.30688804 -0.16781509 -0.11663699 -0.0032890814 0.20647448 0.37639117 0.22879995 0.30000436
-0.4155142 0.025163997 -0.0067170803 -0.077510044 0.41338325 0.14955264 -0.3485824 -0.3637652
0.2853855 0.31200233 -0.012028664 0.04088228 0.124896824 0.19923869 0.5822727 0.22774431
0.0869203 0.027633728 0.14429693 -0.004494794 -0.00030842694 -0.563877 0.3077167 -0.59179384
-0.5745517 -0.2903271 0.41266155 0.020468071 -0.020495182 0.01726615 0.14901797 0.36480483
-0.8084138 0.013544292 0.12237498 0.6176442 -0.20572463 0.060186036 -0.06725081 -0.13814092
0.36811888 -0.81461895 -0.34209195 0.26509756 0.20607929 -0.5096102 -0.13535026 0.0005651446
0.13246408 0.3606088 0.85143626 0.13543314 -0.1507986 -0.3772076 -0.23191811 -0.0351239
-0.16133748 -0.07519712 0.046188075 1.0864564 0.0986619 0.31436914 -0.029413912 0.2872207
0.024806619 -0.011123788 0.33492467 -0.4459901 0.62604195 0.3813227 -0.18167986 -0.476381
-0.06398745 0.17269534 0.20163079 0.1272762 0.06418559 -0.10815053 -0.3568688 -0.40671673
0.6701867 -0.39738917 0.12739323 -0.1744525 -0.033424452 0.14445578 -0.24609111 -0.44300377
-0.45128137 0.27188778 0.10999448 -0.031236785 -0.059332896 0.4811343 0.017668394 0.38050818
-0.4772195 -0.09679734 0.44949615 0.016123513 -0.052670345 -0.15972349 0.69674265 0.22752391
-0.23063114 0.11258507 0.012350639 0.13867518 0.1335907 0.0042263637 0.034719627 0.5877397
0.61761796 0.54008245 0.099150844 0.52243483 -0.046845652 -0.47635487 0.20903343 -0.009853816
0.5764749 -0.0047680656 -0.021581128 -0.41104797 0.13290812 0.21788998 0.49572617 0.1202333
-0.0059678676 0.045396514 0.22934282 0.1489516 -0.07475705 0.13744397 -0.1246998 -0.5367277
-0.15834533 -0.05402922 -0.3475055 0.36241484 0.007893757 0.14313935 0.36284545 0.4873173
0.057702735 -0.034515005 -0.047447465 -0.09315754 -0.2596512 0.067113414 -0.4796838 0.066494636
0.44114593 0.16299453 -0.051344793 -0.04846207 0.62902945 0.6157725 0.06906895 -0.41939336
-0.087457664 0.59953994 -0.1806711 0.12192273 0.16118608 0.2077113 -0.25818375 -0.022561718
-0.6217151 0.13834116 0.3208086 -0.029610524 -0.008711524 -0.13385049 0.7998131 0.664406
0.08326523 -0.04148848 0.3782849 0.35803127 -0.15481248 0.11741752 -0.062338743 0.4684301
0.42726436 -0.3866072 0.032923248 0.13846728 -0.079106346 -0.5853032 0.05584295 0.010630765
0.754025 0.27493438 0.22940587 -0.48879635 -0.049430814 0.5047611 -0.5954905 0.15123971
0.061880272 0.04601001 0.14376836 -0.15921131 -0.15414424 0.37234268 0.22801884 0.32494736
00000000: a2be c23d 017d d3bd da1c 943e efbe adbe
00000010: 1092 8cbb 7ac5 123c 5d21 113f f16e fc3e
00000020: bb20 3bbd 6595 fbbe ea4d 823e 3bf5 103e
00000030: 2e3e efbe ec11 443b c16a 91be 4a46 b13e
00000040: 7ca6 19be 3d68 0ebe 6106 2cbd 7d3d 053e
00000050: e7be f43e 53b2 91be cb53 823d fe33 0ebe
00000060: a58b 10bb cb50 973e a64e f6be 2ace 9cbe
00000070: 2b91 42be 67ed d43d fa8f c9be 7e91 5bbe
00000080: 623a 653e fc4c 7b3e 8402 b13e 435c 923e
00000090: ec7e 83be 7b02 31be e5d6 93be d0ef 91be
000000a0: 6e20 9dbe b8d7 2bbe 60df eebd a18d 57bb
000000b0: 0c6e 533e 58b6 c03e 894a 6a3e 2c9a 993e
000000c0: 47be d4be ba24 ce3c f41a dcbb 96bd 9ebd
000000d0: f8a6 d33e 5424 193e 6479 b2be 6f3f babe
000000e0: 0c1e 923e c5be 9f3e e013 45bc 2d74 273d
000000f0: e8c9 ff3d 3a05 4c3e d30f 153f ce35 693e
00000100: 4503 b23d 2160 e23c 93c2 133e 1149 93bb
00000110: 5db4 a1b9 3e5a 10bf 0b8d 9d3e cd7f 17bf
00000120: d215 13bf c1a5 94be 6048 d33e a8ac a73c
00000130: 83e5 a7bc be71 8d3c 2b98 183e b3c7 ba3e
00000140: 35f4 4ebf e1e8 5d3c bc9f fa3d ee1d 1e3f
00000150: 7aa9 52be a285 763d cbba 89bd d074 0dbe
00000160: 147a bc3e de8a 50bf ad26 afbe deba 873e
00000170: 7306 533e d075 02bf 4299 0abe 3626 143a
00000180: aaa4 073e b7a1 b83e baf7 593f fcae 0a3e
00000190: f36a 1abe 5b21 c1be f17b 6dbe 14de 0fbd
000001a0: a735 25be f300 9abd b52f 3d3d 0111 8b3f
000001b0: 400f ca3d fef4 a03e 72f5 f0bc 970e 933e
000001c0: 4037 cb3c 8c40 36bc 3f7b ab3e d058 e4be
000001d0: 4944 203f bb3c c33e 490a 3abe 36e8 f3be
000001e0: da0b 83bd 0cd7 303e 4d78 4e3e b154 023e
000001f0: bc73 833d 067e ddbd 82b7 b6be 2d3d d0be
00000200: 5b91 2b3f 9876 cbbe 5f73 023e ada3 32be
00000210: 14e8 08bd 37ec 133e 4fff 7bbe 64d1 e2be
00000220: 5a0e e7be e034 8b3e c944 e13d 49e4 ffbc
00000230: 0d07 73bd 3c57 f63e 4fbd 903c f8d1 c23e
00000240: 1d56 f4be af3d c6bd 5c24 e63e 7515 843c
00000250: dcbc 57bd 8e8e 23be ba5d 323f 07fc 683e
00000260: 922a 6cbe 0093 e63d 565a 4a3c de00 0e3e
00000270: 00cc 083e 4f7d 8a3b 2b36 0e3d 1c76 163f
00000280: 361c 1e3f d842 0a3f 990f cb3d 4abe 053f
00000290: 3ae1 3fbd c9e4 f3be dc0c 563e e671 21bc
000002a0: dc93 133f 6f3d 9cbb e8ca b0bc e174 d2be
000002b0: 1119 083e 8d1e 5f3e d2cf fd3e e03c f63d
000002c0: 1a8e c3bb b2f1 393d d8d8 6a3e c586 183e
000002d0: 391a 99bd 1dbe 0c3e 9c62 ffbd fd66 09bf
000002e0: 4725 22be be4d 5dbd 3eec b1be 708e b93e
000002f0: d154 013c 1f93 123e e1c6 b93e a781 f93e
00000300: b459 6c3d 9b5f 0dbd 4658 42bd 61c9 bebd
00000310: 01f1 84be c272 893d 1d99 f5be 572e 883d
00000320: e1dd e13e 0ae8 263e eb4e 52bd 2a80 46bd
00000330: 1308 213f 44a3 1d3f 0674 8d3d baba d6be
00000340: 011d b3bd 737b 193f d801 39be a0b2 f93d
00000350: f70d 253e 45b2 543e a930 84be 5ad3 b8bc
00000360: b928 1fbf 4ea9 0d3e 0641 a43e c591 f2bc
00000370: c8ba 0ebc 1a10 09be 8dc0 4c3f 8316 2a3f
00000380: f686 aa3d d3ef 29bd 8fae c13e e04f b73e
00000390: 2a87 1ebe 9978 f03d e956 7fbd 12d6 ef3e
000003a0: 65c2 da3e 61f1 c5be 87da 063d 5eca 0d3e
000003b0: 8202 a2bd 6ed6 15bf 94bb 643d a92c 2e3c
000003c0: c807 413f 33c4 8c3e 5fe9 6a3e 8443 fabe
000003d0: f777 4abd 0638 013f 1172 18bf 95de 1a3e
000003e0: 2b76 7d3d fe74 3c3d 0338 133e 4a08 23be
000003f0: fdd7 1dbe b3a3 be3e c57d 693e 805f a63e

shared.0.bias f4 [256]
-0.012282244 -0.25649402 -0.2772577 -0.308488 -0.050678495 0.13629816 -0.012530605 0.5243132
0.09927422 -0.30812544 -0.010790584 0.110858895 0.5767267 -0.12591505 -0.19431075 -0.53298956
0.03519605 -0.19765876 -0.0018830512 0.16667312 -0.5282555 0.60636854 -0.20057519 -0.27356613
-0.1722511 0.33691412 -0.08628241 -0.043342292 0.59758794 -0.0477908 -0.24271908 -0.40068316
0.3190786 0.052392833 0.08771642 -0.17746454 0.46110302 -0.000489031 -0.46271425 -0.014545815
0.5393504 -0.17589502 0.45441577 -0.24076384 0.64858806 -0.12739508 0.031702623 -0.123271905
-0.29642522 -0.38048142 -0.15585823 0.088952705 -0.052640405 0.09936691 0.08244845 -0.3283113
0.46947604 0.16412134 -0.066898406 0.3465221 0.6931984 -0.3043578 0.71658444 0.39397582
-0.09529792 0.16036071 0.2932385 0.39454156 0.5319607 0.19538108 0.094316974 0.171296
0.08019187 -0.3661011 0.15300785 -0.0025605157 0.049628153 -0.23305057 0.23775938 -0.09411864
-0.392514 0.54694635 0.0283525 -0.44053727 0.41986167 0.04409202 -0.08893273 -0.053700708
-0.12971748 0.1319729 0.036721583 0.038578562 0.3400437 -0.057128996 0.5500292 -0.09805809
0.021901213 0.25205386 -0.3622284 -0.21060239 0.15233935 -0.24282014 0.037325755 -0.048469014
0.16121481 -0.04055783 0.52216434 -0.20661484 -0.121007055 -0.45610732 -0.32037976 0.011164352
-0.21236339 -0.20706828 -0.031001832 0.2080467 0.5902878 -0.3680416 -0.3587492 -0.4927348
-0.5475721 -0.17742938 0.22026324 0.36584896 -0.33638442 -0.08466912 -0.37135842 0.368161
0.11067314 -0.38086188 0.18887392 -0.13279858 -0.064197235 -0.24815731 0.0037155054 -0.42648324
-0.32465115 -0.037914906 -0.10275796 -0.060420576 -0.2887908 -0.05353247 -0.05290655 0.4739311
0.6508247 -0.36962622 0.4015017 0.20291184 -0.004285321 0.119173154 0.28531113 0.4785659
-0.32457894 -0.2626171 0.31655562 0.23853433 0.1720284 0.4595146 -0.019608172 0.57302064
-0.6320409 -0.36412126 0.16590886 0.44793525 -0.023873515 -0.11665571 0.59557784 -0.166226
-0.03433282 -0.11290455 0.5335688 -0.091350995 -0.28615254 -0.28006634 0.46284208 0.4704628
0.28430095 -0.3325577 0.1452391 -0.14115575 -0.18923523 -0.13436738 -0.31504238 0.6552561
-0.079831846 -0.36719063 -0.13314767 0.19965215 -0.3149772 -0.033782475 -0.09981922 -0.04421354
-0.04391765 -0.3508799 0.6433035 0.15063484 0.026327724 0.0516081 -0.17360008 0.5324826
-0.1901467 -0.21523525 -0.027706482 -0.28763667 -0.071055956 -0.17992117 -0.25888178 -0.28342873
-0.38230953 -0.17576885 -0.43018532 0.56502426 0.16586247 0.07659556 0.6628088 -0.23742898
-0.045308046 -0.14596967 -0.5004732 -0.5158608 0.1757654 -0.19671409 -0.2563807 0.4121537
0.012424737 -0.22365907 -0.12776741 -0.25022745 -0.24565022 -0.1015112 0.66463995 0.4226391
0.7432407 -0.33411598 -0.34572768 0.62645745 -0.34771985 -0.031547524 -0.08112328 0.6486071
-0.14861488 -0.066150844 0.09546068 -0.09753185 -0.28309786 -0.122641556 -0.010991407 -0.33903486
-0.010450526 -0.01865864 -0.1965287 0.47482714 -0.53632075 0.499924 0.03399244 0.41215855
00000000: 773b 49bc 2f53 83be b9f4 8dbe 24f2 9dbe
00000010: 4194 4fbd bf91 0b3e 2b4d 4dbc 6439 063f
00000020: 4850 cb3d 9ec2 9dbe fdca 30bc fd09 e33d
00000030: 5ca4 133f e0ef 00be 66f9 46be 0172 08bf
00000040: bc29 103d 0f67 4abe b7d0 f6ba 5cac 2a3e
00000050: c13b 07bf f83a 1b3f 9563 4dbe dc10 8cbe
00000060: 9862 30be 0280 ac3e d5b4 b0bd b087 31bd
00000070: 86fb 183f 49c0 43bd 5a8b 78be 5826 cdbe
00000080: 455e a33e de99 563d aba4 b33d 44b9 35be
00000090: b215 ec3e 5132 00ba e2e8 ecbe 9251 6ebc
000000a0: de12 0a3f d31d 34be 2fa9 e83e cc8a 76be
000000b0: de09 263f db73 02be 9cda 013d fb75 fcbd
000000c0: 0cc5 97be 76ce c2be 4d99 1fbe d62c b63d
000000d0: 779d 57bd e180 cb3d bcda a83d 6b18 a8be
000000e0: 2a5f f03e 6d0f 283e 0802 89bd 586b b13e
000000f0: 7375 313f c9d4 9bbe 1472 373f 33b7 c93e
00000100: 8e2b c3bd 9935 243e 5b23 963e 5a01 ca3e
00000110: 942e 083f fa11 483e 4229 c13d 3868 2f3e
00000120: a33b a43d 9a71 bbbe 17ae 1c3e 53ce 27bb
00000130: e446 4b3d cfa4 6ebe 3277 733e 46c1 c0bd
00000140: 98f7 c8be ad04 0c3f 8143 e83c 1a8e e1be
00000150: 1cf8 d63e d599 343d 5d22 b6bd 46f5 5bbd
00000160: a9d4 04be e723 073e 5f69 163d 8e04 1e3d
00000170: 351a ae3e 1800 6abd b7ce 0c3f aed2 c8bd
00000180: 2c6a b33c 340d 813e 0076 b9be 27a8 57be
00000190: d9fe 1b3e d8a5 78be e4e2 183d 7287 46bd
000001a0: 7f15 253e f81f 26bd 90ac 053f d792 53be
000001b0: 8cd2 f7bd e686 e9be d108 a4be b0ea 363c
000001c0: ca75 59be b509 54be 8ef7 fdbc 320a 553e
000001d0: 1a1d 173f f36f bcbe faad b7be bc47 fcbe
000001e0: af2d 0cbf 0cb0 35be b08c 613e 8e50 bb3e
000001f0: 943a acbe 0167 adbd b122 bebe 997f bc3e
00000200: 99a8 e23d 5400 c3be 2a68 413e 5afc 07be
00000210: d779 83bd f31c 7ebe d67f 733b 035c dabe
00000220: ad38 a6be a94c 1bbd c472 d2bd 917b 77bd
00000230: 63dc 93be dd44 5bbd 8ab4 58bd 19a7 f23e
00000240: 739c 263f a63f bdbe a191 cd3e 1fc8 4f3e
00000250: e16b 8cbb 0e11 f43d 4d14 923e 9706 f53e
00000260: 362f a6be c075 86be 9413 a23e 5842 743e
00000270: 3628 303e 7f45 eb3e 51a1 a0bc 7bb1 123f
00000280: 6fcd 21bf 1a6e babe 03e4 293e c557 e53e
00000290: 6492 c3bc 30e9 eebd ca77 183f 2637 2abe
000002a0: 92a0 0cbd 803a e7bd f797 083f 3b16 bbbd
000002b0: 9682 92be db64 8fbe a3f9 ec3e 80e0 f03e
000002c0: e58f 913e 0145 aabe 8fb9 143e 228b 10be
000002d0: e1c6 41be 9a97 09be 3c4d a1be ddbe 273f
000002e0: e17e a3bd 6900 bcbe dd57 08be 9d71 4c3e
000002f0: b144 a1be 7e5f 0abd 056e ccbd 4219 35bd
00000300: fee2 33bd 88a6 b3be 8aaf 243f 0540 1a3e
00000310: 3dad d73c 0463 533d 38c4 31be c850 083f
00000320: d1b5 42be a166 5cbe b4f8 e2bc 1d45 93be
00000330: c985 91bd 413d 38be 278c 84be 921d 91be
00000340: 13be c3be c0fc 33be 4041 dcbe 6ea5 103f
00000350: dad7 293e 22de 9c3d d6ad 293f 9520 73be
00000360: ee94 39bd 1379 15be 031f 00bf 740f 04bf
00000370: d8fb 333e 6b6f 49be 5544 83be cf05 d33e
00000380: 2091 4b3c e206 65be 76d5 02be d01d 80be
00000390: bb8b 7bbe 1be5 cfbd d825 2a3f 2764 d83e
000003a0: 0645 3e3f 4011 abbe 3803 b1be 845f 203f
000003b0: 5608 b2be fa37 01bd f623 a6bd 1d0b 263f
000003c0: 802e 18be 187a 87bd e480 c33d c7be c7bd
000003d0: 34f2 90be 7f2b fbbd 4d15 34bc fa95 adbe
000003e0: af38 2bbc 01da 98bc d23e 49be 8b1c f33e
000003f0: 514c 09bf 0af6 ff3e a83b 0b3d 7206 d33e

shared.2.weight f4 [256, 256]
-0.14058746 -0.15243816 -0.2446205 -0.13165848 -0.4308441 0.26481804 -0.028184384 0.1288026
-0.2676774 -0.2862489 0.050994765 0.12336188 0.092410795 0.06591327 -0.29912153 -0.18824571
-0.2225238 0.014370315 -0.017838616 -0.11930052 -0.4570733 0.0820101 -0.10165579 -0.36363348
-0.08288451 -0.09697379 -0.047034543 -0.3453533 -0.16066024 -0.08292314 -0.12684308 -0.2663635
-0.13643509 -0.017975489 -0.059392743 0.090603 -0.061801277 0.030687492 -0.15908217 -0.17665243
0.09061675 -0.14047855 -0.0074275034 -0.09874285 0.16662996 -0.23502302 -0.08243857 -0.09061487
-0.097145624 -0.08063041 -0.29299453 -0.26412374 0.02034224 -0.2782062 -0.027931806 -0.28358278
0.08163623 -0.11519221 -0.22818285 0.060158703 0.10350407 -0.3415575 0.053471796 0.027437072
-0.13655077 0.07585391 0.03947765 -0.16544358 0.08455251 -0.28033555 0.12965241 -0.19407606
0.013445384 -0.19529893 -0.17627405 -0.02554044 0.043107446 0.002026217 -0.22633836 -0.05770079
-0.2937343 0.07994838 0.034081865 -0.28006676 0.05183503 0.030810885 0.03635053 -0.20185088
0.2336582 -0.32021508 -0.0071301283 0.103644006 -0.11993679 0.021806693 0.12285109 -0.007631368
0.055992767 0.07391576 0.03427909 -0.20990066 0.024781857 -0.14090195 -0.1596832 0.052717432
0.059882496 -0.42843625 -0.18968599 -0.019525252 0.12175088 -0.12787285 -0.046801317 -0.2734557
-0.18977265 -0.12086195 0.05845195 -0.025572976 0.0498699 -0.22426249 -0.28264743 -0.26197088
-0.20419489 -0.05761336 -0.017883131 0.10583169 0.0056963866 -0.50685066 -0.31283545 0.0031639664
-0.15127887 0.03445236 -0.080049194 0.023310283 -0.18465352 -0.1792943 -0.05543227 -0.25132287
-0.037249334 0.053624433 0.04259175 -0.26769924 -0.024299335 -0.08400327 -0.13508488 0.05173521
-0.11658957 -0.3693616 0.114708625 -0.23411435 -0.24935438 -0.016164556 -0.06520417 -0.04538845
-0.047281984 -0.43958798 -0.021380449 0.024817321 0.07411303 -0.09312053 0.08402194 0.013747655
-0.3411117 -0.19869868 -0.017924776 0.054505017 0.0074661532 -0.31202188 -0.2942418 0.12652616
0.11308046 0.083314076 0.057232115 -0.07075196 -0.3896193 -0.33251685 -0.115135565 0.16780567
0.012869937 0.035321943 0.1348251 -0.12257369 -0.057892263 0.02438119 0.574053 0.12664825
-0.0063207843 -0.0075565632 0.02299006 -0.16589493 0.018453617 -0.38925165 -0.04807277 0.17382108
-0.024703227 -0.19128367 -0.02864105 -0.112830326 0.025133228 -0.21061134 -0.0070069274 -0.14519264
0.069230475 -0.12129104 -0.2946512 -0.14222738 -0.16544826 -0.16809072 0.01518945 -0.23960201
-0.2612225 0.01084901 -0.11713255 0.036190387 0.050973177 -0.0790411 0.029725913 -0.17419611
0.0499355 0.020600587 -0.26618183 -0.20872629 0.04160248 -0.09560974 0.011089855 0.009711862
-0.08631719 -0.06311027 0.040438138 -0.17208076 -0.1212073 -0.034411408 0.009815784 -0.16257428
0.028881911 -0.5027792 -0.099918395 0.047121055 -0.31839257 -0.5485693 0.05465329 0.026434256
-0.4192111 -0.09191636 0.041981243 -0.071856074 0.08967428 -0.2536107 -0.07232401 0.0074660596
0.039774835 0.022966322 -0.2368021 -0.11013043 -0.3079054 -0.054393355 0.052554145 -0.031900972
00000000: 29f6 0fbe c018 1cbe cc7d 7abe 7bd1 06be
00000010: 9997 dcbe 3b96 873e f0e2 e6bc d4e4 033e
00000020: 030d 89be 378f 92be e3df 503d 27a5 fc3d
00000030: df41 bd3d 89fd 863d 7526 99be 7cc3 40be
00000040: 47dd 63be 7871 6b3c 4a22 92bc d553 f4bd
00000050: 8305 eabe e9f4 a73d e930 d0bd 2b2e babe
00000060: 5bbf a9bd 329a c6bd 4ba7 40bd 26d2 b0be
00000070: 1e84 24be 9bd3 a9bd 27e3 01be cc60 88be
00000080: a4b5 0bbe 5541 93bc ce45 73bd 118e b93d
00000090: 5623 7dbd 5664 fb3c 70e6 22be 60e4 34be
000000a0: 4695 b93d 9cd9 0fbe 6a62 f3bb b139 cabd
000000b0: 0ba1 2a3e e0a9 70be 8ed5 a8bd 4a94 b9bd
000000c0: 49f4 c6bd 8e21 a5bd 6103 96be 3a3b 87be
000000d0: c5a4 a63c 0b71 8ebe 3ed1 e4bc c331 91be
000000e0: e530 a73d e5e9 ebbd c4a8 69be f968 763d
000000f0: f1f9 d33d a0e0 aebe 3e05 5b3d b6c3 e03c
00000100: f7d3 0bbe 4b59 9b3d 51b3 213d 0b6a 29be
00000110: de29 ad3d 2488 8fbe 9ac3 043e e0bb 46be
00000120: 074a 5c3c 71fc 47be 2f81 34be 2f3a d1bc
00000130: 6f91 303d 48ca 043b 3ec5 67be aa57 6cbd
00000140: 5864 96be fabb a33d 6d99 0b3d e964 8fbe
00000150: f850 543d 1c67 fc3c 4be4 143d ffb1 4ebe
00000160: 1844 6f3e 3bf3 a3be daa3 e9bb 4f43 d43d
00000170: 6ba1 f5bd f3a3 b23c 5a99 fb3d 8e10 fabb
00000180: ac58 653d 2561 973d 3b68 0c3d 33f0 56be
00000190: 5203 cb3c 9a48 10be fe83 23be 3cee 573d
000001a0: 5947 753d ff5b dbbe 0b3d 42be 6cf3 9fbc
000001b0: 8658 f93d 1af1 02be bdb2 3fbd 6302 8cbe
000001c0: c353 42be 7886 f7bd 506b 6f3d 6b7e d1bc
000001d0: 6144 4c3d 11a5 65be 2ab7 90be 0c21 86be
000001e0: 7718 51be fdfb 6bbd a57f 92bc 49be d83d
000001f0: c1a8 ba3b f7c0 01bf f82b a0be 8c5a 4f3b
00000200: d9e8 1abe eb1d 0d3d d5f0 a3bd 35f5 be3c
00000210: d015 3dbe ed98 37be f30c 63bd 64ad 80be
00000220: c292 18bd 4ba5 5b3d b074 2e3d e00f 89be
00000230: 660f c7bc e809 acbd b153 0abe 4de8 533d
00000240: 83c6 eebd f71c bdbe 5bec ea3d acbb 6fbe
00000250: c156 7fbe 886b 84bc c489 85bd 3de9 39bd
00000260: c1aa 41bd ad11 e1be 0d26 afbc b24d cb3c
00000270: 93c8 973d fab5 bebd b213 ac3d d83d 613c
00000280: 31a6 aebe ab77 4bbe fbd6 92bc a740 5f3d
00000290: a2a6 f43b 55c1 9fbe dca6 96be 1390 013e
000002a0: ba96 e73d 92a0 aa3d 396c 6a3d 67e6 90bd
000002b0: 2e7c c7be a63f aabe 32cc ebbd 40d5 2b3e
000002c0: 6edc 523c bead 103d 970f 0a3e ea07 fbbd
000002d0: 7020 6dbd 10bb c73c 23f5 123f 14b0 013e
000002e0: 951e cfbb 0c9d f7bb a655 bc3c 5ce0 29be
000002f0: 0a2c 973c fe4b c7be f4e7 44bd 27fe 313e
00000300: 6c5e cabc dedf 43be a3a0 eabc 9613 e7bd
00000310: 33e4 cd3c 80aa 57be 5e9a e5bb 61ad 14be
00000320: b5c8 8d3d 7067 f8bd 86dc 96be 0ea4 11be
00000330: 456b 29be f91f 2cbe 2cdd 783c 3b5a 75be
00000340: f5be 85be 0cc0 313c 31e3 efbd 5f3c 143d
00000350: 40c9 503d 4de0 a1bd c283 f33c 7760 32be
00000360: 2b89 4c3d 90c2 a83c fc48 88be 58bc 55be
00000370: 5d67 2a3d 0acf c3bd 39b2 353c 801e 1f3c
00000380: 11c7 b0bd f53f 81bd 76a2 253d f035 30be
00000390: 883b f8bd faf2 0cbd 62d2 203c df79 26be
000003a0: c299 ec3c 23b6 00bf 04a2 ccbd 0202 413d
000003b0: 5a04 a3be 0a6f 0cbf 21dc 5f3d a78c d83c
000003c0: d6a2 d6be a53e bcbd 86f4 2b3d 4729 93bd
000003d0: 26a7 b73d 43d9 81be 9c1e 94bd d9a5 f43b
000003e0: f0ea 223d de23 bc3c 407c 72be 108c e1bd
000003f0: c7a5 9dbe 91cb 5ebd 0443 573d 98aa 02bd

shared.2.bias f4 [256]
0.08956905 0.31998616 -0.08116921 0.23677026 0.024586694 -0.078595035 -0.3402023 -0.13686016
0.027970402 0.037163973 0.14205958 0.017488996 -0.0010692534 -0.12629376 0.14837891 0.034402963
-0.045461394 0.039580308 -0.024894087 -0.028264802 0.027660226 0.030506011 -0.019027289 0.040524982
0.024355184 0.2688442 -0.0027233658 -0.049528595 0.2244698 -0.026607223 0.29023045 0.01931329
-0.20407413 0.08385521 0.20409448 -0.10722297 -0.06106895 -0.13085309 0.0321755 0.17221616
-0.024873974 0.31100538 0.008280527 0.19794264 -0.081613526 -0.07549044 -0.008517686 0.1268769
0.07425025 -0.06800125 -0.036734983 -0.1055043 -0.0020687045 0.2995989 0.06550026 -0.008004884
0.15683065 0.2325953 0.11033738 -0.0024278546 -0.03292275 0.08672618 0.06859711 0.11953924
0.017020896 -0.19385916 -0.017822891 -0.02526814 0.16387883 0.025124988 -0.08798757 0.3222446
0.11531865 -0.08321444 0.15488262 -0.07247763 0.1071141 -0.02231358 -0.034197923 0.2305666
0.06655216 -0.13399419 -0.033689033 -0.019804005 -0.19180495 0.031213092 -0.0085981125 -0.010259979
0.031465307 0.033911753 0.2932788 0.33762905 -0.01314379 0.14502452 0.13739067 -0.1456383
-0.08140087 0.0047726287 0.013115498 -0.13360976 -0.12879099 0.3057249 -0.32157153 -0.11118733
-0.054907847 -0.023036297 -0.23468557 0.31885183 0.024648312 -0.0096018175 -0.116871715 -0.08778888
-0.12713058 0.16924924 0.023894096 0.2549394 -0.07618241 0.3569625 0.05988311 0.017493203
0.0241224 0.35156527 -0.06985845 -0.105394684 0.040181812 -0.20690608 0.061038624 0.07230263
0.2643625 0.20181084 -0.14865357 -0.03902831 -0.05180649 -0.12686066 -0.023824073 0.010823141
-0.036248844 0.31969002 0.054316565 0.10788542 -0.18598245 -0.08871205 -0.10738301 0.056504183
-0.0525889 0.16025528 -0.034112185 0.15455972 -0.08026152 -0.14858477 0.06739065 0.04118728
0.006470091 0.35662353 0.13290937 -0.093565665 -0.34129724 0.008783398 -0.014867609 -0.07157369
-0.026561415 0.22491951 -0.0037168816 0.115976244 0.07599292 -0.022840133 -0.17145513 0.056121994
-0.13975425 0.064749554 -0.02721706 -0.08324674 -0.088132575 0.18422084 0.03026653 -0.09695075
0.06719674 -0.071211085 0.27201408 -0.058444142 0.044887822 0.11209621 0.18299128 0.13482825
0.1280732 -0.064690985 0.25013116 -0.018110197 -0.0872747 -0.03154243 0.28650883 -0.049475968
-0.025927095 0.30524382 -0.074685566 -0.03679292 0.06712913 -0.019698475 -0.048005182 0.037569664
-0.040835008 0.30545008 0.022921382 -0.0048534353 0.06587916 0.009295474 0.07885843 0.039846078
-0.03377563 0.06493208 0.10847058 -0.089587756 0.20999858 -0.09644724 -0.0042929533 -0.056461558
-0.044649746 -0.010574954 0.15926811 0.341737 0.091330126 0.18998943 0.32889056 0.05982825
-0.054119665 0.017813941 0.11634148 0.28668758 -0.031729445 -0.15103905 -0.032264486 0.011816916
-0.06166067 0.030059721 -0.0020155215 -0.20100237 0.019205244 0.018458746 0.19822535 -0.2514757
0.0009188949 -0.046539035 -0.20544595 -0.18205538 0.0070399945 -0.19855957 -0.047522005 -0.15001985
-0.06486829 0.02760349 0.04894182 -0.04495324 -0.043628708 0.034836423 -0.0375917 -0.031763643
00000000: fa6f b73d 3ad5 a33e 0b3c a6bd e773 723e
00000010: 096a c93c 6ff6 a0bd ff2e aebe 1225 0cbe
00000020: 2f22 e53c 4039 183d 1178 113e 1545 8f3c
00000030: 3126 8cba 2753 01be a4f0 173e 1fea 0c3d
00000040: ba35 3abd f61e 223d afee cbbc 968b e7bc
00000050: b397 e23c bee7 f93c 1edf 9bbc 86fd 253d
00000060: 8684 c73c f2a5 893e 7f7a 32bb 7fde 4abd
00000070: 69db 653e 64f7 d9bc 1699 943e e836 9e3c
00000080: cff8 50be 48bc ab3d 25fe 503e b797 dbbd
00000090: 6f23 7abd 5afe 05be 75ca 033d 6f59 303e
000000a0: 81c4 cbbc 193c 9f3e 0cab 073c 7ab1 4a3e
000000b0: fe24 a7bd bb9a 9abd c48d 0bbc 05ec 013e
000000c0: 8410 983d 3d44 8bbd 6c77 16bd a312 d8bd
000000d0: 1a93 07bb 0765 993e 0025 863d eb26 03bc
000000e0: 3798 203e 762d 6e3e 90f8 e13d a41c 1fbb
000000f0: 01da 06bd 7f9d b13d a47c 8c3d fdd0 f43d
00000100: 686f 8b3c 0483 46be 5001 92bc 21ff cebc
00000110: dacf 273e ebd2 cd3c d432 b4bd 3ffd a43e
00000120: 2f2c ec3d 556c aabd 8d99 1e3e 276f 94bd
00000130: a35e db3d f8ca b6bc 1f13 0cbd a719 6c3e
00000140: 804c 883d c635 09be 83fd 09bd 023c a2bc
00000150: 8468 44be 99b2 ff3c 19df 0cbc 7919 28bc
00000160: c4e1 003d 0de7 0a3d a428 963e b7dd ac3e
00000170: 0d59 57bc 4f81 143e 24b0 0c3e 3522 15be
00000180: 80b5 a6bd b663 9c3b 63e2 563c ffd0 08be
00000190: c9e1 03be f987 9c3e 06a5 a4be 2fb6 e3bd
000001a0: 0de7 60bd 9eb6 bcbc 6a51 70be 8c40 a33e
000001b0: 42eb c93c f150 1dbc 705a efbd a8ca b3bd
000001c0: 852e 02be ac4f 2d3e 8dbd c33c 6b87 823e
000001d0: 8605 9cbd cac3 b63e fe47 753d e84d 8f3c
000001e0: 579c c53c 5d00 b43e f211 8fbd 2bd9 d7bd
000001f0: af95 243d 30df 53be a303 7a3d 6713 943d
00000200: 865a 873e 80a7 4e3e a438 18be 26dc 1fbd
00000210: 0b33 54bd c3e7 01be b42a c3bc 8b53 313c
00000220: ab79 14bd 69ae a33e 0c7b 5e3d 08f3 dc3d
00000230: 2f72 3ebe aaae b5bd a0eb dbbd ee70 673d
00000240: 7567 57bd f619 243e 38b9 0bbd e744 1e3e
00000250: 2760 a4bd 9b26 18be 1c04 8a3d feb3 283d
00000260: 0f03 d43b 5c97 b63e 6519 083e 5b9f bfbd
00000270: 83be aebe 3ee8 0f3c 4697 73bc 3a95 92bd
00000280: 5397 d9bc 4d51 663e ed96 73bb f484 ed3d
00000290: 2da2 9b3d 3b1b bbbc ef91 2fbe 2de0 653d
000002a0: bd1b 0fbe 6a9b 843d 50f6 debc 447d aabd
000002b0: da7e b4bd 63a4 3c3e 84f1 f73c 1d8e c6bd
000002c0: 729e 893d 1ed7 91bd 6e45 8b3e 2063 6fbd
000002d0: 4bdc 373d b392 e53d 1162 3b3e 6b10 0a3e
000002e0: 9f25 033e b57c 84bd 3111 803e d65b 94bc
000002f0: 14bd b2bd a332 01bd 49b1 923e 50a7 4abd
00000300: 0f65 d4bc eb48 9c3e bff4 98bd 2cb4 16bd
00000310: ff7a 893d b25e a1bc 15a1 44bd a6e2 193d
00000320: 9c42 27bd f463 9c3e 9fc5 bb3c 9109 9fbb
00000330: a7eb 863d 0b4c 183c 8780 a13d a435 233d
00000340: 5158 0abd 1cfb 843d d325 de3d c979 b7bd
00000350: de09 573e 2186 c5bd e7ab 8cbb 3c44 67bd
00000360: a7e2 36bd 9242 2dbc 2e17 233e 27f8 ae3e
00000370: 4a0b bb3d 978c 423e 5864 a83e 780e 753d
00000380: 95ac 5dbd 8bee 913c 7144 ee3d b7c8 923e
00000390: bcf6 01bd fba9 1abe c427 04bd bd9b 413c
000003a0: e68f 7cbd ce3f f63c d716 04bb 91d3 4dbe
000003b0: 5154 9d3c cc36 973c 96fb 4a3e 6cc1 80be
000003c0: fee1 703a b79f 3ebd 6c60 52be ba6c 3abe
000003d0: c1af e63b 3353 4bbe 6fa6 42bd ce9e 19be
000003e0: abd9 84bd b720 e23c 3877 483d e320 38bd
000003f0: 04b4 32bd a3b0 0e3d c1f9 19bd 981a 02bd

actor.weight f4 [3, 256]
0.10230889 -0.054836564 -0.07761054 0.014193479 -0.41251084 -0.0653941 -7.683276e-05 -0.031333108
0.03428403 0.01941332 0.32974675 -0.016746074 0.19982587 -0.008471604 0.32718757 -0.059576754
0.15443508 -0.004659222 0.00974662 0.035839412 0.08835923 0.067834824 -0.14434235 0.021971665
-0.00489666 -0.007432524 0.033101678 0.06832572 -0.18964107 0.011460952 -0.24737783 -0.0027601607
0.07017727 -0.0028603515 0.5070071 -0.027684644 0.11849874 -0.070820205 -0.22390887 -0.09043131
0.043784596 0.05429682 -0.040122796 0.1046992 0.101488315 0.020162677 0.09449579 0.21631852
0.1089769 0.13016854 -0.16201708 -0.124193534 0.031737722 0.24690025 0.30531216 0.08980014
-0.07384154 0.37527913 0.28488913 -0.017670173 -0.028001636 0.22733511 -0.25387576 -0.05018603
-0.5496241 0.010158676 -0.014484535 -0.026956141 0.31016448 -0.0061600828 0.02520729 0.28749922
0.018439373 -0.2686185 -0.39720747 0.0730759 -0.0023297202 0.0037805357 0.02095583 0.19124307
0.06645787 0.0051734364 -0.032333948 0.044702347 0.0056472677 0.21014479 0.21669386 0.04987055
-0.039678257 0.22135419 -0.0520775 0.19058862 0.022370387 0.10806375 0.1620035 0.08548587
-0.027609842 -0.017536111 0.05628695 0.028176753 0.13097103 0.0640938 -0.016213126 -0.012433274
-0.14859775 0.0373155 -0.052021492 -0.30363697 -0.29065925 -0.006183119 0.097761415 0.0968099
0.12340712 0.07570362 0.20871906 -0.037988793 0.33280188 0.041597657 0.1048756 -0.20088758
0.041166432 0.10042309 0.004816519 0.028338784 -0.04253826 -0.046767797 -0.14389312 0.01332101
-0.013845497 0.1621463 -0.022430982 0.045061793 -0.05430696 0.02857701 0.033597 -0.1783765
0.16237105 -0.5743641 -0.32647547 -0.0240677 0.09266603 -0.024695383 -0.04997404 0.4880172
0.008958365 0.41348863 0.022407154 0.23632841 0.022445558 -0.034645095 0.02119836 0.034805898
0.07613284 -0.11684782 -0.10668688 -0.001708536 -0.023309484 -0.02324063 0.013896521 0.01916251
0.028259126 0.09656288 -0.05990194 0.09904129 0.11987715 0.026621819 -0.05959882 0.046409864
0.11952873 0.2681195 0.06615238 -0.00057311746 -0.036767453 0.2101874 -0.016263982 0.003665719
-0.07284435 0.21820971 0.22922908 -0.044849038 0.018162217 -0.091929674 0.06194969 0.16761747
-0.02028154 -0.051781297 -0.07949848 0.052681644 0.035538755 -0.08092012 0.22558834 -0.029472262
0.020388033 0.031218702 -0.008014084 -0.07304802 -0.10683916 0.020624904 0.024251178 0.025636002
0.0063310894 0.042829666 0.1673205 -0.12790956 -0.04865186 0.056603737 0.39123556 -0.1514553
0.035543572 0.01895314 0.11942719 0.11442918 0.0062790504 0.11949794 0.03899388 -0.12673499
0.031508844 -0.0953279 0.41674444 -0.47240943 0.5361503 -0.3412343 0.060356565 -0.2075915
0.25274393 -0.11043943 0.11337835 0.03796367 -0.11643806 0.05606774 0.18882582 -0.31490836
0.049056944 -0.058280747 -0.012820842 0.055239156 -0.0049762214 0.024403412 -0.36171076 0.19664137
0.048919596 -0.0033535447 0.06300049 0.019133348 -0.02693814 0.25351018 0.01376937 0.024168644
-0.07378112 0.5870875 -0.14004672 -0.5951223 -0.08591473 0.18533455 -0.028292364 0.009253348
00000000: 5387 d13d 4e9c 60bd 46f2 9ebd c48b 683c
00000010: 9f34 d3be 58ed 85bd 4621 a1b8 2557 00bd
00000020: 696d 0c3d af08 9f3c 91d4 a83e 102f 89bc
00000030: 279f 4c3e 7ccc 0abc 2185 a73e c106 74bd
00000040: 3b24 1e3e 63ac 98bb 4ab0 1f3c 59cc 123d
00000050: aff5 b43d fcec 8a3d 7bce 13be ecfd b33c
00000060: 2974 a0bb 888c f3bb a095 073d 5bee 8b3d
00000070: 4531 42be b8c6 3b3c 9d50 7dbe d0e3 34bb
00000080: 1ab9 8f3d bc74 3bbb 38cb 013f e8ca e2bc
00000090: 78af f23d 2f0a 91bd 5e48 65be 0d34 b9bd
000000a0: 7a57 333d 5866 5e3d cd57 24bd 896c d63d
000000b0: 1bd9 cf3d 332c a53c 0287 c13d 9a82 5d3e
000000c0: 482f df3d e74a 053e cee7 25be 2e59 febd
000000d0: 6aff 013d 6bd3 7c3e e051 9c3e 23e9 b73d
000000e0: 3c3a 97bd 9624 c03e fddc 913e 0ac1 90bc
000000f0: b063 e5bc 89ca 683e 01fc 81be de8f 4dbd
00000100: 2ab4 0cbf 9370 263c 8b50 6dbc 20d3 dcbc
00000110: e1cd 9e3e 85da c9bb 857f ce3c 1933 933e
00000120: 2b0e 973c 5d88 89be c75e cbbe d1a8 953d
00000130: 38ae 18bb ddc2 773b 90ab ab3c 39d5 433e
00000140: 101b 883d ee85 a93b 9a70 04bd cf19 373d
00000150: b70c b93b 3230 573e ffe4 5d3e 1045 4c3d
00000160: ab85 22bd acaa 623e 374f 55bd aa29 433e
00000170: 1a42 b73c 8750 dd3d 3fe4 253e 3713 af3d
00000180: 092e e2bc e4a7 8fbc 258d 663d efd2 e63c
00000190: 451d 063e 9c43 833d 64d1 84bc eeb4 4bbc
000001a0: 022a 18be 23d8 183d 7d14 55bd 4e76 9bbe
000001b0: 4ad1 94be c39b cabb 2337 c83d 4544 c63d
000001c0: dfbc fc3d 800a 9b3d 73ba 553e 239a 1bbd
000001d0: 0265 aa3e 4e62 2a3d 05c9 d63d 79b5 4dbe
000001e0: 229e 283d 9faa cd3d e4d3 9d3b bd26 e83c
000001f0: 993c 2ebd 978f 3fbd b858 13be 5e40 5a3c
00000200: 39d8 62bc ae09 263e 2ec1 b7bc b792 383d
00000210: fa70 5ebd 551a ea3c 029d 093d 54a8 36be
00000220: 9944 263e 8709 13bf cb27 a7be a029 c5bc
00000230: b0c7 bd3d f94d cabc 94b1 4cbd 64dd f93e
00000240: 1bc6 123c c8b4 d33e 358f b73c 1300 723e
00000250: bfdf b73c 04e8 0dbd 2fa8 ad3c a190 0e3d
00000260: 89eb 9b3d e94d efbd a77e dabd f4f0 dfba
00000270: 88f3 bebc 2263 bebc 3cae 633c b2fa 9c3c
00000280: af7f e73c c2c2 c53d bd5b 75bd 29d6 ca3d
00000290: 2782 f53d 0016 da3c e41d 74bd 4518 3e3d
000002a0: 7bcb f43d f646 893e e67a 873d 433d 16ba
000002b0: 7899 16bd 5e3b 573e 0b3c 85bc 8f3c 703b
000002c0: 6b2f 95bd 5e72 5f3e 07bb 6a3e a0b3 37bd
000002d0: eec8 943c a045 bcbd f5be 7d3d eaa3 2b3e
000002e0: 7925 a6bc a018 54bd 19d0 a2bd b5c8 573d
000002f0: 1691 113d 73b9 a5bd a100 673e d06f f1bc
00000300: ce04 a73c 5dbe ff3c 814d 03bc 339a 95bd
00000310: 7dce dabd 8ff5 a83c 68aa c63c 9802 d23c
00000320: 0775 cf3b 296e 2f3d 1156 2b3e b9fa 02be
00000330: 2c47 47bd 52d9 673d 0750 c83e 1917 1bbe
00000340: 2396 113d 9e43 9b3c 3e96 f43d d959 ea3d
00000350: 7ec0 cd3b 56bb f43d 0cb8 1f3d d1c6 01be
00000360: 6b0f 013d 463b c3bd 875f d53e a6df f1be
00000370: 2541 093f 43b6 aebe 7238 773d de92 54be
00000380: a767 813e 112e e2bd e932 e83d cb7f 1b3d
00000390: 1477 eebd 49a7 653d 8e5b 413e ab3b a1be
000003a0: efef 483d cbb7 6ebd 820e 52bc 7442 623d
000003b0: 920f a3bb aae9 c73c 2732 b9be 5b5c 493e
000003c0: ea5f 483d 25c7 5bbb 6706 813d 8abd 9c3c
000003d0: 60ad dcbc 16cc 813e ec98 613c 52fd c53c
000003e0: 8e1a 97bd 5e4b 163f 6868 0fbe ef59 18bf
000003f0: 10f4 afbd 57c8 3d3e 63c5 e7bc 5b9b 173c

actor.bias f4 [3]
0.061848614 -0.012173786 0.017598903
00000000: f954 7d3d 8f74 47bc 932b 903c

critic.weight f4 [1, 256]
-0.36670116 0.0720792 -0.33707306 0.033981375 0.0031204585 -0.0050180377 0.03281378 -0.6865922
0.041541163 -0.50668526 -0.4599821 0.025879553 0.09066834 -0.680199 0.14876913 -0.007777865
-0.20329084 -0.48377973 0.0013320181 -0.044968292 -0.4061289 -0.104541756 0.5408607 0.032678086
0.0068267714 0.2657628 -0.0012784327 0.35714024 0.20890683 0.0358352 0.14189644 0.033810116
0.004886122 0.005723423 -0.39763218 -0.49237525 0.17154604 -0.78847426 -0.31333166 0.023072412
0.03514492 0.1619082 0.042317342 0.0045335777 0.1945314 -0.04906509 -0.16205196 0.44829217
-0.18428014 0.019889824 -0.39405224 -0.004166352 0.035253562 0.18385679 -0.11430819 0.19915211
-0.17177601 0.16848594 -0.21444449 -0.0003196369 -0.043499175 -0.13587934 0.021243233 0.03794497
0.46379945 -0.79164565 -0.5416191 -0.44457078 -0.4558212 0.05840633 -0.6177722 0.16958895
-0.18826859 0.19464777 -0.20075941 0.08563882 -0.3642767 0.037999596 0.042570278 0.30030972
-0.22015996 0.06603959 0.051661223 0.03721825 0.06442366 -0.2101245 0.025593782 0.041329768
0.03791111 -0.025510442 0.13202395 0.060235724 0.024798129 -0.32438686 -0.27565506 0.06872804
0.07893201 0.022658918 0.016239045 -0.6632193 -0.001995171 0.123361856 -0.003793877 0.047153927
0.03867152 0.011689326 -0.008031353 0.22226664 0.35003528 0.037723564 -0.4079281 0.14916879
0.1471239 0.0342073 -0.07310727 0.021505252 0.4675724 0.20883739 -0.23594709 0.08689901
-0.08068298 0.13614842 0.092961766 0.0011619454 0.103943475 -0.893536 0.069240995 -0.2361418
0.21370164 -0.3874979 -0.66403085 0.00031817215 0.035336215 0.05472402 0.02707951 -0.00071132
-0.37423894 0.52864325 0.006205236 -0.22668523 0.061026443 -0.0066889636 -0.60329056 0.13627794
0.04078367 -0.20096709 0.015106357 -0.27954423 0.006563479 -0.7494158 -0.14313972 -0.19002466
-0.14080916 0.18023205 -0.0002021573 -0.42439747 0.17936675 0.023555866 0.034648772 -0.009578135
-0.047401607 0.07033043 0.06955172 0.084548995 -0.2732793 -0.8057399 0.08941704 -0.01959765
0.04771133 0.099465355 -0.51796275 -0.013417715 -0.57063776 -0.4586316 0.0038188668 -0.009256912
-0.1327781 0.11150328 0.2721848 -0.061645184 -0.14996012 -0.14228192 0.072240785 -0.4188455
0.0068764784 -0.06095354 0.27019268 0.0074251774 0.029868344 0.057562243 0.21154009 0.04780367
0.050760467 0.20699503 -0.71875656 -0.22226584 -0.10726849 -0.014116156 0.10591141 0.043180298
0.02264787 0.08810362 -0.076982364 -0.006883313 -0.022223175 -0.525223 -0.21541229 -0.29861692
-0.61091375 -0.2137342 -0.06787176 0.09431876 0.04714291 0.010323015 -0.02748292 0.106118396
-0.026119154 -0.46191296 -0.15513246 0.4151218 0.0068340274 0.1710369 0.22566943 0.0048401994
0.27485046 -0.07802712 0.038623884 0.09582734 0.0055758394 -0.779825 -0.0036767344 -0.0042599356
-0.45203242 -0.36530933 0.542922 -0.17590624 0.026462227 0.017575467 0.16171075 0.033027936
0.05394175 -0.17403944 0.034466546 -0.018074805 0.028058732 0.22948165 0.05386669 -0.79551566
-0.021273227 0.1864725 -0.06355854 0.346026 -0.005590268 -0.1820423 -0.5731477 0.039427944
00000000: 41c0 bbbe 429e 933d d794 acbe 0e30 0b3d
00000010: 9b80 4c3b 5a6e a4bb be67 063d 82c4 2fbf
00000020: 1127 2a3d 20b6 01bf c682 ebbe 5b01 d43c
00000030: 53b0 b93d 8621 2ebf ef56 183e 76dd febb
00000040: 792b 50be fab1 f7be 1c97 ae3a ac30 38bd
00000050: 21f0 cfbe fd19 d6bd d975 0a3f 75d9 053d
00000060: 1cb3 df3b 1012 883e 1591 a7ba 16db b63e
00000070: aceb 553e eec7 123d 4d4d 113e 7a7c 0a3d
00000080: c31b a03b 8d8b bb3b 7296 cbbe 9c18 fcbe
00000090: c4a9 2f3e 73d9 49bf 026d a0be 5b02 bd3c
000000a0: 1ff4 0f3d 43cb 253e f354 2d3d 688e 943b
000000b0: 3d33 473e 7af8 48bd f3f0 25be 8d86 e53e
000000c0: efb3 3cbe fcef a23c 37c1 c9be e585 88bb
000000d0: 0a66 103d f444 3c3e 6a1a eabd 88ee 4b3e
000000e0: 0de6 2fbe 9487 2c3e 5697 5bbe f094 a7b9
000000f0: 312c 32bd f423 0bbe 4a06 ae3c 2f6c 1b3d
00000100: 1f77 ed3e 4aa9 4abf 8da7 0abf c89e e3be
00000110: 6561 e9be 7a3b 6f3d 5226 1ebf baa8 2d3e
00000120: 7bc9 40be bf51 473e e093 4dbe 6863 af3d
00000130: 7a82 babe 77a5 1b3d 2c5e 2e3d 32c2 993e
00000140: 9d71 61be c43f 873d b89a 533d 2a72 183d
00000150: 8df0 833d e02a 57be 0daa d13c 6749 293d
00000160: ae48 1b3d 46fb d0bc 4931 073e bcb9 763d
00000170: 7225 cb3c 0916 a6be a922 8dbe 49c1 8c3d
00000180: 1ba7 a13d 329f b93c bf07 853c bdc8 29bf
00000190: 6ac1 02bb 24a5 fc3d b2a2 78bb 7a24 413d
000001a0: 0766 1e3d 9684 3f3c f095 03bc de99 633e
000001b0: d337 b33e 0684 1a3d f4db d0be b4bf 183e
000001c0: a6a7 163e f41c 0c3d 44b9 95bd c82b b03c
000001d0: a665 ef3e 78d9 553e 1d9c 71be 1cf8 b13d
000001e0: 1e3d a5bd 7e6a 0b3e bd62 be3d 6b4c 983a
000001f0: 51e0 d43d c6be 64bf 39ce 8d3d 28cf 71be
00000200: 9ad4 5a3e 2066 c6be edfd 29bf 58d0 a639
00000210: b5bc 103d 4b26 603d d9d5 dd3c e177 3aba
00000220: 3f9c bfbe 2a55 073f 4b55 cb3b 2c20 68be
00000230: ddf6 793d 182f dbbb 4071 1abf 728c 0b3e
00000240: c70c 273d 51ca 4dbe a780 773c 6c20 8fbe
00000250: 7412 d73b b7d9 3fbf 3893 12be d395 42be
00000260: 4730 10be c08e 383e 30fa 53b9 a04a d9be
00000270: ebab 373e 3bf8 c03c dfeb 0d3d 9ced 1cbc
00000280: 3028 42bd 6709 903d 2271 8e3d 0628 ad3d
00000290: 44eb 8bbe f844 4ebf 4820 b73d 408b a0bc
000002a0: f56c 433d 7eb4 cb3d 3599 04bf fad5 5bbc
000002b0: 5115 12bf c3d1 eabe f445 7a3b 4eaa 17bc
000002c0: fbf6 07be d55b e43d ce5b 8b3e a97f 7cbd
000002d0: 258f 19be 5ab2 11be faf2 933d eb72 d6be
000002e0: 1554 e13b 6baa 79bd b256 8a3e e74e f33b
000002f0: 75ae f43c 63c6 6b3d f79d 583e c8cd 433d
00000300: 35ea 4f3d 81f6 533e 6e00 38bf a899 63be
00000310: 95af dbbd 7347 67bc 15e8 d83d d3dd 303d
00000320: 0788 b93c ac6f b43d eea8 9dbd 6a8d e1bb
00000330: 600d b6bc 0475 06bf 0a95 5cbe 51e4 98be
00000340: d864 1cbf 23dd 5abe 5900 8bbd 322a c13d
00000350: ed18 413d dd21 293c dc23 e1bc 9a54 d93d
00000360: d6f7 d5bc db7f ecbe 0bdb 1ebe d88a d43e
00000370: faef df3b 4c24 2f3e e315 673e 899a 9e3b
00000380: 33b9 8c3e afcc 9fbd 1434 1e3d 2041 c43d
00000390: 88b5 b63b 9ca2 47bf 5ef5 70bb ee96 8bbb
000003a0: cb70 e7be d309 bbbe f0fc 0a3f c420 34be
000003b0: 50c7 d83c 6dfa 8f3c 8197 253e 4d48 073d
000003c0: 06f2 5c3d 6537 32be cb2c 0d3d 9d11 94bc
000003d0: 6ddb e53c 3dfd 6a3e 51a3 5c3d eaa6 4bbf
000003e0: 3145 aebc a6f2 3e3e fb2a 82bd 522a b13e
000003f0: 912e b7bb 4c69 3abe cfb9 12bf 327f 213d
