Experimenten/Experiment1Snake/PPO/ppo_snake_4000.pth (torch, 280852 bytes, 7 tensors)

shared.0.weight f4 [256, 9]
000000 5d 4d 1e 3e a3 8b d7 bd 03 3c c2 3e f9 95 25 be
       0.15459199 -0.105246805 0.3793641 -0.16170491
000010 40 c4 66 3c d4 b8 bd 3c 81 66 45 3f 78 ec e0 3e
       0.014084876 0.023159422 0.77109534 0.4393041
000020 0b 63 dd bc 7b 27 e3 be 3a 36 4e 3e 06 77 04 3e
       -0.027024766 -0.4436606 0.20137873 0.12936029
000030 07 f2 92 be 17 0b 08 bd 40 32 89 be 73 57 80 3e
       -0.28700277 -0.0332137 -0.2679615 0.25066718
000040 e5 90 72 be 3a 61 c8 be 2b b1 b4 3d f2 ad 87 3b
       -0.23688085 -0.39136678 0.088228546 0.004140609
000050 35 4d a3 3e 0c 45 8a bd f8 69 17 3d ff b1 92 be
       0.31894842 -0.06751451 0.036966294 -0.28651425
000060 61 3f ad bd 13 a4 d6 3d 2d 14 e0 be c7 85 94 be
       -0.08459354 0.104805134 -0.43765393 -0.29008314
000070 80 a0 19 be 53 01 91 3e 70 1c ec be 44 b4 67 be
       -0.15002632 0.28321323 -0.46115446 -0.2262736
000080 6d 6d 67 3e 9e 3f 5d 3e c2 2e 9e 3e 20 e9 9d 3e
       0.22600336 0.216063 0.30895048 0.30841923
000090 64 d6 44 be d6 2a f6 bd 47 22 e8 be 99 a4 98 be
       -0.19222409 -0.12019889 -0.45338652 -0.29813078
0000a0 31 94 95 be 7e 47 54 be 19 f9 9a be 01 9a a5 be
       -0.29214624 -0.20730397 -0.3026817 -0.32344058
0000b0 a7 f8 16 3e 8c 4a b2 3e 02 f3 3e 3e c3 9f 97 3e
       0.14743291 0.348225 0.18647388 0.29614076
0000c0 de b9 80 be 07 c4 ca bc a8 b9 9b bd 31 bb a8 bd
       -0.25141805 -0.024751676 -0.076037705 -0.08238829
0000d0 93 2d fa 3e 54 c2 79 3e 0c ad 14 be a8 ae 90 be
       0.48862895 0.24390537 -0.14519137 -0.28258252
0000e0 e8 dd ba 3e d1 93 c0 3e 31 df c6 3b c3 04 8b 3d
       0.36497426 0.37612775 0.006069087 0.067880176
0000f0 03 1c 0e 3e 3f 50 9e 3e df da 1c 3f 2e 1e 96 3d
       0.13877873 0.30920598 0.6127147 0.07329975
000100 61 b8 f8 bd 6a c8 12 be 54 de 41 3d 83 56 3d 3c
       -0.121445425 -0.14334264 0.04733117 0.0115562705
000110 01 41 af bb 13 63 d1 be ef 0a 69 3e 1e 1d 0d bf
       -0.0053483252 -0.408959 0.22758077 -0.55122554
000120 f2 6b a5 be a0 bb c7 be bd 5a ac 3e 65 cb a2 bc
       -0.32308918 -0.39010334 0.33662978 -0.019872377
000130 32 65 82 bd af 0d 86 bc 63 1d 46 3e 4f 3c 6a 3e
       -0.06366958 -0.016363947 0.19347148 0.22874568
000140 91 29 af be 85 55 14 3d 4e 78 f9 bd de af d8 3e
       -0.342114 0.03621437 -0.121811494 0.42321676
000150 07 50 9d bc 9c 2d a1 3d 3b f8 94 bd 8b 4f 34 be
       -0.0192032 0.078700274 -0.07273909 -0.17608468
000160 2d bf 99 3e 56 00 00 bf a3 c4 95 be f0 65 ea 3d
       0.30028668 -0.5000051 -0.29251584 0.11445224
000170 c7 14 7c 3e e6 a2 d3 be 9f 21 2f be 08 10 81 bd
       0.24617301 -0.4133522 -0.17102669 -0.06301886
000180 ee 08 26 3e 39 fd 56 3e df cf 45 3f de 6b 5c 3e
       0.16214344 0.20995034 0.7727031 0.21525523
000190 2d b6 a7 bd 7f a6 93 be 04 1c 8f be d5 20 ee bc
       -0.08189044 -0.28837964 -0.27951062 -0.02906839
0001a0 64 5d 60 bd dd 60 0d bd 5c ce 23 bc 4c 52 87 3f
       -0.054776564 -0.034516204 -0.00999793 1.057199
0001b0 c0 c4 b6 bd ad 2e 77 3e a0 08 9d bd 6a b2 59 3e
       -0.08924246 0.24138899 -0.07667661 0.21259466
0001c0 39 34 f6 3d 5a 57 08 bd 2a 95 a9 3e ae 44 32 3d
       0.120216794 -0.03328643 0.33121616 0.04352253
0001d0 d3 89 1e 3f b3 5a b6 3e c9 92 8f bd ef b6 95 be
       0.61929053 0.35616073 -0.07010419 -0.2924113
0001e0 33 48 33 3d b8 3e 87 3e ff 64 3a 3e 4c bb 51 3e
       0.043770026 0.26415038 0.1820259 0.20481604
0001f0 49 fa 88 3d e3 c7 4a be 54 5f c9 be 62 44 ab be
       0.06688363 -0.19802813 -0.39330542 -0.3345061
000200 dd ea fb 3e 0a f6 9f be 27 69 94 3d c9 5a 48 be
       0.49202624 -0.312424 0.07246619 -0.19565882
000210 31 79 a6 bc 5b 62 0b 3e 05 23 8f be 88 9a 85 be
       -0.02032146 0.13611738 -0.27956405 -0.2609446
000220 40 fa a3 be da 1d 80 3e ed a0 4a 3e 67 f1 40 3d
       -0.32026863 0.25022775 0.19787951 0.04710522
000230 d6 6c f6 bd b8 e5 f0 3e 15 e1 ad bd 18 0c b5 3e
       -0.120324776 0.47050261 -0.084901966 0.3536079
000240 16 c2 65 be 13 82 53 bd df 9c d6 3e f2 35 9e 3d
       -0.22437319 -0.05163772 0.41916558 0.07725133
000250 76 e6 13 bd 5a cd 68 bd 09 97 57 3f 1c 43 d4 3d
       -0.036108457 -0.056836464 0.84214836 0.103643626
000260 6a cf 59 be 6c 1f 22 3e f7 21 e5 3d 7e 1c 9d 3e
       -0.21270528 0.15832299 0.11188119 0.306858
000270 eb 55 bf 3d ef 2a 88 3d a2 1f e5 3d 99 68 18 3f
       0.093425594 0.06648814 0.11187674 0.59534603
000280 43 81 07 3f d9 16 04 3f 4b f3 0a 3e 5f 3d e5 3e
       0.5293161 0.5159736 0.13569371 0.44773385
000290 ec 02 21 3d 10 6b 4c be 37 75 78 3e a8 73 16 be
       0.039309427 -0.19962716 0.24263464 -0.14692557
0002a0 66 67 3a 3f d0 39 0a 3e cd 71 01 3d 3d 86 0b be
       0.72814023 0.13498616 0.03160267 -0.13625427
0002b0 d7 87 08 3e 11 a5 2a 3e a2 44 d9 3e 1e 80 67 3e
       0.13333069 0.1666453 0.42435175 0.22607467
0002c0 41 32 a9 3d b7 ad b1 bc b9 f1 cf 3e 19 4e 9b 3e
       0.08261538 -0.021689279 0.40614107 0.3033302
0002d0 37 72 5a 3d bd 68 e4 bd 41 86 a3 bd 42 a1 97 be
       0.05333158 -0.1115279 -0.07984591 -0.29615217
0002e0 91 39 2a be 10 38 93 bd f6 db b0 be e2 f6 47 3e
       -0.16623522 -0.071884274 -0.34542817 0.19527772
0002f0 4e c4 c3 bd d7 41 bc 3d 63 44 65 3e fa a1 a7 3e
       -0.095589265 0.091922455 0.22389369 0.32740766
000300 b4 b1 51 3d 7a 79 00 be 2a d9 f1 bc 34 53 20 be
       0.05119486 -0.1254634 -0.029522497 -0.1565674
000310 b5 3b 84 bd 61 51 d9 3d cc 6b 7a be ec fa ba 3d
       -0.06456701 0.10611225 -0.24455184 0.09129891
000320 35 e1 b5 3e 8c 7c a8 3e 00 25 05 be d6 09 07 be
       0.35523382 0.32907522 -0.13002396 -0.13187346
000330 7a 76 23 3f 8a 99 f5 3e 89 cc 3d 3e 80 fc a2 be
       0.63852656 0.47968704 0.18535055 -0.31833267
000340 82 8e c3 bd 4a e7 bd 3e c4 f4 c9 3b 72 d0 94 3d
       -0.095486656 0.37090522 0.0061632115 0.0726632
000350 7f bd 74 3e 0f 50 9d bd 35 6d 8c be 08 9e 0b be
       0.23900412 -0.076812856 -0.27427068 -0.13634503
000360 2c 24 e4 be 80 6e 18 3e 8e 28 2f 3e 56 c4 72 3d
       -0.44558847 0.14885902 0.17105314 0.05926927
000370 75 ae 74 bd 2b 4c 42 be 00 ab 42 3f 51 08 02 3f
       -0.059736688 -0.18974368 0.76042175 0.5079394
000380 07 a6 c1 3d 66 0d c3 bd 5a 3e 84 3e a0 eb cd 3e
       0.09455495 -0.0952404 0.2582882 0.4021883
000390 a2 3c da bd 80 b9 30 3e 74 7c d4 bd f5 1a 1b 3f
       -0.10656096 0.17258263 -0.103753 0.6058801
0003a0 9c 78 f9 3e 2e 66 9f be f6 9f 60 bd 98 a6 cd 3d
       0.4872483 -0.31132644 -0.05484005 0.10041541
0003b0 51 3c 8c bb ce cc c9 be d7 99 a4 3d f7 62 f6 bb
       -0.004279651 -0.39414066 0.08037155 -0.0075191217
0003c0 70 43 39 3f a0 85 62 3e 4b 8b a2 3e d4 7f e7 be
       0.72368526 0.22121286 0.31746897 -0.45214713
0003d0 7e 37 30 be 23 e9 8a 3e bc 98 f6 be 27 4e 1a 3e
       -0.17208669 0.27130994 -0.48163402 0.15068875
0003e0 08 4a ba 3d e3 f3 1a be 00 19 4a 3e 07 26 8f be
       0.090961516 -0.15132098 0.19736099 -0.279587
0003f0 a1 f8 8b be bc 2c 7b 3e 87 9e 31 3d 85 b7 96 3e
       -0.27338126 0.24528784 0.043364074 0.2943689

shared.0.bias f4 [256]
000000 26 9e 07 3e b4 bc 62 be 9f 96 6a be cf 34 6e be
       0.13243923 -0.22142297 -0.2290902 -0.23262332
000010 69 ae e3 bd 53 5f 15 3e bc 43 3f 3e a1 3c 49 3e
       -0.111172505 0.14587145 0.18678182 0.19652034
000020 cd d3 e7 3d 35 a0 d7 be ae 4e 08 bd f3 92 39 3e
       0.11319695 -0.42114416 -0.03327816 0.18122463
000030 8e 23 bb 3e a7 ae 01 3d c5 cb 6e be f4 2f cc be
       0.36550564 0.031660702 -0.2331992 -0.39880335
000040 a4 3d 22 3e 7c fc 7f bd 91 c2 13 3e 96 98 59 3e
       0.15843827 -0.062496647 0.1442969 0.21249613
000050 56 d0 dc be ff 6c d3 3e 49 b8 59 bd d8 1e 93 be
       -0.43127698 0.41294095 -0.053154264 -0.2873447
000060 46 f2 12 be 06 b3 9a 3e 6f 52 6b bd ea a1 1f be
       -0.14350232 0.3021471 -0.05745166 -0.15589109
000070 e5 d9 ba 3e 5e b6 25 be af 74 84 be 7e cb bc be
       0.36494365 -0.16182849 -0.25870273 -0.36874002
000080 2b f6 8d 3e 63 f7 51 3e 63 d3 8c 3e 7c 25 79 be
       0.27726874 0.20504527 0.27505025 -0.24330705
000090 fa fb b2 3e 66 47 2d 3d 6b 05 9e be 41 8a b5 bd
       0.34957868 0.04230442 -0.3086351 -0.088642605
0000a0 29 6f c1 3e 0a 55 39 be 08 a1 bb 3e d9 71 4b be
       0.3778012 -0.18098846 0.36646295 -0.19867648
0000b0 ac 56 f0 3e 91 8e 81 3d 67 46 85 bd b2 36 9c bd
       0.46941125 0.063260205 -0.06507569 -0.0762762
0000c0 0f 61 69 bd 05 80 28 be df 8a c2 3b e7 93 64 bd
       -0.056977328 -0.16455086 0.005936965 -0.055805113
0000d0 00 21 fa 3d ce 49 1b 3e 85 9e 28 3d c6 f4 7c be
       0.122133255 0.15164873 0.0411668 -0.24702749
0000e0 95 e8 aa 3e 4d 67 0c 3e 06 2b 80 bd e6 df a3 3e
       0.3338057 0.13711281 -0.06258206 0.32006758
0000f0 fe 14 04 3f 46 86 05 be b6 75 01 3f d9 61 1b 3e
       0.5159453 -0.13039503 0.5057024 0.15174045
000100 e7 07 16 be b3 8a 18 3e e9 fe 83 3e 9c 08 8a 3e
       -0.14651452 0.1489666 0.2578042 0.26959693
000110 db 87 b5 3e d5 b9 44 3e e7 ea bd 3e af 8b 9b 3e
       0.35455212 0.19211514 0.3709328 0.30380008
000120 3d 04 44 3e 98 6d ce be a0 94 69 3c 0f 19 72 3e
       0.19142242 -0.40317988 0.014256626 0.23642372
000130 e8 0e 1a 3c 34 6d 91 be cd a3 3b 3e 9d 17 38 be
       0.009402968 -0.28403628 0.18324204 -0.17977758
000140 b0 a0 ab be bf 10 d9 3e db 03 b4 3d 65 19 8c be
       -0.33521032 0.4239559 0.08789798 -0.27363124
000150 1c 79 77 3e ff c1 94 3e 78 74 80 bd 84 80 17 bd
       0.24167293 0.29054257 -0.06272215 -0.036987796
000160 37 b2 0d bd 7d 4e c0 3b 46 d0 b0 3d 61 88 12 bd
       -0.034593787 0.0058687315 0.08633475 -0.035774592
000170 c1 81 59 3e 23 e0 d7 39 42 c1 be 3e b3 ac 95 3d
       0.21240903 0.0004117499 0.3725682 0.073083304
000180 82 ae 49 3e 75 9f 74 3d 2b a5 8d be c7 63 07 be
       0.19695476 0.059722383 -0.27665076 -0.13221656
000190 73 54 a8 3d 8a d0 1f be 45 36 83 3e 52 7c 64 3e
       0.082192324 -0.15606895 0.25627342 0.2231305
0001a0 a6 40 ac 3e e8 61 08 bd 43 53 d0 3e c4 f7 6b be
       0.33643073 -0.033296496 0.40688524 -0.23043734
0001b0 fb f5 09 bd b8 d8 c2 be 1f cb ae be 0e c8 73 3c
       -0.03368185 -0.38055968 -0.34139344 0.01487924
0001c0 bf 87 4e be 7e 75 31 be 9e d4 ce 3c d7 b6 8c 3e
       -0.2016897 -0.17329976 0.025247868 0.27483246
0001d0 bc 44 d7 3e fb 6d a6 be 92 49 54 bd 24 05 f8 be
       0.42044628 -0.32505783 -0.051827975 -0.48441422
0001e0 cb d6 ef be 57 f1 6d be ae 2c c4 3d 61 cc 66 3e
       -0.46843562 -0.23236595 0.095788345 0.22538902
0001f0 24 87 8b be 0a 33 8a be 45 33 b1 be 89 09 b2 3e
       -0.27251542 -0.26992065 -0.34609428 0.347729
000200 3d a7 4e 3e 91 f3 7c be d4 c7 76 3e 2e 7b 32 bd
       0.20180984 -0.24702288 0.24099666 -0.043574505
000210 68 cf 8b 3d 43 c5 8a be 75 98 fd 3d 6f d6 9d be
       0.06826669 -0.27103624 0.123825945 -0.30827662
000220 3c bb 6f be d0 8e 22 be da 64 d7 3c 96 38 9c 3d
       -0.23411268 -0.15874791 0.026293207 0.076279804
000230 4c eb cd bd 25 69 54 3c 77 7b e4 bd f9 bf bc 3e
       -0.10054645 0.012964522 -0.111563616 0.36865214
000240 ac 21 f9 3e 6f 50 c5 be 8c 20 6c 3e 66 88 22 3e
       0.48658502 -0.38537928 0.2305929 0.15872344
000250 46 33 03 3e b0 38 62 3e 76 33 2a 3e 0e 6f a8 3e
       0.12812528 0.22091937 0.16621193 0.32897228
000260 8b 64 23 be b1 37 85 be 95 0b 62 3e c4 96 73 3e
       -0.15956323 -0.26019052 0.2207473 0.23787981
000270 35 6f 39 3e 91 66 83 3e 12 7e 3a 3a d3 29 bc 3e
       0.18108828 0.2566419 0.0007114123 0.3675066
000280 56 79 eb be 62 13 9c be 12 b4 52 3e 7a 9a b3 3e
       -0.4599101 -0.30483538 0.20576504 0.35078794
000290 0d 67 31 3d 97 18 51 be 90 7c d4 3e 93 0c 80 bd
       0.043311168 -0.20419537 0.41501284 -0.06252398
0002a0 83 4d 7d 3e 8f d0 ba 3d fe 69 cc 3e 98 74 f9 3d
       0.247366 0.09121811 0.39924616 0.121804416
0002b0 42 c7 4c be 5b e9 b3 be fc 20 86 3e 2a 09 a7 3e
       -0.19997886 -0.35138974 0.2619704 0.3262418
0002c0 21 0b 3a 3e c8 c3 28 be 7a 15 0d 3e 39 02 41 be
       0.18168308 -0.16480935 0.13777724 -0.18848504
0002d0 1a 19 86 bc c1 07 29 be cf 6b 73 be 8a 4e ff 3e
       -0.016369391 -0.16506864 -0.23771594 0.49864608
0002e0 92 9e d8 bd d4 44 d6 be d9 3f 01 bd 64 80 07 3e
       -0.1057712 -0.41849387 -0.03155503 0.13232571
0002f0 16 01 64 be 7c c7 d7 bd a2 8e 45 bd a4 3e e4 3d
       -0.22266039 -0.105360955 -0.04823173 0.1114476
000300 14 fe 29 be be a2 c5 be cf 12 05 3f 46 87 a9 3e
       -0.1660083 -0.38600725 0.51981825 0.33111018
000310 6c 96 49 3e b1 18 18 bd 13 06 ca 3d 3f 25 bf 3e
       0.19686288 -0.037132923 0.0986444 0.37333104
000320 db a8 1f be 10 51 b9 be 18 ae ce bc 7f 19 6a be
       -0.15591757 -0.36194658 -0.025229499 -0.22861288
000330 6e 85 24 be 52 d7 8e be 84 e6 1d be 93 9b 84 be
       -0.16066524 -0.2789865 -0.15419966 -0.25899944
000340 fc a2 ab be 45 8a bd 3d 9b 77 9c be 86 51 b3 3e
       -0.33522785 0.092548884 -0.30560002 0.35023135
000350 14 d7 78 3d aa 6d 03 3e 39 38 01 3f a9 ac 36 be
       0.06075199 0.12834802 0.50476414 -0.17839302
000360 a1 38 d6 3d ff c1 c4 3b 9e 0f e2 be 0c 91 e2 be
       0.1046002 0.0060045714 -0.4415254 -0.44251287
000370 5e a4 ac 3e 06 dc 95 3b d3 d8 80 be d6 bb ba 3e
       0.33719152 0.004573348 -0.25165424 0.36471432
000380 2d 8c 24 3e ed 43 03 be 2b 4a 03 be e1 1c 6d be
       0.16069098 -0.1281888 -0.12821262 -0.23155548
000390 5c fc 98 be 9d 29 2e bc 61 8e f3 3e a4 7b af 3e
       -0.29880035 -0.010630039 0.47569564 0.34274018
0003a0 b3 ab 0f 3f 40 5e a1 be a8 13 87 be 53 ef cb 3e
       0.5612137 -0.3151722 -0.26382184 0.39831027
0003b0 45 de d1 be fa 41 06 be 3b e4 a4 bd ec 59 f5 3e
       -0.4098989 -0.13111106 -0.08051344 0.47920167
0003c0 04 33 39 be f4 89 08 3d 6e 45 f4 3d e8 bd 55 3d
       -0.18085867 0.033334687 0.11927305 0.05218306
0003d0 a2 db 21 be da 6d 49 3d 2a 6c 64 3d 7a 3a 93 be
       -0.1580644 0.04917703 0.055767216 -0.28755552
0003e0 bf 32 23 3e 83 68 8a 3d ab 7b e8 bc 9b d2 d5 3e
       0.15937327 0.06758215 -0.028379282 0.41762242
0003f0 40 21 d5 be 55 7c b7 3e 40 4c 1c 3d 6c bf a4 3e
       -0.4162693 0.35837045 0.038158655 0.32177293

shared.2.weight f4 [256, 256]
000000 f4 53 9b bc a4 a0 2c bd f9 2c d8 bc 6c 67 4b 3b
       -0.01896093 -0.042145386 -0.026388632 0.0031036986
000010 e6 f9 d1 3c 12 fe 0c 3e 56 2f f3 3d aa fb 3a 3d
       0.025631856 0.13768795 0.11874263 0.04565016
000020 d3 40 b2 bd 39 e7 06 bc ed 39 78 3d ba b4 14 3d
       -0.087037705 -0.008233839 0.060602117 0.036305167
000030 b7 94 8d 3d 41 d7 17 bd 27 14 ce bd 9e de cc 3b
       0.06913131 -0.037070516 -0.100624375 0.006252124
000040 5a 3f 8e 3c be b6 a5 3d 20 db 5e bd 48 89 55 bd
       0.017364193 0.08091496 -0.054408193 -0.052132875
000050 d0 6c a9 bd ef 32 a3 3c 75 b0 9c 3d 95 6a 30 bd
       -0.082727075 0.019921748 0.07650844 -0.043070395
000060 ef d3 73 bc c5 74 52 bd 83 79 ac bc b9 f7 c1 bd
       -0.014882072 -0.05138089 -0.021054035 -0.094710775
000070 b7 ed 98 3c df a3 5c bd b9 21 d0 bd 67 6c 9f bd
       0.018668039 -0.053867217 -0.10162682 -0.07784348
000080 7c 2e af bd c0 ea 89 3c 26 d6 3a bd be e4 33 3e
       -0.08553788 0.01683557 -0.045614384 0.17567727
000090 81 94 77 bd 2d 0f b6 3c f7 a0 f8 bb df 5c 09 be
       -0.06044436 0.022224033 -0.007587548 -0.13414334
0000a0 e4 57 03 bc 7e 83 66 3c d2 2f bf bc d8 1f f3 bc
       -0.00801656 0.014069436 -0.023338232 -0.02967827
0000b0 ac a8 db 3d a3 19 29 bd 5b 33 69 bd 17 62 49 3d
       0.10725531 -0.041284215 -0.056933742 0.04916581
0000c0 6d b2 71 3d 46 9c 53 3d 96 cd 14 bd 51 5b 50 bd
       0.05900805 0.051662706 -0.036328875 -0.050868336
0000d0 8a 51 03 3a 98 4c 3a 3d fc 7a 4f bd bd 86 b7 bd
       0.00050094037 0.0454832 -0.050654396 -0.08961246
0000e0 16 50 63 3d 7e 7e 00 3d c0 8b 28 3d d5 a6 20 3c
       0.055496298 0.031370632 0.0411489 0.009805401
0000f0 78 e0 53 3d 2b 56 0e 3d 44 f2 8c b9 a0 78 84 3c
       0.051727742 0.034750145 -0.00026883383 0.0161708
000100 fa 60 00 bd 32 77 63 bd fb 98 87 3c fc 80 fc 3c
       -0.031342484 -0.055533595 0.016552439 0.030823223
000110 8d d9 32 3d 6f 49 7e bd 70 14 12 3e 62 1b 79 3d
       0.043664504 -0.06208175 0.14265609 0.06081713
000120 64 62 b7 bc 72 f3 5c bb 2c b9 6c be 6a e8 1a 3d
       -0.022385783 -0.003371444 -0.23117512 0.037819304
000130 d9 e1 6e b9 de 95 8b bd a2 db 56 3c 85 5f cb 3c
       -0.00022781584 -0.06815694 0.013113888 0.02482582
000140 33 42 92 bd 0a 09 cc 3c db 8b 87 3d 48 25 ab 3c
       -0.07141533 0.024906654 0.06618472 0.0208918
000150 e8 2c e2 3c 6c cc 92 3d 98 b3 4a 3d ec e7 76 3d
       0.027609304 0.07167897 0.04948768 0.06027977
000160 25 72 6b bb ef 73 47 bd 50 04 d1 3c dd a8 e4 bc
       -0.003592619 -0.048694547 0.025514752 -0.027912552
000170 7c 47 48 bd e5 bb 0e 3d 08 41 04 3d f5 c0 b1 bb
       -0.048896298 0.03484716 0.03228858 -0.0054246136
000180 79 b0 38 3d e3 e0 18 bd 09 35 ec 3c c0 b9 f5 3c
       0.045090172 -0.037323844 0.028833883 0.029995799
000190 7d cb 1d bb d1 fd 18 3e 6e 8e 4b bc 8c 37 78 bd
       -0.0024077587 0.14940573 -0.012424095 -0.06059985
0001a0 d7 88 53 3d 8d 73 63 be 82 cd 96 bd ad 86 d1 bd
       0.051644173 -0.22212048 -0.07363416 -0.102307655
0001b0 99 33 6d bb e7 c8 1e bd 9a e1 ff bd 2f 4c 78 bb
       -0.0036194085 -0.038765814 -0.12494202 -0.0037887206
0001c0 77 2f b5 3c 0d a1 0a 3d 7a 2d 56 3d cb 99 39 bd
       0.02211736 0.033844996 0.052289464 -0.045312684
0001d0 27 af 44 3d 56 5d 51 bc 6c 3d c1 3c 42 b1 89 3d
       0.0480186 -0.012778601 0.023588859 0.06723262
0001e0 99 76 6d bd 0d 63 a5 bd 61 df 4b 3c c7 ba 9b 3d
       -0.05797443 -0.08075533 0.012443394 0.07603984
0001f0 e2 36 90 3d 12 f4 fc bd a6 48 86 3b 4f 21 80 3d
       0.07041718 -0.1235124 0.004098016 0.06256353
000200 b0 3b e6 3c ce 99 be 3d ee 87 5d 3d 55 92 ca bb
       0.028104633 0.0930668 0.05408471 -0.006181995
000210 4b ca 7f 3c 89 e5 53 bd 10 d9 da bb 89 2d 25 3d
       0.015612195 -0.051732574 -0.006678708 0.04032663
000220 c8 ac c6 3c a0 13 c7 3d ff 45 5a 3d b9 19 b5 3c
       0.02425231 0.0972054 0.05328941 0.022106992
000230 3c bf 93 3c 0a 5a aa bd e7 8c 09 bd 44 19 ba bd
       0.018035524 -0.08317955 -0.03358164 -0.0908685
000240 f5 19 a8 bd 5d 63 9c bd 9e c6 92 3c a7 e4 21 bd
       -0.08208076 -0.076361395 0.017916974 -0.0395247
000250 ea 62 61 3d 26 6e 84 3d 58 cc fb bd 70 35 87 bd
       0.055025972 0.06466322 -0.12294835 -0.06601989
000260 f8 25 07 3d 56 03 ae bd bc bb 0c bd 61 6d 3b bc
       0.032995194 -0.0849673 -0.034358725 -0.011439652
000270 62 21 25 3d 29 6d a6 bd 8d 75 64 3d f1 4c be bd
       0.04031504 -0.081262894 0.055776168 -0.09292019
000280 d5 a9 88 bd 34 61 79 3d c9 60 b6 39 2f 8f be 3d
       -0.06673018 0.060883716 0.00034785856 0.09304654
000290 a3 85 64 3d 6f 3d 9f bd eb 5c 59 bd 20 8e 2e 3d
       0.05579151 -0.077753894 -0.05306713 0.04261601
0002a0 8c b9 a4 3d ef 9b 6f 3d 52 f7 d2 bd 52 85 05 bc
       0.08043203 0.05849832 -0.10301079 -0.008149462
0002b0 17 83 d9 bd 02 01 d7 bd d2 f5 3e bd dd 5d e3 3d
       -0.106207065 -0.10498239 -0.04662115 0.111018874
0002c0 ae 04 06 ba 1c 4f 2a 3d 9b 46 33 3c a5 41 ef bc
       -0.00051123917 0.04157935 0.010942127 -0.029206106
0002d0 3d 2f 62 3d 2b 03 86 3d 56 e2 c9 3e ee a9 44 3d
       0.05522083 0.06543573 0.39430493 0.04801362
0002e0 fa 99 32 bd 86 2b 81 bc 24 d7 5b 3c 97 e2 35 bd
       -0.043603875 -0.015767824 0.013417993 -0.044405546
0002f0 d9 6d 47 3d 9c 0f af bd e3 a7 1a bd d6 43 00 3e
       0.048688743 -0.08547899 -0.037757766 0.12525877
000300 7d a1 c2 bd 44 d5 8e bd 48 07 68 bd cc 7c 18 bd
       -0.09503458 -0.06974271 -0.05664757 -0.03722839
000310 65 fb 93 3d df 5a b0 bb d4 03 e7 3b d6 9b af bc
       0.07225684 -0.0053819264 0.007050017 -0.021436613
000320 bc 2e 34 bd 7a ec 3e bd 54 66 19 be 7d b7 9d bc
       -0.043989882 -0.04661224 -0.14980441 -0.019252533
000330 64 98 10 be 60 7b ab 3c 30 99 a8 3c e8 b6 02 3c
       -0.14120632 0.020932853 0.020580858 0.007978179
000340 8c 3f bd bd 19 09 0c 3d 7a ed 89 bd 21 23 9f bd
       -0.09240636 0.034188364 -0.06734748 -0.07770372
000350 0b 49 46 bb 4d 4f 43 bd e7 2e 36 bd fb 43 1e 3d
       -0.003025594 -0.04768305 -0.044478323 0.03863905
000360 3e 4e 01 3d 0d 4b 2b 3d 32 d3 da 3c aa f5 90 bd
       0.03156876 0.04181962 0.026712034 -0.07078107
000370 fe 38 a1 3d 61 26 73 3d 04 e4 99 3d 14 39 75 3c
       0.078721985 0.059362773 0.07514194 0.014967222
000380 e3 55 e8 3c a5 2f d0 3c fb fe 44 bc 69 8d ec bc
       0.028361266 0.025413344 -0.012023683 -0.028876023
000390 0d 10 dc bd 65 1d 59 bc e6 48 e2 3c d7 42 30 bd
       -0.10745249 -0.013251637 0.027622651 -0.043032493
0003a0 74 d5 b2 3c ce e6 d6 bc f2 3c 52 bd ba 46 32 bd
       0.021830298 -0.026233103 -0.051327653 -0.04352448
0003b0 f1 9f b8 bd 0a cc 5e be d0 dc 62 3d a3 8e 48 bd
       -0.090148814 -0.21757522 0.055386364 -0.048964154
0003c0 83 8d e5 bd ea 3e 98 3c 05 69 84 3d a4 a4 c1 bb
       -0.11208632 0.018584687 0.064653434 -0.0059095193
0003d0 1b 2c ae 3d 85 5f 35 3d e7 e2 d9 3a 53 76 d6 3b
       0.08504506 0.044280548 0.0016623408 0.006544867
0003e0 a4 81 11 3d 1a 76 86 3d c5 a1 54 bd 70 e5 f1 bc
       0.035524026 0.06565495 -0.051912088 -0.02952835
0003f0 7a 17 8f bd 96 90 18 be ee 31 52 3d 84 04 16 3d
       -0.069869 -0.14898905 0.051317148 0.0366254

shared.2.bias f4 [256]
000000 93 26 5f 3c 50 c1 27 3e c2 ff 31 3d cf 3b b8 3d
       0.013620037 0.16382337 0.0434568 0.089957826
000010 7a fb 3c 3c 1f 5c 81 3c a2 a2 93 be 14 f2 01 3d
       0.011534566 0.015790997 -0.28835016 0.031725004
000020 2f 22 e5 3c 6f 45 1d 3e f1 0b c8 3d 15 45 8f 3c
       0.027970402 0.15358518 0.09767903 0.017488996
000030 d9 d5 55 3d 6f 28 f4 3d f1 ed c4 3d bf ac c5 3d
       0.052205894 0.119217746 0.09615696 0.09652089
000040 f6 53 f2 3d ae 62 2b 3e 98 1f b7 bc b7 81 93 bb
       0.118324205 0.16736862 -0.022353932 -0.004501547
000050 b8 94 2c 3e 21 c1 da 3d d5 b6 2c 3d 16 2a 4c bd
       0.16853607 0.10681368 0.04216655 -0.049844824
000060 86 84 c7 3c c3 cf f0 3d 06 62 0a bd 6a f3 4b bd
       0.024355184 0.117583774 -0.03378489 -0.049792685
000070 cc 31 07 3e 64 f7 d9 bc e7 96 08 3e 6a 1a fc 3c
       0.1320259 -0.026607223 0.13338815 0.030774314
000080 ce d3 5b be 5e 8f 21 bd ad 3c 13 3e 66 36 1c 3d
       -0.21467516 -0.039443366 0.14378615 0.038137816
000090 7a 01 b5 3d f0 e0 03 3e 96 19 27 3e 31 b4 ff 3c
       0.08838172 0.12878776 0.16318354 0.031213852
0000a0 74 c3 b1 bc 1e 43 31 3e 3b 07 69 3d c8 02 6a 3d
       -0.021699645 0.1731076 0.05689166 0.05713156
0000b0 f0 51 1d be f0 13 eb b9 b4 9f 56 3d cf fb 23 bc
       -0.15363288 -0.00044837547 0.0523984 -0.010008766
0000c0 1e 96 35 3d a5 a1 53 3c b6 9b 05 3e a8 22 ec bd
       0.044332616 0.012916957 0.1304768 -0.11530048
0000d0 68 95 90 3a af 85 07 3e fe 0f 9e 3d cd b9 d6 3d
       0.0011030855 0.1323459 0.07717894 0.104846574
0000e0 fe a8 13 3e b2 84 da 3d 69 32 c6 3d 1c 54 e3 3d
       0.14419934 0.10669841 0.09677584 0.11100027
0000f0 6d 0b c9 3c 7f 69 ad 3d 52 f0 c3 3d c8 e5 e6 bc
       0.024541581 0.084673874 0.09567322 -0.02818574
000100 e3 61 86 3c 39 8e 5d 3d c3 9a e7 3d 63 e5 c8 3d
       0.016404098 0.054090712 0.11308815 0.09809377
000110 19 4d 1c 3e 99 28 e7 3c f3 6a a6 3d ad b7 54 3e
       0.15263785 0.0282176 0.08125868 0.20773192
000120 16 0a e5 3d 1f 46 be 3d 61 55 e2 3d 07 59 ea 3c
       0.11183564 0.09290718 0.11051441 0.028606905
000130 42 3d 98 3d f8 ca b6 bc a3 03 88 bc 7b 10 72 3d
       0.07433559 -0.02231358 -0.016603297 0.05909775
000140 34 b1 76 3d 05 fe 05 be 83 fd 09 bd 6f f2 8a bc
       0.060227588 -0.13085182 -0.033689033 -0.016961304
000150 84 68 44 be c4 d8 c3 3d ce 6f f7 3d 79 19 28 bc
       -0.19180495 0.09562829 0.12081872 -0.010259979
000160 c4 e1 00 3d 44 8a 1b 3d 41 b9 23 3e 2f 01 51 3e
       0.031465307 0.037973657 0.15988638 0.20410608
000170 e5 fe 44 bc a1 e1 bd 3d 26 17 cc 3d 67 76 d9 3b
       -0.012023662 0.09271551 0.09965353 0.006636429
000180 ba 99 95 3d b6 63 9c 3b 7d 2b 25 bd 8e 0f 91 3c
       0.07304712 0.0047726287 -0.040324677 0.017707612
000190 6d 56 05 3b 08 7f 1f 3e 9f d1 8d be 37 6c af 3c
       0.0020345703 0.15575802 -0.2769899 0.021413906
0001a0 62 af 8f 3d 1d 57 8e 3b db 2b 80 be da a7 4b 3e
       0.070158735 0.004343881 -0.2503346 0.19888249
0001b0 ce bc 51 bd f1 50 1d bc 60 e4 e3 3d e4 ab de 3c
       -0.05120545 -0.0096018175 0.111275434 0.027181573
0001c0 40 79 e6 3b 33 9b b1 3c b7 fe 92 3d b9 18 d5 3d
       0.007033497 0.02168045 0.07177489 0.10405106
0001d0 70 b6 cd bd 7f e9 44 3e 75 ad 3d 3d 79 96 a3 bd
       -0.10044563 0.19229697 0.046308 -0.07987685
0001e0 13 4c a7 3d 54 b7 45 3e 7d 1c 46 3d ef cc f0 3c
       0.08168807 0.19308215 0.048367012 0.029394595
0001f0 02 23 8e 3d a5 5c 67 3d fd 5a b8 3d 40 32 51 3d
       0.06940271 0.056484837 0.0900173 0.051073313
000200 74 f5 c9 3d 26 a0 2b 3e 3e ff b9 3d 26 dc 1f bd
       0.098612696 0.1676031 0.09081887 -0.03902831
000210 0b 33 54 bd 92 5a fc bd b4 2a c3 bc 9d 21 21 3d
       -0.05180649 -0.123219624 -0.023824073 0.039338697
000220 12 de 98 3d 2e 24 16 3e fc ef 63 3d a8 31 ac 3d
       0.074642316 0.14662239 0.05564879 0.08407909
000230 d3 fa 3a be 43 ac 61 bd f9 35 db 3d cd 71 88 3c
       -0.18259744 -0.055095922 0.10703654 0.016655827
000240 75 67 57 bd fd f9 10 3e 43 60 53 bd b7 c4 c8 3d
       -0.0525889 0.14157863 -0.051605474 0.098031454
000250 27 60 a4 bd c8 25 69 3c 1d 47 ea 3d e8 fb 25 3d
       -0.08026152 0.014230199 0.11439345 0.04052344
000260 6c 30 ad 3d 98 77 48 3e d9 06 81 3c ee dc 1b 3d
       0.08456501 0.19576871 0.015750336 0.03805249
000270 57 20 8c be 3e e8 0f 3c 6c b8 3c bc f2 fc 11 3d
       -0.27368423 0.008783398 -0.011518579 0.035641618
000280 2a 23 c4 3d 07 3d 86 3d 21 9a eb 3c f6 2d ed bc
       0.095770195 0.06554609 0.028760018 -0.02895258
000290 ec 68 95 3d fc 34 21 3e 19 fa 2c be 5c f1 8b 3a
       0.07295403 0.15742868 -0.1689228 0.0010676789
0002a0 8c 6c 0b be f7 8d 15 3d 6f 17 fe 3d a5 be 36 bd
       -0.13615626 0.03651234 0.12406813 -0.044615407
0002b0 73 18 83 3d 42 ee 03 3e 84 f1 f7 3c fa 74 78 bd
       0.06401148 0.12883857 0.03026653 -0.060658433
0002c0 90 3d 04 3d da ef 26 3d aa b0 15 3e c3 09 44 3d
       0.032285273 0.040756084 0.14618173 0.047860872
0002d0 cb 8a ec 3d 88 29 bd 3d d0 2a 32 3d 13 04 c2 3d
       0.1154991 0.09236437 0.04349786 0.09473433
0002e0 19 e8 3b 3b 11 95 17 3d db c4 bf 3d d6 5b 94 bc
       0.0028672277 0.037007395 0.09363719 -0.018110197
0002f0 f5 46 ce bc 25 97 67 3d d7 41 22 3e 50 a7 4a bd
       -0.02518032 0.056540627 0.15845428 -0.049475968
000300 0f 65 d4 bc eb fa 17 3e 1d 97 b6 3d 5a 72 e7 3d
       -0.025927095 0.14841811 0.08915541 0.11301108
000310 c2 a2 e3 3d cf 32 8e 3d ba a8 7b 3d a6 e2 19 3d
       0.11115028 0.06943285 0.061440207 0.037569664
000320 9c 42 27 bd 12 ea 22 3e fe a7 b2 3d 5d 9b c3 3d
       -0.040835008 0.15909603 0.08723448 0.095511176
000330 81 8c c9 3d 61 47 0a 3e 85 33 a7 3d 74 66 f6 3c
       0.09841252 0.13503791 0.081641234 0.03007815
000340 b6 ff fe 3d 4c ab 31 3d f2 e0 06 3e e0 7b 25 3d
       0.12451117 0.043376252 0.13171747 0.04040134
000350 18 b8 34 3d 32 c3 22 3b a6 91 e5 3d 8f 77 c2 3d
       0.044120878 0.0024835584 0.11209421 0.0949546
000360 a7 e2 36 bd b3 dc e0 3d bc fc a1 3d 1f 22 31 3e
       -0.044649746 0.10979595 0.079095334 0.17298172
000370 a3 c1 57 3d 46 98 1b 3e 52 00 2d 3e ef 26 89 3d
       0.0526749 0.15194806 0.16894653 0.06696879
000380 2d eb 77 3d 26 9b bc 3d 8e c3 44 bc 58 a7 0c 3e
       0.060527015 0.0920928 -0.0120095145 0.13735712
000390 7e 45 ba 3d 51 55 2c 3d d5 6a 97 3c 0c a7 19 3d
       0.09095286 0.04207355 0.018483559 0.037512824
0003a0 48 e4 bc 3d 81 6f 26 3e 33 2b 17 bd d6 4d bb bd
       0.09223229 0.16253473 -0.036906432 -0.091457054
0003b0 51 54 9d 3c cc 36 97 3c 2d e1 c8 3d de 9e 60 be
       0.019205244 0.018458746 0.09808574 -0.21935603
0003c0 fe e1 70 3a e3 fe 7b 3d 66 cb 4f be 28 dd 2c be
       0.0009188949 0.061522376 -0.20292434 -0.1688124
0003d0 ef 08 27 3c c7 4e 1d be c7 da a7 3d d8 3a 2e 3d
       0.010195001 -0.15362082 0.08196025 0.042536587
0003e0 62 b4 5b 3c cc a0 94 b8 64 ac 9b 3c 64 9f 09 bd
       0.013409706 -7.087141e-05 0.0190031 -0.033599272
0003f0 61 4c 68 3d 23 cc 42 3d 7d 69 09 3e c9 68 fd bc
       0.056713466 0.04755796 0.13419147 -0.030933755

actor.weight f4 [3, 256]
000000 43 55 a9 3d 6f 1d d5 bc 2f 69 df bb f4 60 fe bc
       0.082682155 -0.026015012 -0.006817959 -0.03105209
000010 8e c8 9d bd 69 4d ac bd b8 bd a1 bd 2d 42 cc bc
       -0.077042684 -0.08413202 -0.07897514 -0.024933899
000020 69 6d 0c 3d 3b 79 32 3d 61 49 aa 3d 10 2f 89 bc
       0.03428403 0.043572646 0.08314777 -0.016746074
000030 47 ef aa 3d 45 26 37 3b 00 e6 e1 3c 4f a3 b6 bb
       0.0834642 0.0027946394 0.027575493 -0.005573667
000040 0c f3 0a 3e 06 80 cf 3c 48 2e 22 3c 55 d8 e0 bb
       0.13569278 0.025329601 0.00989873 -0.0068617263
000050 c5 77 48 3d ca 50 83 3d 3c 15 71 be 7f 27 c4 bc
       0.048942346 0.06411894 -0.23543257 -0.023944614
000060 29 74 a0 bb 6f e8 d9 3d 85 1d fb 3c 4b 4b ff bd
       -0.00489666 0.10640036 0.030653724 -0.12465533
000070 34 a5 c5 bd b8 c6 3b 3c 2e c9 1a be 5f dc af bb
       -0.096506506 0.011460952 -0.15115806 -0.0053668465
000080 b9 86 c0 3b 60 b5 a8 bc 54 6e 07 3e 08 e0 9e 3a
       0.005875435 -0.020594299 0.1322568 0.001212121
000090 b9 86 b8 3d 6c c6 ab bd 23 08 df bd 9a 03 99 bb
       0.09010071 -0.08387455 -0.10890224 -0.004669619
0000a0 ec 95 27 3d a1 63 04 3e 7a e8 2b 3d e6 c9 74 3d
       0.04091446 0.1292863 0.041969754 0.059762858
0000b0 55 13 03 3b d5 0b 26 bd 96 68 73 3d 21 51 3a 3e
       0.0020000536 -0.040538628 0.059425913 0.1819501
0000c0 e2 3c c0 bc ff 1f 8f bc f3 76 a3 bd 03 57 1f bd
       -0.023466531 -0.017471312 -0.07981672 -0.03890134
0000d0 80 08 02 3d ec f8 7f 3e 91 b4 e4 3d d4 fb 20 3c
       0.031746387 0.249973 0.11167253 0.0098256655
0000e0 5a 8a bd bd ab 67 cf 3d 35 f9 a1 3d 62 71 9d bc
       -0.09254904 0.10127195 0.079088606 -0.019219104
0000f0 0b 59 25 3d 2e e7 e0 3d cf 00 b9 bd 09 48 79 bd
       0.04036812 0.10981594 -0.09033357 -0.060859714
000100 1c cb 93 be 8b 16 ba bc e8 b9 8a ba 8e 90 a4 3c
       -0.28865898 -0.022715827 -0.0010583969 0.02008846
000110 0c fb 85 3c 4a c1 a7 bb a7 f6 4d 3d 0b dd 51 3e
       0.01635506 -0.0051194774 0.050284054 0.20494477
000120 3e d5 f6 bd d8 bb e9 3b 38 02 4c bd 6b 2a 85 3c
       -0.120523915 0.0071329884 -0.049806803 0.016255578
000130 ec 07 28 bc dd c2 77 3b 61 77 b9 3c 57 a5 5c 3e
       -0.010255795 0.0037805357 0.022639932 0.21547447
000140 9b 32 5e bd d0 4d a7 3b 9a 70 04 bd 20 1e 37 3d
       -0.05424748 0.0051057115 -0.032333948 0.044706464
000150 b7 0c b9 3b 44 d2 ee 3d 65 e1 9b 3d 10 45 4c 3d
       0.0056472677 0.11661199 0.0761135 0.04987055
000160 ab 85 22 bd da 59 d9 3d 8a f6 b7 bc 3e 48 cf 3d
       -0.039678257 0.10612841 -0.022456426 0.10121201
000170 de 88 c3 3c db 76 ac bc a0 31 b1 bd 24 27 ba bc
       0.023868974 -0.021052768 -0.08652043 -0.022723742
000180 4b aa 86 bc e4 a7 8f bc 39 bb 5e 3d 89 b4 53 3d
       -0.016438624 -0.017536111 0.05437777 0.051685844
000190 17 42 85 3d d1 a0 f4 3d e8 28 c3 bc 12 d1 bf 3c
       0.06506746 0.11944736 -0.023823217 0.023415122
0001a0 c2 82 14 bd 76 18 e8 3c ff 72 3e bd a6 75 0f be
       -0.036257513 0.028331976 -0.046496388 -0.14009723
0001b0 82 a6 34 be c3 9b ca bb 21 8c c8 3d fe 7a 75 bc
       -0.17641643 -0.006183119 0.097923525 -0.014982937
0001c0 ca c7 04 3d 89 a6 4b 3d b1 1b d6 3d 90 64 1a bd
       0.032417096 0.049719367 0.104545005 -0.03769356
0001d0 3b 2a 4c 3d 00 ad 64 3d e9 fe 89 bd b3 d2 b2 3a
       0.04984496 0.05582905 -0.067380734 0.0013643116
0001e0 8b b7 97 3d c2 4e ca 3d d5 ce a5 bb b2 4a 33 bd
       0.07408055 0.09878303 -0.0050600567 -0.043772407
0001f0 d7 28 96 3d b2 fd 09 bd e5 cd 55 bd 8c 37 02 3e
       0.07332008 -0.03368921 -0.05219831 0.12716502
000200 62 22 71 3c 6f 53 70 bc 62 1f 99 bc b7 92 38 3d
       0.01471767 -0.01466833 -0.018691722 0.045061793
000210 fa 70 5e bd 5b d7 c5 3c 02 9d 09 3d 6a af 9b 3b
       -0.05430696 0.024150541 0.033597 0.0047511356
000220 12 09 e2 3d c9 73 f7 be 97 1f c9 bc fb 8e 9a bd
       0.11036886 -0.48330525 -0.024551196 -0.075468026
000230 45 e0 bd 3d 90 16 57 bd dd 23 30 3c 09 34 85 3c
       0.09271292 -0.05251175 0.010750738 0.016260164
000240 1b c6 12 3c c9 22 e2 3c ce e5 df 3c c9 4a 56 bc
       0.008958365 0.027604477 0.02733126 -0.013079354
000250 bf df b7 3c cd a8 d6 3b 47 ea 40 3c 0f a7 8c bb
       0.022445558 0.0065508843 0.011774606 -0.004292376
000260 df ed 8c 3d 41 ba b9 bd c3 e8 56 bd bf e1 0f bc
       0.06881308 -0.09068728 -0.052468073 -0.008781849
000270 a0 d4 16 3d 22 63 be bc 25 28 67 3c d8 77 3d bc
       0.03682387 -0.02324063 0.014108692 -0.0115642175
000280 df c6 b3 3b 0f 3e a4 3d 60 ef 03 be 10 0e b0 3d
       0.0054863538 0.08019649 -0.12884283 0.08596432
000290 05 19 13 bd 29 49 47 3d 2e 22 74 bd 5d 54 97 3c
       -0.035912532 0.048653755 -0.05960291 0.018472845
0002a0 a3 10 f5 3d fe e3 9b 3c 37 0d 88 3d bd 9c 8a bc
       0.11966064 0.019029614 0.066431455 -0.016920442
0002b0 47 8e be 3c 8d aa ae bc 0b 3c 85 bc d0 08 fa 3b
       0.023261202 -0.02132156 -0.016263982 0.007630445
0002c0 65 9b 38 bd a0 e5 52 3d 51 45 76 3e 63 d3 1d bd
       -0.04507007 0.05148852 0.2404988 -0.038531672
0002d0 31 85 6e 3c bd 80 1a be a3 88 ae bc a4 cb 4e 3b
       0.0145581225 -0.15088172 -0.021305388 0.0031554485
0002e0 6e 3f 16 bd 49 93 04 be e7 e6 34 bd b5 c8 57 3d
       -0.036681585 -0.1294681 -0.044165518 0.052681644
0002f0 73 31 77 3d 8d d5 05 3d 8b 00 6c 3e d0 6f f1 bc
       0.060349893 0.03267436 0.23047082 -0.029472262
000300 ce 04 a7 3c f9 8b 79 3d 66 42 0b bd 88 b2 1d bd
       0.020388033 0.060924504 -0.03399887 -0.03850034
000310 57 6b e4 bd 59 03 f1 bc 9e be 4d bd 98 02 d2 3c
       -0.11153286 -0.029420542 -0.050230615 0.025636002
000320 07 75 cf 3b 4c 95 c3 3c 3f d5 04 3e 8f 2b b6 bd
       0.0063310894 0.023874901 0.12971972 -0.08895027
000330 12 df 92 bd d5 51 22 3d 12 16 80 3c a7 95 f5 bd
       -0.071714535 0.039628822 0.015635524 -0.119914345
000340 07 44 71 3d d7 6b d4 3d 3c 67 5f 3d 2b 46 63 3d
       0.058902767 0.10372131 0.05454181 0.05548684
000350 c8 30 81 b9 2a 1f a4 3d 0a 32 96 bd 1d 6e 89 bc
       -0.00024641142 0.080137566 -0.07333763 -0.016776139
000360 6b 0f 01 3d ac d2 cb bc 56 34 e2 bc 8d ef c0 be
       0.031508844 -0.02488073 -0.027612846 -0.37682763
000370 14 ca 32 3c e3 63 c5 bd bd a6 c8 3d 51 8d f3 3c
       0.010912437 -0.096381925 0.09797428 0.02973047
000380 c4 43 ab 3d 3e 6e 78 bd c8 52 86 3a 23 b0 60 3d
       0.08362535 -0.06065201 0.0010248059 0.054855477
000390 46 d1 b8 bd ac d0 d5 3c 06 1f 5b 3d c5 11 d1 bd
       -0.09024291 0.026100479 0.053496383 -0.102084674
0003a0 18 b5 93 3d ed 7c 6f bd 21 d5 95 bd 20 db 26 3c
       0.07212275 -0.058468748 -0.07316042 0.010184079
0003b0 92 0f a3 bb aa e9 c7 3c 5d 11 0b be da 4f d5 3d
       -0.0049762214 0.024403412 -0.13580842 0.10415621
0003c0 ea 5f 48 3d 0d ab 5b bd 67 0f 81 3d ee d3 ce 3a
       0.048919596 -0.053629924 0.06301766 0.0015779713
0003d0 02 ad dc bc 22 5e cd 3d 5d b8 96 bc 77 43 5e 3d
       -0.026937965 0.1002772 -0.018398458 0.05426356
0003e0 20 a2 c5 bd ee 32 66 3d 80 af 1e bd 51 f9 dc bd
       -0.096500635 0.056200914 -0.03874159 -0.10789741
0003f0 67 db 67 bd b1 16 e6 3d 94 22 e5 3c 6a 9b 17 3c
       -0.056605723 0.11234797 0.02797059 0.009253362

actor.bias f4 [3]
000000 41 45 89 3d 8e c9 8a bc f0 6b ae 3c
       0.06702662 -0.016941812 0.021291703

critic.weight f4 [1, 256]
000000 0b 39 da bc 6c 96 91 3d 10 05 b6 bc e4 41 9d 3d
       -0.026638528 0.07108769 -0.02221921 0.07678583
000010 ec 9b 30 bd c5 35 88 bd f7 cc 41 3d 6c 83 18 bd
       -0.04311745 -0.06650881 0.04731461 -0.03723471
000020 11 27 2a 3d 76 57 fe bc db c1 08 bd 5b 01 d4 3c
       0.041541163 -0.031047564 -0.033388 0.025879553
000030 a4 4e 5b bd 7b 32 10 bd 54 22 8c 3b 34 ec 66 bd
       -0.053541794 -0.035204392 0.004276553 -0.056377605
000040 aa 04 ff bc 7b b1 83 bd 80 9a 36 ba d6 ab 92 bd
       -0.031130154 -0.06430336 -0.00069657713 -0.07161681
000050 4e a5 bd bc 42 90 ca bc f0 d1 b0 3e d9 8f fb 3b
       -0.023150112 -0.02472699 0.3453517 0.00767706
000060 1c b3 df 3b 5f 3a 5c 3e 36 0f 05 3d 5c 5d a4 3d
       0.0068267714 0.21506642 0.03248521 0.080256194
000070 b8 3b 4b 3c ee c7 12 3d 10 26 ce 3d d4 d6 58 3d
       0.012404375 0.0358352 0.100658536 0.05293925
000080 03 6f 34 3d f3 6d d1 3c f7 10 bc bc 26 f7 3f bd
       0.04405118 0.025565123 -0.022957308 -0.04686656
000090 01 5a 7a bd 78 e5 7c bd a3 ad 96 bc a1 d9 cd 3c
       -0.06112099 -0.061742276 -0.018393343 0.025128188
0000a0 a0 e5 1c 3d 8d 2e d4 3d 10 e6 3d bd a3 d1 0a 3d
       0.038304925 0.10360441 -0.046361983 0.03389133
0000b0 4e c0 ad 3d 0b 11 8c bd bc 6d ee bc db c1 d3 3e
       0.08483945 -0.06839188 -0.02910506 0.41358837
0000c0 49 87 92 bd 5e 14 87 bd 74 fc 8e bc eb 7a 3a 3d
       -0.0715471 -0.065956816 -0.017454363 0.04552738
0000d0 2f d8 1c 3d c3 f2 19 3e 34 d1 61 bc d9 a7 55 bd
       0.038292106 0.15034012 -0.013782788 -0.052162025
0000e0 e4 32 ba bc 32 4d d5 3a 9f a9 e6 bc f5 5c 9d bd
       -0.022729345 0.0016273616 -0.028157054 -0.07683746
0000f0 82 ca e5 bc 18 23 da bc 9d a3 3a bd 50 fa 54 3d
       -0.028050665 -0.026628062 -0.04556619 0.05199653
000100 2c cb a8 3e 06 4f 12 bd e6 b5 2e bd ef 8a cf bc
       0.32967508 -0.035719894 -0.04265394 -0.025334803
000110 32 fc c1 bc 13 5f 40 3d b8 81 0d bd 94 34 fa 3d
       -0.023679826 0.04696567 -0.034547538 0.1221706
000120 12 bf e1 bc 1b 14 02 bd b8 ed 4b bd 43 ed 7c bd
       -0.02755693 -0.031757455 -0.049787253 -0.061749708
000130 2b 34 ac bd 77 a5 1b 3d cc 79 1f 3d ec 7e 83 3e
       -0.08408388 0.037999596 0.038934514 0.2568277
000140 9c 00 14 bd d7 a3 8d 3d b8 9a 53 3d 18 5a 1d 3d
       -0.036133394 0.069160156 0.051661223 0.038416
000150 8d f0 83 3d c8 60 fb bc d3 8e a8 bd 67 49 29 3d
       0.06442366 -0.030685797 -0.082303666 0.041329768
000160 ae 48 1b 3d 98 b5 27 bd 0c 75 a8 3d 43 9d 3c 3d
       0.03791111 -0.040944666 0.0822545 0.046048414
000170 21 65 cc 3c 4f ce d5 bd d3 d8 b0 bc b7 a5 85 bd
       0.024950566 -0.10439741 -0.021587765 -0.06525748
000180 9b 1e 3b bd 32 9f b9 3c aa c9 58 3d cb 2c 19 bd
       -0.045683485 0.022658918 0.052926697 -0.037396234
000190 15 a6 aa bd 9c 15 b6 3d 53 f9 5c 3d 81 a5 5c bd
       -0.08332459 0.088908404 0.05394871 -0.053868774
0001a0 26 16 54 bd c8 e4 43 3c 3d 28 00 3e c6 19 db 3d
       -0.051778935 0.011956401 0.1251535 0.10698275
0001b0 50 7a 39 3e 06 84 1a 3d 8e 90 1a bd 3f 88 3f bd
       0.18113065 0.037723564 -0.037735514 -0.046760794
0001c0 2a da 4e bd 8d 5e 65 3d 43 65 59 bc 78 d5 5a 3d
       -0.050501026 0.055998374 -0.013268772 0.053426236
0001d0 c0 0f b2 3d 6c 3d 32 3e 1d 6e 3a bd 5d e8 c5 3c
       0.0869441 0.17406243 -0.04551517 0.024158651
0001e0 7e d8 4e bd 3f 13 f0 3d a2 77 55 bd 88 74 89 bd
       -0.05049943 0.11722421 -0.052116044 -0.0671168
0001f0 d3 c1 81 bd d0 d3 50 bd 6f 56 49 bd 54 72 16 bd
       -0.06335797 -0.05098325 -0.049154695 -0.036730126
000200 30 0d ed 3d 39 70 2c bd f8 c8 f0 bc 58 d0 a6 39
       0.11574781 -0.04209921 -0.029392704 0.00031817215
000210 b5 bc 10 3d 59 ec 75 3d d9 d5 dd 3c bd f9 58 bd
       0.035336215 0.06003985 0.02707951 -0.052972544
000220 27 a0 0c bd d0 9b f6 3e b4 2a 48 bd 8d 4d 1c bd
       -0.03433242 0.4816575 -0.04886885 -0.038159896
000230 64 21 83 3d d2 9f 5f 3d 39 d9 7a bd 5a 5d 4c bd
       0.06402853 0.054595776 -0.061242316 -0.049893714
000240 c7 0c 27 3d 23 7f 52 bc 97 67 18 3d 93 11 ce bc
       0.04078367 -0.012847695 0.037208166 -0.025154864
000250 74 12 d7 3b e4 3e 36 bd 56 31 2e bd e3 b7 78 bd
       0.006563479 -0.04449357 -0.04252752 -0.060722243
000260 38 6c be bc c9 2e 27 3e 97 16 65 3c e8 25 8f bc
       -0.023244962 0.16326441 0.013982437 -0.01747413
000270 71 a9 be 3d 3b f8 c0 3c d0 37 1a 3d 16 6d 8b bd
       0.09309662 0.023555866 0.037650883 -0.06807916
000280 cf 08 77 bd 1b 8a a8 3d 2e 85 1b bd b6 9f 51 3d
       -0.060311135 0.082294665 -0.037968807 0.051177703
000290 51 b6 fb bd 96 f9 94 bd ad c9 b7 3d 60 fd 4f 3d
       -0.122906335 -0.07274167 0.089740135 0.050778747
0002a0 ac 2e 54 3d 26 9e 30 3c 91 d5 01 bd 8b 37 88 bb
       0.051802322 0.010779893 -0.031697813 -0.004157012
0002b0 6b f9 65 bd c8 86 89 bc f4 45 7a 3b 57 34 98 3b
       -0.056146067 -0.016787902 0.0038188668 0.0046449113
0002c0 66 fc 6b bd ca c1 55 bd 6e db 50 3e 6b f0 89 bd
       -0.057613753 -0.052186765 0.20396206 -0.06735309
0002d0 ce 23 78 bd fa d5 ed bc b3 1a 0d 3d 03 19 df bc
       -0.06058102 -0.029032696 0.03444929 -0.027233606
0002e0 ec 27 4a 3d 26 37 6b bd 99 cd 62 3e e7 4e f3 3b
       0.04935448 -0.05742564 0.22148742 0.0074251774
0002f0 0d 22 00 3d b9 94 3a bd 28 ed 17 3e c8 cd 43 3d
       0.031282473 -0.04555199 0.14836562 0.04780367
000300 35 ea 4f 3d ee 7f 31 3e 07 64 1b bd c7 00 da bc
       0.050760467 0.17333958 -0.03793719 -0.026611699
000310 cf 99 e2 bc 45 e8 a0 bd a5 f3 57 bd d3 dd 30 3d
       -0.027661232 -0.07856802 -0.052722592 0.043180298
000320 07 88 b9 3c dd df 86 3d 90 4e df bc 9e 51 92 bd
       0.02264787 0.06585667 -0.027259141 -0.071444735
000330 d3 d2 f1 bc 33 69 ff bc 22 fd c3 bb ae 92 c6 bd
       -0.029519474 -0.031178093 -0.0059811035 -0.09695946
000340 98 5f 38 bd f2 96 32 bd 1e 25 96 bc af c1 5d bd
       -0.04501304 -0.043600984 -0.018328246 -0.05413979
000350 7c 59 34 3b 57 21 98 bd c8 fe c9 bd 91 0a 2c bd
       0.0027519157 -0.07428234 -0.09863049 -0.042002264
000360 d6 f7 d5 bc f7 79 e2 bc 89 80 81 bc 2f cd bd 3e
       -0.026119154 -0.027646048 -0.01580836 0.37070605
000370 f3 b1 08 bd 88 3b 41 3b 41 4b 3b 3e fb a5 2f bd
       -0.03337283 0.0029484946 0.18290426 -0.0428829
000380 bc 81 38 bd 51 91 68 bd 1e b2 d7 3c 8e 53 ca 3d
       -0.0450456 -0.05677921 0.02633005 0.09879218
000390 46 0d 88 bd 76 53 2b bd 5e f0 5d bd 16 ea 59 bd
       -0.06643157 -0.04182764 -0.05418431 -0.053201757
0003a0 a6 ed 2e bd b7 00 7c bc e8 61 a4 3d 97 25 48 3d
       -0.042707108 -0.01538103 0.08026487 0.048863973
0003b0 50 c7 d8 3c 6d fa 8f 3c 0c bb d3 3c 78 14 89 3d
       0.026462227 0.017575467 0.025846027 0.06693357
0003c0 06 f2 5c 3d ad de 91 bd 00 b9 18 3d 2f fd 7e 3d
       0.05394175 -0.0712255 0.037285805 0.062253173
0003d0 7a b2 f8 3c cd c6 df 3c 4f 72 78 bd 28 0b 2a bd
       0.030358542 0.027316475 -0.06065589 -0.041514546
0003e0 f4 3a 6d bd 70 28 38 bd 6f f8 2a bd 05 7c 4d 3e
       -0.05791755 -0.04496044 -0.04174083 0.20066841
0003f0 5b b2 94 bd eb e7 3e bd c1 5d de bc d2 8a 21 3d
       -0.07260581 -0.046607893 -0.027144315 0.03943903
