Experimenten/Experiment1Snake/PPO/ppo_snake_5400.pth (torch, 280852 bytes, 7 tensors)

shared.0.weight f4 [256, 9]
000000 00 2d 1e 3e 4e f9 8a bd 19 96 b4 3e 45 81 8f be
       0.15446854 -0.06785832 0.35270765 -0.28028312
000010 28 05 93 3c 9f d4 ed 3c e4 88 2b 3f 2f cf 08 3f
       0.017946795 0.02903205 0.67005754 0.5344114
000020 e5 6c 85 bd f5 3f fe be 15 59 69 3e b7 84 27 3e
       -0.065149106 -0.4965817 0.22787888 0.1635922
000030 52 83 ac be f0 97 c2 3b 7a e6 7f be a8 37 a8 3e
       -0.3369394 0.0059385225 -0.24990264 0.32854962
000040 e9 37 8a be 59 87 94 be df d4 a9 bd 5b a0 cc 3d
       -0.2699578 -0.29009512 -0.08292555 0.09991523
000050 bf 62 d3 3e 7f 56 13 be 4d 31 36 3d 55 da 83 be
       0.41286275 -0.14388464 0.04448061 -0.25752512
000060 94 d7 82 bd 9b 43 07 3e 89 7e fa be 4c 19 af be
       -0.063887745 0.13209383 -0.48924664 -0.34198987
000070 5f 08 00 be 2f 75 82 3e f6 b2 f9 be 38 b8 5a be
       -0.12503193 0.2548003 -0.4876935 -0.21359336
000080 bb f5 79 3e e9 51 85 3e ae a9 9a 3e c2 30 a5 3e
       0.24410145 0.26039055 0.3020758 0.32263762
000090 13 e2 4f be 62 e1 07 be b2 8b e5 be 1e df 98 be
       -0.20301084 -0.1326957 -0.44833142 -0.29857725
0000a0 8b a5 96 be 77 c8 4a be 77 5a 50 be 64 14 b4 be
       -0.29423174 -0.19803034 -0.2034701 -0.35171807
0000b0 6e 90 6f 3e 17 f1 b2 3e cd e3 4b 3e 3c 1c 94 3e
       0.2339494 0.34949562 0.19911118 0.2892779
0000c0 0f 71 b8 be 27 f0 3c bd f0 c9 59 bd 31 61 a1 bd
       -0.36023757 -0.046127465 -0.0531711 -0.07879866
0000d0 8c 20 00 3f 8a c9 4e 3e 19 12 20 be 31 41 a1 be
       0.5004966 0.20194069 -0.15631904 -0.3149505
0000e0 c8 af af 3e bf 90 bc 3e b8 a8 69 bb 03 01 b9 3d
       0.34313798 0.36829183 -0.0035653543 0.09033396
0000f0 82 23 1d 3e 49 3f 99 3e 66 de 18 3f ff a4 eb 3d
       0.15345576 0.29931095 0.59714353 0.1150608
000100 16 ec 87 bd 29 cc b6 bd 82 6a 47 3d 71 90 32 bc
       -0.06636827 -0.08925659 0.04868556 -0.010898695
000110 51 23 76 ba 7d 86 17 bf b3 c6 8e 3e 35 f2 2a bf
       -0.0009389418 -0.5918959 0.2788597 -0.6677583
000120 52 c7 c6 be 71 74 d4 be 61 65 b7 3e 9e 59 3d bc
       -0.38823944 -0.41495088 0.35819533 -0.011557011
000130 98 2e 4f bd 05 1f 07 bd 02 20 23 3e 57 6f 90 3e
       -0.050581545 -0.032988567 0.15930179 0.28209946
000140 b5 75 03 bf 2c f0 32 bd 20 b5 db 39 74 8a f7 3e
       -0.5135148 -0.043686077 0.00041905884 0.4834782
000150 c7 25 cd bd 30 e0 8e 3d c2 ef a8 bd a2 26 2a be
       -0.10016971 0.06976354 -0.08248855 -0.166163
000160 71 48 b2 3e 2b c1 11 bf 3e 72 a1 be 66 96 2a 3e
       0.34820893 -0.56935376 -0.31532472 0.16658935
000170 f0 78 69 3e be 1e f8 be 69 bf 2d be 99 ba 6d bd
       0.2280004 -0.48460954 -0.16967548 -0.05803928
000180 38 0c 12 3e 8a 1b 73 3e 94 45 49 3f bb de 45 3e
       0.14262474 0.23740974 0.7862179 0.19323246
000190 b2 98 ed bd 87 9b ac be ba a3 91 be fd 0d 58 bd
       -0.1160139 -0.33712408 -0.28445226 -0.052747715
0001a0 26 cf 6a bd 92 64 9d bc 77 33 69 3d 46 e6 86 3f
       -0.05732646 -0.019212995 0.056933846 1.0539024
0001b0 e4 94 38 bd e4 40 83 3e de 6e 31 bd 64 69 87 3e
       -0.04506387 0.25635445 -0.04331862 0.26447594
0001c0 c2 4a 7e 3d 67 e5 03 bd 49 a5 be 3e 12 ec 39 be
       0.062083013 -0.032201197 0.37235478 -0.1815646
0001d0 3c e3 27 3f 5b 60 c1 3e a1 44 92 bd 84 43 aa be
       0.6558111 0.37768826 -0.07141996 -0.33254635
0001e0 ee 7b 02 bc 2c 4a 82 3e 75 ed 40 3e d1 57 45 3e
       -0.007964117 0.25447214 0.18840583 0.1927178
0001f0 7c bf f0 3d 18 82 47 be ce db cf be a9 7f 8c be
       0.11755273 -0.1948322 -0.40597385 -0.27441147
000200 1c 27 0d 3f 1f 0a af be 69 d8 95 3d a7 75 64 be
       0.551378 -0.3418741 0.073166676 -0.22310506
000210 75 f8 e6 bc 7d 91 37 3e 2a 6c 9d be d1 a0 8a be
       -0.028194645 0.17926593 -0.30746585 -0.27075818
000220 5f 31 a9 be b8 fc 7a 3e 0f 24 19 3e d5 2e 6c 3d
       -0.3304548 0.24510467 0.14955162 0.05766185
000230 c0 cf d7 bd 47 4e f3 3e fe 26 55 bc 06 ef b2 3e
       -0.10537672 0.47520658 -0.013009785 0.34947985
000240 43 23 96 be da bc 14 be b7 75 d3 3e d3 15 8e 3d
       -0.29323778 -0.14525166 0.41300747 0.069377564
000250 a5 f7 93 bd 89 3e 95 bd 3d 40 46 3f af d6 58 3e
       -0.07224969 -0.07287318 0.7744177 0.21175645
000260 a3 e7 84 be cd d6 36 3e d9 19 a3 3d 41 1f 7f 3e
       -0.25957975 0.17855377 0.079639144 0.24914266
000270 cd ed dc 3d 80 48 7a 3d 3f 26 c7 3d 60 71 1e 3f
       0.107875444 0.061104298 0.09724092 0.61891747
000280 38 05 0e 3f 74 2a 03 3f f5 57 3b 3e 55 2c 05 3f
       0.55476713 0.51236653 0.18295272 0.5202077
000290 5a 28 c3 3c 16 f4 ae be 4e 74 56 3e 18 21 04 be
       0.023822952 -0.34170598 0.20942804 -0.1290325
0002a0 5e e8 27 3f ea 5a cd 3d 90 cd 9a 3b 24 73 35 be
       0.6558894 0.10027106 0.004724212 -0.17719704
0002b0 c3 64 a4 3d 0e bc 42 3e ff 10 ee 3e 5c 68 41 3e
       0.08027031 0.1901705 0.46497342 0.18887466
0002c0 c8 12 66 3d 34 58 eb 3c 7f b0 82 3e 9f 1c 98 3e
       0.056170255 0.028728582 0.2552528 0.29709336
0002d0 90 7e c5 3c a5 fe 7a bd d4 d9 92 bd c8 bb a1 be
       0.024108201 -0.061278004 -0.07170454 -0.31588578
0002e0 81 3b 19 be 55 81 1c bd 41 98 db be bd f7 37 3e
       -0.14964105 -0.038209278 -0.42889598 0.17965598
0002f0 2b 92 e7 bc cf f4 fb 3d ca 5c 7f 3e a5 13 c1 3e
       -0.02826794 0.12302553 0.2493774 0.377103
000300 6f 79 89 3d ef d6 b4 bd 79 5e 49 bd d9 58 0a be
       0.06712615 -0.08830058 -0.04916236 -0.13510455
000310 38 3f c9 bd 03 4d d2 3d 01 63 8a be 0e af e4 3c
       -0.09826511 0.10268595 -0.2702866 0.027915504
000320 ca 27 bf 3e 6b 7e 90 3e 7a 83 f4 bd 5e 21 f8 bd
       0.37335044 0.2822145 -0.1193914 -0.12115739
000330 50 d4 26 3f b0 cc 0f 3f 2b 1e 22 3e 20 1e a9 be
       0.65167713 0.56171703 0.1583182 -0.33030796
000340 8a d8 e5 bd 01 7a de 3e 44 8f 3f bc d5 1b e0 3d
       -0.11222942 0.43452457 -0.011691872 0.109428085
000350 3d 16 57 3e 8b 99 e1 b9 25 14 ad be 17 91 ed bd
       0.21004577 -0.00043029743 -0.33804432 -0.11599939
000360 5d 2e e5 be 2c ff e1 3d d4 db 83 3e a7 43 28 3d
       -0.44761935 0.11034998 0.25753653 0.041080143
000370 7c e0 84 bd ff ac 34 be fd 33 43 3f e7 e8 1c 3f
       -0.064881295 -0.17644118 0.762512 0.6129288
000380 85 82 c4 3d cc e4 9f bd ec f8 94 3e 24 be dd 3e
       0.09595207 -0.078073114 0.29096162 0.43309128
000390 99 98 1e be 62 0a 32 3e 95 de e7 bd 5a 36 0c 3f
       -0.15487899 0.17386773 -0.11321751 0.54770434
0003a0 31 bb e8 3e 16 5d b7 be 81 a7 27 3a a2 0c 04 3e
       0.45455316 -0.35813206 0.00063955045 0.12895444
0003b0 b1 2e 45 bd ed d6 e9 be 85 94 9d 3d 29 63 ae bc
       -0.04814023 -0.45671788 0.076943435 -0.021287518
0003c0 a0 dd 3a 3f 7f 54 92 3e b5 d5 8c 3e 5b f8 06 bf
       0.7299442 0.2858009 0.27506796 -0.5272271
0003d0 1c 51 13 be 5a 37 b5 3e 02 6b ec be 79 c2 0f 3e
       -0.1438641 0.35393792 -0.4617539 0.14039029
0003e0 9a 3d c4 3d 83 5c e5 bd d4 87 13 3e 15 70 77 be
       0.09582062 -0.11199286 0.14407283 -0.2416385
0003f0 27 7f 5b be c0 a9 84 3e bf 58 f4 3d ed 90 ab 3e
       -0.21435224 0.2591076 0.119309895 0.33509007

shared.0.bias f4 [256]
000000 fd 84 be 3d 28 8a 60 be 70 4a 73 be aa 42 88 be
       0.09302709 -0.21927702 -0.23758864 -0.2661336
000010 66 51 e1 bd 41 6e e5 3d 8d 26 1b 3e 1f 84 87 3e
       -0.11001854 0.1120267 0.15151425 0.26467988
000020 df d1 d1 3d 35 62 cb be d7 a8 57 bd 5c c7 0a 3e
       0.10245108 -0.39723364 -0.052651253 0.13552612
000030 9d 45 e1 3e b8 37 ef 39 82 0c 37 be 8c ad dd be
       0.43998423 0.00045627146 -0.17875865 -0.43296468
000040 72 35 a3 3d a0 42 b9 bd 02 72 02 3e 0f c2 4a 3e
       0.07969178 -0.09045911 0.12738803 0.1980059
000050 f1 29 e1 be f6 c8 f2 3e c0 75 e3 bd ec a3 87 be
       -0.4397731 0.47418946 -0.111064434 -0.2649225
000060 0e a4 fc bd 84 dc a4 3e 2d c0 6b bd 99 a3 d8 bd
       -0.123359784 0.3219949 -0.05755632 -0.10578079
000070 7d a7 ea 3e f7 26 cc bd 62 f8 68 be ea f6 b1 be
       0.45830908 -0.099683695 -0.22751 -0.34758693
000080 9f 19 8f 3e eb 0e 05 3e 75 86 3b 3e 71 3d 60 be
       0.27949235 0.12993972 0.1831301 -0.21898438
000090 c1 76 d3 3e 6a 3a 2f 3b 44 68 ad be 4f f9 5e bd
       0.4130154 0.0026737698 -0.3386861 -0.054436978
0000a0 66 06 d6 3e 12 50 35 be f4 5f d8 3e 12 87 68 be
       0.41801757 -0.17706326 0.42260706 -0.22707775
0000b0 e1 d6 07 3f cd 44 cd 3c 99 d2 56 bd 02 f1 09 bd
       0.53062254 0.02505722 -0.052446935 -0.03367711
0000c0 78 9f 1e be da b0 50 be 10 64 c8 bc 51 53 7e bd
       -0.1549052 -0.20379964 -0.024461776 -0.062091175
0000d0 04 7f bb 3d 31 82 16 3e 2c 79 a7 3d 97 8b 6e be
       0.09155086 0.14698102 0.081774086 -0.23295437
0000e0 c9 e0 bb 3e fc d9 24 3e 40 7c b1 bd c2 bc aa 3e
       0.36694935 0.1609878 -0.08666277 0.33347136
0000f0 17 4f 13 3f 9f a6 28 be 59 5e 12 3f 8b 33 63 3e
       0.57542557 -0.16469811 0.57175213 0.22187631
000100 5d a9 c5 bd d3 17 0f 3e 0a 33 91 3e d6 71 a7 3e
       -0.09651444 0.13973932 0.28359252 0.32704037
000110 c8 25 d5 3e 34 0e 46 3e 3c 67 a9 3e c7 0c 89 3e
       0.41630387 0.19341356 0.33086574 0.2676756
000120 c9 08 01 3e ab 31 ca be cc 9b 17 3d c1 01 28 3e
       0.12601008 -0.3949102 0.037013814 0.16406919
000130 2e 3b 27 bb 9a 69 83 be 59 c7 5f 3e 23 9d 2b be
       -0.0025517452 -0.25666505 0.21853389 -0.16759162
000140 77 10 b1 be de d7 f7 3e aa a9 7f 3d 10 ce 91 be
       -0.34582874 0.4840688 0.062417664 -0.28477526
000150 a9 98 9c 3e c3 85 60 3e 9a 6f b3 bd 84 41 2f bd
       0.3058522 0.21926026 -0.08761521 -0.04278709
000160 d7 fb a5 bd d3 bf 22 3c bf 5f 32 3d 13 d7 2f bc
       -0.08104675 0.00993343 0.04354834 -0.01073243
000170 41 fa 87 3e f5 4f 06 bd 0e 88 dd 3e f8 30 aa 3a
       0.26558116 -0.032791097 0.43267864 0.0012984565
000180 1d fc 17 3e 9d db cc 3d 9d f0 a3 be a9 4e 1c be
       0.14842267 0.100028254 -0.3201951 -0.15264381
000190 c1 88 b7 3d 0d 26 53 be 36 15 5f 3e 6c 56 19 3e
       0.089616306 -0.20619984 0.21785435 0.14974374
0001a0 77 c5 8a 3e 99 a5 87 bc 63 e1 e9 3e c4 7a 78 be
       0.2710378 -0.016558455 0.4567977 -0.24265581
0001b0 81 60 27 bd eb 31 d4 be e2 b8 9a be e8 56 58 3c
       -0.040863518 -0.41444334 -0.3021918 0.013204314
0001c0 22 4e 4d be 40 d4 41 be a0 a5 c9 3c 63 c1 72 3e
       -0.20049337 -0.18928623 0.024615109 0.23706584
0001d0 15 d6 f8 3e 2c e4 9f be c5 fe df bd 70 5a f6 be
       0.48600832 -0.3122877 -0.10937265 -0.48115873
0001e0 1f d7 fc be 96 40 32 be 81 e3 03 3e 31 c4 91 3e
       -0.49382874 -0.1740745 0.12879755 0.28469995
0001f0 da 0e 92 be 4b 19 8e be 99 b2 ac be 5c 92 c0 3e
       -0.28526956 -0.27753672 -0.3373001 0.37611663
000200 6c ec 2b 3e 4d 0e 91 be 8b 6e 6e 3e 0c a5 88 bd
       0.16789407 -0.28331223 0.23284356 -0.06672105
000210 60 5b 63 3c 20 a1 76 be a2 3c d1 3d 90 10 a5 be
       0.013876766 -0.24084902 0.10216643 -0.322392
000220 b1 1c 82 be 5c 7a f0 bd bb 38 3c bc 06 24 e6 bb
       -0.25412515 -0.11742088 -0.011488135 -0.0070233373
000230 82 cf 33 be f2 d7 8b bc a4 24 a1 bd df 0e cf 3e
       -0.17559627 -0.017070744 -0.07868317 0.40441033
000240 3c 51 08 3f 90 31 a8 be 32 bb 95 3e bb e8 25 3e
       0.53248954 -0.32850313 0.2924438 0.16202061
000250 a9 3a 9e 3d 06 be 5b 3e fb 21 3a 3e 32 c7 c1 3e
       0.07726032 0.21459207 0.18177025 0.37847286
000260 b4 bd 4f be da 73 5f be 51 bc 7c 3e 09 b0 72 3e
       -0.2028721 -0.21821538 0.24681212 0.23699965
000270 df a9 2d 3e ff 52 a4 3e ac c2 a3 bb 6e 3a d5 3e
       0.16959332 0.3209457 -0.004997572 0.4164614
000280 51 76 f4 be 1d 59 aa be 1f c1 5f 3e 00 96 cb 3e
       -0.47746518 -0.33271113 0.21851014 0.39762878
000290 ef f5 42 bc bc 46 60 be 93 7e f0 3e a3 72 01 be
       -0.011899455 -0.21901983 0.46971568 -0.12641387
0002a0 2c 48 0f 3e aa 13 40 3d 25 4c e6 3e 8f a8 56 3d
       0.13992375 0.046893753 0.4497997 0.052406844
0002b0 dd 6c 58 be b2 fe 92 be 45 c6 ab 3e 2b d0 bf 3e
       -0.21135278 -0.28709942 0.33549705 0.37463507
0002c0 5f 20 6b 3e 92 c0 75 be 68 9f 0c 3e 7b 86 0b be
       0.22961567 -0.23999241 0.13732684 -0.13625519
0002d0 51 9e 24 bd de d8 23 be 3a bb 7e be 24 8f 0c 3f
       -0.040190045 -0.16000697 -0.24876109 0.54905915
0002e0 fd 11 c4 bd f2 8e e4 be c9 44 d3 bd cc e6 ef 3d
       -0.095737435 -0.4464031 -0.10315854 0.11713943
0002f0 b2 6d 63 be 52 20 af bd 71 12 95 bd 1a 72 61 3d
       -0.22209814 -0.085510865 -0.07278908 0.055040456
000300 a4 84 00 be b7 f8 bd be c6 54 0d 3f e7 50 82 3e
       -0.12550598 -0.37103817 0.5520748 0.2545235
000310 5f ac fc 3d d8 e2 10 3d fd 6e 0d 3d 91 60 dd 3e
       0.12337565 0.035372585 0.034529675 0.43237737
000320 f0 98 01 be 4f ab a6 be 33 2f fe bc 06 eb 76 be
       -0.12655997 -0.32552573 -0.031028366 -0.24113092
000330 b9 16 14 be 66 49 80 be 5e 1b 15 be 9c de 7b be
       -0.14461793 -0.25056 -0.14561221 -0.24596637
000340 f3 79 a8 be 29 6b 78 3c 9b 52 b8 be bb a8 d1 3e
       -0.3290554 0.015162268 -0.36000523 0.40949044
000350 2b 27 8d 3d b9 99 04 3e f3 94 0d 3f e0 1a 47 be
       0.06892236 0.12949266 0.55305403 -0.19443846
000360 62 0c d3 3c 13 0b ca ba 9a d5 ea be 74 e9 e4 be
       0.02576274 -0.0015414677 -0.4586609 -0.4470936
000370 bd 11 91 3e a7 70 71 bd 03 5d 73 be df e8 d5 3e
       0.28333846 -0.058945324 -0.2376595 0.4177923
000380 8b 0d ff 3d 86 cb 25 be 35 80 fe bd 31 d2 7c be
       0.12453755 -0.1619092 -0.12426797 -0.24689557
000390 23 91 99 be cd a9 3b bd 98 eb 08 3f 7b 4a c9 3e
       -0.29993543 -0.04581623 0.5348449 0.39314637
0003a0 42 32 1f 3f 03 52 ae be b7 18 86 be 6b 21 ed 3e
       0.6218606 -0.34046945 -0.2619073 0.46314558
0003b0 2f 41 ac be 20 e2 07 be 38 0b c3 bd a4 54 0a 3f
       -0.3364348 -0.13269854 -0.09523624 0.540354
0003c0 ee 10 19 be d0 cf b3 3c 3b fd e0 3d 8d a4 9d 3c
       -0.14947864 0.021949679 0.109858 0.019243503
0003d0 96 c2 60 be bb bd 97 3c 96 18 0d 3d 36 3a 9d be
       -0.21949229 0.018523088 0.034447275 -0.30708474
0003e0 ec 75 ec 3d f2 a5 17 3d ec 14 89 bd ee 82 ee 3e
       0.11545929 0.037023492 -0.06693444 0.46584266
0003f0 19 d6 d5 be 5a 81 ce 3e aa 5a 23 3d a6 dc c0 3e
       -0.41764906 0.40333062 0.039881386 0.3766834

shared.2.weight f4 [256, 256]
000000 bb f7 fe bc 34 5d de bd dd cb bc bd 65 4b 04 bc
       -0.031123986 -0.10857621 -0.09218571 -0.008074616
000010 e0 45 8d 3c a7 de 1f 3e af 3b 09 3e a1 7a d0 3d
       0.017245233 0.15612279 0.13401674 0.101796396
000020 da e3 01 be c7 a9 d5 bd 3c e7 80 3d 9f 07 6a 3d
       -0.12684575 -0.10432773 0.062941045 0.057136174
000030 43 a5 8b 3d 32 b9 c7 bc 45 bc 25 be 4b 62 e0 bc
       0.068186305 -0.0243803 -0.161851 -0.02739062
000040 02 af 12 ba ed 8f a1 3d ec 2a b1 bd 2c d3 36 bd
       -0.0005595536 0.0788878 -0.08650765 -0.044634983
000050 73 3f 1f be 9a c6 16 3d 87 2a 8d 3d 1b c4 22 bd
       -0.15551548 0.036810495 0.06892877 -0.039737802
000060 fe 47 d8 bc 41 6c 89 bd b3 ec 41 bd ec 6f c5 bd
       -0.026401516 -0.06710101 -0.047344875 -0.09640488
000070 fd fc 1f 3a 4e 4e cc bd e8 2c 29 be 9c be 3f be
       0.0006103067 -0.09975873 -0.16521037 -0.18725055
000080 40 cf 64 bd 74 27 69 3c 66 21 3a bd 70 a2 17 3e
       -0.05586171 0.014230598 -0.045442007 0.14808059
000090 98 d6 6f bd db 68 23 3d 47 8b 13 bd 80 81 5d be
       -0.058554262 0.03989492 -0.036021497 -0.21631432
0000a0 05 f6 2c 3c c9 4a 9e 3c c7 3a 9e bc 36 06 0f bd
       0.0105567025 0.01932277 -0.019315137 -0.034918033
0000b0 4e 9e f6 3d 57 cf eb bc 65 d1 4c bd 08 2b 88 3d
       0.12041913 -0.02878539 -0.05000438 0.066488326
0000c0 f2 9e 8a 3d 93 0d 53 3d 07 c2 dd bc 71 7f 18 bd
       0.06768598 0.051526617 -0.027070059 -0.037230913
0000d0 9a 76 bb bb 3a c4 25 3c ba c8 84 bd 56 f3 09 be
       -0.0057209255 0.010117585 -0.06483598 -0.13471732
0000e0 dd 3f 61 3d 42 b4 50 3c b3 1a 2d 3d a3 50 11 3d
       0.054992545 0.012738289 0.04226179 0.03547729
0000f0 1a 37 9c 3d 44 b5 e6 3c ef 06 95 3c ff 86 47 3c
       0.07627697 0.028162606 0.018191783 0.012178182
000100 01 f0 ba bd 7f 02 12 bc 59 5e 64 3a 7a 24 8b 3b
       -0.09127808 -0.008911728 0.00087115687 0.0042462917
000110 ac 5c 6f 3d b2 82 c4 bd f7 84 07 3e 73 c7 18 3d
       0.05843799 -0.09595241 0.13234316 0.037299585
000120 f4 40 b3 ba 05 4e 73 bd 3d f0 75 be 9d 72 d4 3c
       -0.0013675974 -0.059400577 -0.24017425 0.025933558
000130 1c c7 bd 3c d7 8f ec bd 70 ed ec bc f8 47 4c 3c
       0.023166232 -0.11550873 -0.028921813 0.012468331
000140 70 b1 c4 bd c1 3b 00 3d 52 90 67 3d 6a 7c 01 3d
       -0.09604156 0.031306986 0.05653412 0.03161279
000150 e1 b2 52 3d cf 11 97 3d c1 a5 5a 3d 67 81 7f 3d
       0.051440123 0.073764436 0.05338073 0.062379267
000160 bf 7f d3 3c ef 26 cd bd c6 a0 4c 3d 52 70 1c bd
       0.02581775 -0.100171916 0.049958013 -0.038193054
000170 a6 01 85 bd e2 36 82 3c 25 21 5a 3d f6 0b e8 bb
       -0.06494455 0.01589531 0.053254265 -0.007081504
000180 9d cb 7f 3d 10 36 f0 bc 66 d6 b7 3b 0b 98 82 3d
       0.06245004 -0.029322654 0.005610275 0.06376656
000190 6f 56 0d bd 97 f7 38 3e 11 e3 63 bc 7e d9 3a bd
       -0.034506258 0.18063198 -0.013909117 -0.045617573
0001a0 e8 83 62 3d 69 99 97 be 71 12 9d bd e5 34 00 be
       0.055301577 -0.2960923 -0.07669533 -0.12520178
0001b0 7c fe c7 39 bb fa 03 bd 61 9a 39 be a7 78 d8 bd
       0.00038145843 -0.032221537 -0.18125297 -0.105698876
0001c0 ff f6 10 3c c8 01 16 bc 5a 3e be 3d c8 21 fd bb
       0.008847951 -0.009155698 0.09289236 -0.0077249743
0001d0 c6 ba 37 3d c2 e2 9c bd 7b f9 9e 3b c3 16 30 3d
       0.044855855 -0.07660438 0.0048515177 0.042990457
0001e0 48 7b a2 bd 53 7b 02 be 36 9e e9 bb ef 91 a0 3d
       -0.0793367 -0.12742357 -0.007129456 0.078403346
0001f0 3e bd 6c 3d 75 c7 2c be 4b a2 80 bc bd a0 53 3d
       0.057797663 -0.16872962 -0.015702387 0.051666964
000200 e7 cd b1 3c 7c a0 c5 3d 36 cc 14 3d 4b 51 a6 3c
       0.021704627 0.096497506 0.036327563 0.020302435
000210 47 04 4a 3c c9 bb dc bd 7b c6 5a 3c e6 53 46 3d
       0.012330121 -0.10778005 0.0133529855 0.048419856
000220 7d 3f 3b 3d 3b a2 84 3d 3a 77 01 3d 28 8c a7 3c
       0.045714844 0.064762555 0.031607844 0.020452574
000230 13 a0 2a 3d c0 b1 21 be af 0c 8a bd c6 15 7a bd
       0.041656565 -0.15790462 -0.067407005 -0.06105592
000240 da 87 63 bd ab 60 c4 bd 4c 5c 08 3d 4b 7c 10 bd
       -0.05554948 -0.095887505 0.033291146 -0.035274785
000250 dc 35 69 3d 26 51 46 3d 4c ea df bd 48 c3 a8 bd
       0.05693613 0.048417233 -0.109333605 -0.08240372
000260 71 fc 5f 3d 77 57 0f be 7b 7b 21 bd 08 8f ce bc
       0.054684106 -0.13998209 -0.0394244 -0.025214687
000270 6f 74 72 3d 6f ee c7 bd e4 e1 4d 3d 25 44 99 bd
       0.05919307 -0.097622745 0.050264254 -0.07483701
000280 69 32 94 bd 77 d9 37 3d c2 e2 1f 3c ee 26 bf 3d
       -0.072361775 0.044885125 0.009758653 0.09333597
000290 e9 e9 91 3d 44 58 e7 bd 3a 69 88 bd c3 02 5c 3d
       0.07124693 -0.11296132 -0.066606954 0.05371357
0002a0 e7 3b be 3d be 1d 44 3d d9 99 af bd dd 76 22 3b
       0.09288769 0.047879927 -0.08574266 0.0024790086
0002b0 4d c3 53 be 0a ee 16 be 14 9c 74 bd 0c 61 0a 3e
       -0.2067997 -0.14739242 -0.05971916 0.13513583
0002c0 51 ee 83 3b 5e 97 39 3d 77 f9 8e bc 2b ed 29 bd
       0.0040262123 0.04531037 -0.017452938 -0.041485947
0002d0 6a 99 44 3d fc b6 96 3d ef 79 c6 3e ac a5 87 3d
       0.04799787 0.0735912 0.38764903 0.06623396
0002e0 e2 11 88 bd 19 ec 04 bd f1 43 a9 bb 3a 0b 6a bd
       -0.06644036 -0.032451723 -0.00516557 -0.057139613
0002f0 3f c3 25 3d c6 ce 1b be 01 f3 b9 bc 26 6d 02 3e
       0.040469404 -0.15215597 -0.022698881 0.1273695
000300 f2 32 f5 bd 8e 15 16 be 3a de 3b bd 62 b5 1c bd
       -0.11972608 -0.1465666 -0.04586623 -0.038258918
000310 90 92 b4 3d 0d ec 58 bc ef 10 2d bc 16 e2 1d bd
       0.08817017 -0.013239873 -0.010563119 -0.03854569
000320 9d ee 4d bd c0 59 95 bd 4f 88 3c be 41 b2 c8 bc
       -0.050276387 -0.07292509 -0.18411373 -0.02449906
000330 bf 1b 54 be e2 1c 02 3d 21 5c 39 3d ae ed 70 bd
       -0.2071371 0.031765826 0.045253877 -0.05882042
000340 b4 bb 97 bd ec 7a 21 3d 84 06 ab bd 48 18 6c bd
       -0.074088484 0.039423868 -0.08350852 -0.057640344
000350 47 07 4c bc 68 0b da bc 07 38 08 bd a2 88 14 3d
       -0.012452907 -0.026616767 -0.033256557 0.036263116
000360 2c b2 e0 3c 22 80 ae 3c f4 13 ba 3c 48 79 02 be
       0.027428709 0.021301333 0.022714593 -0.12741578
000370 f4 df 89 3d a8 c8 57 3d cf 72 b4 3d db ca 96 bc
       0.06732169 0.052681595 0.088109605 -0.018407276
000380 c5 31 53 3d 5f 46 41 3d 99 39 99 bc 63 7f c4 bd
       0.051561136 0.04718625 -0.018704223 -0.095946096
000390 eb 14 24 be e2 3e 3a bd 8d 69 0b 3d 60 26 7a bd
       -0.16023605 -0.045470126 0.034036208 -0.061071754
0003a0 97 9e d5 3c 68 9d ca bd 04 92 74 bd 13 ba 1a bd
       0.026076598 -0.09893304 -0.059709564 -0.03777511
0003b0 1a 36 0c be 12 71 93 be 09 bc 75 3d af 03 28 bd
       -0.13692513 -0.28797203 0.059993777 -0.041019138
0003c0 31 9e 46 be 6f 24 16 3d a2 70 8b 3d 36 62 9a bb
       -0.19396283 0.03665584 0.068085924 -0.0047114147
0003d0 0b 84 c7 3d 7e f7 32 3d 76 0a 0f bc 73 b5 91 bc
       0.09741982 0.04369306 -0.008730521 -0.017786717
0003e0 04 86 41 3d 69 f5 9b 3d 7b b7 46 bd 1a 8a e1 bc
       0.047246948 0.07615168 -0.048514824 -0.027531672
0003f0 9d 3e 02 be 74 a0 13 be e5 3a 94 3d 5f 26 ce 3c
       -0.12719198 -0.14416677 0.07237796 0.025164781

shared.2.bias f4 [256]
000000 4d b1 f5 3c db cf 62 3e d0 c5 fe bb e5 f1 0c 3e
       0.02999177 0.22149603 -0.007775046 0.1376415
000010 93 43 e3 3b f3 b4 53 bc a2 a2 93 be a0 87 b9 bd
       0.0069355457 -0.01292156 -0.28835016 -0.090590715
000020 2f 22 e5 3c bc 6f ac 3d 59 cf a1 3d 15 45 8f 3c
       0.027970402 0.08419749 0.079008766 0.017488996
000030 3d 7e de 3c 5c fa 93 3c af 2c e4 3d b9 6f 89 3d
       0.027159804 0.018063717 0.11141335 0.067107625
000040 16 e3 6c 3d d1 09 dc 3d cd f6 c0 bc 8f 87 86 bc
       0.057833754 0.1074406 -0.023555184 -0.016422061
000050 7b 7e e8 3d d9 d5 88 3d 8b 57 32 3d d3 dd eb bb
       0.11352249 0.06681413 0.04354052 -0.0071980744
000060 86 84 c7 3c c8 44 3f 3e 06 62 0a bd 10 3c 08 bd
       0.024355184 0.18678582 -0.03378489 -0.033260405
000070 c4 b1 1e 3e 64 f7 d9 bc 23 da 43 3e 6a 1a fc 3c
       0.154975 -0.026607223 0.19126181 0.030774314
000080 55 89 32 be 0b 00 6c bc 9e 56 0f 3e 3a fa 6c bd
       -0.174352 -0.014404307 0.13997886 -0.057855822
000090 aa d8 8c 3d 7d 26 fb 3b de 63 bc 3d 08 b3 9a 3d
       0.06877263 0.0076645003 0.09198736 0.07553679
0000a0 74 c3 b1 bc 16 16 74 3e 10 40 f2 3c 87 60 e3 3d
       -0.021699645 0.2383655 0.029571563 0.111023955
0000b0 27 53 df bd 1e 5e 12 bd 18 55 cb 3c 2d 64 40 3c
       -0.10904532 -0.03573429 0.02482085 0.011742634
0000c0 29 2c 48 3d 77 0e 6b bc 85 93 84 3d 07 d1 82 bd
       0.04887024 -0.01434671 0.064734496 -0.06387525
0000d0 68 95 90 3a 58 00 45 3e 9e 4b 89 3d 58 e3 a0 3d
       0.0011030855 0.19238412 0.06703876 0.078558624
0000e0 63 62 f2 3d 3c dd 1c 3e c1 da d4 3d 4b 67 a6 3d
       0.11835172 0.15318769 0.103932865 0.0812517
0000f0 2b a6 b5 bb a7 59 9c 3d 60 17 98 3d 46 51 d1 3c
       -0.0055434904 0.07634287 0.074263334 0.02555145
000100 0f df c1 3c 6a ca 8e bd ad 77 ee 3c 65 a8 82 3c
       0.023665933 -0.06972201 0.0291098 0.015949437
000110 ce e6 15 3e 99 28 e7 3c b8 f2 10 bd 23 e2 80 3e
       0.14638826 0.0282176 -0.035387725 0.2517253
000120 06 56 fc 3d 7d a3 8c 3d 9e 4c f8 3d 61 ef c6 3a
       0.12321095 0.068671204 0.121239886 0.0015177542
000130 30 8a c9 3d f8 ca b6 bc a3 03 88 bc 7f 62 05 3e
       0.0984081 -0.02231358 -0.016603297 0.13025855
000140 08 e1 87 3d 05 fe 05 be 83 fd 09 bd 6f f2 8a bc
       0.06634718 -0.13085182 -0.033689033 -0.016961304
000150 84 68 44 be 70 b4 82 3d 05 9a c4 3d 79 19 28 bc
       -0.19180495 0.06382072 0.095996894 -0.010259979
000160 c4 e1 00 3d fb 9e 47 3d ee b8 4c 3e 80 45 79 3e
       0.031465307 0.0487356 0.1999242 0.24342918
000170 0d 59 57 bc 4b 8e f3 3d e0 bd f2 3d c5 d1 f6 bc
       -0.01314379 0.118923746 0.11852622 -0.030129323
000180 9f 6f 26 3d b6 63 9c 3b 7d 2b 25 bd 0a 04 b9 bd
       0.040633794 0.0047726287 -0.040324677 -0.090339735
000190 1b fc b2 bc 60 fe 57 3e b7 10 73 be ea 3a 3a bb
       -0.021848729 0.2109313 -0.23736845 -0.0028416463
0001a0 e3 40 4b 3d 1d 57 8e 3b 86 e5 38 be 2d c7 49 3e
       0.049622428 0.004343881 -0.18056306 0.19704886
0001b0 0c df 00 bd f1 50 1d bc 80 da 04 3d 64 0d 84 3b
       -0.031462714 -0.0096018175 0.03243494 0.0040299166
0001c0 e5 40 a7 bc a9 0b 54 3d 95 25 30 3d 5f f2 23 3e
       -0.020416686 0.051768932 0.04300459 0.16010426
0001d0 f5 4b b5 bd f9 b9 81 3e 84 e3 7b 3d d8 4d 14 bd
       -0.08852378 0.25337198 0.061496273 -0.03620705
0001e0 e6 37 22 3d 54 6d 80 3e 1a b4 d4 3c 63 30 07 bc
       0.03960409 0.2508341 0.025964785 -0.008251282
0001f0 e1 6e 4d 3d ca 5a 93 bd 7a d5 96 3d c2 f9 f9 3c
       0.05015457 -0.07195051 0.07364936 0.030514602
000200 e1 3b 1e 3e 5a f8 2b 3e 4d 88 d0 ba 26 dc 1f bd
       0.1545253 0.16793957 -0.0015909761 -0.03902831
000210 0b 33 54 bd c3 e7 01 be b4 2a c3 bc 4e 97 9b 3b
       -0.05180649 -0.12686066 -0.023824073 0.0047482615
000220 c7 88 93 3a 0a 52 5b 3e 65 1e 02 3d 43 cf 89 3d
       0.0011255973 0.21418014 0.031767268 0.06728985
000230 2f 72 3e be 43 ac 61 bd 4d 0a 20 bc 82 ee 5b 3c
       -0.18598245 -0.055095922 -0.009768081 0.013423564
000240 75 67 57 bd 65 a0 14 3e 43 60 53 bd ba cd 02 3e
       -0.0525889 0.1451431 -0.051605474 0.12773791
000250 27 60 a4 bd a6 ce e0 bd 4d da ba 3d b7 4a 24 3d
       -0.08026152 -0.10976915 0.09123669 0.040110316
000260 7a d9 3f 3d 6e 0d 82 3e 77 9f 7f 3d dc d4 ff bc
       0.04683826 0.2540087 0.062407937 -0.031229429
000270 5b 7f 72 be 3e e8 0f 3c 6c b8 3c bc 5e 03 37 3b
       -0.23681395 0.008783398 -0.011518579 0.002792559
000280 cd 0f 8c 3d b0 d0 f9 3d 93 c5 ac 3c 45 6e 97 3c
       0.06838951 0.12198007 0.021090304 0.018485198
000290 50 7b d4 3d 9f 7f c7 3c 19 fa 2c be 5c f1 8b 3a
       0.103750825 0.024352847 -0.1689228 0.0010676789
0002a0 bd 1b 0f be f7 8d 15 3d 5b 29 07 3d a5 be 36 bd
       -0.13975425 0.03651234 0.032998424 -0.044615407
0002b0 83 fe f4 bc e4 6f e0 3d 84 f1 f7 3c fa 74 78 bd
       -0.029906517 0.109588414 0.03026653 -0.060658433
0002c0 4e f5 19 3d 39 c5 8a 3b dd 53 3c 3e 84 08 46 3c
       0.037587456 0.0042349366 0.18391366 0.012086991
0002d0 38 d6 aa 3d 83 b5 b2 3d ed fc b2 3d 6b e1 c9 3d
       0.0834164 0.08726027 0.08739648 0.09857448
0002e0 cb 8d db 3c 16 d5 4a 3c 0f 21 1b 3e d6 5b 94 bc
       0.02680101 0.012379905 0.1514933 -0.018110197
0002f0 f5 46 ce bc b8 de ec 3c 45 53 47 3e 50 a7 4a bd
       -0.02518032 0.028914794 0.19465359 -0.049475968
000300 0f 65 d4 bc d3 47 52 3e 39 d8 94 bc 96 6c 5c 3d
       -0.025927095 0.20535211 -0.01816951 0.053814493
000310 f2 57 9b 3d eb 56 23 3d 8c aa e1 3c a6 e2 19 3d
       0.075851336 0.039877813 0.027547143 0.037569664
000320 9c 42 27 bd 59 1e 4c 3e 69 29 5d 3d 70 34 8f 3d
       -0.040835008 0.19933452 0.05399457 0.069924235
000330 15 4a c7 3d 16 92 87 3d 86 58 b9 3d 45 2a f8 3b
       0.09730927 0.066196606 0.09050088 0.0075733983
000340 4c 43 85 3c 55 46 06 3d bb d5 04 3e 88 95 69 3c
       0.016267441 0.032781918 0.12972157 0.014256842
000350 c8 2d a8 3d 39 04 9f bc 58 00 a8 3d aa 5c 8d 3d
       0.08211857 -0.019411193 0.082031906 0.0690244
000360 a7 e2 36 bd ca 9e 1f 3d bd 35 bc 3d ae fb 7d 3e
       -0.044649746 0.038969792 0.09189937 0.2480304
000370 89 a1 ef 3c 0b c1 26 3e bb 6a 6e 3e 02 0f 1e 3d
       0.02925183 0.16284578 0.23282902 0.03858853
000380 16 1f 14 3d 25 99 91 3d f8 f4 d7 3c 74 c6 3e 3e
       0.03616246 0.07109288 0.026361927 0.18630391
000390 99 b2 87 3d 69 c4 8a bd da ff 4c bc 1e 57 15 3c
       0.06625862 -0.067757435 -0.012512172 0.009115009
0003a0 e3 88 80 3c 1f 8f e1 3d 36 16 05 bd 7e 78 a8 bd
       0.015690273 0.11013626 -0.032491885 -0.08226107
0003b0 51 54 9d 3c cc 36 97 3c 26 27 f7 3d db 44 33 be
       0.019205244 0.018458746 0.12068014 -0.17506735
0003c0 fe e1 70 3a 39 17 2b 3c 6c 60 52 be 45 e7 2d be
       0.0009188949 0.010442548 -0.20544595 -0.16982754
0003d0 ef 08 27 3c 58 27 e1 bd 7f 8d 51 3d f7 fa b8 bd
       0.010195001 -0.10993832 0.05116033 -0.09032243
0003e0 96 85 5d bc 15 a9 a3 3b 51 8a 90 3c 71 25 1a bd
       -0.013520619 0.0049945214 0.01764408 -0.037633363
0003f0 13 98 f6 3c 83 0d c1 3c ea 04 e6 3c 98 1a 02 bd
       0.030101812 0.023566013 0.028078515 -0.031763643

actor.weight f4 [3, 256]
000000 ff 17 e9 3d 10 41 12 bd 51 2a 67 38 ad c0 86 bc
       0.1138153 -0.03570658 5.5114102e-05 -0.016449297
000010 32 8e c0 bd f6 45 a8 bd b8 bd a1 bd b4 18 ca bc
       -0.094021216 -0.08216469 -0.07897514 -0.024669982
000020 69 6d 0c 3d 3b a5 8d 3d 52 a6 36 3e 10 2f 89 bc
       0.03428403 0.06916281 0.17836884 -0.016746074
000030 05 7e e3 3d 49 8e 0e bc 2a 37 b0 3d 2c c8 98 3a
       0.11108021 -0.008700916 0.08604272 0.0011656336
000040 1e a1 10 3e b0 6d 66 3d a5 a2 23 3c b9 de 8f 3c
       0.14123961 0.05625695 0.009987508 0.017562257
000050 fd 3e 07 3e 72 6c aa 3d cd d5 8f be b3 6e cf bc
       0.13207622 0.083214656 -0.28092805 -0.02532134
000060 29 74 a0 bb c7 fa aa 3d 85 1d fb 3c ff ce 93 bd
       -0.00489666 0.08348613 0.030653724 -0.07217216
000070 7e 31 05 be b8 c6 3b 3c b7 9d 45 be 5f dc af bb
       -0.13007161 0.011460952 -0.19298445 -0.0053668465
000080 dd 76 30 3d 57 5b 69 bc dc b3 8c 3e 2a 36 66 39
       0.043082107 -0.0142429685 0.27480972 0.00021954687
000090 ea bc de 3d 6b 34 ab bd e0 ab 12 be dd e7 de bc
       0.10875876 -0.08359607 -0.14323378 -0.02721017
0000a0 ec 95 27 3d 1e ad f2 3d 1d 73 4d 3d 85 8e 87 3d
       0.04091446 0.11849426 0.05015861 0.0661898
0000b0 f0 a1 e2 3b 4d 81 9d bc 9d 8d a4 3d 90 b4 56 3e
       0.006916277 -0.019226694 0.08034823 0.20967317
0000c0 3c ca 51 bb ac 67 87 3a 82 65 af bd db 09 17 bd
       -0.003201141 0.0010330579 -0.08564283 -0.036874633
0000d0 80 08 02 3d e4 17 83 3e 60 a1 56 3e 50 a8 3c 3d
       0.031746387 0.25604165 0.20959997 0.046058953
0000e0 8f 55 71 bd a2 30 5c 3e 46 67 e6 3d 4e b7 35 bc
       -0.058919486 0.21502927 0.112501666 -0.0110910665
0000f0 f9 66 be 3b c5 3f b0 3d 8a bb ab bd 49 53 af bd
       0.005810615 0.08605913 -0.083853796 -0.08560807
000100 0b b3 b4 be 68 26 43 bc 0e 8f 6d 3d 10 bc 74 3c
       -0.3529285 -0.011911012 0.057997756 0.014937416
000110 c6 cb e1 3d 4a c1 a7 bb cd 80 b9 3d 06 e5 7d 3e
       0.11025195 -0.0051194774 0.0905777 0.24794397
000120 b1 2a 8d bd 04 d0 9b ba e7 5e 1b be 27 1e b8 3c
       -0.06892908 -0.0011887555 -0.15172921 0.022475315
000130 97 3b 8c bd dd c2 77 3b 61 77 b9 3c dd a6 58 3e
       -0.06847303 0.0037805357 0.022639932 0.21157403
000140 a5 74 24 bd d0 4d a7 3b 9a 70 04 bd 20 1e 37 3d
       -0.040150303 0.0051057115 -0.032333948 0.044706464
000150 b7 0c b9 3b c0 fc 33 3e ba 6c e0 3d 10 45 4c 3d
       0.0056472677 0.17576885 0.10958238 0.04987055
000160 ab 85 22 bd 04 84 cb 3d 78 4c 4d bd 08 1a 02 3e
       -0.039678257 0.09937289 -0.050121754 0.12705243
000170 1a 42 b7 3c 32 fc cb bc 37 c6 9a bc bb 2d 1c bb
       0.022370387 -0.02490053 -0.018893344 -0.0023830968
000180 8a 2c 14 3c e4 a7 8f bc 39 bb 5e 3d de 04 5c 3d
       0.009043822 -0.017536111 0.05437777 0.05371558
000190 20 20 b0 3d 6e bc d8 3d ec ae eb bc e5 a1 1d 3d
       0.08599877 0.10582815 -0.028769933 0.038484473
0001a0 c5 68 10 bd 76 18 e8 3c c2 da 36 bc 2c 80 50 be
       -0.035256166 0.028331976 -0.011160554 -0.20361394
0001b0 b6 c0 65 be c3 9b ca bb 1d 16 fd 3d d9 a5 95 3b
       -0.22436795 -0.006183119 0.123577334 0.0045668897
0001c0 f7 41 82 3d 3a d5 81 3d c0 8f 1e 3e ae b2 05 bd
       0.06360238 0.06339498 0.15484524 -0.032641105
0001d0 a7 78 aa 3d a9 5a 52 3d 0b 50 f2 bb c9 b3 57 bd
       0.08323794 0.05135599 -0.007394796 -0.05266169
0001e0 80 e2 ba 3d d6 c5 c6 3d 0f 2f 1a 3c a2 6d d4 bc
       0.09125233 0.09705703 0.009410634 -0.025931183
0001f0 5f 16 a7 3d 3a e3 51 bc 59 0a 58 bd 75 a3 e3 3d
       0.08158564 -0.012810523 -0.052744243 0.11115161
000200 c4 2a af bb f7 28 2c 3d eb 5e 9b bb b7 92 38 3d
       -0.005345674 0.042031255 -0.0047415397 0.045061793
000210 fa 70 5e bd 55 1a ea 3c 02 9d 09 3d 5b 3f 10 3c
       -0.05430696 0.02857701 0.033597 0.008804168
000220 30 47 16 3e dc 0f 09 bf 5a 05 ff bc c7 3f b9 bd
       0.14675593 -0.53539824 -0.031130482 -0.09045368
000230 b0 c7 bd 3d 90 16 57 bd ec ae 2e bb 28 02 25 3d
       0.09266603 -0.05251175 -0.0026654555 0.04028526
000240 1b c6 12 3c 52 d3 0f 3e ce e5 df 3c c9 28 97 3d
       0.008958365 0.14045456 0.02733126 0.07380826
000250 bf df b7 3c c8 aa b0 3c 0c 1c ef 3a 7a 09 b6 3b
       0.022445558 0.02156581 0.0018242612 0.005555329
000260 1c 02 b4 3d 1c 2d da bd 04 1d dc bd 2f 30 7e 3d
       0.08789465 -0.10653135 -0.10747722 0.06205767
000270 cf 4e 3a 3c 22 63 be bc 25 28 67 3c fa ca 2f bb
       0.0113713285 -0.02324063 0.014108692 -0.0026823864
000280 09 ee 98 3c ac db aa 3d ce c9 dc bd 54 e7 45 3d
       0.018668192 0.0834268 -0.10780679 0.048316315
000290 f6 7a 2b bc 1c f2 a6 3d 2e 22 74 bd 5d 54 97 3c
       -0.010466328 0.081516474 -0.05960291 0.018472845
0002a0 7b cb f4 3d fe e3 9b 3c a1 fa 97 3d bd 9c 8a bc
       0.11952873 0.019029614 0.074208505 -0.016920442
0002b0 6f 68 19 3d f6 53 24 3d 0b 3c 85 bc d0 08 fa 3b
       0.03745311 0.040119134 -0.016263982 0.007630445
0002c0 be ff 7d bd a2 a3 ae 3d fa 2f 86 3e 55 ee 00 bd
       -0.062011473 0.08527304 0.26208478 -0.03147729
0002d0 32 6d 60 3c 7e 4b f2 bd 81 c3 0f 3d 98 c5 c7 3d
       0.013697909 -0.11830805 0.035098556 0.09754485
0002e0 10 db 86 bc 3e 76 f6 bd 9f 74 93 bd b5 c8 57 3d
       -0.016461879 -0.12034272 -0.07199978 0.052681644
0002f0 73 31 77 3d 8f 27 03 3d d6 13 7b 3e d0 6f f1 bc
       0.060349893 0.032020148 0.24519286 -0.029472262
000300 ce 04 a7 3c 16 ac 3d 3d 5b 2f ae 3c 2d fe e4 bc
       0.020388033 0.046306692 0.021262815 -0.027953232
000310 9c ff 04 be cb 48 46 bc 03 60 e3 bc 98 02 d2 3c
       -0.12988132 -0.012102316 -0.027755743 0.025636002
000320 07 75 cf 3b 74 29 dc 3c 64 c8 14 3e 81 74 ae bd
       0.0063310894 0.026875235 0.14529568 -0.08518315
000330 64 08 86 bd 99 33 99 3d 49 3f 0d 3e 35 63 e1 bd
       -0.06544569 0.074805446 0.13793673 -0.1100525
000340 45 ba 95 3d dc 25 d9 3d 5d 65 3c 3d 9e c6 ad 3d
       0.07310919 0.10602924 0.045995105 0.08485149
000350 c1 7c cd 3b 0c 7f ce 3d 52 08 5a bd 68 f2 81 b9
       0.0062709753 0.10082826 -0.05323059 -0.00024785404
000360 6b 0f 01 3d 80 83 01 3c d8 4d e4 3d 99 47 db be
       0.031508844 0.007904887 0.1114766 -0.42828062
000370 ad 42 88 3d d9 25 e7 bd 9e ce b7 3d 5f 39 fe 3c
       0.066533424 -0.11286516 0.08974956 0.031033216
000380 32 80 f3 3d b4 3c df bd 06 24 87 3d 23 d4 36 3d
       0.11889686 -0.1090025 0.06598668 0.044635903
000390 ee 33 9e bd a6 26 9b 3d 0c bb b4 3d 40 8c d7 bd
       -0.077247486 0.07575731 0.08824739 -0.105247974
0003a0 23 3f f0 3d 44 68 9f 3b 7a ae 8c bd c3 d7 9e 3c
       0.117307924 0.0048647244 -0.06869216 0.019389993
0003b0 92 0f a3 bb aa e9 c7 3c f4 e7 83 be 11 75 cc 3d
       -0.0049762214 0.024403412 -0.25762904 0.09983266
0003c0 ea 5f 48 3d 29 a9 69 bd 67 06 81 3d 96 94 69 ba
       0.048919596 -0.05704609 0.06300049 -0.00089103857
0003d0 02 ad dc bc 2c 3b 07 3e f1 93 96 3b dc b9 ab 3d
       -0.026937965 0.13206166 0.0045952727 0.08385059
0003e0 35 02 b8 bd 8d 27 ba 3d a4 df 46 bd f4 fa 58 be
       -0.08984796 0.09089575 -0.048553124 -0.21189481
0003f0 92 50 6d bd 19 11 05 3e cc 9d cb 3c 5b 9b 17 3c
       -0.057938166 0.12994803 0.024855517 0.009253348

actor.bias f4 [3]
000000 80 3e 6b 3d 86 e8 1b bc 88 8b c1 3c
       0.05743265 -0.009515887 0.023626104

critic.weight f4 [1, 256]
000000 13 d6 8c bd b2 83 bb 3d a9 9d 19 be 11 a9 a4 3d
       -0.06876769 0.09155978 -0.15001549 0.08040059
000010 73 9e b0 bc 5f b6 58 bd f7 cc 41 3d 21 19 aa be
       -0.02155993 -0.052908298 0.04731461 -0.33222297
000020 11 27 2a 3d 62 b5 80 be 50 e7 5a be 5b 01 d4 3c
       0.041541163 -0.25138384 -0.21377301 0.025879553
000030 74 75 1c bd 94 ac 70 be d1 ed 9e 3d 5e 07 25 bd
       -0.03819795 -0.23503333 0.07760204 -0.04029023
000040 93 a9 78 bd 6b 62 5c be 3a 77 d0 ba 27 6d 7d bd
       -0.060708594 -0.21521918 -0.0015904673 -0.061871674
000050 36 bc 7c be 52 42 7d bd 5d d8 cc 3e 45 47 eb 3c
       -0.24681172 -0.061830826 0.40008822 0.028720507
000060 1c b3 df 3b 1b 88 83 3e 36 0f 05 3d cb da 3a 3e
       0.0068267714 0.25689778 0.03248521 0.18247525
000070 2d 73 c7 3d ee c7 12 3d d0 f8 00 3e d4 d6 58 3d
       0.09738765 0.0358352 0.12594914 0.05293925
000080 20 d0 d2 3c 1d 92 cb 3c 26 4f e2 bd b8 63 1e be
       0.025734007 0.024849946 -0.110502526 -0.15467727
000090 7a 5d 21 bd 00 ef 99 be fb 21 b5 bd fb 60 1e 3d
       -0.039395787 -0.30065155 -0.08844372 0.038666707
0000a0 a0 e5 1c 3d c8 70 14 3e 60 73 c0 bc 94 db 32 3d
       0.038304925 0.14496148 -0.023492515 0.043666437
0000b0 a3 86 7a 3d 94 b0 60 bd e2 6b d6 bd 16 93 e5 3e
       0.061163556 -0.054855898 -0.10469796 0.4483878
0000c0 46 0d ac bd 2c 5b 61 bd 17 64 08 be 96 5a 94 3c
       -0.08400969 -0.05501859 -0.13319431 0.018109601
0000d0 2f d8 1c 3d ab c1 3f 3e 29 55 8a bd 03 c3 13 bd
       0.038292106 0.18726222 -0.06754524 -0.03607465
0000e0 ef b0 b3 bd 7e 71 2d 3d da c2 83 bd 85 49 83 bd
       -0.08773982 0.042344563 -0.06433649 -0.06410507
0000f0 f7 28 29 bd b4 7f 62 bd 6a 72 c9 bc 2c d9 c6 3d
       -0.041298833 -0.05529757 -0.02459069 0.09709391
000100 ef 60 b9 3e 69 f8 b3 be b7 26 95 be dd 46 04 be
       0.36206767 -0.3515046 -0.291311 -0.12917657
000110 66 f8 2f be 13 5f 40 3d 1b 51 a6 be e4 f2 18 3e
       -0.171846 0.04696567 -0.32483754 0.14936405
000120 b5 da 81 bd e7 b9 7d bc ea 5d 82 bd 84 9b 24 bd
       -0.06340543 -0.015486217 -0.06365569 -0.040187374
000130 e2 cf d8 bd 77 a5 1b 3d cc 79 1f 3d 76 1e 98 3e
       -0.105865255 0.037999596 0.038934514 0.2971074
000140 56 74 13 bd d7 a3 8d 3d b8 9a 53 3d 18 5a 1d 3d
       -0.03599962 0.069160156 0.051661223 0.038416
000150 8d f0 83 3d 75 27 3c be 13 e7 83 bd 67 49 29 3d
       0.06442366 -0.18374427 -0.06440558 0.041329768
000160 ae 48 1b 3d ea 0e 88 bd c8 5b d1 3d c2 af 96 3d
       0.03791111 -0.0664347 0.10222584 0.07357742
000170 72 25 cb 3c 2e cb 07 be bd 1d 98 bd d4 ff 4e bd
       0.024798129 -0.132611 -0.07427547 -0.050536945
000180 28 59 d2 bc 32 9f b9 3c aa c9 58 3d e8 7e 9e be
       -0.025677279 0.022658918 0.052926697 -0.30956197
000190 d0 06 9f bd 14 4d fd 3d 58 aa 27 3c cf f1 fd bc
       -0.07764971 0.12368217 0.010233484 -0.030999092
0001a0 29 fa 01 bd c8 e4 43 3c 37 6b 2d 3d 78 ac 0e 3e
       -0.031732712 0.011956401 0.042338576 0.13932979
0001b0 a0 35 76 3e 06 84 1a 3d a8 8b a3 bd 84 34 bf bc
       0.24043894 0.037723564 -0.07985622 -0.023340471
0001c0 1b a1 07 bd c5 21 6f 3d 6f cd 83 bd 1c 63 74 3d
       -0.033112627 0.058381815 -0.06435668 0.05966483
0001d0 7a 75 eb 3d 38 88 55 3e fe 6d e1 bd 6d 6e c6 3c
       0.11497016 0.20852745 -0.110073075 0.024222577
0001e0 bf f6 13 bd 2b 78 14 3e a3 10 fb bc d0 1d 57 bd
       -0.036123987 0.14498965 -0.030647581 -0.052518666
0001f0 93 4b 10 bd 89 f1 d0 be 30 b3 c7 bc 9f 18 7a bd
       -0.035228323 -0.40809277 -0.024377435 -0.061058637
000200 67 f0 1c 3e 9a 26 39 be 4b 65 5a be 58 d0 a6 39
       0.15326081 -0.18081132 -0.21327703 0.00031817215
000210 b5 bc 10 3d 4b 26 60 3d d9 d5 dd 3c 2a cb 0d bd
       0.035336215 0.05472402 0.02707951 -0.03461758
000220 77 f9 a1 bd 60 ef 03 3f f8 04 e5 bc fb 08 b7 bd
       -0.0790891 0.5153713 -0.02795647 -0.0893726
000230 dd f6 79 3d d2 9f 5f 3d bf e4 80 be 47 cf e1 bc
       0.061026443 0.054595776 -0.2517452 -0.027564658
000240 c7 0c 27 3d 8f bc ac bd 97 67 18 3d c7 2d a8 bd
       0.04078367 -0.08434402 0.037208166 -0.08211856
000250 74 12 d7 3b fc d9 c0 be 3e 59 7a bd 00 7b 47 bd
       0.006563479 -0.3766631 -0.061120264 -0.048701286
000260 3e 8d ad bd 43 f9 45 3e 1e a8 a9 3c f6 95 40 be
       -0.084742054 0.19333367 0.020710047 -0.18807206
000270 0e 5e f9 3d 3b f8 c0 3c d0 37 1a 3d dd 8e 5f bd
       0.12176143 0.023555866 0.037650883 -0.054579604
000280 6c a2 53 bd a3 84 c9 3d db ad da bc 13 49 54 3d
       -0.05166857 0.098397516 -0.026694229 0.0518275
000290 78 72 24 be 63 d6 dc be ad c9 b7 3d 60 fd 4f 3d
       -0.16059291 -0.43132314 0.089740135 0.050778747
0002a0 f5 6c 43 3d 26 9e 30 3c eb 71 31 be 8b 37 88 bb
       0.04771133 0.010779893 -0.17328613 -0.004157012
0002b0 45 3e 85 be b9 5a 07 be f4 45 7a 3b 57 34 98 3b
       -0.2602407 -0.13218202 0.0038188668 0.0046449113
0002c0 3f 84 3e bd 67 12 1c bd 33 f9 7f 3e bc 4f 69 bd
       -0.04651284 -0.038103487 0.24997406 -0.056960806
0002d0 86 c9 35 bd fe e3 fa bc d1 7b 25 3d e3 f1 bc bd
       -0.04438164 -0.030626293 0.040401284 -0.09225824
0002e0 0e 62 43 3d da 7a 21 bd 14 04 87 3e e7 4e f3 3b
       0.047700934 -0.0394238 0.263703 0.0074251774
0002f0 0d 22 00 3d 3d f7 e9 bc dd 0b 3e 3e c8 cd 43 3d
       0.031282473 -0.028560275 0.18559213 0.04780367
000300 35 ea 4f 3d a8 df 51 3e 89 42 a9 be 2a 4d 3b bd
       0.050760467 0.20495474 -0.33058575 -0.045727886
000310 98 ad d4 bd 2a a0 68 bd d2 37 04 bd d3 dd 30 3d
       -0.10384673 -0.05679337 -0.032279797 0.043180298
000320 07 88 b9 3c 5c 34 aa 3d 7a 5a 9e bd fd 2c 7c bd
       0.02264787 0.08310768 -0.07732101 -0.06156634
000330 97 cc b1 bc 57 84 83 be 33 59 8f bd 2b a4 3b be
       -0.021704001 -0.25686905 -0.06999435 -0.18324344
000340 62 7a 75 be 2d 32 b1 bd dc fd 5e bd e1 1a 20 bd
       -0.23972467 -0.086521484 -0.054441318 -0.039088134
000350 50 34 9d 3c 0d f4 84 bd be 21 a5 bd 70 0e 72 bc
       0.019189984 -0.064918615 -0.080630764 -0.01477395
000360 d6 f7 d5 bc 1b ee 50 be 2f b5 76 bd 6f 4a d0 3e
       -0.026119154 -0.2040333 -0.060231384 0.40681788
000370 de d3 46 bc b0 3a a8 3d 0f 6e 67 3e c5 3a b2 bc
       -0.012135474 0.08214319 0.22600578 -0.02175654
000380 1e df d7 bc 04 83 9d bd fd d4 36 3d 1b ba f5 3d
       -0.026351508 -0.07691005 0.044636715 0.119983874
000390 2a a0 40 bd 6e 4c b7 be 4a 6a 1c bd 69 49 14 bd
       -0.047027744 -0.358005 -0.038187303 -0.036202822
0003a0 3d a6 82 be e6 83 49 be ab d6 1c 3e b9 f6 3d 3a
       -0.25517455 -0.19679222 0.15316264 0.00072465424
0003b0 50 c7 d8 3c 6d fa 8f 3c 81 8c 8d 3d 36 af 45 3d
       0.026462227 0.017575467 0.069115646 0.048262797
0003c0 06 f2 5c 3d cd d7 1b be cb 2c 0d 3d 35 c9 74 3d
       0.05394175 -0.1521904 0.034466546 0.0597622
0003d0 7a b2 f8 3c e8 e1 df 3c e1 e6 33 bd 27 e9 d5 be
       0.030358542 0.0273294 -0.043921355 -0.41779444
0003e0 f2 21 28 bd 6f 23 e2 bc aa 40 d4 bc 49 32 6d 3e
       -0.041047998 -0.027604787 -0.02590974 0.23163714
0003f0 49 08 7b bd a2 fa ea bc 0b f6 6e be 32 7f 21 3d
       -0.0612872 -0.028683964 -0.23336045 0.039427944
