Experimenten/Experiment1Snake/PPO/ppo_snake_2100.pth (torch, 280852 bytes, 7 tensors)

shared.0.weight f4 [256, 9]
0	0x3e3d2fc2	0.1847525
1	0xbd89cacb	-0.06728133
2	0x3ed588a2	0.41705805
3	0xbe4a1fbb	-0.19738667
4	0x3c9e5a01	0.019330027
5	0x3d54b20f	0.051927622
6	0x3f0442ae	0.51664245
7	0x3e9e79e3	0.30952367
8	0xbe04f0e2	-0.12982515
9	0xbea60a06	-0.32429522
10	0x3e463e28	0.19359648
11	0x3bbeccc4	0.00582275
12	0xbe839968	-0.25702977
13	0xbd328eea	-0.043593325
14	0xbe9ed1bc	-0.3101939
15	0x3d98b9f8	0.07457346
16	0xbe801475	-0.25015607
17	0xbea47976	-0.32123917
18	0x3e13c205	0.14429481
19	0xbc641289	-0.013920435
20	0x3e644ddb	0.22295325
21	0xbd87a4cb	-0.06623229
22	0x3d4b9057	0.0496982
23	0xbea4e2f6	-0.32204407
24	0xbe590462	-0.21193078
25	0x3da87134	0.08224717
26	0xbea8ec72	-0.32992893
27	0xbe4f8c20	-0.20268297
28	0xbe13ef11	-0.14446665
29	0x3e81811b	0.25293812
30	0xbeebb68b	-0.46037707
31	0xbe71ba9d	-0.23606344
32	0x3e68d3da	0.22737065
33	0x3e2140c1	0.15747358
34	0x3e8ed4b2	0.2789665
35	0x3dae925f	0.08524012
36	0xbe6312cb	-0.22175138
37	0xbe36c1af	-0.17847322
38	0xbec3c369	-0.38235024
39	0xbe901d0f	-0.2814717
40	0xbeaddf0b	-0.3395923
41	0xbe45050b	-0.19240205
42	0xbe8368c4	-0.25665867
43	0xbe9ffeed	-0.3124918
44	0xbd0a0811	-0.0336991
45	0x3ec9aaf0	0.39388227
46	0x3e62acd7	0.22136246
47	0x3eaf8f6f	0.3428912
48	0xbe753a36	-0.23947987
49	0xbc87683f	-0.0165292
50	0xbd1d3dc0	-0.038388968
51	0xbe0b436e	-0.13599941
52	0x3ed25f06	0.41088122
53	0x3e2bafa1	0.16766216
54	0xbdd782c0	-0.105229855
55	0xbe627cbe	-0.22117898
56	0x3ecc7a9d	0.39937297
57	0x3ecb5c0e	0.3971867
58	0xbc2a475e	-0.010392992
59	0x3d51a9d7	0.051187363
60	0x3d88ec10	0.0668565
61	0x3e762bfc	0.24040216
62	0x3ef6fb42	0.4823857
63	0x3e2ad9c3	0.16684632
64	0xbd8e9db0	-0.0696367
65	0xbe18aec4	-0.14910418
66	0x3daa3695	0.08311192
67	0xbc0967b6	-0.008386543
68	0x3c46a849	0.012125083
69	0xbdffd0f4	-0.124910265
70	0x3e23a2f2	0.15980127
71	0xbe8c09db	-0.2735127
72	0xbe8977a9	-0.26849106
73	0xbe7deb8f	-0.2479689
74	0x3e925108	0.28577447
75	0xbde3dc72	-0.11126031
76	0xbdd5e6bb	-0.10444399
77	0xbac1ac83	-0.0014776144
78	0x3d25df41	0.040496115
79	0x3df5b4be	0.119973645
80	0xbe1d1e82	-0.15343669
81	0x3ca283fe	0.01983833
82	0xbe1750af	-0.14776872
83	0x3edcdd79	0.4313772
84	0x3d227634	0.03966351
85	0x3dfc943c	0.12332961
86	0xbdc5229b	-0.09625741
87	0xbe57303f	-0.21014498
88	0x3e732cda	0.23747578
89	0xbed2b495	-0.41153398
90	0xbe925c8a	-0.28586227
91	0x3d6ad879	0.05733535
92	0x3e9b6d10	0.30356646
93	0xbeadaaba	-0.33919317
94	0xbe5101ba	-0.20410815
95	0xbd6ef30f	-0.058337267
96	0x3d15ab7c	0.036540493
97	0x3e198348	0.14991486
98	0x3f04873a	0.5176884
99	0x3e6c1eba	0.23058596
100	0xbdfdf09c	-0.12399408
101	0xbe50ca3e	-0.2038965
102	0xbe624dc0	-0.22099972
103	0xbd9f174f	-0.07768118
104	0xbd66c88f	-0.05634361
105	0xbd835c76	-0.0641412
106	0xbd624369	-0.05524007
107	0x3f0cff09	0.5507665
108	0xbd33f5fe	-0.04393577
109	0x3e8d0ccd	0.2754883
110	0xbb4b80d9	-0.003105214
111	0x3e508913	0.2036479
112	0x3e12420d	0.14283009
113	0xbd23253a	-0.039830424
114	0x3e8dbe21	0.2768412
115	0xbcb64c07	-0.02225305
116	0x3f07a595	0.52987033
117	0x3ebc3220	0.36756992
118	0xbcfabb1c	-0.030606799
119	0xbe85a10b	-0.2609943
120	0x3d0b5400	0.034015656
121	0x3e908a66	0.2823059
122	0x3e34874f	0.17629741
123	0x3d7d77ec	0.061881945
124	0xbd58d276	-0.052935086
125	0xbe523969	-0.20529713
126	0xbebe736a	-0.3719743
127	0xbead79af	-0.338819
128	0x3ed240cb	0.41065058
129	0xbe9b6fc9	-0.30358723
130	0x3da4f74b	0.0805498
131	0xbe4230ed	-0.18963976
132	0xbe0a8dfa	-0.13530722
133	0x3e218ea3	0.15777068
134	0xbda7f3b2	-0.08200778
135	0xbe9b2fb3	-0.3030983
136	0xbea99237	-0.33119366
137	0x3e668956	0.22513327
138	0x3e5c64cf	0.2152283
139	0x3dd5ea31	0.10445059
140	0xbdefca24	-0.11708477
141	0x3ea1f805	0.31634536
142	0xbd1464d0	-0.036228955
143	0x3e51793c	0.20456403
144	0xbdff91c3	-0.12478974
145	0xbe04883d	-0.12942596
146	0x3ebc3434	0.36758578
147	0x3d69cd15	0.057080347
148	0xbc2cd462	-0.010548683
149	0xbdd18fac	-0.10232481
150	0x3ee5f93d	0.44916716
151	0xbdd1e3ab	-0.10248502
152	0xbe1cf631	-0.1532829
153	0x3e2072ab	0.15668742
154	0x3e41e0bd	0.18933387
155	0x3eb3bf19	0.35106733
156	0x3d6337fb	0.05547331
157	0x3dbf4a4b	0.09340342
158	0x3e00f394	0.12592918
159	0x3eed03c8	0.46291947
160	0x3edee9e5	0.43537822
161	0x3ece1589	0.40250805
162	0x3e2d23d2	0.16908196
163	0x3ec27eca	0.37987357
164	0x3dcec11f	0.10095429
165	0xbe00dd1a	-0.12584344
166	0x3e94b37b	0.29043183
167	0xbe2119e8	-0.15732539
168	0x3ef70578	0.4824636
169	0x3c981392	0.01856402
170	0x3d959ef3	0.07305708
171	0xbda2bbeb	-0.07945999
172	0x3e41fd21	0.18944217
173	0x3e6dc765	0.23220594
174	0x3ecff50d	0.40616646
175	0x3e7de2b8	0.24793518
176	0x3da0b8db	0.078477584
177	0xbcc98dfc	-0.024603836
178	0x3eafb8b7	0.34320614
179	0x3e4392c0	0.1909895
180	0x3ce2a050	0.027664334
181	0xbe07e83d	-0.13272186
182	0x3c369a8c	0.011145245
183	0xbe8cd2e6	-0.27504653
184	0xbe3fecf6	-0.18742737
185	0xbd791703	-0.06081296
186	0xbe90ead2	-0.28304154
187	0x3e888224	0.2666179
188	0xbe458c50	-0.19291806
189	0x3d4ecefb	0.05049036
190	0x3e22cded	0.15898867
191	0x3e9478a5	0.28998294
192	0x3d3b02b6	0.045656882
193	0xbe3ff2e3	-0.18744998
194	0xbd1633de	-0.03667056
195	0xbcdc785d	-0.026912862
196	0xbdb547f7	-0.08851617
197	0x3dd0ac42	0.101891056
198	0xbe0de91f	-0.1385846
199	0x3dc6e047	0.09710746
200	0x3eac3f04	0.33641827
201	0x3eb7ce85	0.3589975
202	0xbe15a4a5	-0.14613588
203	0xbe25aa98	-0.16178358
204	0x3ed4e383	0.41579828
205	0x3ebd18d2	0.36933
206	0x3e231062	0.15924218
207	0xbe4bc845	-0.19900616
208	0xbdcd9c5f	-0.10039591
209	0x3e6d0b8b	0.23148935
210	0x3d060762	0.032721885
211	0x3c0be507	0.008538491
212	0x3e9d383a	0.3070696
213	0x3d7b8146	0.06140258
214	0xbe693c2b	-0.22776859
215	0xbe7902bc	-0.2431745
216	0xbec5b28e	-0.3861279
217	0x3e126c69	0.14299168
218	0x3db0728a	0.086155966
219	0x3d9cdbbb	0.07659098
220	0xbd3fafdc	-0.046798572
221	0xbe64752a	-0.2231032
222	0x3ef7831d	0.4834222
223	0x3ece4fc7	0.4029524
224	0xbd2e2a7f	-0.042520996
225	0xbda25012	-0.079254285
226	0x3e1cf089	0.15326132
227	0x3ede6118	0.43433452
228	0xbd336257	-0.043794956
229	0x3e6c9c3e	0.23106477
230	0xbdd1ff6d	-0.10253797
231	0x3eb3f9b2	0.3515144
232	0x3eb45a47	0.35225126
233	0xbe2b1e86	-0.16710863
234	0xbe0e5cea	-0.13902631
235	0x3db1fc81	0.086907394
236	0x3d1d657a	0.038426854
237	0xbea3edbe	-0.3201732
238	0x3e0c633a	0.13709727
239	0x3c4655ed	0.012105447
240	0x3ef14f2b	0.47130713
241	0x3e07f83c	0.13278288
242	0x3e744e7f	0.23858069
243	0xbec9a5d4	-0.3938433
244	0xbe47f30f	-0.19526313
245	0x3e571dc5	0.2100745
246	0xbedad6cb	-0.42742
247	0x3e5c31ae	0.21503326
248	0x3daf096d	0.0854672
249	0xbe2d8040	-0.16943455
250	0x3e812dd6	0.25230283
251	0xbe910dd3	-0.2833086
252	0xbe3a59dd	-0.18198343
253	0x3e81865c	0.2529782
254	0x3c6a3d3f	0.014296829
255	0x3e9609c1	0.29304317

shared.0.bias f4 [256]
0	0x3e36f775	0.17867835
1	0xbe6aa126	-0.22913036
2	0xbe866ca4	-0.2625476
3	0xbe51c3df	-0.20484875
4	0xbdf61405	-0.12015537
5	0x3e642fd8	0.22283876
6	0x3e8a1198	0.26966548
7	0x3e95d0dd	0.29260913
8	0x3db47c54	0.08812776
9	0xbece9e57	-0.4035518
10	0x3b08cee1	0.0020875263
11	0x3e72346a	0.23652807
12	0x3ee13fb2	0.43993908
13	0x3d883aae	0.06651817
14	0xbe937ef4	-0.28807795
15	0xbed58d3b	-0.41709313
16	0x3e044e00	0.1292038
17	0xbc6ba941	-0.014383615
18	0x3e4d3c10	0.20042443
19	0x3e94e770	0.29082823
20	0xbed64127	-0.41846582
21	0x3eb07659	0.34465292
22	0x3b9707d7	0.004609089
23	0xbea82dd7	-0.32847473
24	0xbe22f661	-0.15914299
25	0x3e9d656b	0.30741438
26	0xbd5d7b7a	-0.054072835
27	0xbe3026fe	-0.17202374
28	0x3ed049f5	0.40681425
29	0xbe8985f7	-0.2686002
30	0xbea328a6	-0.3186695
31	0xbec3976f	-0.38201472
32	0x3e8ac597	0.27103874
33	0x3e94af31	0.2903991
34	0x3eb3f903	0.35150918
35	0xbe48fd51	-0.19627883
36	0x3eb86107	0.36011526
37	0x3d5fe560	0.05466211
38	0xbea7558e	-0.3268246
39	0xbe257e91	-0.16161563
40	0x3e8ba9cf	0.2727799
41	0xbe1d0af1	-0.15336205
42	0x3ec3ed15	0.38266817
43	0xbe198478	-0.14991939
44	0x3f0a638c	0.54058146
45	0x3e0b6178	0.136114
46	0xbe2d5eb8	-0.16930664
47	0xbde13b78	-0.10997671
48	0x3a87e635	0.001036829
49	0xbe7dd09c	-0.2478661
50	0x3dc955f5	0.09830848
51	0xbdeac17c	-0.114626855
52	0x3e23e616	0.1600574
53	0x3e1e3cea	0.15452924
54	0x3c86dedd	0.016463691
55	0xbea084ad	-0.31351224
56	0x3ed02d52	0.40659577
57	0x3de218a3	0.11039855
58	0xbb04ca06	-0.0020262017
59	0x3e937723	0.28801832
60	0x3f03a3b3	0.5142166
61	0xbdbf9ade	-0.093557104
62	0x3ee12dcd	0.43980256
63	0x3e815644	0.25261128
64	0xbe431322	-0.19050267
65	0x3d57bbb4	0.052669242
66	0x3ea295c5	0.3175489
67	0x3ea5c7a3	0.32378873
68	0x3ec13fed	0.37744084
69	0x3e18df18	0.14928854
70	0x3ee4c460	0.44681072
71	0x3ecec8d2	0.4038759
72	0x3e809b60	0.25118542
73	0xbee0ad67	-0.43882295
74	0xbdd62b67	-0.10457497
75	0x3eab1296	0.33412617
76	0x3d9c00f7	0.076173715
77	0xbeab641e	-0.3347482
78	0x3e39ce83	0.18145184
79	0xbe2029f1	-0.15641
80	0xbea26f56	-0.31725568
81	0x3ed3464f	0.4126458
82	0x3e0ba695	0.13637765
83	0xbe794799	-0.24343719
84	0x3e65e1cb	0.22449414
85	0x3eaf8fa0	0.34289265
86	0xbd073aba	-0.03301499
87	0x3d554fc9	0.052078042
88	0xbe0c3bd8	-0.13694704
89	0xbd48691b	-0.04892836
90	0x3deadbe2	0.114677206
91	0xbde5723b	-0.11203428
92	0x3e36930e	0.17829534
93	0x3d9fd7b7	0.07804816
94	0x3ea28238	0.31739974
95	0x3e1c5724	0.15267617
96	0x3e8e2f11	0.27770284
97	0xbd958ce7	-0.073022656
98	0xbe877f9e	-0.26464552
99	0xbdab26c2	-0.08357002
100	0x3de2faa4	0.11082962
101	0xbe19606b	-0.14978187
102	0x3eaa4292	0.33253914
103	0x3e98c14d	0.29834977
104	0x3ece3af7	0.40279362
105	0xbdb6d43e	-0.08927201
106	0x3ebe3aba	0.3715418
107	0xbea63c2a	-0.32467777
108	0xbd8ada22	-0.06779887
109	0xbed13310	-0.4085927
110	0xbecce126	-0.40015525
111	0xbd498186	-0.04919579
112	0xbe540d1a	-0.20708123
113	0xbe23a891	-0.15982272
114	0x3d2855b6	0.041097365
115	0x3eb6e5ae	0.35722107
116	0x3eeb7665	0.45988765
117	0xbea786f3	-0.32720146
118	0x3b289005	0.0025720608
119	0xbeeecbd7	-0.46639892
120	0xbee6e702	-0.4509812
121	0xbe8f203a	-0.27954274
122	0x3e3e2e43	0.18572335
123	0x3e950fe4	0.29113686
124	0xbe940678	-0.28911185
125	0xbea5007e	-0.32226938
126	0xbea4197d	-0.32050696
127	0x3ecbe21b	0.39820942
128	0x3e847b37	0.25875255
129	0xbe6f7c20	-0.23387194
130	0x3ea3235d	0.31862918
131	0xbd020f11	-0.03175265
132	0x3dd33023	0.10311916
133	0xbe935b94	-0.28780806
134	0x3e316aa8	0.17325842
135	0xbea00ca9	-0.3125966
136	0xbe647bed	-0.22312899
137	0xbe59c0f8	-0.21265018
138	0x3da73a09	0.08165366
139	0x3e08d233	0.13361435
140	0xbcffe4a0	-0.031236947
141	0xbce5b5bd	-0.028040761
142	0xbe373ccf	-0.1789429
143	0x3e8cf2b0	0.27528906
144	0x3ebf7e3b	0.37400994
145	0xbedc2cdb	-0.43002972
146	0x3e683931	0.22678067
147	0x3dea2e77	0.11434644
148	0x3e6079c9	0.21921457
149	0x3e921d44	0.28537953
150	0x3d69505a	0.056961395
151	0x3ea63bce	0.32467502
152	0xbe11018a	-0.14160743
153	0xbe9935f7	-0.29923984
154	0x3df7c7a8	0.12098628
155	0x3ea81a52	0.3283258
156	0x3e804119	0.25049666
157	0x3e1cdde5	0.15319021
158	0x3c690bec	0.014224034
159	0x3e99135f	0.2989759
160	0xbee736df	-0.4515905
161	0xbe825e2c	-0.25462472
162	0x3e4ac217	0.19800602
163	0x3edf34b9	0.43594912
164	0x3dc7c166	0.09753685
165	0xbe7b6da1	-0.24553539
166	0x3ec0fb00	0.37691498
167	0x3ce94688	0.028476015
168	0x3ea82472	0.32840306
169	0x3e27cf88	0.1638776
170	0x3e972941	0.29523662
171	0x3e514c85	0.20439346
172	0xbe77b570	-0.24190307
173	0xbec376f3	-0.3817669
174	0x3e81cfce	0.25353855
175	0x3ec74dde	0.38926595
176	0x3e3bfb32	0.18357542
177	0xbdd527f1	-0.10408009
178	0x3e4e6d7c	0.20158952
179	0xbe684362	-0.22681955
180	0x3d6ee952	0.05832798
181	0xbe58b40e	-0.21162435
182	0xbe76211d	-0.24036069
183	0x3f0e5c41	0.5560952
184	0xbd88d496	-0.066811725
185	0xbecf81ee	-0.40528816
186	0xbc155eb9	-0.009116822
187	0x3ded342d	0.11582217
188	0xbe2d88e5	-0.16946752
189	0xbe3c2674	-0.18374044
190	0xbe1dbfbb	-0.1540517
191	0x3e4d0461	0.20021202
192	0xbe527aa9	-0.20554604
193	0xbed216fb	-0.41033158
194	0x3ed2e3d6	0.4118945
195	0x3ec8a23a	0.3918627
196	0x3e9598b7	0.29218075
197	0xbdcc0d03	-0.09963419
198	0x3e2f936b	0.17146079
199	0x3eeb0dc6	0.45908946
200	0xbe59b897	-0.21261822
201	0xbed115a7	-0.40836832
202	0xbdb7df6c	-0.08978161
203	0xbe91fea7	-0.28514597
204	0xbe6ecdd5	-0.23320706
205	0xbe997401	-0.29971316
206	0xbe43468c	-0.1906988
207	0xbe995708	-0.29949212
208	0xbeb7a1b5	-0.3586556
209	0x3e3a3d45	0.18187435
210	0xbe917b85	-0.2841455
211	0x3e79612c	0.24353474
212	0xb90a26bf	-0.0001317514
213	0x3d3f2bf3	0.046672773
214	0x3ef81479	0.4845312
215	0xbdf82c19	-0.12117786
216	0x3e0ebed4	0.13939983
217	0x3b3834eb	0.0028107713
218	0xbeed5090	-0.46350527
219	0xbed745b4	-0.42045367
220	0x3ee0c870	0.43902922
221	0x3dad0d34	0.08449784
222	0xbe82ed6f	-0.25571772
223	0x3ed1a9b4	0.40949786
224	0x3e6a8280	0.22901344
225	0xbe5519ae	-0.20810577
226	0xbe37ffbd	-0.1796865
227	0xbeb0e39a	-0.34548646
228	0xbebf39bc	-0.37348735
229	0x3d8212c8	0.063512385
230	0x3ef626f0	0.48076582
231	0x3e7ef4a2	0.24898008
232	0x3f087454	0.533025
233	0xbec24bbe	-0.37948412
234	0xbe84b407	-0.259186
235	0x3ea2ca0f	0.31794783
236	0xbee0d081	-0.43909076
237	0xbe1bb3f1	-0.15205361
238	0xbb2bd215	-0.0026217748
239	0x3ef85f26	0.48510092
240	0xbe7dcbe0	-0.24784803
241	0x3d9162ed	0.07098947
242	0x3d65f4a3	0.056141507
243	0x3e0041a3	0.12525038
244	0xbd982bff	-0.074302666
245	0x3e0937bb	0.13400166
246	0x3df875ee	0.12131868
247	0xbe84568f	-0.2584729
248	0x3e718bb8	0.23588455
249	0x3de7870e	0.113050565
250	0x3d0c93a0	0.034320474
251	0x3ede1213	0.43373165
252	0xbee01d6f	-0.43772456
253	0x3e7c92d0	0.2466538
254	0xbcae1d7f	-0.0212543
255	0x3e881348	0.2657721

shared.2.weight f4 [256, 256]
0	0xbc866f64	-0.016410537
1	0xbd1db446	-0.038502
2	0xbc489ee7	-0.0122449165
3	0xbcc3236c	-0.023820601
4	0x3cd66ec2	0.02617586
5	0x3e29a410	0.16566491
6	0x3de346be	0.110974774
7	0x3d0e7f78	0.034789532
8	0xbd4fb509	-0.050709758
9	0x3bb48ff6	0.0055103255
10	0x3cd8dc81	0.026472332
11	0x3c9bd46b	0.019022187
12	0x3db658a5	0.08903626
13	0xbc77f1f9	-0.015133374
14	0xbd9f7a6f	-0.07787024
15	0xbcb606d1	-0.022220047
16	0x3d0504d9	0.032475326
17	0x3d5db09f	0.054123517
18	0xbd12a5aa	-0.03580252
19	0xbcd4fcce	-0.025999453
20	0xbdbd2135	-0.09234849
21	0x3d9a557f	0.07535838
22	0x3d913e82	0.070920005
23	0xbcbf772a	-0.023372252
24	0xbd05e3c7	-0.03268793
25	0xbca84483	-0.020540481
26	0xbd721e78	-0.05911109
27	0xbd8cc5e9	-0.06873686
28	0x3d48b16c	0.048997328
29	0xbd08f9c0	-0.033441305
30	0xbd4d8810	-0.050178587
31	0xbdbe3501	-0.092874534
32	0xbd57a22d	-0.052644897
33	0x3ce38a88	0.027776018
34	0xbd2dad78	-0.04240176
35	0x3d7ad47d	0.0612378
36	0xbd130f44	-0.03590323
37	0x3d27aa5e	0.04093396
38	0x3be8bba8	0.0071024485
39	0xbd1416a2	-0.036154397
40	0x3cf85d91	0.030318053
41	0xbb65a82e	-0.003504287
42	0x3c81b040	0.015831113
43	0xbcd3cbd5	-0.02585403
44	0x3e3590a6	0.1773096
45	0xbd0569f1	-0.032571737
46	0xbce79612	-0.028269801
47	0x3d5f3abb	0.05449937
48	0x3d7d74fd	0.061879147
49	0x3d780492	0.060551234
50	0xbcb1ac75	-0.02168868
51	0xbb71fac4	-0.003692315
52	0x3b81e91e	0.0039645573
53	0x3d877f3b	0.06616064
54	0xbc1023f0	-0.008797631
55	0xbdb38065	-0.08764724
56	0x3d93e084	0.07220557
57	0x3d5b8b1a	0.053599454
58	0x3c76e6b2	0.0150696505
59	0x3d4c6587	0.04990151
60	0x3dca509f	0.098786585
61	0x3c3e8f9b	0.011630918
62	0x3d35641c	0.044284925
63	0x3d1b9794	0.037986353
64	0xbcbdb776	-0.02315877
65	0x3c5bb421	0.013409645
66	0x3d05b431	0.032642547
67	0x3d7184b5	0.05896445
68	0x3da435db	0.080180846
69	0xbc6a9727	-0.014318264
70	0x3e0a3abd	0.1349897
71	0x3d8d90f3	0.069124125
72	0x3b950bad	0.004548511
73	0x3767b6c0	1.3811223e-05
74	0x3d83e7f7	0.06440728
75	0x3cde3c28	0.027128294
76	0x3b851cd5	0.004062275
77	0xbd2ed33c	-0.042681918
78	0x3c50992d	0.012731832
79	0x3c82b691	0.015956195
80	0xbd6287e1	-0.055305365
81	0x3d7b3ad0	0.061335385
82	0x3d848e69	0.06472475
83	0xbcde6450	-0.027147442
84	0x3d727e47	0.05920246
85	0x3da6bc15	0.081413426
86	0x3d0daa9c	0.034586534
87	0x3d7122b9	0.058871005
88	0x3d91caff	0.071187966
89	0xbc9242d2	-0.017854128
90	0x3bd692a9	0.006548245
91	0xbb4081e2	-0.0029374291
92	0xbc71432a	-0.014725486
93	0x3d0b82d5	0.034060318
94	0x3d91ec06	0.07125096
95	0xbc447420	-0.011990577
96	0x3d4da67d	0.050207604
97	0x3b3a87c9	0.0028462282
98	0xbc8956c7	-0.016765011
99	0x3c1a00a8	0.0093995705
100	0xbbfc4c08	-0.0076994933
101	0x3d243f6d	0.04009955
102	0xbc2d2115	-0.010566969
103	0xbd086db9	-0.033307765
104	0x3d872ada	0.0659997
105	0xbde34868	-0.11097795
106	0xbcba32ba	-0.022729266
107	0xbd98c5eb	-0.07459625
108	0x3cefe678	0.0292847
109	0xbcdf8a87	-0.027287735
110	0xbdf701c6	-0.12060885
111	0x3d06f98e	0.032952838
112	0x3c757636	0.014981797
113	0x3d0a5986	0.033776782
114	0x3d97d7cb	0.07414206
115	0xbcfea74f	-0.031085638
116	0x3dacbc36	0.08434336
117	0xbbdc16b2	-0.0067165727
118	0x3cf61997	0.030041499
119	0x3d85f639	0.06541104
120	0xbd8bfd4f	-0.06835424
121	0xbd11b674	-0.03557439
122	0x3d5f50a1	0.054520253
123	0x3de85f37	0.11346286
124	0x3d507d02	0.050900467
125	0xbdaf244e	-0.085518464
126	0xbc164e3c	-0.009173926
127	0x3da76d06	0.081750914
128	0x3d41927b	0.047258835
129	0x3d81c620	0.063366175
130	0x3d8542a1	0.06506849
131	0x3c31945f	0.010838597
132	0x3cfd03bb	0.030885568
133	0xb9f1a2f8	-0.00046088523
134	0xbc06cc7f	-0.008227467
135	0x3d82453d	0.063608624
136	0xbbd2646b	-0.006420662
137	0x3d9a186d	0.0752419
138	0x3d2d783c	0.042350993
139	0x3d21124c	0.03932409
140	0x3d14c4c1	0.03632045
141	0xbce579b8	-0.028012142
142	0xbcb6ae6a	-0.022299964
143	0xbd004582	-0.031316288
144	0xbc7ece7c	-0.015552159
145	0xbd35cc60	-0.04438436
146	0x3d582651	0.052770916
147	0x3c79cc43	0.015246454
148	0x3d461153	0.048356365
149	0x3d9d0a67	0.07668
150	0xba94c418	-0.0011349944
151	0xbc837966	-0.016049098
152	0x3c82778b	0.015926143
153	0xbd472d77	-0.048627343
154	0x3c3dcfc0	0.011585176
155	0x3bb32965	0.005467581
156	0x3d8caa09	0.06868369
157	0xbce3e4ce	-0.027819064
158	0xbc9b6773	-0.018970227
159	0xbcfdb4e4	-0.030970044
160	0xbd86559f	-0.065593
161	0xbc84ed99	-0.016226577
162	0xbb8b1a49	-0.004245077
163	0x3df38272	0.11890115
164	0x3d8e8033	0.06958046
165	0xbd5d5656	-0.054037414
166	0xbc6233ea	-0.013806323
167	0xbc931b13	-0.017957246
168	0x3d9da1da	0.07696886
169	0x3d7faa2c	0.062418148
170	0xbd23648a	-0.039890803
171	0xbae0f4d4	-0.0017162808
172	0xbd4a4855	-0.049385387
173	0xbd7a59fc	-0.061120972
174	0xbc87d4c9	-0.016580956
175	0x3e2fe985	0.17178924
176	0x3ce1cbd9	0.027563022
177	0x3d31be20	0.043394208
178	0x3d330ecc	0.043715283
179	0xbd21bec0	-0.039488554
180	0x3d507f1f	0.050902482
181	0x3cde65b7	0.02714811
182	0x3e654a22	0.2239156
183	0x3dadcff4	0.084869295
184	0xbd10f74f	-0.0353921
185	0xbc7fad04	-0.015605215
186	0x3c8d9ecf	0.01728764
187	0xbcb30117	-0.021851106
188	0x3cd88c78	0.026434168
189	0xbd1ed8e0	-0.038781047
190	0x3c2a0d96	0.010379216
191	0x3dd8c391	0.10584176
192	0xbd35f8f5	-0.044426877
193	0xbd8b6112	-0.06805624
194	0x3b5089e7	0.0031820477
195	0xbc8ce064	-0.017196842
196	0x3da31aa6	0.07964067
197	0x3c74f12e	0.01495008
198	0x3c9d88d8	0.019230291
199	0x3c55d1ad	0.013050479
200	0xbc2301ee	-0.009949191
201	0xbd2e982e	-0.0426256
202	0xbdafc4b5	-0.08582441
203	0x3c4e8109	0.012604007
204	0xbdac5d8c	-0.0841628
205	0x3d77a4ea	0.06046001
206	0x3c8bbdb6	0.017058235
207	0x3c5a4a9a	0.01332345
208	0xbdaadcbd	-0.08342884
209	0x3d21fa6f	0.039545473
210	0xbd583119	-0.0527812
211	0x3c4b4a75	0.012407889
212	0x3d625881	0.055260185
213	0xbcfd1e89	-0.03089835
214	0x3a27ccd6	0.00064010674
215	0x3a719b7a	0.0009216588
216	0x3d16b3f5	0.036792714
217	0x3d0630ad	0.032761265
218	0x3cde65f1	0.027148219
219	0xbd95bb91	-0.07311166
220	0x3da6b4cb	0.08139952
221	0x3d67561a	0.056478597
222	0x3d18f0e4	0.037339106
223	0x3cf9ed3c	0.03050863
224	0x3d20fe83	0.03930522
225	0x3d436344	0.04770209
226	0xbbb04700	-0.0053795576
227	0x3c88bfb1	0.016692968
228	0xbd6f49fd	-0.05842017
229	0xbc629e72	-0.013831722
230	0x3dae61b8	0.08514732
231	0xbc8a1ff5	-0.016860941
232	0x3da21499	0.07914085
233	0x3ceae824	0.028675146
234	0xbdb72077	-0.08941739
235	0x3d173b73	0.03692193
236	0xbd76fd42	-0.06030012
237	0xbd96cb82	-0.07363035
238	0x3d2a4628	0.041570812
239	0xbc30d4aa	-0.010792891
240	0xbd2055e3	-0.039144408
241	0x3c716481	0.014733435
242	0x3d8f27f5	0.06990043
243	0xbc13f020	-0.009029418
244	0x3d78805a	0.06066928
245	0x3cf50853	0.029911196
246	0x3bdc3846	0.0067205755
247	0xbc0b66e7	-0.008508421
248	0x3d60f121	0.05491746
249	0x3d693e47	0.056944158
250	0xbd37b659	-0.044851635
251	0x3b9397cd	0.00450418
252	0xbd6ae7ff	-0.057350155
253	0xbd9e8c30	-0.077415824
254	0x3d945f3a	0.072447255
255	0x3d6cca35	0.057810027

shared.2.bias f4 [256]
0	0x3dd259f9	0.10271067
1	0x3cec32b3	0.028832769
2	0x3e075edb	0.13219778
3	0x3c5c2c83	0.013438347
4	0x3dcbc3bd	0.099494435
5	0x3dd7dc64	0.10540083
6	0xbe8a5968	-0.27021337
7	0x3dff0156	0.12451427
8	0x3ce5222f	0.027970402
9	0x3e5f7319	0.2182125
10	0x3e279e74	0.16369039
11	0x3c8f4515	0.017488996
12	0x3e149dc7	0.14513312
13	0x3e55224d	0.20813866
14	0x3e0edd4c	0.13951606
15	0x3e42ff5d	0.19042726
16	0x3e4cafe8	0.19988978
17	0x3e62ffd9	0.2216791
18	0xbcb71f98	-0.022353932
19	0x3db49cdb	0.0881898
20	0x3e6e849e	0.23292777
21	0x3e46dbd3	0.19419794
22	0xbca0c2f4	-0.01962421
23	0xbd42612d	-0.047455955
24	0x3cc78486	0.024355184
25	0x3d13fccf	0.03612977
26	0xbd0a6206	-0.03378489
27	0xbddbb371	-0.10727585
28	0x3e354614	0.17702514
29	0xbcd9f764	-0.026607223
30	0x3df30372	0.118658915
31	0x3d0aacf3	0.033856343
32	0xbe4d099b	-0.20023195
33	0xbd5b400e	-0.053527884
34	0x3e38a8b6	0.18033108
35	0x3e03e0d0	0.12878728
36	0x3e3a515d	0.181951
37	0x3e4b16c6	0.19832906
38	0x3e5f4966	0.21805343
39	0xbcaabbb4	-0.020841457
40	0xbcb1c374	-0.021699645
41	0x3e22954a	0.15877262
42	0x3e193155	0.14960225
43	0xba999da2	-0.0011719952
44	0xbe59896b	-0.21243827
45	0x3dc27605	0.09495167
46	0x3e12d541	0.14339162
47	0xbdeda694	-0.11604038
48	0x3e0a5308	0.13508236
49	0x3ddad1e2	0.10684563
50	0x3e481521	0.1953931
51	0xbe0468c6	-0.12930593
52	0x3a909568	0.0011030855
53	0x3dd4039a	0.103522494
54	0x3e09c916	0.13455614
55	0x3e46f127	0.1942793
56	0x3e62ebda	0.22160283
57	0x3e1a3cbc	0.15062231
58	0x3e2eee9f	0.17083214
59	0x3e534801	0.20632936
60	0x3dc13827	0.09434538
61	0x3e3a1f27	0.18175946
62	0x3e3b5a33	0.18296127
63	0xbce6e5c8	-0.02818574
64	0xbd85d388	-0.06534487
65	0x3e09da86	0.13462266
66	0x3e22baf4	0.1589163
67	0x3e40c89e	0.1882653
68	0x3e4c3773	0.19943027
69	0x3ce72899	0.0282176
70	0x3e18675d	0.1488318
71	0x3e3e9cc3	0.18614487
72	0x3e4c36c8	0.19942772
73	0x3e36bbaa	0.17845026
74	0x3e3d336d	0.18476649
75	0x3dfd961f	0.12382149
76	0x3e0cada7	0.13738118
77	0xbc9decc1	-0.019277932
78	0xbc8803a3	-0.016603297
79	0xbc3133bd	-0.010815558
80	0x3e1c9387	0.15290652
81	0xbe02c644	-0.12770945
82	0xbd09fd83	-0.033689033
83	0xbc8af26f	-0.016961304
84	0xbe416449	-0.18885912
85	0x3e21930a	0.15778747
86	0x3e5c1a28	0.21494353
87	0xbc281979	-0.010259979
88	0x3d00e1c4	0.031465307
89	0x3e03a3a2	0.1285539
90	0x3e14d739	0.14535226
91	0x3e38e5ba	0.18056384
92	0xbc44fee5	-0.012023662
93	0x3e29caea	0.16581312
94	0x3e328f69	0.17437519
95	0x3dd0a1d1	0.10187114
96	0x3e29ad51	0.16570021
97	0x3b9c63b6	0.0047726287
98	0xbd252b7d	-0.040324677
99	0x3db8a272	0.09015359
100	0x3dc28d44	0.094996005
101	0x3e095b91	0.13413836
102	0xbe8dd19f	-0.2769899
103	0x3def8b30	0.1169647
104	0x3e268d60	0.16264868
105	0x3b8e571d	0.004343881
106	0xbe76097d	-0.24027057
107	0x3e395072	0.18097094
108	0xbdf9ea10	-0.12202847
109	0xbc1d50f1	-0.0096018175
110	0x3e4e5c16	0.20152315
111	0x3df6d3df	0.1205213
112	0x3dcd7fb7	0.10034125
113	0x3cb19b33	0.02168045
114	0x3e09744b	0.13423268
115	0x3ce2b5fd	0.02767467
116	0xbe5461db	-0.20740454
117	0x3dc33b93	0.09532847
118	0x3dd9a690	0.106274724
119	0xbe152d97	-0.14568172
120	0x3e33b577	0.17549692
121	0x3d9ded60	0.07711291
122	0x3e1156f7	0.1419333
123	0x3dfe4439	0.12415356
124	0x3e29498b	0.1653196
125	0x3dfb0b0b	0.12257966
126	0x3e34e6fb	0.17666237
127	0x3e0e345b	0.1388716
128	0x3c6374d7	0.013882837
129	0x3e63199d	0.2217774
130	0x3e3b3285	0.1828099
131	0xbd13115a	-0.03590522
132	0xbd473728	-0.048636585
133	0xbdf6a7e9	-0.12043745
134	0xbcc32ab4	-0.023824073
135	0x3e09433e	0.13404557
136	0x3e262298	0.16224134
137	0x3d821f66	0.06353645
138	0x3e172bbd	0.14762779
139	0x3e3d192b	0.18466632
140	0xbe0e386d	-0.13888712
141	0xbd61ac43	-0.055095922
142	0x3e2facad	0.17155714
143	0x3de25f1f	0.11053299
144	0xbd576775	-0.0525889
145	0x3e61d21a	0.22052804
146	0xbd536043	-0.051605474
147	0x3e34c684	0.17653853
148	0xbda46027	-0.08026152
149	0x3df03880	0.117295265
150	0x3e54a803	0.20767216
151	0x3e0bbcb5	0.13646205
152	0x3e28a92b	0.16470782
153	0x3dbd1a4a	0.0923353
154	0x3beabf14	0.0071638916
155	0x3de56119	0.112001605
156	0xbe6d2998	-0.23160398
157	0x3c0fe83e	0.008783398
158	0xbc3cb86c	-0.011518579
159	0x3e05b952	0.13058975
160	0x3e42973a	0.19003001
161	0xbd109e10	-0.03530699
162	0x3de22fc0	0.11044264
163	0xbd932a91	-0.07185853
164	0x3e116997	0.14200436
165	0x3e65b057	0.2243055
166	0xbe2d5533	-0.16927032
167	0x3a8bf15c	0.0010676789
168	0xbe0b6c8c	-0.13615626
169	0x3d158df7	0.03651234
170	0x3e60da3d	0.21958251
171	0xbd36bea5	-0.044615407
172	0x3e12aef5	0.14324553
173	0x3e54a2fb	0.20765297
174	0x3cf7f184	0.03026653
175	0xbd7874fa	-0.060658433
176	0x3de6062a	0.112316445
177	0x3e0925ca	0.13393322
178	0x3df97873	0.12181177
179	0x3e1227b0	0.14272952
180	0x3e584aaf	0.2112224
181	0x3e26a6c6	0.16274557
182	0xbb6b4e78	-0.0035904925
183	0x3e15a9c2	0.14615539
184	0xbd0c6d05	-0.034283657
185	0x3e047d81	0.12938501
186	0x3c44734a	0.011990378
187	0xbc75b480	-0.014996648
188	0xbcce46f5	-0.02518032
189	0x3e1709a3	0.1474977
190	0x3e09d09b	0.13458483
191	0xbd4aa750	-0.049475968
192	0xbcd4650f	-0.025927095
193	0x3d00353f	0.03130078
194	0x3e162a9b	0.1466469
195	0x3e4e8563	0.2016807
196	0x3e4707b3	0.19436531
197	0x3e295f05	0.16540153
198	0x3e1f8e16	0.15581545
199	0x3d19e2a6	0.037569664
200	0xbd27429c	-0.040835008
201	0x3e00a67c	0.12563509
202	0x3e1e2ae9	0.15446056
203	0x3e3e9b17	0.1861385
204	0x3e428d3d	0.1899919
205	0x3e4e3576	0.20137581
206	0x3e141eb0	0.14464831
207	0x3de7967e	0.11308001
208	0x3e5ebca6	0.21751651
209	0x3e0d9193	0.13825063
210	0x3e4acea4	0.1980539
211	0x3e081ff4	0.13293439
212	0x3d3a396a	0.04546491
213	0x3dc4d7a7	0.09611445
214	0x3e55d086	0.20880327
215	0x3e4195fa	0.18904868
216	0xbd36e2a7	-0.044649746
217	0x3e4919c8	0.19638741
218	0x3e1e6b68	0.1547066
219	0x3db49a18	0.088184536
220	0x3e0f6449	0.140031
221	0x3e63e96b	0.2225701
222	0x3dac09ef	0.08400332
223	0x3e248937	0.16067968
224	0x3e1755df	0.14778851
225	0x3e263658	0.16231668
226	0xbd5be2e4	-0.053683177
227	0x3d1b51b1	0.037919704
228	0x3e374fcd	0.17901535
229	0x3dfc86d2	0.123304024
230	0x3de47f66	0.11157112
231	0x3e070efc	0.1318931
232	0x3e149a79	0.14512052
233	0x3e59a0e8	0.21252787
234	0xbd8b5d00	-0.06804848
235	0xbe3712b8	-0.17878234
236	0x3c9d5451	0.019205244
237	0x3c9736cc	0.018458746
238	0x3df93914	0.1216909
239	0xbe793a55	-0.24338658
240	0x3a70e1fe	0.0009188949
241	0x3e095a02	0.13413242
242	0xbe4fcb66	-0.20292434
243	0xbe2cdd28	-0.1688124
244	0x3c2708ef	0.010195001
245	0xbe1651d3	-0.14679651
246	0x3e34ca60	0.17655325
247	0x3e0d419f	0.13794564
248	0x3dd796ea	0.105268314
249	0x3dc8a9cb	0.097980104
250	0x3df40bd9	0.11916322
251	0xbdfafbcc	-0.12255058
252	0x3e1a437c	0.15064806
253	0x3e0b6a39	0.1361474
254	0x3e682d1e	0.22673461
255	0xbcfd68c9	-0.030933755

actor.weight f4 [3, 256]
0	0x3d88537a	0.06656547
1	0xbcc8fcb6	-0.024534564
2	0x3b05d87b	0.0020423222
3	0xbd101cb9	-0.035183642
4	0xbd89420b	-0.0670205
5	0xbd92036b	-0.07129558
6	0xbd8b297e	-0.067950234
7	0xbcb5f00c	-0.02220919
8	0x3d0c6d69	0.03428403
9	0x3d514c85	0.051098365
10	0x3d83d7a8	0.064376175
11	0xbc892f10	-0.016746074
12	0x3d91f530	0.07126844
13	0x3b61d85a	0.003446123
14	0x3c276c0b	0.010218631
15	0x3aba140e	0.0014196651
16	0x3de8098f	0.11329948
17	0x3cd2a0ac	0.02571138
18	0x3c222e48	0.00989873
19	0xbbff5743	-0.007792385
20	0x3d3e5abb	0.046473246
21	0x3d4cb128	0.049973637
22	0xbe05892a	-0.13040605
23	0xbcd3c8ad	-0.025852526
24	0xbba07429	-0.00489666
25	0x3d1f5882	0.038902767
26	0x3cfb1d85	0.030653724
27	0xbdd9e7c1	-0.10639907
28	0xbd9e5ccc	-0.07732543
29	0x3c3bc6b8	0.011460952
30	0xbdd663de	-0.10468267
31	0xbbafeeee	-0.005369059
32	0x3c09bb50	0.008406475
33	0xbc9260a6	-0.017868351
34	0x3db23aa4	0.08702591
35	0xba050f11	-0.00050757924
36	0x3da62a23	0.08113506
37	0xbd57beaa	-0.052672066
38	0xbd9e7bc3	-0.077384494
39	0xbc916e6f	-0.017752854
40	0x3d2795ec	0.04091446
41	0x3d8a8a2d	0.06764636
42	0x3d23b4a9	0.039967213
43	0x3d22249a	0.039585687
44	0x3c8b5aec	0.017011128
45	0xbd0805c2	-0.033208616
46	0x3d43a788	0.047767192
47	0x3df865dc	0.12128803
48	0xbc9716d6	-0.018443506
49	0xbbd94814	-0.006630907
50	0xbd8f1cd5	-0.06987921
51	0xba92ae8b	-0.0011190934
52	0x3d020880	0.031746387
53	0x3e2511ca	0.16120067
54	0x3dad1c27	0.08452635
55	0x3c44c5f8	0.01201009
56	0xbda156ab	-0.07877859
57	0x3d7d8d4e	0.061902337
58	0x3d7c3bb4	0.061580375
59	0xbb42f2d5	-0.002974679
60	0x3d399bde	0.045314662
61	0x3dbe975a	0.09306212
62	0xbd9b012b	-0.07568582
63	0xbd794809	-0.060859714
64	0xbe2347fe	-0.15945432
65	0xbc91fac9	-0.017819779
66	0xbc28f1e1	-0.010311575
67	0x3cc3e08d	0.023910785
68	0x3c162713	0.009164589
69	0xbba7c14a	-0.0051194774
70	0x3d52bdb6	0.051450454
71	0x3debb1e9	0.11508543
72	0xbdd0ecc8	-0.102014124
73	0x3c08c6ec	0.008348208
74	0xbc0d4e97	-0.008624694
75	0x3c27f077	0.010250202
76	0x3c95145e	0.018198188
77	0x3b4c85c8	0.003120767
78	0x3cb97761	0.022639932
79	0x3e04a594	0.12953788
80	0xbd58b350	-0.05290538
81	0x3ba74f99	0.0051059243
82	0xbd04709a	-0.032333948
83	0x3d371e20	0.044706464
84	0x3b7c3172	0.003848162
85	0x3db044f4	0.08606902
86	0x3d8e1eca	0.06939466
87	0x3d4c4510	0.04987055
88	0xbd2285ab	-0.039678257
89	0x3dadd938	0.08488697
90	0xbca4dfd1	-0.020126255
91	0x3d585f2b	0.052825134
92	0x3cc388de	0.023868974
93	0x3ba9a624	0.005177276
94	0xbd82481c	-0.0636141
95	0xbcc1ebe6	-0.023672055
96	0xbc98ac44	-0.01863683
97	0xbc8fa7e4	-0.017536111
98	0x3d5ebb39	0.05437777
99	0x3cf39b1a	0.029737044
100	0x3d835418	0.06412524
101	0x3d4d5804	0.050132766
102	0xbcc328e8	-0.023823217
103	0x3ccf8b55	0.025334993
104	0xbd08f22e	-0.033434086
105	0x3ce81876	0.028331976
106	0xbd6b254b	-0.057408612
107	0xbdcbb324	-0.09946278
108	0xbdd83c4f	-0.10558378
109	0xbbca9bc3	-0.006183119
110	0x3dab542f	0.08365666
111	0xbca41be0	-0.020032823
112	0x3d0f3f9b	0.03497277
113	0x3d4ba689	0.049719367
114	0x3d9b3e0f	0.07580196
115	0xbcd7f981	-0.02636409
116	0x3db7df81	0.08978177
117	0x3c8f1163	0.017464345
118	0xbd1f292d	-0.038857628
119	0x3c04fe4c	0.00811727
120	0x3d81d4d4	0.06339422
121	0x3d00c6ba	0.03143952
122	0xb986d8cb	-0.00025719995
123	0xbd1ee30c	-0.038790748
124	0x3d807233	0.06271782
125	0xbcd3b0b5	-0.025841096
126	0xbd309102	-0.04310704
127	0x3dd99df1	0.10625828
128	0x3c342871	0.01099597
129	0x3bc0f730	0.005888842
130	0xbcab9e8d	-0.020949626
131	0x3d2e3840	0.042534113
132	0xbd5b9910	-0.05361277
133	0x3cc29e1d	0.023757035
134	0x3d099d02	0.033597
135	0x3aa63e9a	0.0012683452
136	0x3db8469b	0.08997842
137	0xbe86b32c	-0.26308572
138	0xbcb92376	-0.022599917
139	0xbd8e062b	-0.0693477
140	0x3d9ca8ba	0.076493695
141	0xbd571690	-0.05251175
142	0x3cc6b8a7	0.024257971
143	0x3c506851	0.0127201835
144	0x3c12c61b	0.008958365
145	0x3ca2f2e4	0.01989121
146	0x3cdfe5ce	0.02733126
147	0xbbba3948	-0.005683098
148	0x3cb7dfbf	0.022445558
149	0x3b4f1469	0.0031597859
150	0x3c5c735b	0.013455237
151	0xbbd760a1	-0.0065727984
152	0x3d6e3362	0.05815447
153	0xbdc5b288	-0.09653193
154	0xbd5c627c	-0.05380486
155	0xbc108f96	-0.008823296
156	0x3cb4134b	0.021981856
157	0xbcbe6322	-0.02324063
158	0x3c672825	0.014108692
159	0xbbc70548	-0.0060736276
160	0x3c0319d6	0.008001765
161	0x3d727d41	0.059201483
162	0xbddd20b3	-0.107972525
163	0x3d86c009	0.065795965
164	0xbcacf5ac	-0.02111324
165	0x3d2a839c	0.04162942
166	0xbd8cde5d	-0.0687835
167	0x3c97545d	0.018472845
168	0x3df510a3	0.11966064
169	0x3c9be3fe	0.019029614
170	0x3d754f3d	0.05989002
171	0xbc8a9cbd	-0.016920442
172	0x3cd546d2	0.026034746
173	0xbcbf5865	-0.02335758
174	0xbc853c0b	-0.016263982
175	0x3bfa08d0	0.007630445
176	0xbd092afb	-0.033488255
177	0x3d4d64a8	0.05014482
178	0x3e0c4b1c	0.13700527
179	0xbd0cda21	-0.03438771
180	0x3c8ce403	0.017198568
181	0xbdf5a266	-0.11993866
182	0xbd1b1df5	-0.037870366
183	0x3b4013cf	0.0029308682
184	0xbd08655a	-0.03329978
185	0xbdde34fc	-0.1084995
186	0xbcfddb58	-0.03098838
187	0x3d579916	0.05263623
188	0x3d773173	0.060349893
189	0x3cc9ba98	0.024625108
190	0x3e1342b7	0.14380918
191	0xbcf16fd0	-0.029472262
192	0x3ca704ce	0.020388033
193	0x3d1cfe98	0.038328737
194	0xbd0b1b1d	-0.033961404
195	0xbd13615c	-0.03598152
196	0xbdb90913	-0.09034934
197	0xbcc3703a	-0.023857225
198	0xbd31583a	-0.04329703
199	0x3cd20298	0.025636002
200	0x3bcf7507	0.0063310894
201	0x3c8d8f05	0.017280111
202	0x3dd665b3	0.10468616
203	0xbd9a637f	-0.075385086
204	0xbd6de03c	-0.058075175
205	0x3d268048	0.040649682
206	0x3bdc792d	0.0067283125
207	0xbdcd31e6	-0.10019283
208	0x3d3f01c7	0.046632554
209	0x3dae724d	0.08517895
210	0x3d3b5ffc	0.045745835
211	0x3d4e5a88	0.050379306
212	0xba32e774	-0.00068246503
213	0x3d981d45	0.07427458
214	0xbd87584d	-0.06608639
215	0xbcab3a5b	-0.02090185
216	0x3d010f6b	0.031508844
217	0xbcae9291	-0.021310123
218	0xbcc4d45d	-0.024027044
219	0xbe6592e3	-0.22419314
220	0x3c4f0f6a	0.012637952
221	0xbdab434b	-0.083624445
222	0x3d0784bd	0.033085573
223	0x3cd83095	0.026390353
224	0x3d8cea9e	0.06880687
225	0xbd046793	-0.03232534
226	0xbcbedd6b	-0.02329894
227	0x3d295a7d	0.041346062
228	0xbd8d2c79	-0.06893248
229	0x3c5f8db6	0.013644626
230	0x3d44337b	0.047900658
231	0xbdade1d0	-0.08490336
232	0x3d72883d	0.05921196
233	0xbd4dacdb	-0.050213676
234	0xbcfcc042	-0.030853394
235	0x3d0eb2d8	0.034838527
236	0xbba30f92	-0.0049762214
237	0x3cc7e9aa	0.024403412
238	0xbdd91dfd	-0.10601423
239	0x3dcd8def	0.10036837
240	0x3d485fea	0.048919596
241	0xbd5c66a5	-0.053808827
242	0x3d810f67	0.06301766
243	0x3aced3ee	0.0015779713
244	0xbcdcad02	-0.026937965
245	0x3da2e7ed	0.079543926
246	0xbc8fc3cb	-0.017549416
247	0x3d46f966	0.04857769
248	0xbd9cc7b9	-0.076552816
249	0x3d4600a5	0.04834046
250	0xbd2072ad	-0.039171863
251	0xbce8c019	-0.028411912
252	0xbd2b32eb	-0.041796606
253	0x3dcdda39	0.10051388
254	0x3cc99846	0.024608742
255	0x3c179b6a	0.009253362

actor.bias f4 [3]
0	0x3d772d7e	0.06034612
1	0xbc7ad6e4	-0.015310023
2	0x3cb1a314	0.021684207

critic.weight f4 [1, 256]
0	0xbcf84004	-0.030303963
1	0x3bc0fb54	0.0058893356
2	0xbce7411f	-0.028229294
3	0x3d6205b8	0.055181235
4	0xbd3aa918	-0.045571417
5	0xbd75e91c	-0.060036764
6	0x3de2a613	0.110668324
7	0xbd4760d3	-0.048676323
8	0x3d2a2711	0.041541163
9	0xbcadee7a	-0.021231879
10	0xbccfab4f	-0.025350241
11	0x3cd4015b	0.025879553
12	0xbd588260	-0.05285871
13	0xbd1d83fe	-0.038455956
14	0xbcbf98e7	-0.02338834
15	0xbd787255	-0.06065591
16	0xbd3b8df1	-0.045789663
17	0xbc3cfd22	-0.011534961
18	0xba369a80	-0.00069657713
19	0xbd91680b	-0.07099923
20	0xbcb7d240	-0.022439122
21	0xbd24030d	-0.040041972
22	0x3dada0c2	0.08477928
23	0x3c11cb01	0.008898498
24	0x3bdfb31c	0.0068267714
25	0x3bdff2e9	0.006834377
26	0x3d050f36	0.03248521
27	0x3d72d222	0.05928243
28	0xbcc2c335	-0.023774723
29	0x3d12c7ee	0.0358352
30	0xbc5531d1	-0.013012365
31	0x3d5ddf75	0.054168183
32	0x3d86b354	0.06577173
33	0x3c01e3bc	0.007927831
34	0xbc674d3f	-0.014117538
35	0xbd406e95	-0.04698046
36	0xbd9693df	-0.07352423
37	0xbce026ce	-0.027362254
38	0xbcbde463	-0.023180192
39	0x3d267980	0.040643215
40	0x3d1ce5a0	0.038304925
41	0xbc24f714	-0.010068674
42	0xbd61b12a	-0.055100597
43	0x3ca59770	0.020213813
44	0x3dddbdcc	0.108272165
45	0xbd90f052	-0.070770875
46	0xbd0ed63b	-0.034872275
47	0x3d7ce0e8	0.061737925
48	0xbd7f12e9	-0.062273894
49	0xbd78acd1	-0.060711686
50	0xbcea5559	-0.02860515
51	0x3d7193f9	0.05897901
52	0x3d1cd82f	0.038292106
53	0xbc4b0791	-0.012391941
54	0xbcd4591a	-0.025921393
55	0xbd564417	-0.05231103
56	0xbd126b89	-0.035747085
57	0xbcb40979	-0.021977173
58	0xbcf4a61a	-0.02986436
59	0xbd91e46d	-0.07123647
60	0xbcd1ff6d	-0.025634492
61	0xbd298fc5	-0.041396875
62	0xbd4c9e1c	-0.049955472
63	0x3d54fa50	0.05199653
64	0x3d31e3cf	0.043430146
65	0xbd056b23	-0.032572877
66	0xbc9495b9	-0.0181378
67	0xbd417dcc	-0.04723911
68	0xbc967de0	-0.018370569
69	0x3d405f13	0.04696567
70	0xbcdf2b98	-0.027242467
71	0xbbfd8085	-0.007736268
72	0xbd658451	-0.05603439
73	0xbd1339bd	-0.035943735
74	0xbc2ea2f6	-0.01065897
75	0xbd96561b	-0.07340642
76	0xbc4c8d4c	-0.01248486
77	0x3d258c88	0.040417224
78	0x3d1f79cc	0.038934514
79	0x3d447b64	0.047969237
80	0xbd4b43ce	-0.04962521
81	0x3d903b8d	0.070426084
82	0x3d539ab8	0.051661223
83	0x3d1d5a18	0.038416
84	0x3d83f792	0.06443705
85	0xbd0d2be2	-0.034465678
86	0xbdaf9e0a	-0.085750654
87	0x3d294967	0.041329768
88	0x3d1b48ae	0.03791111
89	0xbd4388f0	-0.047738016
90	0xbc2c7938	-0.010526948
91	0xbcafa412	-0.02144054
92	0x3ccc6521	0.024950566
93	0xbd4f0ff2	-0.050552316
94	0xbd13096f	-0.03589767
95	0xbd90b5d4	-0.07065931
96	0xbd5869a3	-0.052835118
97	0x3cb99f32	0.022658918
98	0x3d58c9aa	0.052926697
99	0xbcd11872	-0.025524352
100	0xbd8b7fa9	-0.068114586
101	0xbc62c6b1	-0.013841317
102	0x3d5cf953	0.05394871
103	0xbd8adf1c	-0.06780836
104	0xbd8699d2	-0.06572308
105	0x3c43e4c8	0.011956401
106	0x3de1d092	0.1102611
107	0xbc45f50f	-0.012082352
108	0x3d84860b	0.06470879
109	0x3d1a8406	0.037723564
110	0xbd55281a	-0.052040197
111	0xbd6834a6	-0.056690834
112	0xbd4d24ed	-0.050084043
113	0x3d655e8d	0.055998374
114	0xbd009e90	-0.031401217
115	0x3d1625fd	0.036657322
116	0x3db76af5	0.08955947
117	0x3d954e47	0.07290321
118	0xbc99dcde	-0.018782075
119	0x3d6a2f05	0.057173748
120	0xbd81d80b	-0.06340035
121	0x3caab3bf	0.020837663
122	0xbd5e5f99	-0.054290388
123	0xbd92c3e5	-0.0716627
124	0xbd9f77dc	-0.07786533
125	0xbccf39ad	-0.025296057
126	0xbd579762	-0.052634604
127	0xbd2c1456	-0.04201158
128	0x3c4104e6	0.011780953
129	0xbc88072b	-0.01660498
130	0xbd3a6317	-0.045504656
131	0x3b6497cf	0.0034880524
132	0x3d1d6f68	0.038436323
133	0x3d804029	0.062622376
134	0x3cddd5d9	0.02707951
135	0xbd73d352	-0.059527703
136	0xbd15e637	-0.036596503
137	0x3d56e43a	0.052463748
138	0xbd6e1405	-0.05812456
139	0xbd5bb847	-0.053642537
140	0x3d9fc013	0.07800307
141	0x3d5f9fd2	0.054595776
142	0xbc16ab56	-0.009196123
143	0xbd3f4e5c	-0.04670559
144	0x3d270cc7	0.04078367
145	0xbce6957e	-0.028147455
146	0x3d186797	0.037208166
147	0xbcd1c918	-0.025608584
148	0x3bd71274	0.006563479
149	0xbd4d9383	-0.050189506
150	0xbd59b869	-0.053154383
151	0xbd719191	-0.058976714
152	0xbcf4beaf	-0.029876081
153	0x3d4cd316	0.050005995
154	0x3c4b357d	0.012402889
155	0xbcebc63c	-0.028781049
156	0x3e0ef73c	0.139615
157	0x3cc0f83b	0.023555866
158	0x3d1a37d0	0.037650883
159	0xbd88037b	-0.06641289
160	0xbd728bc5	-0.059215326
161	0x3d6432cb	0.055712502
162	0xbd16baf5	-0.03679939
163	0x3d9d6561	0.07685352
164	0xbd44b1cb	-0.04802112
165	0xbcf88fcb	-0.030342003
166	0x3db39310	0.08768284
167	0x3d4ffd60	0.050778747
168	0x3d542eac	0.051802322
169	0x3c309e26	0.010779893
170	0xbd44a4a9	-0.048008595
171	0xbb88378b	-0.004157012
172	0xbd6d8f0c	-0.05799775
173	0xbcb75e87	-0.022383941
174	0x3b7a45f4	0.0038188668
175	0x3b983457	0.0046449113
176	0xbd4c0289	-0.049807105
177	0xbd54f176	-0.051988088
178	0xbb991013	-0.0046711056
179	0xbd8e5a08	-0.06950766
180	0xbd89cc56	-0.06728427
181	0xbcfb4784	-0.03067375
182	0x3cfa855e	0.030581173
183	0xbc7ccd47	-0.015429801
184	0x3d30c5ea	0.043157496
185	0xbd795336	-0.06087037
186	0x3d6dea88	0.058084995
187	0x3c1b96a2	0.009496363
188	0x3d00220d	0.031282473
189	0xbd54c3df	-0.05194461
190	0xbc1e3ce0	-0.009658068
191	0x3d43cdc8	0.04780367
192	0x3d4fea35	0.050760467
193	0x3db20a82	0.086934105
194	0xbcbe274b	-0.023212096
195	0xbd2b3039	-0.041794036
196	0xbd17fcde	-0.037106387
197	0xbda231a7	-0.07919627
198	0xbd855cfc	-0.06511876
199	0x3d30ddd3	0.043180298
200	0x3cb98807	0.02264787
201	0xbba77df0	-0.0051114485
202	0xbcc1e66b	-0.023669442
203	0xbd7baf28	-0.06144634
204	0xbd415468	-0.047199637
205	0xbcd4646f	-0.025926797
206	0xbcc91624	-0.02454669
207	0xbd65ae8f	-0.056074675
208	0xbd2096d7	-0.039206352
209	0xbd4e752a	-0.050404705
210	0xbca936d6	-0.02065603
211	0xbd5b55ec	-0.05354874
212	0x3bc4a9be	0.00600168
213	0xbd880b82	-0.0664282
214	0xbdd1acc8	-0.102380335
215	0xbd8360cd	-0.06414948
216	0xbcd5f7d6	-0.026119154
217	0xbd1f5ee3	-0.03890885
218	0xbce3f241	-0.027825477
219	0x3ca7950f	0.020456819
220	0xbd1e60f6	-0.038666688
221	0xbcdd25db	-0.02699559
222	0x3cde7de2	0.027159635
223	0xbd536313	-0.051608156
224	0xbd4e96c3	-0.050436746
225	0xbc9e5170	-0.019325942
226	0x3c5ae115	0.013359328
227	0x3d1fcce2	0.03901375
228	0xbd8935af	-0.066996925
229	0xbd042070	-0.032257497
230	0xbd6de9f6	-0.05808445
231	0xbd70a4cc	-0.058750913
232	0xbc5bd0e5	-0.013416504
233	0xbc9cd475	-0.019144276
234	0x3d896fed	0.06710801
235	0x3dfb2627	0.12263136
236	0x3cd8c750	0.026462227
237	0x3c8ffa6d	0.017575467
238	0xbca0f339	-0.019647228
239	0x3de98efc	0.11404225
240	0x3d5cf206	0.05394175
241	0xbd771ccd	-0.0603302
242	0x3d18b900	0.037285805
243	0x3d7efd2f	0.062253173
244	0x3cf8b27a	0.030358542
245	0x3d8f1302	0.06986047
246	0xbd8e5548	-0.0694986
247	0xbd1418a3	-0.036156308
248	0xbd8054b5	-0.062661566
249	0xbd468214	-0.048463896
250	0xbd435c38	-0.04769537
251	0x3c9e3b50	0.019315392
252	0xbd911729	-0.070844956
253	0xbd4b29e0	-0.049600482
254	0xbd172081	-0.036896233
255	0x3d218ad2	0.03943903
