Experimenten/Experiment1Snake/PPO/ppo_snake_10500.pth (torch, 280864 bytes, 7 tensors)

shared.0.weight f4 [256, 9]
000000 64 c6 d6 3d 0e d9 b4 bd 47 b8 95 3e 28 32 b2 be
       0.10487059 -0.088304624 0.29242155 -0.3480389
000010 a9 aa 80 bb 7a 4a 77 3b 26 a9 11 3f d0 0b 00 3f
       -0.0039265943 0.00377336 0.56898725 0.50018024
000020 f0 e2 09 bd df cf f2 be 0f e7 7c 3e 8d 94 12 3e
       -0.03366369 -0.47424218 0.24697517 0.1431448
000030 fd de ee be db 8e 17 bc 7d bb 92 be 8e 32 b0 3e
       -0.46654502 -0.009250368 -0.28658667 0.3441357
000040 63 2d 13 be 69 8c 18 be 84 b2 fa bc 01 2e 0f 3e
       -0.14372782 -0.14897312 -0.030602701 0.13982393
000050 b1 02 f5 3e 53 96 97 be 28 1a 53 3d d0 26 09 be
       0.47853616 -0.29606876 0.051538616 -0.13393712
000060 aa 8c d9 3b 97 43 a2 3e 9b 66 04 bf 2b 1b a1 be
       0.006639083 0.31692192 -0.51719064 -0.3146604
000070 aa 81 3d be 92 df cd 3d 99 96 c0 be 27 de 5f be
       -0.18506494 0.10052408 -0.37614897 -0.21862088
000080 a5 b0 5d 3e 1f bd 83 3e a8 5f b3 3e bc f3 93 3e
       0.21649416 0.25730225 0.35033917 0.28896892
000090 b0 58 86 be d3 45 1c be 2e a8 9c be 25 9c 8f be
       -0.26239538 -0.15261011 -0.3059706 -0.28048816
0000a0 fa 55 9d be a6 6e 27 be d2 c7 f8 bd e5 43 a7 bc
       -0.30729657 -0.16350803 -0.12147488 -0.020418117
0000b0 83 35 47 3e 44 bc bb 3e eb 21 73 3e f5 fb 9c 3e
       0.19454007 0.36667073 0.23743407 0.30660978
0000c0 ac 64 cb be 81 63 03 3d eb 97 f6 ba aa 59 9c bd
       -0.39725244 0.032077316 -0.0018813586 -0.076342896
0000d0 fe 41 d2 3e 6e d3 22 3e 70 98 b4 be 8c fd b5 be
       0.41065973 0.15900967 -0.3527255 -0.35545003
0000e0 05 a6 96 3e c0 5a a3 3e 4b af a3 bc a1 b2 ac 3c
       0.29423538 0.31905174 -0.019981047 0.02108127
0000f0 82 ab 12 3e c8 6b 53 3e 05 a7 17 3f 73 b6 5f 3e
       0.14323238 0.20646584 0.59239227 0.21846943
000100 2a eb cc 3d 0a 87 fc 3c b7 84 0f 3e 98 49 38 bc
       0.100057915 0.03082611 0.1401547 -0.011248015
000110 d1 bd 46 3b b5 c5 0f bf 78 4e 9f 3e 1c 18 18 bf
       0.0030325542 -0.5616105 0.31114554 -0.5941179
000120 f0 93 10 bf 5f a7 89 be 61 46 cf 3e a8 ec ba 3b
       -0.56475735 -0.26885507 0.40483382 0.005704481
000130 6c 89 b7 bc b4 4e 2a ba 2d a8 10 3e 02 20 bc 3e
       -0.022404395 -0.0006496713 0.14126654 0.3674317
000140 f8 b9 50 bf 8c ae ab 3c fc 38 10 3e af eb 1b 3f
       -0.81533766 0.020957254 0.14084238 0.609065
000150 f1 98 52 be 1c e7 6b 3d 36 db 84 bd 11 88 03 be
       -0.20566155 0.05759345 -0.06487124 -0.12844874
000160 bb ee c5 3e ad 8a 54 bf 09 46 ad be 7a cb 80 3e
       0.386587 -0.830241 -0.33842495 0.2515524
000170 54 57 53 3e ab 35 01 bf 48 65 12 be 53 ec 54 3b
       0.20638782 -0.50472516 -0.14296448 0.0032489493
000180 f2 f8 07 3e 43 ea b6 3e 5e 3d 58 3f de 1b 05 3e
       0.13278559 0.35725603 0.8446864 0.12998912
000190 8f 6b 21 be 66 a9 bc be 28 4e 68 be 3c d7 10 bd
       -0.15763687 -0.3684799 -0.22686064 -0.035361513
0001a0 dd bb 29 be 21 34 ab bd 69 e7 05 3d 7f 5c 8a 3f
       -0.1657557 -0.08359552 0.032691393 1.0809478
0001b0 d4 7d bd 3d eb d5 a4 3e 52 25 cf bc 37 75 93 3e
       0.092525154 0.32194456 -0.02528635 0.28800365
0001c0 95 3a e3 3c 7f 0f 0f bc 92 4b aa 3e ac 73 e2 be
       0.027737895 -0.008731722 0.3326078 -0.44228876
0001d0 71 14 23 3f 01 5f cc 3e 17 e7 4d be a0 d5 ef be
       0.63703066 0.39916232 -0.20107685 -0.4684267
0001e0 15 36 78 bd 7f b5 33 3e cf e4 4a 3e 40 2b 0e 3e
       -0.06059845 0.17549704 0.19813846 0.13883686
0001f0 9f 46 98 3d 3f d0 d3 bd ca fb b8 be 47 20 c6 be
       0.07435345 -0.10342454 -0.361296 -0.386965
000200 f9 37 29 3f b4 72 c6 be 32 6c f8 3d b5 ee 2e be
       0.6610103 -0.38759387 0.121300116 -0.17083247
000210 ab 22 0c bd ee 3c 1e 3e 4d f0 82 be 82 3c e1 be
       -0.03421275 0.1545293 -0.2557396 -0.43991476
000220 7a 5d e3 be aa 81 8e 3e df 68 cb 3d a2 a5 26 bd
       -0.44407254 0.278333 0.09932112 -0.040685304
000230 14 78 8c bd 88 66 f8 3e 5a dd c5 3c 09 c7 c4 3e
       -0.068588406 0.48515725 0.0241534 0.38433102
000240 cc 24 e7 be 76 8a c2 bd 47 b7 e3 3e 7e dc b5 3b
       -0.4514526 -0.094990656 0.44475767 0.0055499664
000250 16 b6 50 bd 49 02 24 be 17 fe 36 3f e5 2a 6a 3e
       -0.0509549 -0.16016497 0.7148146 0.22867925
000260 20 20 75 be 5f 17 e6 3d 45 66 06 3c b1 73 19 3e
       -0.23938036 0.112349264 0.008203094 0.14985539
000270 18 87 07 3e 47 bf cf 3a 27 76 13 3d e3 49 17 3f
       0.13235128 0.0015849852 0.03600135 0.5909712
000280 88 f3 1d 3f 0f b6 0a 3f f5 f5 fd 3d 17 e8 04 3f
       0.61699724 0.5418405 0.12400428 0.5191664
000290 5f 35 37 bd 77 6e f1 be a6 8a 5e 3e eb 57 c3 bc
       -0.044728633 -0.4715459 0.21732578 -0.023845633
0002a0 74 b2 17 3f d5 53 be 3b d7 50 9c bc 1f ac d7 be
       0.5925667 0.0058083334 -0.019081516 -0.42123505
0002b0 69 f2 13 3e 7b a3 5e 3e 6e fe fd 3e 5f 10 fb 3d
       0.14447941 0.2174205 0.49608177 0.12258982
0002c0 a7 65 96 ba 4f a7 16 3d 2e 6e 77 3e e0 7e 1e 3e
       -0.0011474387 0.03678065 0.24163124 0.15478086
0002d0 84 f5 90 bd 1b 7a 1e 3e 1c eb eb bd 2e 45 07 bf
       -0.070780784 0.15476267 -0.11519453 -0.52839935
0002e0 59 14 31 be 70 dc 6f bd 10 32 a7 be 1f 62 bf 3e
       -0.17292918 -0.058559835 -0.32655382 0.37379548
0002f0 3c 85 5b 3c bc cd 0b 3e 79 a9 bd 3e f0 18 f9 3e
       0.013398465 0.136527 0.3704336 0.48651838
000300 f1 2e 73 3d ac 87 03 bd 11 4f 3d bd 97 13 cb bd
       0.05937094 -0.03211181 -0.04621798 -0.09915846
000310 50 76 83 be ea 07 8d 3d 88 1b f4 be 14 65 98 3d
       -0.25676203 0.06886275 -0.47677255 0.07441154
000320 5e 0a e3 3e 9e 44 1e 3e 7a 27 5a bd b5 ca 40 bd
       0.44343847 0.15455863 -0.053260304 -0.047068316
000330 9a d9 21 3f b8 be 1e 3f 31 8f 84 3d 36 05 e0 be
       0.6322266 0.62009764 0.06472624 -0.43753976
000340 3e a5 8a bd 7e 7d 17 3f 43 85 42 be f7 e3 fe 3d
       -0.06769799 0.5917586 -0.18996148 0.124458246
000350 58 3d 32 3e 04 ed 4a 3e e6 6b 82 be e7 d6 bb bc
       0.17406213 0.19816977 -0.25472945 -0.022929622
000360 48 fa 18 bf 00 8c 08 3e c1 82 a0 3e 59 94 03 bd
       -0.597569 0.13334656 0.31349757 -0.032123897
000370 20 0e 96 bc 25 85 0c be f0 64 50 3f bb c2 29 3f
       -0.018317282 -0.13722666 0.8140402 0.6631276
000380 b8 65 a9 3d db 32 28 bd a3 f1 ca 3e 6c b1 b6 3e
       0.082713544 -0.041064125 0.3963748 0.35682237
000390 5c 95 1f be 88 5c 09 3e 07 02 80 bd c4 fd ea 3e
       -0.1558432 0.13414204 -0.06250387 0.45896733
0003a0 4d 88 dd 3e b6 43 c1 be 36 06 26 3d 10 70 01 3e
       0.43268052 -0.37746972 0.040533267 0.12640405
0003b0 cc cc 8a bd ee 50 13 bf cc 12 6a 3d 9b 89 0d 3c
       -0.06777343 -0.57545364 0.057146832 0.008638765
0003c0 d6 e9 41 3f 59 bd 91 3e 36 67 76 3e 70 91 00 bf
       0.7574743 0.28464773 0.2406281 -0.5022192
0003d0 57 3a 07 bd 0f 80 02 3f 86 76 1a bf cb 5f 0f 3e
       -0.03301462 0.5097665 -0.603371 0.14001386
0003e0 19 d1 90 3d 95 d5 07 3d 8b 47 16 3e 62 4a 1f be
       0.07071132 0.033162672 0.14675729 -0.15555719
0003f0 e1 9c 20 be 77 65 c3 3e ef f0 6c 3e ef 92 a7 3e
       -0.15684845 0.3816335 0.23138784 0.3272929

shared.0.bias f4 [256]
000000 09 24 c7 ba 56 0e 82 be f5 47 8c be 7c ed 9c be
       -0.0015193234 -0.25401562 -0.2739865 -0.30649936
000010 06 ae 48 bd 9e 9a 14 3e 63 28 84 b9 5f 6c 06 3f
       -0.048994087 0.14512107 -0.00025207092 0.5250911
000020 6f 57 cd 3d a0 07 9a be 2e 80 80 bc 39 9f e0 3d
       0.10026442 -0.30083942 -0.01568612 0.10967869
000030 8a 86 14 3f 20 8e f4 bd 92 1c 41 be 7a 8a 08 bf
       0.5801779 -0.11941171 -0.18858555 -0.533363
000040 58 65 11 3d b2 d8 48 be ed b6 2a 3c 74 10 2e 3e
       0.03549704 -0.19613913 0.0104195895 0.16998464
000050 9c b5 01 bf 68 86 1b 3f d3 bc 4c be 8a 87 8d be
       -0.5066774 0.6075196 -0.19993906 -0.2764247
000060 2c f5 30 be e6 47 b1 3e d0 fd a6 bd 00 b0 1d bd
       -0.17281026 0.34625167 -0.0815388 -0.038497925
000070 e8 a9 1a 3f 2e 19 2f bd 39 4f 7a be 86 29 cd be
       0.60415506 -0.042748623 -0.24444284 -0.40070742
000080 a8 8e a4 3e ee 6b 3c 3d 35 5f b8 3d fe e5 30 be
       0.32140088 0.046001367 0.09002534 -0.17275235
000090 b8 75 ec 3e 52 b0 40 bb 6b 3d ed be c6 1a 93 bc
       0.46183562 -0.002940197 -0.4633592 -0.017957103
0000a0 e0 3e 09 3f d1 f9 35 be 92 f5 e9 3e 66 db 7c be
       0.53611565 -0.17771079 0.45695168 -0.24693069
0000b0 e3 b9 26 3f 79 1b 02 be 88 79 a6 3c 27 38 f1 bd
       0.6512739 -0.12705792 0.020321622 -0.11778288
0000c0 4e ce 99 be 54 e5 c3 be 57 83 28 be 2f e6 a6 3d
       -0.3004021 -0.382609 -0.16456352 0.08149373
0000d0 92 90 5c bd e4 2a e5 3d 71 90 ae 3d 77 e9 af be
       -0.05384881 0.11189821 0.08523644 -0.34357807
0000e0 79 ff eb 3e 8d 7d 35 3e ca 48 72 bd 50 fa b1 3e
       0.46093348 0.17723675 -0.05915145 0.34761286
0000f0 9c f5 31 3f cc 47 9a be eb ce 37 3f 19 22 ca 3e
       0.69515395 -0.30132902 0.71800107 0.3947914
000100 44 2c c2 bd 7d 9c 1a 3e 54 35 97 3e 63 90 c8 3e
       -0.09481099 0.15098758 0.29532874 0.39172658
000110 5d 5c 09 3f 68 25 4c 3e 70 68 d6 3d 11 ff 28 3e
       0.5365656 0.19936144 0.104691386 0.1650355
000120 d7 73 97 3d 3e 67 c1 be e9 89 1a 3e d9 d1 7e bb
       0.073951416 -0.3777408 0.15091671 -0.0038882403
000130 9f e8 31 3d 28 1f 75 be 97 86 7a 3e 8b 4b c0 bd
       0.043434735 -0.23937666 0.24465404 -0.09389409
000140 1f a1 c5 be 0c 27 0c 3f 82 8c f7 3c e6 ec d8 be
       -0.38599488 0.5474708 0.030218367 -0.4236824
000150 fa 13 d6 3e 2b 04 27 3d 37 68 b8 bd 9a 0f 3d bd
       0.41812116 0.04077546 -0.090042524 -0.046157457
000160 34 d1 09 be 8e ac 0a 3e 08 a3 19 3d 6b 58 21 3d
       -0.13458711 0.13542387 0.037508994 0.039390963
000170 19 ce ad 3e 0c 93 64 bd f2 db 0b 3f 63 dd ce bd
       0.33946303 -0.055804297 0.54632485 -0.1010082
000180 d6 0b 80 3c 26 70 7e 3e 54 69 b3 be 8c 03 5c be
       0.015630644 0.24847469 -0.35041296 -0.21485728
000190 43 04 1c 3e 44 79 7c be 59 04 20 3d 73 75 25 bd
       0.15236 -0.24655634 0.039066646 -0.04039521
0001a0 63 29 29 3e f4 86 df bc 56 28 05 3f 8c 90 5b be
       0.16519694 -0.02728603 0.5201467 -0.21441859
0001b0 01 b2 d5 bd 5c ff e9 be 41 39 a6 be 41 2a 69 3c
       -0.10434342 -0.45702636 -0.32465556 0.0142312655
0001c0 40 20 59 be d0 11 51 be 09 ab ad bc 83 e7 5b 3e
       -0.21203709 -0.20416951 -0.02119972 0.21475033
0001d0 ee 3d 18 3f 83 aa b0 be 24 90 b7 be 90 0b fd be
       0.594695 -0.3450509 -0.35852158 -0.49422884
0001e0 05 00 10 bf 6b 6a 2e be 08 d6 66 3e 68 94 bd 3e
       -0.5625003 -0.17032783 0.22542584 0.37027287
0001f0 c9 b4 a8 be d3 01 a6 bd 5b a2 c0 be bc 39 be 3e
       -0.32950428 -0.08105817 -0.37623867 0.37153423
000200 97 08 c3 3d 4a 14 c5 be e2 de 4c 3e 02 63 07 be
       0.09523123 -0.38492042 0.20006898 -0.13221362
000210 02 a3 7c bd 46 9a 78 be 60 83 07 3c c8 de dd be
       -0.061678894 -0.242776 0.008271068 -0.4333403
000220 d9 a5 aa be 91 96 e5 bc b7 6b c0 bd cb bd 96 bd
       -0.33329657 -0.028025897 -0.09395545 -0.07360419
000230 21 50 90 be d7 69 4d bd 4c f8 5e bd 0f f8 f3 3e
       -0.28186134 -0.050149765 -0.054436013 0.4765019
000240 81 d2 26 3f c2 f0 bf be 7c f3 cb 3e b0 17 46 3e
       0.65164953 -0.3748837 0.398342 0.19344974
000250 44 19 a3 3b e8 21 f3 3d 3b 6b 90 3e 88 5e f8 3e
       0.004977377 0.118717015 0.2820681 0.48509622
000260 c6 c0 a3 be b5 ad 82 be 56 9d 9e 3e 52 78 7b 3e
       -0.31983012 -0.25523153 0.30979413 0.24557617
000270 64 2c 33 3e 8d d0 ed 3e 76 7c c7 bc 8d f2 12 3f
       0.17497402 0.46448174 -0.02435134 0.57401353
000280 f7 ca 1f bf 88 8e b0 be 95 c9 26 3e 7f ab e7 3e
       -0.62419075 -0.34483743 0.16287835 0.4524803
000290 6b 88 9b bc b9 91 01 be 33 54 17 3f 54 54 25 be
       -0.018985948 -0.12653245 0.5911285 -0.1614545
0002a0 8a 7f fd bc 57 f6 d4 bd 3d cc 08 3f 7c 06 be bd
       -0.030944604 -0.10398548 0.5343664 -0.092785805
0002b0 b1 18 94 be dc d0 91 be 94 a0 ee 3e 16 61 f2 3e
       -0.28925088 -0.2847966 0.46606886 0.47339696
0002c0 38 b3 91 3e a4 0f af be e1 59 24 3e 57 20 1c be
       0.28457046 -0.3419162 0.16049911 -0.15246712
0002d0 0f be 41 be 0c 11 13 be c1 e1 a0 be 7c 6e 28 3f
       -0.18920158 -0.14361972 -0.31422237 0.65793586
0002e0 57 0c c9 bd 2c fb b5 be c8 fb fc bd a9 00 47 3e
       -0.09816807 -0.3554319 -0.12352711 0.19433846
0002f0 28 45 9c be 24 1d 3e bd 89 14 9d bd d0 e1 36 bd
       -0.30521512 -0.04641451 -0.076699324 -0.044648945
000300 29 19 29 bd be e1 af be d3 50 25 3f ec 6a 05 3e
       -0.04128376 -0.34351915 0.6457645 0.13029069
000310 fc 92 df 3c 62 4c 62 3d bc bd 36 be 26 1f 09 3f
       0.027291767 0.055248626 -0.17845815 0.53563154
000320 45 3c 33 be b2 e9 66 be 1e ee a4 bc ac 7d 98 be
       -0.1750346 -0.22550085 -0.020133074 -0.2978338
000330 9a 67 9c bd 9a 2f 34 be 0d 25 84 be 46 86 93 be
       -0.07636948 -0.17596284 -0.25809518 -0.2881338
000340 26 65 c9 be e3 39 30 be 75 29 de be 96 c1 10 3f
       -0.39334983 -0.17209582 -0.43391004 0.5654539
000350 13 84 2a 3e 0d 92 95 3d 4e 84 2a 3f eb 8a 6b be
       0.16651945 0.073032476 0.6660813 -0.23002212
000360 81 fc 07 bd 50 63 fb bd a8 79 fd be 0e 3a 01 bf
       -0.03319979 -0.12274802 -0.4950688 -0.5047921
000370 09 8a 31 3e 2f 4f 4c be cb b2 81 be 73 db d3 3e
       0.17337812 -0.19952081 -0.2533172 0.41378364
000380 1e e6 29 3c b2 3c 66 be 27 85 f9 bd b3 11 7d be
       0.010369806 -0.22484091 -0.121836 -0.24713783
000390 d3 7a 7f be 00 57 c5 bd a4 c8 2a 3f e8 32 d7 3e
       -0.24949197 -0.096357346 0.66712403 0.42031026
0003a0 93 10 3f 3f eb b2 a9 be b9 da af be ad bf 20 3f
       0.74634665 -0.33144316 -0.3434656 0.62792474
0003b0 d7 44 b8 be 97 3f ff bc 62 1e 99 bd c0 04 27 3f
       -0.3599002 -0.031158252 -0.07476498 0.6524162
0003c0 ca 1e 0a be a6 d1 6d bd fe 1e bd 3d 85 bb dd bd
       -0.13488308 -0.058061264 0.09234427 -0.10826782
0003d0 1f 12 8b be 53 6b 00 be b3 f1 fc bb 3b 4c a9 be
       -0.27162263 -0.12540941 -0.0077192425 -0.33065972
0003e0 64 8f 75 ba e8 03 66 bc 76 ce 43 be 71 af f2 3e
       -0.0009367375 -0.014039017 -0.19121727 0.47399476
0003f0 94 a2 08 bf 5a 34 fe 3e c4 65 fe 3c a2 17 d3 3e
       -0.53373075 0.49649316 0.031054385 0.41228968

shared.2.weight f4 [256, 256]
000000 88 87 10 be 95 2e 1e be 8e 23 71 be 18 57 04 be
       -0.14114201 -0.15447457 -0.2354872 -0.12923849
000010 4a a4 da be f2 f0 87 3e 8a 67 c1 bc 39 57 f2 3d
       -0.42703468 0.26551014 -0.023608942 0.11833043
000020 b4 c5 84 be 1e 38 92 be f0 9f 4a 3d 02 9a 0f 3e
       -0.25932086 -0.2855844 0.049468935 0.14023593
000030 2c c2 ba 3d 0d 79 7d 3d 7f dc 90 be 7c c3 40 be
       0.091190666 0.06188302 -0.28293225 -0.18824571
000040 39 b0 5b be ea 0b a2 3c a9 d0 a9 bc c4 5b 01 be
       -0.21453942 0.019781072 -0.02072938 -0.12632662
000050 83 05 ea be 5e 45 9f 3d 96 c8 dd bd 86 06 c2 be
       -0.4570733 0.077769026 -0.10829274 -0.37895602
000060 7c 29 c2 bd 61 15 ce bd a0 60 44 bd b8 49 b5 be
       -0.09480569 -0.100626715 -0.04794371 -0.35407805
000070 53 16 31 be 65 91 ab bd e1 95 08 be cc 60 88 be
       -0.17293672 -0.08377341 -0.13338424 -0.2663635
000080 ba fe 0a be fe 6c 81 bc cb fc 6d bd 15 ba b4 3d
       -0.13573733 -0.015799042 -0.05810241 0.08824555
000090 8a 5c 5e bd 86 d4 ef 3c 70 e6 22 be 41 40 43 be
       -0.05428747 0.029276144 -0.15908217 -0.1906748
0000a0 58 df c0 3d f9 f2 07 be 02 31 2a bc a7 5f ce bd
       0.094175994 -0.1327628 -0.010387661 -0.10076838
0000b0 a0 2c 28 3e 09 6a 63 be d7 b3 b5 bd 09 f6 b1 bd
       0.16423273 -0.22208418 -0.08872192 -0.086895056
0000c0 a8 65 a1 bd bb bd 81 bd be ec 8f be 92 9b 85 be
       -0.078807175 -0.06335016 -0.28110307 -0.26095253
0000d0 8f 19 b5 3c 82 4c 95 be a5 95 0d bd 7e 9b 91 be
       0.022106914 -0.29159933 -0.03456654 -0.28438944
0000e0 70 8f 9e 3d bb 85 02 be c9 75 48 be 67 a4 61 3d
       0.07742202 -0.12746327 -0.19576181 0.055088427
0000f0 6b 44 cb 3d d2 dd a9 be 57 cd 47 3d b7 9e d4 3c
       0.09925159 -0.33177048 0.04877981 0.025954587
000100 d7 80 08 be 83 82 9d 3d 65 2a 14 3d f3 df 26 be
       -0.13330398 0.07690909 0.036173243 -0.16296367
000110 85 45 a0 3d 1b c9 86 be 5f 56 fe 3d e4 5e 43 be
       0.0782576 -0.26325306 0.12418818 -0.19079167
000120 6d fe 6f 3c 70 0c 4c be 5c e9 2c be 1b e5 3e bc
       0.014648062 -0.1992662 -0.16885895 -0.011651303
000130 77 c1 2d 3d d9 0d a7 3b 9d a2 73 be 3d 4a 53 bd
       0.04242083 0.0050980863 -0.23792501 -0.05158447
000140 0d 1c 92 be 27 45 9c 3d 58 2c 45 3d 21 7a 8d be
       -0.28537026 0.07630377 0.048137993 -0.2763224
000150 18 da 50 3d a4 65 00 3d c5 6f 19 3d ea 8b 48 be
       0.05098924 0.031346932 0.037460107 -0.19584623
000160 52 05 73 3e 0d c5 9e be c2 12 d7 bb 6a 02 c6 3d
       0.23732498 -0.31009713 -0.0065635154 0.09668429
000170 50 63 00 be 7a 8f e4 3c 71 8e f5 3d 38 32 24 bc
       -0.12537885 0.027900446 0.11990059 -0.010021739
000180 f8 27 6e 3d 6f 5b 8e 3d 27 5c c2 3c 4d 4f 5f be
       0.058143586 0.06951033 0.023725582 -0.21807595
000190 85 66 04 3d ea 6e 16 be 62 73 29 be 14 39 56 3d
       0.032324333 -0.14690748 -0.16547921 0.052300528
0001a0 05 22 85 3d 11 8b da be 10 ca 43 be 35 df b5 bc
       0.06500629 -0.42684224 -0.1912005 -0.02220116
0001b0 5f 98 ee 3d 89 b9 fa bd d3 ea 2d bd f7 a3 86 be
       0.11650156 -0.12242419 -0.042460274 -0.2629697
0001c0 7a 1e 3b be 57 fc e9 bd 15 3e 3b 3d 53 3a f5 bc
       -0.18273345 -0.11425083 0.045713503 -0.029935038
0001d0 a4 ee 38 3d 11 a5 65 be d5 5e 8e be 0c 21 86 be
       0.04514946 -0.22426249 -0.27806726 -0.26197088
0001e0 77 18 51 be 42 86 88 bd ac 2c b5 bc a5 a4 cf 3d
       -0.20419489 -0.06666233 -0.022116028 0.10138825
0001f0 62 30 7b 3c 9c de 04 bf 67 c6 9d be d8 1a 17 bb
       0.01533136 -0.51902175 -0.3081543 -0.0023056772
000200 ce 8b 1d be fb c5 07 3d 68 00 a5 bd b0 64 a9 3c
       -0.15385363 0.033147793 -0.08056718 0.020677894
000210 d0 15 3d be 31 0d 42 be 66 fc 68 bd 08 8e 84 be
       -0.18465352 -0.18950345 -0.05688133 -0.2588961
000220 ca 6e 02 bd e5 e1 74 3d bd ad 30 3d 2d 8e 89 be
       -0.031843938 0.059785742 0.04313444 -0.26866284
000230 08 24 e1 bc ee e8 cb bd b9 79 0f be 1c 73 3e 3d
       -0.027483001 -0.09956537 -0.14011277 0.046496496
000240 54 4f fc bd c3 1a c2 be 34 19 ea 3d 9f eb 73 be
       -0.12319818 -0.37911043 0.11430588 -0.23820351
000250 99 b4 71 be 44 5c 9a bc 24 50 80 bd 48 f1 5d bd
       -0.23604049 -0.018842824 -0.062652856 -0.05418518
000260 de 93 46 bd f6 bf e7 be 67 58 97 bc 96 d2 bc 3c
       -0.04848086 -0.45263642 -0.01847477 0.023049634
000270 2d 96 8b 3d 9e 8d d6 bd 7e 89 b3 3d 03 c5 52 3c
       0.06815753 -0.1047623 0.08766459 0.012864354
000280 d4 6d b6 be 83 57 29 be b0 b2 b6 bc 28 bd 67 3d
       -0.35630667 -0.1653729 -0.022302002 0.056576878
000290 eb a3 00 3b bb 8d 9f be 3d 1a 98 be c1 27 0b 3e
       0.0019628953 -0.3116282 -0.29707518 0.13589384
0002a0 2d a7 e0 3d c5 70 b8 3d 5b 2b 54 3d 75 67 a2 bd
       0.10969386 0.09005884 0.05179916 -0.07929889
0002b0 32 54 c4 be cf 2b ab be 0a 86 fe bd 97 86 27 3e
       -0.38345486 -0.3343186 -0.1242791 0.16359936
0002c0 4d f9 a0 3c 84 c9 37 3d 3a 9a 04 3e 9f 15 01 be
       0.019650126 0.044869915 0.12949458 -0.12605904
0002d0 60 ab 67 bd f9 ac d6 3c ea 81 16 3f ca 1d 01 3e
       -0.05655992 0.026205527 0.58791983 0.1260902
0002e0 23 28 89 bb 40 2e 30 bb 9b e4 7b 3c 52 93 2b be
       -0.004185693 -0.0026883036 0.015374328 -0.16755417
0002f0 97 ab 86 3c be 31 be be ba 01 6d bd ed 8e 3b 3e
       0.016439242 -0.37147325 -0.057862975 0.1831624
000300 ea 70 05 bd de df 43 be 10 28 fa bc 76 d2 ea bd
       -0.032578386 -0.19128367 -0.030536681 -0.114659235
000310 09 22 c8 3c c4 4a 60 be a1 e4 ea bb 5d 10 1b be
       0.024430292 -0.21903521 -0.007168368 -0.15142961
000320 bb 2f 89 3d 70 67 f8 bd 97 63 a0 be 1d 3c 1a be
       0.06698557 -0.12129104 -0.3132598 -0.15061994
000330 79 d0 34 be 08 cd 2c be c4 73 d1 3c 7b bc 6d be
       -0.17657651 -0.16875088 0.025567897 -0.23216431
000340 1c 37 76 be ae 3f ce 3c 31 e3 ef bd 2c 61 e9 3c
       -0.2404446 0.02517685 -0.11713255 0.028488718
000350 4e 98 2d 3d 0c 42 85 bd 6e 7e e1 3c 22 49 18 be
       0.042381577 -0.06506738 0.027526107 -0.14871648
000360 f8 03 40 3d 09 07 9a 3c fa 17 83 be 08 e7 59 be
       0.046878785 0.018802183 -0.2560423 -0.21279538
000370 b0 72 23 3d 54 34 a3 bd 6a b9 9e 3c 7e 14 ed 3b
       0.039904296 -0.07968965 0.019375522 0.007235109
000380 cc 25 a5 bd 2e 0b 87 bd ba e2 0f 3d f0 35 30 be
       -0.0806385 -0.06593929 0.035128333 -0.17208076
000390 f1 12 fc bd 3c 41 f7 bc 5c 94 e7 3b 24 b3 17 be
       -0.123083 -0.030182473 0.0070672464 -0.1481443
0003a0 b0 47 a7 3c 4c 49 fd be 38 8b aa bd c9 5f 1f 3d
       0.020419925 -0.49469984 -0.08327335 0.038909707
0003b0 1c a1 a2 be a4 66 0d bf 0c 73 52 3d fb 5c ad 3c
       -0.31763542 -0.5523474 0.05137925 0.0211625
0003c0 36 81 d7 be 4e 68 8f bd 5f 1b 45 3d ba df 9b bd
       -0.42090768 -0.070023164 0.048121806 -0.07611032
0003d0 f3 86 b7 3d ac c5 75 be 17 25 91 bd 96 bc 03 3c
       0.089612864 -0.24001187 -0.070871525 0.008040568
0003e0 2f 6c 25 3d ba ad be 3c cd 5b 72 be 24 90 e6 bd
       0.040386375 0.023276199 -0.23667832 -0.112579614
0003f0 fa aa 9a be 15 03 69 bd 18 f6 56 3d c6 39 09 bd
       -0.3020857 -0.056887705 0.052480787 -0.033502363

shared.2.bias f4 [256]
000000 fa 4e ae 3d 7c 5d a5 3e 39 f4 99 bd ed ce 74 3e
       0.08511157 0.32297885 -0.07517285 0.23907061
000010 70 3f b9 3c 6f f6 a0 bd d7 fd b0 be 4e cc 0a be
       0.022613257 -0.078595035 -0.34568664 -0.13554499
000020 2f 22 e5 3c e0 a6 23 3d da da 07 3e 15 45 8f 3c
       0.027970402 0.039954066 0.13267079 0.017488996
000030 d4 c0 af 3a d4 f9 f3 bd 91 4e 1a 3e 1f ea 0c 3d
       0.0013408908 -0.11912885 0.15069033 0.034402963
000040 ba 35 3a bd 75 43 2d 3d af ee cb bc 96 8b e7 bc
       -0.045461394 0.04230066 -0.024894087 -0.028264802
000050 7e cf d8 3c be e7 f9 3c 2b fb b2 bc c3 94 23 3d
       0.026466127 0.030506011 -0.021848282 0.039936792
000060 86 84 c7 3c 2a f2 8a 3e 7f 7a 32 bb 3c 49 42 bd
       0.024355184 0.27137882 -0.0027233658 -0.047433123
000070 bb 9a 67 3e 64 f7 d9 bc 4d 16 94 3e d0 0c 10 3c
       0.22617619 -0.026607223 0.28923264 0.008792117
000080 cf f8 50 be 5e 13 b5 3d a6 ae 50 3e f0 b6 d2 bd
       -0.20407413 0.088415846 0.20379123 -0.10288799
000090 fd 18 7d bd b1 3c 06 be 98 34 f9 3c bc 83 31 3e
       -0.06179141 -0.1310909 0.030420586 0.17335409
0000a0 81 c4 cb bc 37 34 9f 3e 41 9e 5a 3c 94 bc 4e 3e
       -0.024873974 0.31094524 0.013343395 0.20189124
0000b0 9f 26 b5 bd 12 c0 a9 bd c4 8d 0b bc b5 7c 03 3e
       -0.08845257 -0.08288588 -0.008517686 0.1284054
0000c0 f9 04 c6 3d 4b 0a 94 bd 43 ac 1a bd a0 43 cf bd
       0.09668917 -0.07228526 -0.037761938 -0.1012032
0000d0 1a 93 07 bb 58 5a 99 3e 00 25 86 3d cd 8e bd bb
       -0.0020687045 0.2995174 0.06550026 -0.0057848454
0000e0 2c 44 33 3e 4d 6c 6f 3e 90 d5 da 3d 53 06 d2 ba
       0.17506474 0.23381157 0.10685265 -0.0016023613
0000f0 ce 3e 17 bd ee 64 b4 3d b5 63 7a 3d 4b f5 f9 3d
       -0.03692513 0.08808313 0.061130244 0.12204989
000100 f9 7b e0 3c 93 0b 40 be 43 b0 85 bc b3 3f 07 bd
       0.027402865 -0.18754415 -0.0163194 -0.033019733
000110 0d 2d 39 3e eb d2 cd 3c 66 66 b5 bd dd 59 a6 3e
       0.18083592 0.025124988 -0.088574216 0.32490435
000120 d0 41 df 3d c8 e3 a6 bd 33 1a 2c 3e 35 8f b9 bd
       0.109012246 -0.081489146 0.16806869 -0.09060518
000130 17 05 e3 3d f8 ca b6 bc 1f 13 0c bd 05 ec 6c 3e
       0.11084955 -0.02231358 -0.034197923 0.2313691
000140 bb f1 a2 3d c6 35 09 be 83 fd 09 bd 02 3c a2 bc
       0.07956263 -0.13399419 -0.033689033 -0.019804005
000150 84 68 44 be 99 b2 ff 3c f0 e2 e5 ba 79 19 28 bc
       -0.19180495 0.031213092 -0.0017538946 -0.010259979
000160 c4 e1 00 3d 0d e7 0a 3d 89 58 97 3e 1d 57 ae 3e
       0.031465307 0.033911753 0.29559734 0.34050837
000170 0d 59 57 bc 72 84 1c 3e 8a 1e 11 3e 73 50 0f be
       -0.01314379 0.15284899 0.14171806 -0.13995533
000180 bf 82 a1 bd b6 63 9c 3b 26 ef 85 3c 3a d8 0e be
       -0.07886266 0.0047726287 0.016349386 -0.13949671
000190 bc 1e ef bd 9f 18 9d 3e 06 a5 a4 be 51 fb fc bd
       -0.11675784 0.30682847 -0.32157153 -0.12352622
0001a0 26 77 7c bd 9e b6 bc bc 6a 51 70 be 68 36 a5 3e
       -0.061637066 -0.023036297 -0.23468557 0.3226807
0001b0 24 83 fa 3c f1 50 1d bc 55 39 e7 bd b4 d4 b5 bd
       0.03058011 -0.0096018175 -0.11290232 -0.088784605
0001c0 a7 04 03 be 71 d1 2f 3e 8d bd c3 3c 07 d6 83 3e
       -0.12794743 0.1716974 0.023894096 0.25749227
0001d0 76 ab 91 bd 03 dc b7 3e f6 21 86 3d ad a4 82 3c
       -0.07112782 0.35910043 0.06549446 0.015947664
0001e0 57 9c c5 3c 16 d7 b4 3e f8 51 76 bd 2b d9 d7 bd
       0.0241224 0.35320348 -0.060136765 -0.105394684
0001f0 0e b3 f4 3c 80 a0 4d be fc 77 5a 3d 15 34 59 3d
       0.029870536 -0.20080757 0.053337082 0.053028185
000200 45 6e 86 3e 66 49 53 3e 76 ac 19 be 26 dc 1f bd
       0.26256004 0.20633468 -0.15007195 -0.03902831
000210 0b 33 54 bd c3 e7 01 be b4 2a c3 bc c3 9b 48 3c
       -0.05180649 -0.12686066 -0.023824073 0.012244168
000220 17 2d 19 bd 2d 29 a6 3e a4 c7 6d 3d d9 5e e9 3d
       -0.037396517 0.3245329 0.05805172 0.11395044
000230 2f 72 3e be aa ae b5 bd f5 7f d0 bd 7d e8 43 3d
       -0.18598245 -0.08871205 -0.10180656 0.04782914
000240 75 67 57 bd c2 ca 2f 3e 2c ae f8 bc 1b dd 2f 3e
       -0.0525889 0.1716719 -0.03035649 0.17174189
000250 27 60 a4 bd d3 55 13 be 1c 04 8a 3d af 25 43 3d
       -0.08026152 -0.14388208 0.06739065 0.04764336
000260 0f 03 d4 3b ac 45 b7 3e 3b d7 06 3e 41 70 c5 bd
       0.006470091 0.35795343 0.13168041 -0.09640551
000270 b4 4e b5 be 3e e8 0f 3c 46 97 73 bc a5 26 83 bd
       -0.35411608 0.008783398 -0.014867609 -0.06403855
000280 d7 89 b9 bc 0b 23 69 3e 43 9e 19 bc a8 0a ee 3d
       -0.022648735 0.22767274 -0.009376111 0.11623126
000290 2d a2 9b 3d 69 59 a9 bc ef 91 2f be da d0 60 3d
       0.07599292 -0.020672517 -0.17145513 0.054886676
0002a0 bd 1b 0f be d9 fd 78 3d dc 6b be bc 44 7d aa bd
       -0.13975425 0.060788963 -0.02324479 -0.08324674
0002b0 31 cb b0 bd b8 c7 3c 3e 84 f1 f7 3c 1d 8e c6 bd
       -0.08632506 0.18435562 0.03026653 -0.09695075
0002c0 9b 18 a8 3d 46 01 8b bd 68 c5 8c 3e 20 63 6f bd
       0.08207818 -0.06787352 0.2749436 -0.058444142
0002d0 2f ec 35 3d 75 ad fa 3d 7d 1e 42 3e e3 c3 17 3e
       0.044414695 0.122401156 0.18956943 0.14820819
0002e0 d8 60 07 3e b5 7c 84 bd 34 9c 81 3e d6 5b 94 bc
       0.13220537 -0.064690985 0.25314486 -0.018110197
0002f0 dd cb b0 bd ab 8b 16 bd 56 d1 93 3e 50 a7 4a bd
       -0.08632634 -0.03675429 0.28870648 -0.049475968
000300 0f 65 d4 bc fa 22 9d 3e 6e 42 a6 bd 2c b4 16 bd
       -0.025927095 0.30690747 -0.08118139 -0.03679292
000310 ff 7a 89 3d b2 5e a1 bc c5 f0 3a bd a6 e2 19 3d
       0.06712913 -0.019698475 -0.045639772 0.037569664
000320 9c 42 27 bd b7 19 9e 3e 9f c5 bb 3c c4 67 ac 39
       -0.040835008 0.30878994 0.022921382 0.00032883708
000330 a7 eb 86 3d 29 1b 3d 3c 49 57 87 3d c1 da 30 3d
       0.06587916 0.01154212 0.06608445 0.04317737
000340 19 d1 07 bd bf 9d 73 3d d3 25 de 3d 0e 75 bf bd
       -0.033158395 0.05947661 0.10847058 -0.09348498
000350 07 05 55 3e 9d bf bf bd e7 ab 8c bb 2d be 67 bd
       0.20802699 -0.09362719 -0.0042929533 -0.05657785
000360 a7 e2 36 bd 61 e1 c2 bb 64 17 1f 3e a2 b8 b0 3e
       -0.044649746 -0.0059472774 0.15536267 0.34515864
000370 8a a4 bb 3d 56 70 46 3e 9e fb a8 3e b8 84 70 3d
       0.09162243 0.1937879 0.3300447 0.05872032
000380 7e a7 4e bd 8b ee 91 3c 2d 72 f1 3d 67 21 94 3e
       -0.0504527 0.017813941 0.117893554 0.28931734
000390 65 a8 b8 bc 5f eb 19 be c4 27 04 bd 00 78 93 3c
       -0.022541234 -0.15031193 -0.032264486 0.018001556
0003a0 57 2c 7b bd 00 f3 0c 3d a1 96 ce 3a 91 d3 4d be
       -0.061321583 0.03441143 0.0015761444 -0.20100237
0003b0 51 54 9d 3c cc 36 97 3c 21 c5 4c 3e 96 6c 7d be
       0.019205244 0.018458746 0.19997074 -0.24748453
0003c0 fe e1 70 3a b7 9f 3e bd 6c 60 52 be ba 6c 3a be
       0.0009188949 -0.046539035 -0.20544595 -0.18205538
0003d0 c1 af e6 3b 33 c8 55 be 19 0f 0a bd 2f fc 17 be
       0.0070399945 -0.20877151 -0.033705804 -0.14842294
0003e0 ab d9 84 bd da f7 bb 3c 18 c0 73 3d 81 62 eb bc
       -0.06486829 0.022945333 0.059509367 -0.028733494
0003f0 cc 4f 25 bd dd 66 da 3c e0 14 2c bd 98 1a 02 bd
       -0.040359303 0.026660377 -0.042012095 -0.031763643

actor.weight f4 [3, 256]
000000 fb 38 f3 3d 21 dc 65 bd f8 50 9e bd 7b 18 57 3c
       0.118761025 -0.056118134 -0.07730287 0.013128395
000010 bb d9 d1 be 58 ed 85 bd b1 7f 22 3a 86 92 9b bc
       -0.40986428 -0.0653941 0.0006198837 -0.018990766
000020 69 6d 0c 3d d0 f2 02 3d cf b5 a4 3e 10 2f 89 bc
       0.03428403 0.031969845 0.3216996 -0.016746074
000030 08 a3 4f 3e c3 de 61 bc 3a 62 a6 3e c1 06 74 bd
       0.20277035 -0.013786021 0.32496816 -0.059576754
000040 3b 24 1e 3e 1a e8 e9 3b 4a b0 1f 3c 59 cc 12 3d
       0.15443508 0.0071382644 0.00974662 0.035839412
000050 0a ea be 3d fc ec 8a 3d a5 3d 28 be 98 f0 af 3c
       0.09321983 0.067834824 -0.16429766 0.021477029
000060 29 74 a0 bb 87 69 d8 bb a0 95 07 3d 3f 95 6b 3d
       -0.00489666 -0.0066043767 0.033101678 0.05751538
000070 d2 a8 43 be b8 c6 3b 3c 7f 8b 7c be 8d e8 4f 3c
       -0.19107369 0.011460952 -0.24662589 0.012689722
000080 1a b9 8f 3d a3 74 53 bb de 32 fb 3e 8e 6d 7b bc
       0.07017727 -0.0032265566 0.49062246 -0.015345944
000090 32 ca f0 3d bc 7c 9c bd f8 5a 57 be 78 54 ba bd
       0.11757316 -0.07640979 -0.21030796 -0.090981424
0000a0 7a 57 33 3d 6b fa 57 3d 6e f3 34 bd 61 f1 d3 3d
       0.043784596 0.05272905 -0.044177465 0.10348774
0000b0 e4 e4 d4 3d 04 2d f4 3c 02 87 c1 3d 5e 0b 5b 3e
       0.1039522 0.029806621 0.09449579 0.21391055
0000c0 cc bb d4 3d f6 62 02 3e 45 34 22 be 34 da 02 be
       0.10387382 0.12733063 -0.15840252 -0.1277855
0000d0 6a ff 01 3d 77 95 7b 3e e0 51 9c 3e ff 7e a0 3d
       0.031737722 0.24568735 0.30531216 0.078367226
0000e0 22 f9 85 bd 1c 98 bf 3e 21 99 90 3e 28 4c 73 bc
       -0.06541659 0.37420738 0.28241828 -0.0148497
0000f0 38 a2 80 bc bb 2d 56 3e 30 c2 87 be 0f 5b 4f bd
       -0.015702352 0.20915882 -0.2651534 -0.05062395
000100 80 b8 09 bf 39 f8 44 3c 11 1a 37 bb 6d 13 7a bc
       -0.5379715 0.0120220715 -0.002793912 -0.0152634205
000110 02 52 a2 3e 85 da c9 bb 6d 93 15 3d 71 fc 91 3e
       0.31703192 -0.0061600828 0.03651755 0.2851291
000120 05 0b 0e 3d 94 61 84 be 3c 89 cd be 90 a0 8d 3d
       0.034678478 -0.25855696 -0.40143764 0.069153905
000130 40 1e d5 bc dd c2 77 3b 90 ab ab 3c 17 24 43 3e
       -0.0260154 0.0037805357 0.02095583 0.19056736
000140 8d c4 53 3d ee 85 a9 3b 9a 70 04 bd cf 19 37 3d
       0.051701117 0.0051734364 -0.032333948 0.044702347
000150 b7 0c b9 3b 32 30 57 3e 9f 3f 5e 3e 10 45 4c 3d
       0.0056472677 0.21014479 0.21703957 0.04987055
000160 ab 85 22 bd ac aa 62 3e 7c ba 4e bd c0 09 42 3e
       -0.039678257 0.22135419 -0.050470814 0.18949032
000170 1a 42 b7 3c 12 19 d3 3d 82 5a 2e 3e 4b 7a a0 3d
       0.022370387 0.10307516 0.17026713 0.078358255
000180 95 d9 e2 bc e4 a7 8f bc 42 bc 60 3d ea 0f 23 3d
       -0.027691642 -0.017536111 0.054867037 0.0398101
000190 1f 59 02 3e 93 c3 80 3d 64 d1 84 bc b9 13 5e bc
       0.1272931 0.06287303 -0.016213126 -0.013554507
0001a0 b5 a0 1a be 23 d8 18 3d 7d 14 55 bd 96 1b 9b be
       -0.15100367 0.0373155 -0.052021492 -0.30294484
0001b0 b9 51 8f be c3 9b ca bb cf 32 b7 3d b5 4c be 3d
       -0.27992037 -0.006183119 0.08945238 0.092919745
0001c0 79 28 f1 3d f1 98 9a 3d 73 ba 55 3e 22 a7 1e bd
       0.11775298 0.075487025 0.20871906 -0.03873361
0001d0 ac d0 a3 3e 19 75 24 3d 50 5c f5 3d fb bd 53 be
       0.31995142 0.040150736 0.11980498 -0.2067794
0001e0 22 9e 28 3d 94 7c cb 3d ca 4f 55 3c bd 26 e8 3c
       0.041166432 0.09935871 0.0130195115 0.028338784
0001f0 9b 21 19 bd 8d f1 4b bd ae fe 05 be b0 77 d1 3b
       -0.037385564 -0.049790908 -0.13085434 0.0063924417
000200 75 6b 87 bc 36 58 1c 3e 11 54 c9 bc b7 92 38 3d
       -0.016530732 0.15268025 -0.024576219 0.045061793
000210 fa 70 5e bd 55 1a ea 3c 02 9d 09 3d 49 aa 34 be
       -0.05430696 0.02857701 0.033597 -0.17643084
000220 ee f9 2c 3e 6a f8 12 bf 32 43 a5 be a7 b9 8e bc
       0.16892216 -0.574103 -0.32277828 -0.01742251
000230 b0 c7 bd 3d f9 4d ca bc a1 c5 32 bd be 4d f2 3e
       0.09266603 -0.024695383 -0.043645505 0.47324938
000240 1b c6 12 3c 83 e0 d1 3e c3 ec bb 3c 35 4c 6c 3e
       0.008958365 0.409916 0.022940045 0.23075946
000250 bf df b7 3c 16 4e ce bc 2f a8 ad 3c f3 79 90 3c
       0.022445558 -0.025183719 0.02119836 0.017636275
000260 89 eb 9b 3d aa fd f0 bd 90 b9 db bd f0 c4 21 3c
       0.07613284 -0.117671326 -0.107287526 0.009873614
000270 cd e9 c6 bb 22 63 be bc 3c ae 63 3c c7 44 9f 3c
       -0.0060703517 -0.02324063 0.013896521 0.019441975
000280 84 97 f3 3c 26 ba c3 3d d7 fe 7a bd 9d 1b c7 3d
       0.029735334 0.09556989 -0.06127819 0.09722064
000290 27 82 f5 3d 63 89 1b 3d e4 1d 74 bd 53 1a 1d 3d
       0.11987715 0.03797282 -0.05959882 0.038355183
0002a0 7b cb f4 3d 24 6f 88 3e 40 1f a0 3d 43 3d 16 ba
       0.11952873 0.26647294 0.078184605 -0.00057311746
0002b0 72 7d d6 bc a6 a6 60 3e 0b 3c 85 bc 8f 3c 70 3b
       -0.026182864 0.21938571 -0.016263982 0.003665719
0002c0 cf 2f 97 bd 3c ad 54 3e 5f 57 6a 3e a0 b3 37 bd
       -0.07382166 0.20769209 0.22884892 -0.044849038
0002d0 67 37 fc 3b 73 47 cc bd ea ac 70 3d 21 5d 29 3e
       0.007697034 -0.09974565 0.058758654 0.16539432
0002e0 bb f8 a2 bc a0 18 54 bd c3 ba a3 bd b5 c8 57 3d
       -0.019893995 -0.051781297 -0.07994606 0.052681644
0002f0 76 70 22 3d a7 f8 a1 bd a1 8d 67 3e d0 6f f1 bc
       0.039658032 -0.07908755 0.22612621 -0.029472262
000300 ce 04 a7 3c b3 3e f9 3c 06 b9 5f 3b 33 9a 95 bd
       0.020388033 0.030425405 0.0034137382 -0.07304802
000310 7d ce da bd 8f f5 a8 3c 13 6d b6 3c 98 02 d2 3c
       -0.10683916 0.020624904 0.022268808 0.025636002
000320 07 75 cf 3b 7b 98 27 3d 11 56 2b 3e 04 00 f5 bd
       0.0063310894 0.0409169 0.1673205 -0.119628936
000330 2c 47 47 bd b6 7a 87 3d 14 24 c8 3e f7 7b 12 be
       -0.04865186 0.06615202 0.39090025 -0.14305101
000340 e5 5b 42 3d 55 18 70 3c 3e 96 f4 3d 7c e0 e1 3d
       0.04745092 0.014654239 0.11942719 0.11029145
000350 49 e5 d9 3b da 3b fc 3d 0c b8 1f 3d 35 dd f5 bd
       0.0066496474 0.12316103 0.03899388 -0.120050825
000360 6b 0f 01 3d 12 76 ad bd c7 09 d3 3e 1c 25 f2 be
       0.031508844 -0.08469786 0.41218397 -0.47293937
000370 96 96 06 3f 69 0c b3 be af 6e 75 3d 13 2a 4e be
       0.52573526 -0.34970406 0.05992001 -0.20133238
000380 4d a4 75 3e 11 2e e2 bd 8f 9d e6 3d 06 3f 12 3d
       0.23988457 -0.11043943 0.11260521 0.035704635
000390 34 7c da bd 8f 78 7c 3d 8e 5b 41 3e e0 c9 a2 be
       -0.10668221 0.06163841 0.18882582 -0.31794643
0003a0 00 be 62 3d 39 57 4a bd 3c 5e 44 bc 74 42 62 3d
       0.05535698 -0.04939959 -0.011985358 0.055239156
0003b0 92 0f a3 bb aa e9 c7 3c 22 a8 b9 be dd 4a 43 3e
       -0.0049762214 0.024403412 -0.36261088 0.19071527
0003c0 ea 5f 48 3d 25 c7 5b bb 67 06 81 3d 8a bd 9c 3c
       0.048919596 -0.0033535447 0.06300049 0.019133348
0003d0 60 ad dc bc ff 49 81 3e 09 64 b4 3c d3 4c 14 3d
       -0.02693814 0.25251767 0.022020357 0.036206078
0003e0 8e 1a 97 bd ac b7 10 3f cf 09 1a be ee 12 16 bf
       -0.07378112 0.5653026 -0.15042804 -0.58622634
0003f0 73 80 bd bd 7f 25 49 3e be 71 74 bc 5b 9b 17 3c
       -0.09253015 0.1964321 -0.014919696 0.009253348

actor.bias f4 [3]
000000 4f 71 79 3d c1 ec 3c bc 6d 3e 90 3c
       0.060899075 -0.011531056 0.017607892

critic.weight f4 [1, 256]
000000 7b 40 c4 be 01 f1 9c 3d b9 61 ac be cd 4d 20 3d
       -0.38330445 0.07663155 -0.33668306 0.039136697
000010 bf 37 ce 3b 5a 6e a4 bb a4 57 07 3d 41 2c 2f bf
       0.0062932665 -0.0050180377 0.033042565 -0.684269
000020 11 27 2a 3d a9 84 01 bf 3c 64 e7 be 5b 01 d4 3c
       0.041541163 -0.5059305 -0.4519366 0.025879553
000030 ce 50 b2 3d ab 66 2d bf eb 0a 13 3e 76 dd fe bb
       0.087068185 -0.67734784 0.14359634 -0.007777865
000040 79 2b 50 be 0e 08 f8 be 1c 97 ae 3a ac 30 38 bd
       -0.20329084 -0.48443645 0.0013320181 -0.044968292
000050 44 9f d4 be fd 19 d6 bd 89 78 0a 3f 2e 82 d5 3c
       -0.4152776 -0.104541756 0.5409017 0.026063051
000060 1c b3 df 3b 09 3b 8c 3e 15 91 a7 ba 28 d5 b3 3e
       0.0068267714 0.2738879 -0.0012784327 0.35123563
000070 0e f8 56 3e ee c7 12 3d 26 a9 12 3e d9 87 7b 3c
       0.20993063 0.0358352 0.14322338 0.015352213
000080 c3 1b a0 3b f2 fd 45 3c 42 b1 cd be 3a 2e fa be
       0.004886122 0.012084471 -0.401743 -0.48863393
000090 a1 8e 2b 3e 7a 68 45 bf eb be a5 be 6c c9 fb 3c
       0.16753627 -0.77112544 -0.3237222 0.030735694
0000a0 1f f4 0f 3d 40 6c 2d 3e fc b1 5b 3d 2b bb 02 3c
       0.03514492 0.16935825 0.053636536 0.007979195
0000b0 55 62 34 3e 64 03 ee bc f3 f0 25 be 2b d9 e8 3e
       0.17615636 -0.029054351 -0.16205196 0.45478186
0000c0 f4 21 4e be 47 3c a0 3c c5 92 c6 be c5 42 22 3c
       -0.2013014 0.019559992 -0.3878385 0.009903614
0000d0 0a 66 10 3d fb ae 41 3e 6a 1a ea bd 0d 32 45 3e
       0.035253562 0.18914406 -0.11430819 0.19257374
0000e0 3d f2 37 be c9 cd 37 3e 14 24 5c be 59 96 14 3c
       -0.179635 0.17949595 -0.21498138 0.009069049
0000f0 2e d3 28 bd a4 b7 0a be c2 e4 89 39 25 d5 35 3d
       -0.04121702 -0.13546616 0.00026301114 0.044392724
000100 10 a5 ed 3e e8 f7 48 bf d2 cf 0a bf 25 15 e4 be
       0.46414995 -0.78503275 -0.5422336 -0.44547382
000110 57 c3 ed be 7a 3b 6f 3d 12 36 20 bf 41 79 32 3e
       -0.46438095 0.05840633 -0.62582505 0.17429067
000120 96 79 38 be b4 6c 46 3e 33 7c 5c be e7 72 a3 3d
       -0.18015131 0.19377404 -0.21531753 0.079809
000130 a7 45 b6 be 77 a5 1b 3d 2c 5e 2e 3d fb ce 9c 3e
       -0.35600016 0.037999596 0.042570278 0.30626664
000140 15 8a 5f be c4 3f 87 3d b8 9a 53 3d 2a 72 18 3d
       -0.21830018 0.06603959 0.051661223 0.03721825
000150 8d f0 83 3d e0 2a 57 be 19 69 cd 3c 67 49 29 3d
       0.06442366 -0.2101245 0.025074529 0.041329768
000160 ae 48 1b 3d 46 fb d0 bc aa c9 09 3e d4 2a 85 3d
       0.03791111 -0.025510442 0.13455835 0.065023094
000170 72 25 cb 3c b8 bc af be e2 c3 8b be 34 df 9e 3d
       0.024798129 -0.34323668 -0.27297884 0.07757416
000180 26 20 91 3d 32 9f b9 3c 20 a5 a0 3c 79 ed 2a bf
       0.0708621 0.022658918 0.019609988 -0.66768605
000190 20 7c 73 b6 f6 f5 03 3e b2 a2 78 bb ec 29 53 3d
       -3.6282072e-06 0.12886795 -0.003793877 0.05155365
0001a0 c7 ed 31 3d 96 84 3f 3c f0 95 03 bc ac cb 68 3e
       0.043439653 0.011689326 -0.008031353 0.22733945
0001b0 3c f6 b9 3e 06 84 1a 3d 10 42 cb be cc bd 0f 3e
       0.36320674 0.037723564 -0.3969884 0.14037246
0001c0 95 1e 0e 3e d6 08 22 3d 44 b9 95 bd 4b f9 d5 3c
       0.13878854 0.039559208 -0.07310727 0.026119849
0001d0 cc 99 e6 3e 7f 64 5a 3e 5f 35 6b be 95 58 bf 3d
       0.45039213 0.21327399 -0.22969578 0.093430676
0001e0 1e 3d a5 bd bd c9 10 3e a6 23 c6 3d 6b 4c 98 3a
       -0.08068298 0.14139457 0.09674768 0.0011619454
0001f0 4e 1e b6 3d 24 1c 63 bf f2 36 8c 3d 77 07 70 be
       0.08892499 -0.88714814 0.068464175 -0.23440348
000200 0a e1 5a 3e 6b 07 c8 be cf c2 25 bf 58 d0 a6 39
       0.21374908 -0.3906816 -0.6475038 0.00031817215
000210 b5 bc 10 3d 4b 26 60 3d d9 d5 dd 3c c0 34 21 bb
       0.035336215 0.05472402 0.02707951 -0.0024598092
000220 86 bd bf be 8b 8e 07 3f e6 76 25 3c 32 81 63 be
       -0.37449282 0.5295188 0.010099148 -0.22217253
000230 dd f6 79 3d 18 2f db bb ea 46 1a bf 3b ff ef 3d
       0.061026443 -0.0066889636 -0.60264456 0.11718603
000240 c7 0c 27 3d 04 47 4c be 9e 9e 88 ba c5 13 93 be
       0.04078367 -0.19948965 -0.0010423248 -0.2872602
000250 74 12 d7 3b 22 96 41 bf 38 93 12 be 1f 28 3a be
       0.006563479 -0.7561971 -0.14313972 -0.18179367
000260 47 30 10 be 93 bf 3c 3e d4 a1 23 3b c2 6a db be
       -0.14080916 0.18432455 0.0024968283 -0.42854887
000270 aa 6c 24 3e 3b f8 c0 3c df eb 0d 3d 5b ec d4 bb
       0.16057077 0.023555866 0.034648772 -0.0064979023
000280 54 f1 3c bd 73 cf 9a 3d c6 bd 84 3d 9d 97 b4 3d
       -0.046128586 0.07559099 0.06481509 0.088179804
000290 44 eb 8b be 5a e1 4e bf 48 20 b7 3d 01 1e e6 bc
       -0.2732793 -0.8081261 0.08941704 -0.028090479
0002a0 f5 6c 43 3d 11 ce ad 3d 20 ac 04 bf fa d5 5b bc
       0.04771133 0.0848657 -0.5182514 -0.013417715
0002b0 3f 1d 14 bf a1 ce f0 be f4 45 7a 3b 4e aa 17 bc
       -0.57857126 -0.47032645 0.0038188668 -0.009256912
0002c0 f7 3c 12 be 43 bf d9 3d eb 1e 8e 3e a9 7f 7c bd
       -0.14281069 0.106321834 0.27757964 -0.061645184
0002d0 7b fc 17 be 67 0c 18 be 3b 2e 99 3d 19 d3 de be
       -0.14842407 -0.14848481 0.07479521 -0.4352043
0002e0 15 67 4f 3c 6b aa 79 bd d4 de 8b 3e e7 4e f3 3b
       0.012658854 -0.06095354 0.27318442 0.0074251774
0002f0 98 de c9 3c 25 3d 7b 3d 9b 54 5f 3e c8 cd 43 3d
       0.024642274 0.06133761 0.21809618 0.04780367
000300 35 ea 4f 3d 3e ee 58 3e 18 99 37 bf a8 99 63 be
       0.050760467 0.21184632 -0.7171798 -0.22226584
000310 95 af db bd 73 47 67 bc a3 f3 d7 3d d3 dd 30 3d
       -0.10726849 -0.014116156 0.10544517 0.043180298
000320 07 88 b9 3c b6 f8 bb 3d ee a8 9d bd 82 6b 9e ba
       0.02264787 0.09178297 -0.076982364 -0.0012086483
000330 60 0d b6 bc 7f a9 07 bf 4b 3d 50 be eb f3 97 be
       -0.022223175 -0.52993006 -0.20335881 -0.29678282
000340 15 70 1d bf 15 16 5c be 59 00 8b bd a1 e3 b4 3d
       -0.6149915 -0.21492799 -0.06787176 0.08832479
000350 e8 ea 57 3d 09 d1 20 3c dc 23 e1 bc 6a 03 d9 3d
       0.05271426 0.009815463 -0.02748292 0.10596354
000360 d6 f7 d5 bc 69 32 ef be 7d d2 22 be 5a 27 d5 3e
       -0.026119154 -0.46718147 -0.15900607 0.41631585
000370 68 1c 10 3b 58 ae 29 3e 75 79 6d 3e 8b 55 dc 3b
       0.0021989588 0.16570413 0.23190863 0.0067240647
000380 c5 d2 87 3e af cc 9f bd f1 ae 41 3d 0e 02 ce 3d
       0.26527992 -0.07802712 0.047285978 0.10058986
000390 c9 44 46 3c 87 b6 46 bf 5e f5 70 bb e1 96 89 bc
       0.012101361 -0.77622265 -0.0036767344 -0.016795577
0003a0 b3 23 e7 be 4c 3f c1 be eb 32 08 3f c4 20 34 be
       -0.45144424 -0.37743604 0.53202695 -0.17590624
0003b0 50 c7 d8 3c 6d fa 8f 3c df 81 25 3e 92 00 ed 3c
       0.026462227 0.017575467 0.16162823 0.028930936
0003c0 06 f2 5c 3d 65 37 32 be cb 2c 0d 3d 9d 11 94 bc
       0.05394175 -0.17403944 0.034466546 -0.018074805
0003d0 6d db e5 3c db a3 5b 3e 06 e3 48 3d 50 ef 4b bf
       0.028058732 0.21449225 0.04904463 -0.79662037
0003e0 31 45 ae bc bb 21 3a 3e 1e ad a0 bd 87 71 b0 3e
       -0.021273227 0.1817693 -0.078455195 0.34461614
0003f0 2c 57 0d bb 84 e7 32 be de 9d 13 bf 32 7f 21 3d
       -0.002156685 -0.17471129 -0.5766276 0.039427944
