Experimenten/Experiment1Snake/PPO/ppo_snake_3700.pth (torch, 280852 bytes, 7 tensors)

shared.0.weight f4 [256, 9]
0.17616764 -0.09708351 0.38676983 -0.15903921 0.018208236 0.023672262 0.69234693 0.4412249
-0.028014185 -0.40354854 0.16606244 0.117286436 -0.27114052 -0.02228987 -0.27306953 0.20798706
-0.24955256 -0.40649238 0.122802764 -0.042407062 0.28928432 -0.054980297 0.048960548 -0.30320615
-0.105382 0.06791277 -0.4029471 -0.267239 -0.14824264 0.2861051 -0.4465435 -0.23125659
0.2205071 0.20485818 0.31960678 0.2594021 -0.18992913 -0.120106995 -0.442485 -0.31329852
-0.29394713 -0.1842905 -0.32553476 -0.31662306 0.08991795 0.36462057 0.19948432 0.30856016
-0.24963024 -0.027336134 -0.064829916 -0.07729644 0.50752074 0.21723035 -0.13441837 -0.26802576
0.3767855 0.38317218 0.008588688 0.06712111 0.13053283 0.32774338 0.5762041 0.09918432
-0.11250651 -0.13082865 0.047980033 0.017268447 0.0067730336 -0.3780636 0.23274231 -0.51913124
-0.3142474 -0.3698926 0.31844285 -0.024110679 -0.048895445 -0.03402939 0.18616962 0.2282119
-0.27811947 0.04376197 -0.13217226 0.43701145 -0.0024603198 0.091676615 -0.065238036 -0.21857186
0.29434812 -0.49789512 -0.28792796 0.11508392 0.25579777 -0.4011349 -0.17070651 -0.059418295
0.15516897 0.22347324 0.72256327 0.22940172 -0.066492416 -0.27316582 -0.29464403 -0.032171775
-0.055641245 -0.032812364 -0.021003589 0.9702904 -0.076311804 0.2561037 -0.067300074 0.21366552
0.12468743 -0.03082613 0.33662727 0.059556678 0.59700805 0.3694663 -0.056387555 -0.277931
0.05937943 0.26816395 0.1807545 0.14926036 0.055292934 -0.1972052 -0.38504514 -0.36696583
0.47056115 -0.307876 0.07556598 -0.20697132 -0.030554673 0.1063748 -0.22721727 -0.28019688
-0.29478192 0.2516055 0.22542864 0.05393325 -0.10368318 0.4398789 -0.08040331 0.3089751
-0.21925087 -0.06951688 0.41359156 0.079868965 -0.042970303 -0.05202185 0.788547 0.072243854
-0.20439123 0.16149113 0.13265468 0.32097286 0.09681769 0.06962144 0.11661906 0.5752948
0.53897625 0.49824348 0.1531144 0.42037016 0.043742925 -0.17263003 0.25496295 -0.14308245
0.66897106 0.12796645 0.05628277 -0.114412114 0.1529219 0.17203806 0.42439842 0.22941566
0.095265 -0.0061994167 0.4283873 0.26726633 0.042978697 -0.08539097 -0.06780931 -0.32150578
-0.16089323 -0.048980385 -0.3427668 0.221178 -0.11353539 0.056976777 0.21165283 0.3055967
0.03703868 -0.13846503 -0.039209034 -0.12811686 -0.07046563 0.115058966 -0.22215815 0.10665548
0.3520304 0.3387328 -0.12959933 -0.13228469 0.58915395 0.47658458 0.19360837 -0.27452117
-0.09609908 0.34538242 0.030678356 0.06392403 0.25977674 -0.029158523 -0.27447966 -0.14929819
-0.43180105 0.15503338 0.15148595 0.07415445 -0.060554765 -0.18931752 0.6931397 0.49962467
0.075970545 -0.104511194 0.23110525 0.38967374 -0.10712922 0.177111 -0.11019265 0.5717157
0.48108327 -0.25460973 -0.06267039 0.1025349 0.012458237 -0.36462775 0.0878871 0.0067689363
0.67648935 0.22675477 0.3092889 -0.44222838 -0.17367339 0.27431926 -0.46291423 0.17028427
0.085338354 -0.12040595 0.18815579 -0.26725256 -0.26939002 0.23828714 0.0242946 0.28925636
00000000: 4a65 343e b8d3 c6bd b206 c63e 2ddb 22be
00000010: 7029 953c 55ec c13c a63d 313f 3be8 e13e
00000020: 017e e5bc ea9d cebe 460c 2a3e df33 f03d
00000030: eed2 8abe 3f99 b6bc c5cf 8bbe 8ffa 543e
00000040: b58a 7fbe c51f d0be 0480 fb3d 07b3 2dbd
00000050: 131d 943e 0533 61bd db8a 483d d63d 9bbe
00000060: 85d2 d7bd da15 8b3d 154f cebe 8dd3 88be
00000070: ebcc 17be 5e7c 923e 5aa1 e4be 87ce 6cbe
00000080: 9dcc 613e 58c6 513e 80a3 a33e 5ad0 843e
00000090: c87c 42be a8fa f5bd 658d e2be aa68 a0be
000000a0: 3d80 96be a6b6 3cbe 7eac a6be 6b1c a2be
000000b0: e726 b83d 8caf ba3e 9e45 4c3e 99fb 9d3e
000000c0: 129f 7fbe 07f0 dfbc 8cc5 84bd 994d 9ebd
000000d0: e1ec 013f a271 5e3e f8a4 09be ac3a 89be
000000e0: 07ea c03e 252f c43e 92b7 0c3c cb76 893d
000000f0: 66aa 053e fbcd a73e 1d82 133f 2621 cb3d
00000100: d069 e6bd f2f7 05be b686 443d 8f76 8d3c
00000110: 53f0 dd3b 8d91 c1be 0054 6e3e c9e5 04bf
00000120: 09e5 a0be 9062 bdbe f10a a33e c283 c5bc
00000130: 9746 48bd 6762 0bbd 40a3 3e3e 61b0 693e
00000140: ad65 8ebe c03f 333d 2a58 07be f7bf df3e
00000150: 513d 21bb f3c0 bb3d 859b 85bd 4dd1 5fbe
00000160: ccb4 963e 1cec febe 4b6b 93be 1eb1 eb3d
00000170: edf7 823e 8e61 cdbe b0cd 2ebe 9960 73bd
00000180: 9de4 1e3e 2bd6 643e e8f9 383f 49e8 6a3e
00000190: 2d2d 88bd 64dc 8bbe 95db 96be 8dc6 03bd
000001a0: 13e8 63bd 4266 06bd b80f acbc f464 783f
000001b0: 5d49 9cbd 0620 833e 9fd4 89bd 22cb 5a3e
000001c0: 205c ff3d 1587 fcbc 695a ac3e b4f1 733d
000001d0: 85d5 183f b02a bd3e a3f6 66bd f94c 8ebe
000001e0: d837 733d c94c 893e b517 393e b5d7 183e
000001f0: d87a 623d 29f0 49be a324 c5be f2e2 bbbe
00000200: 64ed f03e eca1 9dbe 56c2 9a3d 4af0 53be
00000210: cb4d fabc 08db d93d a5ab 68be f775 8fbe
00000220: a8ed 96be 70d2 803e c4d6 663e 1de9 5c3d
00000230: d957 d4bd cf37 e13e 7eaa a4bd fc31 9e3e
00000240: 4d83 60be de5e 8ebd 46c2 d33e 5792 a33d
00000250: a101 30bd dd14 55bd 37de 493f 96f4 933d
00000260: ef4b 51be ee5d 253e a1d6 073e 8e56 a43e
00000270: 5a48 c63d af95 8e3d f9d5 ee3d 8546 133f
00000280: 59fa 093f c519 ff3e 05ca 1c3e c23a d73e
00000290: c82b 333d edc5 30be 818a 823e 3584 12be
000002a0: b041 2b3f a309 033e c388 663d e650 eabd
000002b0: 8f97 1c3e bf2a 303e c04a d93e f0eb 6a3e
000002c0: 4c1a c33d 7a24 cbbb 9555 db3e 22d7 883e
000002d0: 6e0a 303d 76e1 aebd 9cdf 8abd 689c a4be
000002e0: 32c1 24be a89f 48bd 217f afbe 7c7c 623e
000002f0: 3e85 e8bd 7b60 693d 85bb 583e 2c77 9c3e
00000300: dfb5 173d c7c9 0dbe a799 20bd 1131 03be
00000310: 4950 90bd 09a4 eb3d 6d7d 63be 306e da3d
00000320: 543d b43e 636e ad3e b0b5 04be a375 07be
00000330: cbd2 163f e502 f43e 4641 463e 0a8e 8cbe
00000340: 98cf c4bd f7d5 b03e 2d51 fb3c 9aea 823d
00000350: 7501 853e dbdd eebc 9988 8cbe a0e1 18be
00000360: 0715 ddbe 12c1 1e3e 221f 1b3e 4ade 973d
00000370: 4608 78bd 74dc 41be 9a71 313f cece ff3e
00000380: 7296 9b3d f709 d6bd dba6 6c3e 5183 c73e
00000390: 9166 dbbd 965c 353e afac e1bd f65b 123f
000003a0: 8c50 f63e 355c 82be 5559 80bd d1fd d13d
000003b0: a21d 4c3c 7db0 babe 27fe b33d f4cd dd3b
000003c0: 682e 2d3f 6732 683e 1d5b 9e3e c26b e2be
000003d0: 70d7 31be 9373 8c3e 1803 edbe 005f 2e3e
000003e0: e0c5 ae3d 6597 f6bd e9ab 403e 54d5 88be
000003f0: 7ded 89be 8b01 743e 7805 c73c 6919 943e

shared.0.bias f4 [256]
0.15378246 -0.22499418 -0.2475806 -0.21396062 -0.11833984 0.1682302 0.20737767 0.22047487
0.10731891 -0.40439305 -0.020234989 0.1984127 0.38279787 0.059125863 -0.2557345 -0.38197377
0.1505921 -0.042461514 0.15764798 0.23412143 -0.44070792 0.37325072 -0.032401998 -0.28443292
-0.13725184 0.27567002 -0.04263916 -0.14796261 0.35297847 -0.19625269 -0.27436876 -0.360133
0.25920388 0.23483784 0.29646042 -0.22449495 0.32153466 0.052022364 -0.31168324 -0.11348916
0.34285522 -0.19388618 0.3378314 -0.19285049 0.47602645 0.08246713 -0.08568633 -0.08339293
-0.037378337 -0.17903064 0.027426342 -0.081929624 0.14147966 0.13538773 0.029302547 -0.24769725
0.34154817 0.110748574 -0.03948786 0.30134547 0.47608027 -0.1187368 0.46791154 0.1760131
-0.16730618 0.11960383 0.27178964 0.28176007 0.3183082 0.17132308 0.3967211 0.33385995
0.20751052 -0.41143292 -0.019514577 0.26828477 0.035296053 -0.2920899 0.1845345 -0.17044385
-0.33445913 0.3746567 0.10479726 -0.26756385 0.19704019 0.3161797 -0.047247916 -0.020585582
-0.061266992 -0.016461518 0.10105444 -0.05458786 0.17932878 0.027770843 0.33529592 0.09999951
0.21394557 0.029715857 -0.2655501 -0.12661459 0.10449586 -0.1498888 0.2822915 0.25056744
0.36069235 -0.05381537 0.37321916 -0.25105402 -0.038719263 -0.37406877 -0.3721311 -0.007793891
-0.20454496 -0.16386364 0.0059862626 0.29988155 0.40452793 -0.31930164 -0.029214863 -0.47552252
-0.4782604 -0.24414657 0.119596966 0.2287351 -0.26172587 -0.29056698 -0.3476954 0.36128438
0.20860918 -0.23843344 0.26330882 -0.035973802 0.08018058 -0.28586802 0.13485731 -0.2832783
-0.22103101 -0.16820881 0.04380816 0.082715385 -0.0766408 -0.00974637 -0.12534006 0.34302843
0.45210737 -0.4012136 0.19738817 0.13446273 0.14951506 0.23585989 0.14328435 0.3011234
-0.14280035 -0.26142702 0.19728997 0.260177 0.2034375 0.22208 0.006195985 0.32915172
-0.45160273 -0.28540012 0.22171901 0.3694258 0.06382432 -0.20825672 0.38477853 -0.040021446
0.27098826 0.11696416 0.363755 0.1470301 -0.2192189 -0.3667554 0.2283125 0.32340255
0.15421383 -0.14650542 0.1492408 -0.19810879 0.0071321647 -0.15657261 -0.2399975 0.5020674
-0.081222355 -0.41517264 -0.016770268 0.11657001 -0.20798223 -0.11933563 -0.0656387 0.14142933
-0.17565426 -0.4001382 0.4874168 0.3460419 0.21741702 -0.05303876 0.12525365 0.38796303
-0.16597815 -0.38265613 -0.046876397 -0.22603263 -0.18424939 -0.27052468 -0.15274206 -0.2737555
-0.34246713 0.12054528 -0.3000562 0.31652504 0.050115686 0.097507805 0.45480192 -0.15408304
0.12821397 0.0119481515 -0.45543665 -0.4534082 0.36464822 0.02764466 -0.24617872 0.35485053
0.17028256 -0.13303663 -0.13051254 -0.2460693 -0.31594 0.014844397 0.43791232 0.31422758
0.524823 -0.32823622 -0.24481393 0.3569519 -0.42471144 -0.12814812 -0.054377887 0.439919
-0.19990923 0.04412486 0.1080902 0.07507915 -0.12994076 0.07418013 0.07030118 -0.274279
0.1844281 0.087136336 -0.0029343613 0.38372138 -0.42744502 0.32627317 0.028204413 0.29349416
00000000: 2679 1d3e e064 66be c585 7dbe 7e18 5bbe
00000010: 285c f2bd 8a44 2c3e d05a 543e 2ac4 613e
00000020: 04ca db3d 9b0c cfbe d9c3 a5bc b32c 4b3e
00000030: 15fe c33e f62d 723d a2ef 82be 1192 c3be
00000040: d134 1a3e 20ec 2dbd 796e 213e 87bd 6f3e
00000050: 78a4 e1be b81a bf3e f5b7 04bd 31a1 91be
00000060: bf8b 0cbe 9f24 8d3e 66a6 2ebd 8383 17be
00000070: 98b9 b43e 77f6 48be 107a 8cbe 5a63 b8be
00000080: 5fb6 843e 5579 703e a9c9 973e 01e2 65be
00000090: 31a0 a43e 6715 553d f294 9fbe 016d e8bd
000000a0: b88a af3e 198a 46be 3df8 ac3e 997a 45be
000000b0: bdb9 f33e 87e4 a83d 517c afbd eac9 aabd
000000c0: 071a 19bd cf53 37be 35ad e03c b8ca a7bd
000000d0: 0be0 103e 15a3 0a3e e50b f03c 59a4 7dbe
000000e0: 67df ae3e 26d0 e23d 06be 21bd f449 9a3e
000000f0: cbc0 f33e 482c f3bd 1a92 ef3e c73c 343e
00000100: 5052 2bbe daf2 f43d 0328 8b3e db42 903e
00000110: 4bf9 a23e 516f 2f3e 071f cb3e b1ef aa3e
00000120: a37d 543e 56a7 d2be 09dd 9fbc 9f5c 893e
00000130: 9892 103d cf8c 95be 9df6 3c3e d588 2ebe
00000140: 3a3e abbe 01d3 bf3e f29f d63d 21fe 88be
00000150: e7c4 493e 4ee2 a13e 0887 41bd 18a3 a8bc
00000160: 19f3 7abd 4eda 86bc a1f5 ce3d 8597 5fbd
00000170: f7a1 373e ae7f e33c e8ab ab3e 8bcc cc3d
00000180: 8c14 5b3e ab6e f33c 2ff6 87be 41a7 01be
00000190: ed01 d63d 737c 19be 8388 903e 604a 803e
000001a0: abac b83e 816d 5cbd 9516 bf3e 278a 80be
000001b0: 1798 1ebd f185 bfbe f887 bebe e563 ffbb
000001c0: 3c74 51be dfcb 27be 6928 c43b 138a 993e
000001d0: 491e cf3e 817b a3be 0254 efbc b077 f3be
000001e0: 8cde f4be 8f01 7abe 41ef f43d 8939 6a3e
000001f0: ef00 86be 32c5 94be 2205 b2be 44fa b83e
00000200: a59d 553e e527 74be 6ad0 863e 4459 13bd
00000210: b735 a43d 4b5d 92be 0918 0a3e da09 91be
00000220: f455 62be ee3e 2cbe 2f70 333d af66 a93d
00000230: daf5 9cbd 3daf 1fbc 2559 00be 6ca1 af3e
00000240: 9e7a e73e de6b cdbe 2020 4a3e 99b0 093e
00000250: 7a1a 193e 4185 713e 22b9 123e d92c 9a3e
00000260: 413a 12be c3d9 85be 6206 4a3e eb35 853e
00000270: ec51 503e f168 633e b007 cb3b 9386 a83e
00000280: 7938 e7be f71f 92be 4f0a 633e 6125 bd3e
00000290: 53b6 823d 4041 55be b101 c53e 87ed 23bd
000002a0: f9be 8a3e e88a ef3d 183e ba3e 0f8f 163e
000002b0: eb7a 60be 5dc7 bbbe c1ca 693e 0595 a53e
000002c0: 3bea 1d3e 8405 16be 95d2 183e 08dd 4abe
000002d0: efb4 e93b 9254 20be e8c1 75be 7d87 003f
000002e0: e857 a6bd 8291 d4be cd61 89bc 42bc ee3d
000002f0: 4bf9 54be 3d66 f4bd 956d 86bd dad2 103e
00000300: b6de 33be eade ccbe b28e f93e 672c b13e
00000310: 91a2 5e3e 2c3f 59bd 7e42 003e 17a3 c63e
00000320: 2df6 29be 81eb c3be 7701 40bd 1975 67be
00000330: dfab 3cbe 3682 8abe 6a68 1cbe ae29 8cbe
00000340: da57 afbe 72e0 f63d f7a0 99be 920f a23e
00000350: 1b46 4d3d 2cb2 c73d ccdb e83e f2c7 1dbe
00000360: 864a 033e 2ec2 433c fe2e e9be 1f25 e8be
00000370: 2cb3 ba3e 0e77 e23c 4616 7cbe f8ae b53e
00000380: 8d5e 2e3e c13a 08be 14a5 05be 97f9 7bbe
00000390: e3c2 a1be ea35 733c 0b36 e03e 70e2 a03e
000003a0: cd5a 063f 940e a8be 81b0 7abe 66c2 b63e
000003b0: c773 d9be 4339 03be 59bb 5ebd 103d e13e
000003c0: 01b5 4cbe 45bc 343d 655e dd3d 19c3 993d
000003d0: 310f 05be c1eb 973d 11fa 8f3d 4c6e 8cbe
000003e0: b8da 3c3e 8974 b23d 6a4e 40bb 2177 c43e
000003f0: 13da dabe 470d a73e f10c e73c de44 963e

shared.2.weight f4 [256, 256]
-0.0035215288 -0.052833445 -0.03191649 -0.004802301 0.019746998 0.15694386 0.12830858 0.07253666
-0.071110345 -0.0005865491 0.050109822 0.03257294 0.08286919 -0.020419985 -0.1092813 -0.021340746
0.022162247 0.090580694 -0.043908454 -0.032695264 -0.07948086 0.03868978 0.076967716 -0.032315683
-0.021062685 -0.036429718 -0.022714624 -0.07651018 0.026020328 -0.051238723 -0.08474768 -0.08737945
-0.07571121 0.02729897 -0.03600357 0.15148547 -0.050131634 0.034059264 -0.00970864 -0.10065552
0.0029756683 -5.1701445e-05 -0.0036410042 -0.03009293 0.12895729 -0.037245113 -0.044252772 0.0464985
0.07100067 0.049365163 -0.028353343 -0.036071327 -0.00092290714 0.049508274 -0.029710375 -0.09390226
0.06013105 0.044487182 0.031623203 0.026925426 0.07165729 0.03120316 0.018541139 0.022773918
-0.03229571 -0.039274596 0.02367894 0.03780903 0.072572425 -0.05130206 0.14690472 0.06107883
-0.014560458 -0.0065803803 -0.18304865 0.040730394 0.0021771449 -0.061950617 0.01690438 0.018953359
-0.067082904 0.047378186 0.063979566 0.0067413873 0.042057604 0.08914925 0.057357375 0.05726469
0.019229764 -0.049687386 0.029623019 -0.018623171 -0.03935757 0.034183238 0.05210308 -0.0002785524
0.047353193 -0.034273647 0.0072867963 0.025265468 -0.003735773 0.14291707 -0.005480631 -0.037169397
0.066204205 -0.19539677 -0.05916429 -0.09226212 0.015003009 -0.026292687 -0.10838509 -0.0033056685
0.017096715 0.024080368 0.06974544 -0.041831747 0.072566 -0.013261757 0.026992844 0.0602757
-0.06110531 -0.05651512 0.028466381 0.09803254 0.059832677 -0.11136526 -0.007205697 0.06826842
0.028810738 0.085500374 0.069542505 0.011351634 0.017447902 -0.02814951 -0.0067349747 0.05379588
0.027440151 0.08606076 0.055376235 0.02801186 0.033904318 -0.064849675 -0.034751017 -0.07283353
-0.05962301 -0.063187025 0.040501792 -0.02171748 0.062238928 0.07002323 -0.08858203 -0.042786695
0.039151505 -0.0701176 -0.016318606 -0.00320516 0.06346637 -0.059808146 0.03566161 -0.070094876
-0.053540204 0.04805857 -0.0049779206 0.10782936 0.06926936 -0.07621825 -0.045623213 0.029343234
0.09016918 0.06426223 -0.073080696 -0.007960879 -0.109316185 -0.086283095 -0.032778714 0.13893236
0.009995903 0.054122526 0.031001298 -0.0379503 0.061885588 0.05553007 0.37291422 0.06787147
-0.041226495 -0.009116041 0.021541182 -0.040103324 0.042934988 -0.08965742 -0.020576464 0.13024327
-0.08330778 -0.0721743 -0.035227336 -0.03162548 0.0754529 0.0032187735 0.01577608 -0.010472153
-0.023629142 -0.053454924 -0.12837999 -0.004814526 -0.12688352 0.040296238 0.021654734 -0.010374914
-0.09120111 0.04650354 -0.062562086 -0.045539625 0.015615698 -0.04750044 -0.017115563 0.01583945
0.046161182 0.03961513 0.025576511 -0.07961478 0.08085978 0.07049807 0.066664346 0.024231298
0.03439157 0.03902383 -0.0013893611 -0.014645148 -0.09329842 -0.014388265 0.048721205 -0.045432698
0.049088456 -0.021417836 -0.06754566 -0.013712371 -0.071500205 -0.1889509 0.05322062 -0.022411937
-0.089440174 0.019124944 0.07108384 -0.0036995327 0.09381257 0.046034764 0.001000611 0.011160313
0.044690806 0.07083383 -0.046869706 -0.013326327 -0.06721724 -0.12322737 0.064272895 0.040959198
00000000: 73c9 66bb e267 58bd deba 02bd 9f5c 9dbb
00000010: 75c4 a13c e4b5 203e 5363 033e 1a8e 943d
00000020: 4da2 91bd a5c2 19ba f53f 4d3d 346b 053d
00000030: 52b7 a93d d047 a7bc e0ce dfbd cad2 aebc
00000040: 9a8d b53c 5f82 b93d 5ad9 33bd 78eb 05bd
00000050: dcc6 a2bd 2d79 1e3d 40a1 9d3d 735d 04bd
00000060: a78b acbc 5437 15bd 0514 babc 5fb1 9cbd
00000070: 9528 d53c b2df 51bd 3190 adbd fff3 b2bd
00000080: 7b0e 9bbd 17a2 df3c 7b78 13bd 021f 1b3e
00000090: d456 4dbd ba81 0b3d fd10 1fbc 7b24 cebd
000000a0: 6e03 433b 01da 58b8 ea9d 6ebb 7385 f6bc
000000b0: 610d 043e 558e 18bd 6542 35bd 3675 3e3d
000000c0: cd68 913d 2033 4a3d 4545 e8bc 87bf 13bd
000000d0: 40ef 71ba 30c9 4a3d 2c63 f3bc d44f c0bd
000000e0: fa4b 763d 3138 363d 5587 013d b692 dc3c
000000f0: 0fc1 923d c59d ff3c 96e3 973c 5e90 ba3c
00000100: 8248 04bd 66de 20bd 56fa c13c a4dd 1a3d
00000110: daa0 943d 1c22 52bd 316e 163e cc2d 7a3d
00000120: fd8e 6ebc 3ba0 d7bb 1b71 3bbe ead4 263d
00000130: 6eae 0e3b eebf 7dbd 0e7b 8a3c 1344 9b3c
00000140: c362 89bd a10f 423d b807 833d dbe6 dc3b
00000150: 9844 2c3d e293 b63d 91ef 6a3d 618e 6a3d
00000160: bd87 9d3c 0085 4bbd f9ab f23c 9f8f 98bc
00000170: 6735 21bd b903 0c3d 0a6a 553d ac0a 92b9
00000180: 6cf5 413d 8662 0cbd 14c6 ee3b 87f9 ce3c
00000190: dfd3 74bb da58 123e dd96 b3bb f03e 18bd
000001a0: 1296 873d 1716 48be 4156 72bd ecf3 bcbd
000001b0: 2ecf 753c c363 d7bc 01f9 ddbd eaa3 58bb
000001c0: 690e 8c3c 3144 c53c b2d6 8e3d c457 2bbd
000001d0: 7c9d 943d d747 59bc 1920 dd3c a7e3 763d
000001e0: 9049 7abd 667c 67bd 5432 e93c 49c5 c83d
000001f0: 1c13 753d 7813 e4bd c41d ecbb 50d0 8b3d
00000200: 7f04 ec3c d21a af3d 4d6c 8e3d 34fc 393c
00000210: e7ee 8e3c cd99 e6bc 10b1 dcbb 1259 5c3d
00000220: 2bca e03c a040 b03d 31d2 623d 2179 e53c
00000230: 41df 0a3d e8cf 84bd 1557 0ebd bf29 95bd
00000240: 4237 74bd 3368 81bd 35e5 253d dbe8 b1bc
00000250: 3fee 7e3d 5768 8f3d 7f6a b5bd 1a41 2fbd
00000260: 545d 203d d199 8fbd 99ae 85bc a90d 52bb
00000270: a8fa 813d 63f9 74bd e911 123d e78d 8fbd
00000280: f94c 5bbd 10d9 443d d31d a3bb a4d5 dc3d
00000290: 18dd 8d3d 5018 9cbd 68df 3abd 3961 f03c
000002a0: 9eaa b83d eb9b 833d 55ab 95bd 596e 02bc
000002b0: 2ae1 dfbd 31b5 b0bd f942 06bd 4944 0e3e
000002c0: dbc5 233c 95af 5d3d 6ff6 fd3c c671 1bbd
000002d0: be7b 7d3d 8073 633d 9dee be3e 3200 8b3d
000002e0: 1ddd 28bd 725b 15bc 2277 b03c 6243 24bd
000002f0: 99dc 2f3d 4f9e b7bd f98f a8bc 7e5e 053e
00000300: 459d aabd 1fd0 93bd 8a4a 10bd b889 01bd
00000310: 0d87 9a3d 0ff2 523b d63c 813c 6593 2bbc
00000320: e791 c1bc 8df3 5abd 0b76 03be 2cc3 9dbb
00000330: c1ed 01be ab0d 253d 4565 b13c 8bfb 29bc
00000340: a6c7 babd 7f7a 3e3d 8d20 80bd c287 3abd
00000350: fcd8 7f3c d28f 42bd f035 8cbc bcc1 813c
00000360: 8213 3d3d 7943 223d d585 d13c 130d a3bd
00000370: d099 a53d 4b61 903d 5187 883d b780 c63c
00000380: 2dde 0c3d 74d7 1f3d 391b b6ba 34f2 6fbc
00000390: 3e13 bfbd c2bc 6bbc e38f 473d a317 3abd
000003a0: fa10 493d 7574 afbc 6155 8abd daa9 60bc
000003b0: b36e 92bd 587c 41be ddfd 593d 3d99 b7bc
000003c0: 692c b7bd eaab 9c3c 6894 913d dc73 72bb
000003d0: ce20 c03d f38e 3c3d ef26 833a bfd9 363c
000003e0: b50d 373d 5411 913d 73fa 3fbd ab56 5abc
000003f0: 31a9 89bd a25e fcbd 82a1 833d d5c4 273d

shared.2.bias f4 [256]
0.045375958 0.12629382 0.07626375 0.05331709 0.03944684 0.044728354 -0.28668606 0.06271553
0.027970402 0.15894233 0.10759433 0.017488996 0.08353304 0.14474517 0.09535453 0.1281023
0.14190963 0.17430374 -0.022353932 0.02468686 0.17441596 0.13420066 0.029143654 -0.049844824
0.024355184 0.087759055 -0.03378489 -0.0615581 0.13859785 -0.026607223 0.107759975 0.033856343
-0.21467516 -0.053527884 0.14450748 0.067945935 0.11945427 0.13521336 0.17077957 -0.0026790479
-0.021699645 0.14160265 0.088449895 0.025781281 -0.16927426 0.0324964 0.084514 -0.035299513
0.060619593 0.04536106 0.13998199 -0.1248769 0.0011030855 0.10049505 0.080593035 0.13473067
0.15956768 0.111108415 0.115107015 0.1432903 0.041670687 0.12183284 0.12429259 -0.02818574
-0.0015325082 0.074462906 0.112976655 0.12621476 0.152136 0.0282176 0.08601559 0.1795091
0.13911968 0.12031133 0.12752788 0.060183723 0.08982499 -0.02231358 -0.016603297 0.02815933
0.0911658 -0.13085182 -0.033689033 -0.016961304 -0.18913649 0.102429226 0.15153965 -0.010259979
0.031465307 0.063749515 0.12595928 0.15834786 -0.012023662 0.09841165 0.11830725 0.039216913
0.104853556 0.0047726287 -0.040324677 0.038750477 0.032366738 0.122344606 -0.2769899 0.054057255
0.099169895 0.004343881 -0.27320024 0.1774603 -0.07355963 -0.0096018175 0.14012648 0.05847863
0.038573157 0.02168045 0.08324278 0.06643453 -0.123550735 0.15678594 0.053724308 -0.10852813
0.11291186 0.15645994 0.07983778 0.062191807 0.10129167 0.0678157 0.1155292 0.078689866
0.06606652 0.16776857 0.122238845 -0.03902831 -0.05180649 -0.12043745 -0.023824073 0.0714464
0.103109546 0.11269135 0.08569257 0.12161725 -0.18207663 -0.055095922 0.11068229 0.049449358
-0.0525889 0.1669017 -0.051605474 0.11775505 -0.08026152 0.053746674 0.14487703 0.07337277
0.1067308 0.16130614 0.0071638916 0.05300782 -0.27368423 0.008783398 -0.011518579 0.068232074
0.12877144 0.027787069 0.054406274 -0.04980974 0.07646898 0.16191268 -0.1689228 0.0010676789
-0.13615626 0.03651234 0.15693726 -0.044615407 0.07812322 0.15339835 0.03026653 -0.060658433
0.04730165 0.07294916 0.120009854 0.08064866 0.14811572 0.11266584 -0.0035904925 0.09381128
-0.018573621 0.06844236 0.062043022 -0.018110197 -0.02518032 0.087572396 0.13019241 -0.049475968
-0.025927095 0.112821944 0.099367686 0.14337905 0.13287681 0.10157747 0.09381932 0.037569664
-0.040835008 0.12228716 0.103259414 0.124466345 0.13021228 0.14603452 0.095350765 0.044470444
0.15558267 0.07692536 0.14339972 0.07200533 0.044120878 0.033577792 0.14450344 0.12651812
-0.044649746 0.13651502 0.099819325 0.14117402 0.082382396 0.16858418 0.13866916 0.09877702
0.0875735 0.102391005 -0.053683177 0.104279846 0.11765588 0.059084106 0.050113205 0.07085528
0.09691391 0.16502105 -0.05745273 -0.1051426 0.019205244 0.018458746 0.09465373 -0.21503489
0.0009188949 0.07083164 -0.20292434 -0.1688124 0.010195001 -0.14821362 0.114350624 0.07939077
0.044363614 0.03654867 0.05622937 -0.05266323 0.08772432 0.07707409 0.16544566 -0.030933755
00000000: 24dc 393d 2b53 013e 2b30 9c3d 0563 5a3d
00000010: 0293 213d 1435 373d 84c8 92be 0071 803d
00000020: 2f22 e53c c7c1 223e 6b5a dc3d 1545 8f3c
00000030: 5f13 ab3d 1438 143e 3c49 c33d 402d 033e
00000040: c250 113e ae7c 323e 981f b7bc 193c ca3c
00000050: 199a 323e e66b 093e acbe ee3c 162a 4cbd
00000060: 8684 c73c 05bb b33d 0662 0abd 5924 7cbd
00000070: 98ec 0d3e 64f7 d9bc 43b1 dc3d f3ac 0a3d
00000080: ced3 5bbe 0e40 5bbd c5f9 133e 3d27 8b3d
00000090: 71a4 f43d 5f75 0a3e d7e0 2e3e f792 2fbb
000000a0: 74c3 b1bc 4900 113e 3825 b53d 4433 d33c
000000b0: 3b56 2dbe f21a 053d ad15 ad3d 3996 10bd
000000c0: 404c 783d 85cc 393d 7057 0f3e 76bf ffbd
000000d0: 6895 903a 59d0 cd3d f60d a53d d6f6 093e
000000e0: b665 233e cf8c e33d 3abd eb3d b1ba 123e
000000f0: e2ae 2a3d 7f83 f93d 1d8d fe3d c8e5 e6bc
00000100: 71de c8ba 0280 983d 4e60 e73d 713e 013e
00000110: 8ac9 1b3e 9928 e73c f128 b03d 3cd1 373e
00000120: 6475 0e3e c965 f63d ab96 023e 3583 763d
00000130: 2af6 b73d f8ca b6bc a303 88bc 65ae e63c
00000140: 23b5 ba3d 05fe 05be 83fd 09bd 6ff2 8abc
00000150: ffac 41be 6ac6 d13d 362d 1b3e 7919 28bc
00000160: c4e1 003d 1b8f 823d 78fb 003e f125 223e
00000170: e5fe 44bc 0c8c c93d 124b f23d eaa1 203d
00000180: 76bd d63d b663 9c3b 7d2b 25bd d2b8 1e3d
00000190: fc92 043d cf8f fa3d 9fd1 8dbe 246b 5d3d
000001a0: 9619 cb3d 1d57 8e3b e7e0 8bbe 27b8 353e
000001b0: 6ea6 96bd f150 1dbc 517d 0f3e 4a87 6f3d
000001c0: e3fe 1d3d 339b b13c 317b aa3d d40e 883d
000001d0: 2b08 fdbd 7e8c 203e 050e 5c3d ff43 debd
000001e0: 553e e73d 0937 203e fd81 a33d d6bc 7e3d
000001f0: 0272 cf3d f5e2 8a3d 939a ec3d 2728 a13d
00000200: e24d 873d 86cb 2b3e 5c58 fa3d 26dc 1fbd
00000210: 0b33 54bd e9a7 f6bd b42a c3bc 7d52 923d
00000220: 192b d33d b9ca e63d 967f af3d 7712 f93d
00000230: 4c72 3abe 43ac 61bd 65ad e23d 698b 4a3d
00000240: 7567 57bd 47e8 2a3e 4360 53bd 8f29 f13d
00000250: 2760 a4bd 7925 5c3d a55a 143e 7644 963d
00000260: ad95 da3d 702d 253e 14bf ea3b ba1e 593d
00000270: 5720 8cbe 3ee8 0f3c 6cb8 3cbc 42bd 8b3d
00000280: a9dc 033e b5a1 e33c 1dd9 5e3d 4c05 4cbd
00000290: c59b 9c3d 70cc 253e 19fa 2cbe 5cf1 8b3a
000002a0: 8c6c 0bbe f78d 153d 29b4 203e a5be 36bd
000002b0: 11ff 9f3d 7514 1d3e 84f1 f73c fa74 78bd
000002c0: 60bf 413d 5f66 953d bac7 f53d 202b a53d
000002d0: a6ab 173e 59bd e63d 784e 6bbb 2120 c03d
000002e0: b527 98bc 822b 8c3d d320 7e3d d65b 94bc
000002f0: f546 cebc 2859 b33d 2951 053e 50a7 4abd
00000300: 0f65 d4bc 310f e73d 4981 cb3d f5d1 123e
00000310: dc10 083e d907 d03d 5824 c03d a6e2 193d
00000320: 9c42 27bd b171 fa3d ac79 d33d 36e8 fe3d
00000330: 5e56 053e 138a 153e 4347 c33d a426 363d
00000340: 1051 1f3e 0b8b 9d3d 60d7 123e 8877 933d
00000350: 18b8 343d de88 093d b6f8 133e f78d 013e
00000360: a7e2 36bd 98ca 0b3e 136e cc3d ec8f 103e
00000370: 1ab8 a83d 55a1 2c3e 4aff 0d3e 9b4b ca3d
00000380: bc59 b33d 60b2 d13d e4e2 5bbd ac90 d53d
00000390: 91f5 f03d 2d02 723d 8143 4d3d 931c 913d
000003a0: cd7a c63d 47fb 283e 8e53 6bbd 0155 d7bd
000003b0: 5154 9d3c cc36 973c d1d9 c13d 1b32 5cbe
000003c0: fee1 703a 2e10 913d 66cb 4fbe 28dd 2cbe
000003d0: ef08 273c 50c5 17be a930 ea3d a197 a23d
000003e0: 9fb6 353d 0fb4 153d c550 663d 66b5 57bd
000003f0: cfa8 b33d 05d9 9d3d 966a 293e c968 fdbc

actor.weight f4 [3, 256]
0.08791273 -0.038195055 0.0012084448 -0.037755556 -0.07104141 -0.079052754 -0.079089165 -0.020286972
0.03428403 0.06395657 0.08860458 -0.016746074 0.08608381 0.011002818 0.024724757 -0.0014220205
0.13826206 0.043625314 0.00989873 -0.0009269361 0.057588108 0.066906445 -0.21599188 -0.023944614
-0.00489666 0.08826934 0.030653724 -0.11770803 -0.08885919 0.011460952 -0.14784855 -0.005369059
0.005875435 -0.017868351 0.12813559 0.0066890554 0.0893109 -0.061815485 -0.08918367 -0.018239317
0.04091446 0.1106089 0.044573277 0.049057093 0.0077567007 -0.04030569 0.06379096 0.15581068
-0.015608066 -0.013239952 -0.06958421 -0.023391685 0.031746387 0.22856943 0.11498617 0.011233477
-0.081943184 0.09818149 0.08641006 -0.015362794 0.05807985 0.11341309 -0.08664456 -0.060859714
-0.27342644 -0.008543213 0.008839088 0.025492445 0.024471115 -0.0051194774 0.060247164 0.17982835
-0.11468417 0.012552646 -0.02297359 0.019703843 0.018506177 0.0037805357 0.022639932 0.19899087
-0.04928273 0.0051057115 -0.032333948 0.044706464 0.0038689745 0.12604672 0.0782081 0.04987055
-0.039678257 0.11272149 -0.02824361 0.08401693 0.023868974 0.0062529757 -0.07512697 -0.019589147
-0.014712731 -0.017536111 0.05437777 0.06745892 0.06873696 0.09747678 -0.023823217 0.025465118
-0.030896336 0.028331976 -0.036483675 -0.1396505 -0.16280691 -0.006183119 0.09847141 -0.011118853
0.035677154 0.049719367 0.11095673 -0.050257247 0.05734936 0.045115717 -0.046465933 -0.0067284796
0.07705047 0.086868614 -0.0010276746 -0.042653557 0.075130485 -0.014624257 -0.045140386 0.13114235
0.0045949966 -0.00024350345 -0.015090093 0.045061793 -0.05430696 0.023757035 0.033597 0.006758709
0.11143965 -0.48250178 -0.018438801 -0.06853378 0.092718236 -0.05251175 0.029007664 0.018582389
0.008958365 0.026038574 0.02733126 -0.0038270496 0.022445558 0.013170571 0.018724604 -0.0016321907
0.07403635 -0.09816663 -0.05380486 -0.0019942352 0.03682387 -0.02324063 0.014108692 -0.007928186
0.00767919 0.06861532 -0.12386534 0.079795875 -0.017684273 0.06299294 -0.05960291 0.018472845
0.11966064 0.019029614 0.0706204 -0.016920442 0.032848794 -0.017850246 -0.016263982 0.007630445
-0.03063039 0.053560648 0.21710238 -0.035693746 0.01851696 -0.14344 -0.037870366 0.012897379
-0.041063085 -0.12597294 -0.052762676 0.052681644 0.060349893 0.033448413 0.20792101 -0.029472262
0.020388033 0.051574666 -0.018072847 -0.03555185 -0.09943115 -0.025334574 -0.047074836 0.025636002
0.0063310894 0.017334588 0.13871236 -0.08314764 -0.06771949 0.05866565 0.02145294 -0.10264108
0.063067116 0.10592652 0.06555309 0.057012003 -0.00024641142 0.08108529 -0.069690876 -0.016023425
0.031508844 -0.016990133 -0.023650715 -0.3791706 0.012411546 -0.0866904 0.081785254 0.032691825
0.08598755 -0.033542268 -0.02329894 0.040766582 -0.08339 0.034170583 0.055276025 -0.09842902
0.08120189 -0.050338004 -0.062667586 0.014517986 -0.0049762214 0.024403412 -0.13146394 0.100731775
0.048919596 -0.039717045 0.06301766 0.0015779713 -0.026937965 0.10505128 -0.018157192 0.059417922
-0.09079387 0.05737591 -0.03580974 -0.09616259 -0.05025591 0.11493447 0.03253866 0.009253362
00000000: 970b b43d 6b72 1cbd ae64 9e3a 92a5 1abd
00000010: 297e 91bd 69e6 a1bd 80f9 a1bd dd30 a6bc
00000020: 696d 0c3d aafb 823d 5176 b53d 102f 89bc
00000030: b54c b03d 2a45 343c 938b ca3c 1763 baba
00000040: 9294 0d3e 75b0 323d 482e 223c a1fd 72ba
00000050: 82e1 6b3d 3f06 893d fa2c 5dbe 7f27 c4bc
00000060: 2974 a0bb 8ec6 b43d 851d fb3c e810 f1bd
00000070: cffb b5bd b8c6 3b3c 9c65 17be eeee afbb
00000080: b986 c03b a660 92bc fa35 033e dd2f db3b
00000090: a2e8 b63d 3c32 7dbd eea5 b6bd 9f6a 95bc
000000a0: ec95 273d eb86 e23d 7892 363d 17f0 483d
000000b0: ec2b fe3b 9417 25bd d6a4 823d d68c 1f3e
000000c0: f9b8 7fbc 62ec 58bc 2b82 8ebd eb9f bfbc
000000d0: 8008 023d 1b0e 6a3e de7d eb3d 9e0c 383c
000000e0: d4d1 a7bd 6113 c93d c2f7 b03d 3ab4 7bbc
000000f0: 23e5 6d3d 1f45 e83d b472 b1bd 0948 79bd
00000100: 8dfe 8bbe d5f8 0bbc d2d1 103c 88d5 d03c
00000110: a677 c83c 4ac1 a7bb bbc5 763d ec24 383e
00000120: 89df eabd 9da9 4d3c 1c33 bcbc f469 a13c
00000130: 449a 973c ddc2 773b 6177 b93c 43c4 4b3e
00000140: b0dc 49bd d04d a73b 9a70 04bd 201e 373d
00000150: 9f8e 7d3b 6412 013e 912b a03d 1045 4c3d
00000160: ab85 22bd 86da e63d 255f e7bc 1111 ac3d
00000170: de88 c33c c3e5 cc3b 2bdc 99bd 6b79 a0bc
00000180: ab0d 71bc e4a7 8fbc 39bb 5e3d e727 8a3d
00000190: f7c5 8c3d e8a1 c73d e828 c3bc 399c d03c
000001a0: 501a fdbc 7618 e83c e86f 15bd 8a00 0fbe
000001b0: dbb6 26be c39b cabb 61ab c93d da2b 36bc
000001c0: 3522 123d 89a6 4b3d 483d e33d 8bda 4dbd
000001d0: 2ae7 6a3d 42cb 383d 1053 3ebd 947a dcbb
000001e0: a3cc 9d3d 2ce8 b13d 0ab3 86ba 7fb5 2ebd
000001f0: 03de 993d 949a 6fbc 20e5 38bd 2e4a 063e
00000200: a091 963b f654 7fb9 703c 77bc b792 383d
00000210: fa70 5ebd 1d9e c23c 029d 093d 2978 dd3b
00000220: 793a e43d 790a f7be f80c 97bc 705b 8cbd
00000230: 0fe3 bd3d 9016 57bd 7ba1 ed3c 183a 983c
00000240: 1bc6 123c d94e d53c cee5 df3c 3dcf 7abb
00000250: bfdf b73c 61c9 573c 5764 993c 3bef d5ba
00000260: 5fa0 973d 960b c9bd 7c62 5cbd b7b1 02bb
00000270: a0d4 163d 2263 bebc 2528 673c 39e5 01bc
00000280: b7a1 fb3b 3086 8c3d 1dad fdbd 056c a33d
00000290: 9cde 90bc 7102 813d 2e22 74bd 5d54 973c
000002a0: a310 f53d fee3 9b3c 6ea1 903d bd9c 8abc
000002b0: 758c 063d ae3a 92bc 0b3c 85bc d008 fa3b
000002c0: 95ec fabc 6962 5b3d 1650 5e3e 9b33 12bd
000002d0: e1b0 973c efe1 12be f51d 1bbd 874f 533c
000002e0: c431 28bd 0dff 00be ad1d 58bd b5c8 573d
000002f0: 7331 773d 3401 093d 3fe9 543e d06f f1bc
00000300: ce04 a73c f53f 533d 820d 94bc d19e 11bd
00000310: 8fa2 cbbd 748a cfbc 8bd1 40bd 9802 d23c
00000320: 0775 cf3b 4401 8e3c 9d0a 0e3e 4f49 aabd
00000330: 84b0 8abd 654b 703d 13be af3c 7d35 d2bd
00000340: 5529 813d 01f0 d83d b340 863d 6b85 693d
00000350: c830 81b9 0b10 a63d 17ba 8ebd 8f43 83bc
00000360: 6b0f 013d e42e 8bbc 25bf c1bc a622 c2be
00000370: cc59 4b3c bd8a b1bd 077f a73d dde7 053d
00000380: 3e1a b03d 9e63 09bd 6bdd bebc dcfa 263d
00000390: 60c8 aabd 74f6 0b3d 1d69 623d 2795 c9bd
000003a0: 2d4d a63d 392f 4ebd dd57 80bd d9dc 6d3c
000003b0: 920f a3bb aae9 c73c 7c9e 06be 764c ce3d
000003c0: ea5f 483d 57ae 22bd 670f 813d eed3 ce3a
000003d0: 02ad dcbc 2025 d73d 64be 94bc 3560 733d
000003e0: 23f2 b9bd 0103 6b3d 3cad 12bd e4f0 c4bd
000003f0: 24d9 4dbd c362 eb3d 4247 053d 6a9b 173c

actor.bias f4 [3]
0.059710693 -0.014024885 0.025187368
00000000: 3393 743d a2c8 65bc bd55 ce3c

critic.weight f4 [1, 256]
-0.022692123 0.038659044 -0.019351974 0.06344269 -0.0355154 -0.059967164 0.04747035 -0.03452546
0.041541163 -0.023361435 -0.024592487 0.025879553 -0.049608514 -0.025192704 -0.008155777 -0.05488464
-0.02902731 -0.052608866 -0.00069657713 -0.06576267 -0.015421154 -0.026939237 0.28353852 0.00767706
0.0068267714 0.16455147 0.03248521 0.060068306 -0.008959269 0.0358352 0.047030706 0.054168183
0.04405118 0.007927831 -0.010843096 -0.041019663 -0.061034106 -0.046973072 -0.016416563 0.019676613
0.038304925 0.05591279 -0.045400206 0.031478003 0.09314022 -0.06654173 -0.024133943 0.35388473
-0.060546376 -0.06186985 -0.015140048 0.04066139 0.038292106 0.09602179 -0.0098181525 -0.04819802
-0.021742558 -0.0036055963 -0.017246457 -0.07317738 -0.017655155 -0.023559231 -0.041291133 0.05199653
0.27068064 -0.021725599 -0.035916585 -0.02812962 -0.01897683 0.04696567 -0.0262831 0.072457545
-0.034036882 -0.026993591 -0.03112275 -0.061055623 -0.06585913 0.037999596 0.038934514 0.20621751
-0.03728806 0.069160156 0.051661223 0.038416 0.06442365 -0.019171039 -0.078880645 0.041329768
0.03791111 -0.027423436 0.034127023 0.014515813 0.024950566 -0.07690762 -0.023926882 -0.06424734
-0.045121625 0.022658918 0.052926697 -0.024816673 -0.07539854 0.041283693 0.05394871 -0.051591955
-0.049281266 0.011956401 0.09250319 0.054543074 0.12510584 0.037723564 -0.038989417 -0.046192396
-0.047438875 0.055998374 -0.016237784 0.03879951 0.06715012 0.135706 -0.033475153 0.03953634
-0.048710577 0.08910898 -0.048611537 -0.06483426 -0.06262658 -0.039609868 -0.043055177 -0.034361362
0.080737345 -0.026067128 -0.02866074 0.00031817215 0.035336215 0.062622376 0.02707951 -0.052056838
-0.03282903 0.42636952 -0.045223136 -0.03528954 0.064095974 0.054595776 -0.03595813 -0.044095043
0.04078367 -0.017194672 0.037208166 -0.021380657 0.006563479 -0.04001089 -0.03696595 -0.05539051
-0.017628398 0.12958781 0.012402889 -0.017657818 0.09309662 0.023555866 0.037650883 -0.06605733
-0.055639293 0.05948373 -0.03625668 0.062410623 -0.10343776 -0.051342696 0.089740135 0.050778747
0.051802322 0.010779893 -0.033615984 -0.004157012 -0.046326242 -0.01677277 0.0038188668 0.0046449113
-0.045280907 -0.05052941 0.14531119 -0.06564462 -0.057815973 -0.02944314 0.030581173 -0.006751331
0.05501785 -0.054874185 0.18188295 0.0074251774 0.031282473 -0.04295771 0.09327375 0.04780367
0.050760467 0.14221215 -0.029773636 -0.026460135 -0.021775015 -0.07655913 -0.054207955 0.043180298
0.02264787 0.029214242 -0.015982449 -0.06486015 -0.033227798 -0.022437423 -0.012848996 -0.0739575
-0.039475217 -0.037742045 -0.015973711 -0.050617117 0.0027519157 -0.066946976 -0.09732442 -0.044785287
-0.026119154 -0.026142253 -0.020412395 0.3166994 -0.034088023 -0.0111073 0.13694027 -0.04137463
-0.042724255 -0.036264323 0.013359328 0.08305757 -0.06161232 -0.028652132 -0.053149108 -0.050439034
-0.030635944 -0.016141323 0.051643826 0.06289871 0.026462227 0.017575467 -0.0049785036 0.0689284
0.05394175 -0.057936605 0.037285805 0.062253173 0.030358542 0.047702983 -0.060899146 -0.031319845
-0.05433235 -0.04210835 -0.03661661 0.14355789 -0.06702954 -0.04308588 -0.025040397 0.03943903
00000000: d5e4 b9bc f258 1e3d 0888 9ebc 3eee 813d
00000010: 9978 11bd 21a0 75bd 4570 423d 926a 0dbd
00000020: 1127 2a3d 7b60 bfbc 2f76 c9bc 5b01 d43c
00000030: 4c32 4bbd ee60 cebc cf9f 05bc b7ce 60bd
00000040: aeca edbc 657c 57bd 809a 36ba 94ae 86bd
00000050: 02a9 7cbc adaf dcbc f62b 913e d98f fb3b
00000060: 1cb3 df3b 2e80 283e 360f 053d 2f0a 763d
00000070: e6c9 12bc eec7 123d 45a3 403d 75df 5d3d
00000080: 036f 343d bce3 013c 3ea7 31bc 3c04 28bd
00000090: e6fe 79bd d666 40bd 077c 86bc d930 a13c
000000a0: a0e5 1c3d cf04 653d 91f5 39bd 14ef 003d
000000b0: 4dc0 be3d 0847 88bd 8cb4 c5bc 6130 b53e
000000c0: 7aff 77bd 3d6b 7dbd f70d 78bc 8f8c 263d
000000d0: 2fd8 1c3d 12a7 c43d 51dc 20bc 496b 45bd
000000e0: 731d b2bc de4b 6cbb 7148 8dbc 06de 95bd
000000f0: 8ba1 90bc 4aff c0bc e420 29bd 50fa 543d
00000100: a796 8a3e e2f9 b1bc 451d 13bd 1770 e6bc
00000110: 4c75 9bbc 135f 403d a84f d7bc 9f64 943d
00000120: 426a 0bbd aa21 ddbc 23f5 febc 7615 7abd
00000130: 27e1 86bd 77a5 1b3d cc79 1f3d af2a 533e
00000140: 5dbb 18bd d7a3 8d3d b89a 533d 185a 1d3d
00000150: 8cf0 833d 950c 9dbc 2d8c a1bd 6749 293d
00000160: ae48 1b3d 1da7 e0bc c7c8 0b3d bcd3 6d3c
00000170: 2165 cc3c be81 9dbd 4f02 c4bc 1c94 83bd
00000180: 74d1 38bd 329f b93c aac9 583d 564c cbbc
00000190: 8d6a 9abd 1719 293d 53f9 5c3d 1652 53bd
000001a0: 27db 49bd c8e4 433c 5072 bd3d 8f68 5f3d
000001b0: bf1b 003e 0684 1a3d 5eb3 1fbd 3d34 3dbd
000001c0: 444f 42bd 8d5e 653d 1a05 85bc 3cec 1e3d
000001d0: 0186 893d 83f6 0a3e 3e1d 09bd dbf0 213d
000001e0: be84 47bd c57e b63d e41c 47bd d3c7 84bd
000001f0: 5d42 80bd f53d 22bd a05a 30bd 80be 0cbd
00000200: 9f59 a53d bb8a d5bc eec9 eabc 58d0 a639
00000210: b5bc 103d 2940 803d d9d5 dd3c 8d39 55bd
00000220: bc77 06bd 1b4d da3e e53b 39bd c48b 10bd
00000230: c044 833d d29f 5f3d d548 13bd 019d 34bd
00000240: c70c 273d d7db 8cbc 9767 183d 7d26 afbc
00000250: 7412 d73b 76e2 23bd 9c69 17bd 29e1 62bd
00000260: 6e69 90bc abb2 043e 7d35 4b3c 21a7 90bc
00000270: 71a9 be3d 3bf8 c03c d037 1a3d 1149 87bd
00000280: 07e6 63bd 36a5 733d e281 14bd 48a2 7f3d
00000290: 2dd7 d3bd b84c 52bd adc9 b73d 60fd 4f3d
000002a0: ac2e 543d 269e 303c eab0 09bd 8b37 88bb
000002b0: 96c0 3dbd 0c67 89bc f445 7a3b 5734 983b
000002c0: 7978 39bd edf7 4ebd 75cc 143e b070 86bd
000002d0: 71d0 6cbd bd32 f1bc 5e85 fa3c 453a ddbb
000002e0: 665a 613d c1c3 60bd 863f 3a3e e74e f33b
000002f0: 0d22 003d 6cf4 2fbd 4f06 bf3d c8cd 433d
00000300: 35ea 4f3d 10a0 113e d7e7 f3bc edc2 d8bc
00000310: 8461 b2bc 08cb 9cbd 2909 5ebd d3dd 303d
00000320: 0788 b93c b552 ef3c a0ed 82bc 66d5 84bd
00000330: df19 08bd b0ce b7bc 9884 52bc 0877 97bd
00000340: c4b0 21bd 6797 1abd 4ddb 82bc e553 4fbd
00000350: 7c59 343b 7f1b 89bd 0752 c7bd c770 37bd
00000360: d6f7 d5bc 4728 d6bc e537 a7bc 6c26 a23e
00000370: e29f 0bbd 65fb 35bc 123a 0c3e 7278 29bd
00000380: a1ff 2ebd e689 14bd 15e1 5a3c 161a aa3d
00000390: 335d 7cbd e0b7 eabc e1b2 59bd 2999 4ebd
000003a0: 3bf8 fabc cf3a 84bc 7a88 533d 0ad1 803d
000003b0: 50c7 d83c 6dfa 8f3c b722 a3bb 552a 8d3d
000003c0: 06f2 5c3d ef4e 6dbd 00b9 183d 2ffd 7e3d
000003d0: 7ab2 f83c 3464 433d 6271 79bd 3d49 00bd
000003e0: 998b 5ebd ce79 2cbd 4cfb 15bd d700 133e
000003f0: c946 89bd d27a 30bd 8521 cdbc d28a 213d
