Experimenten/Experiment1Snake/PPO/ppo_snake_10300.pth (torch, 280864 bytes, 7 tensors)

shared.0.weight f4 [256, 9]
0.11488765 -0.08766803 0.3019684 -0.3348085 -0.014131901 0.0021797502 0.5877192 0.5014992
-0.03506906 -0.4787956 0.25294092 0.14010967 -0.46357632 0.0029016153 -0.29643512 0.33798277
-0.14767383 -0.13629305 -0.06123811 0.16339336 0.46829164 -0.3134209 0.046156686 -0.1359326
0.0042675994 0.2925871 -0.50909954 -0.30540767 -0.17751537 0.1015463 -0.36000466 -0.2226778
0.22016127 0.2540307 0.33346567 0.30614612 -0.25937298 -0.18156028 -0.30590212 -0.25864673
-0.30629244 -0.17250928 -0.12340756 -0.027986486 0.20231114 0.38179302 0.23418222 0.2962645
-0.39835343 0.024510428 0.00065943075 -0.07154829 0.41727898 0.1637096 -0.32073438 -0.34428108
0.28020635 0.33245695 -0.012454046 0.03096134 0.16002133 0.21210706 0.60034704 0.22171094
0.086202964 0.023486912 0.13667113 -0.0138325 0.0024638113 -0.5751185 0.30048025 -0.59066975
-0.55734193 -0.27420437 0.43119887 -0.003211026 -0.03241183 -0.003742008 0.15585794 0.35258147
-0.7870903 0.0015736558 0.15837757 0.6324803 -0.24461599 0.053924914 -0.06657903 -0.10848176
0.37550637 -0.81550115 -0.34234777 0.24332382 0.2068566 -0.48421347 -0.14877486 -0.005929826
0.122733556 0.3495219 0.8586456 0.12720515 -0.16396953 -0.36442742 -0.21367994 -0.035664562
-0.16879116 -0.07974294 0.048756473 1.0898315 0.09774202 0.31690738 -0.030465264 0.29031867
0.033580642 -0.0070209806 0.3371399 -0.42778757 0.6403227 0.40255076 -0.19225764 -0.450158
-0.07652878 0.17589647 0.20492235 0.15374902 0.07873464 -0.11877734 -0.40416935 -0.36774945
0.66265917 -0.39642802 0.12285656 -0.16147555 -0.028946318 0.13016371 -0.26736256 -0.46386787
-0.42557037 0.27249077 0.119115055 -0.052502993 -0.036136933 0.49304783 0.0069933436 0.38669974
-0.44195217 -0.094402336 0.45416567 -0.009100458 -0.050242547 -0.16714019 0.712831 0.22699001
-0.22098258 0.12542303 0.009879451 0.14371905 0.14480373 0.002498504 0.044191033 0.59513205
0.6162373 0.5418374 0.13215664 0.5262619 -0.034487206 -0.4940443 0.20523277 -0.031931262
0.59072083 0.022601055 -0.014314068 -0.4301326 0.1446878 0.20526202 0.503682 0.1392531
0.00024262758 0.053548444 0.23969753 0.1427444 -0.07186731 0.12607343 -0.10129764 -0.50479114
-0.18100578 -0.03341107 -0.33028576 0.36475343 0.02714458 0.1401047 0.36532366 0.48322102
0.062285688 -0.02379105 -0.045028485 -0.09740543 -0.25185502 0.06957557 -0.4642462 0.078351334
0.4429942 0.17676061 -0.07060798 -0.04866449 0.6335995 0.6153862 0.072117925 -0.42400113
-0.06313889 0.57598704 -0.18499722 0.13738795 0.16216022 0.19848005 -0.2515239 -0.02951039
-0.56456393 0.13760847 0.3003329 -0.022922315 -0.03190839 -0.15424941 0.81096065 0.658496
0.09575495 -0.041093066 0.37630257 0.36986715 -0.14068426 0.1317032 -0.073027454 0.46651766
0.43158928 -0.38734418 0.048821542 0.13291083 -0.06913705 -0.5722223 0.063648686 0.008230286
0.75516343 0.2899223 0.23839967 -0.4977218 -0.047826715 0.48943177 -0.59934044 0.1492504
0.074644 0.027130501 0.14442226 -0.16478068 -0.15480281 0.3696215 0.22503357 0.3261522
00000000: 374a eb3d 4c8b b3bd 9a9b 9a3e 056c abbe
00000010: 7d89 67bc 24da 0e3b c474 163f 4062 003f
00000020: 93a4 0fbd b224 f5be 7981 813e e978 0f3e
00000030: e059 edbe 0729 3e3b 58c6 97be 140c ad3e
00000040: cf37 17be 6890 0bbe d0d4 7abd 9750 273e
00000050: ecc3 ef3e b478 a0be cb0e 3d3d ea31 0bbe
00000060: 38d7 8b3b facd 953e 5954 02bf 655e 9cbe
00000070: 97c6 35be 82f7 cf3d 8852 b8be a605 64be
00000080: f571 613e 5010 823e 03bc aa3e 2fbf 9c3e
00000090: 89cc 84be f0ea 39be 349f 9cbe 586d 84be
000000a0: 5dd2 9cbe 46a6 30be 1abd fcbd ea43 e5bc
000000b0: a72a 4f3e 607a c33e 77cd 6f3e fbaf 973e
000000c0: fbf4 cbbe 18ca c83c a6dd 2c3a e987 92bd
000000d0: 97a5 d53e 7da3 273e 4c37 a4be 9c45 b0be
000000e0: 3577 8f3e cc37 aa3e 0e0c 4cbc a3a2 fd3c
000000f0: a2dc 233e 9832 593e 58b0 193f 3108 633e
00000100: 2e8b b03d a067 c03c 84f3 0b3e b6a1 62bc
00000110: e577 213b f73a 13bf 8cd8 993e 2236 17bf
00000120: f6ad 0ebf 8464 8cbe 19c6 dc3e 1470 52bb
00000130: 44c2 04bd 7a3c 75bb 3999 1f3e 8f85 b43e
00000140: c07e 49bf 2043 ce3a bb2d 223e 3bea 213f
00000150: 9d7c 7abe 5fe0 5c3d 965a 88bd af2b debd
00000160: 5f42 c03e afc4 50bf 3548 afbe e129 793e
00000170: 37d2 533e d4ea f7be 7058 18be fc4e c2bb
00000180: bb5b fb3d 89f4 b23e 33d0 5b3f 1142 023e
00000190: a1e7 27be 3b96 babe eace 5abe 0115 12bd
000001a0: 97d7 2cbe 4450 a3bd deb4 473d 997f 8b3f
000001b0: f82c c83d af41 a23e 4a92 f9bc a6a4 943e
000001c0: db8b 093d 4110 e6bb 9a9d ac3e f906 dbbe
000001d0: 30ec 233f 221b ce3e 30df 44be 1c7b e6be
000001e0: 1fbb 9cbd 341e 343e 2ad7 513e 6270 1d3e
000001f0: a03f a13d 8941 f3bd 49ef cebe a849 bcbe
00000200: 08a4 293f 9df8 cabe 389c fb3d d959 25be
00000210: d420 edbc a349 053e bfe3 88be 1780 edbe
00000220: 5ce4 d9be e983 8b3e 98f2 f33d 610d 57bd
00000230: 5204 14bd c470 fc3e 6b28 e53b 82fd c53e
00000240: 8e47 e2be 0356 c1bd 6788 e83e 161a 15bc
00000250: 21cb 4dbd cc26 2bbe 187c 363f 1270 683e
00000260: 4249 62be e56e 003e 6cdd 213c 162b 133e
00000270: 6e47 143e f1bd 233b a801 353d 935a 183f
00000280: bac1 1d3f dbb5 0a3f 1254 073e 1ab9 063f
00000290: 7542 0dbd 60f3 fcbe 8a28 523e 5bca 02bd
000002a0: 7b39 173f d925 b93c 8d85 6abc 573a dcbe
000002b0: 0a29 143e 3530 523e 4ef1 003f 5d98 0e3e
000002c0: d869 7e39 9d55 5b3d 4573 753e 972b 123e
000002d0: 2b2f 93bd 6519 013e 2375 cfbd fe39 01bf
000002e0: 9459 39be 0cda 08bd 371b a9be f6c0 ba3e
000002f0: 4f5e de3c 9b77 0f3e b40b bb3e bf68 f73e
00000300: 471f 7f3d 73e5 c2bc ca6f 38bd 807c c7bd
00000310: 24f3 80be a37d 8e3d aeb1 edbe aa76 a03d
00000320: 23d0 e23e bc00 353e eb9a 90bd 6b54 47bd
00000330: 9433 223f f389 1d3f 90b2 933d ad16 d9be
00000340: f64e 81bd e373 133f e96f 3dbe 6daf 0c3e
00000350: 540d 263e 5b3e 4b3e bec7 80be c6bf f1bc
00000360: 4387 10bf 3ce9 0c3e 3cc5 993e 94c7 bbbc
00000370: 5fb2 02bd 8ff3 1dbe 1e9b 4f3f 3293 283f
00000380: 2c1b c43d 3451 28bd bbaa c03e 3a5f bd3e
00000390: 890f 10be 34dd 063e 6b8f 95bd 67db ee3e
000003a0: 45f9 dc3e fa51 c6be 19f9 473d c719 083e
000003b0: ba97 8dbd 297d 12bf 3e5a 823d 52d8 063c
000003c0: 6452 413f b270 943e 0b1f 743e 64d5 febe
000003d0: f2e5 43bd cd96 fa3e 606e 19bf 19d5 183e
000003e0: f4de 983d c940 de3c 6ee3 133e 44bc 28be
000003f0: a184 1ebe 073f bd3e 336f 663e 6cfd a63e

shared.0.bias f4 [256]
0.01624414 -0.2564525 -0.28943098 -0.29303938 -0.04984485 0.14479645 0.015367086 0.51348644
0.111669615 -0.2931521 -0.017120942 0.11255233 0.578327 -0.113818005 -0.19960849 -0.52264
0.035732664 -0.18505919 0.01441113 0.16545099 -0.5118784 0.60602105 -0.18105677 -0.27544126
-0.15971592 0.35211936 -0.07237634 -0.05414977 0.5949757 -0.05476363 -0.23749228 -0.40007144
0.3176735 0.04950311 0.09071105 -0.17547731 0.45604268 0.012881621 -0.47450906 -0.024505116
0.52584416 -0.16200723 0.45697168 -0.23419517 0.6505883 -0.12005416 -0.0033844854 -0.11609602
-0.29825974 -0.3700222 -0.15501067 0.07541974 -0.04600421 0.11265634 0.09908809 -0.34482774
0.45979193 0.18150994 -0.056665476 0.33886483 0.69414407 -0.29535833 0.7133992 0.39297405
-0.10723401 0.14471467 0.29070038 0.39402243 0.53529704 0.21494813 0.12331711 0.1620571
0.07014967 -0.3894737 0.14957629 0.01947969 0.05416021 -0.23508425 0.22713985 -0.08338439
-0.41225123 0.55093074 0.02228365 -0.4261848 0.41515452 0.052456573 -0.096903525 -0.048911452
-0.13010232 0.14396684 0.041345138 0.031847544 0.33549565 -0.07289711 0.5521 -0.090250194
0.033646822 0.23413758 -0.3344695 -0.2085941 0.14477707 -0.22865891 0.049594317 -0.042057168
0.16215947 -0.03788965 0.51791906 -0.21029697 -0.1047274 -0.4551289 -0.33970824 -3.9019636e-05
-0.19516815 -0.21436946 -0.02009414 0.20501345 0.59385866 -0.3648236 -0.3444335 -0.5021573
-0.5758076 -0.1704312 0.22526625 0.37205008 -0.32535106 -0.09425283 -0.35184386 0.37613034
0.11208752 -0.36302093 0.20999508 -0.14576253 -0.04989144 -0.2413994 0.018973699 -0.43890554
-0.31542233 -0.04034126 -0.089824095 -0.067965634 -0.2844613 -0.062659934 -0.06941465 0.4712281
0.64202315 -0.36831224 0.3927742 0.20067574 0.01917493 0.12935382 0.27874133 0.48436123
-0.30969188 -0.26872042 0.31481844 0.24254662 0.18441403 0.45587835 -0.020181313 0.5720779
-0.62020075 -0.33790383 0.16864088 0.4537159 -0.011519047 -0.14007674 0.59225565 -0.16485807
-0.020658156 -0.10475035 0.5315141 -0.080322444 -0.27505592 -0.27087134 0.46109918 0.4744436
0.27842402 -0.33459777 0.1629491 -0.15955551 -0.17445725 -0.13891268 -0.30510944 0.6601505
-0.11183258 -0.35825822 -0.14252529 0.19543613 -0.29683 -0.04891699 -0.086871386 -0.03483141
-0.057485905 -0.35747316 0.63764185 0.13242622 0.032940388 0.052085638 -0.18370505 0.5335644
-0.17117885 -0.20164901 -0.02988819 -0.30326054 -0.07286337 -0.20026252 -0.24259736 -0.28179535
-0.38929483 -0.16857079 -0.43197483 0.5587118 0.16584851 0.073226154 0.6644467 -0.22300117
-0.032509457 -0.112536736 -0.5059526 -0.5072949 0.16853407 -0.19456784 -0.2454262 0.42628026
-0.0030244195 -0.23023757 -0.12328413 -0.2219252 -0.24987954 -0.107663475 0.66364145 0.4162676
0.74345374 -0.34175175 -0.34741277 0.62181634 -0.37027338 -0.05306034 -0.07156869 0.65144885
-0.14528668 -0.06144335 0.082008295 -0.09899107 -0.25982818 -0.11134027 -0.0050354716 -0.32212138
-0.013781067 -0.012770867 -0.18202381 0.46878153 -0.5330844 0.49457538 0.04950765 0.41277835
00000000: 6e12 853c be4d 83be 4c30 94be 4209 96be
00000010: 1d2a 4cbd 8545 143e 3bc6 7b3c d973 033f
00000020: 0ab3 e43d 0818 96be 3841 8cbc d681 e63d
00000030: 3d0d 143f 6a19 e9bd 2b66 4cbe bccb 05bf
00000040: 6a5c 123d 2880 3dbe a91c 6c3c fc6b 293e
00000050: 760a 03bf 3224 1b3f f266 39be a306 8dbe
00000060: 928c 23be fd48 b43e 0c3a 94bd 26cc 5dbd
00000070: 5450 183f d44f 60bd 2d31 73be 2ad6 ccbe
00000080: 1aa6 a23e c6c3 4a3d b7c6 b93d 53b0 33be
00000090: 6d7e e93e 6f0d 533c daf2 f2be f4be c8bc
000000a0: b99d 063f 39e5 25be 31f8 e93e dcd0 6fbe
000000b0: f48c 263f f5de f5bd 3ece 5dbb c0c3 edbd
000000c0: 80b5 98be 8d73 bdbe 1ebb 1ebe aa75 9a3d
000000d0: e96e 3cbd 5eb8 e63d b2ee ca3d 438d b0be
000000e0: d969 eb3e bedd 393e 0f1a 68bd b17f ad3e
000000f0: 6db3 313f 3539 97be 54a1 363f e533 c93e
00000100: 819d dbbd 1530 143e aed6 943e 4fbd c93e
00000110: 3a09 093f 5d1b 5c3e ae8d fc3d 4cf2 253e
00000120: a1aa 8f3d 1969 c7be 872a 193e df93 9f3c
00000130: 19d7 5d3d edb9 70be 5997 683e 6fc5 aabd
00000140: 9812 d3be cc09 0d3f 338c b63c e534 dabe
00000150: 228f d43e b4dc 563d 5b75 c6bd 6057 48bd
00000160: 8b39 05be 0b6c 133e 8559 293d 9272 023d
00000170: 16c6 ab3e 144b 95bd 6d56 0d3f 18d5 b8bd
00000180: 40d1 093d c3c1 6f3e 963f abbe b199 55be
00000190: 7140 143e 9025 6abe 6923 4b3d 2344 2cbd
000001a0: 220d 263e 2d32 1bbd 5896 043f 1758 57be
000001b0: 527b d6bd a806 e9be 3dee adbe 04a9 23b8
000001c0: 29da 47be ab83 5bbe 779c a4bc 0cef 513e
000001d0: 1f07 183f 29ca babe 9659 b0be 618d 00bf
000001e0: 2068 13bf 8485 2ebe 32ac 663e 597d be3e
000001f0: 6a94 a6be a107 c1bd e124 b4be 2894 c03e
00000200: 248e e53d e1dd b9be f308 573e c642 15be
00000210: f75a 4cbd 6831 77be bb6e 9b3c 3ab8 e0be
00000220: 097f a1be e13c 25bd b2f5 b7bd 9131 8bbd
00000230: e9a4 91be da53 80bd 4529 8ebd cf44 f13e
00000240: a15b 243f 6c93 bcbe b319 c93e f17d 4d3e
00000250: be14 9d3c 5475 043e 2fb7 8e3e 32fe f73e
00000260: ef8f 9ebe b995 89be e22f a13e 245e 783e
00000270: 08d7 3c3e e368 e93e 4853 a5bc b273 123f
00000280: 7ac5 1ebf bb01 adbe 32b0 2c3e 734d e83e
00000290: 63ba 3cbc 4770 0fbe 119e 173f 8ed0 28be
000002a0: 4b3b a9bc 5a87 d6bd 4f11 083f 1880 a4bd
000002b0: 21d4 8cbe a6af 8abe 3115 ec3e 46ea f23e
000002c0: 988d 8e3e 6650 abbe 21dc 263e 8562 23be
000002d0: eca4 32be 203f 0ebe 4e37 9cbe a0ff 283f
000002e0: 7b08 e5bd 9f6d b7be 26f2 11be 6920 483e
000002f0: 1afa 97be 2f5d 48bd a0e9 b1bd 61ab 0ebd
00000300: 5776 6bbd b906 b7be 7f3c 233f bd9a 073e
00000310: 80ec 063d c057 553d 2d1d 3cbe ad97 083f
00000320: 8249 2fbe 147d 4ebe 14d8 f4bc f744 9bbe
00000330: 6439 95bd 9e11 4dbe 716b 78be 7b47 90be
00000340: a751 c7be d29d 2cbe ce2b ddbe bd07 0f3f
00000350: 31d4 293e 98f7 953d 2e19 2a3f 6b5a 64be
00000360: a328 05bd a979 e6bd 1c86 01bf 14de 01bf
00000370: 3294 2c3e cb3c 47be 0151 7bbe 6841 da3e
00000380: 5735 46bb 66c3 6bbe 647c fcbd 5c40 63be
00000390: 6ce0 7fbe ab7e dcbd 68e4 293f 0721 d53e
000003a0: fc52 3e3f 16fa aebe 16e0 b1be 5b2f 1f3f
000003b0: 7994 bdbe cd55 59bd 9b92 92bd 5ac5 263f
000003c0: 08c6 14be 06ac 7bbd f7f3 a73d d5bb cabd
000003d0: 3308 85be 5e06 e4bd 9900 a5bb 18ed a4be
000003e0: fcc9 61bc e63c 51bc 7364 3abe 2204 f03e
000003f0: 3878 08bf fc38 fd3e 89c8 4a3d af57 d33e

shared.2.weight f4 [256, 256]
-0.121581644 -0.12614931 -0.2164195 -0.10328968 -0.41925505 0.26997924 -0.01823411 0.13082574
-0.24876975 -0.25801572 0.06043294 0.1430393 0.09771219 0.0625693 -0.26419395 -0.18824571
-0.1974802 0.023197569 -0.02540461 -0.13143289 -0.45303783 0.08714254 -0.1031297 -0.38134027
-0.092317246 -0.09924181 -0.04733578 -0.36851108 -0.1531538 -0.08994007 -0.11275047 -0.2663635
-0.13213842 -0.0026611334 -0.04934624 0.095869005 -0.06107498 0.025270494 -0.15908217 -0.17958522
0.09261887 -0.115632966 -0.011997491 -0.078595616 0.17188936 -0.21399692 -0.0869061 -0.07838629
-0.07883745 -0.06805392 -0.27168557 -0.24225822 0.027122332 -0.2835996 -0.04027331 -0.26797238
0.094673336 -0.10650327 -0.18205793 0.054128505 0.108396344 -0.31845024 0.060518228 0.036844242
-0.0928883 0.09391238 0.044606842 -0.14860283 0.087365165 -0.27088946 0.12942496 -0.15637177
0.014671561 -0.18184395 -0.16879508 -0.0138512105 0.052277807 0.02109751 -0.22025624 -0.030190663
-0.2653493 0.078094415 0.045665834 -0.23624946 0.061096683 0.030934505 0.028307963 -0.17054789
0.2393546 -0.30591798 -0.009507336 0.1117878 -0.11893931 0.021236151 0.12130671 -0.0023793357
0.07539871 0.074952304 0.0257837 -0.21025065 0.0425433 -0.12881385 -0.15576978 0.053615138
0.054088462 -0.42187265 -0.17559046 0.0018866821 0.11762415 -0.13590269 -0.053415194 -0.25734457
-0.17537542 -0.100202896 0.063437104 -0.014960574 0.055498242 -0.22426249 -0.2588587 -0.26197088
-0.20419489 -0.069741055 -0.009369439 0.11033179 0.014326309 -0.5011416 -0.3133226 -0.00050567614
-0.13005379 0.045756664 -0.066302694 0.01758526 -0.18465352 -0.1949646 -0.04048494 -0.2655246
-0.031372294 0.04620204 0.036927376 -0.24899527 -0.012722075 -0.07953438 -0.1288702 0.05438813
-0.1072098 -0.3856147 0.11783361 -0.2230202 -0.21737602 -0.020844541 -0.060989533 -0.043834474
-0.05534066 -0.453409 -0.027571129 0.039443053 0.0797601 -0.09110437 0.096817665 0.017213691
-0.34980422 -0.14790274 -0.016945563 0.068533145 -0.0024036402 -0.29271108 -0.28250244 0.14718378
0.11061744 0.07485102 0.0571012 -0.07051859 -0.36894655 -0.3422844 -0.10132546 0.17073877
0.011831567 0.0405391 0.13628629 -0.119816124 -0.05237859 0.02811488 0.5777742 0.1344245
0.005827683 -0.014615491 0.018053913 -0.16415693 0.021126319 -0.36128795 -0.037536215 0.18139936
-0.021275125 -0.19128367 -0.013646428 -0.10924017 0.031931233 -0.22025384 -0.0097183995 -0.1362145
0.06489799 -0.12129104 -0.28544793 -0.14725237 -0.14445229 -0.18040687 0.051485036 -0.21074596
-0.23436932 0.028494174 -0.11713255 0.037239973 0.05122223 -0.060574785 0.03548946 -0.14781563
0.044881962 0.01811915 -0.23356153 -0.22543626 0.051906068 -0.07292263 0.03828175 0.015000554
-0.085250184 -0.08623956 0.044961892 -0.17208076 -0.12295195 -0.03431806 0.018573312 -0.15277559
0.031210922 -0.4784923 -0.06841892 0.049721707 -0.32571074 -0.5254683 0.05809322 0.028909734
-0.40735656 -0.031874593 0.032752227 -0.069681466 0.09778602 -0.22576702 -0.07023836 0.0016745747
0.04935291 0.02675074 -0.231206 -0.086397864 -0.2677521 -0.057285134 0.045533855 -0.032494206
00000000: ccff f8bd 492d 01be 139d 5dbe 8a89 d3bd
00000010: 99a8 d6be b83a 8a3e b35f 95bc 2ff7 053e
00000020: 7fbd 7ebe a31a 84be 8888 773d e578 123e
00000030: 541d c83d 5524 803d 6e44 87be 7cc3 40be
00000040: 4038 4abe d408 be3c 541d d0bc 5896 06be
00000050: 93f4 e7be ca77 b23d aa35 d3bd 083f c3be
00000060: d310 bdbd 4a3f cbbd 2ae3 41bd 7cad bcbe
00000070: 5ad4 1cbe 8032 b8bd b8e9 e6bd cc60 88be
00000080: 4b4f 07be 6966 2ebb 481f 4abd f856 c43d
00000090: c229 7abd 1104 cf3c 70e6 22be 30e5 37be
000000a0: f6ae bd3d fad0 ecbd 2091 44bc bdf6 a0bd
000000b0: c403 303e 0222 5bbe d3fb b1bd fe88 a0bd
000000c0: 8775 a1bd db5f 8bbd 5f1a 8bbe 8a12 78be
000000d0: a72f de3c f733 91be a0f5 24bd ad33 89be
000000e0: 18e4 c13d 631e dabd 656d 3abe dab5 5d3d
000000f0: e7fe dd3d e90b a3be f6e1 773d fde9 163d
00000100: 393c bebd 2255 c03d aab5 363d 572b 18be
00000110: 82ec b23d 06b2 8abe fa87 043e ec1f 20be
00000120: fd60 703c 4d35 3abe 9ed8 2cbe 30f0 62bc
00000130: 4121 563d afd4 ac3c da8a 61be 6952 f7bc
00000140: dddb 87be f7ef 9f3d 190c 3b3d 61eb 71be
00000150: 8440 7a3d 5c6a fd3c 1ae6 e73c 1ba4 2ebe
00000160: 5f19 753e 48a1 9cbe a8c4 1bbc 01f1 e43d
00000170: 7496 f3bd 70f7 ad3c a76f f83d a1ee 1bbb
00000180: a46a 9a3d 9880 993d 5738 d33c f24b 57be
00000190: e241 2e3d c7e7 03be 1d82 1fbe 8c9b 5b3d
000001a0: dd8b 5d3d b1ff d7be fccd 33be 8c4a f73a
000001b0: eee4 f03d 132a 0bbe e4c9 5abd abc2 83be
000001c0: 9d95 33be 2d37 cdbd 50eb 813d 321d 75bc
000001d0: 2052 633d 11a5 65be 2189 84be 0c21 86be
000001e0: 7718 51be 66d4 8ebd 4782 19bc a2f5 e13d
000001f0: e5b8 6a3c d14a 00bf d26b a0be 5a8f 04ba
00000200: d22c 05be 576b 3b3d b5c9 87bd f70e 903c
00000210: d015 3dbe cda4 47be 89d3 25bd d7f2 87be
00000220: 3c80 00bd 5a3e 3d3d 2941 173d 9ef8 7ebe
00000230: 4070 50bc ece2 a2bd 8df6 03be 16c6 5e3d
00000240: d090 dbbd 4a6f c5be bf52 f13d 685f 64be
00000250: d297 5ebe 2cc2 aabc 29d0 79bd c78b 33bd
00000260: e3ac 62bd 3925 e8be d9dc e1bc 0a8f 213d
00000270: 4359 a33d ee94 babd 5748 c63d ba03 8d3c
00000280: 8a19 b3be d173 17be 6cd1 8abc 1b5b 8c3d
00000290: 6486 1dbb 3ade 95be 29a4 90be 58b7 163e
000002a0: 658b e23d 7e4b 993d f3e2 693d 0d6c 90bd
000002b0: 90e6 bcbe e73f afbe b983 cfbd 25d6 2e3e
000002c0: 30d9 413c 540c 263d a28e 0b3e 2862 f5bd
000002d0: ef8a 56bd 2d51 e63c 03e9 133f 93a6 093e
000002e0: 26f6 be3b d075 6fbc cde5 933c c118 28be
000002f0: 1a11 ad3c bcfa b8be 93bf 19bd c1c0 393e
00000300: 2c49 aebc dedf 43be 4495 5fbc 4fb9 dfbd
00000310: 53ca 023d 398a 61be ec39 1fbc d07b 0bbe
00000320: 3de9 843d 7067 f8bd 3b26 92be 53c9 16be
00000330: 4deb 13be 94bc 38be f9e1 523d cacd 57be
00000340: 83fe 6fbe 9d6c e93c 31e3 efbd f188 183d
00000350: 67ce 513d 441d 78bd 655d 113d fb5c 17be
00000360: 26d6 373d 9d6e 943c c12a 6fbe c3d8 66be
00000370: 759b 543d 7658 95bd 53cd 1c3d e2c4 753c
00000380: a697 aebd 5e9e b0bd f629 383d f035 30be
00000390: 3bce fbbd 1891 0cbd 0f27 983c 3471 1cbe
000003a0: 0cae ff3c f1fc f4be 381f 8cbd fda8 4b3d
000003b0: 8fc3 a6be 1785 06bf 28f3 6d3d 1bd4 ec3c
000003c0: 0a91 d0be ef8e 02bd 3327 063d 28b5 8ebd
000003d0: 0944 c83d 782f 67be 21d9 8fbd 677d db3a
000003e0: 4726 4a3d 5e24 db3c 44c1 6cbe 5df1 b0bd
000003f0: ce16 89be d1a3 6abd b581 3a3d a518 05bd

shared.2.bias f4 [256]
0.093734145 0.3213225 -0.06614221 0.23752056 0.030169547 -0.078595035 -0.3438592 -0.1337273
0.027970402 0.040374845 0.14523825 0.017488996 0.0029083102 -0.11981147 0.16011368 0.034402963
-0.045461394 0.04957392 -0.024894087 -0.028264802 0.036601193 0.030506011 -0.0074760388 0.04686084
0.024355184 0.2734153 -0.0027233658 -0.039089736 0.22830434 -0.026607223 0.28823206 0.018550813
-0.20407413 0.087733135 0.18194263 -0.09445954 -0.047051385 -0.12430435 0.032290027 0.1729673
-0.024873974 0.313758 -0.0021493419 0.20217101 -0.088536926 -0.07760919 -0.008517686 0.12498786
0.09364803 -0.06834522 -0.02648128 -0.09499363 -0.0020687045 0.29958478 0.06550026 -0.012139661
0.15650973 0.23568209 0.12173608 0.00455822 -0.025910163 0.09771321 0.07192317 0.120717585
0.027592652 -0.18965267 -0.007737632 -0.024342373 0.19041671 0.025124988 -0.08408113 0.32448027
0.122974664 -0.08014805 0.16164482 -0.074184224 0.127694 -0.02231358 -0.034197923 0.2310502
0.09717265 -0.13399419 -0.033689033 -0.019804005 -0.19180495 0.031213092 0.016968615 -0.010259979
0.031465307 0.033911753 0.2950472 0.33814937 -0.01314379 0.14042862 0.13186209 -0.114043176
-0.07969219 0.0047726287 0.026886329 -0.12433491 -0.09639964 0.30784628 -0.32157153 -0.11039954
-0.05109667 -0.023036297 -0.23468557 0.31917417 0.029901735 -0.0096018175 -0.1233797 -0.08576622
-0.13008513 0.17008068 0.023894096 0.25789964 -0.05823371 0.35681248 0.073666744 0.014859398
0.0241224 0.3512635 -0.06874957 -0.105394684 0.019756561 -0.1939647 0.036254626 0.08099655
0.25783026 0.2095888 -0.15543045 -0.03902831 -0.05180649 -0.12686066 -0.023824073 0.01825627
-0.03304984 0.3231419 0.060936183 0.1165851 -0.18598245 -0.08871205 -0.09730433 0.05943608
-0.0525889 0.18410899 -0.02453297 0.172801 -0.08026152 -0.14344329 0.06739065 0.04776457
0.006470091 0.35686308 0.12527676 -0.103424884 -0.34621647 0.008783398 -0.014867609 -0.05467003
0.0013727954 0.22581337 -0.0035925435 0.116107635 0.07599292 -0.019295758 -0.17145513 0.035724357
-0.13975425 0.066183 -0.022021336 -0.08324674 -0.082718104 0.1811926 0.03026653 -0.09695075
0.082883425 -0.07203478 0.2777521 -0.058444142 0.05690093 0.118784025 0.18513557 0.1463726
0.13362561 -0.061542265 0.25564367 -0.018110197 -0.07765024 -0.022980513 0.28511712 -0.049475968
-0.025927095 0.30548954 -0.08069248 -0.03679292 0.06712913 -0.019698475 -0.046530228 0.037569664
-0.040835008 0.30941978 0.022921382 -0.0057716025 0.06587916 0.019568434 0.08032625 0.05171131
-0.028230902 0.07016087 0.10847058 -0.0918562 0.20626776 -0.09504797 -0.0042929533 -0.051047783
-0.044649746 -9.45082e-05 0.15404579 0.34105965 0.08452872 0.1957362 0.33039647 0.05957878
-0.053135555 0.017813941 0.11659217 0.28745723 -0.013217094 -0.14779708 -0.032264486 0.009695841
-0.054561023 0.032624964 -0.00301677 -0.20100237 0.019205244 0.018458746 0.19923665 -0.2554888
0.0009188949 -0.046539035 -0.20544595 -0.1801225 0.0070550037 -0.21502985 -0.039407432 -0.15406622
-0.06486829 0.017179472 0.06068797 -0.027258063 -0.037307356 0.03361104 -0.043277275 -0.031763643
00000000: b0f7 bf3d 6284 a43e 9175 87bd 9738 733e
00000010: 2026 f73c 6ff6 a0bd 500e b0be cfef 08be
00000020: 2f22 e53c 1860 253d 56b9 143e 1545 8f3c
00000030: 5999 3e3b b75f f5bd d7f4 233e 1fea 0c3d
00000040: ba35 3abd 060e 4b3d afee cbbc 968b e7bc
00000050: 22eb 153d bee7 f93c 8ff9 f4bb 27f1 3f3d
00000060: 8684 c73c 17fd 8b3e 7f7a 32bb 8f1c 20bd
00000070: 9dc8 693e 64f7 d9bc 2793 933e e0f7 973c
00000080: cff8 50be 6ead b33d 2b4f 3a3e 0174 c1bd
00000090: f4b8 40bd 4793 febd 8c42 043d 571e 313e
000000a0: 81c4 cbbc e3a4 a03e f9db 0cbb eb05 4f3e
000000b0: d952 b5bd 91f1 9ebd c48d 0bbc a3f9 ff3d
000000c0: 8aca bf3d 94f8 8bbd 45ef d8bc 058c c2bd
000000d0: 1a93 07bb 2d63 993e 0025 863d 6ee5 46bc
000000e0: 1644 203e a556 713e c450 f93d 1f5d 953b
000000f0: 8d41 d4bc dd1d c83d 744c 933d c83a f73d
00000100: fc09 e23c 4f34 42be f68b fdbb a869 c7bc
00000110: 99fc 423e ebd2 cd3c ba32 acbd 4722 a63e
00000120: 24da fb3d a924 a4bd 3886 253e e6ed 97bd
00000130: 37c2 023e f8ca b6bc 1f13 0cbd 6c98 6c3e
00000140: 7402 c73d c635 09be 83fd 09bd 023c a2bc
00000150: 8468 44be 99b2 ff3c c401 8b3c 7919 28bc
00000160: c4e1 003d 0de7 0a3d 6d10 973e ea21 ad3e
00000170: 0d59 57bc 85cc 0f3e db06 073e 788f e9bd
00000180: a935 a3bd b663 9c3b b840 dc3c 4da3 febd
00000190: 2d6d c5bd 079e 9d3e 06a5 a4be 2719 e2bd
000001a0: be4a 51bd 9eb6 bcbc 6a51 70be cc6a a33e
000001b0: 7cf4 f43c f150 1dbc 7fae fcbd 33a6 afbd
000001c0: 0935 05be a129 2e3e 8dbd c33c 6c0b 843e
000001d0: 7886 6ebd 20b0 b63e 97de 963d d574 733c
000001e0: 579c c53c cfd8 b33e 93cc 8cbd 2bd9 d7bd
000001f0: 83d8 a13c af9e 46be bb7f 143d 85e1 a53d
00000200: 5402 843e 729e 563e 2929 1fbe 26dc 1fbd
00000210: 0b33 54bd c3e7 01be b42a c3bc 2c8e 953c
00000220: 455f 07bd db72 a53e 3898 793d 2bc4 ee3d
00000230: 2f72 3ebe aaae b5bd 7e47 c7bd 3f73 733d
00000240: 7567 57bd 1187 3c3e 5ef9 c8bc bff2 303e
00000250: 2760 a4bd cce2 12be 1c04 8a3d c8a4 433d
00000260: 0f03 d43b c2b6 b63e 8d48 003e 6dd0 d3bd
00000270: 4943 b1be 3ee8 0f3c 4697 73bc aeed 5fbd
00000280: 5fef b33a 9f3b 673e e170 6bbb d7c9 ed3d
00000290: 2da2 9b3d 2312 9ebc ef91 2fbe b453 123d
000002a0: bd1b 0fbe f48a 873d 1766 b4bc 447d aabd
000002b0: 1c68 a9bd 8e8a 393e 84f1 f73c 1d8e c6bd
000002c0: c9be a93d f986 93bd 8635 8e3e 2063 6fbd
000002d0: f310 693d 0a45 f33d 2e94 3d3e b3e2 153e
000002e0: 27d5 083e be13 7cbd bae3 823e d65b 94bc
000002f0: 1707 9fbd a141 bcbc dffa 913e 50a7 4abd
00000300: 0f65 d4bc 2069 9c3e 1942 a5bd 2cb4 16bd
00000310: ff7a 893d b25e a1bc 7b96 3ebd a6e2 193d
00000320: 9c42 27bd 456c 9e3e 9fc5 bb3c b61f bdbb
00000330: a7eb 863d fb4d a03c 1782 a43d 3dcf 533d
00000340: 7e44 e7bc 81b0 8f3d d325 de3d 1a1f bcbd
00000350: db37 533e 83a8 c2bd e7ab 8cbb 7b17 51bd
00000360: a7e2 36bd b432 c6b8 2ebe 1d3e 5f9f ae3e
00000370: 651d ad3d 126f 483e ba29 a93e e108 743d
00000380: aba4 59bd 8bee 913c e0c7 ee3d 982d 933e
00000390: 838c 58bc 1e58 17be c427 04bd 4edb 1e3c
000003a0: 617b 5fbd c1a1 053d 00b5 45bb 91d3 4dbe
000003b0: 5154 9d3c cc36 973c b104 4c3e 6ecf 82be
000003c0: fee1 703a b79f 3ebd 6c60 52be 0872 38be
000003d0: a92d e73b c930 5cbe b069 21bd 89c3 1dbe
000003e0: abd9 84bd f7bb 8c3c f393 783d 4d4c dfbc
000003f0: 99cf 18bd bbab 093d 8343 31bd 981a 02bd

actor.weight f4 [3, 256]
0.10594976 -0.056304324 -0.081268795 0.010960443 -0.39742574 -0.0653941 0.0014683283 -0.020966398
0.03428403 0.035333317 0.3167212 -0.016746074 0.19947354 -0.017302392 0.29625177 -0.059576754
0.15443508 0.0058489647 0.00974662 0.035839412 0.07808344 0.067834824 -0.16974582 -0.00019936956
-0.00489666 -0.003215176 0.033101678 0.056046486 -0.17745642 0.011460952 -0.25266278 0.013354394
0.07017727 -0.004218682 0.46862575 -0.016664527 0.1196349 -0.0846535 -0.20959218 -0.08965506
0.043784596 0.05501283 -0.04837565 0.10094848 0.09495816 0.018928273 0.09449579 0.21876667
0.08026117 0.11739183 -0.16142403 -0.11388407 0.031737722 0.24736138 0.30531216 0.086584434
-0.06975935 0.38266695 0.28554964 -0.029261163 -0.0136501435 0.21164899 -0.24679744 -0.050197605
-0.5317199 0.005542453 -0.0018962836 -0.016378885 0.3173996 -0.0061600828 0.03618841 0.28546074
0.041972145 -0.26386368 -0.3897005 0.06572052 -0.022027941 0.0037805357 0.02095583 0.19155528
0.054148994 0.0051734364 -0.032333948 0.044702347 0.0056472677 0.21014479 0.21604039 0.04987055
-0.039678257 0.22135419 -0.053536396 0.18748571 0.022370387 0.08930785 0.17958534 0.073633954
-0.0321769 -0.017536111 0.060346242 0.037854347 0.11531357 0.06421679 -0.016213126 -0.018594176
-0.1594431 0.0373155 -0.052021492 -0.30610427 -0.30314887 -0.006183119 0.09597875 0.07164855
0.11056031 0.07294136 0.20871906 -0.04062097 0.31749007 0.04036123 0.123210356 -0.19805107
0.041166432 0.09911915 0.0055205747 0.028338784 -0.038125414 -0.05576125 -0.13286129 0.01197153
-0.021008333 0.15494318 -0.023830846 0.045061793 -0.05430696 0.02857701 0.033597 -0.16216825
0.17068641 -0.57865185 -0.3121021 -0.01635565 0.09266603 -0.024695383 -0.04786692 0.44144544
0.008958365 0.4091728 0.030529404 0.21824671 0.022445558 -0.023159513 0.02119836 0.027521824
0.07613284 -0.11923813 -0.111764275 0.0072277635 0.005158078 -0.02324063 0.013896521 0.016878981
0.03175209 0.09424606 -0.056581214 0.084864676 0.11987715 0.038041655 -0.05959882 0.04684991
0.11952873 0.24732561 0.07754732 -0.00057311746 -0.020837268 0.21898702 -0.016263982 0.003665719
-0.09012352 0.20382918 0.23228328 -0.044849038 0.010959633 -0.09699552 0.066464745 0.1540863
-0.02282104 -0.051781297 -0.08345295 0.052681644 0.041998245 -0.0819828 0.2284367 -0.029472262
0.020388033 0.030749878 0.0036246935 -0.07304802 -0.10683916 0.020624904 0.018369747 0.025636002
0.0063310894 0.040433776 0.1673205 -0.13282625 -0.04865186 0.064987265 0.3963024 -0.1399919
0.045229074 0.01981756 0.11942719 0.10279095 0.0024169122 0.122278914 0.03899388 -0.12368315
0.031508844 -0.08187183 0.39831942 -0.47469962 0.50744724 -0.33293054 0.061471093 -0.19984837
0.23361962 -0.11043943 0.10850026 0.036160514 -0.10718294 0.056162834 0.18882582 -0.29372075
0.04937087 -0.050409816 -0.031671308 0.055239156 -0.0049762214 0.024403412 -0.36142743 0.18092456
0.048919596 -0.0033535447 0.06300049 0.018990869 -0.02693814 0.23648116 0.019614546 0.038863737
-0.07378112 0.5269546 -0.13894032 -0.5768002 -0.095933124 0.20522356 -0.009710288 0.009253348
00000000: 30fc d83d 5d9f 66bd 4170 a6bd 6e93 333c
00000010: 637b cbbe 58ed 85bd ec74 c03a b9c1 abbc
00000020: 696d 0c3d abb9 103d 4829 a23e 102f 89bc
00000030: cb42 4c3e bfbd 8dbc 50ae 973e c106 74bd
00000040: 3b24 1e3e aca8 bf3b 4ab0 1f3c 59cc 123d
00000050: 36ea 9f3d fcec 8a3d d9d1 2dbe dc0d 51b9
00000060: 2974 a0bb b4b5 52bb a095 073d 0091 653d
00000070: 23b7 35be b8c6 3b3c 045d 81be 63cc 5a3c
00000080: 1ab9 8f3d df3c 8abb b7ef ef3e 0c84 88bc
00000090: 2403 f53d d05e adbd 559f 56be 129d b7bd
000000a0: 7a57 333d 2255 613d 8c25 46bd 14be ce3d
000000b0: 6c79 c23d 770f 9b3c 0287 c13d 5f04 603e
000000c0: f85f a43d 216b f03d 574c 25be 0d3c e9bd
000000d0: 6aff 013d 4d4c 7d3e e051 9c3e 2e53 b13d
000000e0: fddd 8ebd ecec c33e 9033 923e 1bb5 efbc
000000f0: daa4 5fbc 83ba 583e 78b8 7cbe 019c 4dbd
00000100: cc1e 08bf 779d b53b b88c f8ba 032d 86bc
00000110: 3382 a23e 85da c9bb 4c3a 143d e927 923e
00000120: fcea 2b3d 2419 87be d386 c7be 7b98 863d
00000130: f173 b4bc ddc2 773b 90ab ab3c 1127 443e
00000140: 56cb 5d3d ee85 a93b 9a70 04bd cf19 373d
00000150: b70c b93b 3230 573e b139 5d3e 1045 4c3d
00000160: ab85 22bd acaa 623e fb48 5bbd 41fc 3f3e
00000170: 1a42 b73c 09e7 b63d 38e5 373e 66cd 963d
00000180: edcb 03bd e4a7 8fbc 9f2d 773d 290d 1b3d
00000190: 8529 ec3d 1884 833d 64d1 84bc d052 98bc
000001a0: 0d45 23be 23d8 183d 7d14 55bd b3b9 9cbe
000001b0: 5436 9bbe c39b cabb 8290 c43d 7abc 923d
000001c0: 726d e23d 4862 953d 73ba 553e 2d62 26bd
000001d0: 0f8e a23e d151 253d b655 fc3d e6cd 4abe
000001e0: 229e 283d fbfe ca3d f0e5 b43b bd26 e83c
000001f0: 6529 1cbd e965 64bd ca0c 08be 3c24 443c
00000200: ab19 acbc 6da9 1e3e e838 c3bc b792 383d
00000210: fa70 5ebd 551a ea3c 029d 093d 6f0f 26be
00000220: 6bc8 2e3e 8722 14bf d9cb 9fbe 49fc 85bc
00000230: b0c7 bd3d f94d cabc 1a10 44bd 2305 e23e
00000240: 1bc6 123c 197f d13e cd18 fa3c 117c 5f3e
00000250: bfdf b73c 05b9 bdbc 2fa8 ad3c 7375 e13c
00000260: 89eb 9b3d 1f33 f4bd abe4 e4bd e0d6 ec3b
00000270: 1805 a93b 2263 bebc 3cae 633c ca45 8a3c
00000280: 7b0e 023d 1404 c13d b4c1 67bd 88cd ad3d
00000290: 2782 f53d 91d1 1b3d e41d 74bd b1e5 3f3d
000002a0: 7bcb f43d ed42 7d3e 21d1 9e3d 433d 16ba
000002b0: ebb2 aabc 223e 603e 0b3c 85bc 8f3c 703b
000002c0: ae92 b8bd 99b8 503e abdb 6d3e a0b3 37bd
000002d0: 0890 333c 96a5 c6bd ab1e 883d cdc8 1d3e
000002e0: 31f3 babc a018 54bd 61e9 aabd b5c8 573d
000002f0: 5a06 2c3d 99e6 a7bd 4feb 693e d06f f1bc
00000300: ce04 a73c 2be7 fb3c 448c 6d3b 339a 95bd
00000310: 7dce dabd 8ff5 a83c 277c 963c 9802 d23c
00000320: 0775 cf3b e39d 253d 1156 2b3e 9b03 08be
00000330: 2c47 47bd 0b18 853d 26e8 ca3e 095a 0fbe
00000340: 1f42 393d 7058 a23c 3e96 f43d 1084 d23d
00000350: 0f65 1e3b 5e6d fa3d 0cb8 1f3d 974d fdbd
00000360: 6b0f 013d 6bac a7bd 86f0 cb3e d40b f3be
00000370: 10e8 013f df75 aabe 1dc9 7b3d 0da5 4cbe
00000380: fb39 6f3e 112e e2bd 6235 de3d 0c1d 143d
00000390: bb82 dbbd 000b 663d 8e5b 413e 9162 96be
000003a0: 1c39 4a3d 867a 4ebd c6b9 01bd 7442 623d
000003b0: 920f a3bb aae9 c73c 040d b9be 4a44 393e
000003c0: ea5f 483d 25c7 5bbb 6706 813d bd92 9b3c
000003d0: 60ad dcbc 1e28 723e afae a03c 952f 1f3d
000003e0: 8e1a 97bd 7fe6 063f 5f46 0ebe 2ea9 13bf
000003f0: 9678 c4bd 2026 523e e617 1fbc 5b9b 173c

actor.bias f4 [3]
0.06137994 -0.0069051017 0.011407118
00000000: 8869 7b3d 3144 e2bb ece4 3a3c

critic.weight f4 [1, 256]
-0.37523478 0.08162509 -0.32855624 0.044015247 0.01016088 -0.0050180377 0.032828905 -0.6705041
0.041541163 -0.4905138 -0.44780445 0.025879553 0.083548374 -0.6652503 0.14260247 -0.007777865
-0.20329084 -0.47233745 0.0013320181 -0.044968292 -0.43685785 -0.104541756 0.5370039 0.025894579
0.0068267714 0.2770399 -0.0012784327 0.3543619 0.22164054 0.0358352 0.14497209 0.027085928
0.004886122 0.019517316 -0.38760233 -0.48291668 0.16529764 -0.75128657 -0.30731916 0.037804384
0.03514492 0.17373785 0.061603993 0.014368714 0.16985674 -0.03086411 -0.16205196 0.46494064
-0.19155405 0.03318087 -0.37730104 0.0025611618 0.035253562 0.1950245 -0.11430819 0.16738772
-0.16774611 0.18980733 -0.21267413 0.028205266 -0.049872376 -0.1224109 0.02039851 0.04971661
0.454282 -0.7667373 -0.53768045 -0.44583666 -0.48243764 0.05840633 -0.6197986 0.18282667
-0.16605848 0.1994089 -0.21199796 0.07245397 -0.34813413 0.037999596 0.042570278 0.3109689
-0.2216152 0.06603959 0.051661223 0.03721825 0.06442366 -0.2101245 0.025517166 0.041329768
0.03791111 -0.025510442 0.13768953 0.07158243 0.024798129 -0.33620456 -0.274034 0.09272633
0.0634426 0.022658918 0.035010885 -0.66200376 -0.0074395747 0.13460408 -0.003793877 0.053912394
0.052931454 0.011689326 -0.008031353 0.22824112 0.35182133 0.037723564 -0.3856398 0.13233855
0.1271299 0.046458546 -0.07310727 0.03237012 0.43185252 0.21715192 -0.23115486 0.11300828
-0.08068298 0.14589667 0.10271153 0.0011619454 0.08996735 -0.87180114 0.049211513 -0.240439
0.21720812 -0.38477144 -0.6203407 0.00031817215 0.035336215 0.05472402 0.02707951 0.0026439598
-0.36581808 0.5303847 0.011666455 -0.2210684 0.061026443 -0.0066889636 -0.58210766 0.11683179
0.04078367 -0.19941227 0.003008907 -0.27984664 0.006563479 -0.75287837 -0.14313972 -0.1584634
-0.14080916 0.1881331 0.009128479 -0.4148108 0.15775855 0.023555866 0.034648772 0.00045362703
-0.03545442 0.08035535 0.06436878 0.09344878 -0.2732793 -0.7946946 0.08941704 0.0033027688
0.04771133 0.08110109 -0.5075889 -0.013417715 -0.5733422 -0.46692887 0.0038188668 -0.009256912
-0.1497029 0.08981015 0.2838288 -0.061645184 -0.12373922 -0.12139818 0.080994666 -0.44609913
0.019218856 -0.06340892 0.27613863 0.0074251774 0.027668143 0.06964624 0.22209513 0.04780367
0.050760467 0.21608767 -0.6969153 -0.22226584 -0.10726849 -0.014116156 0.11269439 0.043180298
0.02264787 0.0944289 -0.076982364 -0.003401483 -0.022223175 -0.52651274 -0.19123729 -0.29312998
-0.59713936 -0.2109741 -0.06787176 0.074808545 0.060718264 -0.00046253332 -0.02748292 0.115147874
-0.026119154 -0.4689377 -0.15583599 0.41854456 -0.0013966386 0.17897658 0.23652667 0.01304041
0.23146085 -0.07802712 0.052514806 0.1059884 0.020874515 -0.76209635 -0.0036767344 -0.010598908
-0.43844694 -0.36417428 0.514599 -0.17590624 0.026462227 0.017575467 0.16367355 0.039968986
0.05394175 -0.17403944 0.034466546 -0.018560316 0.028069587 0.18736744 0.05648086 -0.7789465
-0.021273227 0.1752198 -0.07475288 0.33745122 0.0019000852 -0.14163807 -0.56230634 0.039427944
00000000: c61e c0be 0e2b a73d 8638 a8be 5549 343d
00000010: d279 263c 5a6e a4bb 9a77 063d 28a6 2bbf
00000020: 1127 2a3d a024 fbbe a046 e5be 5b01 d43c
00000030: 691b ab3d d84d 2abf 6206 123e 76dd febb
00000040: 792b 50be 37d6 f1be 1c97 ae3a ac30 38bd
00000050: d5ab dfbe fd19 d6bd 1679 093f de20 d43c
00000060: 1cb3 df3b 2cd8 8d3e 1591 a7ba ec6e b53e
00000070: bdf5 623e eec7 123d 9073 143e 4fe3 dd3c
00000080: c31b a03b c7e2 9f3c d073 c6be db40 f7be
00000090: c943 293e 5154 40bf f058 9dbe c5d8 1a3d
000000a0: 1ff4 0f3d 56e8 313e 7854 7c3d c16a 6b3c
000000b0: edee 2d3e bbd6 fcbc f3f0 25be b30c ee3e
000000c0: bf26 44be aae8 073d 9a2d c1be 2ad9 273b
000000d0: 0a66 103d 81b4 473e 6a1a eabd b067 2b3e
000000e0: a3c5 2bbe da5c 423e 3fc7 59be bb0e e73c
000000f0: fa46 4cbd 91b2 fabd c71a a73c a5a3 4b3d
00000100: a697 e83e e548 44bf 6da5 09bf b444 e4be
00000110: 1102 f7be 7a3b 6f3d 1fab 1ebf ea36 3b3e
00000120: 3c0b 2abe d931 4c3e fe15 59be bf62 943d
00000130: a33e b2be 77a5 1b3d 2c5e 2e3d 5137 9f3e
00000140: 18ef 62be c43f 873d b89a 533d 2a72 183d
00000150: 8df0 833d e02a 57be 6009 d13c 6749 293d
00000160: ae48 1b3d 46fb d0bc 7cfe 0c3e cf99 923d
00000170: 7225 cb3c 0123 acbe 2f4e 8cbe 4de7 bd3d
00000180: 32ee 813d 329f b93c 9367 0f3d 1479 29bf
00000190: adc7 f3bb a7d5 093e b2a2 78bb 3ed3 5c3d
000001a0: a7ce 583d 9684 3f3c f095 03bc 0ab8 693e
000001b0: ed21 b43e 0684 1a3d 9472 c5be c283 073e
000001c0: 572e 023e 514b 3e3d 44b9 95bd 8896 043d
000001d0: c61b dd3e 135d 5e3e dcb3 6cbe e370 e73d
000001e0: 1e3d a5bd f065 153e 6c5a d23d 6b4c 983a
000001f0: cd40 b83d 5c2e 5fbf 0392 493d a435 76be
00000200: ce6b 5e3e c300 c5be a6ce 1ebf 58d0 a639
00000210: b5bc 103d 4b26 603d d9d5 dd3c 4946 2d3b
00000220: 824c bbbe 4bc7 073f a924 3f3c c15f 62be
00000230: ddf6 793d 182f dbbb 0205 15bf 8145 ef3d
00000240: c70c 273d bb32 4cbe 1531 453b 0f48 8fbe
00000250: 7412 d73b a3bc 40bf 3893 12be 3b44 22be
00000260: 4730 10be f7a5 403e 9e8f 153c 1562 d4be
00000270: 758b 213e 3bf8 c03c dfeb 0d3d cad4 ed39
00000280: a738 11bd 5991 a43d c7d3 833d 1362 bf3d
00000290: 44eb 8bbe 1b71 4bbf 4820 b73d 4473 583b
000002a0: f56c 433d 5418 a63d 59f1 01bf fad5 5bbc
000002b0: 8ec6 12bf 4d11 efbe f445 7a3b 4eaa 17bc
000002c0: b84b 19be 62ee b73d 0252 913e a97f 7cbd
000002d0: fd6a fdbd 9c9f f8bd 88e0 a53d 1b67 e4be
000002e0: dd70 9d3c 89dc 81bd 0b62 8d3e e74e f33b
000002f0: 4da8 e23c b0a2 8e3d e86c 633e c8cd 433d
00000300: 35ea 4f3d 1646 5d3e 0b69 32bf a899 63be
00000310: 95af dbbd 7347 67bc 51cc e63d d3dd 303d
00000320: 0788 b93c f063 c13d eea8 9dbd 6aeb 5ebb
00000330: 600d b6bc 8ac9 06bf b5d3 43be 2215 96be
00000340: 20de 18bf 9809 58be 5900 8bbd 3935 993d
00000350: b7b3 783d 2c80 f2b9 dc23 e1bc a6d2 eb3d
00000360: d6f7 d5bc 9a18 f0be 7893 1fbe 794b d63e
00000370: 6a0f b7ba a345 373e 0c34 723e 72a7 553c
00000380: 1304 6d3e afcc 9fbd c419 573d 7210 d93d
00000390: 0801 ab3c bf18 43bf 5ef5 70bb 0ba7 2dbc
000003a0: 1e7c e0be 0d75 babe c3bc 033f c420 34be
000003b0: 50c7 d83c 6dfa 8f3c 0a9a 273e 85b6 233d
000003c0: 06f2 5c3d 6537 32be cb2c 0d3d ce0b 98bc
000003d0: 31f2 e53c 40dd 3f3e 7958 673d 0a69 47bf
000003e0: 3145 aebc d26c 333e 0a18 99bd 68c6 ac3e
000003f0: 480c f93a 9209 11be 4ff3 0fbf 327f 213d
