Experimenten/Experiment1Snake/PPO/ppo_snake_2500.pth (torch, 280852 bytes, 7 tensors)

shared.0.weight f4 [256, 9]
00000000: 3d82 4c3e 5108 8fbd 5cd3 d23e 06f9 42be
00000010: e398 a13c 6cdd 453d 63d2 043f 165b b63e
00000020: 9835 c6bd d3c6 a5be 3e76 313e 53ed 043d
00000030: f820 82be 088b f3bc 4d0e 9fbe 2e17 d93d
00000040: 19ae 90be aa46 a5be 22b8 073e ccc4 17bd
00000050: 4871 713e 842f 7dbd 771d 4b3d ee38 a6be
00000060: 4433 3bbe 553a 253d 52c9 9ebe aa64 61be
00000070: daf4 10be d40c 873e 22eb e2be ef5c 75be
00000080: 48a0 603e 08a5 133e 1353 913e 9762 cf3d
00000090: f1a0 60be 6c1e 3abe eeee cabe 3511 94be
000000a0: 997f a7be a996 45be e0d9 80be 4b92 a7be
000000b0: 4b58 8ebb d4e7 cc3e fc80 663e 7191 ab3e
000000c0: 5c7f 78be 8c05 afbc b801 10bd c236 0fbe
000000d0: 0021 ea3e 3cbd 253e b90a cebd 9f86 69be
000000e0: b08a c93e c426 c73e 05ca e7bb 0a7e 7c3d
000000f0: af6e 973d d4ab 8f3e c206 f73e f96e 2c3e
00000100: 8907 a4bd b836 0ebe 2b34 8c3d 6364 18bc
00000110: c865 553c a5d3 37be 4a2c 4c3e 4a84 adbe
00000120: 9fc9 84be e0a4 8ebe 943e 953e f70a dcbd
00000130: 29fd aebd a2f4 f2bb 3f63 ec3c 109d 183e
00000140: 5d3e 1dbe e9a1 e33c 6220 1abe 9a3a e73e
00000150: e385 b93c 5aa1 e53d 8fe8 c8bd fcab 3abe
00000160: d91d 643e 9adf d4be 0cbb 92be 7ad8 7f3d
00000170: 7223 953e 38af aabe 675b 4cbe 22f2 6ebd
00000180: 716b 833d e67c 353e bece 093f 5c23 753e
00000190: 1b9d d8bd 618f 62be eef3 7bbe b6b0 89bd
000001a0: cb51 5abd e4f0 47bd c6f7 f3bc 3060 143f
000001b0: 499f 46bd f538 8d3e 8ba1 adbc 0a61 4c3e
000001c0: 6a4b 133e b568 19bd 6c1e 933e a89a 8f3c
000001d0: 4be6 073f 4959 c13e e290 edbc 48df 85be
000001e0: 5cf1 003d 333e 8e3e b0eb 353e 8d92 673d
000001f0: a673 67bc f007 48be 60e8 bbbe b9cc b4be
00000200: e590 d83e efd2 96be b067 a23d 1079 4ebe
00000210: f01c e1bd 1947 e93d 51e5 c6bd cec7 95be
00000220: 3e5b a8be 0868 6d3e 43bb 673e aa14 ba3d
00000230: a730 05be 2ac7 a83e 2fbe 95bd 8809 4c3e
00000240: 18a5 0bbe 3265 efbd 7aa4 c13e 2baf 593d
00000250: 75c4 a2bc d772 bcbd 597c f33e 07ad 5abd
00000260: e172 11be c887 293e 8100 3b3e dbab ad3e
00000270: 5e2b 793d 6c95 bb3d 356f fb3d 942f f63e
00000280: ce63 f53e 5a37 d73e 54b3 313e 715e c33e
00000290: d224 a73d e9cc 10be c539 923e e70c 1cbe
000002a0: 853d 003f a79d 803d 6b21 a83d 88c9 9cbd
000002b0: 25c2 403e 9da1 593e 3be8 cb3e 5c42 7b3e
000002c0: 4120 a53d 448e 81bc 0435 c53e 83d8 4f3e
000002d0: 8c36 2e3c 5047 0abe 0ca1 a0bc 3924 92be
000002e0: 68eb 34be 6414 60bd a321 86be e079 773e
000002f0: 2fe7 20be 4b0d 3b3d d55f 2e3e a2e6 923e
00000300: 8514 203d 8574 41be fd6b eebc ddbd 0abd
00000310: 8981 87bd 4c7d cd3d 8927 21be 798e c93d
00000320: a5eb a93e 9f8e b33e 8c88 16be 2708 1fbe
00000330: 6207 dc3e 2dda ce3e 60f0 293e 6aee 47be
00000340: 59ff eebd 7e01 7c3e 1f4d b53c 3454 873c
00000350: e423 9a3e f3a6 a63d 19d9 72be dc7a 5fbe
00000360: 2a0a c1be 01e4 163e c560 b83d 8047 a53d
00000370: d311 6fbd bc54 57be 49fb 013f 7844 e03e
00000380: 428a 31bb 860c acbd ea09 243e 642d d93e
00000390: bfdc 83bd e1ba 663e 61d6 c7bd 999a b93e
000003a0: dade ca3e 3598 26be fbe2 ebbd 881e bc3d
000003b0: 6997 193d 6fe8 a4be 8e1d 053e c95a 9a3b
000003c0: 32f9 013f 7b0f 313e a50f 893e ba9a d5be
000003d0: da13 43be 0354 603e 0f5f debe ab5a 543e
000003e0: fbd8 b83d 0a53 22be c141 543e 6ce9 90be
000003f0: 5121 46be a30f 853e f1a8 a23b a3b0 923e
0.19971557 -0.06984008 0.4117688 -0.19040307 0.019726222 0.048306867 0.51883525 0.35616368
-0.09678191 -0.32378253 0.17330262 0.032452893 -0.25415778 -0.029729381 -0.31065598 0.10600124
-0.28257826 -0.32280475 0.13253835 -0.037052915 0.2357837 -0.061812893 0.049588647 -0.3246531
-0.18281275 0.040338833 -0.3101297 -0.22011057 -0.14155903 0.26376975 -0.44320017 -0.23961233
0.21936142 0.14418423 0.28383693 0.101262264 -0.21936394 -0.18175668 -0.39635414 -0.28919378
-0.32714537 -0.19295754 -0.25166225 -0.327288 -0.0043440214 0.4002062 0.22510141 0.335094
-0.24267334 -0.02136495 -0.03515789 -0.13985732 0.45728302 0.16185468 -0.10060639 -0.2280526
0.39363623 0.38896763 -0.007073643 0.061643638 0.07394158 0.28060782 0.48247343 0.16839208
-0.0800925 -0.13888061 0.06845888 -0.009301278 0.013024755 -0.1795183 0.1993877 -0.3388999
-0.25935075 -0.27860165 0.29149306 -0.10744279 -0.0854438 -0.0074144164 0.028855918 0.14903665
-0.15355821 0.027787166 -0.15051416 0.45161897 0.02264685 0.11212416 -0.09809982 -0.1822967
0.22277011 -0.41576844 -0.2865833 0.062462308 0.29128605 -0.33336806 -0.19956742 -0.058336385
0.06416977 0.17723426 0.5383109 0.2393927 -0.105768405 -0.22125007 -0.2460477 -0.06723158
-0.05330066 -0.048813716 -0.029781234 0.5795927 -0.04849175 0.27582517 -0.021195194 0.19958892
0.14384237 -0.037453372 0.28734148 0.0175298 0.53085774 0.37763432 -0.02899975 -0.26146913
0.03148018 0.2778183 0.17765689 0.056536246 -0.014126694 -0.19534278 -0.36700726 -0.3531244
0.42298046 -0.29457805 0.07929933 -0.20163369 -0.109918475 0.11390514 -0.097117074 -0.29254
-0.32882112 0.23184216 0.22630028 0.090859726 -0.1300684 0.3296445 -0.07311665 0.19925511
-0.13637197 -0.11689223 0.37820798 0.05314557 -0.019869069 -0.092015915 0.47555807 -0.053387668
-0.14203979 0.16555703 0.18261911 0.33920178 0.060832374 0.09159359 0.122770704 0.48083174
0.47927707 0.42034417 0.17353565 0.3815799 0.0816132 -0.14140667 0.285597 -0.15239297
0.5009387 0.0628007 0.08209499 -0.076556265 0.1882406 0.21253057 0.39825615 0.24537033
0.080627926 -0.015814908 0.3851701 0.20297436 0.010633122 -0.13503766 -0.019608043 -0.2854326
-0.17667925 -0.054706946 -0.26197538 0.24167585 -0.1571319 0.045666974 0.17028745 0.28691584
0.03908207 -0.18892105 -0.029104227 -0.033872474 -0.06616504 0.10033664 -0.15737738 0.09841628
0.33187595 0.3506975 -0.14700526 -0.15530454 0.42974383 0.4040083 0.16595602 -0.19524541
-0.116697975 0.24609944 0.0221315 0.016519643 0.30105507 0.08137312 -0.23715629 -0.21824211
-0.37703067 0.14735414 0.09002832 0.08070278 -0.058366608 -0.21028417 0.50774056 0.43802238
-0.0027090465 -0.08400826 0.16019407 0.42417443 -0.06438588 0.22532226 -0.097576864 0.3625076
0.39623147 -0.16269 -0.115179025 0.09185511 0.03749791 -0.32208583 0.12999555 0.0047105295
0.50770867 0.17291062 0.26769748 -0.4171961 -0.19050542 0.21907048 -0.434319 0.20737712
0.09025761 -0.1585199 0.20728208 -0.28303087 -0.19348647 0.25988492 0.004963987 0.28650388

shared.0.bias f4 [256]
00000000: a17d 3e3e 41f6 65be 2438 8abe 126d 4cbe
00000010: 2128 05be 0137 643e 0755 853e adcd 913e
00000020: d329 b33d 8e29 cbbe 3087 d835 71fb 6a3e
00000030: 425c d93e ea1d 933d 772c 8fbe a3e7 cebe
00000040: 173f 093e 6168 95bc 5196 3d3e 1478 8d3e
00000050: 2e50 e5be 0158 af3e 3421 2dbc c432 aabe
00000060: 4b50 18be 2aad 953e 4e13 2dbd 2308 34be
00000070: 9a76 ca3e a658 82be a8ba a3be f60c cbbe
00000080: 9c00 903e 0738 933e ddb0 b23e 03c0 4abe
00000090: 85ca ae3e 8f63 743d d035 a9be a186 2abe
000000a0: 247f 8f3e 89aa 24be f4c7 bf3e 74aa 19be
000000b0: 8b26 093f da49 063e 5358 25be f580 ddbd
000000c0: 027e 13bc 5f9f 7dbe 644e b03d 84d3 edbd
000000d0: 6b60 263e 60a5 093e 20cc 0a3c 88ef 9fbe
000000e0: 5333 cb3e c248 d93d e99b 06bd bc74 903e
000000f0: 97e7 023f 961c c6bd f223 e03e c64b 7a3e
00000100: 140a 4bbe cbf6 253d e50f 9b3e 042d 9f3e
00000110: 091c bd3e 0efc 083e ee67 e23e d1c6 c23e
00000120: 44df 7d3e 8110 e4be a372 c0bd 9f1b a23e
00000130: 0c64 993d bb62 aabe be31 393e 9dcf 21be
00000140: 6098 a9be 6f61 cb3e 752b 003e cb79 6dbe
00000150: 5af3 653e 79e1 af3e 4014 edbc 1cc6 013d
00000160: 6106 13be 2b2c 2dbd f6d9 fc3d a619 e4bd
00000170: 335a 2e3e a9e4 873d a257 9f3e d7e6 0d3e
00000180: 342a 8c3e 2f9a 41bd d4bd 88be fa95 e3bd
00000190: 84e8 f13d 1cdf 10be 60e2 a53e a33c 943e
000001a0: 3fd5 c83e bdbd acbd 28d3 b83e d3f0 a1be
000001b0: 6494 4bbd 92e7 d1be 6b90 c5be a168 2fbd
000001c0: 2813 5bbe f3e7 1ebe 21d6 373d 4871 b33e
000001d0: 1587 e93e ff66 b4be d7ab 2abc 10c6 f2be
000001e0: 79c6 f4be f3fe 90be ff77 393e 1622 923e
000001f0: 7961 91be 9d3a a7be af6c adbe 65ba c83e
00000200: 4df0 7a3e a540 6dbe b418 a13e c5c4 08bd
00000210: d119 bc3d 4516 93be a82c 323e 1220 a0be
00000220: 3a9a 53be e371 4fbe 5970 943d 21a5 e43d
00000230: 35a8 0bbd 7162 26bd 8eae 39be ed03 8c3e
00000240: d73f c63e 6bf1 dbbe f284 5a3e 39fe c33d
00000250: 5bc2 503e 5320 8b3e 88f6 8c3d 39f5 a33e
00000260: 0214 05be 94b0 96be fe50 083e c528 a53e
00000270: af07 803e d457 2a3e 3003 59bc 708f 913e
00000280: 1508 f0be 1cc0 7bbe 8700 503e 0166 d93e
00000290: 163a c43d 4f22 84be e34f b73e e888 993c
000002a0: 6fd3 a43e 2daa 193e 2672 9a3e 9b61 483e
000002b0: 0c0f 74be 11ed c0be 0c9c 7d3e 06d6 c43e
000002c0: 6bbc 2c3e 0132 f4bd 0576 4c3e 6a1b 77be
000002d0: 302d 603d cdcf 44be 68ed 77be cc26 0e3f
000002e0: a0bc 8ebd 1fba cebe 09ab bc3a 865f eb3d
000002f0: 252e 3bbe bba9 25be db3f 16be 30a3 423e
00000300: 8669 4fbe 7b38 dcbe 728d d03e 7786 c13e
00000310: e681 8d3e 3bfd b9bd 982e 213e 778f e83e
00000320: 2499 49be 0cc5 d6be 6757 c2bd 851b 91be
00000330: 03ee 74be 8c54 91be dc6b 33be 0a3b 94be
00000340: 567a bcbe 5baa 383e a4df 97be 2fcb 7d3e
00000350: 49f3 f33b dcb8 093d 577e f03e 90f9 0ebe
00000360: 0cea 123e 5e19 263c 02b7 f8be ec7a ddbe
00000370: aebf db3e bf29 9c3d fcae 7abe 70a2 c83e
00000380: b3e9 673e a0a1 51be 641b 38be ef69 a9be
00000390: 7657 c5be eed8 4b3d aaa4 f23e b4d2 813e
000003a0: 30a8 083f 28ca c3be 203d 88be 36bc a43e
000003b0: 389e ddbe 3d40 22be 9656 d1bb fbe4 f33e
000003c0: f762 72be f710 923d 0ba3 8b3d ce68 e83d
000003d0: 52a6 8fbd 8083 ff3d 280f e93d 0ffb 81be
000003e0: d19d 6c3e ae6b e63d 1027 f73c f0bd db3e
000003f0: 3a30 e5be e0af 833e 15a4 5abb b42b 823e
0.18602611 -0.2245722 -0.26995957 -0.19963482 -0.13003589 0.22286607 0.26041433 0.2847723
0.08748212 -0.3968014 1.6132599e-06 0.2294748 0.424532 0.0718344 -0.2796361 -0.404111
0.13402973 -0.018238248 0.18514372 0.27630675 -0.44787735 0.3424683 -0.010566998 -0.33241856
-0.1487438 0.29233676 -0.04225474 -0.17581229 0.3954361 -0.25458258 -0.31978345 -0.39658326
0.28125465 0.28753683 0.3490056 -0.19799809 0.34138885 0.05966526 -0.33048868 -0.1665292
0.28026688 -0.16080679 0.3745724 -0.15006429 0.53574437 0.1311411 -0.16146974 -0.10815612
-0.009002211 -0.24767826 0.08608702 -0.11612609 0.16247718 0.13441992 0.008471519 -0.31237435
0.39687595 0.106095806 -0.03286353 0.2821406 0.5113463 -0.09673421 0.43777424 0.24442968
-0.19828063 0.040518563 0.30285564 0.31089032 0.36935452 0.13377401 0.44219917 0.3804231
0.247922 -0.4454384 -0.09396865 0.31661698 0.074897856 -0.3327845 0.18085381 -0.15801854
-0.33124065 0.39722773 0.12516578 -0.23190992 0.22456113 0.3435171 -0.02894032 0.031683072
-0.14357902 -0.04227845 0.1234626 -0.111377046 0.17026596 0.0663541 0.31121546 0.1385759
0.27375948 -0.04726618 -0.26707327 -0.1111259 0.11811927 -0.1414761 0.32399273 0.28952512
0.39225194 -0.08434627 0.360986 -0.31629047 -0.049702063 -0.40996987 -0.38586745 -0.04282439
-0.21394026 -0.15518169 0.044881944 0.35047364 0.45610872 -0.3523483 -0.010416946 -0.47416735
-0.47807673 -0.2831951 0.18112181 0.2854163 -0.28394678 -0.32661906 -0.33871982 0.39204708
0.2450573 -0.23169191 0.3146416 -0.03339078 0.091846116 -0.28727928 0.17399848 -0.31274468
-0.20664302 -0.20258288 0.07247991 0.11164308 -0.03409596 -0.040621225 -0.18132994 0.27346745
0.3872058 -0.42957625 0.21339777 0.095699735 0.2038664 0.271731 0.068829596 0.32023028
-0.12995914 -0.29431593 0.13312146 0.32257667 0.25005862 0.16635066 -0.013245389 0.28429747
-0.46881166 -0.24585003 0.20312701 0.42460635 0.095813915 -0.25807425 0.35803136 0.01874204
0.3219256 0.15006323 0.30165213 0.19568484 -0.23833865 -0.37680867 0.24766558 0.38444537
0.16868751 -0.119236 0.19966896 -0.24131551 0.054730594 -0.19219895 -0.24211657 0.5552795
-0.06969571 -0.40376374 0.0014394234 0.11492829 -0.18279321 -0.16178028 -0.14672796 0.19007564
-0.20255098 -0.4301184 0.40732914 0.377979 0.27638167 -0.09081503 0.1574043 0.45421955
-0.19687325 -0.4194721 -0.09489327 -0.28341308 -0.2391892 -0.28384817 -0.17521614 -0.28951293
-0.36812085 0.18033735 -0.29662812 0.2478454 0.0074447733 0.03362356 0.4697139 -0.13962388
0.14347094 0.010137884 -0.48577124 -0.43257844 0.42919677 0.0762515 -0.24480814 0.3918643
0.22647743 -0.20471811 -0.17979199 -0.33088633 -0.3854329 0.049767427 0.47391254 0.25356066
0.53381634 -0.3824017 -0.26609135 0.32174844 -0.43284774 -0.15844817 -0.0063884957 0.47635636
-0.23670565 0.07132142 0.06818207 0.11348115 -0.07014145 0.124762535 0.11379844 -0.25386855
0.23107077 0.11251007 0.030169994 0.42918348 -0.44763356 0.2572012 -0.003336196 0.25423968

shared.2.weight f4 [256, 256]
00000000: fe45 70bc 9f86 33bd f908 91bc aad3 a5bc
00000010: 4b14 fd3c 9694 353e 44b6 e23d 27f4 613d
00000020: 8de7 54bd d2ad 9a3b eebe fd3c 7ad4 a43c
00000030: d86b ae3d 2d05 80bc 1386 b9bd c613 e2bc
00000040: 93c8 ad3c ddf1 813d cfa5 1cbd 9ecd dfbc
00000050: 5ea6 a6bd 1631 953d 910a 923d a05d e5bc
00000060: 2600 09bd b335 d1bc 7a2d 52bd 0b14 91bd
00000070: d60c 3f3d 5333 25bd 5d22 77bd 7db0 c1bd
00000080: e04d 50bd 6e2a 073d b5fa 29bd 676b 8e3d
00000090: e959 2abd 0fc8 233d 1e6c 333c 4439 40bd
000000a0: f7fe a73c 3577 14bb 3c30 2f3c 0fc3 9dbc
000000b0: 63a4 2e3e 71c6 0cbd efe3 f5bc cfc8 543d
000000c0: 70d5 8b3d 59a8 723d 2581 a0bc e11c aabb
000000d0: 7997 423b d78f 813d 58b3 4fbc 90b5 bcbd
000000e0: 2b8f 9c3d e676 5e3d e6c1 973c 0ab2 413d
000000f0: adcf ca3d ac3a 953c b004 363d 4b4b 0f3d
00000100: b5b2 d7bc cff8 413c 4f52 d83c 0d80 593d
00000110: 7216 a63d c264 b9bc be5b 0d3e 0dd8 8a3d
00000120: 2ad6 843b b7b7 3abb 571a 913c 420a 043d
00000130: b758 093b dcbf 58bd 57b5 7e3c a6da 963c
00000140: a491 60bd 83e1 733d 485f 813d 372b cebc
00000150: e349 653d 0384 ad3d 4761 1a3d 7be5 7c3d
00000160: 8ddd 913d ed9a c7bc f0d8 3f3c 0eb3 e3bb
00000170: a865 aebc 7f81 093d e5fc 893d c16f 0bbc
00000180: 94fd 583d 5c48 c5bb 600d 96bc 77fc 2d3c
00000190: 5501 39bc 22c2 4c3d 3013 13bc 4d66 e5bc
000001a0: 8d4a 883d b0e2 07be 671a 00bd bb97 a1bd
000001b0: aee5 ec3c 9f24 dabc a1c3 05be 3425 a33c
000001c0: 9c24 813c f162 ea3c ceff 9a3d a0d2 06bd
000001d0: 3dc4 a43d 5a31 aaba 60ce f43c dbf3 893d
000001e0: 1e24 8cbd 37ac 28bd 3f0e 323d 0e5f e83d
000001f0: 24e7 4b3d c770 adbd 6bef 57ba 4ebc a03d
00000200: 4dc3 353d 65ba 883d 7cf2 7d3d e7d5 383c
00000210: 5232 fe3c ae62 05bc abf8 8fbb 4947 7e3d
00000220: b011 0d3b 83db 933d 6777 3b3d 1493 2a3d
00000230: ff84 1a3d 702e 10bd e7e3 8dbc af2b e7bc
00000240: 1b0f 8abc f77c 70bd 01a1 543d 51b1 6d3c
00000250: b1b0 563d 3363 953d f421 bdbb b45f bfbc
00000260: 00db 953c 387c 7dbd 23cf 193b 79e9 983b
00000270: 57f6 9c3d 7ecb 13bd 05bf 78bc 82ff 24bd
00000280: 9423 8fbd fd63 35bc b391 83bb 6195 ec3d
00000290: 071c 8f3d 7218 5fbd 929f 9bbc ff4c 64bc
000002a0: 181f ac3d 46f8 833d 8061 29bd 8526 bc3a
000002b0: 9ebe 8cbd 4fdf 8bbd 7bbc 7fbc 20e2 2f3e
000002c0: 4846 a43c b935 413d 119b 413d 841b 1bbd
000002d0: 2bf8 613d 40f1 e03c 3982 793e a873 bb3d
000002e0: 0cf2 1dbd 99cf 50bc 0740 093d ddca c4bc
000002f0: 9e6e 003d 84b0 74bd a50a 303b d2b2 ec3d
00000300: 1d56 52bd da8a 90bd 7aeb f83a 3690 91bc
00000310: ea0d a53d e09d 163c 50e4 9a3c aded a7ba
00000320: 285d 2fbc f524 2ebd 1c6c b7bd c600 383c
00000330: 9ef8 bebd 0dd7 643d 0432 883c 07a3 bf3a
00000340: 7b46 a4bd 65d6 2c3d bc6c 52bd c692 d53b
00000350: 6bf1 573d 0525 0bbd 1ec3 fcba f15f f2ba
00000360: 7b1c 273d 1ef8 043d 12ad 013d 4161 9fbd
00000370: 8924 ab3d 70af 803d 9d73 1c3d 8513 e43c
00000380: 1296 173d 35fb 3d3d f318 fbbb b162 a73c
00000390: 14d4 87bd 1988 87bc 7af9 973d bb1d dcbc
000003a0: 81dc 943d 5b1e a63c 1ecf c0bd a2d6 ea3c
000003b0: a317 82bd 348c c3bd 6a7e 2a3d 84b4 24bc
000003c0: 3cfa 54bd fa7b 803c 7727 883d c208 91bb
000003d0: 8e5b 903d d153 fc3c cafc 213c 2356 f9ba
000003e0: dbe8 5c3d ecd7 6a3d 8eed 2abd 3277 c23b
000003f0: d78c 68bd b1a2 b5bd 5174 8b3d db9e 593d
-0.014665125 -0.043829557 -0.017704474 -0.02024253 0.030893466 0.17732462 0.11069921 0.055164482
-0.051978637 0.004720428 0.030974831 0.020120848 0.08516663 -0.015627468 -0.09058776 -0.02759732
0.021213805 0.0634496 -0.038244065 -0.027319726 -0.08137201 0.07284753 0.07130922 -0.027998745
-0.033447407 -0.025538301 -0.0513129 -0.07083901 0.0466431 -0.04033215 -0.060335506 -0.094574906
-0.050855517 0.03299945 -0.04149886 0.06954079 -0.04158965 0.039985713 0.01095107 -0.046929613
0.020507319 -0.002265406 0.010692652 -0.01925805 0.17054896 -0.034368936 -0.030015914 0.05194932
0.06827819 0.05924258 -0.01959283 -0.005191431 0.0029692336 0.063262634 -0.012677036 -0.09214318
0.076444946 0.05431261 0.018525075 0.047288932 0.09902892 0.018216453 0.044438064 0.034983914
-0.026330331 0.011839106 0.026406435 0.053100634 0.0810975 -0.022631053 0.13804528 0.0677949
0.0040538507 -0.002849085 0.017712755 0.032236345 0.002095742 -0.052917346 0.0155461645 0.018414807
-0.054826394 0.059541237 0.063170016 -0.02516709 0.055978667 0.08472445 0.037690427 0.061742287
0.071223356 -0.024365867 0.011709437 -0.006948835 -0.021288708 0.033570763 0.06737689 -0.008510531
0.052976206 -0.006020589 -0.018316925 0.010619274 -0.0112918215 0.049989827 -0.008976743 -0.028002882
0.066548444 -0.13270068 -0.03127518 -0.078902684 0.028918114 -0.02662879 -0.13062908 0.0199152
0.015764527 0.028611632 0.07568322 -0.03291571 0.08045242 -0.0012984679 0.029883564 0.06735965
-0.06842826 -0.041179862 0.043470617 0.11346255 0.04978098 -0.08468776 -0.0008237275 0.07848416
0.044375706 0.06676177 0.06199883 0.011281467 0.031029854 -0.008141203 -0.004393657 0.0620797
0.0021525435 0.07219603 0.045768168 0.04164417 0.03772449 -0.035200536 -0.017320586 -0.028219072
-0.016852906 -0.058712926 0.051911358 0.014507608 0.0524146 0.072943114 -0.00577187 -0.023361064
0.018292904 -0.061886042 0.002346941 0.004666504 0.07664173 -0.036082737 -0.015182261 -0.040282734
-0.06989208 -0.011071202 -0.0040151714 0.11551929 0.06987768 -0.054466672 -0.018996987 -0.013934373
0.08404368 0.06443839 -0.04135275 0.0014354741 -0.06872295 -0.06829702 -0.015608902 0.17176104
0.020053044 0.047170375 0.047267023 -0.037868038 0.055168312 0.027458787 0.24366082 0.09152919
-0.038560912 -0.012744808 0.033508327 -0.024022514 0.031355493 -0.05973865 0.0026861813 0.11557545
-0.051351655 -0.07057734 0.0018991076 -0.01776896 0.080592945 0.009192914 0.018907696 -0.0012811922
-0.0107033625 -0.042515714 -0.08956167 0.011230653 -0.09324764 0.05586915 0.016625412 0.001462073
-0.080212556 0.04219665 -0.05137323 0.006517741 0.05272047 -0.03397085 -0.0019284224 -0.0018491728
0.040798645 0.032463185 0.031659193 -0.077822216 0.08356578 0.06283462 0.038196195 0.027841339
0.037008353 0.046382148 -0.0076628863 0.020432802 -0.066322476 -0.016544389 0.07420631 -0.026869645
0.0726862 0.020278146 -0.094145045 0.028666798 -0.063521646 -0.09548226 0.041624464 -0.010052804
-0.051996455 0.015684117 0.06648152 -0.004426093 0.07048713 0.030801686 0.00988693 -0.0019022863
0.053933006 0.057334825 -0.041730456 0.0059346193 -0.05677494 -0.088689215 0.06809295 0.053130012

shared.2.bias f4 [256]
00000000: 8451 c63d a161 8d3d eb31 023e 832c 5c3c
00000010: be41 c13d ae4a cf3d 2fdc 8ebe 3c46 f43d
00000020: 2f22 e53c 0437 583e 721e 223e 1545 8f3c
00000030: dc70 0f3e b5c9 4e3e 3fdb 0a3e 95f8 3d3e
00000040: 1f1b 473e 2487 5c3e 981f b7bc 5669 aa3d
00000050: 1e80 673e dd6d 413e b251 91bc 162a 4cbd
00000060: 8684 c73c 2495 223d 0662 0abd e2ab efbd
00000070: ab27 313e 64f7 d9bc 5d03 e73d f3ac 0a3d
00000080: 550f 53be 0e40 5bbd 10d4 303e 93fb fc3d
00000090: 4e3c 353e a5ad 3c3e af11 593e b4bb aabc
000000a0: 74c3 b1bc fc0f 173e 49e7 133e eea8 a2ba
000000b0: 7614 5dbe 7d88 b93d ebe7 0c3e fcd0 f6bd
000000c0: 729b 033e 5d55 d23d 0392 423e ecad 05be
000000d0: 6895 903a 3422 c33d 87a4 013e d7ff 423e
000000e0: 4e54 5d3e 30e5 123e 03c1 283e 52c7 4e3e
000000f0: d2a7 b43d b4dd 333e dd26 373e c8e5 e6bc
00000100: 467b 76bd b899 033e 7043 1d3e a67a 3b3e
00000110: 447e 463e 9928 e73c b3de 123e 2e85 363e
00000120: 6e63 473e 660e 313e 7491 303e 0283 f33d
00000130: b1ac fc3d c1ec 9dbc a303 88bc 59eb 71bc
00000140: 1c69 173e 44c6 02be 83fd 09bd 6ff2 8abc
00000150: ffac 41be fc80 1a3e d92f 573e 7919 28bc
00000160: c4e1 003d 4874 f93d e02a 0f3e cd2a 323e
00000170: e5fe 44bc e9ce 223e 1227 2e3e 9506 c73d
00000180: daea 243e b663 9c3b 7d2b 25bd 6136 aa3d
00000190: 4bf2 b83d be45 ec3d 9fd1 8dbe 3788 e53d
000001a0: dcf2 203e 1d57 8e3b bd09 84be e018 353e
000001b0: 37d9 00be f150 1dbc 12fd 483e 2c15 ed3d
000001c0: 1542 c43d 339b b13c 9691 023e fdb5 e23c
000001d0: ca6f 42be 35d8 d63d 989c c13d 2b87 18be
000001e0: 4113 2e3e fcd1 c23d 3b8d 0c3e 25a6 f53d
000001f0: edb0 233e 8e03 ef3d f5c5 2f3e 9007 083e
00000200: fed5 be3c 5967 5b3e cde9 353e 5a11 13bd
00000210: 2837 47bd e9a7 f6bd b42a c3bc 32b7 033e
00000220: a7d0 203e 080b 973d 44b1 113e aa98 373e
00000230: c4b6 29be 43ac 61bd 3453 183e f0ce d83d
00000240: 7567 57bd 777e 5d3e 4360 53bd 1bd9 303e
00000250: 2760 a4bd 7cc7 e43d 2b84 4e3e 1f7e 063e
00000260: caf0 223e 9df8 d53d 14bf ea3b 4853 dc3d
00000270: d730 81be 3ee8 0f3c 6cb8 3cbc 8c06 013e
00000280: 4ef6 3d3e 109e 10bd a238 db3d 5d56 a3bd
00000290: f556 003e 3fa4 5d3e 3355 2dbe 5cf1 8b3a
000002a0: 8c6c 0bbe f78d 153d 4b21 5b3e a5be 36bd
000002b0: e299 0d3e a032 503e 84f1 f73c fa74 78bd
000002c0: ceac d93d 5ac4 043e 6ae8 e93d 2671 0d3e
000002d0: cd2d 533e fb2e 243e 784e 6bbb 8a17 0f3e
000002e0: 056d 0cbd 5851 003e a83b b93c 80b4 75bc
000002f0: f546 cebc 3aaf 113e ddeb 013e 50a7 4abd
00000300: 0f65 d4bc 18fb 393d 9330 103e e3b4 493e
00000310: 7f66 413e a4ad 243e 51f8 1a3e a6e2 193d
00000320: 9c42 27bd 3dae f03d de71 173e bb1a 3a3e
00000330: 40d6 3d3e 49eb 463e c57e 0f3e 717e da3d
00000340: 90f6 583e 5294 073e 343c 433e 9b7d 033e
00000350: 18b8 343d b159 bb3d 420e 513e 2256 3c3e
00000360: a7e2 36bd 0ef3 433e 93ed 1a3e 9cfa c63d
00000370: 8948 0b3e 1d7b 5e3e 1900 b83d c8f9 1e3e
00000380: 291f 123e 085c 193e e4e2 5bbd b151 1b3d
00000390: 960f 333e 811c f13d efab da3d 2d8a 023e
000003a0: 5960 0c3e 5b6c 533e 4e73 b5bd 0712 2abe
000003b0: 5154 9d3c cc36 973c fc6c f13d d53a 84be
000003c0: fee1 703a 7bdc 023e 66cb 4fbe 28dd 2cbe
000003d0: ef08 273c 81ed 1abe 72f3 2f3e 9f32 083e
000003e0: a6c5 ce3d 6912 bf3d e5ec e73d e3e3 f5bd
000003f0: 5a9f 153e 6b36 063e 444a 623e c968 fdbc
0.096835166 0.06903387 0.12714355 0.013438347 0.094363675 0.10121666 -0.27902362 0.11927459
0.027970402 0.21114737 0.15831926 0.017488996 0.14007896 0.20194133 0.13560198 0.18551858
0.1944394 0.21535927 -0.022353932 0.083208725 0.22607467 0.18889566 -0.01773915 -0.049844824
0.024355184 0.039693013 -0.03378489 -0.11702706 0.17300288 -0.026607223 0.11279938 0.033856343
-0.20611317 -0.053527884 0.17268395 0.123526715 0.17698786 0.18425615 0.21198152 -0.020841457
-0.021699645 0.14752191 0.14443697 -0.0012409964 -0.21589836 0.09059236 0.13760345 -0.12051579
0.12852266 0.10270188 0.19001012 -0.13054627 0.0011030855 0.09528008 0.12660418 0.19042908
0.21614191 0.1434524 0.16479878 0.20193222 0.08821072 0.17565042 0.17885919 -0.02818574
-0.060176156 0.12851608 0.15357757 0.18308505 0.19384104 0.0282176 0.14342766 0.17824242
0.19471523 0.17290649 0.17242986 0.11890222 0.12337626 -0.019277932 -0.016603297 -0.014765584
0.1478619 -0.12770945 -0.033689033 -0.016961304 -0.18913649 0.15088266 0.21014346 -0.010259979
0.031465307 0.12180382 0.139812 0.1739914 -0.012023662 0.15899242 0.17007092 0.09718052
0.16105214 0.0047726287 -0.040324677 0.08311153 0.09030589 0.1153674 -0.2769899 0.112076215
0.15717643 0.004343881 -0.2578868 0.1768527 -0.12582861 -0.0096018175 0.19627789 0.11576304
0.09582917 0.02168045 0.12750849 0.02767467 -0.18987957 0.10490457 0.09453696 -0.14895312
0.16999532 0.095127076 0.1372575 0.1199458 0.1598546 0.116706 0.17165358 0.13284135
0.023295399 0.21426143 0.17764969 -0.03590522 -0.048636585 -0.12043745 -0.023824073 0.12862852
0.15704595 0.07375151 0.14227778 0.1792933 -0.16573626 -0.055095922 0.1487549 0.10586345
-0.0525889 0.21630274 -0.051605474 0.17270319 -0.08026152 0.11170861 0.20167606 0.13134049
0.15912166 0.1044781 0.0071638916 0.10758072 -0.25232574 0.008783398 -0.011518579 0.12600154
0.18550989 -0.03530699 0.10704161 -0.07975457 0.12533171 0.21644686 -0.16927032 0.0010676789
-0.13615626 0.03651234 0.21399419 -0.044615407 0.13828233 0.20331812 0.03026653 -0.060658433
0.10628663 0.12965527 0.114212826 0.13812694 0.2062294 0.16033547 -0.0035904925 0.13973823
-0.034283657 0.1253103 0.022611454 -0.014996648 -0.02518032 0.14227 0.12687631 -0.049475968
-0.025927095 0.045405477 0.1408103 0.19697909 0.18886755 0.16081864 0.15133788 0.037569664
-0.040835008 0.11751983 0.1478953 0.1817426 0.18538761 0.19425692 0.14013202 0.10668648
0.21187806 0.13240173 0.19065934 0.12840883 0.044120878 0.09147967 0.20415595 0.18392232
-0.044649746 0.19135687 0.1512969 0.09715769 0.13601889 0.21726651 0.089843936 0.15524971
0.14269699 0.14976513 -0.053683177 0.037919704 0.17486414 0.11773015 0.10677325 0.12748022
0.13708629 0.20646803 -0.08859883 -0.1660844 0.019205244 0.018458746 0.11788365 -0.25826135
0.0009188949 0.12779419 -0.20292434 -0.1688124 0.010195001 -0.15129663 0.17182711 0.1330056
0.10096292 0.09329683 0.11324481 -0.120063566 0.14611569 0.13106696 0.22098643 -0.030933755

actor.weight f4 [3, 256]
00000000: 35f2 933d a3c2 f8bc c86a eb3a b91c 10bd
00000010: d8f4 89bd b77f 98bd 4f5b 86bd 87ff b5bc
00000020: 696d 0c3d d20b 5f3d 4900 8a3d 102f 89bc
00000030: 2253 9e3d f71b d33b 953e 223c 3256 643a
00000040: 8409 f73d 60bd eb3c 482e 223c 0bc4 c7bb
00000050: 30ec 483d 9c56 5b3d 7fbd 13be 7f27 c4bc
00000060: 2974 a0bb 98a8 373d 851d fb3c b0e7 cebd
00000070: c369 acbd b8c6 3b3c 74c3 e7bd eeee afbb
00000080: e228 4b3c a660 92bc 7a50 bf3d 654d 153b
00000090: cc05 ae3d cb34 5ebd 49b4 a7bd 6f6e 91bc
000000a0: ec95 273d 0932 9a3d 1ff3 2e3d 0c5f 223d
000000b0: 9deb 873c 7e80 0dbd dec7 563d 952a f33d
000000c0: 58e2 96bc 833d 06bc b78d 92bd d7cc 11bc
000000d0: 8008 023d 677d 343e 623b b83d d103 413c
000000e0: 5a55 a5bd 52c9 8e3d 32eb 8b3d e107 cebb
000000f0: a32d 453d 0f16 ce3d b59f a1bd 0948 79bd
00000100: f2da 34be f24b 76bc 292d 08bc bdec be3c
00000110: d1ac 303c 4ac1 a7bb bc9a 5a3d 9d49 053e
00000120: 0ac2 d7bd f3c5 203c 31cd c1bb a780 3a3c
00000130: 4fb3 ce3c c885 4c3b 6177 b93c 9c82 183e
00000140: 473f 54bd 994f a73b 9a70 04bd 201e 373d
00000150: 9f8e 7d3b 98a4 bc3d 88c2 913d 1045 4c3d
00000160: ab85 22bd 8964 bc3d 9614 babc 6846 703d
00000170: de88 c33c 6f82 f83b a962 8cbd 0d87 b7bc
00000180: 9f43 8dbc e4a7 8fbc 39bb 5e3d f3ce 113d
00000190: b013 893d cdc0 763d e828 c3bc c890 d43c
000001a0: 1b14 04bd 7618 e83c 74f5 34bd cc7d debd
000001b0: 7c44 f8bd c39b cabb 86a6 b43d 241f 97bc
000001c0: f4b3 0e3d 89a6 4b3d 003e aa3d 81f9 d7bc
000001d0: 8ff7 8d3d a980 ce3c 3c24 2abd 3afb 4b3c
000001e0: 160f 8d3d 2eaa 4d3d 5234 9eba 355e 21bd
000001f0: 291c 8a3d 26ce bdbc 1c1f 2ebd bbac e83d
00000200: e776 fc3b 83e2 a03b 42e9 9dbc 4038 2e3d
00000210: 1099 5bbd 1d9e c23c 029d 093d 404e 903b
00000220: 38d7 c43d 61ab abbe f6eb a9bc af89 8ebd
00000230: 89ca b33d 9016 57bd f28b f43c 538f 7c3c
00000240: 1bc6 123c d415 a73c cee5 df3c 3781 01bc
00000250: bfdf b73c a626 af3b 7aae 873c 4ade 59bb
00000260: 4a03 7f3d 49c3 cabd 7c62 5cbd 88a4 1cbc
00000270: b33c e53c 2263 bebc 2528 673c 98a3 e1bb
00000280: 834e 1e3c 417d 723d 1352 eabd 1f8d 9d3d
00000290: 35e0 8abc 8eab 3c3d 5dde 8cbd 5d54 973c
000002a0: a310 f53d fee3 9b3c c86b 823d bd9c 8abc
000002b0: dc24 d23c 4386 c0bc 0b3c 85bc d008 fa3b
000002c0: d7da 04bd c6ef 543d ee9f 1c3e 552e 0abd
000002d0: dc7b 8f3c be67 03be f51d 1bbd b8d9 753b
000002e0: 5a65 08bd 60bc e8bd 6afb 21bd 1699 573d
000002f0: 7331 773d a003 f13c c28e 243e d06f f1bc
00000300: ce04 a73c 46b6 213d b98a 01bd 265c 12bd
00000310: 3ca2 babd 7af1 cabc 3662 36bd 9802 d23c
00000320: 0775 cf3b 56f4 573c 1a96 e33d e8a1 9fbd
00000330: ff9e 76bd e429 3a3d 493e d63b f186 d0bd
00000340: 1cfc 503d 4da3 bd3d e7fb 4d3d 3f09 573d
00000350: c830 81b9 dcc7 9e3d a186 88bd 624e 9bbc
00000360: 6b0f 013d b7f6 b0bc b8d1 dcbc 39d1 8bbe
00000370: 1767 433c 60d8 b1bd 456b 343d 1477 ec3c
00000380: baab 993d 68c2 edbc 6bdd bebc 7d5a 293d
00000390: 5757 98bd 457f 883c 3f75 4e3d f23c b4bd
000003a0: b346 823d 65a9 4fbd 28f7 1ebd c9a9 ee3c
000003b0: 920f a3bb aae9 c73c 5992 e7bd a4fc d93d
000003c0: ea5f 483d aab5 5ebd 670f 813d eed3 ce3a
000003d0: 02ad dcbc 9c94 b23d e6d6 80bc e7cb 543d
000003e0: aec4 a5bd 4ebe 503d 8071 14bd f3ad 0abd
000003f0: ff28 35bd 0fb5 d93d 8b7e d63c 6a9b 173c
0.07223932 -0.030366248 0.00179609 -0.035183642 -0.06736153 -0.07446235 -0.065603845 -0.022216571
0.03428403 0.054454632 0.06738336 -0.016746074 0.077307 0.0064425427 0.009902616 0.0008710354
0.12062362 0.028776824 0.00989873 -0.006096368 0.04905337 0.053549394 -0.14427756 -0.023944614
-0.00489666 0.044838518 0.030653724 -0.10102785 -0.0841861 0.011460952 -0.113165766 -0.005369059
0.012399884 -0.017868351 0.093415216 0.0022781726 0.084971994 -0.054249566 -0.081886835 -0.017752854
0.04091446 0.07529075 0.042712327 0.039641425 0.016591841 -0.034546368 0.052436702 0.11873356
-0.018418476 -0.0081933765 -0.07155936 -0.008898935 0.031746387 0.17625962 0.089957014 0.011780695
-0.0807292 0.069719926 0.06831969 -0.0062875603 0.048139226 0.10062801 -0.0789179 -0.060859714
-0.17661646 -0.015032755 -0.008311548 0.023306245 0.01078339 -0.0051194774 0.053370222 0.13016362
-0.10535057 0.00981282 -0.0059143533 0.011383212 0.025231985 0.003120767 0.022639932 0.14893574
-0.05181816 0.0051059243 -0.032333948 0.044706464 0.0038689745 0.09211081 0.07117182 0.04987055
-0.039678257 0.09198863 -0.022714894 0.058660895 0.023868974 0.0075839083 -0.068547554 -0.022403264
-0.017244158 -0.017536111 0.05437777 0.035597753 0.06693208 0.060242463 -0.023823217 0.025947943
-0.032245737 0.028331976 -0.044179395 -0.108638376 -0.12122437 -0.006183119 0.08820824 -0.018447466
0.034839585 0.049719367 0.08312607 -0.02636409 0.06931984 0.025207834 -0.041538462 0.012450034
0.06887643 0.050211124 -0.0012070036 -0.039396483 0.067436524 -0.023169588 -0.042510137 0.11361071
0.007704604 0.004909815 -0.019276265 0.042534113 -0.05361277 0.023757035 0.033597 0.0044038594
0.09611362 -0.3352919 -0.020742398 -0.06959855 0.08778865 -0.05251175 0.029851887 0.0154150305
0.008958365 0.02039615 0.02733126 -0.007904342 0.022445558 0.0053451834 0.01656269 -0.0033244067
0.062258996 -0.09900529 -0.05380486 -0.009560712 0.027983045 -0.02324063 0.014108692 -0.006885957
0.009662273 0.059201483 -0.11441436 0.07692932 -0.016952613 0.046062045 -0.0687835 0.018472845
0.11966064 0.019029614 0.06368214 -0.016920442 0.025652342 -0.023501521 -0.016263982 0.007630445
-0.032435264 0.05198648 0.15295383 -0.033735592 0.017515115 -0.12832543 -0.037870366 0.0037513804
-0.03329978 -0.11364055 -0.039546408 0.05263623 0.060349893 0.029420674 0.16070083 -0.029472262
0.020388033 0.03948047 -0.031626437 -0.03573241 -0.09112975 -0.024773348 -0.044527255 0.025636002
0.0063310894 0.013180813 0.11112614 -0.07794553 -0.060210224 0.045450106 0.0065381867 -0.10181988
0.05102168 0.09259663 0.05028906 0.052499052 -0.00024641142 0.07752964 -0.066663034 -0.018958274
0.031508844 -0.021602018 -0.02695547 -0.27308062 0.011926434 -0.086838484 0.044047613 0.028865375
0.07503457 -0.029023364 -0.02329894 0.041346062 -0.07438534 0.01666225 0.050404783 -0.08800687
0.06361141 -0.050698657 -0.038809925 0.029133694 -0.0049762214 0.024403412 -0.113072105 0.106438905
0.048919596 -0.054372467 0.06301766 0.0015779713 -0.026937965 0.08719751 -0.015727472 0.05195227
-0.08094154 0.05096274 -0.036241055 -0.033857297 -0.04422855 0.10630237 0.026183387 0.009253362

actor.bias f4 [3]
00000000: 8bcb 723d 4ec0 8ebc 6dab d13c
0.059276145 -0.017425682 0.025594437

critic.weight f4 [1, 256]
00000000: 4a80 e1bc f5e4 f63c 0192 cabc b805 623d
00000010: fbbc 23bd c95b 66bd 351c d73d 2ea1 2ebd
00000020: 1127 2a3d f50b 81bc 8f16 bcbc 5b01 d43c
00000030: 0e28 50bd d4ad 0cbd 760f abbc 8a70 6abd
00000040: 23a2 25bd 7627 0fbc 809a 36ba 33ff 8abd
00000050: f13c 8cbc 2268 16bd 55a7 ba3d d98f fb3b
00000060: 1cb3 df3b 8ac1 163c 360f 053d ef6f 523d
00000070: 67cd adbc eec7 123d ae9b 03bc 75df 5d3d
00000080: 608a 6f3d bce3 013c 6a5c 33bc e5ee 2ebd
00000090: 8e76 8ebd 1363 aebc ceec 93bc 8079 263d
000000a0: a0e5 1c3d 246a a3bb 3000 4fbd 7097 a53c
000000b0: c709 dc3d 1869 8bbd e6dc f8bc e00e 943d
000000c0: 5213 77bd f1db 6ebd 1e1f c3bc 2641 673d
000000d0: 2fd8 1c3d 2f10 dbbb 67e6 a4bc 7c19 4cbd
000000e0: 50f6 febc 61bb 96bc a2aa d4bc 6323 8cbd
000000f0: c6dd a3bc eaa7 16bd 7f8b 37bd 50fa 543d
00000100: f2b2 743d d4a8 debc 80c7 83bc 90b0 27bd
00000110: cee4 80bc 135f 403d 71c3 c7bc f1f4 dbbb
00000120: 823d 50bd cac2 04bd 06b9 9cbb a9a7 8abd
00000130: c7cd 9abb 888c 253d cc79 1f3d 8034 643d
00000140: ce85 3cbd 8d3b 903d b89a 533d 185a 1d3d
00000150: 8cf0 833d ee6f e2bc af97 a8bd 6749 293d
00000160: ae48 1b3d 7e2f 23bd 8000 cebb 64d0 8fbc
00000170: 2165 cc3c b529 45bd 98b7 00bd d057 88bd
00000180: f0fe 4ebd 329f b93c aac9 583d fd27 9ebc
00000190: 08e6 87bd 17ea 83bb 53f9 5c3d 0e7e 7ebd
000001a0: 6dac 72bd c8e4 433c 030a e03d 5c9f 10bc
000001b0: 6d41 853d 0684 1a3d 1d1e 46bd 29c8 59bd
000001c0: f78e 3ebd 8d5e 653d 7807 dabc fd25 163d
000001d0: 4b02 da3d bb34 b03d d978 64bc 2dbf 6c3d
000001e0: 15d7 70bd 425d 293d e7fb 4dbd d02b 8cbd
000001f0: a374 93bd bba0 aabc 0e25 41bd 3fdd 21bd
00000200: 6950 863c 2118 54bc 52e4 22bd cf97 643b
00000210: 686f 1d3d 2940 803d d9d5 dd3c 8413 63bd
00000220: d814 0ebd b025 153e 9bc1 58bd 2936 41bd
00000230: f06b 9c3d d29f 5f3d 3834 b8bb 2dcc 32bd
00000240: c70c 273d ccd4 d2bc 9767 183d b464 cbbc
00000250: 7412 d73b 8693 3abd 5719 3abd 9b19 65bd
00000260: f413 dabc e5cc 7f3d 7d35 4b3c 732f d4bc
00000270: d6af 0c3e 3bf8 c03c d037 1a3d be0c 83bd
00000280: 69b0 62bd cb32 643d 6d7e 0dbd e662 a13d
00000290: d38e 28bd 2ea4 c8bc 1093 b33d 60fd 4f3d
000002a0: ac2e 543d 269e 303c dbe4 2fbd 8b37 88bb
000002b0: 5e29 5bbd a70f abbc f445 7a3b 5734 983b
000002c0: c11c 33bd 22e2 4abd b16f 2dbb c8c4 88bd
000002d0: ba1a 7dbd e1ed e6bc 5e85 fa3c aff3 49bc
000002e0: eac5 303d 6c04 67bd 489a af3d a296 1b3c
000002f0: 0d22 003d 42e5 46bd 7529 cebb c8cd 433d
00000300: 35ea 4f3d b38d b63d f9fb 9dbc 0f15 19bd
00000310: 76dd fdbc e86b 9bbd 56b7 77bd d3dd 303d
00000320: 0788 b93c b174 96bb 1a2a a4bc 12c0 6cbd
00000330: 2787 2ebd 028c 9cbc 72ee afbc 37ac 63bd
00000340: 7018 16bd f801 3cbd 9e93 86bc c9ad 51bd
00000350: 7c59 343b 5534 83bd 7240 cbbd 1d52 71bd
00000360: d6f7 d5bc bbff 0dbd 3c49 d3bc 75a0 9b3d
00000370: 6dbc 15bd 66c7 babc 5318 eb3c 773b 3ebd
00000380: edf0 41bd 9b17 30bc 15e1 5a3c e2cc 1f3d
00000390: c6f6 7ebd 6d09 f4bc 7ead 60bd c000 5fbd
000003a0: d3b0 1cbc ee2d 68bc 056e 723d 2aad ef3d
000003b0: 50c7 d83c 6dfa 8f3c 3153 7fbc e320 e33d
000003c0: 06f2 5c3d c369 60bd 00b9 183d 2ffd 7e3d
000003d0: 7ab2 f83c 1930 933d 04f0 87bd f80a 05bd
000003e0: b4fb 6abd 79c0 3bbd 6b96 2ebd 7786 c33c
000003f0: 14ad 88bd cc72 3abd 9e49 05bd d28a 213d
-0.027526993 0.030138472 -0.024727823 0.055181235 -0.039975148 -0.056239877 0.10503427 -0.04263418
0.041541163 -0.015752772 -0.022959976 0.025879553 -0.05081945 -0.034345463 -0.020881396 -0.057236232
-0.04043783 -0.008737436 -0.00069657713 -0.06786957 -0.017118903 -0.036720403 0.09113947 0.00767706
0.0068267714 0.009201417 0.03248521 0.05137628 -0.021216108 0.0358352 -0.008032722 0.054168183
0.058481574 0.007927831 -0.010947326 -0.042708296 -0.06956206 -0.021287477 -0.018057253 0.040643215
0.038304925 -0.004987018 -0.05053729 0.020213813 0.107440524 -0.068071544 -0.03037877 0.072294
-0.06032116 -0.05831522 -0.023818549 0.056458615 0.038292106 -0.006685279 -0.020129396 -0.04982899
-0.03112331 -0.018399896 -0.02596027 -0.06842687 -0.02000321 -0.03678123 -0.04481077 0.05199653
0.059740968 -0.027180113 -0.01608634 -0.040939867 -0.015734103 0.04696567 -0.024385186 -0.006712549
-0.05083991 -0.032412328 -0.0047827987 -0.0677026 -0.0047242376 0.040417224 0.038934514 0.05571413
-0.046026044 0.070426084 0.051661223 0.038416 0.06442365 -0.027641263 -0.08232056 0.041329768
0.03791111 -0.039840214 -0.0062866807 -0.017555423 0.024950566 -0.048135478 -0.03142509 -0.06657374
-0.050536096 0.022658918 0.052926697 -0.019306177 -0.06635672 -0.0040257084 0.05394871 -0.062131934
-0.05924647 0.011956401 0.109394096 -0.008827057 0.065066196 0.037723564 -0.048368562 -0.053169403
-0.04652306 0.055998374 -0.02661489 0.036657322 0.106449686 0.086038075 -0.013944828 0.057799507
-0.05879887 0.041348703 -0.05028906 -0.06844294 -0.07199981 -0.020828595 -0.04715448 -0.039517637
0.016395764 -0.012945206 -0.039768524 0.0034880524 0.038436323 0.062622376 0.02707951 -0.055438533
-0.034687847 0.14565158 -0.05291901 -0.04717079 0.07637775 0.054595776 -0.0056214593 -0.04365175
0.04078367 -0.025736235 0.037208166 -0.024828292 0.006563479 -0.045550846 -0.045434322 -0.055932622
-0.026620843 0.062451262 0.012402889 -0.025901532 0.13738951 0.023555866 0.037650883 -0.06398915
-0.05534402 0.055712502 -0.034544397 0.078801915 -0.041151833 -0.02449235 0.08768284 0.050778747
0.051802322 0.010779893 -0.042942863 -0.004157012 -0.053506248 -0.020881487 0.0038188668 0.0046449113
-0.043728594 -0.049532063 -0.0026464278 -0.06678158 -0.061793067 -0.028189601 0.030581173 -0.012326165
0.043157496 -0.0564007 0.08574349 0.009496363 0.031282473 -0.04855848 -0.006291563 0.04780367
0.050760467 0.08913746 -0.019285189 -0.0373736 -0.03098939 -0.07588941 -0.060477577 0.043180298
0.02264787 -0.0045915474 -0.020039607 -0.05780036 -0.04260936 -0.01910973 -0.021476004 -0.05558416
-0.0366444 -0.045900315 -0.016427811 -0.051191125 0.0027519157 -0.06406466 -0.09924401 -0.0589162
-0.026119154 -0.03466771 -0.025791757 0.07598964 -0.03655665 -0.022800159 0.028698122 -0.04644343
-0.047348905 -0.0107478155 0.013359328 0.03901375 -0.06224706 -0.02978965 -0.054852955 -0.054444075
-0.009563643 -0.014171107 0.059186954 0.1170295 0.026462227 0.017575467 -0.015583799 0.11090257
0.05394175 -0.054788362 0.037285805 0.062253173 0.030358542 0.07186908 -0.06637576 -0.032481164
-0.05736895 -0.045837853 -0.04262392 0.023867829 -0.06673637 -0.045519635 -0.03254091 0.03943903
