Experimenten/Experiment1Snake/PPO/ppo_snake_6200.pth (torch, 280852 bytes, 7 tensors)

shared.0.weight f4 [256, 9]
0.1397637 -0.040967125 0.33266506 -0.297384 0.03387873 0.037271954 0.6181325 0.55959225
-0.066966265 -0.47553134 0.25394854 0.14757037 -0.34505278 0.0042288806 -0.25674278 0.3618246
-0.24910605 -0.21737424 -0.059704043 0.07017687 0.38658363 -0.1596028 0.031476278 -0.24074668
-0.059414245 0.14463836 -0.51729393 -0.33759168 -0.110267535 0.22972555 -0.47047704 -0.21896699
0.2526319 0.2862525 0.31315956 0.29403692 -0.22788315 -0.09568814 -0.43347353 -0.33464697
-0.31209147 -0.16033524 -0.20034 -0.36892536 0.23838386 0.34915367 0.2130551 0.29978994
-0.38890135 -0.020002166 -0.026768245 -0.058732223 0.5033027 0.16190776 -0.16312656 -0.32413673
0.33658984 0.3632845 -0.0069748675 0.07831998 0.15553153 0.30116662 0.5790968 0.123370126
-0.01648006 -0.040946145 0.077214636 0.005452781 0.000518219 -0.6331943 0.25553352 -0.71451855
-0.44063783 -0.37132367 0.36101538 -0.004670398 -0.04196678 -0.009523618 0.1599249 0.30393237
-0.59478414 -0.007456674 0.02428892 0.49806875 -0.16214746 0.056267835 -0.0870573 -0.15250579
0.3543972 -0.64337933 -0.30082417 0.21502762 0.22631375 -0.51416814 -0.17373993 -0.05723201
0.11214012 0.26353204 0.81657255 0.20813474 -0.119461246 -0.3060996 -0.29603443 -0.03269579
-0.08498022 -0.039355814 0.06680706 1.039885 -0.010588032 0.2879631 -0.00081175525 0.2682656
0.047348175 -0.01445275 0.3775217 -0.26889086 0.63793606 0.4005389 -0.09797138 -0.35112816
-0.014867893 0.2527396 0.17640798 0.18593773 0.11594033 -0.18179958 -0.38238567 -0.28947067
0.56007504 -0.37050408 0.06635794 -0.21175644 -0.041626606 0.20853536 -0.32942504 -0.3463527
-0.2926602 0.23660748 0.13338992 0.07262727 -0.10445766 0.47817564 0.014346881 0.33344766
-0.34645364 -0.14871325 0.3992331 0.058481194 -0.066314295 -0.108814545 0.71371156 0.26299226
-0.26831576 0.18685004 0.08114469 0.2063678 0.1355983 0.053182587 0.079453744 0.6202887
0.56342745 0.51825684 0.17198658 0.5470237 0.008914741 -0.42511445 0.19992666 -0.107051514
0.609372 0.08056154 -0.0013808282 -0.28064486 0.08704641 0.21640761 0.4701332 0.16996698
0.06876842 0.049895644 0.20272477 0.24352351 0.027719347 -0.0074778087 -0.09612162 -0.38115698
-0.16915958 -0.039249394 -0.44986874 0.20839854 0.0048849965 0.11822186 0.26715195 0.4107105
0.055799402 -0.08944446 -0.06653859 -0.13112248 -0.1350131 0.06968024 -0.31577918 0.02170222
0.37000224 0.26121724 -0.10017852 -0.12860747 0.6353892 0.590329 0.13597183 -0.38710803
-0.123667374 0.49428755 -0.02533119 0.14348353 0.19586991 0.09648803 -0.32543224 -0.09603123
-0.48370096 0.11287945 0.28452381 0.034264006 -0.04799993 -0.1740939 0.7548655 0.6541007
0.10511038 -0.07905484 0.30562055 0.44774687 -0.15261607 0.16827013 -0.10844318 0.4993738
0.45259824 -0.39109552 0.018561294 0.14774351 -0.038020346 -0.48238328 0.09407706 -0.011799112
0.7222232 0.31000876 0.26592386 -0.57357883 -0.10006446 0.39262065 -0.46714953 0.15304303
0.12369115 -0.053237624 0.13324764 -0.21900989 -0.17001544 0.28757432 0.15761963 0.31786805
00000000: 371e 0f3e 25cd 27bd 1353 aa3e b742 98be
00000010: 6cc4 0a3d 7aaa 183d ee3d 1e3f 7041 0f3f
00000020: 9c25 89bd d878 f3be 8b05 823e b01c 173e
00000030: c2aa b0be 6c92 8a3b ca73 83be 1341 b93e
00000040: a815 7fbe 5a97 5ebe 3a8c 74bd e4b8 8f3d
00000050: 4aee c53e eb6e 23be 45ed 003d 4c86 76be
00000060: 5a5c 73bd 141c 143e 606d 04bf d1d8 acbe
00000070: f2d3 e1bd 2d3d 6b3e 5ee2 f0be e238 60be
00000080: f858 813e b08f 923e 7356 a03e 028c 963e
00000090: 335a 69be 25f8 c3bd 3ef0 ddbe d956 abbe
000000a0: 74ca 9fbe ec2e 24be ee25 4dbe c9e3 bcbe
000000b0: e61a 743e 45c4 b23e 1e2b 5a3e 117e 993e
000000c0: 141e c7be 95db a3bc 1449 dbbc 3391 70bd
000000d0: 72d8 003f 26cb 253e a60a 27be 40f5 a5be
000000e0: 8155 ac3e 6d00 ba3e 6e8d e4bb 3a66 a03d
000000f0: a843 1f3e 8332 9a3e b03f 143f 7aa9 fc3d
00000100: 3101 87bc 25b7 27bd b522 9e3d 3ead b23b
00000110: 17d9 073a 0619 22bf 4ad5 823e b0ea 36bf
00000120: 489b e1be 231e bebe 02d7 b83e 230a 99bb
00000130: 5ce5 2bbd f308 1cbc 5ac3 233e 069d 9b3e
00000140: c643 18bf 1d57 f4bb 8ff9 c63c de02 ff3e
00000150: fc09 26be 1a79 663d 194b b2bd 7a2a 1cbe
00000160: 8d73 b53e 82b4 24bf a005 9abe 3330 5c3e
00000170: cbbe 673e 86a0 03bf e1e8 31be 1d6c 6abd
00000180: b8a9 e53d aced 863e e60a 513f 4621 553e
00000190: 19a8 f4bd 16b9 9cbe d391 97be 05ec 05bd
000001a0: 1c0a aebd 9033 21bd 24d2 883d f41a 853f
000001b0: 6d79 2dbc e66f 933e f9cb 54ba 1c5a 893e
000001c0: 29f0 413d 3acb 6cbc 864a c13e 10ac 89be
000001d0: c74f 233f 6f13 cd3e 38a5 c8bd 12c7 b3be
000001e0: 7798 73bc 1667 813e 4ba4 343e 7666 3e3e
000001f0: 2072 ed3d ab29 3abe 0ec8 c3be 8035 94be
00000200: 1461 0f3f b6b2 bdbe ace6 873d aed6 58be
00000210: a980 2abd 4b8a 553e 66aa a8be 2455 b1be
00000220: 8fd7 95be 3b49 723e 5e97 083e 9bbd 943d
00000230: e6ed d5bd 70d3 f43e 2e0f 6b3c a7b9 aa3e
00000240: 5f62 b1be 4948 18be 4868 cc3e fa89 6f3d
00000250: cacf 87bd 29da debd cdb5 363f eca6 863e
00000260: af60 89be 9e55 3f3e 302f a63d 1552 533e
00000270: 48da 0a3e fcd5 593d a5b8 a23d 3ecb 1e3f
00000280: c83c 103f 7bac 043f 401d 303e bf09 0c3f
00000290: 220f 123c 9aa8 d9be 93b9 4c3e d33d dbbd
000002a0: ceff 1b3f 73fd a43d e8fc b4ba afb0 8fbe
000002b0: 6345 b23d f599 5d3e 4cb5 f03e d30b 2e3e
000002c0: 75d6 8c3d 605f 4c3d 1597 4f3e 3a5e 793e
000002d0: af13 e33c 6808 f5bb 69db c4bd 0227 c3be
000002e0: 2b38 2dbe f9c3 20bd 3255 e6be 6d66 553e
000002f0: 5212 a03b 4d1e f23d 24c8 883e a648 d23e
00000300: ea8d 643d a82e b7bd 6245 88bd f944 06be
00000310: e040 0abe 83b4 8e3d cfad a1be dbc8 b13c
00000320: ef70 bd3e 44be 853e 652a cdbd adb1 03be
00000330: dea8 223f cd1f 173f 333c 0b3e 0633 c6be
00000340: 5245 fdbd 4213 fd3e 5b83 cfbc 59ed 123e
00000350: 1f92 483e 849b c53d 0e9f a6be 06ac c4bd
00000360: a7a7 f7be 572d e73d 1bad 913e 6a58 0c3d
00000370: 939b 44bd ac45 32be de3e 413f 2573 273f
00000380: 1c44 d73d 81e7 a1bd 4c7a 9c3e 143f e53e
00000390: 6347 1cbe 014f 2c3e 7517 debd ecad ff3e
000003a0: f5ba e73e ac3d c8be db0d 983c 134a 173e
000003b0: 39bb 1bbd f1fa f6be 79ab c03d 1051 41bc
000003c0: 9fe3 383f 78b9 9e3e 2c27 883e 10d6 12bf
000003d0: 98ee ccbd 9305 c93e 392e efbe 50b7 1c3e
000003e0: c951 fd3d b20f 5abd 1272 083e 2144 60be
000003f0: 8718 2ebe f13c 933e 0a67 213e 9abf a23e

shared.0.bias f4 [256]
0.084941454 -0.21433003 -0.27285773 -0.26394424 -0.11901884 0.11767025 0.13825893 0.3337191
0.10301515 -0.3820779 -0.0283051 0.15502189 0.49773696 -0.01157204 -0.18436773 -0.45758733
0.0424725 -0.09380259 0.09224515 0.18020496 -0.4496741 0.49264967 -0.14731573 -0.25123122
-0.12437791 0.33674082 -0.038537733 -0.07358906 0.50527585 -0.098556414 -0.26270914 -0.37309128
0.28541675 0.105053425 0.16558295 -0.18440416 0.4371754 0.010387622 -0.369493 -0.049797308
0.43044508 -0.19112274 0.4392826 -0.23124425 0.56257474 0.032793574 -0.03326572 -0.02420357
-0.1964914 -0.23118538 -0.059628464 -0.031187253 0.08797547 0.15915774 0.0909468 -0.23328647
0.36970258 0.17497022 -0.07825926 0.31615758 0.6015135 -0.18443605 0.60087 0.2723705
-0.10225871 0.13433103 0.29666945 0.35449457 0.4492197 0.20735605 0.3210208 0.27927864
0.09592085 -0.40105054 0.03323959 0.13211314 0.0042170854 -0.2662654 0.23537023 -0.14075565
-0.38063142 0.50688 0.047890697 -0.2941262 0.3260565 0.19436634 -0.083929814 -0.016854333
-0.11358905 0.023962684 0.042579275 0.0014298104 0.27791876 -0.051545158 0.4437583 -0.013458054
0.11571001 0.11160736 -0.28782174 -0.14907596 0.119716346 -0.21708573 0.20733543 0.124300644
0.23005378 -0.024432529 0.4776506 -0.2433138 -0.020024858 -0.4182605 -0.2727247 -0.0065310914
-0.2389109 -0.19682647 0.013579061 0.21625727 0.51520985 -0.2918653 -0.14069325 -0.49457803
-0.5193513 -0.19081104 0.16098192 0.30500454 -0.3060381 -0.23317225 -0.3341714 0.39461413
0.16740425 -0.3001436 0.24022396 -0.086577006 -0.0028341953 -0.2437045 0.10597148 -0.33489352
-0.28077418 -0.10905636 -0.018567702 -0.027555091 -0.19007455 -0.03023712 -0.070605725 0.40015
0.55527335 -0.30535215 0.3251351 0.17160706 0.06388999 0.223271 0.19153845 0.40662736
-0.2460305 -0.23326613 0.24590476 0.26357767 0.1557851 0.35260734 0.018501464 0.4486709
-0.50911665 -0.31486303 0.21896817 0.41507655 -0.029144404 -0.2315955 0.49687767 -0.11057348
0.08714975 0.0140872765 0.48030898 0.0024739106 -0.2160525 -0.26307592 0.3691757 0.3955895
0.25944504 -0.28932455 0.14754394 -0.13393208 -0.049557578 -0.15989926 -0.24711177 0.5777919
-0.073049605 -0.42961016 -0.14532174 0.12394791 -0.22238678 -0.07533777 -0.07562057 0.039298303
-0.12247639 -0.37649152 0.5679018 0.19273473 0.09223136 0.04430343 -0.004186276 0.47220063
-0.12788095 -0.33164445 -0.033934955 -0.26687053 -0.12834208 -0.23469394 -0.13985062 -0.24069202
-0.31599095 0.001822085 -0.38920507 0.4377134 0.0884066 0.13389769 0.5731915 -0.18588568
0.014836568 0.010021302 -0.4819633 -0.45883998 0.25982872 -0.11860977 -0.2227673 0.4470798
0.1069421 -0.17459229 -0.10888713 -0.262752 -0.28900808 -0.060416076 0.56452703 0.39734396
0.6473167 -0.35673672 -0.2816886 0.49860594 -0.34190914 -0.12368463 -0.0850543 0.5632133
-0.14039312 0.019148052 0.104223214 -0.006552325 -0.21306215 0.024639644 0.024149789 -0.30535865
0.079781234 0.050428633 -0.10524311 0.4740721 -0.46501732 0.41380617 0.015110486 0.38936657
00000000: c9f5 ad3d 5579 5bbe 02b4 8bbe b323 87be
00000010: 26c0 f3bd 1afd f03d c093 0d3e 3bdd aa3e
00000020: 9bf9 d23d b79f c3be 19e0 e7bc 0fbe 1e3e
00000030: 61d7 fe3e a798 3dbc e5ca 3cbe e348 eabe
00000040: a5f7 2d3d 931b c0bd 06eb bc3d a687 383e
00000050: af3b e6be 943c fc3e efd9 16be 61a1 80be
00000060: d8b9 febd 4b69 ac3e bed9 1dbd dcb5 96bd
00000070: c259 013f f2d7 c9bd d081 86be d205 bfbe
00000080: 2522 923e 4026 d73d 948e 293e 72d4 3cbe
00000090: 74d5 df3e d830 2a3c 302e bdbe 43f8 4bbd
000000a0: 4c63 dc3e aeb5 43be a6e9 e03e 4bcb 6cbe
000000b0: e604 103f 8e52 063d a341 08bd 9146 c6bc
000000c0: 0b35 49be dcbb 6cbe fa3c 74bd 697c ffbc
000000d0: 7c2c b43d 3ffa 223e 5142 ba3d a6e2 6ebe
000000e0: a849 bd3e 652b 333e 6446 a0bd 68df a13e
000000f0: cafc 193f cedc 3cbe 9ed2 193f 2574 8b3e
00000100: 046d d1bd 138e 093e 0fe5 973e 5080 b53e
00000110: 2000 e63e 2555 543e d75c a43e 9cfd 8e3e
00000120: 2772 c43d 7f56 cdbe 3c26 083d ab48 073e
00000130: 7a2f 8a3b f053 88be e504 713e 4022 10be
00000140: 1fe2 c2be e3c2 013f 0929 443d b697 96be
00000150: e1f0 a63e f807 473e 65e3 abbd 1912 8abc
00000160: 60a1 e8bd 644d c43c 9b67 2e3d 7a68 bb3a
00000170: 5e4b 8e3e 0421 53bd 4a34 e33e 2b7f 5cbc
00000180: 5ff9 ec3d 6692 e43d 5f5d 93be 5ea7 18be
00000190: d82d f53d b94b 5ebe bd4f 543e 5691 fe3d
000001a0: 3893 6b3e ba26 c8bc 9f8e f43e 4127 79be
000001b0: 2c0b a4bc 3e26 d6be 92a2 8bbe c402 d6bb
000001c0: 0fa5 74be e18c 49be b67a 5e3c 8c72 5d3e
000001d0: cbe4 033f 5e6f 95be e411 10be 5539 fdbe
000001e0: 35f4 04bf f863 43be 72d8 243e 8e29 9c3e
000001f0: 07b1 9cbe b5c4 6ebe 8418 abbe dd0a ca3e
00000200: 056c 2b3e 6cac 99be 45fd 753e 494f b1bd
00000210: e8bd 39bb ac8d 79be 9307 d93d 2a77 abbe
00000220: a2c1 8fbe f158 dfbd 4b1b 98bc 37bb e1bc
00000230: e7a2 42be d6b3 f7bc bc99 90bd 76e0 cc3e
00000240: 6526 0e3f 1e57 9cbe 1c78 a63e c3b9 2f3e
00000250: c1d8 823d 27a1 643e a822 443e 7631 d03e
00000260: 6bef 7bbe 51dd 6ebe 75ce 7b3e a7f3 863e
00000270: 2186 1f3e f388 b43e 6290 973c 31b8 e53e
00000280: 7855 02bf ba35 a1be 3139 603e ea84 d43e
00000290: 3fc0 eebc 5f27 6dbe c066 fe3e 5974 e2bd
000002a0: 917b b23d 52ce 663c 0feb f53e 5521 223b
000002b0: de3c 5dbe e3b1 86be 9904 bd3e b58a ca3e
000002c0: fbd5 843e 5922 94be c215 173e 7e25 09be
000002d0: e3fc 4abd a2bc 23be de0a 7dbe 2cea 133f
000002e0: 089b 95bd ddf5 dbbe 39cf 14be 67d8 fd3d
000002f0: 5cb9 63be b04a 9abd f5de 9abd 42f7 203d
00000300: e7d4 fabd 7fc3 c0be 0362 113f 415c 453e
00000310: cce3 bc3d 8377 353d 072d 89bb 48c4 f13e
00000320: 39f3 02be 4dcd a9be 61ff 0abd 41a3 88be
00000330: 1b6c 03be 9c53 70be 0035 0fbe f877 76be
00000340: 91c9 a1be 07d3 ee3a e345 c7be f91b e03e
00000350: 850e b53d 7a1c 093e aebc 123f d158 3ebe
00000360: 1415 733c 6330 243c e5c3 f6be 13ed eabe
00000370: 4508 853e aee9 f2bd 1c1d 64be a5e7 e43e
00000380: 7604 db3d 52c8 32be 3700 dfbd 6e87 86be
00000390: def8 93be d976 77bd d884 103f ab70 cb3e
000003a0: 8cb6 253f 32a6 b6be 7d39 90be 4749 ff3e
000003b0: b70e afbe 5e4e fdbd f330 aebd bf2e 103f
000003c0: 37c3 0fbe 60dc 9c3c fb72 d53d e3b4 d6bb
000003d0: f72c 5abe 14d9 c93c c7d5 c53c f857 9cbe
000003e0: 5864 a33d 418e 4e3d b389 d7bd 94b9 f23e
000003f0: c016 eebe 67de d33e f991 773c 0e5b c73e

shared.2.weight f4 [256, 256]
-0.0627928 -0.104188435 -0.101908416 -0.053559374 -0.008789157 0.18538217 0.11449235 0.1249901
-0.13979764 -0.09941041 0.06843164 0.08937567 0.08570596 -0.0127389915 -0.12384456 -0.01733477
-0.032134514 0.05745212 -0.04507353 -0.04544031 -0.24658908 0.056371003 0.047344614 -0.10758028
-0.03562521 -0.04147092 -0.049304876 -0.139087 -0.026820615 -0.041773275 -0.19182988 -0.25617987
-0.055895194 0.0026001064 -0.06378175 0.11442173 -0.045272652 0.028635878 -0.07019765 -0.19992751
0.058510702 0.07230005 0.003535812 -0.057980366 0.15103647 -0.03769007 -0.04915485 0.05442061
0.07698408 0.075455084 -0.041100103 -0.06654768 0.015089596 -0.0202159 -0.029605277 -0.17503631
0.052514177 -0.05078936 -0.018218579 0.06466432 0.098392926 -0.0005605115 0.02552524 -0.016479226
-0.13007556 0.041488033 0.015986944 -0.019774025 0.06748687 -0.13236682 0.14752759 0.020215545
0.0068304115 -0.08582856 -0.20213789 0.024826402 -0.0015380994 -0.14188929 -0.074149124 -0.020038381
-0.12547684 0.0524679 0.07652498 -0.018661238 0.05810073 0.06828881 0.045001373 0.049694747
0.08454404 -0.14550032 0.03600985 -0.0463108 -0.058093496 0.045545973 0.076431334 0.013086718
0.051317703 0.01978664 -0.0052733747 0.022953164 -0.027416708 0.14894763 -0.036420375 -0.02212144
0.0640093 -0.28460002 -0.07976931 -0.14068721 0.02414235 -0.04241859 -0.16995983 -0.09324503
-0.0074746367 -0.030164698 0.07461601 -0.014788361 0.040718284 -0.11398377 -0.02251999 -0.038611174
-0.15672874 -0.11253051 -0.025299676 0.098043874 0.06815397 -0.22675736 -0.015617148 0.068886325
0.018400947 0.07486703 0.0042949263 0.014177295 0.0004093842 -0.0985378 0.005090472 -0.006606102
0.051661562 0.07421672 0.061349317 -0.0075831753 0.032569412 -0.19151251 -0.07469099 -0.0031452149
-0.06509636 -0.15016735 0.059988886 -0.067790724 0.019616174 0.05565367 -0.04789987 -0.085311875
0.024980837 -0.20764425 -0.023957869 -0.0465085 0.067213066 -0.108373165 0.050348636 -0.027121216
-0.15015572 -0.0018641237 0.025854457 0.077122 0.046924897 -0.15323669 -0.08239426 0.069904774
0.12751152 0.072797015 -0.046895944 -0.0075851018 -0.23510621 -0.15817897 -0.08663163 0.16271456
0.022318877 0.060133323 0.019363979 -0.07908121 0.03353902 0.06893616 0.42726365 0.09296998
-0.07866169 -0.018196851 0.02027678 -0.07469053 0.03521272 -0.15605155 -0.047137856 0.14355405
-0.112845466 -0.206106 -0.05089661 -0.03604214 0.06794231 -0.050496675 0.011027976 -0.074394144
-0.025757153 -0.05226187 -0.22584768 -0.04929531 -0.23468529 -0.017588152 0.027743597 -0.09527915
-0.08742651 0.025391392 -0.1142701 -0.01945994 -0.003378455 -0.007852692 -0.013394344 0.012785828
0.032701656 0.053514387 -0.019215215 -0.1405085 0.063789375 0.024356386 0.05978659 -0.012557483
0.044173487 0.027717594 -0.033170063 -0.121353686 -0.12188745 -0.010901705 0.030447174 -0.054019038
0.026366662 -0.16405497 -0.090309106 -0.021210587 -0.1384112 -0.32068172 0.041963514 -0.013712467
-0.24610202 0.01461601 0.07360823 -0.011196905 0.079405144 0.01631485 -0.0013467341 -0.005919702
0.025153121 0.03910484 -0.079989515 -0.04361287 -0.16517779 -0.109630935 0.06173541 0.032844182
00000000: 8399 80bd bf60 d5bd 5cb5 d0bd 1361 5bbd
00000010: 6500 10bc d3d4 3d3e f77a ea3d cffa ff3d
00000020: 1d27 0fbe af97 cbbd e325 8c3d 970a b73d
00000030: 9b86 af3d 34b7 50bc 37a2 fdbd a601 8ebc
00000040: 7b9f 03bd ea52 6b3d 069f 38bd 9e1f 3abd
00000050: d981 7cbe 48e5 663d 6dec 413d 0d53 dcbd
00000060: bdeb 11bd 69dd 29bd e9f3 49bd d36c 0ebe
00000070: e8b6 dbbc 741a 2bbd 0d6f 44be 022a 83be
00000080: 5cf2 64bd 8c66 2a3b 02a0 82bd f155 ea3d
00000090: d16f 39bd ca95 ea3c c9c3 8fbd ccb9 4cbe
000000a0: eba8 6f3d 0c12 943d 15b9 673b d27c 6dbd
000000b0: 4ea9 1a3e e760 1abd 9956 49bd 25e8 5e3d
000000c0: d4a9 9d3d 3288 9a3d 9558 28bd 264a 88bd
000000d0: 5a3a 773c d19b a5bc c486 f2bc b83c 33be
000000e0: 1b19 573d 8108 50bd 213f 95bc ba6e 843d
000000f0: 3b82 c93d 4aef 12ba 4f1a d13c 71ff 86bc
00000100: 8732 05be 5bef 293d 0df7 823c 23fd a1bc
00000110: 8e36 8a3d 2b8b 07be 7911 173e 129b a53c
00000120: a5d1 df3b e2c6 afbd 3cfd 4ebe bd60 cb3c
00000130: 0d9a c9ba 6d4b 11be 7fdb 97bd 8827 a4bc
00000140: 007d 00be 95e8 563d 21b9 9c3d 74df 98bc
00000150: 08fb 6d3d 01db 8b3d 5c53 383d b88c 4b3d
00000160: 6d25 ad3d 09fe 14be 117f 133d 65b0 3dbd
00000170: 72f3 6dbd 6a8e 3a3d 0888 9c3d ac69 563c
00000180: 8332 523d 9717 a23c 46cc acbb 4608 bc3c
00000190: 0199 e0bc ba85 183e 882d 15bd 0638 b5bc
000001a0: 4f17 833d 18b7 91be 185e a3bd 4f10 10be
000001b0: 2dc6 c53c 1ebf 2dbd f309 2ebe 40f7 bebd
000001c0: cced f4bb f51b f7bc 47d0 983d e24a 72bc
000001d0: 37c8 263d 5370 e9bd d87b b8bc c026 1ebd
000001e0: 807d 20be 6576 e6bd 4441 cfbc 3acb c83d
000001f0: 4f94 8b3d 1533 68be 11df 7fbc 4614 8d3d
00000200: 95bd 963c e353 993d 74bc 8c3b e347 683c
00000210: 9ea2 d639 30ce c9bd f9cd a63b 0078 d8bb
00000220: 139b 533d f0fe 973d 6c49 7b3d 497c f8bb
00000230: 8167 053d db1b 44be 97f7 98bd f31f 4ebb
00000240: 3e51 85bd 78c5 19be e8b6 753d ddd5 8abd
00000250: 19b2 a03c 1af5 633d a732 44bd feb7 aebd
00000260: 9da4 cc3c b2a0 54be 4b43 c4bc b27f 3ebd
00000270: 01a7 893d c0f2 ddbd 5f3a 4e3d 502d debc
00000280: 6cc2 19be 9d55 f4ba bacc d33c 24f2 9d3d
00000290: 5234 403d 14ea 1cbe 52be a8bd 3c2a 8f3d
000002a0: 6192 023e 9a16 953d f615 40bd 728c f8bb
000002b0: afbf 70be abf9 21be ed6b b1bd a59e 263e
000002c0: 14d6 b63c 5c4e 763d 35a1 9e3c 54f5 a1bd
000002d0: 3660 093d 672e 8d3d 4dc2 da3e 0b67 be3d
000002e0: 6119 a1bd 9011 95bc 7d1b a63c 59f7 98bd
000002f0: 373b 103d facb 1fbe a013 41bd d5ff 123e
00000300: 861b e7bd 740d 53be f778 50bd eca0 13bd
00000310: 5625 8b3d 9ad5 4ebd afae 343c f55b 98bd
00000320: aa00 d3bc 8b10 56bd 9d44 67be e1e9 49bd
00000330: 5751 70be 0715 90bc 8a46 e33c b721 c3bd
00000340: ac0c b3bd 9c01 d03c 7106 eabd 746a 9fbc
00000350: 1269 5dbb 94a8 00bc f373 5bbc a67b 513c
00000360: 2cf2 053d e731 5b3d 3a69 9dbc 76e1 0fbe
00000370: 01a4 823d 0b87 c73c c9e2 743d e7bd 4dbc
00000380: 42ef 343d 0210 e33c 55dd 07bd 4888 f8bd
00000390: 21a0 f9bd 119d 32bc 5a6c f93c 1143 5dbd
000003a0: e6fe d73c 07fe 27be fbf3 b8bd d3c1 adbc
000003b0: aabb 0dbe 6530 a4be efe1 2b3d 41aa 60bc
000003c0: 2b02 7cbe fd77 6f3c e9bf 963d 3973 37bc
000003d0: 2a9f a23d b8a6 853c e684 b0ba 0ffa c1bb
000003e0: eb0d ce3c 662c 203d 8bd1 a3bd 69a3 32bd
000003f0: 5e24 29be 2f86 e0bd 45de 7c3d 9f87 063d

shared.2.bias f4 [256]
0.05402566 0.24149975 -0.045130648 0.15639052 0.01455802 -0.013380194 -0.28835016 -0.12767647
0.027970402 0.05257562 0.08695586 0.017488996 0.028654782 -0.024433251 0.12216048 0.06334633
0.014828578 0.06519881 -0.023555184 0.0008862283 0.08510888 0.05619686 0.009562374 0.012008394
0.024355184 0.20117547 -0.03378489 -0.045540422 0.17720817 -0.026607223 0.21334492 0.030774314
-0.1850727 2.4889301e-05 0.15489185 -0.09817522 0.0626913 -0.031073658 0.042905863 0.093721025
-0.024873974 0.24848713 0.039527986 0.1311692 -0.115185 -0.039388336 0.012527764 0.0391514
0.08559684 -0.014136846 0.023458397 -0.04483988 0.0011030855 0.21446787 0.07683032 0.07452767
0.13637394 0.17738123 0.1290341 0.08078649 -0.04204948 0.11916003 0.07600101 0.039985426
0.0057002786 -0.10456987 -0.0035014476 -0.02581504 0.15463579 0.0282176 -0.068654604 0.2644723
0.1336629 0.038302615 0.1281342 0.006835668 0.1195044 -0.02231358 -0.016603297 0.14546993
0.09101844 -0.13085182 -0.033689033 -0.016961304 -0.19180495 0.055681664 0.09479962 -0.010259979
0.031465307 0.07410151 0.2206484 0.262261 -0.01314379 0.13729687 0.12571254 -0.032325424
0.04165462 0.0047726287 -0.040324677 -0.12442533 -0.025194602 0.2239668 -0.2911919 0.0016646003
0.05108757 0.004343881 -0.17081024 0.21935377 -0.03584872 -0.0096018175 -0.013534133 0.0057525267
-0.019507704 0.07185859 0.040730767 0.1786855 -0.087611526 0.2723661 0.07931823 -0.0141418455
0.03309261 0.27029878 0.0395929 -0.011141566 0.057921812 -0.10530253 0.08769725 0.050835177
0.17016968 0.17401712 -0.045389414 -0.03902831 -0.05180649 -0.12686066 -0.023824073 0.0035469115
-0.03285998 0.24746346 0.03144896 0.08124792 -0.18598245 -0.055095922 -0.04956467 0.025951542
-0.0525889 0.16408373 -0.051605474 0.14667818 -0.08026152 -0.13813381 0.07284544 0.046699904
0.031641103 0.27302653 0.06903228 -0.049982794 -0.2209253 0.008783398 -0.011518579 5.7158893e-05
0.06579748 0.14101326 0.03180973 0.045479402 0.12293434 -0.0053853653 -0.1689228 0.0010676789
-0.13975425 0.063248366 -0.0061968896 -0.04370377 -0.06654629 0.13239363 0.03026653 -0.060658433
0.06543986 0.006469379 0.19039133 0.010973045 0.08256341 0.114589944 0.104404144 0.10472828
0.059612274 0.008736118 0.16458134 -0.018110197 -0.02518032 0.029028613 0.20795123 -0.049475968
-0.025927095 0.22508588 -0.052000716 0.009548769 0.074016176 0.038598776 0.02778026 0.037569664
-0.040835008 0.21950166 0.039647903 0.06810698 0.1120092 0.02617147 0.099311024 0.01964394
-0.021485167 0.06492639 0.1451419 0.01269228 0.111702584 -0.019548343 0.080105364 0.064531766
-0.044649746 -0.00070337235 0.10885367 0.27304372 0.04583675 0.17650513 0.24598843 0.04357659
0.044068776 0.03965792 0.045449268 0.20586467 0.06322774 -0.10168852 -0.013999221 0.008240688
-0.012481221 0.07575989 -0.028689098 -0.09401663 0.019205244 0.018458746 0.13705283 -0.18284607
0.0009188949 -0.01792262 -0.20544595 -0.16982754 0.010195001 -0.12511094 0.05712037 -0.12562533
-0.015618286 0.021100273 0.03595069 -0.037338484 0.027125707 0.02790962 -0.014447834 -0.031763643
00000000: 034a 5d3d b64b 773e eada 38bd d624 203e
00000010: c384 6e3c 9a38 5bbc a2a2 93be 9fbd 02be
00000020: 2f22 e53c 8959 573d ea15 b23d 1545 8f3c
00000030: 6fbd ea3c 3e28 c8bc 462f fa3d b8bb 813d
00000040: 90f3 723c f486 853d cdf6 c0bc c651 683a
00000050: 914d ae3d ae2e 663d 81ab 1c3c dbbe 443c
00000060: 8684 c73c f100 4e3e 0662 0abd 9888 3abd
00000070: 0f76 353e 64f7 d9bc 1777 5a3e 6a1a fc3c
00000080: b383 3dbe 5ec9 d037 f89b 1e3e 1710 c9bd
00000090: 4c64 803d 2f8e febc 0fbe 2f3d cff0 bf3d
000000a0: 81c4 cbbc 6973 7e3e 19e8 213d 3851 063e
000000b0: 1de6 ebbd aa55 21bd 4041 4d3c 385d 203d
000000c0: 654d af3d 3b9e 67bc d32b c03c 06aa 37bd
000000d0: 6895 903a 779d 5b3e 3759 9d3d f7a1 983d
000000e0: 9ca5 0b3e 6da3 353e 8421 043e 6373 a53d
000000f0: 133c 2cbd 2c0a f43d 6ba6 9b3d c2c7 233d
00000100: 67c9 ba3b ba28 d6bd 8b78 65bb 107a d3bc
00000110: d858 1e3e 9928 e73c c99a 8cbd ea68 873e
00000120: edde 083e 34e3 1c3d 9d35 033e bdfd df3b
00000130: b9be f43d f8ca b6bc a303 88bc 12f6 143e
00000140: e067 ba3d 05fe 05be 83fd 09bd 6ff2 8abc
00000150: 8468 44be 7512 643d 4e26 c23d 7919 28bc
00000160: c4e1 003d 88c2 973d a7f1 613e 1347 863e
00000170: 0d59 57bc 8d97 0c3e caba 003e aa67 04bd
00000180: 099e 2a3d b663 9c3b 7d2b 25bd b5d2 febd
00000190: e964 cebc 8e57 653e 1b17 95be b82e da3a
000001a0: 3341 513d 1d57 8e3b e1e8 2ebe 469e 603e
000001b0: 1cd6 12bd f150 1dbc 45be 5dbc b17f bc3b
000001c0: 9fce 9fbc 992a 933d 4ed5 263d 55f9 363e
000001d0: ac6d b3bd 9273 8b3e 9971 a23d 33b3 67bc
000001e0: 1e8c 073d 9a64 8a3e 2a2c 223d 1d8b 36bc
000001f0: 6c3f 6d3d daa8 d7bd 9e9a b33d 8c38 503d
00000200: f640 2e3e 8b31 323e 40ea 39bd 26dc 1fbd
00000210: 0b33 54bd c3e7 01be b42a c3bc 4d73 683b
00000220: 3098 06bd 1067 7d3e a0d0 003d 4f65 a63d
00000230: 2f72 3ebe 43ac 61bd 5304 4bbd 5498 d43c
00000240: 7567 57bd 9105 283e 4360 53bd ce32 163e
00000250: 2760 a4bd f372 0dbe fd2f 953d 6648 3f3d
00000260: 1a9a 013d 22ca 8b3e cc60 8d3d c2ba 4cbd
00000270: 3e3a 62be 3ee8 0f3c 6cb8 3cbc e5bd 6f38
00000280: d4c0 863d c865 103e eb4a 023d 9c48 3a3d
00000290: 00c5 fb3d b877 b0bb 19fa 2cbe 5cf1 8b3a
000002a0: bd1b 0fbe 5c88 813d 470f cbbb b902 33bd
000002b0: 6c49 88bd 3292 073e 84f1 f73c fa74 78bd
000002c0: 5505 863d 16fd d33b f2f5 423e 49c8 333c
000002d0: 0117 a93d 22ae ea3d d7d1 d53d c87b d63d
000002e0: 002c 743d ef21 0f3c 0388 283e d65b 94bc
000002f0: f546 cebc 6acd ed3c 2bf1 543e 50a7 4abd
00000300: 0f65 d4bc ea7c 663e b4fe 54bd 7172 1c3c
00000310: cb95 973d c019 1e3d 6e93 e33c a6e2 193d
00000320: 9c42 27bd 0bc5 603e d765 223d ac7b 8b3d
00000330: 1465 e53d 8d65 d63c 9463 cb3d 54ec a03c
00000340: a901 b0bc 21f8 843d 14a0 143e 48f3 4f3c
00000350: 53c4 e43d d923 a0bc 480e a43d 3b29 843d
00000360: a7e2 36bd 8562 38ba acee de3d 63cc 8b3e
00000370: 51bf 3b3d c3bd 343e 64e4 7b3e 5e7d 323d
00000380: 7681 343d 5870 223d 0329 3a3d 30ce 523e
00000390: 8c7d 813d 1242 d0bd fd5c 65bc f303 073c
000003a0: 097e 4cbc 0028 9b3d 6605 ebbc ca8b c0bd
000003b0: 5154 9d3c cc36 973c 9457 0c3e 003c 3bbe
000003c0: fee1 703a 75d2 92bc 6c60 52be 45e7 2dbe
000003d0: ef08 273c 151d 00be 0df7 693d eda3 00be
000003e0: d7e3 7fbc 7bda ac3c 0841 133d 3df0 18bd
000003f0: bb36 de3c b7a2 e43c 9cb6 6cbc 981a 02bd

actor.weight f4 [3, 256]
0.1650109 -0.037575863 -0.0020221644 -0.0034605984 -0.13753496 -0.07839151 -0.07897514 -0.030953122
0.03428403 0.059996314 0.18729107 -0.016746074 0.1280994 -0.017683761 0.12721598 5.2916872e-05
0.13318978 0.0400963 0.009987508 0.053530134 0.13818118 0.060819723 -0.24234231 -0.026289143
-0.00489666 0.07204396 0.030653724 -0.026084404 -0.16327092 0.011460952 -0.20711891 -0.0053668465
0.063799255 0.007611834 0.3465365 -0.01617405 0.107179426 -0.085003436 -0.16770133 -0.040529277
0.043784596 0.1077858 0.045630977 0.07550317 0.003752012 -0.008501747 0.08858589 0.19784752
0.06201319 0.011733079 -0.10176983 -0.052998934 0.031746387 0.25579104 0.28034952 0.06799851
-0.022937987 0.30424345 0.1896198 -0.01092453 -0.0087313885 0.10845062 -0.08590287 -0.08955863
-0.3959583 -0.018159471 0.04802839 -0.0045899292 0.15505436 -0.0051194774 0.074641936 0.27448142
-0.0049520326 -0.097313836 -0.22233313 0.030721767 -0.041241117 0.0037805357 0.022639932 0.20890185
0.024904054 0.0051057115 -0.032333948 0.044706464 0.0056472677 0.18974543 0.12688063 0.04987055
-0.039678257 0.14932975 -0.055205222 0.14092907 0.022370387 0.030814782 0.045950845 0.009969733
0.02548945 -0.017536111 0.05437777 0.051617045 0.09270784 0.09670249 -0.001970326 0.043037932
-0.04019425 0.028331976 -0.020871313 -0.24788034 -0.2401158 -0.006183119 0.11202298 0.033906724
0.084878765 0.07403568 0.19334924 -0.033117503 0.099683456 0.051787943 0.04615286 -0.11684622
0.059902657 0.1001136 0.024225192 -0.013908157 0.09176853 -0.022062207 -0.07055379 0.07613229
-0.010547777 0.06678339 -0.014793584 0.045061793 -0.05430696 0.02857701 0.033597 0.0029673493
0.1447293 -0.5526777 -0.04741958 -0.07099238 0.09266603 -0.05251175 -0.025030188 0.047429413
0.008958365 0.21810436 0.02733126 0.16882157 0.022445558 0.0064032828 -0.0031356406 0.0011799712
0.07479617 -0.10961981 -0.105862476 0.06380259 0.01922979 -0.02324063 0.014108692 0.0028091853
0.025095422 0.087011576 -0.08777406 0.034068257 0.053401873 0.06177858 -0.05960291 0.018472845
0.11952873 0.021797145 0.06700285 -0.006967057 0.024413398 0.088331446 -0.016263982 0.007630445
-0.0625456 0.10823652 0.25868124 -0.03203444 0.012498334 -0.06109556 0.061322343 0.15331656
-0.009700682 -0.114965856 -0.07861201 0.052681644 0.060349893 0.024557302 0.25100312 -0.029472262
0.020388033 0.04540344 0.0072772335 -0.032892518 -0.13281487 -0.004624798 -0.013308926 0.025636002
0.0063310894 0.033767734 0.15810141 -0.08352616 -0.050145354 0.06474916 0.22726263 -0.102636404
0.06144077 0.07909718 0.10014577 0.10024404 0.008672155 0.11095695 -0.04687015 -0.022064293
0.031508844 -0.015465289 0.1962431 -0.44595474 0.12177663 -0.16752046 0.08574465 0.024736252
0.1454678 -0.11678545 0.10035222 0.043929867 -0.068891995 0.06725213 0.11283358 -0.1120167
0.11936582 -0.007167894 -0.052624077 0.026842719 -0.0049762214 0.024403412 -0.31453186 0.104343235
0.048919596 -0.05044886 0.06300049 -0.00089103857 -0.026937965 0.14505528 0.008614891 0.070798166
-0.08634761 0.11687664 -0.06529862 -0.24560449 -0.058833007 0.13941315 0.021231921 0.009253348
00000000: 9ef8 283e 26e9 19bd 4a86 04bb 35cb 62bb
00000010: f7d5 0cbe ba8b a0bd b8bd a1bd 6791 fdbc
00000020: 696d 0c3d b2be 753d 3bc9 3f3e 102f 89bc
00000030: 7d2c 033e 89dd 90bc e844 023e 0ff3 5d38
00000040: e762 083e 053c 243d a5a2 233c 6a42 5b3d
00000050: 5e7f 0d3e 1a1e 793d 9528 78be 545c d7bc
00000060: 2974 a0bb c98b 933d 851d fb3c f6ae d5bc
00000070: 7e30 27be b8c6 3b3c fb16 54be 5fdc afbb
00000080: 2fa9 823d b16c f93b 3b6d b13e 717f 84bc
00000090: e380 db3d 4816 aebd e6b9 2bbe 0702 26bd
000000a0: 7a57 333d cdbe dc3d 8ce7 3a3d 68a1 9a3d
000000b0: 51e4 753b e94a 0bbc 856c b53d 8a98 4a3e
000000c0: 8b01 7e3d 1a3c 403c b36c d0bd 6915 59bd
000000d0: 8008 023d 0bf7 823e f989 8f3e ce42 8b3d
000000e0: 72e8 bbbc ccc5 9b3e b12b 423e cdfc 32bc
000000f0: 190e 0fbc 5c1b de3d d8ed afbd 846a b7bd
00000100: 0cbb cabe 2cc3 94bc 6bb9 443d 1e67 96bb
00000110: 92c6 1e3e 4ac1 a7bb dfdd 983d d488 8c3e
00000120: a944 a2bb 7a4c c7bd 4cab 63be 37ac fb3c
00000130: 72ec 28bd ddc2 773b 6177 b93c 5eea 553e
00000140: 9603 cc3c d04d a73b 9a70 04bd 201e 373d
00000150: b70c b93b a04c 423e ffec 013e 1045 4c3d
00000160: ab85 22bd e6e9 183e df1e 62bd b64f 103e
00000170: 1a42 b73c 486f fc3c f436 3c3d 1758 233c
00000180: 40cf d03c e4a7 8fbc 39bb 5e3d 656c 533d
00000190: 9cdd bd3d f40b c63d 9620 01bb 8b48 303d
000001a0: baa2 24bd 7618 e83c 51fa aabc 58d4 7dbe
000001b0: ebe0 75be c39b cabb 4e6c e53d c7e1 0a3d
000001c0: ebd4 ad3d 05a0 973d 58fd 453e 38a6 07bd
000001d0: d726 cc3d 981f 543d c80a 3d3d 124d efbd
000001e0: 7d5c 753d 5c08 cd3d e973 c63c 0adf 63bc
000001f0: 24f1 bb3d cdbb b4bc 817e 90bd 3feb 9b3d
00000200: 95d0 2cbc bbc5 883d ca60 72bc b792 383d
00000210: fa70 5ebd 551a ea3c 029d 093d dc77 423b
00000220: eb33 143e 497c 0dbf 093b 42bd 7464 91bd
00000230: b0c7 bd3d 9016 57bd 1c0c cdbc 5845 423d
00000240: 1bc6 123c c056 5f3e cee5 df3c 90df 2c3e
00000250: bfdf b73c a1d2 d13b 527f 4dbb 43a9 9a3a
00000260: bc2e 993d 5a80 e0bd 6dce d8bd efaa 823d
00000270: cb87 9d3c 2263 bebc 2528 673c 4f1a 383b
00000280: ea94 cd3c 2033 b23d e3c2 b3bd 288b 0b3d
00000290: ecbb 5a3d 890b 7d3d 2e22 74bd 5d54 973c
000002a0: 7bcb f43d ed8f b23c ca38 893d e94b e4bb
000002b0: 9bfe c73c 1ee7 b43d 0b3c 85bc d008 fa3b
000002c0: e817 80bd 1cab dd3d de71 843e 8c36 03bd
000002d0: d0c5 4c3c 573f 7abd 232d 7b3d 04ff 1c3e
000002e0: 9cef 1ebc 3873 ebbd 55ff a0bd b5c8 573d
000002f0: 7331 773d 652c c93c 7b83 803e d06f f1bc
00000300: ce04 a73c f5f8 393d dc75 ee3b 4eba 06bd
00000310: 9f00 08be 9e8b 97bb ae0d 5abc 9802 d23c
00000320: 0775 cf3b 0950 0a3d 56e5 213e c30f abbd
00000330: 3765 4dbd 359b 843d 89b7 683e 0933 d2bd
00000340: 51a9 7b3d b4fd a13d 3a19 cd3d bf4c cd3d
00000350: a815 0e3c 663d e33d eafa 3fbd 2dc0 b4bc
00000360: 6b0f 013d 2062 7dbc f4f3 483e 2e54 e4be
00000370: 0766 f93d 7c8a 2bbe e49a af3d aea3 ca3c
00000380: 83f5 143e 362d efbd 7785 cd3d ceef 333d
00000390: 3f17 8dbd 7cbb 893d 4b15 e73d 0369 e5bd
000003a0: 1176 f43d a7e0 eabb 588c 57bd 43e5 db3c
000003b0: 920f a3bb aae9 c73c 520a a1be e8b1 d53d
000003c0: ea5f 483d 77a3 4ebd 6706 813d 9694 69ba
000003d0: 02ad dcbc 5f89 143e 7925 0d3c a1fe 903d
000003e0: 04d7 b0bd 055d ef3d 48bb 85bd be7f 7bbe
000003f0: e1fa 70bd 52c2 0e3e 91ee ad3c 5b9b 173c

actor.bias f4 [3]
0.058350317 -0.007391386 0.018722681
00000000: be00 6f3d 7133 f2bb 4f60 993c

critic.weight f4 [1, 256]
-0.08735012 0.09444813 -0.23665106 0.07681092 -5.0998366e-05 -0.03457911 0.04731461 -0.5276715
0.041541163 -0.40414953 -0.2691238 0.025879553 -0.019263726 -0.45133054 0.10631642 -0.017219584
-0.1617274 -0.3774734 -0.0015904673 -0.053136174 -0.3500211 -0.13003746 0.41824737 0.009912924
0.0068267714 0.26091412 0.03248521 0.24218617 0.16581509 0.0358352 0.14890474 0.05293925
0.0096112285 0.06167235 -0.18150058 -0.3597162 -0.015334662 -0.5149675 -0.23597066 0.046329744
0.03514492 0.15268779 0.001703259 0.044528436 0.055651523 -0.03581072 -0.17925808 0.44430745
-0.10485107 -0.03512178 -0.26168823 0.03203914 0.038292106 0.19264422 -0.09730294 -0.016932746
-0.100379504 0.121412694 -0.074047014 -0.043754935 -0.08972073 -0.04008446 -0.0031851958 0.08882178
0.37327784 -0.57420635 -0.44812202 -0.30986282 -0.25804204 0.04696567 -0.53117144 0.1555794
-0.08729313 0.026027523 -0.066456124 -0.025566956 -0.124293976 0.037999596 0.038934514 0.30096665
-0.062445607 0.069160156 0.051661223 0.038416 0.06442366 -0.25843656 -0.046098344 0.041329768
0.03791111 -0.06164299 0.12192202 0.07934315 0.024798129 -0.15704547 -0.10812852 -0.026494145
-0.0029327606 0.022658918 0.052926697 -0.51851493 -0.06207321 0.13330227 -0.014402828 -0.0026420401
-0.005756815 0.011956401 0.011576731 0.18981086 0.2878612 0.037723564 -0.2624758 0.013825867
-0.011024306 0.08429685 -0.09312876 0.05618362 0.16563497 0.21329966 -0.14368236 0.050247006
-0.06660453 0.14840813 -0.0027834852 -0.032273054 -0.017724706 -0.63023555 -0.00602152 -0.06349525
0.16696252 -0.23110399 -0.4262524 0.00031817215 0.035336215 0.05472402 0.02707951 -0.009654716
-0.2315644 0.53307855 -0.004078876 -0.08146343 0.061026443 0.054595776 -0.438555 -0.0014879372
0.04078367 -0.11669857 0.037208166 -0.121683046 0.006563479 -0.5994033 -0.08550529 -0.035371087
-0.16673025 0.19805065 0.016091282 -0.2963444 0.11578987 0.023555866 0.037650883 -0.03425357
-0.0356038 0.09832349 -0.015786707 0.06474344 -0.18004331 -0.6526714 0.089740135 0.050778747
0.04771133 0.016395608 -0.37445927 -0.019422587 -0.47015312 -0.20506865 0.0038188668 0.0046449113
-0.029019779 -0.020060642 0.26137763 -0.038772658 -0.024500938 -0.05960751 0.060609024 -0.175285
0.05942622 -0.017668473 0.27701685 0.0074251774 0.031282473 -0.0081651565 0.19226259 0.04780367
0.050760467 0.2084819 -0.5507873 -0.17888218 -0.10551369 -0.032688327 -0.009299169 0.043180298
0.02264787 0.091759026 -0.112691745 -0.044741586 -0.029608758 -0.4361418 -0.10713634 -0.17535235
-0.44578284 -0.108905755 -0.0743593 -0.018789375 0.07487688 -0.049360592 -0.0562823 0.015745318
-0.026119154 -0.40127143 -0.10036331 0.42819515 -5.5406716e-05 0.11598634 0.23102176 0.00088222476
-0.003710387 -0.09071655 0.06789557 0.12060915 -0.025843948 -0.5795223 -0.017071709 -0.012868503
-0.3937223 -0.3110399 0.20737234 -0.04091943 0.026462227 0.017575467 0.10792255 0.030553516
0.05394175 -0.1789848 0.034466546 0.0597622 0.030358542 0.0040250164 -0.020131132 -0.6397477
-0.022278214 -0.0094816685 -0.010907687 0.24908023 -0.043732964 -0.007079185 -0.45262522 0.039427944
00000000: 9fe4 b2bd 056e c13d a854 72be 0b4f 9d3d
00000010: 14e7 55b8 d3a2 0dbd f7cc 413d 7b15 07bf
00000020: 1127 2a3d b0ec cebe 98ca 89be 5b01 d43c
00000030: f6ce 9dbc cc14 e7be 6cbc d93d 1610 8dbc
00000040: de9b 25be 3244 c1be 3a77 d0ba 51a5 59bd
00000050: f735 b3be 8a28 05be 8524 d63e d169 223c
00000060: 1cb3 df3b 8996 853e 360f 053d a7ff 773e
00000070: 6ecb 293e eec7 123d 7c7a 183e d4d6 583d
00000080: 6a78 1d3c 259c 7c3d 4adb 39be b92c b8be
00000090: 3c3e 7bbc e9d4 03bf 4ba2 71be 42c4 3d3d
000000a0: 1ff4 0f3d 305a 1c3e e33f df3a 7363 363d
000000b0: daf2 633d 43ae 12bd 6e8f 37be 447c e33e
000000c0: 28bc d6bd dbdb 0fbd 00fc 85be 793b 033d
000000d0: 2fd8 1c3d 8744 453e c446 c7bd 8bb6 8abc
000000e0: c593 cdbd 38a7 f83d f6a5 97bd 6038 33bd
000000f0: 81bf b7bd 9a2f 24bd b8be 50bb 32e8 b53d
00000100: 461e bf3e 30ff 12bf 4070 e5be 57a6 9ebe
00000110: 161e 84be 135f 403d dafa 07bf 3550 1f3e
00000120: bec6 b2bd ac37 d53c 261a 88bd cb71 d1bc
00000130: d78d febd 77a5 1b3d cc79 1f3d 4d18 9a3e
00000140: f7c6 7fbd d7a3 8d3d b89a 533d 185a 1d3d
00000150: 8df0 833d cc51 84be 9ed1 3cbd 6749 293d
00000160: ae48 1b3d 5c7d 7cbd 41b2 f93d a97e a23d
00000170: 7225 cb3c 87d0 20be 7c72 ddbd 400a d9bc
00000180: 8f33 40bb 329f b93c aac9 583d 65bd 04bf
00000190: 7a40 7ebd 6480 083e d7f9 6bbc 1426 2dbb
000001a0: aaa3 bcbb c8e4 433c 54ac 3d3c c75d 423e
000001b0: 8b62 933e 0684 1a3d 3a63 86be e485 623c
000001c0: 4a9f 34bc d4a3 ac3d 4bba bebd cc20 663d
000001d0: 379c 293e 3a6b 5a3e 7821 13be cecf 4d3d
000001e0: f567 88bd 4df8 173e 226b 36bb c030 04bd
000001f0: 6733 91bc 1e57 21bf 2c50 c5bb cc09 82bd
00000200: 39f8 2a3e 86a6 6cbe c13d dabe 58d0 a639
00000210: b5bc 103d 4b26 603d d9d5 dd3c d02e 1ebc
00000220: 381f 6dbe d677 083f 18a8 85bb 4cd6 a6bd
00000230: ddf6 793d d29f 5f3d 488a e0be e306 c3ba
00000240: c70c 273d a9ff eebd 9767 183d f634 f9bd
00000250: 7412 d73b 7f72 19bf 661d afbd 46e1 10bd
00000260: 56bb 2abe cacd 4a3e ddd1 833c 74ba 97be
00000270: 3d23 ed3d 3bf8 c03c d037 1a3d 794d 0cbd
00000280: 4ad5 11bd d35d c93d 2053 81bc 3598 843d
00000290: 465d 38be 7915 27bf adc9 b73d 60fd 4f3d
000002a0: f56c 433d 1550 863c 20b9 bfbe 1e1c 9fbc
000002b0: e9b7 f0be 84fd 51be f445 7a3b 5734 983b
000002c0: e3ba edbc 3756 a4bc 4ad3 853e 14d0 1ebd
000002d0: 31b6 c8bc 0127 74bd 2b41 783d e97d 33be
000002e0: e868 733d 79bd 90bc 27d5 8d3e e74e f33b
000002f0: 0d22 003d 26c7 05bc 7ce0 443e c8cd 433d
00000300: 35ea 4f3d 477c 553e 6600 0dbf e42c 37be
00000310: 9017 d8bd 32e4 05bd 8b5b 18bc d3dd 303d
00000320: 0788 b93c 28ec bb3d eeca e6bd f442 37bd
00000330: 118e f2bc fa4d dfbe 4c6a dbbd 918f 33be
00000340: a63d e4be fb09 dfbd b049 98bd 2dec 99bc
00000350: 0d59 993d 552e 4abd 4588 66bd 53fc 803c
00000360: d6f7 d5bc 7373 cdbe 478b cdbd 653c db3e
00000370: 8264 68b8 3f8a ed3d f890 6c3e 1a45 673a
00000380: f729 73bb 99c9 b9bd d50c 8b3d ee01 f73d
00000390: b0b6 d3bc 935b 14bf f8d9 8bbc 6ad6 52bc
000003a0: f895 c9be 9f40 9fbe 6a59 543e 229b 27bd
000003b0: 50c7 d83c 6dfa 8f3c 7f06 dd3d 5e4b fa3c
000003c0: 06f2 5c3d cb47 37be cb2c 0d3d 35c9 743d
000003d0: 7ab2 f83c 49e4 833b 0bea a4bc 81c6 23bf
000003e0: cd80 b6bc 0059 1bbc 28b6 32bc e30e 7f3e
000003f0: 5621 33bd 82f8 e7bb 7ebe e7be 327f 213d
