Experimenten/Experiment1Snake/PPO/ppo_snake_3300.pth (torch, 280852 bytes, 7 tensors)

shared.0.weight f4 [256, 9]
0	0x3e417649	0.18892778
1	0xbdbc849c	-0.09204981
2	0x3eccf9df	0.40034387
3	0xbe1f734f	-0.1557133
4	0x3c4fadf3	0.01267575
5	0x3d1653e5	0.0367011
6	0x3f18aba9	0.5963693
7	0x3eda3bb5	0.42623678
8	0xbd4e3f42	-0.050353296
9	0xbeb82440	-0.35965157
10	0x3e2d3f96	0.16918787
11	0x3d946ac4	0.072469264
12	0xbe82b63f	-0.25529668
13	0xbd25f1ae	-0.040513687
14	0xbe94510f	-0.28968093
15	0x3e25ab03	0.16178517
16	0xbe8beaaf	-0.27327487
17	0xbebbfe8e	-0.36717647
18	0x3de84f6e	0.11343275
19	0xbd1c7658	-0.0381988
20	0x3e907a76	0.2821843
21	0xbd948524	-0.07251957
22	0x3d4948fb	0.049141865
23	0xbe9e23b2	-0.30886608
24	0xbe02d41d	-0.12776227
25	0x3d25c0e3	0.040467154
26	0xbea8d354	-0.3297373
27	0xbe838679	-0.25688532
28	0xbe14baad	-0.14524336
29	0x3e967f47	0.2939398
30	0xbeda27ac	-0.42608392
31	0xbe6b9508	-0.2300607
32	0x3e6405ff	0.22267912
33	0x3e39fce7	0.18162881
34	0x3e9e6993	0.30939922
35	0x3e41d7be	0.18929955
36	0xbe54440f	-0.20729087
37	0xbe122423	-0.14271598
38	0xbedccaa3	-0.4312335
39	0xbe927e8b	-0.2861217
40	0xbea29d74	-0.31760752
41	0xbe3efa9c	-0.18650287
42	0xbe975781	-0.29558948
43	0xbea11c8c	-0.31467092
44	0x3d6b071c	0.057379827
45	0x3ec07905	0.3759233
46	0x3e546239	0.20740594
47	0x3ea3347b	0.31875977
48	0xbe759eba	-0.2398633
49	0xbcd9aebb	-0.026572576
50	0xbd6bda5d	-0.057581294
51	0xbdc0b4c1	-0.09409476
52	0x3f0215ab	0.5081431
53	0x3e312ae0	0.17301512
54	0xbe0cdab8	-0.1375531
55	0xbe83bae0	-0.25728512
56	0x3ec5f5d8	0.38664126
57	0x3ec7ec79	0.39047602
58	0x3b6a261b	0.003572828
59	0x3d973e9c	0.07384989
60	0x3de1c71d	0.11024306
61	0x3ea591eb	0.3233789
62	0x3f03ad66	0.5143646
63	0x3e0288eb	0.12747543
64	0xbdcea3e7	-0.10089856
65	0xbe01f60c	-0.12691516
66	0x3d84852e	0.064707145
67	0x3c828929	0.015934544
68	0xb91ec75e	-0.00015142324
69	0xbea7118e	-0.3263058
70	0x3e71f204	0.23627478
71	0xbee201c2	-0.44141966
72	0xbe91ba7f	-0.28462598
73	0xbeaf1650	-0.3419671
74	0x3ea42cfd	0.32065573
75	0xbd812c67	-0.06307297
76	0xbd43091a	-0.0476161
77	0xbce19b36	-0.02753983
78	0x3e0ce9be	0.1376104
79	0x3e4b1d41	0.19835378
80	0xbe654320	-0.22388887
81	0x3d2cdca3	0.042202603
82	0xbe10d5ad	-0.14144011
83	0x3ee53bd7	0.44772217
84	0x3c17a2a4	0.009255085
85	0x3ddbc461	0.10730816
86	0xbd78554f	-0.06062823
87	0xbe589b5e	-0.21153018
88	0x3e9561a2	0.2917605
89	0xbef4394f	-0.47699973
90	0xbe98159a	-0.2970398
91	0x3dd2b681	0.10288716
92	0x3e861753	0.2618967
93	0xbeba6772	-0.36407048
94	0xbe409152	-0.18805435
95	0xbd71c13a	-0.059022166
96	0x3df9b6f5	0.121930994
97	0x3e5f8429	0.21827759
98	0x3f20b783	0.62780017
99	0x3e666952	0.22501114
100	0xbd8d8886	-0.069108054
101	0xbe8d0d4b	-0.27549204
102	0xbe8bd451	-0.27310422
103	0xbd551792	-0.05202443
104	0xbd71d655	-0.059042294
105	0xbd5389fb	-0.05164526
106	0xbcaa5995	-0.02079467
107	0x3f54ffa2	0.83202565
108	0xbd944486	-0.07239632
109	0x3e873ffd	0.26416007
110	0xbd3466c4	-0.044043317
111	0x3e5586bf	0.20852183
112	0x3e102103	0.14075093
113	0xbcf294f9	-0.029612051
114	0x3ea253f5	0.3170468
115	0x3d7e1c4b	0.0620387
116	0x3f0b886a	0.54505026
117	0x3ebc6489	0.36795452
118	0xbd6aed93	-0.057355475
119	0xbe855c6d	-0.26047078
120	0x3d876466	0.06610946
121	0x3e92f2ea	0.28700954
122	0x3e288f8b	0.16461007
123	0x3dd0fd3c	0.102045506
124	0x3d3d4b8e	0.046214633
125	0xbe5493f6	-0.20759568
126	0xbebed98b	-0.37275347
127	0xbebdc000	-0.37060547
128	0x3eeba679	0.46025446
129	0xbe9bd834	-0.30438387
130	0x3d89dbd9	0.06731386
131	0xbe52968b	-0.2056524
132	0xbd6d81fc	-0.05798529
133	0x3db29838	0.0872044
134	0xbe1fcfe7	-0.15606652
135	0xbe92e369	-0.28689125
136	0xbeab259d	-0.33427134
137	0x3e797ae6	0.24363288
138	0x3e5f161d	0.2178578
139	0x3d8c4c3b	0.06850477
140	0xbdd1a189	-0.102358885
141	0x3ec775ab	0.3895696
142	0xbd9109bb	-0.07081934
143	0x3e8524b1	0.26004556
144	0xbe39b7aa	-0.18136469
145	0xbdbc3280	-0.091893196
146	0x3ed462d5	0.41481653
147	0x3d742658	0.05960688
148	0xbd069716	-0.03285893
149	0xbd942420	-0.07233453
150	0x3f2f62fa	0.685104
151	0x3cf426a3	0.02980358
152	0xbe4b079a	-0.19827119
153	0x3e1d8306	0.15382013
154	0x3e169792	0.14706257
155	0x3ea9bd20	0.33152103
156	0x3dbe0c94	0.09279743
157	0x3d9b3c49	0.07579858
158	0x3e0473ec	0.12934846
159	0x3f096f9a	0.53685915
160	0x3f084769	0.53233963
161	0x3ee8e698	0.4548843
162	0x3e1ee9b9	0.15518846
163	0x3ece2fcd	0.40270844
164	0x3d7cc61b	0.061712366
165	0xbe2858d2	-0.16440132
166	0x3e8ed80f	0.27899215
167	0xbe09c079	-0.13452329
168	0x3f146249	0.5796247
169	0x3df1f131	0.11813582
170	0x3d695e51	0.056974713
171	0xbde361b6	-0.11102621
172	0x3e2cc97c	0.16873735
173	0x3e418530	0.18898463
174	0x3ecfc0b9	0.40576723
175	0x3e7cfe64	0.24706417
176	0x3db3f52c	0.08786997
177	0xbc6a95db	-0.014317955
178	0x3edbc6c0	0.42925072
179	0x3e5edb4f	0.21763347
180	0x3cb902fb	0.022584429
181	0xbdc70dcb	-0.09719428
182	0xbd6ee3e5	-0.058322806
183	0xbe8eba3e	-0.27876467
184	0xbe30be41	-0.17260076
185	0xbd524eb1	-0.051344577
186	0xbe9de76d	-0.30840626
187	0x3e68f869	0.22751011
188	0xbe0b7dd8	-0.13622224
189	0x3d1d2241	0.038362745
190	0x3e4f3ed7	0.20238815
191	0x3e96414c	0.29346693
192	0x3d23ac16	0.039959036
193	0xbe190b9d	-0.14945836
194	0xbd30944b	-0.043110173
195	0xbd2488d8	-0.040169567
196	0xbd4cdf4f	-0.05001765
197	0x3e0485b9	0.12941636
198	0xbe496c3b	-0.19670193
199	0x3dddf110	0.10836995
200	0x3eb020b6	0.34399956
201	0x3eb02e61	0.34410384
202	0xbe0ada09	-0.13559736
203	0xbe0a0891	-0.1347983
204	0x3f052aea	0.52018607
205	0x3eef1226	0.46693534
206	0x3e350c95	0.17680581
207	0xbe6f4988	-0.23367894
208	0xbdce61d0	-0.1007725
209	0x3e8ee8dd	0.27912036
210	0x3c90b1d3	0.017662918
211	0x3d0e9b09	0.03481582
212	0x3e8c5dee	0.27415413
213	0x3d1f5475	0.038898904
214	0xbe864b8d	-0.26229516
215	0xbe393d2c	-0.18089741
216	0xbecaf743	-0.3964177
217	0x3e194189	0.14966406
218	0x3ddd7d9d	0.108149745
219	0x3d90f788	0.07078463
220	0xbd81d621	-0.0633967
221	0xbe4884fa	-0.19581977
222	0x3f1d8962	0.61537755
223	0x3efc0b39	0.49227312
224	0x3d16d548	0.036824495
225	0xbddc3705	-0.10752682
226	0x3e4ae00e	0.19812033
227	0x3ecc265a	0.3987301
228	0xbda785fe	-0.08179854
229	0x3e5113ea	0.20417753
230	0xbdbf04c8	-0.09327084
231	0x3ef537fb	0.47894272
232	0x3eee1ed0	0.46507883
233	0xbe6ba61c	-0.23012584
234	0xbdbd235b	-0.09235259
235	0x3dc3a0e5	0.095521726
236	0x3cf8c918	0.030369326
237	0xbeae477c	-0.34038913
238	0x3ded9a6b	0.116017185
239	0x3ba8594b	0.0051375977
240	0x3f1b1efd	0.6059416
241	0x3e615f82	0.2200909
242	0x3e90158d	0.28141442
243	0xbedfa9a2	-0.43684107
244	0xbe315947	-0.17319213
245	0x3e83e157	0.25757858
246	0xbee7d4cf	-0.45279548
247	0x3e3f4e3f	0.18682192
248	0x3dbca711	0.09211553
249	0xbe0a658e	-0.13515303
250	0x3e377eb6	0.1791943
251	0xbe8c28fc	-0.2737502
252	0xbe750f39	-0.23931588
253	0x3e77eb98	0.24210966
254	0x3c400ceb	0.01172183
255	0x3e922583	0.28544244

shared.0.bias f4 [256]
0	0x3e31c40f	0.17359947
1	0xbe613571	-0.21993043
2	0xbe85f067	-0.26159975
3	0xbe483003	-0.19549565
4	0xbdf0c2ee	-0.1175593
5	0x3e419088	0.1890279
6	0x3e624679	0.22097196
7	0x3e81ba17	0.25337288
8	0x3dd3345c	0.10312721
9	0xbec9e1e1	-0.39430144
10	0xbc2ef386	-0.010678178
11	0x3e4ef821	0.20211841
12	0x3ecc51b1	0.39906076
13	0x3d90716e	0.07052885
14	0xbe85e51f	-0.26151368
15	0xbecd9795	-0.4015471
16	0x3e181a51	0.14853789
17	0xbd08aefc	-0.033370003
18	0x3e29eb63	0.16593699
19	0x3e79de1c	0.24401134
20	0xbee129f8	-0.43977332
21	0x3eb6169f	0.35564134
22	0xbca52905	-0.020161161
23	0xbea60a98	-0.32429957
24	0xbe19b1dc	-0.15009254
25	0x3e8e7c96	0.27829427
26	0xbd1b2003	-0.037872326
27	0xbe1f9f07	-0.15588008
28	0x3eba68b8	0.3640802
29	0xbe5b92b9	-0.21442689
30	0xbe92ebd2	-0.28695542
31	0xbec5bf07	-0.38622305
32	0x3e8afef8	0.2714765
33	0x3e7bf043	0.24603371
34	0x3ea2a40b	0.3176578
35	0xbe621fa8	-0.22082388
36	0x3ea6b7aa	0.32562
37	0x3d8dfc41	0.06932879
38	0xbea12c7b	-0.31479248
39	0xbe0bfbb1	-0.13670231
40	0x3ea65854	0.32489264
41	0xbe21aa71	-0.15787674
42	0x3eb72c1b	0.35775837
43	0xbe21b02f	-0.15789865
44	0x3f002874	0.50061727
45	0x3dc7a7bb	0.09748789
46	0xbe011c7f	-0.12608527
47	0xbdb6ecca	-0.08931883
48	0xbcf94085	-0.030426273
49	0xbe60009d	-0.21875234
50	0x3d45c600	0.04828453
51	0xbdafd33b	-0.08585211
52	0x3e15f635	0.14644702
53	0x3dfe8692	0.12428011
54	0x3c4df0fb	0.012569661
55	0xbe8d5afa	-0.27608472
56	0x3ec0810b	0.37598452
57	0x3dc5c908	0.09657484
58	0xbcf24020	-0.029571593
59	0x3e8a9e64	0.27073967
60	0x3ef727e3	0.4827262
61	0xbdd83b30	-0.10558164
62	0x3ee1990d	0.4406208
63	0x3e55303c	0.20819181
64	0xbe32112e	-0.17389366
65	0x3db46c4e	0.0880972
66	0x3e938ddd	0.2881917
67	0x3e95ef58	0.29284167
68	0x3eacf632	0.33781582
69	0x3e1ea6c8	0.1549331
70	0x3ed173cc	0.40908659
71	0x3eb0ce16	0.3453223
72	0x3e6662c5	0.22498615
73	0xbed6ead7	-0.41976044
74	0xbd3f87eb	-0.04676048
75	0x3e8eeaf5	0.27913633
76	0x3d70dd59	0.058804844
77	0xbe9eb171	-0.30994752
78	0x3e3b30e4	0.18280369
79	0xbe1eeb84	-0.1551953
80	0xbea85ad7	-0.32881805
81	0x3ec3e5f5	0.3826138
82	0x3dcd7233	0.100315474
83	0xbe73ca88	-0.23807728
84	0x3e4907b5	0.19631846
85	0x3ea96844	0.3308736
86	0xbd255628	-0.040365368
87	0xbc4ea279	-0.012611979
88	0xbdc03fc8	-0.09387165
89	0xbc2681c9	-0.010162779
90	0x3e0054e9	0.1253239
91	0xbd85ce71	-0.06533516
92	0x3e30768e	0.17232725
93	0x3cf25d6c	0.029585563
94	0x3ea71ce5	0.32639232
95	0x3de7b985	0.11314682
96	0x3e79ffe9	0.24414028
97	0x3c24a502	0.010049107
98	0xbe8d49c9	-0.27595356
99	0xbdfe3691	-0.124127515
100	0x3dd93ae0	0.10606933
101	0xbe1c6d1e	-0.15276
102	0x3e952d90	0.29136324
103	0x3e89f5d8	0.26945376
104	0x3ebad1c1	0.36488155
105	0xbd91b5bb	-0.071147405
106	0x3eba9504	0.36441815
107	0xbe85fa38	-0.26167464
108	0xbd1555c7	-0.036458757
109	0xbeccd606	-0.40007037
110	0xbebfcf4c	-0.37462842
111	0xbc68d4ba	-0.014210874
112	0xbe586490	-0.21132112
113	0xbe257e7d	-0.16161533
114	0x3d06bce1	0.032894973
115	0x3ea60873	0.3242832
116	0x3edbdcd1	0.42941907
117	0xbeb2f278	-0.34950614
118	0xbcc8a783	-0.024493938
119	0xbef1ada4	-0.4720279
120	0xbef65a75	-0.48115888
121	0xbe89faa1	-0.26949027
122	0x3e15abc7	0.14616309
123	0x3e7f0bd7	0.2490686
124	0xbe8e540c	-0.27798498
125	0xbe9a92b0	-0.3019004
126	0xbeb045dd	-0.344283
127	0x3ebf2689	0.37334087
128	0x3e5732e8	0.21015513
129	0xbe651244	-0.22370249
130	0x3e91298a	0.28352004
131	0xbceeb189	-0.02913739
132	0x3da608fa	0.08107181
133	0xbe95cb99	-0.29256895
134	0x3e1c3faa	0.15258661
135	0xbe984c6f	-0.29745814
136	0xbe59c27d	-0.21265598
137	0xbe3fc9f2	-0.1872938
138	0x3d340787	0.04395249
139	0x3db53af4	0.08849135
140	0xbd6b81ac	-0.05749671
141	0xbcc216b5	-0.023692468
142	0xbe166cdc	-0.14689964
143	0x3ea0a9ec	0.3137964
144	0x3edf8954	0.4365946
145	0xbed6420a	-0.4184726
146	0x3e524a33	0.20536117
147	0x3e00af52	0.1256688
148	0x3e2c7849	0.1684276
149	0x3e82b1ba	0.2552622
150	0x3df10fcf	0.117705934
151	0x3e9d2aae	0.30696625
152	0xbe041a33	-0.12900619
153	0xbe8ed357	-0.27895615
154	0x3e34545d	0.17610307
155	0x3e9597b8	0.29217315
156	0x3e6a13b2	0.22859076
157	0x3e5b33d2	0.21406487
158	0x3c4e1dfe	0.012580393
159	0x3ea552f2	0.32289845
160	0xbeea63cc	-0.45779264
161	0xbe891015	-0.26770082
162	0x3e65167f	0.22371863
163	0x3ec8d281	0.39223102
164	0x3dac3e3a	0.08410306
165	0xbe760220	-0.24024248
166	0x3ebd2eab	0.36949667
167	0xbcbd0cd7	-0.023077412
168	0x3e943605	0.28947464
169	0x3df5b841	0.11998034
170	0x3eb2abdc	0.34896743
171	0x3e325260	0.17414236
172	0xbe6ad257	-0.22931801
173	0xbec0500b	-0.37561068
174	0x3e669e72	0.2252138
175	0x3eb298d9	0.34882239
176	0x3e27b8e5	0.16379125
177	0xbe11a97e	-0.14224812
178	0x3e320589	0.17384924
179	0xbe5ffbfc	-0.21873468
180	0x3c9c4c0c	0.01907923
181	0xbe1ab65e	-0.1510863
182	0xbe86bc8a	-0.2631572
183	0x3f058b0a	0.5216528
184	0xbd912403	-0.07086947
185	0xbed332cf	-0.412497
186	0xbbc74f8a	-0.00608248
187	0x3df4b3d2	0.119483605
188	0xbe50e00d	-0.20397969
189	0xbe071068	-0.13189852
190	0xbdb60bb8	-0.08888954
191	0x3e193e5e	0.14965197
192	0xbe496836	-0.1966866
193	0xbed8d69f	-0.42351243
194	0x3ef00b94	0.46883833
195	0x3eb77455	0.35830942
196	0x3e766a70	0.2406404
197	0xbd8866d0	-0.06660235
198	0x3e09c474	0.13453847
199	0x3ed45bda	0.41476327
200	0xbe39e4c1	-0.18153669
201	0xbecb5afd	-0.39717856
202	0xbd81d136	-0.06338732
203	0xbe841af5	-0.25801817
204	0xbe51dbcf	-0.20494007
205	0xbe8c420d	-0.27394143
206	0xbe1604ee	-0.14650318
207	0xbe922bed	-0.28549138
208	0xbeb6a665	-0.35673824
209	0x3e12b90e	0.14328405
210	0xbe9128dd	-0.2835149
211	0x3e97adde	0.29624838
212	0x3d05d0e3	0.032669913
213	0x3d9177e8	0.071029484
214	0x3ee794c9	0.45230702
215	0xbe157212	-0.14594296
216	0x3e0deca0	0.13859797
217	0x3be9910a	0.0071278857
218	0xbeee3065	-0.46521297
219	0xbee4bfa1	-0.4467745
220	0x3eca23bd	0.3948039
221	0x3d2b21c4	0.04178025
222	0xbe751be2	-0.23936418
223	0x3ebdf3e9	0.3710015
224	0x3e403e51	0.18773772
225	0xbe0aa091	-0.13537814
226	0xbe194627	-0.14968167
227	0xbe87e627	-0.2654278
228	0xbeaad147	-0.3336279
229	0x3c9267f2	0.01787183
230	0x3ee21cfc	0.44162738
231	0x3e99d2e1	0.300437
232	0x3f047a31	0.5174895
233	0xbeb29847	-0.34881803
234	0xbe806bf3	-0.2508236
235	0x3eaf4a9c	0.3423661
236	0xbee01cd3	-0.4377199
237	0xbe151941	-0.14560415
238	0xbd09b928	-0.033623844
239	0x3eeac387	0.458523
240	0xbe565fef	-0.20935033
241	0x3d683156	0.056687675
242	0x3dc298f0	0.09501827
243	0x3da65929	0.08122475
244	0xbddf62d1	-0.109075196
245	0x3dbc92e0	0.09207702
246	0x3dac4ed7	0.08413475
247	0xbe877c7c	-0.26462162
248	0x3e4fe4f4	0.20302182
249	0x3dd1cfdc	0.10244724
250	0x3ac0f93c	0.0014722715
251	0x3ecdae6c	0.40172136
252	0xbedef7a1	-0.435483
253	0x3e9e53f1	0.30923417
254	0x3cd287d6	0.025699537
255	0x3e8de8c8	0.2771666

shared.2.weight f4 [256, 256]
0	0xbbc7b29b	-0.0060942895
1	0xbd2f2264	-0.042757407
2	0xbc978527	-0.01849611
3	0xbc3f18b6	-0.011663606
4	0x3d0cc8ee	0.03437131
5	0x3e2d7368	0.16938555
6	0x3e00033d	0.12501235
7	0x3d9b7ca6	0.07592134
8	0xbd6ee6cc	-0.058325574
9	0x3c673425	0.014111553
10	0x3d428393	0.04748876
11	0x3ca5812d	0.020203197
12	0x3da993f5	0.08280174
13	0xbc766b35	-0.015040209
14	0xbdca0d48	-0.098658144
15	0xbca82c8b	-0.020529052
16	0x3cc7de41	0.024397971
17	0x3dabdd25	0.08391789
18	0xbd1b3905	-0.037896175
19	0xbcb9f7fd	-0.022701258
20	0xbd8c5048	-0.0685125
21	0x3d64f6f3	0.05589957
22	0x3d9d3d47	0.07677703
23	0xbce2b6cb	-0.027675053
24	0xbcb3cc79	-0.021948086
25	0xbcd07867	-0.025448037
26	0xbcef9345	-0.029245028
27	0xbd80165f	-0.06254267
28	0x3d1adbe1	0.03780735
29	0xbd2e2fb5	-0.042525966
30	0xbda71e4d	-0.08160076
31	0xbdad7fe4	-0.08471659
32	0xbd72cf17	-0.059279528
33	0x3d05ead0	0.032694638
34	0xbd1614f0	-0.03664106
35	0x3de08d4d	0.10964451
36	0xbd416f25	-0.047225136
37	0x3d1b809b	0.037964445
38	0x3bfb8d4d	0.0076767565
39	0xbda841a4	-0.08215645
40	0x3c3a0bf6	0.011355391
41	0x3bde5b39	0.006785777
42	0x3bbf7630	0.0058429465
43	0xbcc7de5b	-0.02439802
44	0x3e14aa95	0.14518197
45	0xbd14ee46	-0.036360048
46	0xbd1bc048	-0.03802517
47	0x3d534593	0.051580023
48	0x3d97b9a5	0.07408456
49	0x3d69b4fe	0.057057373
50	0xbcadecbc	-0.021231048
51	0xbc865bea	-0.01640125
52	0x3b3f1e40	0.0029162318
53	0x3d6f66ed	0.058447767
54	0xbc8a865a	-0.016909767
55	0xbdc50078	-0.0961923
56	0x3d8a68e9	0.06758291
57	0x3d582713	0.05277164
58	0x3d042656	0.032263122
59	0x3d245316	0.0401183
60	0x3dad6254	0.0846602
61	0x3d069ef9	0.032866452
62	0x3cfe9c35	0.031080345
63	0x3cef97af	0.029247133
64	0xbd0f959a	-0.03505478
65	0xbc7d7fe2	-0.015472384
66	0x3cd63bdd	0.026151592
67	0x3d2dedac	0.04246299
68	0x3d9e4b22	0.07729174
69	0xbd1bc859	-0.038032863
70	0x3e126277	0.14295374
71	0x3d80779f	0.06272816
72	0xbb6d4534	-0.0036204578
73	0xbc37e902	-0.011224987
74	0xbdfde749	-0.1239763
75	0x3d104988	0.035226375
76	0x3af8b6d9	0.0018975391
77	0xbd8840f5	-0.066530146
78	0x3c89f0c5	0.01683844
79	0x3c6b9a37	0.014380029
80	0xbd7a30a2	-0.061081536
81	0x3d6a16df	0.057150718
82	0x3d7c568c	0.061605975
83	0xbbb56fb8	-0.0055369996
84	0x3d4d1795	0.050071318
85	0x3db81e54	0.0899016
86	0x3d64ef9d	0.055892576
87	0x3d76d4af	0.060261425
88	0x3d35611b	0.04428206
89	0xbd0722d9	-0.032992218
90	0x3ceb8257	0.028748674
91	0xbcac9f16	-0.021071952
92	0xbcf46c77	-0.029836876
93	0x3d117590	0.035512507
94	0x3d7fd505	0.06245901
95	0xb8a02358	-7.635978e-05
96	0x3d543c9b	0.05181561
97	0xbcc0baba	-0.023526538
98	0xba41adef	-0.0007388284
99	0x3c95604f	0.0182344
100	0xbc2d2ff2	-0.010570513
101	0x3ddf4427	0.10901671
102	0xbb5e5f6d	-0.003393139
103	0xbcef007f	-0.029175041
104	0x3d8f6705	0.07002071
105	0xbe26e1dc	-0.16297096
106	0xbd4761fb	-0.048677426
107	0xbdbb0ced	-0.09133325
108	0x3c7f3b6d	0.015578133
109	0xbc943f27	-0.01809652
110	0xbdec8787	-0.11549287
111	0x3c07e909	0.008295306
112	0x3ca35b80	0.019941092
113	0x3cf8dd36	0.03037892
114	0x3d9d00f7	0.076662
115	0xbd17c2b5	-0.03705092
116	0x3d96dffc	0.073669404
117	0x3b9cda2e	0.0047867512
118	0x3ce96ccd	0.028494263
119	0x3d68cd37	0.056836333
120	0xbd5ca5f6	-0.05386921
121	0xbd3cef8d	-0.04612689
122	0x3cead6ac	0.028666817
123	0x3dddd1f3	0.1083106
124	0x3d664e97	0.056227293
125	0xbdb82416	-0.08991258
126	0x38bc3104	8.9736684e-05
127	0x3d977c0a	0.073967054
128	0x3d12ef4b	0.03587274
129	0x3da0cc84	0.07851508
130	0x3d8a2c54	0.06746736
131	0x3c9f2cc0	0.019430518
132	0x3cc9e3b4	0.02464471
133	0xbc783669	-0.015149691
134	0xbb140463	-0.0022585623
135	0x3d79b4af	0.06096333
136	0x3c902115	0.0175939
137	0x3da5016a	0.0805691
138	0x3d6570b6	0.056015693
139	0x3d1621c0	0.03665328
140	0x3d1c688b	0.038185637
141	0xbd7ca21d	-0.06167804
142	0xbd041724	-0.03224863
143	0xbd45c750	-0.048285782
144	0xbd13fa36	-0.03612729
145	0xbd7c83f4	-0.061649278
146	0x3d3c47f2	0.04596705
147	0xba27cccc	-0.00064010615
148	0x3d7bd04a	0.061477937
149	0x3d8eaf1c	0.06966993
150	0xbd4427bf	-0.047889467
151	0xbd2bc202	-0.041933067
152	0x3d13f21b	0.03611956
153	0xbd84943e	-0.064735875
154	0xbbd24028	-0.0064163394
155	0xba863e76	-0.0010242003
156	0x3d887034	0.06662026
157	0xbd376c97	-0.044781294
158	0x3c75da5b	0.015005673
159	0xbd607479	-0.054798577
160	0xbd77aea3	-0.06046928
161	0x3cd54117	0.026032014
162	0xbb4217c4	-0.0029616216
163	0x3de42e32	0.111416236
164	0x3d96d27e	0.07364367
165	0xbd6b3fcd	-0.057433892
166	0xbd13069b	-0.03589497
167	0x3b9ea154	0.004841009
168	0x3dabe7c1	0.08393813
169	0x3d87faa6	0.06639604
170	0xbd7ae697	-0.061255064
171	0xba869e20	-0.0010270514
172	0xbdbcd015	-0.09219376
173	0xbd9374e7	-0.07200032
174	0xbcc08f1e	-0.023505744
175	0x3e1dca08	0.154091
176	0x3c4ad797	0.012380502
177	0x3d5a5528	0.053303868
178	0x3cdceb4a	0.026967663
179	0xbd2ad89e	-0.04171049
180	0x3d817ca5	0.06322602
181	0x3d1dd82a	0.03853623
182	0x3e996063	0.2995635
183	0x3d9e3d2d	0.07726512
184	0xbd3a3203	-0.04545785
185	0xbb3da7d8	-0.0028939154
186	0x3d10c6b0	0.035345733
187	0xbce772e4	-0.028253026
188	0x3d2bd32c	0.041949436
189	0xbda3abb3	-0.079917334
190	0xbc667aea	-0.014067391
191	0x3dfdf090	0.12399399
192	0xbd9773a8	-0.073951066
193	0xbd877fcc	-0.06616172
194	0xbc8db738	-0.01729928
195	0xbcd0d21e	-0.025490817
196	0x3da53c3b	0.08068129
197	0x3c443da2	0.011977585
198	0x3cab6080	0.020920038
199	0xbc112df1	-0.008861051
200	0xbcac6a52	-0.021046791
201	0xbd2e2d10	-0.042523444
202	0xbddc5df2	-0.10760106
203	0x3a3ae8a3	0.00071300025
204	0xbdeea7aa	-0.11653073
205	0x3d50c478	0.050968617
206	0x3c7f829c	0.015595105
207	0x3981b87e	0.00024742255
208	0xbd98c445	-0.074593104
209	0x3d34477f	0.044013496
210	0xbd4f382e	-0.050590687
211	0xbcac1463	-0.021005815
212	0x3d0ca74d	0.034339238
213	0xbd2136a4	-0.03935875
214	0xbc0b58e0	-0.008505076
215	0x3c046ef5	0.008083095
216	0x3d55ed35	0.05222817
217	0x3d2d12f9	0.04225442
218	0x3d25d6f9	0.040488217
219	0xbd91f5f3	-0.07126989
220	0x3da9f555	0.082987465
221	0x3d90d214	0.07071319
222	0x3d53b39c	0.05168496
223	0x3cd20411	0.025636705
224	0x3d1dc78b	0.038520377
225	0x3d4f5251	0.050615612
226	0xbc53be87	-0.012923843
227	0x3b93ff9c	0.004516555
228	0xbda8647b	-0.0822229
229	0xbc7dd78c	-0.015493285
230	0x3d745e4f	0.059660252
231	0xbd207976	-0.039178334
232	0x3d6e7c4e	0.058224015
233	0xbaf200b2	-0.0018463342
234	0xbdab1ea1	-0.083554514
235	0x3b8b4d47	0.0042511555
236	0xbd77c979	-0.060494874
237	0xbe17c83e	-0.1482248
238	0x3d410805	0.04712679
239	0xbc65ddee	-0.014029963
240	0xbd87c4e6	-0.06629352
241	0x3c9195ea	0.01777168
242	0x3d8cf5b3	0.06882801
243	0x3b0959e6	0.0020958125
244	0x3d9ad59d	0.07560275
245	0x3d30d9af	0.04317635
246	0x3c09b8e5	0.008405899
247	0x3c4ac54d	0.012376142
248	0x3d52fd3a	0.051511027
249	0x3d949a9c	0.07256052
250	0xbd194f40	-0.037429094
251	0xbb609d8b	-0.003427359
252	0xbd85945f	-0.0652244
253	0xbdd53a72	-0.10411538
254	0x3d8b6037	0.06805461
255	0x3d42cdff	0.047559734

shared.2.bias f4 [256]
0	0x3d8a61fe	0.06756972
1	0x3de3308a	0.110932425
2	0x3dc73b11	0.09728063
3	0x3c5c2c83	0.013438347
4	0x3d7b0710	0.061286032
5	0x3d87167e	0.06596087
6	0xbe8e8f74	-0.2784382
7	0x3dad41e8	0.08459836
8	0x3ce5222f	0.027970402
9	0x3e2d88a1	0.16946651
10	0x3df7f08d	0.12106428
11	0x3c8f4515	0.017488996
12	0x3dd80869	0.10548479
13	0x3e2d1330	0.1690185
14	0x3dd3dfde	0.10345434
15	0x3e197305	0.14985283
16	0x3e2774e3	0.16353182
17	0x3e3b84a0	0.18312311
18	0xbcb71f98	-0.022353932
19	0x3d3f437f	0.04669523
20	0x3e478a9c	0.19486469
21	0x3e20049d	0.1562676
22	0x3c7e6ab1	0.015528367
23	0xbd4c2a16	-0.049844824
24	0x3cc78486	0.024355184
25	0x3d8eb2ae	0.06967674
26	0xbd0a6206	-0.03378489
27	0xbdd427f1	-0.10359181
28	0x3e111fb4	0.1417225
29	0xbcd9f764	-0.026607223
30	0x3dd62ac8	0.104573786
31	0x3d0aacf3	0.033856343
32	0xbe5b458b	-0.21413247
33	0xbd5b400e	-0.053527884
34	0x3e1172ee	0.14203998
35	0x3db85625	0.09000806
36	0x3e104a3e	0.14090821
37	0x3e191bff	0.14952086
38	0x3e3798bc	0.17929357
39	0xbcaabbb4	-0.020841457
40	0xbcb1c374	-0.021699645
41	0x3e0befb7	0.13665663
42	0x3de1de95	0.11028782
43	0xbaa2a8ee	-0.0012409964
44	0xbe4f73d3	-0.20259027
45	0x3d5c3e5c	0.053770408
46	0x3ddb8abc	0.10719821
47	0xbd9997f8	-0.07499689
48	0x3dab3a71	0.08360756
49	0x3d885031	0.0665592
50	0x3e1ed462	0.15510705
51	0xbdf8b204	-0.12143329
52	0x3a909568	0.0011030855
53	0x3dca1c2c	0.098686546
54	0x3db32b17	0.08748453
55	0x3e1f03ee	0.15528843
56	0x3e39efc2	0.18157867
57	0x3de9dfa3	0.114196084
58	0x3e0e00a3	0.1386743
59	0x3e28ab09	0.16471495
60	0x3d6ef472	0.05833859
61	0x3e130579	0.14357556
62	0x3e14353b	0.14473431
63	0xbce6e5c8	-0.02818574
64	0xbcc44cb2	-0.023962352
65	0x3dcab52c	0.09897837
66	0x3df77a84	0.12083915
67	0x3e181799	0.14852752
68	0x3e241b08	0.16025937
69	0x3ce72899	0.0282176
70	0x3ddd22a0	0.1079762
71	0x3e34f929	0.17673172
72	0x3e22ce8b	0.15899102
73	0x3e123057	0.14276253
74	0x3e115f29	0.14196457
75	0x3da8229e	0.08209728
76	0x3dc692d4	0.09695974
77	0xbcb6caf8	-0.02231358
78	0xbc8803a3	-0.016603297
79	0x3c807b67	0.015683843
80	0x3de6e761	0.11274601
81	0xbe02c644	-0.12770945
82	0xbd09fd83	-0.033689033
83	0xbc8af26f	-0.016961304
84	0xbe41acff	-0.18913649
85	0x3deb87a9	0.115004845
86	0x3e31563b	0.1731805
87	0xbc281979	-0.010259979
88	0x3d00e1c4	0.031465307
89	0x3dae8e08	0.08523184
90	0x3dfa6bbd	0.12227581
91	0x3e17f8d5	0.14841016
92	0xbc44fee5	-0.012023662
93	0x3dec08a6	0.11525087
94	0x3e0a687d	0.13516422
95	0x3d791bb0	0.06081742
96	0x3e01462c	0.12624425
97	0x3b9c63b6	0.0047726287
98	0xbd252b7d	-0.040324677
99	0x3d571121	0.05250657
100	0x3d5dd35b	0.054156642
101	0x3e00fc44	0.12596232
102	0xbe8dd19f	-0.2769899
103	0x3d9b45df	0.07581686
104	0x3df8acbc	0.121423215
105	0x3b8e571d	0.004343881
106	0xbe8be0e7	-0.27320024
107	0x3e2a7f99	0.16650237
108	0xbdba74c2	-0.09104301
109	0xbc1d50f1	-0.0096018175
110	0x3e258ed2	0.16167763
111	0x3da46809	0.08027656
112	0x3d75c135	0.05999871
113	0x3cb19b33	0.02168045
114	0x3dcb6032	0.09930457
115	0x3d157929	0.0364925
116	0xbe12b91d	-0.14328428
117	0x3e111a71	0.14170243
118	0x3d7bf40c	0.061512038
119	0xbe1367f2	-0.1439512
120	0x3e0a733d	0.13520522
121	0x3e09bf64	0.13451916
122	0x3dcfff71	0.101561435
123	0x3daaa2bf	0.083318226
124	0x3dfd4edb	0.12368556
125	0x3d8f3d6b	0.069941364
126	0x3e0c8dec	0.13726014
127	0x3dcf3e95	0.101193585
128	0x3d5ed405	0.054401416
129	0x3e340292	0.17579105
130	0x3e134e59	0.14385356
131	0xbd1fdc26	-0.03902831
132	0xbd54330b	-0.05180649
133	0xbdf6a7e9	-0.12043745
134	0xbcc32ab4	-0.023824073
135	0x3dbfd9fe	0.093677506
136	0x3dff7db5	0.124751486
137	0x3dd7cdaf	0.10537278
138	0x3ddcc500	0.10779762
139	0x3e134005	0.1437989
140	0xbe3827a7	-0.17983876
141	0xbd61ac43	-0.055095922
142	0x3dfe2017	0.124084644
143	0x3d90cca3	0.07070281
144	0xbd576775	-0.0525889
145	0x3e3eba1f	0.18625687
146	0xbd536043	-0.051605474
147	0x3e0b6f4b	0.13616674
148	0xbda46027	-0.08026152
149	0x3d9cff4c	0.076658815
150	0x3e2b2db6	0.16716656
151	0x3dc31f1b	0.09527417
152	0x3e0488f4	0.12942868
153	0x3e0ffce8	0.1406132
154	0x3beabf14	0.0071638916
155	0x3d99bc18	0.07506579
156	0xbe8c2057	-0.27368423
157	0x3c0fe83e	0.008783398
158	0xbc3cb86c	-0.011518579
159	0x3db7d245	0.089756526
160	0x3e19fc6b	0.15037696
161	0x3c1063ea	0.008812884
162	0x3d979762	0.07401921
163	0xbd86ef5c	-0.06588623
164	0x3db9dfc6	0.090758845
165	0x3e352949	0.1769153
166	0xbe2cfa19	-0.1689228
167	0x3a8bf15c	0.0010676789
168	0xbe0b6c8c	-0.13615626
169	0x3d158df7	0.03651234
170	0x3e3788fb	0.17923348
171	0xbd36bea5	-0.044615407
172	0x3dd0cdec	0.101955265
173	0x3e32bb99	0.17454375
174	0x3cf7f184	0.03026653
175	0xbd7874fa	-0.060658433
176	0x3d8df131	0.06930769
177	0x3dc0993e	0.09404229
178	0x3df1b928	0.11802894
179	0x3dd17216	0.10226838
180	0x3e2e4832	0.17019728
181	0x3e042321	0.12904026
182	0xbb6b4e78	-0.0035904925
183	0x3dcabae4	0.09898928
184	0xbd0c6d05	-0.034283657
185	0x3db677e3	0.08909585
186	0x3d467b10	0.048457205
187	0xbc945bd6	-0.018110197
188	0xbcce46f5	-0.02518032
189	0x3de0150a	0.10941513
190	0x3e031c9e	0.12803885
191	0xbd4aa750	-0.049475968
192	0xbcd4650f	-0.025927095
193	0x3db90d09	0.090356894
194	0x3dd175fb	0.10227581
195	0x3e2860bc	0.16443151
196	0x3e1f274a	0.15542331
197	0x3dfc845e	0.123299345
198	0x3deb8b9e	0.11501239
199	0x3d19e2a6	0.037569664
200	0xbd27429c	-0.040835008
201	0x3dd7cbdc	0.1053693
202	0x3df6c9e6	0.12050228
203	0x3e1585ff	0.14601897
204	0x3e1a51f2	0.15070322
205	0x3e2aa9ea	0.1666638
206	0x3ddbf920	0.10740876
207	0x3d80f777	0.062972
208	0x3e36335e	0.17793033
209	0x3dcac5fa	0.09901042
210	0x3e25b9e2	0.1618419
211	0x3dbefbbf	0.093253605
212	0x3d34b818	0.044120878
213	0x3d62a2cf	0.055331048
214	0x3e2a1113	0.16608076
215	0x3e17b444	0.1481486
216	0xbd36e2a7	-0.044649746
217	0x3e220044	0.15820414
218	0x3df27817	0.118393116
219	0x3e02e2e6	0.12781867
220	0x3dd209c4	0.10255769
221	0x3e3bbd5d	0.18333955
222	0x3e01be25	0.1267019
223	0x3df81661	0.121136434
224	0x3ddfe6ab	0.10932668
225	0x3de451e1	0.1114843
226	0xbd5be2e4	-0.053683177
227	0x3dcefae9	0.10106451
228	0x3e0deec3	0.13860612
229	0x3dad63b8	0.084662855
230	0x3d92ba73	0.071644686
231	0x3dbc1024	0.09182766
232	0x3dd76fe6	0.1051939
233	0x3e2e5d67	0.17027818
234	0xbda42033	-0.08013954
235	0xbe0dfd34	-0.1386612
236	0x3c9d5451	0.019205244
237	0x3c9736cc	0.018458746
238	0x3dc7ebd3	0.09761777
239	0xbe708c3f	-0.23491
240	0x3a70e1fe	0.0009188949
241	0x3dac061a	0.08399601
242	0xbe4fcb66	-0.20292434
243	0xbe2cdd28	-0.1688124
244	0x3c2708ef	0.010195001
245	0xbe1ce00d	-0.15319844
246	0x3e0ae566	0.13564071
247	0x3dcea5cb	0.10090216
248	0x3d8595cd	0.06522713
249	0x3d6d24d6	0.057896458
250	0x3da06a22	0.07832743
251	0xbd8c955d	-0.06864426
252	0x3de0419c	0.10950014
253	0x3dca458e	0.09876548
254	0x3e409887	0.18808185
255	0xbcfd68c9	-0.030933755

actor.weight f4 [3, 256]
0	0x3da74cc2	0.08168937
1	0xbd154356	-0.03644117
2	0xba9c72c2	-0.0011936056
3	0xbd101cb9	-0.035183642
4	0xbd8f55af	-0.06998765
5	0xbda0fc76	-0.07860653
6	0xbd9672f4	-0.07346144
7	0xbcb909bd	-0.022587651
8	0x3d0c6d69	0.03428403
9	0x3d6b5e14	0.057462767
10	0x3d9bb267	0.07602387
11	0xbc892f10	-0.016746074
12	0x3da83cfd	0.082147576
13	0x3c2059d1	0.009787039
14	0x3c6cbc2c	0.014449161
15	0xbad3a98a	-0.0016148549
16	0x3e08a8a6	0.13345584
17	0x3d0a79f0	0.033807695
18	0x3c222e48	0.00989873
19	0xbb08814e	-0.0020829025
20	0x3d58c344	0.052920595
21	0x3d7aa4f7	0.06119248
22	0xbe496d3f	-0.1967058
23	0xbcc4277f	-0.023944614
24	0xbba07429	-0.00489666
25	0x3dac3226	0.084080026
26	0x3cfb1d85	0.030653724
27	0xbde0355c	-0.109476775
28	0xbdc0727d	-0.09396837
29	0x3c3bc6b8	0.011460952
30	0xbe12c88e	-0.14334318
31	0xbbafeeee	-0.005369059
32	0x3bc09669	0.0058773053
33	0xbc9260a6	-0.017868351
34	0x3ddfc14a	0.10925539
35	0x3ba6316d	0.00507181
36	0x3db64f4a	0.08901842
37	0xbd79a7e0	-0.060951114
38	0xbdbcb0e4	-0.09213427
39	0xbc916e6f	-0.017752854
40	0x3d2795ec	0.04091446
41	0x3db90eed	0.0903605
42	0x3d372053	0.04470856
43	0x3d225f0c	0.039641425
44	0x3be7d637	0.007075097
45	0xbd220a40	-0.039560556
46	0x3d77ff79	0.060546372
47	0x3e1326e4	0.14370304
48	0xbcbe9505	-0.023264417
49	0xbc6922db	-0.014229502
50	0xbd99c32f	-0.075079314
51	0xbcc63088	-0.024193063
52	0x3d020880	0.031746387
53	0x3e594a70	0.21219802
54	0x3dd23295	0.10263554
55	0x3c27b565	0.010236119
56	0xbdae8c9f	-0.08522915
57	0x3daeda51	0.08537734
58	0x3da6bfbe	0.08142041
59	0xbc6b1f02	-0.014350655
60	0x3d57e573	0.052709054
61	0x3de0f5f6	0.10984413
62	0xbdae8832	-0.08522071
63	0xbd794809	-0.060859714
64	0xbe7568f2	-0.23965815
65	0xbc471045	-0.012149875
66	0xbb93d904	-0.0045119543
67	0x3cb48982	0.022038225
68	0x3c70404c	0.014663767
69	0xbba7c14a	-0.0051194774
70	0x3d5f953d	0.054585684
71	0x3e23f1c3	0.16010194
72	0xbde6b933	-0.11265793
73	0x3c3d1910	0.01154162
74	0xbc634125	-0.013870512
75	0x3c7cc978	0.015428893
76	0x3caec014	0.021331824
77	0x3b77c2dd	0.0037805357
78	0x3cb97761	0.022639932
79	0x3e43d6e0	0.19124937
80	0xbd534523	-0.051579606
81	0x3ba74f99	0.0051059243
82	0xbd04709a	-0.032333948
83	0x3d371e20	0.044706464
84	0x3b7d8e9f	0.0038689745
85	0x3de385a8	0.11109477
86	0x3d9c9bde	0.07646917
87	0x3d4c4510	0.04987055
88	0xbd2285ab	-0.039678257
89	0x3dd6477c	0.10462853
90	0xbd0d4c24	-0.03449644
91	0x3d94e3be	0.07270001
92	0x3cc388de	0.023868974
93	0x3c0f19e3	0.008734199
94	0xbd9b2619	-0.07575626
95	0xbcaec919	-0.021336125
96	0xbc85ac9f	-0.016317664
97	0xbc8fa7e4	-0.017536111
98	0x3d5ebb39	0.05437777
99	0x3d5d8647	0.054083135
100	0x3d8cb6c4	0.06870797
101	0x3da89262	0.08231045
102	0xbcc328e8	-0.023823217
103	0x3cc8f681	0.024531605
104	0xbd09c3e2	-0.033634074
105	0x3ce81876	0.028331976
106	0xbd156fe8	-0.036483675
107	0xbe0cd7d1	-0.13754202
108	0xbe1ce5af	-0.15321992
109	0xbbca9bc3	-0.006183119
110	0x3dc2c71d	0.09510634
111	0xbc7a4611	-0.015275494
112	0x3d097924	0.033562794
113	0x3d4ba689	0.049719367
114	0x3dc9d6fa	0.09855457
115	0xbd4a7212	-0.049425192
116	0x3d5db25a	0.054125167
117	0x3d301d66	0.042996787
118	0xbd48d246	-0.049028657
119	0x3b9e79eb	0.004836311
120	0x3d98c109	0.074586935
121	0x3da1170a	0.078657225
122	0xbb371d25	-0.0027940955
123	0xbd2f17aa	-0.042747177
124	0x3d959cb2	0.07305278
125	0xbcb64a92	-0.022252355
126	0xbd2fca10	-0.04291731
127	0x3e00c04f	0.1257336
128	0xb97e7fc2	-0.00024270921
129	0xbaa17790	-0.0012318958
130	0xbc93abb5	-0.018026212
131	0x3d3892b7	0.045061793
132	0xbd5e70fa	-0.05430696
133	0x3cc29e1d	0.023757035
134	0x3d099d02	0.033597
135	0x3bd5e942	0.0065280506
136	0x3dd87eba	0.10571046
137	0xbee935aa	-0.45548755
138	0xbca080bd	-0.019592637
139	0xbd91a399	-0.07111282
140	0x3dc157d6	0.094405815
141	0xbd571690	-0.05251175
142	0x3d126fd9	0.035751197
143	0x3c860caf	0.01636347
144	0x3c12c61b	0.008958365
145	0x3cba18a9	0.022716837
146	0x3cdfe5ce	0.02733126
147	0xbc4a2b5b	-0.012339438
148	0x3cb7dfbf	0.022445558
149	0x3c0a53dd	0.008442846
150	0x3c93f917	0.018063111
151	0xbb7537d9	-0.003741732
152	0x3d8ed2a1	0.06973768
153	0xbdce02d4	-0.10059133
154	0xbd5c627c	-0.05380486
155	0xbc1a7a59	-0.009428584
156	0x3d16d4a0	0.03682387
157	0xbcbe6322	-0.02324063
158	0x3c672825	0.014108692
159	0xbc1678fc	-0.009184118
160	0x3c0423e9	0.008065202
161	0x3d8515ed	0.06498323
162	0xbdfc5f58	-0.12322873
163	0x3db0f342	0.08640148
164	0xbc9f1f09	-0.019423978
165	0x3d5e2b6c	0.05424063
166	0xbd74222e	-0.05960291
167	0x3c97545d	0.018472845
168	0x3df510a3	0.11966064
169	0x3c9be3fe	0.019029614
170	0x3d8688e9	0.06569082
171	0xbc8a9cbd	-0.016920442
172	0x3cff06ad	0.031131113
173	0xbcbba3ab	-0.022905191
174	0xbc853c0b	-0.016263982
175	0x3bfa08d0	0.007630445
176	0xbcff1b66	-0.031140994
177	0x3d5463aa	0.05185286
178	0x3e4c06cc	0.19924468
179	0xbd107719	-0.03526983
180	0x3c8e15b5	0.017344335
181	0xbe11dbf3	-0.1424406
182	0xbd1b1df5	-0.037870366
183	0x3b5d0fd6	0.0033731363
184	0xbd08655a	-0.03329978
185	0xbe002275	-0.12513144
186	0xbd63f0b3	-0.05564947
187	0x3d57c8b5	0.052681644
188	0x3d773173	0.060349893
189	0x3d0bbf05	0.034117717
190	0x3e45e971	0.19327332
191	0xbcf16fd0	-0.029472262
192	0x3ca704ce	0.020388033
193	0x3d42f12a	0.047593273
194	0xbce1938b	-0.027536174
195	0xbd17009c	-0.036865816
196	0xbdc8b1cb	-0.09799536
197	0xbce15142	-0.027504567
198	0xbd48b6f5	-0.049002606
199	0x3cd20298	0.025636002
200	0x3bcf7507	0.0063310894
201	0x3c08f9af	0.00836031
202	0x3e02126d	0.12702341
203	0xbdabb287	-0.08383661
204	0xbd8a934f	-0.06766378
205	0x3d5acac5	0.053416032
206	0x3c2ba777	0.010476938
207	0xbdd9d420	-0.10636163
208	0x3d6d1c85	0.057888526
209	0x3dd0afd2	0.10189785
210	0x3d6e7873	0.058220338
211	0x3d604a86	0.05475857
212	0xb98130c8	-0.00024641142
213	0x3da1bc0d	0.07897196
214	0xbd8f5467	-0.0699852
215	0xbc8eb6c6	-0.017421138
216	0x3d010f6b	0.031508844
217	0xbca9b1b6	-0.020714622
218	0xbcfa0c5e	-0.030523475
219	0xbeb8d021	-0.3609629
220	0x3c385e6c	0.011252981
221	0xbdb96a80	-0.090535164
222	0x3d9a342a	0.07529481
223	0x3d01d969	0.03170148
224	0x3da73183	0.081637405
225	0xbce38cf5	-0.027777174
226	0xbcbedd6b	-0.02329894
227	0x3d13eb23	0.036112916
228	0xbda95832	-0.08268775
229	0x3cce0b73	0.025151944
230	0x3d5cc0f8	0.053894967
231	0xbdc381b3	-0.095462225
232	0x3d91fccf	0.071282975
233	0xbd6446d1	-0.0557316
234	0xbd5985b8	-0.05310604
235	0x3c548ab0	0.012972519
236	0xbba30f92	-0.0049762214
237	0x3cc7e9aa	0.024403412
238	0xbe056fbb	-0.13030903
239	0x3dd82997	0.10554808
240	0x3d485fea	0.048919596
241	0xbd3e5ebf	-0.046477076
242	0x3d810f67	0.06301766
243	0x3aced3ee	0.0015779713
244	0xbcdcad02	-0.026937965
245	0x3dcf2435	0.10114328
246	0xbc8faabf	-0.017537473
247	0x3d67406a	0.056457914
248	0xbdb7826d	-0.089604236
249	0x3d5ac02d	0.05340593
250	0xbd19253c	-0.037389025
251	0xbd8ea97b	-0.069659196
252	0xbd504311	-0.05084521
253	0x3de825b3	0.113353156
254	0x3cf6236a	0.030046184
255	0x3c179b6a	0.009253362

actor.bias f4 [3]
0	0x3d74d155	0.059769947
1	0xbc325bcb	-0.010886143
2	0x3ca559c0	0.020184398

critic.weight f4 [1, 256]
0	0xbc995845	-0.018718848
1	0x3cf7772a	0.030208189
2	0xbc72a43c	-0.014809664
3	0x3d6205b8	0.055181235
4	0xbcefc967	-0.02927084
5	0xbd60540d	-0.054767657
6	0x3d7ed486	0.062214397
7	0xbd06ea06	-0.032938026
8	0x3d2a2711	0.041541163
9	0xbb0478b2	-0.0020213542
10	0xbc381276	-0.01123487
11	0x3cd4015b	0.025879553
12	0xbd3c569c	-0.045981035
13	0xbcaa58d6	-0.020794313
14	0xbbd12c8f	-0.0063834856
15	0xbd521cf7	-0.051297154
16	0xbcea4dd6	-0.028601568
17	0xbce68fbb	-0.028144708
18	0xba369a80	-0.00069657713
19	0xbd75d2aa	-0.060015358
20	0x3a0b0a11	0.0005303929
21	0xbcdb6de9	-0.026785808
22	0x3e51cc75	0.2048815
23	0x3bfb8fd9	0.00767706
24	0x3bdfb31c	0.0068267714
25	0x3ddf9a88	0.10918146
26	0x3d050f36	0.03248521
27	0x3d2ba7dd	0.041908134
28	0xbbf36307	-0.0074275765
29	0x3d12c7ee	0.0358352
30	0x3cd9ae4d	0.02657237
31	0x3d5ddf75	0.054168183
32	0x3d348e68	0.04408112
33	0x3c01e3bc	0.007927831
34	0xbc14ea07	-0.009089
35	0xbd11bfe6	-0.0355834
36	0xbd7b6a78	-0.061380833
37	0xbcd4f9bc	-0.025997989
38	0xbb52b329	-0.0032150245
39	0x3d267980	0.040643215
40	0x3d1ce5a0	0.038304925
41	0x3ce1fbdb	0.027585914
42	0xbd32138e	-0.04347568
43	0x3ca59770	0.020213813
44	0x3db684ec	0.089120716
45	0xbd7ffd0e	-0.06249719
46	0xbca00598	-0.019533917
47	0x3e8a7ef8	0.27049994
48	0xbd4f2974	-0.050576642
49	0xbd66449a	-0.056217767
50	0xbbfeb825	-0.0077734166
51	0x3d44e266	0.048067473
52	0x3d1cd82f	0.038292106
53	0x3d4924e4	0.049107447
54	0xbb326992	-0.002722357
55	0xbd3afea0	-0.045652986
56	0xbc85b469	-0.016321378
57	0xbb8c5257	-0.0042822766
58	0xbc5bbb90	-0.013411418
59	0xbd8a02b5	-0.067387976
60	0xbc250e5b	-0.010074223
61	0xbcbbf690	-0.022944719
62	0xbd193fd4	-0.037414387
63	0x3d54fa50	0.05199653
64	0x3e4d1cd0	0.20030522
65	0xbc6474c9	-0.013943859
66	0xbcaa7c0b	-0.020811101
67	0xbcdba2f2	-0.026811097
68	0xbb9364a4	-0.0044980813
69	0x3d405f13	0.04696567
70	0xbc49906e	-0.012302501
71	0x3cf52f19	0.029929684
72	0xbd06a5e9	-0.032873068
73	0xbcc7f76f	-0.024409978
74	0xbc4f89c7	-0.012667126
75	0xbd6dfdc2	-0.05810333
76	0xbd0661a3	-0.032807957
77	0x3d1ba577	0.037999596
78	0x3d1f79cc	0.038934514
79	0x3e230f8b	0.15923898
80	0xbd0e7c54	-0.034786537
81	0x3d903b8d	0.070426084
82	0x3d539ab8	0.051661223
83	0x3d1d5a18	0.038416
84	0x3d83f08c	0.06442365
85	0xbc55ae8e	-0.013042105
86	0xbd9a1f06	-0.075254485
87	0x3d294967	0.041329768
88	0x3d1b48ae	0.03791111
89	0xbca37857	-0.019954843
90	0x3c8633fb	0.016382208
91	0x3b8424ec	0.0040327217
92	0x3ccc6521	0.024950566
93	0xbd4230ee	-0.047409944
94	0xbc979766	-0.01850481
95	0xbd7c03e3	-0.061527144
96	0xbd35d0af	-0.04438847
97	0x3cb99f32	0.022658918
98	0x3d58c9aa	0.052926697
99	0xbca675e3	-0.020319885
100	0xbd8a928e	-0.06766234
101	0x3cf1e72d	0.029529179
102	0x3d5cf953	0.05394871
103	0xbd4ac7f3	-0.049507093
104	0xbd3dd09e	-0.04634153
105	0x3c43e4c8	0.011956401
106	0x3dbd7250	0.09250319
107	0x3cb5f2cd	0.022210503
108	0x3d9b2783	0.07575896
109	0x3d1a8406	0.037723564
110	0xbd1f6783	-0.038917076
111	0xbd35bc80	-0.04436922
112	0xbd3006d7	-0.042975273
113	0x3d655e8d	0.055998374
114	0xbc5afaa0	-0.013365418
115	0x3d290aaf	0.041269954
116	0x3d8f286d	0.069901325
117	0x3dfc1aa7	0.12309771
118	0xbc5fa0a5	-0.0136491405
119	0x3d0ae647	0.033911016
120	0xbd3d3870	-0.0461964
121	0x3d96b1b5	0.07358114
122	0xbd3756f7	-0.04476067
123	0xbd7eebc5	-0.062236566
124	0xbd77d784	-0.060508266
125	0xbc80a020	-0.015701354
126	0xbd1a50a7	-0.037674572
127	0xbd0288f5	-0.031868894
128	0x3d7ee6ee	0.06223195
129	0xbc4bb8b2	-0.0124341715
130	0xbce3100a	-0.027717609
131	0x39a6d058	0.00031817215
132	0x3d10bcb5	0.035336215
133	0x3d804029	0.062622376
134	0x3cddd5d9	0.02707951
135	0xbd4a8ff1	-0.04945368
136	0xbce9fcbd	-0.028562898
137	0x3eb5f86e	0.355411
138	0xbd2e3b86	-0.042537235
139	0xbd0377da	-0.03209672
140	0x3d86f36d	0.065893985
141	0x3d5f9fd2	0.054595776
142	0xbcab901f	-0.020942746
143	0xbd212387	-0.039340522
144	0x3d270cc7	0.04078367
145	0xbc7e9363	-0.015538069
146	0x3d186797	0.037208166
147	0xbc80307f	-0.015648125
148	0x3bd71274	0.006563479
149	0xbd1156e0	-0.03548324
150	0xbd02218b	-0.03177027
151	0xbd4ac5b3	-0.049504947
152	0xbc7d77b1	-0.015470431
153	0x3ded21ad	0.11578689
154	0x3c4b357d	0.012402889
155	0xbc709518	-0.014683984
156	0x3dbea971	0.09309662
157	0x3cc0f83b	0.023555866
158	0x3d1a37d0	0.037650883
159	0xbd7d4e88	-0.06184247
160	0xbd554bf7	-0.0520744
161	0x3d6c4b54	0.057689026
162	0xbcf466c6	-0.029834162
163	0x3d75c88e	0.060005717
164	0xbd9503b9	-0.07276101
165	0xbd0235c0	-0.03178954
166	0x3db7c9ad	0.089740135
167	0x3d4ffd60	0.050778747
168	0x3d542eac	0.051802322
169	0x3c309e26	0.010779893
170	0xbcf3f397	-0.029779239
171	0xbb88378b	-0.004157012
172	0xbd222978	-0.03959033
173	0xbc5ad852	-0.013357239
174	0x3b7a45f4	0.0038188668
175	0x3b983457	0.0046449113
176	0xbd27afe3	-0.040939223
177	0xbd404641	-0.046942
178	0x3da68911	0.08131612
179	0xbd820011	-0.06347669
180	0xbd5dc06a	-0.05413858
181	0xbcbad7b1	-0.022807928
182	0x3cfa855e	0.030581173
183	0xbb970b66	-0.004609513
184	0x3d30c5ea	0.043157496
185	0xbd4d4ec1	-0.050123934
186	0x3e19bee0	0.1501422
187	0x3bf34ee7	0.0074251774
188	0x3d00220d	0.031282473
189	0xbd292cf6	-0.041302644
190	0x3d2df6fa	0.042471863
191	0x3d43cdc8	0.04780367
192	0x3d4fea35	0.050760467
193	0x3e008f71	0.12554719
194	0xbc46fd4c	-0.012145352
195	0xbcd3b2c2	-0.025842074
196	0xbc81b32b	-0.015832504
197	0xbd90ebf2	-0.07076253
198	0xbd56d517	-0.052449312
199	0x3d30ddd3	0.043180298
200	0x3cb98807	0.02264787
201	0x3c56c20b	0.013107787
202	0xbc1a4972	-0.009416925
203	0xbd72afb7	-0.059249606
204	0xbd031508	-0.03200248
205	0xbbcf381e	-0.0063238284
206	0xbc0aa524	-0.008462224
207	0xbd5b05f9	-0.053472493
208	0xbd0c2743	-0.03421713
209	0xbd0a0813	-0.033699106
210	0xbb658391	-0.0035021047
211	0xbd43084a	-0.047615327
212	0x3b34597c	0.0027519157
213	0xbd7ed10c	-0.06221108
214	0xbdbd1c82	-0.09233953
215	0xbd3b1a51	-0.045679394
216	0xbcd5f7d6	-0.026119154
217	0xbcb4b304	-0.022058018
218	0xbc90b6b5	-0.017665247
219	0x3e8334c9	0.2562621
220	0xbd01cbfd	-0.03168868
221	0xbc0f6a4c	-0.0087533705
222	0x3dd2f8cf	0.10301363
223	0xbd1c72ba	-0.03819535
224	0xbd235eda	-0.03988538
225	0xbc21acf4	-0.009867895
226	0x3c5ae115	0.013359328
227	0x3da85854	0.08219972
228	0xbd649883	-0.05580951
229	0xbcbb4ca7	-0.0228637
230	0xbd4d88c5	-0.05017926
231	0xbd3fdaf9	-0.046839688
232	0xbc49adf4	-0.01230954
233	0xbbe17c47	-0.00688127
234	0x3d3a3187	0.04545739
235	0x3d9e6f9a	0.0773613
236	0x3cd8c750	0.026462227
237	0x3c8ffa6d	0.017575467
238	0xbaa4a57d	-0.0012561526
239	0x3d9d0d2a	0.076685265
240	0x3d5cf206	0.05394175
241	0xbd4cd60e	-0.050008826
242	0x3d18b900	0.037285805
243	0x3d7efd2f	0.062253173
244	0x3cf8b27a	0.030358542
245	0x3d48e99d	0.049050916
246	0xbd716208	-0.05893138
247	0xbcd05572	-0.025431368
248	0xbd4ee4da	-0.05051122
249	0xbd1b4239	-0.03790495
250	0xbd0395d2	-0.0321253
251	0x3d9fbafe	0.07799338
252	0xbd7dfb5f	-0.062007304
253	0xbd286154	-0.041108444
254	0xbcb3fcc4	-0.021971114
255	0x3d218ad2	0.03943903
