Experimenten/Experiment1Snake/PPO/ppo_snake_2200.pth (torch, 280852 bytes, 7 tensors)

shared.0.weight f4 [256, 9]
0.18366793 -0.0661022 0.41891268 -0.19112328 0.011078743 0.052978843 0.5249266 0.32161736
-0.11572143 -0.324815 0.18469824 0.017665027 -0.25429726 -0.039744563 -0.3096489 0.08025438
-0.2620205 -0.32048807 0.14523026 -0.0244499 0.23178887 -0.06324838 0.05262114 -0.3244831
-0.20377026 0.07193422 -0.31935868 -0.20463476 -0.1370731 0.26100343 -0.44711906 -0.24457078
0.22479792 0.1713832 0.2867659 0.1006546 -0.22250555 -0.1738206 -0.38455468 -0.28136814
-0.33664557 -0.1919172 -0.2610701 -0.3247208 -0.030165715 0.39071378 0.22332047 0.34369522
-0.23483542 -0.02237697 -0.032606196 -0.12902361 0.42500862 0.1743702 -0.10964346 -0.22283047
0.40032774 0.39782432 -0.014510815 0.057549622 0.075170144 0.25380182 0.4893643 0.16374128
-0.07351812 -0.14321944 0.08299788 -0.012169224 0.0105400095 -0.1266416 0.1705431 -0.2784274
-0.25912523 -0.25793877 0.29169384 -0.10799974 -0.10199638 -0.0011049646 0.04697954 0.13952842
-0.14418846 0.019311503 -0.13571168 0.45732644 0.03345053 0.12557045 -0.1105267 -0.18347578
0.22406258 -0.3944914 -0.28662744 0.054135785 0.30492365 -0.3352571 -0.20271938 -0.053624935
0.05412265 0.1659161 0.52863085 0.22638032 -0.11755809 -0.20800221 -0.22499992 -0.07672242
-0.053695418 -0.05383106 -0.041617177 0.5612992 -0.052565463 0.27714825 -0.0049155587 0.20640321
0.13721353 -0.036120396 0.28625774 -0.012431256 0.53582186 0.36335817 -0.023428602 -0.26079786
0.038162872 0.2756888 0.17882432 0.06214522 -0.045747373 -0.20018692 -0.36786374 -0.34036836
0.4169441 -0.29957214 0.08284982 -0.19673274 -0.1265891 0.14726856 -0.08001781 -0.30231532
-0.33016267 0.23917648 0.2163896 0.1001571 -0.123705626 0.32453033 -0.042908497 0.21123342
-0.13579169 -0.12146949 0.37624222 0.055189047 -0.01862268 -0.09705087 0.45796725 -0.086823374
-0.14809723 0.15689693 0.19206521 0.35369945 0.06369283 0.08215508 0.12698251 0.47591484
0.44794065 0.41659975 0.15969416 0.38214478 0.099624716 -0.12598097 0.28204796 -0.15943468
0.4886077 0.026109606 0.07612342 -0.08348524 0.1922445 0.23045215 0.4076089 0.24073435
0.083626926 -0.017216928 0.35196552 0.19807109 0.022688631 -0.13604379 0.005077201 -0.27595124
-0.18451038 -0.057292175 -0.28631204 0.25367624 -0.18862794 0.047716256 0.160209 0.29159185
0.047289826 -0.185943 -0.031955793 -0.018538667 -0.073511384 0.11087489 -0.14843982 0.09745632
0.3403172 0.36022416 -0.14546213 -0.15689103 0.4331642 0.38398805 0.16988197 -0.20472074
-0.10353895 0.23930635 0.03320736 0.010361746 0.30417883 0.061253708 -0.22902499 -0.24418408
-0.38557246 0.14933394 0.08718215 0.08171398 -0.05573375 -0.21615328 0.49787602 0.41044512
-0.033473823 -0.09098583 0.1565651 0.43658805 -0.047278386 0.2217543 -0.10322342 0.35774246
0.36148867 -0.1651451 -0.1363873 0.096708074 0.04671298 -0.31429186 0.1260752 0.0101007465
0.48639613 0.14310384 0.24964625 -0.39532703 -0.19680424 0.20813526 -0.4268285 0.22073409
0.0871337 -0.16421087 0.24801186 -0.27926564 -0.18926378 0.2529356 0.015282918 0.29610714
00000000: 7213 3c3e 9760 87bd b97b d63e d2b5 43be
00000010: 9e83 353c 5800 593d 9761 063f 08ab a43e
00000020: 5bff ecbd 274e a6be 8921 3d3e 3fb6 903c
00000030: 4033 82be 32cb 22bd 4d8a 9ebe 695c a43d
00000040: 8d27 86be 0317 a4be 3eb7 143e 284b c8bc
00000050: 105a 6d3e 5e88 81bd 4489 573d a622 a6be
00000060: 27a9 50be 4052 933d fb82 a3be c68b 51be
00000070: e45c 0cbe 3ea2 853e caec e4be c370 7abe
00000080: 6d31 663e 147f 2f3e fbd2 923e 0024 ce3d
00000090: 7fd8 63be 07fe 31be 5ae4 c4be 7c0f 90be
000000a0: cf5c acbe f185 44be fbaa 85be ce41 a6be
000000b0: 171e f7bc a30b c83e 1fae 643e d2f8 af3e
000000c0: b278 70be e84f b7bc 138e 05bd c41e 04be
000000d0: bb9a d93e 1a8e 323e c08c e0bd ac2d 64be
000000e0: c2f7 cc3e a1af cb3e c5be 6dbc 27b9 6b3d
000000f0: cef2 993d 50f2 813e f58d fa3e cbab 273e
00000100: ab90 96bd 1ea8 12be cbfa a93d 6d61 47bc
00000110: 01b0 2c3c 56ae 01be daa2 2e3e 098e 8ebe
00000120: 10ac 84be 8d10 84be e558 953e f82e ddbd
00000130: 7ae3 d0bd 76d4 90ba 9e6d 403d 8ae0 0e3e
00000140: 24a6 13be 2833 9e3c 01f8 0abe b126 ea3e
00000150: 6c03 093d 8a95 003e d35b e2bd 13e1 3bbe
00000160: a970 653e c7fa c9be d5c0 92be 7cbd 5d3d
00000170: f41e 9c3e d2a6 abbe ab95 4fbe d2a5 5bbd
00000180: b6af 5d3d e9e5 293e 5a54 073f 3ed0 673e
00000190: 4cc2 f0bd 88fe 54be 6166 66be a520 9dbd
000001a0: baef 5bbd f57d 5cbd c676 2abd 4eb1 0f3f
000001b0: e24e 57bd 60e6 8d3e b212 a1bb 5d5b 533e
000001c0: b481 0c3e fbf2 13bd 6090 923e 77ac 4bbc
000001d0: 9f2b 093f 150a ba3e 57ed bfbc 4c87 85be
000001e0: ac50 1c3d 1527 8d3e b91d 373e fc8b 7e3d
000001f0: 9961 3bbd cdfd 4cbe a358 bcbe c344 aebe
00000200: b279 d53e 8561 99be 2bad a93d 4f74 49be
00000210: 93a0 01be 92cd 163e 61e0 a3bd 13c9 9abe
00000220: 150b a9be aeea 743e 3c95 5d3e 2a1f cd3d
00000230: 6059 fdbd d728 a63e d2c0 2fbd 934d 583e
00000240: fa0c 0bbe ffc4 f8bd d2a2 c03e e90d 623d
00000250: 978e 98bc 9bc2 c6bd af7a ea3e 74d0 b1bd
00000260: cda6 17be 97a9 203e beac 443e 1818 b53e
00000270: 6371 823d ec40 a83d b407 023e 1cab f33e
00000280: 7a58 e53e 904c d53e de86 233e 7ba8 c33e
00000290: 0b08 cc3d 2801 01be 9768 903e d842 23be
000002a0: ca2a fa3e d0e3 d53c 98e6 9b3d 4ffa aabd
000002b0: bedb 443e a6fb 6b3e 1db2 d03e 1183 763e
000002c0: 9844 ab3d 840a 8dbc d334 b43e 26d3 4a3e
000002d0: 82dd b93c 104f 0bbe a65e a63b 7b49 8dbe
000002e0: 4af0 3cbe 33ab 6abd 7e97 92be dae1 813e
000002f0: af27 41be 1f72 433d d40d 243e 874b 953e
00000300: fab2 413d d767 3ebe 14e4 02bd 67de 97bc
00000310: 238d 96bd 6012 e33d 9c00 18be 2e97 c73d
00000320: 0e3e ae3e 4d6f b83e 06f4 14be 0ba8 20be
00000330: b3c7 dd3e 159a c43e 8af5 2d3e 50a2 51be
00000340: 3b0c d4bd b90c 753e 7104 083d 50c4 293c
00000350: 54bd 9b3e 2be5 7a3d 8785 6abe 640b 7abe
00000360: c169 c5be ffea 183e 8e8c b23d a959 a73d
00000370: 1349 64bd 4957 5dbe 9be9 fe3e dd25 d23e
00000380: d91b 09bd c756 babd 9a52 203e 7888 df3e
00000390: fba6 41bd 8f13 633e cd66 d3bd 052a b73e
000003a0: 0b15 b93e cc1b 29be 1da9 0bbe e20e c63d
000003b0: 1c56 3f3d ddea a0be db19 013e 9a7d 253c
000003c0: ea08 f93e d089 123e 44a3 7f3e 4e68 cabe
000003d0: 0d87 49be 6921 553e 4489 dabe 1e08 623e
000003e0: 2773 b23d e526 28be d2f6 7d3e e8fb 8ebe
000003f0: 5dce 41be c680 813e 3465 7a3c 5b9b 973e

shared.0.bias f4 [256]
0.18249974 -0.2266648 -0.26074558 -0.19300589 -0.11951996 0.22521225 0.26710263 0.29171777
0.09491267 -0.3870957 0.0028713783 0.23296957 0.43686903 0.0701993 -0.28175968 -0.40814427
0.13184041 -0.0075516244 0.19641443 0.29051793 -0.42594865 0.3456705 0.0031888345 -0.32822147
-0.15177323 0.30336708 -0.040900175 -0.17435333 0.4051307 -0.25690567 -0.31954524 -0.38232514
0.2721869 0.28629076 0.3537993 -0.19091633 0.35977638 0.057749495 -0.32582465 -0.16525328
0.28215635 -0.15528552 0.38145894 -0.14948574 0.54000515 0.13476329 -0.16912769 -0.10544941
0.0010511891 -0.24158873 0.09797458 -0.11556867 0.16168977 0.1510949 0.017545706 -0.3203135
0.40119278 0.105725616 -0.012032729 0.28852597 0.5168351 -0.093092896 0.44198376 0.25351515
-0.19567314 0.049911126 0.31736428 0.32278174 0.37835965 0.14733978 0.44733426 0.39638263
0.25480825 -0.44361964 -0.10136772 0.3306581 0.07787059 -0.3363532 0.18398009 -0.14712961
-0.31980303 0.41077006 0.14158873 -0.23161268 0.2261944 0.3474571 -0.023356924 0.04847278
-0.13675074 -0.044308867 0.121351264 -0.110739 0.17717244 0.07913933 0.31984016 0.14952011
0.27959955 -0.063246034 -0.2584252 -0.08727841 0.11754744 -0.14318477 0.3305312 0.2981235
0.40654287 -0.08993769 0.3698712 -0.31875643 -0.06122053 -0.4075381 -0.39766547 -0.040309947
-0.20632821 -0.15119137 0.04671113 0.357884 0.4612521 -0.33393264 0.0011952122 -0.4622081
-0.45834652 -0.28107196 0.18533562 0.29090986 -0.28583947 -0.32255736 -0.3223785 0.395296
0.25661102 -0.2253577 0.3192806 -0.02985434 0.09937225 -0.28474134 0.17677456 -0.3116924
-0.21715873 -0.20145945 0.082487255 0.12901272 -0.030952383 -0.02915272 -0.17986251 0.26712745
0.37655166 -0.4244258 0.22681494 0.10841045 0.21643153 0.28470743 0.056308385 0.32409248
-0.134977 -0.29399103 0.12697263 0.32814485 0.2502656 0.15583415 0.005256536 0.29689896
-0.4561837 -0.24924557 0.2009059 0.43317404 0.09830221 -0.24652909 0.37317625 0.023545856
0.3272412 0.162226 0.29463473 0.2044692 -0.2393816 -0.3822142 0.25114477 0.38852537
0.17900471 -0.10415616 0.19909754 -0.23028092 0.05597621 -0.19737992 -0.24214195 0.5591069
-0.064903356 -0.40544316 -0.0043714275 0.12298393 -0.16826992 -0.17858614 -0.15002526 0.19762677
-0.20687686 -0.4128891 0.41388497 0.38821426 0.29165432 -0.094827056 0.16890666 0.45857954
-0.20906116 -0.40746468 -0.09214456 -0.28467017 -0.23084338 -0.2941364 -0.18172327 -0.29421085
-0.36061668 0.18673941 -0.28858054 0.24481891 -0.003594231 0.04588189 0.48250702 -0.12383119
0.14605856 0.007225126 -0.46877155 -0.42452943 0.4378356 0.08231762 -0.24212813 0.40580198
0.23326755 -0.19848037 -0.18123002 -0.34320155 -0.38478732 0.062140945 0.48128694 0.25346106
0.5343101 -0.37778863 -0.26796108 0.32154998 -0.43823665 -0.15615413 -0.0051031574 0.4837649
-0.24627237 0.07388409 0.067869134 0.120677486 -0.07512552 0.13480474 0.120884344 -0.24743192
0.23600578 0.11955872 0.029077103 0.43511343 -0.4445116 0.2534028 -0.011649346 0.26984397
00000000: 36e1 3a3e d11a 68be 7280 85be 56a3 45be
00000010: e1c6 f4bd 0a9e 663e adc1 883e 085c 953e
00000020: 9361 c23d 6831 c6be bc2d 3c3b 938f 6e3e
00000030: 4cad df3e a7c4 8f3d ce42 90be 49f8 d0be
00000040: 2c01 073e 9e73 f7bb dd20 493e c4be 943e
00000050: f115 dabe b9fb b03e c4fb 503b a50c a8be
00000060: 716a 1bbe ee52 9b3e f186 27bd ae89 32be
00000070: 4b6d cf3e 2489 83be 6f9b a3be 1fc0 c3be
00000080: 155c 8b3e b494 923e 2f25 b53e 927f 43be
00000090: 9c34 b83e bc8a 6c3d 7dd2 a6be 2838 29be
000000a0: cc76 903e 2b03 1fbe 964e c33e ca12 19be
000000b0: c73d 0a3f 63ff 093e cf2f 2dbe dcf5 d7bd
000000c0: 0ec8 893a 0963 77be e6a6 c83d 44af ecbd
000000d0: 0192 253e 9fb8 1a3e 03bc 8f3c 2200 a4be
000000e0: 2469 cd3e ac86 d83d ec24 45bc adb9 933e
000000f0: 4e4f 043f 7da7 bebd b24b e23e bdcc 813e
00000100: 8a5e 48be 9c6f 4c3d 927d a23e a643 a53e
00000110: 5bb8 c13e 3de0 163e ff08 e53e aaf2 ca3e
00000120: 3a76 823e 1d22 e3be e199 cfbd 054c a93e
00000130: 9e7a 9f3d 7d36 acbe 4765 3c3e 25a9 16be
00000140: 39bd a3be 7450 d23e a3fc 103e e02b 6dbe
00000150: 819f 673e e6e5 b13e 0557 bfbc 658b 463d
00000160: 6308 0cbe 377d 35bd 0387 f83d 21cb e2bd
00000170: b16c 353e cd13 a23d 17c2 a33e cd1b 193e
00000180: ac27 8f3e 2387 81bd 4f50 84be 06bf b2bd
00000190: b6bc f03d 079f 12be 633b a93e a5a3 983e
000001a0: 6326 d03e 4031 b8bd c25f bd3e 0b34 a3be
000001b0: 61c2 7abd d5a8 d0be cf9a cbbe 0b1c 25bd
000001c0: b447 53be e9d1 1abe 2b54 3f3d 923c b73e
000001d0: 3c29 ec3e 38f9 aabe aba8 9c3a 8aa6 ecbe
000001e0: 65ac eabe aae8 8fbe 9fc8 3d3e 23f2 943e
000001f0: 8d59 92be 3d26 a5be cb0e a5be 3d64 ca3e
00000200: 8562 833e 2bc4 66be bf78 a33e 1791 f4bc
00000210: ae83 cb3d 9ec9 91be 6404 353e 2596 9fbe
00000220: dc5e 5ebe 634b 4ebe 14ef a83d e91b 043e
00000230: da8f fdbc afd1 eebc e12d 38be eec4 883e
00000240: 61cb c03e 574e d9be 2d42 683e 4c06 de3d
00000250: 3aa0 5d3e 2cc5 913e 9fa3 663d 73ef a53e
00000260: 6937 0abe fe85 96be 1d05 023e 9a02 a83e
00000270: d022 803e fd92 1f3e 053f ac3b 2403 983e
00000280: e990 e9be 3b3a 7fbe 47ba 4d3e fdc8 dd3e
00000290: ab52 c93d 1f72 7cbe f510 bf3e 3de3 c03c
000002a0: 298c a73e 931e 263e 5dda 963e 6060 513e
000002b0: 7320 75be 94b1 c3be 0c96 803e ccec c63e
000002c0: 034d 373e d34f d5bd 3ae0 4b3e c3ce 6bbe
000002d0: 4f47 653d f61d 4abe 0ff4 77be a121 0f3f
000002e0: 0dec 84bd 3f96 cfbe 313e 8fbb 00df fb3d
000002f0: f34e 2cbe 49df 36be 39a0 19be ac5e 4a3e
00000300: 87d7 53be 3366 d3be bbe8 d33e 05c4 c63e
00000310: b753 953e b034 c2bd def5 2c3e f0ca ea3e
00000320: 2114 56be 369f d0be 49b6 bcbd 4ac0 91be
00000330: 3562 6cbe 0c99 96be aa15 3abe cea2 96be
00000340: c0a2 b8be 9e38 3f3e d4c0 93be cfb1 7a3e
00000350: 318d 6bbb a6ee 3b3d 290b f73e 359b fdbd
00000360: 6090 153e c0c0 ec3b d302 f0be ec5b d9be
00000370: fd2b e03e 2496 a83d 70f0 77be 47c5 cf3e
00000380: b0dd 6e3e 703e 4bbe 5d94 39be 1db8 afbe
00000390: d802 c5be 8187 7e3d 3e6b f63e a6c5 813e
000003a0: 8cc8 083f 836d c1be 3232 89be 33a2 a43e
000003b0: 8e60 e0be dee6 1fbe 6338 a7bb 08b0 f73e
000003c0: d32e 7cbe 8b50 973d f9fe 8a3d c225 f73d
000003d0: 69db 99bd 410a 0a3e 3692 f73d cb5e 7dbe
000003e0: 80ab 713e 34db f43d 1b33 ee3c 30c7 de3e
000003f0: 0697 e3be 03be 813e e6dc 3ebc fd28 8a3e

shared.2.weight f4 [256, 256]
-0.013513594 -0.039767943 -0.016898809 -0.020271063 0.027061015 0.16787343 0.11803031 0.03481216
-0.048697017 0.0010638934 0.030231865 0.019159714 0.08752625 -0.02056227 -0.0846162 -0.028245172
0.032294232 0.059126794 -0.040064175 -0.027711073 -0.088752486 0.07401733 0.074937396 -0.025662867
-0.031103134 -0.024716768 -0.061617948 -0.07706652 0.048026633 -0.039330892 -0.055494215 -0.09130551
-0.051771335 0.030054692 -0.039166242 0.069615096 -0.04135362 0.038853683 0.0076904106 -0.04191231
0.025343928 -0.0034749042 0.011309592 -0.022777965 0.17825082 -0.027279526 -0.028626816 0.05604789
0.060922492 0.053686485 -0.017170392 -0.0021241454 0.0023470072 0.065282345 -0.014667057 -0.09012568
0.07497019 0.053736173 0.016878026 0.049683016 0.10111017 0.013996117 0.044179056 0.040035594
-0.021907441 0.0124957925 0.027904792 0.05763665 0.07919847 -0.01582678 0.13860247 0.06939073
0.007868034 -0.00076618587 0.05598503 0.024246769 0.0043025515 -0.044909954 0.015423787 0.018234273
-0.05332422 0.058872964 0.058511294 -0.023214454 0.06393455 0.082637355 0.031730164 0.059062913
0.06985665 -0.021145968 0.011314323 -0.0024418067 -0.018050687 0.030001838 0.068801045 -0.012449537
0.0533092 -0.0016800287 -0.01796716 0.014102896 -0.011224679 0.05318641 -0.007514979 -0.03600704
0.062453818 -0.11375611 -0.024610182 -0.07411005 0.024876507 -0.036976714 -0.12405191 0.027184444
0.016763428 0.029761212 0.07612926 -0.030105215 0.08397927 -0.004014951 0.03195944 0.06537515
-0.065917775 -0.043275844 0.054752536 0.114409216 0.047688756 -0.08488668 -0.0075619286 0.08077037
0.04609144 0.06813629 0.06669077 0.0054113353 0.031492725 -0.0059869313 -0.0034974755 0.061847962
0.0029669793 0.06935109 0.040007878 0.038786124 0.037633978 -0.03028185 -0.023398373 -0.030944351
-0.016309083 -0.052592766 0.050764326 0.013047253 0.053788975 0.07411472 0.0012280007 -0.016652266
0.016494682 -0.059108313 0.0040318333 0.0084350165 0.07262435 -0.026583841 -0.01594256 -0.03394305
-0.06888642 -0.008670538 -0.00033768374 0.12083983 0.06735525 -0.053773724 -0.015805759 -0.015643623
0.0841318 0.058808587 -0.043011796 0.00018966396 -0.05625105 -0.06962445 -0.0151660275 0.17243038
0.02233885 0.041585676 0.04303978 -0.038031094 0.056551076 0.031229716 0.22400379 0.09030123
-0.03412872 -0.022358203 0.019993827 -0.028152667 0.029802117 -0.045433722 0.008278069 0.10407294
-0.046136983 -0.06694774 0.0042876494 -0.016357047 0.08284437 0.010149706 0.014516936 0.012724814
-0.015612905 -0.04317493 -0.08455183 0.010896731 -0.08485601 0.057116535 0.020467702 0.007844051
-0.07962639 0.04262395 -0.05064447 0.011084406 0.05307767 -0.03520551 -0.0015755463 0.00042867239
0.034657747 0.03009159 0.030298846 -0.077921905 0.08567393 0.061322823 0.04165385 0.025385017
0.045092963 0.039367408 -0.004289961 0.018672371 -0.05788742 -0.018034574 0.08277739 -0.022326555
0.08228546 0.030581327 -0.08668218 0.03667488 -0.06931449 -0.075833894 0.04378177 -0.015048766
-0.047948394 0.0193922 0.063055515 -0.005908538 0.06640914 0.03790107 0.007497264 -0.012628107
0.05645547 0.059361234 -0.04295606 0.006691471 -0.0567375 -0.0845658 0.07028468 0.053170618
00000000: 1f68 5dbc b6e3 22bd 5f6f 8abc 800f a6bc
00000010: 10af dd3c 03e7 2b3e e0b9 f13d 3297 0e3d
00000020: 8676 47bd 5772 8b3a d1a8 f73c d5f4 9c3c
00000030: f640 b33d 3572 a8bc 424b adbd 6b62 e7bc
00000040: f546 043d f02e 723d 551a 24bd 5502 e3bc
00000050: ddc3 b5bd 6696 973d c778 993d ef3a d2bc
00000060: 00cc febc d27a cabc 1a63 7cbd 0dd5 9dbd
00000070: 93b7 443d 6e19 21bd e74d 63bd 62fe babd
00000080: 2e0e 54bd 4235 f63c c86c 20bd 5c92 8e3d
00000090: 6a62 29bd 0a25 1f3d d7ff fb3b 3eac 2bbd
000000a0: 129e cf3c 38bb 63bb de4b 393c db98 babc
000000b0: 6287 363e 5079 dfbc c982 eabc 7992 653d
000000c0: dd89 793d 5ce6 5b3d eca8 8cbc 3f35 0bbb
000000d0: 3fd0 193b c0b2 853d 194e 70bc d093 b8bd
000000e0: f989 993d 761a 5c3d c943 8a3c 6b80 4b3d
000000f0: d912 cf3d f84f 653c 19f5 343d 5dfc 233d
00000100: 3c77 b3bc 27bb 4c3c 9798 e43c 6814 6c3d
00000110: cf32 a23d 2aa7 81bc ceed 0d3e ba1c 8e3d
00000120: ede8 003c ddd9 48ba 8f50 653d 29a1 c63c
00000130: 6bfc 8c3b 80f3 37bd 0db4 7c3c 0b60 953c
00000140: 7f6a 5abd c724 713d 8aa9 6f3d 3d2c bebc
00000150: 1ef0 823d c63d a93d 7df7 013d f4eb 713d
00000160: 0111 8f3d 4f3a adbc b65f 393c b806 20bb
00000170: 09df 93bc 6ac6 f53c 90e7 8c3d 25f9 4bbc
00000180: bf5a 5a3d 6934 dcba de2f 93bc d50f 673c
00000190: b7e7 37bc fed9 593d 3740 f6bb 1e7c 13bd
000001a0: 93cf 7f3d f7f8 e8bd 4b9b c9bc 03c7 97bd
000001b0: d1c9 cb3c e574 17bd ee0e febd e9b1 de3c
000001c0: 7553 893c c9cd f33c a8e9 9b3d 369f f6bc
000001d0: 53fd ab3d da8f 83bb e7e7 023d 68e3 853d
000001e0: e6ff 86bd 0342 31bd 3244 603d 614f ea3d
000001f0: 4955 433d 11d9 adbd 0eca f7bb f06a a53d
00000200: 61ca 3c3d 0a8b 8b3d 2c95 883d 9251 b13b
00000210: 84fe 003d 052e c4bb e735 65bb 4a54 7d3d
00000220: a771 423b f207 8e3d 4ddf 233d 33de 1e3d
00000230: 1626 1a3d a411 f8bc f2ad bfbc 027f fdbc
00000240: a09a 85bc 836b 57bd 41ee 4f3d 25c4 553c
00000250: d451 5c3d 75c9 973d def4 a03a 556a 88bc
00000260: db1f 873c 8f1b 72bd 781d 843b 0633 0a3c
00000270: 13bc 943d 5bc6 d9bc f999 82bc de07 0bbd
00000280: 5314 8dbd df0e 0ebc 250b b1b9 df7a f73d
00000290: 8df1 893d d641 5cbd 147b 81bc 0e27 80bc
000002a0: 4b4d ac3d 46e1 703d 232d 30bd 88e0 4639
000002b0: 8067 66bd 4397 8ebd ee7a 78bc 9791 303e
000002c0: f7ff b63c be55 2a3d 7b4a 303d 7ec6 1bbd
000002d0: 1aa2 673d 76d5 ff3c 4061 653e daef b83d
000002e0: 8fca 0bbd 8d28 b7bc 18ca a33c 6ca0 e6bc
000002f0: 9223 f43c b618 3abd bda0 073c 3224 d53d
00000300: 22fa 3cbd e61b 89bd 697f 8c3b 37ff 85bc
00000310: 4faa a93d f44a 263c 71d8 6d3c bd7b 503c
00000320: 45cd 7fbc 32d8 30bd 8329 adbd 3488 323c
00000330: fdc8 adbd 07f3 693d e2ab a73c 5684 003c
00000340: 2913 a3bd 7396 2e3d 9370 4fbd 5e9b 353c
00000350: f967 593d a733 10bd 9082 ceba 6fbf e039
00000360: 48f5 0d3d a382 f63c 4935 f83c 8595 9fbd
00000370: d075 af3d a42d 7b3d 3a9d 2a3d 3df4 cf3c
00000380: 66b3 383d b83f 213d cd92 8cbb cdf6 983c
00000390: 5c1b 6dbd 3ebd 93bc 3187 a93d 2ee6 b6bc
000003a0: 4785 a83d b185 fa3c 6d86 b1bd 6638 163d
000003b0: c1f4 8dbd cd4e 9bbd 8354 333d 198f 76bc
000003c0: 8965 44bd 64dc 9e3c 4023 813d 699c c1bb
000003d0: 8401 883d 273e 1b3d 9cab f53b 1fe6 4ebc
000003e0: da3d 673d c424 733d b2f2 2fbd 2144 db3b
000003f0: 9565 68bd d630 adbd 6af1 8f3d 6fc9 593d

shared.2.bias f4 [256]
0.101852976 0.028832769 0.13213007 0.013438347 0.09900829 0.10542579 -0.26912636 0.123900525
0.027970402 0.21737058 0.16366158 0.017488996 0.14444365 0.20680526 0.14074107 0.1899126
0.19901471 0.22313957 -0.022353932 0.08754737 0.2321392 0.19364798 -0.020662285 -0.048002593
0.024355184 0.039442245 -0.03378489 -0.106140405 0.17761442 -0.026607223 0.11828368 0.033856343
-0.19693452 -0.053527884 0.179291 0.12820083 0.18117085 0.19695474 0.21796313 -0.020841457
-0.021699645 0.1557421 0.14883384 -0.0012409964 -0.21405195 0.09473067 0.14254327 -0.121572934
0.13243257 0.10689973 0.1950893 -0.13177374 0.0011030855 0.10050766 0.13300039 0.19462618
0.22100674 0.1487134 0.16969962 0.20609657 0.09366681 0.18040691 0.18317989 -0.02818574
-0.063920274 0.13367999 0.15865372 0.18783413 0.19966157 0.0282176 0.1482849 0.18316735
0.19892891 0.17775643 0.18216668 0.12329221 0.13414502 -0.019277932 -0.016603297 -0.015319246
0.15244293 -0.12770945 -0.033689033 -0.016961304 -0.18885912 0.1565723 0.21430974 -0.010259979
0.031465307 0.12698798 0.147201 0.17955486 -0.012023662 0.1640799 0.17465922 0.10144011
0.16540034 0.0047726287 -0.040324677 0.08941565 0.09446217 0.13033368 -0.2769899 0.11637904
0.16166264 0.004343881 -0.24503227 0.18109308 -0.13067533 -0.0096018175 0.20083675 0.12035515
0.100314334 0.02168045 0.13271773 0.02767467 -0.20740077 0.095361054 0.10551454 -0.13481401
0.17444482 0.07882214 0.14173721 0.124068774 0.16423239 0.12217471 0.17611302 0.13763173
0.01598045 0.22079553 0.18249923 -0.03590522 -0.048636585 -0.12043745 -0.023824073 0.13304052
0.1618588 0.06592822 0.1467834 0.18401216 -0.14306703 -0.055095922 0.16671713 0.11025472
-0.0525889 0.22118431 -0.051605474 0.17737289 -0.08026152 0.11648579 0.2063466 0.13568717
0.16406494 0.0912299 0.0071638916 0.11266752 -0.23770656 0.008783398 -0.011518579 0.13025188
0.18967958 -0.03530699 0.11131808 -0.06283193 0.13631277 0.22293273 -0.16927032 0.0010676789
-0.13615626 0.03651234 0.21868154 -0.044615407 0.14288597 0.20850998 0.03026653 -0.060658433
0.110986054 0.1339557 0.118760504 0.1423033 0.21066213 0.16433701 -0.0035904925 0.14616431
-0.034283657 0.12949294 0.012624724 -0.014996648 -0.02518032 0.14667355 0.13178061 -0.049475968
-0.025927095 0.03387948 0.14630975 0.20171401 0.19360608 0.16508764 0.15558805 0.037569664
-0.040835008 0.12453531 0.15345822 0.18600105 0.18985417 0.20003809 0.14532575 0.11145235
0.21677114 0.13700366 0.19678597 0.13276473 0.04546491 0.09570993 0.20820154 0.18837555
-0.044649746 0.19610485 0.1558844 0.08968771 0.14045744 0.22257629 0.08338356 0.15990652
0.14707509 0.16070175 -0.053683177 0.037919704 0.17900081 0.12290628 0.111105174 0.1317521
0.14418888 0.21224453 -0.077712744 -0.17904343 0.019205244 0.018458746 0.12242011 -0.25140026
0.0009188949 0.13335317 -0.20292434 -0.1688124 0.010195001 -0.13738349 0.17598586 0.13769212
0.105181865 0.09777818 0.1178275 -0.12240185 0.15038806 0.1353803 0.22606516 -0.030933755
00000000: 4b98 d03d b332 ec3c 1b4d 073e 832c 5c3c
00000010: dcc4 ca3d 7ae9 d73d eeca 89be 8fbf fd3d
00000020: 2f22 e53c 6596 5e3e e796 273e 1545 8f3c
00000030: 09e9 133e c2c4 533e 6d1e 103e 7378 423e
00000040: 83ca 4b3e b37e 643e 981f b7bc 094c b33d
00000050: e6b5 6d3e a84b 463e f443 a9bc 5e9e 44bd
00000060: 8684 c73c 318e 213d 0662 0abd 2460 d9bd
00000070: 8ee0 353e 64f7 d9bc b73e f23d f3ac 0a3d
00000080: 34a9 49be 0e40 5bbd 0f98 373e 1447 033e
00000090: da84 393e 81ae 493e ba31 5f3e b4bb aabc
000000a0: 74c3 b1bc db7a 1f3e e667 183e eea8 a2ba
000000b0: 6f30 5bbe 2702 c23d ddf6 113e 3bfb f8bd
000000c0: 679c 073e 3fee da3d 7dc5 473e b2ef 06be
000000d0: 6895 903a f6d6 cd3d 4131 083e 164c 473e
000000e0: 974f 623e 5348 183e bdc5 2d3e fb0a 533e
000000f0: 62d4 bf3d 97bc 383e 8293 3b3e c8e5 e6bc
00000100: a2e8 82bd 68e3 083e 1f76 223e 9757 403e
00000110: 1574 4c3e 9928 e73c ffd7 173e 3990 3b3e
00000120: 05b4 4b3e c805 363e e789 3a3e a080 fc3d
00000130: 505d 093e c1ec 9dbc a303 88bc 93fd 7abc
00000140: 001a 1c3e 44c6 02be 83fd 09bd 6ff2 8abc
00000150: 4964 41be 7d54 203e 0374 5b3e 7919 28bc
00000160: c4e1 003d 2309 023e dcbb 163e 3bdd 373e
00000170: e5fe 44bc 9004 283e ded9 323e d5bf cf3d
00000180: b55e 293e b663 9c3b 7d2b 25bd 8d1f b73d
00000190: 6275 c13d 3176 053e 9fd1 8dbe 2258 ee3d
000001a0: e48a 253e 1d57 8e3b bde9 7abe 7770 393e
000001b0: c1cf 05be f150 1dbc 26a8 4d3e c37c f63d
000001c0: 9a71 cd3d 339b b13c 28e7 073e fdb5 e23c
000001d0: de60 54be a84c c33d 0218 d83d af0c 0abe
000001e0: aaa1 323e 816d a13d 8f23 113e c517 fe3d
000001f0: 892c 283e bc36 fa3d f956 343e 55ef 0c3e
00000200: 6fe9 823c 3918 623e 14e1 3a3e 5a11 13bd
00000210: 2837 47bd e9a7 f6bd b42a c3bc c63b 083e
00000220: 50be 253e 6005 873d 634e 163e af6d 3c3e
00000230: 2a80 12be 43ac 61bd e5b7 2a3e 3acd e13d
00000240: 7567 57bd 247e 623e 4360 53bd 3da1 353e
00000250: 2760 a4bd 1a90 ee3d 864c 533e 94f1 0a3e
00000260: a400 283e bed6 ba3d 14bf ea3b 3bbe e63d
00000270: 5969 73be 3ee8 0f3c 6cb8 3cbc c060 053e
00000280: 5d3b 423e 109e 10bd bcfa e33d 07ae 80bd
00000290: 9395 0b3e 7a48 643e 3355 2dbe 5cf1 8b3a
000002a0: 8c6c 0bbe f78d 153d 0eee 5f3e a5be 36bd
000002b0: b350 123e a483 553e 84f1 f73c fa74 78bd
000002c0: a84c e33d af2b 093e b538 f33d f5b7 113e
000002d0: d0b7 573e f647 283e 784e 6bbb 19ac 153e
000002e0: 056d 0cbd cc99 043e eed7 4e3c 80b4 75bc
000002f0: f546 cebc 9731 163e 7ff1 063e 50a7 4abd
00000300: 0f65 d4bc 36c5 0a3d 39d2 153e 1e8e 4e3e
00000310: ac40 463e bc0c 293e 7952 1f3e a6e2 193d
00000320: 9c42 27bd 5e0c ff3d 2724 1d3e 0f77 3e3e
00000330: 2269 423e c9d6 4c3e 46d0 143e 2141 e43d
00000340: 41f9 5d3e b04a 0c3e 4382 493e 7af3 073e
00000350: 6a39 3a3d 9103 c43d c932 553e 85e5 403e
00000360: a7e2 36bd b6cf 483e 29a0 1f3e 31ae b73d
00000370: 13d4 0f3e 0aeb 633e 00c5 aa3d 89be 233e
00000380: da9a 163e 008f 243e e4e2 5bbd b151 1b3d
00000390: fd4b 373e 4ab6 fb3d 1c8b e33d 06ea 063e
000003a0: 40a6 133e a156 593e dc27 9fbd 2957 37be
000003b0: 5154 9d3c cc36 973c 65b7 fa3d 89b7 80be
000003c0: fee1 703a bc8d 083e 66cb 4fbe 28dd 2cbe
000003d0: ef08 273c 42ae 0cbe a335 343e 2aff 0c3e
000003e0: 9769 d73d ed3f c83d 8b4f f13d d2ad fabd
000003f0: 54ff 193e 22a1 0a3e a07d 673e c968 fdbc

actor.weight f4 [3, 256]
0.06918294 -0.024534564 0.0022807578 -0.035183642 -0.066793285 -0.07092586 -0.06529119 -0.021872148
0.03428403 0.052477017 0.06553369 -0.016746074 0.073439896 0.004662817 0.01104477 0.002023025
0.11615079 0.02693134 0.00989873 -0.0059631476 0.047585294 0.05161458 -0.1408458 -0.025237111
-0.00489666 0.042387217 0.030653724 -0.09936146 -0.07830489 0.011460952 -0.10665362 -0.005369059
0.0049666343 -0.017868351 0.089065894 0.0013441644 0.08350258 -0.05253759 -0.07863967 -0.017752854
0.04091446 0.070271246 0.041799776 0.039641425 0.016836938 -0.033245273 0.050249532 0.11465414
-0.018283006 -0.0064019393 -0.06988991 -0.009020541 0.031746387 0.16578358 0.08675484 0.012739363
-0.07907815 0.065026574 0.06442125 -0.0031256864 0.0469716 0.09581892 -0.075967684 -0.060859714
-0.16637863 -0.016310526 -0.008806836 0.024219144 0.010272433 -0.0051194774 0.052342046 0.119950466
-0.10264964 0.009035744 -0.007368488 0.011438807 0.02054279 0.003120767 0.022639932 0.13533513
-0.05207596 0.0051059243 -0.032333948 0.044706464 0.003848162 0.08788415 0.07121511 0.04987055
-0.039678257 0.086750574 -0.020946061 0.05552988 0.023868974 0.0060063982 -0.064249046 -0.022384644
-0.01762186 -0.017536111 0.05437777 0.032751173 0.06632801 0.053304605 -0.023823217 0.025320757
-0.033541698 0.028331976 -0.05061382 -0.10133041 -0.116712004 -0.006183119 0.085903056 -0.018990546
0.035616312 0.049719367 0.07901884 -0.02636409 0.089348145 0.019048715 -0.038363107 0.013283861
0.065246075 0.035346728 -1.5517184e-05 -0.038532894 0.06484862 -0.02412193 -0.041761007 0.10915409
0.009579043 0.005779143 -0.020383589 0.042534113 -0.05361277 0.023757035 0.033597 0.0029383167
0.092845775 -0.2834735 -0.021706099 -0.06857567 0.08439138 -0.05251175 0.026082153 0.0140604
0.008958365 0.02106916 0.02733126 -0.006315919 0.022445558 0.0041874917 0.015456353 -0.0054076556
0.0600429 -0.099591315 -0.05380486 -0.008475073 0.024373053 -0.02324063 0.014108692 -0.004876095
0.009125518 0.059201483 -0.10914832 0.072729476 -0.02161142 0.042890646 -0.0687835 0.018472845
0.11966064 0.019029614 0.0614394 -0.016920442 0.026458237 -0.0227949 -0.016263982 0.007630445
-0.032024086 0.051683597 0.14206715 -0.033439633 0.017739715 -0.12156662 -0.037870366 0.0036692382
-0.03329978 -0.109557346 -0.035159666 0.05263623 0.060349893 0.026822034 0.14910775 -0.029472262
0.020388033 0.038947273 -0.032172184 -0.03525211 -0.090648115 -0.023485813 -0.042887397 0.025636002
0.0063310894 0.016162427 0.107390866 -0.0755167 -0.05810378 0.0425537 0.0075044734 -0.09991241
0.048844457 0.087712765 0.04722905 0.051952425 -0.00068246503 0.07550599 -0.06550465 -0.01985492
0.031508844 -0.020585673 -0.024088932 -0.24011713 0.013721189 -0.083860606 0.035576627 0.027583344
0.07140337 -0.03109003 -0.02329894 0.041346062 -0.06967608 0.015347034 0.049769588 -0.085526176
0.060318694 -0.050390936 -0.03814329 0.02755819 -0.0049762214 0.024403412 -0.1070775 0.10140886
0.048919596 -0.052974332 0.06301766 0.0015779713 -0.026937965 0.08501574 -0.016449625 0.050736826
-0.077076934 0.049641177 -0.037894942 -0.034834616 -0.04237774 0.103636056 0.025797496 0.009253362
00000000: c9af 8d3d b6fc c8bc c478 153b b91c 10bd
00000010: ebca 88bd 9441 91bd 63b7 85bd 382d b3bc
00000020: 696d 0c3d 24f2 563d 8736 863d 102f 89bc
00000030: a867 963d 8bca 983b 1ff5 343c ba94 043b
00000040: 77e0 ed3d 1d9f dc3c 482e 223c 8266 c3bb
00000050: cce8 423d cf69 533d e239 10be 0fbe cebc
00000060: 2974 a0bb 389e 2d3d 851d fb3c 057e cbbd
00000070: 505e a0bd b8c6 3b3c 376d dabd eeee afbb
00000080: 26bf a23b a660 92bc 2e68 b63d ac2e b03a
00000090: 6703 ab3d a831 57bd d60d a1bd 6f6e 91bc
000000a0: ec95 273d 5fea 8f3d 3e36 2b3d 0c5f 223d
000000b0: 9eed 893c 322c 08bd 74d2 4d3d cacf ea3d
000000c0: 3ec6 95bc 5cc7 d1bb 7122 8fbd e4ca 13bc
000000d0: 8008 023d 2cc3 293e 86ac b13d c3b8 503c
000000e0: baf3 a1bd a72c 853d 4aef 833d 51d8 4cbb
000000f0: 4b65 403d b63c c43d f294 9bbd 0948 79bd
00000100: 295f 2abe a79d 85bc 8c4a 10bc 3a67 c63c
00000110: b54d 283c 4ac1 a7bb 9d64 563d 97a8 f53d
00000120: f939 d2bd a80a 143c 5b73 f1bb d569 3b3c
00000130: 5a49 a83c c885 4c3b 6177 b93c 4b95 0a3e
00000140: 9a4d 55bd 994f a73b 9a70 04bd 201e 373d
00000150: 7231 7c3b 9bfc b33d 3ad9 913d 1045 4c3d
00000160: ab85 22bd 49aa b13d 1397 abbc 4d73 633d
00000170: de88 c33c 52d1 c43b 0195 83bd 0060 b7bc
00000180: b85b 90bc e4a7 8fbc 39bb 5e3d 1826 063d
00000190: fbd6 873d ee55 5a3d e828 c3bc 7a6d cf3c
000001a0: 0563 09bd 7618 e83c 7050 4fbd 5186 cfbd
000001b0: b406 efbd c39b cabb f1ed af3d 1092 9bbc
000001c0: 69e2 113d 89a6 4b3d a1d4 a13d 81f9 d7bc
000001d0: 29fc b63d 0d0c 9c3c a222 1dbd 8da4 593c
000001e0: bc9f 853d bbc7 103d e62a 82b7 abd4 1dbd
000001f0: 5acf 843d 5b9b c5bc 970d 2bbd 2e8c df3d
00000200: 6bf1 1c3c f75e bd3b 7cfb a6bc 4038 2e3d
00000210: 1099 5bbd 1d9e c23c 029d 093d c690 403b
00000220: ed25 be3d 7023 91be fdd0 b1bc 6771 8cbd
00000230: 63d5 ac3d 9016 57bd 3daa d53c 985d 663c
00000240: 1bc6 123c 3b99 ac3c cee5 df3c c5f5 cebb
00000250: bfdf b73c 3a37 893b a53c 7d3c b432 b1bb
00000260: 8bef 753d 88f6 cbbd 7c62 5cbd 08db 0abc
00000270: ffa9 c73c 2263 bebc 2528 673c a6c7 9fbb
00000280: 3283 153c 417d 723d 2889 dfbd 31f3 943d
00000290: 6f0a b1bc 1aae 2f3d 5dde 8cbd 5d54 973c
000002a0: a310 f53d fee3 9b3c e1a7 7b3d bd9c 8abc
000002b0: f2be d83c 5fbc babc 0b3c 85bc d008 fa3b
000002c0: b02b 03bd 2eb2 533d 0d7a 113e fff7 08bd
000002d0: e152 913c ecf7 f8bd f51d 1bbd 9a77 703b
000002e0: 5a65 08bd 9a5f e0bd 9503 10bd 1699 573d
000002f0: 7331 773d e2b9 db3c b4af 183e d06f f1bc
00000300: ce04 a73c 2d87 1f3d fbc6 03bd 8464 10bd
00000310: b8a5 b9bd 5265 c0bc b2aa 2fbd 9802 d23c
00000320: 0775 cf3b 1167 843c beef db3d 80a8 9abd
00000330: 3bfe 6dbd ca4c 2e3d 16e8 f53b e19e ccbd
00000340: 2011 483d c0a2 b33d 4073 413d 11cc 543d
00000350: 74e7 32ba e2a2 9a3d 4d27 86bd c9a6 a2bc
00000360: 6b0f 013d 49a3 a8bc 2756 c5bc 44e1 75be
00000370: d7ce 603c 1cbf abbd ccb8 113d 77f6 e13c
00000380: ee3b 923d 85b0 febc 6bdd bebc 7d5a 293d
00000390: 55b2 8ebd 2072 7b3c 32db 4b3d 5928 afbd
000003a0: bc10 773d ba66 4ebd 233c 1cbd b7c1 e13c
000003b0: 920f a3bb aae9 c73c 734b dbbd 73af cf3d
000003c0: ea5f 483d 9dfb 58bd 670f 813d eed3 ce3a
000003d0: 02ad dcbc bb1c ae3d 5dc1 86bc 6bd1 4f3d
000003e0: 83da 9dbd 8c54 4b3d ba37 1bbd beae 0ebd
000003f0: 4894 2dbd 243f d43d 4555 d33c 6a9b 173c

actor.bias f4 [3]
0.058846414 -0.018558059 0.025056502
00000000: f008 713d 1207 98bc 4b43 cd3c

critic.weight f4 [1, 256]
-0.03087541 0.0058893356 -0.028500028 0.055181235 -0.04549582 -0.059393927 0.10607794 -0.048643645
0.041541163 -0.021197507 -0.027225344 0.025879553 -0.053471457 -0.039854184 -0.023853615 -0.061259776
-0.044923123 -0.012900405 -0.00069657713 -0.07074128 -0.022783676 -0.040404685 0.07931377 0.009007943
0.0068267714 0.007443947 0.03248521 0.052649952 -0.025112884 0.0358352 -0.013235751 0.054168183
0.06651525 0.007927831 -0.016041687 -0.045606337 -0.0733766 -0.027742308 -0.024134332 0.040643215
0.038304925 -0.009996121 -0.054669216 0.020213813 0.107081585 -0.072891615 -0.03478749 0.06084954
-0.06593793 -0.061678853 -0.029795576 0.060189705 0.038292106 -0.012023446 -0.025581589 -0.053225987
-0.03715456 -0.02249404 -0.030070039 -0.07237255 -0.025707992 -0.040957652 -0.049548484 0.05199653
0.044692233 -0.03230211 -0.020011349 -0.04622159 -0.018278306 0.04696567 -0.029031344 -0.009378424
-0.05628607 -0.036451887 -0.010667184 -0.07163248 -0.012688762 0.040417224 0.038934514 0.04786864
-0.049886517 0.070426084 0.051661223 0.038416 0.06443705 -0.034317933 -0.0859947 0.041329768
0.03791111 -0.047895595 -0.011268132 -0.021243252 0.024950566 -0.054119397 -0.03529195 -0.07002358
-0.05288294 0.022658918 0.052926697 -0.02377386 -0.06908596 -0.011663222 0.05394871 -0.069274865
-0.06647468 0.011956401 0.10905127 -0.014050376 0.060232155 0.037723564 -0.051722344 -0.05596956
-0.05101567 0.055998374 -0.029978085 0.036657322 0.08964595 0.07145752 -0.017961184 0.056885682
-0.063589096 0.026662417 -0.05447494 -0.07245156 -0.076745935 -0.024781486 -0.052240804 -0.0425594
0.011290727 -0.018957127 -0.044492178 0.0034880524 0.038436323 0.062622376 0.02707951 -0.06013218
-0.037227992 0.069195025 -0.058630485 -0.054015193 0.073889814 0.054595776 -0.010460051 -0.04872533
0.04078367 -0.027658258 0.037208166 -0.028769888 0.006563479 -0.050140113 -0.05336164 -0.06066845
-0.030654747 0.048907537 0.012402889 -0.029659059 0.13800268 0.023555866 0.037650883 -0.06571061
-0.06015871 0.055712502 -0.03838731 0.077306606 -0.04621163 -0.031001775 0.08768284 0.050778747
0.051802322 0.010779893 -0.047898155 -0.004157012 -0.059442855 -0.023798551 0.0038188668 0.0046449113
-0.048940197 -0.052579273 -0.004963297 -0.06916159 -0.06722134 -0.03171945 0.030581173 -0.016421197
0.043157496 -0.062063944 0.06253648 0.009496363 0.031282473 -0.051086273 -0.009501039 0.04780367
0.050760467 0.08609006 -0.023826413 -0.041969087 -0.037555583 -0.08003055 -0.0651325 0.043180298
0.02264787 -0.0074988008 -0.024614051 -0.061554573 -0.047945257 -0.025360571 -0.024676567 -0.06003488
-0.039523467 -0.051343575 -0.021993246 -0.0539482 0.00600168 -0.06851556 -0.10311419 -0.063275516
-0.026119154 -0.03862576 -0.029003764 0.026230637 -0.0392718 -0.0275861 0.023903623 -0.05169551
-0.05038021 -0.01916511 0.013359328 0.03901375 -0.06695992 -0.033426277 -0.05743992 -0.059528355
-0.01522329 -0.020633118 0.06255074 0.12342101 0.026462227 0.017575467 -0.020002715 0.11397995
0.05394175 -0.060308836 0.037285805 0.062253173 0.030358542 0.06971317 -0.07079699 -0.036917925
-0.062953785 -0.050842594 -0.048895665 0.01974939 -0.071868725 -0.048561208 -0.0370537 0.03943903
00000000: 6eee fcbc 54fb c03b e478 e9bc b805 623d
00000010: d359 3abd 0c47 73bd 643f d93d 8f3e 47bd
00000020: 1127 2a3d 65a6 adbc af07 dfbc 5b01 d43c
00000030: e304 5bbd 243e 23bd a868 c3bc 88eb 7abd
00000040: 4f01 38bd 385c 53bc 809a 36ba cee0 90bd
00000050: d5a4 babc 627f 25bd 426f a23d 0d96 133c
00000060: 1cb3 df3b 5aec f33b 360f 053d 7aa7 573d
00000070: 89b9 cdbc eec7 123d c3da 58bc 75df 5d3d
00000080: 2639 883d bce3 013c db69 83bc b6cd 3abd
00000090: 7946 96bd d643 e3bc 5db5 c5bc 8079 263d
000000a0: a0e5 1c3d c5c6 23bc d4ec 5fbd 7097 a53c
000000b0: 974d db3d 3348 95bd 547d 0ebd 5e3d 793d
000000c0: 770a 87bd f7a2 7cbd da15 f4bc 7b89 763d
000000d0: 2fd8 1c3d fdfd 44bc 7b90 d1bc 7e03 5abd
000000e0: 612f 18bd 6c45 b8bc 7155 f6bc 0f38 94bd
000000f0: 9199 d2bc 36c3 27bd 5af3 4abd 50fa 543d
00000100: 340f 373d 384f 04bd d7ee a3bc da52 3dbd
00000110: 63bc 95bc 135f 403d 24d3 edbc f6a7 19bc
00000120: 398c 66bd 934e 15bd 6ac5 2ebc 0db4 92bd
00000130: 86e4 4fbc 888c 253d cc79 1f3d e811 443d
00000140: ce55 4cbd 8d3b 903d b89a 533d 185a 1d3d
00000150: 92f7 833d f690 0cbd fd1d b0bd 6749 293d
00000160: ae48 1b3d 2c2e 44bd f99d 38bc 5406 aebc
00000170: 2165 cc3c 4dac 5dbd 4b8e 10bd 8668 8fbd
00000180: c89b 58bd 329f b93c aac9 583d 66c1 c2bc
00000190: f17c 8dbd 1917 3fbc 53f9 5c3d fbdf 8dbd
000001a0: e123 88bd c8e4 433c 4656 df3d 8c33 66bc
000001b0: feb5 763d 0684 1a3d cfda 53bd 5640 65bd
000001c0: cff5 50bd 8d5e 653d 9a94 f5bc fd25 163d
000001d0: 4c98 b73d 5258 923d 5523 93bc f600 693d
000001e0: 003b 82bd 246b da3c 1d21 5fbd 7c61 94bd
000001f0: f92c 9dbd 8b02 cbbc 74fa 55bd c452 2ebd
00000200: befc 383c fa4b 9bbc 6e3d 36bd cf97 643b
00000210: 686f 1d3d 2940 803d d9d5 dd3c 294d 76bd
00000220: 617c 18bd 1fb6 8d3d 8526 70bd 093f 5dbd
00000230: 8b53 973d d29f 5f3d a260 2bbc 3694 47bd
00000240: c70c 273d 9293 e2bc 9767 183d d4ae ebbc
00000250: 7412 d73b b85f 4dbd bc91 5abd 7b7f 78bd
00000260: aa1f fbbc 4553 483d 7d35 4b3c 8ef7 f2bc
00000270: 9350 0d3e 3bf8 c03c d037 1a3d 4993 86bd
00000280: fb68 76bd cb32 643d 033c 1dbd ed52 9e3d
00000290: 6848 3dbd 6ff7 fdbc 1093 b33d 60fd 4f3d
000002a0: ac2e 543d 269e 303c db30 44bd 8b37 88bb
000002b0: 5a7a 73bd 2ef5 c2bc f445 7a3b 5734 983b
000002c0: 8475 48bd 5d5d 57bd 27a3 a2bb 97a4 8dbd
000002d0: 58ab 89bd 41ec 01bd 5e85 fa3c bf85 86bc
000002e0: eac5 303d c336 7ebd 2013 803d a296 1b3c
000002f0: 0d22 003d d73f 51bd 3faa 1bbc c8cd 433d
00000300: 35ea 4f3d fc4f b03d 9c2f c3bc c7e7 2bbd
00000310: e2d3 19bd 0fe7 a3bd 3064 85bd d3dd 303d
00000320: 0788 b93c 80b8 f5bb 68a3 c9bc a620 7cbd
00000330: 3f62 44bd f9c0 cfbc 8326 cabc 22e7 75bd
00000340: 5ce3 21bd a44d 52bd 2e2b b4bc caf8 5cbd
00000350: bea9 c43b e351 8cbd 882d d3bd 9896 81bd
00000360: d6f7 d5bc 0b36 1ebd 4d99 edbc a2e1 d63c
00000370: 78db 20bd 3ffc e1bc 88d1 c33c acbe 53bd
00000380: 7b5b 4ebd 2600 9dbc 15e1 5a3c e2cc 1f3d
00000390: 4822 89bd fee9 08bd 1f46 6bbd 01d4 73bd
000003a0: 1b6b 79bc c906 a9bc 9a1a 803d 28c4 fc3d
000003b0: 50c7 d83c 6dfa 8f3c bcdc a3bc 526e e93d
000003c0: 06f2 5c3d 6606 77bd 00b9 183d 2ffd 7e3d
000003d0: 7ab2 f83c c7c5 8e3d 03fe 90bd 4037 17bd
000003e0: eaed 80bd 5340 50bd d246 48bd 79c9 a13c
000003f0: e92f 93bd 1ee8 46bd 9fc5 17bd d28a 213d
