Experimenten/Experiment1Snake/PPO/ppo_snake_500.pth (torch, 280840 bytes, 7 tensors)

shared.0.weight f4 [256, 9]
000000 13 33 29 3e b8 6c 1a bd eb b8 e1 3e c3 e8 65 be
       0.1652339 -0.03770134 0.44086394 -0.22452073
000010 10 e9 36 3c a0 43 6c 3d bb 15 ea 3e 74 71 74 3e
       0.011163965 0.05768168 0.45719704 0.23871404
000020 91 8c 83 be e1 13 a3 be a2 a5 47 3e 07 f1 77 bc
       -0.2569318 -0.31851104 0.19496778 -0.015133149
000030 54 c3 63 be 12 49 52 bd 77 a4 ac be 9b 16 a9 3d
       -0.2224248 -0.051339217 -0.33719227 0.08256265
000040 bb 29 5a be 4e 6b 84 be 2f 03 e8 3d f2 2a a0 3a
       -0.21304981 -0.25863117 0.11328732 0.001221983
000050 f8 87 67 3e ee aa 52 bd 72 18 83 3d d4 aa ae be
       0.22610462 -0.051432543 0.06401147 -0.34114707
000060 0d 4d 53 be 50 13 bf 3d f5 01 a1 be 26 3c dd bd
       -0.20634861 0.093298554 -0.31446806 -0.10802488
000070 0e 7a 17 be a3 de 55 3e 99 c2 bc be 81 31 94 be
       -0.14792654 0.2088571 -0.36867216 -0.28944018
000080 87 04 8a 3e 10 5b 62 3e 0e 63 83 3e 2d df 91 bb
       0.2695658 0.2210505 0.2566151 -0.0044516535
000090 45 3e 71 be 22 49 2b be cd 9e b2 be bf 29 85 be
       -0.2355891 -0.16727117 -0.3488678 -0.26008412
0000a0 99 20 ae be 90 92 6e be a9 f1 7a be 9d 19 94 be
       -0.34009245 -0.23298097 -0.24506249 -0.2892579
0000b0 e9 0c d3 bc b1 c8 cc 3e 28 f7 6a 3e 8d fe b8 3e
       -0.025762992 0.39996865 0.22945845 0.36131707
0000c0 c6 52 7a be 84 5e 85 3a b4 11 ef bc d8 9b 3f be
       -0.24445638 0.0010175263 -0.029183246 -0.18711793
0000d0 ac 1d af 3e 9d 51 be 3d fa ab a8 bd 83 24 63 be
       0.34202325 0.0929291 -0.08235927 -0.22181897
0000e0 31 b3 d3 3e 3d fc d0 3e 2a d0 ec bc 12 f2 c4 3c
       0.4134765 0.40817443 -0.028907854 0.02404121
0000f0 87 23 2f 3c 72 1c 32 3e 61 b3 cd 3e 90 3e 38 3e
       0.010689623 0.17393664 0.40175918 0.17992616
000100 3e 7d cf bc 36 c3 0e be 1d 3d bb 3d b7 64 39 bc
       -0.025328275 -0.13941655 0.09142516 -0.011315516
000110 7b c6 33 bc 2c 07 b9 bd 4f e1 d2 3d 3f 79 8e be
       -0.010972614 -0.09034571 0.102968805 -0.27826878
000120 70 be 51 be b9 d4 32 be 1f 2b 8e 3e e2 fa 82 bd
       -0.20482802 -0.1746396 0.27767274 -0.06395508
000130 6f 81 5d be 3a 76 b0 3b e2 bd 9e bc 86 c7 20 3d
       -0.21631406 0.0053851875 -0.019377653 0.03925278
000140 c0 49 38 be 53 82 91 3d 16 ef e8 bd 66 0e e3 3e
       -0.17996883 0.071049355 -0.11373727 0.44346923
000150 58 a3 bf 3d e4 bd 4c 3e 5c 99 00 be fd 1c 88 be
       0.09357327 0.19994313 -0.12558502 -0.26584616
000160 2f ae 6d 3e 6f c2 b2 be 12 eb 71 be 7c e8 45 3d
       0.23210977 -0.34913966 -0.23624828 0.048317418
000170 76 7d a4 3e 98 61 a3 be db ee 90 be 52 47 4c bd
       0.3212697 -0.31910396 -0.28307232 -0.049872704
000180 ca 7e 7c bd 77 62 35 3d 4f 88 a4 3e 7a 81 7a 3e
       -0.061644353 0.044283357 0.32135245 0.24463454
000190 48 13 30 be 8d 14 29 be 91 a2 34 be 9e 02 ed bd
       -0.17194855 -0.16511746 -0.17640139 -0.11572765
0001a0 f0 fd 02 bd 8f 4c d9 bd 1b b0 e9 bd ee 23 d1 3e
       -0.031980455 -0.106103055 -0.114105426 0.40847725
0001b0 52 e3 86 bc 40 9d 9b 3e ba b4 16 3d 8b bd 4d 3e
       -0.016465817 0.3039341 0.036793448 0.20091836
0001c0 e8 77 10 3e e1 fe 2c bd fe fe 4c 3e de 64 d0 bd
       0.1410824 -0.04223526 0.20019147 -0.10175489
0001d0 8a bc cb 3e 41 05 bb 3e 2b df 03 bb d3 7b 5e be
       0.3979228 0.36527446 -0.0020122032 -0.21726923
0001e0 39 44 8a 3d 15 3b a5 3e e5 d7 25 3e cc 73 83 3c
       0.06751294 0.3227164 0.16195638 0.016046427
0001f0 6f a1 fa bd 24 43 77 be f6 6b c6 be 6a 98 a5 be
       -0.12237822 -0.24146706 -0.38754243 -0.32342845
000200 d0 51 c3 3e 72 71 99 be 42 bd ab 3d e3 67 4a be
       0.38148355 -0.29969364 0.083857074 -0.19766192
000210 4c 94 28 be fc d2 37 3e c4 3c d7 3c 4e dd 8d be
       -0.16462821 0.17951578 0.026274092 -0.27707905
000220 90 d2 90 be 3d de 98 3e 04 1b 6f 3e aa 5d 30 3e
       -0.28285646 0.29857054 0.2335015 0.1722323
000230 28 36 3d be 0e f1 8a 3e 5e 53 75 bd 10 93 77 3e
       -0.1847769 0.27137035 -0.05989396 0.24177194
000240 a0 05 54 bd 97 68 ed bd 1b f3 ae 3e b6 4c d1 3d
       -0.051763177 -0.115922146 0.3416985 0.102197096
000250 c0 f6 25 3c 73 31 ec bd 0c 51 a3 3e dc 08 1d be
       0.010129631 -0.11532869 0.3189777 -0.15335411
000260 0c fb 39 be 40 7b 07 3e eb 20 6a 3e 86 e5 b7 3e
       -0.18162173 0.1323061 0.2286412 0.359173
000270 cc 9d 2d 3d e6 d4 ce 3d 15 5e 1f 3e d0 27 c6 3e
       0.042386815 0.10099201 0.15563233 0.3870225
000280 fb e4 ad 3e cb cc 8d 3e 59 7b 43 3e 2d cc c9 3e
       0.3396376 0.27695307 0.19090022 0.39413586
000290 11 0c 0b 3e 47 fc d5 bd d8 fb 96 3e 37 48 28 be
       0.13578822 -0.10448509 0.29489017 -0.16433798
0002a0 53 de ce 3e 71 96 82 bd 46 25 19 bd 50 67 a0 bd
       0.40403995 -0.06376351 -0.037389062 -0.07832205
0002b0 7b fb 6b 3e c5 56 8d 3e 26 ad d2 3e e0 e3 80 3e
       0.23045151 0.27605262 0.41147727 0.25173855
0002c0 6a 6c b0 3d a2 2f 81 bd b0 ae 85 3e 3b c6 5c 3d
       0.08614428 -0.06307913 0.26109838 0.053899985
0002d0 49 bf a7 3c 6e eb e2 bd f2 64 6c 3d 2d a6 87 be
       0.020476954 -0.11080061 0.057713456 -0.2649397
0002e0 bb a0 41 be 1e e1 4a bd b8 e0 a5 be 82 4c 92 3e
       -0.1890897 -0.049531095 -0.3239801 0.28573996
0002f0 52 c5 94 be 36 09 be 3d 45 a7 19 3e c6 72 98 3e
       -0.29056793 0.092791006 0.15005215 0.29775065
000300 9c db 71 3d ee 33 49 be 6b 46 2b bd 03 36 8c bd
       0.059047326 -0.19648716 -0.041815203 -0.068462394
000310 e3 f3 13 be 27 a5 a7 3c 7f 27 cc bd dd c5 fb 3d
       -0.14448504 0.020464493 -0.09968471 0.12293599
000320 64 3e af 3e 8b c1 c6 3e 25 f2 18 be 93 4e 2a be
       0.34227288 0.38819537 -0.14936121 -0.16631536
000330 be a1 98 3e f5 22 92 3e f8 67 80 3d 74 06 26 be
       0.298109 0.28542295 0.062698305 -0.16213399
000340 62 dc b3 bd d5 83 46 3e 0e 3d 79 3d 78 69 59 3d
       -0.08782269 0.19386227 0.060849242 0.0530791
000350 0a ab aa 3e 39 ce c8 3c 3e f1 7b be 09 8e 67 be
       0.33333617 0.024512397 -0.24603745 -0.22612776
000360 12 ad 9a be ad fc 1b 3e 68 15 4d 3c e8 29 90 3d
       -0.30210167 0.15233107 0.012517311 0.07039243
000370 61 80 39 bd 7e eb 8a be 8b b4 97 3e 9d 64 86 3e
       -0.045288447 -0.2713279 0.2962993 0.26248637
000380 0d ba 26 be a3 d1 4f bd fb 53 1c 3e e8 41 ec 3e
       -0.1628191 -0.050737035 0.15266411 0.46144032
000390 a2 ad 0e 3a e2 06 7b 3e 3f 32 a4 bd 0d b3 8a 3e
       0.00054427434 0.24514344 -0.08017396 0.2708973
0003a0 da fa 8b 3e 28 7b 8c be a7 f5 f2 bd 1c 12 ae 3d
       0.27339822 -0.2743771 -0.11863261 0.08499548
0003b0 8b 81 ab 3d 8c 74 94 be 16 f2 64 3e 7f 6c 52 bb
       0.08374318 -0.28995168 0.22357973 -0.0032108126
0003c0 1c 74 8c 3e ca f1 45 3d 8e 72 6b 3e fd e1 9e be
       0.27432334 0.04832629 0.22992918 -0.3103179
0003d0 04 cf 39 be 0d ff 2a 3e 9a 52 d6 be 1b 58 7c 3e
       -0.18145376 0.16698857 -0.41859895 0.24642985
0003e0 50 c2 ba 3d 63 b4 55 be f3 01 9b 3e 8f bd 93 be
       0.091190934 -0.20869593 0.30274925 -0.2885556
0003f0 50 5e ff bd 38 ea 84 3e 36 e5 b5 3c bc e1 9c 3e
       -0.124691606 0.25959945 0.022204023 0.30640972

shared.0.bias f4 [256]
000000 3d a7 3e 3e c8 4a 60 be 8a 36 85 be cc e7 18 be
       0.18618484 -0.21903527 -0.26018173 -0.14932173
000010 e2 06 c4 bd ff 44 74 3e f3 30 98 3e 5a a0 ab 3e
       -0.09571625 0.23854445 0.29724845 0.33520776
000020 a0 b9 27 3e c4 53 ac be fd 14 fb 3c 96 02 86 3e
       0.16379404 -0.33657658 0.030649656 0.26173848
000030 8b 72 fa 3e 59 14 e8 3d ce 0a 9c be 82 cc ad be
       0.48915514 0.11332006 -0.30476993 -0.3394509
000040 26 64 38 3e 19 cd 14 bc 41 e2 7b 3e 2e 95 ac 3e
       0.18006954 -0.009082102 0.24598028 0.33707565
000050 63 d0 c3 be 0e 10 bf 3e f6 7c 5b 3d 85 70 9f be
       -0.38244924 0.37316936 0.05358597 -0.31140533
000060 13 2d 28 be f0 e7 b5 3e 54 7c 41 bc 31 f2 1f be
       -0.16423444 0.35528517 -0.011809427 -0.15619732
000070 da 8c e6 3e e4 ef 7f be 0b 42 86 be b0 42 a5 be
       0.45029336 -0.24993855 -0.26222262 -0.3227744
000080 88 f2 a4 3e df 84 98 3e ed 24 c2 3e cf 90 14 be
       0.32216287 0.29788873 0.37918797 -0.14508365
000090 9f 39 d2 3e ba d6 b7 3d 21 62 9d be f7 8f 22 be
       0.41059586 0.08976503 -0.3073893 -0.1587523
0000a0 c2 56 a6 3e 75 2b e5 bd 07 34 e1 3e 3a 92 c7 bd
       0.32488066 -0.111899294 0.43985006 -0.097446874
0000b0 89 aa 11 3f 47 4a 36 3e 52 31 27 be 7b 91 68 bd
       0.5690084 0.17801772 -0.16327408 -0.056779366
0000c0 e9 c0 2b 3d a4 2b 4f be 75 20 1d 3e e1 85 f1 bd
       0.04193202 -0.20231491 0.15344413 -0.117931135
0000d0 6c 07 4e 3e 0a ab 6b 3e 70 8f e1 3c 24 5f 99 be
       0.20120019 0.23014465 0.027534217 -0.299554
0000e0 1a fe e8 3e b4 df fc 3d 15 c9 2e 3d 42 f0 aa 3e
       0.45506364 0.123473555 0.042672236 0.33386427
0000f0 e5 3e 0d 3f 56 40 8e bd b4 e2 ee 3e 69 ba 8b 3e
       0.55174094 -0.06945865 0.46657336 0.27290657
000100 d5 43 07 be e3 8d 9f 3d e9 a5 be 3e 87 4e c8 3e
       -0.1320947 0.077907346 0.37235954 0.39122412
000110 6f 01 da 3e 9e b0 4c 3e 2b e6 f6 3e 93 34 ed 3e
       0.4257922 0.19989249 0.4822248 0.46329173
000120 21 8b 8b 3e 57 11 d1 be 10 a7 93 bd 4a b8 c9 3e
       0.27254584 -0.40833542 -0.07209599 0.39398414
000130 d9 8c 9c 3d 3d 56 90 be 32 6f 66 3e 97 59 ae bd
       0.07644052 -0.28190795 0.22503355 -0.08513182
000140 24 d2 94 be 03 88 f2 3e a5 1c 77 3e 86 ef 29 be
       -0.29066575 0.47369394 0.24132021 -0.16595277
000150 f4 5e 88 3e 93 d5 c5 3e 17 92 20 bc d3 1d cc 3d
       0.26634943 0.38639507 -0.0098004555 0.09966626
000160 f5 5c f0 bd 15 22 6e bd 83 8d 02 3e 4f 48 f8 bd
       -0.1173648 -0.058137972 0.12749295 -0.12123167
000170 c5 8a 6f 3e e0 db f3 3d 1a f7 c8 3e b5 c5 51 3e
       0.2339278 0.11907172 0.39251024 0.20485575
000180 62 22 a4 3e be 74 0e be 45 14 82 be d3 26 0b bc
       0.32057482 -0.13911721 -0.2540609 -0.008493143
000190 44 ed 0e 3e d2 2c 38 be ed aa b0 3e ed 26 b3 3e
       0.13957697 -0.17985848 0.34505406 0.34990636
0001a0 cf 99 e1 3e 72 3a 8e bd 0e e3 da 3e d1 64 a3 be
       0.4406266 -0.06944741 0.42751354 -0.31912854
0001b0 b0 b6 3e bd 34 57 c8 be dd 72 b5 be 08 2b 8a 3c
       -0.046560943 -0.3912903 -0.35439196 0.016866222
0001c0 91 a2 64 be 42 0f 06 be d1 c2 84 3d 7a 60 c2 3e
       -0.22327639 -0.13091758 0.06482471 0.3796423
0001d0 02 9a f6 3e cb 3c 8d be 38 88 26 3d ec 2a bc be
       0.48164374 -0.27585444 0.040657252 -0.36751497
0001e0 e1 42 c6 be 84 55 85 be 70 37 5b 3e a2 94 a5 3e
       -0.387229 -0.26041806 0.21407866 0.3233996
0001f0 12 95 6b be ed 8d 9d be e2 6a 9a be c4 99 dd 3e
       -0.23006085 -0.30772343 -0.3015967 0.43281376
000200 5f d2 9c 3e bb ea 52 be 92 06 b1 3e 76 21 3b 3d
       0.3062925 -0.20597355 0.34575325 0.045686208
000210 3e 39 14 3e 9b 0b 8c be 37 0a 6a 3e 32 b4 97 be
       0.14474961 -0.27352604 0.22855459 -0.29629666
000220 d7 a9 40 be 47 ce 14 be 6a 1f 15 3e 77 f4 48 3e
       -0.18814789 -0.14531814 0.14562765 0.19624506
000230 76 d9 b2 ba 54 14 b3 bb b4 d9 c8 bd 19 af b4 3e
       -0.0013645131 -0.00546507 -0.098071486 0.3528984
000240 bd 62 da 3e 0d e4 d1 be b1 af 99 3e 77 49 17 3e
       0.42653456 -0.409943 0.30016854 0.14774118
000250 f2 66 7e 3e d8 f4 ab 3e 21 29 83 3d a4 3c b8 3e
       0.24843958 0.33585238 0.06404329 0.35983765
000260 fc d1 ee bd c0 bd 99 be 20 e8 1a 3e 8b 73 a9 3e
       -0.11661145 -0.3002758 0.15127611 0.33095965
000270 13 0f 87 3e 26 df 49 3e ff 25 83 3d 21 db af 3e
       0.26378688 0.1971403 0.064037316 0.3434687
000280 f4 6c cf be 24 85 5e be eb b4 89 3e 92 2c f0 3e
       -0.40512812 -0.21730477 0.26895842 0.46909004
000290 d2 a4 0d 3e 5b 19 58 be 2c f5 e1 3e 05 cc aa 3d
       0.13832405 -0.21103422 0.44132364 0.08339695
0002a0 ae a8 b6 3e ae b1 47 3e e4 b3 b6 3e 1e 41 6a 3e
       0.35675567 0.19501373 0.3568412 0.22876403
0002b0 63 b9 80 be 00 34 ba be 6c 99 95 3e 49 e5 d5 3e
       -0.2514144 -0.36367798 0.29218614 0.41776493
0002c0 a1 d4 6e 3e 9b 32 56 bd 09 93 51 3e f7 fd 0f be
       0.23323299 -0.052294355 0.20466246 -0.14061724
0002d0 92 74 c2 3d 59 fc 12 be 5b 06 67 be 11 e1 15 3f
       0.0949489 -0.14354075 -0.22561018 0.5854655
0002e0 21 28 5e bd 7c 31 bf be 25 14 17 3d 42 e3 15 3e
       -0.05423749 -0.3734244 0.036884446 0.14637473
0002f0 c7 f0 08 be f2 62 0b be 53 5e 00 be b4 bc 80 3e
       -0.133731 -0.13611963 -0.12535982 0.2514397
000300 c6 7c 59 be 99 6b b6 be 10 80 e7 3e 78 62 e5 3e
       -0.21239004 -0.35628965 0.4521489 0.44801688
000310 28 c0 a6 3e b6 87 c1 bc 0c 24 5a 3e ce f6 f8 3e
       0.3256848 -0.023624282 0.21302813 0.48625797
000320 83 04 07 be d8 71 b8 be 58 ae a7 bd eb 2a 7e be
       -0.13185315 -0.36024356 -0.0818755 -0.2482106
000330 6b f3 51 be 92 95 85 be f7 b2 46 be db ba a0 be
       -0.20503013 -0.26090676 -0.19404207 -0.3139256
000340 cd 47 a9 be 3f 15 67 3e 6d 40 7c be b4 f6 86 3e
       -0.33062592 0.22566698 -0.24633951 0.26360095
000350 9e 92 e6 3c 7a 3a 88 3d 05 ca 08 3f c1 13 f1 bd
       0.028146084 0.066517785 0.5343326 -0.11771346
000360 aa 0c 2e 3e 26 89 8c 3d 42 2d cf be ee 99 c8 be
       0.16997018 0.068620965 -0.40464216 -0.3917994
000370 a1 f4 f4 3e eb f8 cf 3d dc 52 44 be bb 32 eb 3e
       0.47842887 0.10154899 -0.19172233 0.45937142
000380 61 e9 86 3e df 9e 27 be 96 6d 02 be 8d 1a b2 be
       0.2634993 -0.16369198 -0.12737116 -0.34785882
000390 da 66 a6 be 0d e5 e7 3d 0f 5f 00 3f ae 88 82 3e
       -0.32500345 0.11322985 0.5014505 0.25494903
0003a0 bf 4e 0f 3f b1 a8 b0 be 60 3f 5a be 86 a5 b6 3e
       0.5597953 -0.345037 -0.21313238 0.3567316
0003b0 e7 74 e0 be 47 09 cc bd d7 7a 4c 3c bb 87 08 3f
       -0.4383919 -0.09962707 0.012480459 0.5333211
0003c0 7d 7c 89 be d7 34 e5 3d df 0e a2 3d 52 e8 24 3e
       -0.2685279 0.11191719 0.07912993 0.16104248
0003d0 4a d9 8c bd d2 9d 40 3e 3a c6 3e 3e de b0 63 be
       -0.06877382 0.18810204 0.18630305 -0.22235438
0003e0 8a 6d 84 3e d4 6e 1f 3e f8 40 68 3d c7 6a ed 3e
       0.25864822 0.15569621 0.056702584 0.46370527
0003f0 16 ff d4 be 9a 5b 82 3e cd b6 86 3c 77 37 b0 3e
       -0.41600865 0.2546051 0.016444588 0.34417316

shared.2.weight f4 [256, 256]
000000 d7 d9 e1 3c 77 8e 1d bd 4a ad 24 bc 83 e7 3e bd
       0.027569694 -0.038465943 -0.010051081 -0.046607506
000010 72 66 8f 3c 57 bd 23 3e eb 63 b3 3d be b4 9a 3d
       0.017504904 0.15990196 0.08759292 0.07554005
000020 0d 28 2f bd 83 4f 10 3c fa 12 dd 3b 72 6c 79 bb
       -0.042762805 0.00880802 0.006746647 -0.0038059023
000030 fb b4 b1 3d b0 1e 58 bc cc ad 88 bd aa 5d 0d bd
       0.086770974 -0.01319091 -0.06673774 -0.034513153
000040 22 a1 88 3d 76 39 11 3d 66 22 ee bc 66 9c 86 bc
       0.06671359 0.03545519 -0.029069137 -0.016431998
000050 41 fd b7 bd c1 d2 bb 3d 20 73 93 3d fd d7 18 bd
       -0.08983851 0.091710575 0.07199693 -0.037315357
000060 29 75 19 bd ae 07 ac 3a 10 e2 73 bd 7b 24 91 bd
       -0.03746525 0.0013124847 -0.059541762 -0.07087036
000070 86 91 83 3d 87 45 00 bd 28 4d 2e bd 6e f0 a8 bd
       0.06424241 -0.031316306 -0.04255405 -0.08248983
000080 d0 d3 2e bd db 1c 62 3c 63 c4 2c bd 9a 32 6d 3d
       -0.04268247 0.013800825 -0.042179476 0.057909586
000090 0d 60 2e bd 37 51 0a 3d 5b 0e 94 3b 83 cb d4 ba
       -0.04257207 0.03376886 0.004518313 -0.0016234968
0000a0 6c 14 f1 3c 6b 40 da bb db df 06 3d 0f 4e e6 bc
       0.029428683 -0.0066605113 0.03292833 -0.028113393
0000b0 56 6f 44 3e c1 06 04 bd d1 65 47 bd 09 48 42 3d
       0.19183096 -0.032233004 -0.048681084 0.04743198
0000c0 15 e4 36 3d 66 00 0d 3d f2 38 a9 bc 34 22 6b 3c
       0.04465111 0.034424208 -0.020657036 0.014351416
0000d0 84 15 3c bb b8 96 a8 3d 41 15 84 bc a6 97 b4 bd
       -0.0028699348 0.08231872 -0.016123416 -0.08817987
0000e0 18 a8 94 3d 64 80 86 3d 29 eb 3d 3c 1a 70 44 3d
       0.07258624 0.06567457 0.011591711 0.04795847
0000f0 a2 fd de 3d be 26 b4 bb aa bb 6f 3d 16 bb 39 3d
       0.1088822 -0.0054977825 0.05852858 0.045344435
000100 6e 78 e8 bb a4 a9 b5 bb b1 ac 02 3d 6d 04 90 3d
       -0.0070944345 -0.0055439044 0.031902973 0.07032094
000110 15 c5 d5 3d 2a 28 d0 3b 22 7e f7 3d b1 44 79 3d
       0.10437981 0.006352444 0.12084605 0.060856525
000120 c1 ac d7 bb 73 72 24 bc 8f eb 32 3d 09 e3 81 3b
       -0.006581873 -0.010037052 0.043681677 0.0039638323
000130 ef 58 23 bc 2f 0d 46 bd 4a 79 bc 3c 9e 40 08 3b
       -0.009969934 -0.048352417 0.023007054 0.0020790468
000140 0c be 67 bd 17 16 9d 3d 7c 58 4b 3d ee 36 4c bd
       -0.056577727 0.07670229 0.049644932 -0.049857073
000150 a9 53 85 3d b2 87 97 3d 75 b4 43 3c 3f a7 3a 3d
       0.065100975 0.07398929 0.01194488 0.045569655
000160 9a 27 3e 3d bf ad 4b bc 8f 0f d3 bc b7 f6 ab 3c
       0.046424486 -0.012431561 -0.025764255 0.020991666
000170 77 89 1a 3c 45 f9 bc 3c 9c 23 9b 3d a6 b3 61 bc
       0.009432188 0.02306808 0.07575151 -0.013775742
000180 6f b3 30 3d 96 3c f2 bb 3b 3e 14 bd 0f 1a 39 3c
       0.04313987 -0.0073924763 -0.03619216 0.011297717
000190 8d e1 6a bc 0d 33 47 3d 3e b6 28 bc 17 a3 91 bc
       -0.014336002 0.04863267 -0.010297356 -0.017777963
0001a0 18 5a 5d 3d 29 83 8a bd 33 00 10 3a 3b 1d 80 bd
       0.054041 -0.06763298 0.0005493194 -0.06255575
0001b0 ee a7 21 3d d6 af 37 bd 9b 02 0c be 70 1f 34 3d
       0.03946679 -0.044845425 -0.13672869 0.043975294
0001c0 2b 07 48 3c 47 8e ab 3c c7 9e c2 3d 69 d4 a9 bc
       0.01220874 0.020941867 0.095029406 -0.020731168
0001d0 d3 06 e8 3d b2 5f e5 3a 64 ab 81 3c 36 fa 68 3d
       0.113294266 0.0017499833 0.015828796 0.056879245
0001e0 61 ee 69 bd 93 6f fa bc 85 b1 cc 3d 1c 90 0d 3e
       -0.0571121 -0.03057078 0.09994797 0.13824505
0001f0 e7 cf e2 3c d5 03 78 bd 21 8d bc bc 14 79 bb 3d
       0.027687026 -0.06055053 -0.023016514 0.09153953
000200 87 53 3f 3d 52 22 34 3d 1e 18 c6 3d d9 b1 66 3b
       0.046710517 0.043978043 0.09672569 0.003520122
000210 ee 4d 1e 3d e3 3b 59 3c a2 ae b6 bc c6 bd 2f 3d
       0.03864854 0.013258907 -0.022300068 0.04290559
000220 de 91 e4 bc be a8 6b 3d 60 c3 0b 3d cc d9 24 3d
       -0.027901586 0.057533972 0.03412187 0.04024677
000230 ac be 3f 3d 14 fb b4 bb 2a 23 10 bd 2a df cb bc
       0.0468127 -0.005523095 -0.035189785 -0.024886686
000240 37 e9 04 3c d3 24 6a bd 76 2c 6a 3d 4b a1 02 3d
       0.008112243 -0.057164025 0.057171308 0.031892102
000250 c7 29 51 3d 20 b5 96 3d bf 7d c6 bc 3b 30 56 3d
       0.051065233 0.073587656 -0.024229882 0.05229209
000260 7c 37 a7 ba 60 33 62 bd f5 52 85 3c 3d ea 5d 3c
       -0.0012757624 -0.055224776 0.016274909 0.013544616
000270 31 81 d3 3d 18 1e 2f ba 5e 33 86 bc e5 76 96 bc
       0.10327376 -0.00066802045 -0.016381916 -0.01836724
000280 a0 42 91 bd 9f 90 c7 bc 34 67 b5 bb 9c bf 0a 3e
       -0.07092786 -0.024360953 -0.0055359844 0.13549656
000290 ba 1a 86 3d 11 f8 62 bd 9c 0c ac bb 4e 18 27 bd
       0.065480664 -0.055412356 -0.0052505266 -0.040794663
0002a0 f5 17 3e 3d 22 d6 19 3d 2f 06 8f bc ec b9 c9 bb
       0.046409566 0.03755773 -0.017459003 -0.006156197
0002b0 f8 53 fa bc 0e bf 7f bd b5 3b 89 3a 1c 02 47 3e
       -0.030557618 -0.062438063 0.0010470065 0.19434398
0002c0 94 00 65 3c de 05 53 3c ee 4d aa 3d 78 b6 61 bd
       0.013977189 0.012879817 0.08315645 -0.055105656
0002d0 38 96 3a 3d d5 67 99 3b 3d 48 0b 3e 52 6d 9f 3d
       0.045553416 0.004681567 0.13601775 0.07784523
0002e0 ec 8c 0b bd a1 07 0f bd f2 81 46 bb c1 45 07 bd
       -0.03406994 -0.034919385 -0.0030289856 -0.033025507
0002f0 25 46 4e 3c 68 b6 88 bc 91 1c 9b 3c d5 f9 98 3d
       0.012589966 -0.01668854 0.01893452 0.07469527
000300 5d 38 24 bd 2a b1 6c bd 14 57 8c 3c 99 e4 89 bc
       -0.040092815 -0.057786144 0.017131366 -0.016832637
000310 13 3d 89 3d d5 71 6a 3c f0 cc 62 3c fb cf 7c 3d
       0.06701102 0.014309366 0.013842806 0.061721783
000320 14 65 4b bc 8d d6 28 bd 83 b6 5b bd 6e 7b 6e bb
       -0.012414236 -0.041220237 -0.053640854 -0.0036389488
000330 62 68 7b bd 68 2a 4c 3d 97 af f4 3c 40 c6 c0 3b
       -0.061378844 0.04984513 0.029868884 0.0058830082
000340 5b a9 9c bd c2 39 31 3d d5 0a 4f bd 99 b0 52 3d
       -0.076494895 0.043267973 -0.05054744 0.051437948
000350 54 36 55 3d 10 a4 6a bd 12 16 ad 3c 69 a3 99 bc
       0.052053764 -0.05728537 0.021128688 -0.018754678
000360 63 02 20 3d a2 65 06 3d b3 4d de 3c 5e 80 a8 bd
       0.039064776 0.03281177 0.02713666 -0.08227609
000370 98 12 9c 3d 67 10 4e 3d cd 7f 0e 3d 05 5e f8 3c
       0.07620734 0.05030861 0.03478985 0.03031827
000380 32 1d b2 3c ba 81 e1 3c 8b 3f a6 bb f7 0c 06 3d
       0.021742437 0.027527679 -0.005073493 0.032727208
000390 9f da 9a bd bd 9d 9d bc b3 a5 ed 3d 66 86 c7 bc
       -0.0756123 -0.019240255 0.1160387 -0.024356078
0003a0 50 79 f0 3d 5c 8a 36 3c f7 d2 b3 bd f1 64 a4 3d
       0.117418885 0.011141386 -0.08780473 0.080270655
0003b0 0c 7b 80 bd 82 ab 1d bd ed ff ec 3c 70 74 1b 3c
       -0.06273469 -0.03849364 0.028930629 0.00948821
0003c0 0c 78 3a bd 57 52 06 3d aa 35 28 3d 43 aa b3 bc
       -0.045524642 0.03279337 0.041066803 -0.021931773
0003d0 e2 f1 ab 3d ae a8 9b 3c 5d 03 ca 3b d1 ee 80 bc
       0.08395745 0.019001331 0.0061649517 -0.015738877
0003e0 d0 39 61 3d ed a3 34 3d 61 f6 2d bd aa 76 4e 3c
       0.054986775 0.044101644 -0.042471293 0.012601534
0003f0 32 5a 82 bd 59 8b 72 bd e1 33 67 3d 6f 5e 87 3d
       -0.0636486 -0.059214924 0.05644596 0.06609809

shared.2.bias f4 [256]
000000 ab 96 08 3e b3 32 ec 3c 9b e3 26 3e 83 2c 5c 3c
       0.13338725 0.028832769 0.16297762 0.013438347
000010 2e 73 05 3e 75 5b 0a 3e e4 2b 82 be c4 f8 1e 3e
       0.13032219 0.1351145 -0.2542411 0.15524584
000020 2f 22 e5 3c 15 2f 80 3e 7d f0 46 3e 15 45 8f 3c
       0.027970402 0.2503592 0.19427676 0.017488996
000030 34 1f 33 3e 87 62 75 3e be e0 2c 3e bc 9d 62 3e
       0.17492372 0.23963366 0.16882607 0.22130483
000040 f5 31 6b 3e 4a 75 81 3e 98 1f b7 bc b8 7a f2 3d
       0.22968276 0.25284797 -0.022353932 0.11839813
000050 f5 9b 87 3e ce ff 65 3e dd e6 a3 bc 2d 61 42 bd
       0.26486173 0.22460863 -0.020007545 -0.047455955
000060 d5 be d3 3c 24 4d 05 3c 27 e0 fa bc 4a 37 b4 bd
       0.025847832 0.008136068 -0.030624462 -0.08799608
000070 73 d9 51 3e 64 f7 d9 bc 3f 4b 17 3e f3 ac 0a 3d
       0.20493107 -0.026607223 0.14774798 0.033856343
000080 15 30 22 be 0e 40 5b bd b0 07 58 3e f7 be 23 3e
       -0.15838654 -0.053527884 0.21096683 0.15990816
000090 c1 4c 59 3e 3a 98 6a 3e 90 14 7f 3e b4 bb aa bc
       0.21220686 0.22909632 0.24910188 -0.020841457
0000a0 74 c3 b1 bc 34 81 43 3e 71 b4 38 3e a2 9d 99 ba
       -0.021699645 0.19092256 0.18037583 -0.0011719952
0000b0 f4 6b 21 be b3 e2 fe 3d 9e b4 32 3e 80 38 a5 bd
       -0.15763837 0.12445583 0.17451712 -0.08067417
0000c0 73 fd 2b 3e a1 4b 0b 3e df 0b 67 3e 8b 9d b6 bd
       0.16795902 0.13603069 0.22563122 -0.08916768
0000d0 68 95 90 3a 6f c5 06 3e d2 58 2a 3e ac 65 64 3e
       0.0011030855 0.13161252 0.16635445 0.2230441
0000e0 eb 3e 81 3e 25 a7 39 3e b7 b5 4d 3e 52 c3 71 3e
       0.25243315 0.18130167 0.2008885 0.23609665
0000f0 15 de 00 3e e4 8d 59 3e cf 94 59 3e c8 e5 e6 bc
       0.12584718 0.21245533 0.21248172 -0.02818574
000100 f7 cc a8 bd 4d 2d 2a 3e aa bb 41 3e eb 32 60 3e
       -0.08242219 0.16618843 0.18919244 0.21894424
000110 e3 31 6c 3e 99 28 e7 3c 98 8f 37 3e d7 16 5d 3e
       0.23065905 0.0282176 0.1792587 0.21590744
000120 5c 4f 6a 3e 20 dd 56 3e 09 f5 5e 3e 8b ce 1d 3e
       0.22881836 0.2098279 0.21773161 0.15410821
000130 65 8c 2e 3e c1 ec 9d bc a3 03 88 bc 1a 47 21 bd
       0.17045744 -0.019277932 -0.016603297 -0.03937445
000140 e0 f3 3b 3e be 24 c9 bd 83 fd 09 bd 55 0f 74 bc
       0.1835475 -0.09821461 -0.033689033 -0.014896234
000150 92 37 14 be 8f 0f 42 3e dc d3 79 3e 79 19 28 bc
       -0.14474323 0.18951248 0.24397224 -0.010259979
000160 29 96 14 3d 47 09 24 3e 9d 9e 32 3e f0 77 58 3e
       0.036276016 0.16019164 0.17443319 0.21139503
000170 e5 fe 44 bc 29 44 4b 3e e6 86 50 3e be 39 07 3e
       -0.012023662 0.1985022 0.2036396 0.1320562
000180 ea 7d 48 3e b6 63 9c 3b 0e ce 20 bd 15 13 00 3e
       0.19579282 0.0047726287 -0.03925901 0.12507279
000190 ab 05 00 3e e5 df 2c 3e 3e 73 6e be bf d8 16 3e
       0.12502162 0.16882284 -0.23286149 0.1473112
0001a0 c1 7a 46 3e 1d 57 8e 3b 1a 09 4c be 73 19 55 3e
       0.19382764 0.004343881 -0.19925347 0.2081049
0001b0 d1 68 d6 bd f1 50 1d bc 9e 83 6d 3e 70 de 1a 3e
       -0.10469211 -0.0096018175 0.23194739 0.15123916
0001c0 b4 7f 05 3e 33 9b b1 3c 9e 49 29 3e fd b5 e2 3c
       0.13036996 0.02168045 0.16531989 0.02767467
0001d0 15 3e 24 be d0 be 68 3d 1d 46 0d 3e 5d 91 0e be
       -0.16039307 0.056822598 0.13796277 -0.13922639
0001e0 95 48 53 3e 75 a5 3a 3d 84 4d 30 3e 43 fd 1c 3e
       0.20633157 0.04556795 0.1721707 0.15330987
0001f0 29 de 48 3e 10 c5 1d 3e 76 14 54 3e e3 51 2e 3e
       0.19615997 0.15407205 0.2071093 0.17023425
000200 bc 64 32 bc de 84 81 3e c5 25 5b 3e 5a 11 13 bd
       -0.010888275 0.25296682 0.21401127 -0.03590522
000210 28 37 47 bd 2c 53 b9 bd 82 47 a9 bc a0 79 29 3e
       -0.048636585 -0.09049067 -0.02066398 0.16550303
000220 cf 27 45 3e b4 39 0b 3d 80 46 37 3e b9 17 5d 3e
       0.19253467 0.033990577 0.17897987 0.2159108
000230 c0 d2 e9 bd 43 ac 61 bd 6d 8f 53 3e 0a c5 0f 3e
       -0.114171505 -0.055095922 0.20660181 0.14040008
000240 75 67 57 bd d6 16 80 3e 43 60 53 bd af f5 51 3e
       -0.0525889 0.25017422 -0.051605474 0.20503877
000250 eb ff 99 bd b4 5b 18 3e af f5 75 3e 82 b0 2a 3e
       -0.075195156 0.14878732 0.24019502 0.16668895
000260 3c f9 47 3e a9 f7 33 3d 14 bf ea 3b 74 0a 11 3e
       0.19528669 0.04393736 0.0071638916 0.14164144
000270 2d e9 51 be 17 df 47 3c 6c b8 3c bc cd cd 24 3e
       -0.20499106 0.012199185 -0.011518579 0.16094132
000280 4a 2e 61 3e 10 9e 10 bd 90 98 0d 3e 62 e2 81 bd
       0.21990314 -0.03530699 0.13827729 -0.06342007
000290 6b 83 3a 3e d9 50 83 3e fc 84 13 be 5c f1 8b 3a
       0.18214194 0.2564762 -0.14406198 0.0010676789
0002a0 42 db f2 bd f7 8d 15 3d 17 30 80 3e 70 9f 27 bd
       -0.11858226 0.03651234 0.2503669 -0.040923536
0002b0 d5 3a 31 3e 57 40 73 3e 84 f1 f7 3c fa 74 78 bd
       0.17307599 0.23755012 0.03026653 -0.060658433
0002c0 2a 4e 14 3e 7d 59 27 3e d5 8c 16 3e c3 5c 31 3e
       0.14482942 0.16342731 0.1470216 0.17320542
0002d0 4a f1 77 3e 79 bf 40 3e 78 4e 6b bb 70 24 35 3e
       0.24213138 0.18823041 -0.0035904925 0.17689681
0002e0 05 6d 0c bd 45 1c 22 3e 84 20 fe bc 80 b4 75 bc
       -0.034283657 0.15831096 -0.031021364 -0.014996648
0002f0 f5 46 ce bc 38 8e 36 3e 0a 12 25 3e cc a9 3d bd
       -0.02518032 0.1782769 0.16120163 -0.04630451
000300 0f 65 d4 bc 28 01 19 bc 84 65 36 3e 96 99 6d 3e
       -0.025927095 -0.009338655 0.17812163 0.2320312
000310 3d 4f 66 3e 6f 09 48 3e 48 fd 3d 3e a6 e2 19 3d
       0.22491165 0.19534849 0.1855365 0.037569664
000320 bd 70 1a bd bf 10 20 3e 61 02 3e 3e a0 7d 5d 3e
       -0.03770517 0.15631388 0.18555595 0.21629953
000330 d8 22 61 3e 0e 27 6f 3e 99 72 32 3e ba 73 11 3e
       0.21985948 0.23354742 0.17426528 0.14204302
000340 3a e0 7e 3e bd e5 2c 3e 14 e6 6b 3e cf cd 26 3e
       0.24890223 0.16884513 0.23036987 0.16289447
000350 6a 39 3a 3d 19 ba 00 3e 82 80 74 3e ed 09 61 3e
       0.04546491 0.1257099 0.23877147 0.21976443
000360 a7 e2 36 bd be 4b 68 3e 36 3c 3b 3e 32 f6 88 3d
       -0.044649746 0.22685143 0.18284687 0.06687583
000370 8e 3c 2d 3e 58 a2 81 3e 02 42 5d 3d 61 6c 44 3e
       0.16917631 0.2531917 0.054018028 0.19181968
000380 ba d6 35 3e 01 05 48 3e e4 e2 5b bd b1 51 1b 3d
       0.17757693 0.19533159 -0.053683177 0.037919704
000390 c1 42 55 3e af 6e 1e 3e d6 ea 10 3e e5 6b 25 3e
       0.20826246 0.1547191 0.14152083 0.1615444
0003a0 15 62 34 3e 94 98 78 3e 02 e8 32 bd 9b 2d 10 be
       0.1761554 0.24276954 -0.04367829 -0.14079897
0003b0 51 54 9d 3c cc 36 97 3c a4 e1 18 3e 96 b3 5e be
       0.019205244 0.018458746 0.14929825 -0.21748194
0003c0 fe e1 70 3a b0 93 2a 3e a0 33 34 be 11 86 09 be
       0.0009188949 0.16657901 -0.17597818 -0.13430049
0003d0 ef 08 27 3c f6 e6 0c be 21 c2 53 3e de 48 2c 3e
       0.010195001 -0.1375998 0.20679523 0.16824672
0003e0 81 4b 0a 3e 32 be 02 3e 40 01 1a 3e db d2 d4 bd
       0.13505365 0.12767866 0.1503954 -0.1039178
0003f0 2b 83 39 3e 08 d4 29 3e 42 37 84 3e c9 68 fd bc
       0.18116443 0.1658479 0.25823408 -0.030933755

actor.weight f4 [3, 256]
000000 fb af 10 3d b6 fc c8 bc 0c 17 12 3c b9 1c 10 bd
       0.035324078 -0.024534564 0.008916628 -0.035183642
000010 61 6a 73 bd c0 3c 4d bd 40 82 7a bd 79 da ba bc
       -0.059427623 -0.050106764 -0.061159372 -0.022809254
000020 69 6d 0c 3d 0a 62 12 3d c5 b4 38 3d 10 2f 89 bc
       0.03428403 0.03573803 0.04509427 -0.016746074
000030 f6 a7 11 3d 79 2d 45 bc fd e8 9b 3c 61 48 f6 3b
       0.03556057 -0.012034767 0.019031996 0.0075159525
000040 b1 2b 90 3d db 7d 88 3c 48 2e 22 3c cf 83 90 bc
       0.070395835 0.016661575 0.00989873 -0.017640976
000050 b6 a2 09 3d 5e b2 bb 3c ae 1f b5 bd ad c8 d3 bc
       0.03360244 0.0229122 -0.08843933 -0.025852526
000060 99 17 b5 bb ba 6b 4c 3b 91 29 e4 3c 1b 46 ab bd
       -0.0055264947 0.003119214 0.027851852 -0.08362981
000070 24 f7 2f bd b8 c6 3b 3c 75 eb 6e bd ee ee af bb
       -0.0429603 0.011460952 -0.058330018 -0.005369059
000080 a8 74 43 3c a6 60 92 bc 1c 06 7b 3d 3b 4d ae bb
       0.0119296685 -0.017868351 0.061285123 -0.005319265
000090 5d 66 87 3d 6a 20 d8 bc 10 03 51 bd 6f 6e 91 bc
       0.06611321 -0.026382644 -0.05102831 -0.017752854
0000a0 ec 95 27 3d 91 ff 1a 3d 46 48 ad 3c 9a 24 22 3d
       0.04091446 0.037841383 0.021152627 0.039585687
0000b0 3a ba 8d ba 12 89 cb bc 31 0e bd 3c 93 d8 9b 3d
       -0.0010812946 -0.024845634 0.023078056 0.07609668
0000c0 4e 54 18 bc 55 98 b8 3b 6f 9c 72 bd 35 b4 d4 bc
       -0.009297444 0.005633394 -0.059231218 -0.025964836
0000d0 80 08 02 3d 01 0a a1 3d e4 fd 68 3d 95 58 5b 3c
       0.031746387 0.07863236 0.056882754 0.013387819
0000e0 af eb 5d bd 9c e8 e0 3c 14 44 a4 3c 25 7d cf 3c
       -0.054179844 0.027454667 0.020051993 0.025328228
0000f0 71 74 0b 3d 65 c5 6d 3d 3a 78 43 bd 09 48 79 bd
       0.034046594 0.05804958 -0.04772208 -0.060859714
000100 62 d1 7b bd 26 cb 05 bd 28 a1 f2 bb a8 3e dc 3c
       -0.06147898 -0.03266444 -0.007404465 0.026885346
000110 0d 1a f6 3b 4a c1 a7 bb c6 3d 2e 3d 33 25 4d 3d
       0.0075104297 -0.0051194774 0.04253938 0.050084304
000120 a9 6a 89 bd 86 4e 99 bb 5a b9 3d bc 9b 1f e5 3b
       -0.06709797 -0.00467855 -0.011579836 0.006992293
000130 80 6b 86 bb c8 85 4c 3b 61 77 b9 3c e5 cd 5c 3d
       -0.0041021705 0.003120767 0.022639932 0.053907294
000140 2b e5 59 bd 47 e3 6c 3c 9a 70 04 bd b2 22 38 3d
       -0.053197067 0.014458484 -0.032333948 0.044954963
000150 42 80 2f 3c 67 00 57 3d 54 c0 81 3d 10 45 4c 3d
       0.010711731 0.052490618 0.06335512 0.04987055
000160 25 ea b1 bc fb 21 1d 3d ba 63 8c bb 7d 6e a7 3c
       -0.021718094 0.038362484 -0.0042843493 0.020438427
000170 de 88 c3 3c a0 09 8b b9 f3 c6 b6 bc 12 23 08 bd
       0.023868974 -0.00026519317 -0.022311663 -0.03323657
000180 d2 bd ba bc e4 a7 8f bc 3a 08 5c 3d 1d e3 6c bc
       -0.022795592 -0.017536111 0.053718783 -0.014458445
000190 56 32 60 3d e8 15 b9 3c 18 f4 c7 bc 99 6d 96 3c
       0.054735504 0.022593454 -0.024408385 0.018362807
0001a0 10 33 20 bd 76 18 e8 3c 6d 29 11 bd 57 0c 50 bd
       -0.039111197 0.028331976 -0.035439897 -0.05079302
0001b0 7b 83 9b bd c3 9b ca bb be 25 70 3d 9a 80 08 bd
       -0.07593437 -0.006183119 0.058629744 -0.03332577
0001c0 cc 6e 27 3d 89 a6 4b 3d 10 e0 23 3d 81 f9 d7 bc
       0.04087715 0.049719367 0.040008605 -0.02636409
0001d0 f3 a5 92 3d 3e c8 b3 3c 4d 94 a9 bc be 57 bc 3b
       0.071605586 0.021946069 -0.020700598 0.0057477644
0001e0 e3 f5 f7 3c 3a de c2 3c 10 a5 97 3b c6 c9 0c bd
       0.030268615 0.023787607 0.0046278313 -0.034372114
0001f0 3d 1b 00 3d 27 83 fd bc b8 a4 2f bd 85 dd 76 3d
       0.031275976 -0.030946327 -0.042881697 0.06026985
000200 e0 2f 8e 3c 8c 07 81 3c 97 bf ca bc 40 38 2e 3d
       0.017356813 0.015750669 -0.02474956 0.042534113
000210 10 99 5b bd 1b e9 1d 3d 25 24 09 3d 58 51 ab bc
       -0.05361277 0.038552385 0.033481736 -0.020912811
000220 56 e5 54 3d 86 5d 18 bd ea 34 24 bd 8e 60 89 bd
       0.051976524 -0.037198566 -0.040089525 -0.067078695
000230 03 14 8b 3d 90 16 57 bd d2 be 03 3c 1e 5a 52 bb
       0.06790926 -0.05251175 0.008041101 -0.003209717
000240 1b c6 12 3c eb 6f d0 3c ce e5 df 3c 4c 46 04 3c
       0.008958365 0.025443992 0.02733126 0.008073401
000250 45 9c e4 3c df 3c 31 bc 48 45 02 3c 2f db 9f bc
       0.027906546 -0.010817735 0.007951088 -0.019513695
000260 32 c5 11 3d 9d cd 2e bd 7c 62 5c bd c7 62 a8 ba
       0.03558845 -0.042676557 -0.05380486 -0.0012846821
000270 38 07 9b 3c 64 4c ba bc 25 28 67 3c 04 f2 86 3c
       0.01892434 -0.022741504 0.014108692 0.016472824
000280 83 43 00 bb 41 7d 72 3d eb fa 83 bd 8c 02 1a 3d
       -0.001957149 0.059201483 -0.06444343 0.037600085
000290 e6 94 d2 bc ea fe d9 3c 21 38 78 bd 5d 54 97 3c
       -0.025705766 0.02661081 -0.060600404 0.018472845
0002a0 c9 c9 c8 3d fe e3 9b 3c d0 96 1f 3d f2 63 99 bc
       0.098041125 0.019029614 0.038962185 -0.018724415
0002b0 52 08 01 3d 3b 39 b3 bc 0b 3c 85 bc d0 08 fa 3b
       0.031502075 -0.021877876 -0.016263982 0.007630445
0002c0 6a 25 08 bd 20 5e 45 3d bc a7 7e 3d 69 6e 0f bd
       -0.033238806 0.048185468 0.062171683 -0.035017405
0002d0 af bf 65 3c c9 17 8d bd f5 1d 1b bd 82 45 64 3a
       0.014022752 -0.06889302 -0.037870366 0.0008707867
0002e0 5a 65 08 bd 56 32 94 bd f0 84 47 3c 16 99 57 3d
       -0.03329978 -0.07236163 0.012177691 0.05263623
0002f0 73 31 77 3d 1d a0 e0 bb 37 ea 87 3d bd cc d9 bc
       0.060349893 -0.0068550245 0.0663647 -0.026586885
000300 ce 04 a7 3c 57 a4 3a 3c 88 e2 1b bd 35 82 0e bd
       0.020388033 0.011391721 -0.038057834 -0.034792144
000310 9b 09 93 bd d9 89 4e bc 44 9a 14 bd 98 02 d2 3c
       -0.071795665 -0.012606108 -0.03627993 0.025636002
000320 d5 7a ca 3b 6c 90 22 3d 73 ca 87 3d 83 cf 61 bd
       0.0061791935 0.039688513 0.06630411 -0.05512954
000330 1d 4b 2d bd 5d 56 81 3c 25 aa 45 3c 15 25 8e bd
       -0.04230796 0.015788252 0.012064491 -0.069406666
000340 6a c5 c4 3c cb 14 2a 3d 7b 34 a2 3c 92 73 33 3d
       0.024019916 0.041523736 0.019800415 0.04381139
000350 74 e7 32 ba e6 56 51 3d 26 73 45 bd ef 3b d1 bc
       -0.00068246503 0.051108263 -0.048205517 -0.025541274
000360 6b 0f 01 3d 9e 8e 74 bc 12 22 30 39 45 e0 1d bd
       0.031508844 -0.014926581 0.0001679736 -0.03854396
000370 29 c2 97 3c 6e 6f 83 bd a4 88 26 bc 4b 83 49 3c
       0.0185252 -0.06417738 -0.010164414 0.012299369
000380 cd 69 0f 3d 16 ea 56 bd 6b dd be bc 7d 5a 29 3d
       0.03501301 -0.052469335 -0.02329894 0.041346062
000390 ae bc f3 bc 8b 29 d6 3a ca a2 26 3d f0 f3 76 bd
       -0.029753055 0.0016339285 0.04068259 -0.06029123
0003a0 df 09 1a 3d e4 08 30 bd a1 ac e3 bc e7 e2 a4 3c
       0.03760707 -0.04297723 -0.027792277 0.020127727
0003b0 92 0f a3 bb aa e9 c7 3c 0f 58 85 bd 8a 0d a7 3d
       -0.0049762214 0.024403412 -0.065109365 0.08156879
0003c0 ea 5f 48 3d 1e 9f 4f bd 71 aa 53 3d 92 c3 4c 3c
       0.048919596 -0.050688855 0.051676217 0.0124977995
0003d0 02 ad dc bc 5e 90 89 3d ef c8 a6 bc bf 07 06 3d
       -0.026937965 0.06716989 -0.020359484 0.03272223
0003e0 3e 70 1f bd 29 0e 17 3d fd 72 4a bd 4a a2 aa 3b
       -0.038925402 0.03687874 -0.049426068 0.0052073346
0003f0 9e 86 08 bd 76 8b 79 3d 33 f5 32 3c 6a 9b 17 3c
       -0.033331506 0.060924016 0.010922718 0.009253362

actor.bias f4 [3]
000000 5a 1d 79 3d 9e b5 a4 bc 6b 3c 88 3c
       0.060819007 -0.020106133 0.016630372

critic.weight f4 [1, 256]
000000 06 76 89 bd 54 fb c0 3b 56 be 8c bd b8 05 62 3d
       -0.06711964 0.0058893356 -0.06872241 0.055181235
000010 65 3a ca bd bf c2 d0 bd bb 64 f7 3d ff 7e ca bd
       -0.09874419 -0.10193395 0.1207976 -0.09887504
000020 11 27 2a 3d 69 63 82 bd 3b d4 87 bd 5b 01 d4 3c
       0.041541163 -0.06366617 -0.066322766 0.025879553
000030 fa 7b b3 bd 9c a2 ad bd 06 df 6c bd b7 90 d1 bd
       -0.08763881 -0.08478281 -0.05782988 -0.1023268
000040 25 ff bb bd 37 0a 44 bd 80 9a 36 ba 3c 8f f5 bd
       -0.09179524 -0.047861304 -0.00069657713 -0.119902104
000050 4e 30 82 bd fd a2 9e bd bd c0 9d 3d 01 cb 11 3c
       -0.0635687 -0.07745931 0.077027775 0.008898498
000060 1c b3 df 3b 65 03 8d 3c 14 cb 11 3d ee b4 9f 3d
       0.0068267714 0.017213533 0.03559406 0.077981815
000070 1f f0 89 bd ee c7 12 3d d6 11 87 bd 75 df 5d 3d
       -0.067352526 0.0358352 -0.06595199 0.054168183
000080 b3 c2 ca 3d bc e3 01 3c 0f 71 6e bd e2 42 be bd
       0.09900417 0.007927831 -0.05821329 -0.09290101
000090 43 5c eb bd 99 23 aa bd a3 18 95 bd 80 79 26 3d
       -0.11492207 -0.08307571 -0.0728009 0.040643215
0000a0 a0 e5 1c 3d 04 09 59 bd d8 88 c4 bd 70 97 a5 3c
       0.038304925 -0.052987114 -0.095964134 0.020213813
0000b0 46 f3 04 3e a2 85 e6 bd 30 ed 9a bd fb 9b b0 3d
       0.12983426 -0.11255957 -0.07564771 0.08623501
0000c0 2b 93 e3 bd 72 83 c5 bd 43 d0 9b bd 8c 05 9f 3d
       -0.111120544 -0.09644212 -0.07608082 0.0776473
0000d0 2f d8 1c 3d 0d c1 7e bd 09 5c a2 bd 48 ec b7 bd
       0.038292106 -0.062195826 -0.079277106 -0.08980614
0000e0 f9 02 b3 bd 5a 44 89 bd 0f a6 95 bd 20 91 e1 bd
       -0.08740801 -0.0670249 -0.07307064 -0.110140085
0000f0 21 ee 8b bd a3 79 b2 bd b2 bf bf bd 50 fa 54 3d
       -0.06832529 -0.087146066 -0.09362735 0.05199653
000100 36 b0 8e 3d e2 e1 aa bd f0 30 76 bd d5 15 c0 bd
       0.06967203 -0.08343865 -0.060105264 -0.09379164
000110 53 2c 5e bd 13 5f 40 3d cb a7 86 bd 4b a4 48 bd
       -0.05424149 0.04696567 -0.06574973 -0.048984807
000120 81 0f e2 bd b7 51 a0 bd 26 0d 6a bd 21 7d f6 bd
       -0.110381134 -0.07828086 -0.057141446 -0.12035585
000130 54 91 8a bd 88 8c 25 3d cc 79 1f 3d 29 e0 8b 3d
       -0.067660004 0.040417224 0.038934514 0.068298645
000140 7a fe c1 bd 28 20 a8 3d b8 9a 53 3d b4 b4 1e 3d
       -0.09472366 0.08209258 0.051661223 0.03874655
000150 0e e7 95 3d b0 74 b2 bd 04 ec 08 be 67 49 29 3d
       0.07319461 -0.087136626 -0.13371283 0.041329768
000160 e7 8a 18 3d 86 ec d5 bd d4 8c 46 bd af 0b 7a bd
       0.037241843 -0.10445504 -0.048474148 -0.0610463
000170 21 65 cc 3c 45 76 d4 bd af a4 a5 bd 57 89 e4 bd
       0.024950566 -0.103741206 -0.080880515 -0.11159008
000180 87 b1 bf bd 32 9f b9 3c 57 3b 5c 3d b3 46 8a bd
       -0.093600325 0.022658918 0.05376753 -0.06751766
000190 68 6c d8 bd 95 0d 90 bd cf f7 b1 3d 9d 09 f5 bd
       -0.10567552 -0.070338406 0.08689844 -0.11964724
0001a0 f5 20 fc bd c8 e4 43 3c fc c7 00 3e b1 d9 67 bd
       -0.123109736 0.011956401 0.12576288 -0.05660409
0001b0 4e 46 a5 3d 06 84 1a 3d ab 8d bc bd 77 b0 bc bd
       0.0807005 0.037723564 -0.092067085 -0.092133455
0001c0 3b ee bc bd 8d 5e 65 3d 5a c4 9a bd fd 25 16 3d
       -0.09225126 0.055998374 -0.07556982 0.036657322
0001d0 d8 dd bb 3d 7a 9b 93 3d c7 3e 74 bd 6f 02 b5 3d
       0.09173173 0.07207389 -0.05963018 0.08838355
0001e0 25 07 e6 bd 8d e3 69 3d 80 8f c7 bd 90 6d e3 bd
       -0.112318315 0.057101775 -0.09744167 -0.11104882
0001f0 71 f0 fc bd bd 52 91 bd 87 08 cf bd 5a 4d a8 bd
       -0.12350548 -0.07095859 -0.10109048 -0.08217879
000200 5d 7e 29 3d 4b ef 82 bd fd 7e ba bd cf 97 64 3b
       0.041380275 -0.06393298 -0.09106252 0.0034880524
000210 68 6f 1d 3d 0f 7a bf 3d c8 39 f3 3c b1 bd cc bd
       0.038436323 0.09349453 0.029690638 -0.09997118
000220 cd 9d 92 bd 4c e4 09 3c 55 d8 dd bd d9 54 dc bd
       -0.07159004 0.008416247 -0.10832278 -0.10758371
000230 57 bc a7 3d d2 9f 5f 3d 97 63 8a bd f4 2e b6 bd
       0.0819022 0.054595776 -0.067572765 -0.08895674
000240 c7 0c 27 3d ba 0e 79 bd 97 67 18 3d 57 0a 82 bd
       0.04078367 -0.06080506 0.037208166 -0.063496284
000250 66 d0 08 3c d9 f2 cc bd 1b 73 dc bd fa c1 d9 bd
       0.008350467 -0.10007257 -0.10764142 -0.10632701
000260 53 dc 8b bd b6 1c ff 3c 7d 35 4b 3c 74 2f 8d bd
       -0.06829133 0.03114162 0.012402889 -0.068938166
000270 46 5a 13 3e 07 62 d6 3c d0 37 1a 3d 3c a1 da bd
       0.14389905 0.02616979 0.037650883 -0.10675284
000280 54 07 c8 bd cb 32 64 3d 95 32 9e bd 7b 04 d4 3d
       -0.09767023 0.055712502 -0.077244915 0.10352417
000290 d9 4a de bd 72 ed ae bd 5b 82 fa 3d 60 fd 4f 3d
       -0.1085412 -0.08541383 0.122318946 0.050778747
0002a0 af f3 a1 3d 26 9e 30 3c 3a f3 bc bd 2f f4 88 3a
       0.07907807 0.010779893 -0.09226079 0.0010448749
0002b0 b6 5d ed bd 90 5e 60 bd f4 45 7a 3b 57 34 98 3b
       -0.115901396 -0.05477768 0.0038188668 0.0046449113
0002c0 45 97 c9 bd af a6 b1 bd aa 3a 25 bd 7b 7c dd bd
       -0.098433055 -0.086743705 -0.04033915 -0.108147584
0002d0 1c e3 e4 bd 85 07 8a bd 5e 85 fa 3c da 34 5f bd
       -0.1117613 -0.067397155 0.030581173 -0.054493763
0002e0 ea c5 30 3d bb 95 d4 bd cb dc 22 3d a2 96 1b 3c
       0.043157496 -0.10380121 0.039761346 0.009496363
0002f0 0d 22 00 3d 4c 0b b8 bd db 7d 35 bd 92 a3 50 3d
       0.031282473 -0.0898653 -0.04430948 0.050937243
000300 35 ea 4f 3d 2b 49 a6 3d a6 44 8a bd b5 b2 a7 bd
       0.050760467 0.081194244 -0.06751375 -0.081883825
000310 5e 58 b3 bd 78 8c fc bd 73 92 da bd d3 dd 30 3d
       -0.08757089 -0.1233148 -0.10672464 0.043180298
000320 9d 18 d2 3c 84 ee 4c bd 83 80 7e bd 99 b1 d3 bd
       0.025646502 -0.050032154 -0.062134277 -0.103366084
000330 f2 9a b5 bd 09 93 93 bd 05 46 77 bd 78 bc da bd
       -0.08867444 -0.07205779 -0.06036951 -0.10680479
000340 89 5c a5 bd 48 0c ca bd e6 f8 7a bd b8 b0 bd bd
       -0.0807429 -0.09865624 -0.061272524 -0.09262222
000350 be a9 c4 3b 55 f7 d5 bd 9c d0 1a be 87 be e4 bd
       0.00600168 -0.104475655 -0.1511864 -0.11169153
000360 d6 f7 d5 bc d2 ac ac bd 98 6b 80 bd 6b b2 15 3d
       -0.026119154 -0.084314 -0.06270522 0.036547106
000370 a2 fa 93 bd 0e 12 8c bd e0 5e 31 3d 46 7a c4 bd
       -0.07225539 -0.06839381 0.04330337 -0.09593634
000380 72 6b b5 bd 69 41 97 bd 15 e1 5a 3c e2 cc 1f 3d
       -0.08858384 -0.07385523 0.013359328 0.03901375
000390 08 d0 f2 bd e2 6a 9b bd 0a cc c6 bd 40 e9 d2 bd
       -0.11856085 -0.07588746 -0.09706886 -0.10298395
0003a0 12 21 65 bd ed e6 86 bd 8b 80 be 3d d9 1a 0c 3e
       -0.05593974 -0.06587014 0.093018614 0.13682117
0003b0 50 c7 d8 3c 6d fa 8f 3c 3a 69 78 bd 3c 8b 02 3e
       0.026462227 0.017575467 -0.060647227 0.12748426
0003c0 06 f2 5c 3d 55 bb e4 bd 10 93 94 3d 85 3f 85 3d
       0.05394175 -0.11168543 0.072546124 0.06506256
0003d0 7a b2 f8 3c 8c fc cf 3d 1d 4b e5 bd d9 6d a2 bd
       0.030358542 0.10155591 -0.11195967 -0.07931108
0003e0 b1 d2 e4 bd 1f e8 bb bd f0 f5 c0 bd 60 61 a5 3d
       -0.11172999 -0.09175133 -0.09421909 0.080752134
0003f0 b2 07 e1 bd 2a f1 af bd 58 b6 9f bd d2 8a 21 3d
       -0.10987796 -0.0859092 -0.07798451 0.03943903
