Experimenten/Experiment1Snake/PPO/ppo_snake_9900.pth (torch, 280852 bytes, 7 tensors)

shared.0.weight f4 [256, 9]
00000000: 5489 f83d 6687 91bd 3d5a 9b3e d2d6 a2be
00000010: 3d8d 77bc 6477 fdbb 8614 163f 243d 023f
00000020: f55f 43bd 93ed f0be 9cbc 893e 1e39 173e
00000030: 4693 ebbe aafb 5fbc a429 93be 7ebb b43e
00000040: c9f3 19be 3c27 11be 56de eabc 5f60 5a3e
00000050: 06c2 dd3e 3dd0 b0be b652 203d 158a f5bd
00000060: 875f d43b b324 973e 4918 06bf 7cfd a7be
00000070: 5755 26be 6728 ea3d 51cd c8be 7624 4bbe
00000080: b4a1 683e 32dc 833e 1a09 b83e 5b15 8c3e
00000090: 4f26 7abe 568a 15be 2265 a2be b4ea 88be
000000a0: af7a 9fbe 3ce7 1cbe 1a7a 09be e367 8abd
000000b0: 0b28 413e 49a7 bc3e 5138 6c3e 63ee 983e
000000c0: d049 bdbe 2fb2 8f3c 60d3 d139 453b a0bd
000000d0: 5115 de3e 901c 0a3e 8fd7 9ebe 70ca b3be
000000e0: 741b 923e 363b ae3e 2241 74bc 2f74 433c
000000f0: 85d2 243e 8138 7a3e 7fb5 143f 3321 573e
00000100: e088 a13d f3d9 943c 4226 0a3e 3da7 17bc
00000110: 5cca 6c3b d737 16bf 9218 963e 00a7 19bf
00000120: 990e 13bf 2b78 82be b6c0 cc3e 5cc5 85bc
00000130: 22b2 00bd 9bcf 8c3c 2d7b 063e e043 ab3e
00000140: 9a5a 47bf 7c98 2c3d cf09 373e b572 133f
00000150: a5fd 88be 10a5 483d 6b97 86bd 2e4a f5bd
00000160: 7716 b83e 2c2f 58bf acaf b0be ae95 743e
00000170: 53bd 4e3e 922e 06bf f33e 13be 624d 1ebc
00000180: d254 c33d 431f b23e c842 583f 04fd 063e
00000190: 7195 0cbe 971e b5be 1ad3 5ebe b453 54bc
000001a0: 7890 2fbe abd9 aabd a4e5 3c3d d9db 8a3f
000001b0: bfc0 a23d 84df 9e3e 8ebe c3bc a0a8 963e
000001c0: 5155 063d 4094 d6bb 5e89 aa3e 8faf d3be
000001d0: 454d 253f 39ee cb3e dab9 44be c454 dfbe
000001e0: 01ab a1bd 0cb4 3c3e c661 5f3e 2f9d 293e
000001f0: 8801 703d e0f5 d8bd 6ea8 c7be 3fed aebe
00000200: c2e2 243f b987 dcbe bdc9 f83d 3beb 1cbe
00000210: 478a 30bd f835 fc3d e513 8ebe b7c7 f6be
00000220: 35fa cebe ad77 8b3e d566 e23d 5df9 92bc
00000230: 67fa 67bd dfcf f03e d8fa 0a3d f78f ca3e
00000240: 1b0f dabe 5172 99bd 37b5 e33e 5514 feba
00000250: 4bbd 0ebd 5015 2bbe 9239 373f f0e5 743e
00000260: 9bda 64be f1b2 f13d e424 cf3c c1d3 1a3e
00000270: 5a9d 083e bc99 5b3c e2b7 143d d06e 1a3f
00000280: 5147 1f3f 8efb 073f 45e3 223e 5714 043f
00000290: 7c8b ffbc c084 fdbe d79d 623e 4ee1 4fbd
000002a0: d3f1 173f 4b9d 873c 2bdd cc3b ae4f dabe
000002b0: 4744 113e e49c 523e b060 fb3e e5bb 013e
000002c0: c6e3 8e3b 12bb 0e3d c47f 803e 35a0 193e
000002d0: 8d7c aabd a469 ed3d e899 f5bd 1696 05bf
000002e0: 08f7 26be 90c2 9ebc efdb b6be 9568 a83e
000002f0: 763d fabb a53d 063e 5e9b b63e a5f5 f73e
00000300: 255d 803d 8eba 0fbd ecfb 2abd 509c d6bd
00000310: 76c4 77be 3f4d 9c3d 9336 f2be 1f01 a93d
00000320: 74d0 db3e d1de 2b3e 85a0 43bd 6e78 77bd
00000330: d0ae 223f 1631 1f3f b446 513d f336 e7be
00000340: 6b74 a1bd 72fb 173f 0613 25be 39e8 0c3e
00000350: 2511 153e 0596 533e 2f30 95be a55b 0fbd
00000360: 951b 13bf c1d9 1a3e ba98 963e 9feb 3cbc
00000370: e66f d6bb a556 26be b0a6 4f3f 530c 293f
00000380: f7f5 b63d 7946 12bd 594b bf3e c3ca be3e
00000390: 5030 1dbe 6d08 163e 9c36 92bd b59a ec3e
000003a0: e066 d93e 71e9 c2be 047a 213d e205 fd3d
000003b0: dbf4 3ebd cf43 0cbf 3de0 9c3d 4829 09bc
000003c0: 9ec5 423f ffdf 9b3e 0866 7f3e fa35 03bf
000003d0: 074d 66bd 3853 fe3e 010d 11bf 078d 053e
000003e0: 0f91 bb3d 9629 af3c 8b35 173e 6f70 23be
000003f0: e0ff 16be ecce b73e 1897 6e3e c59f a53e
0.12135568 -0.07105903 0.30342284 -0.3180452 -0.015109357 -0.0077351797 0.58625066 0.50874543
-0.047698934 -0.47056255 0.2690171 0.14767882 -0.46010798 -0.013670841 -0.28742707 0.35299295
-0.15034403 -0.14175123 -0.028670471 0.21325825 0.4331209 -0.34533873 0.03914138 -0.11989228
0.0064811143 0.29520187 -0.52380806 -0.3281058 -0.16243492 0.114334874 -0.39219144 -0.19838127
0.22717935 0.25753933 0.35944444 0.27360043 -0.24428676 -0.14603552 -0.31717783 -0.26741564
-0.31148288 -0.15322584 -0.13425484 -0.06758096 0.18862931 0.36846378 0.23068358 0.29869375
-0.36970377 0.01754102 0.00040021073 -0.07823805 0.43375638 0.13487458 -0.31023833 -0.35115385
0.2853657 0.3402955 -0.014908107 0.011929556 0.16095932 0.24435617 0.5808944 0.21008758
0.07887435 0.018170333 0.13491157 -0.009256181 0.0036131358 -0.58678955 0.2931562 -0.60020447
-0.5744415 -0.25482306 0.39990777 -0.01632946 -0.03141988 0.017188838 0.13132925 0.33450222
-0.7787262 0.042137608 0.17874835 0.57596904 -0.26756015 0.04898554 -0.065718494 -0.11977039
0.3595464 -0.8444698 -0.34509027 0.23885223 0.20189409 -0.5241481 -0.14379482 -0.009662004
0.095376626 0.34789476 0.844769 0.13182455 -0.13728882 -0.353749 -0.21760216 -0.0129594095
-0.17144954 -0.08342298 0.04611744 1.0848342 0.0794692 0.31029904 -0.023894574 0.29425526
0.032796208 -0.0065484345 0.33307928 -0.41344878 0.6457103 0.39830187 -0.19211522 -0.4361936
-0.078939445 0.18428057 0.21814641 0.16563867 0.05859521 -0.10593772 -0.3899569 -0.3416538
0.64408505 -0.43072298 0.121478535 -0.15324108 -0.04310062 0.12314981 -0.27749553 -0.48199245
-0.40425268 0.27239743 0.1105477 -0.017941171 -0.056635287 0.47033593 0.03393063 0.3956296
-0.4258965 -0.07492507 0.44474193 -0.0019384722 -0.034848493 -0.16707349 0.7157222 0.23915839
-0.22349016 0.118017085 0.025286146 0.1511984 0.13341275 0.013403352 0.036308177 0.60325336
0.62218195 0.53118217 0.15907009 0.51593536 -0.031194441 -0.49515343 0.22130524 -0.050751977
0.5935337 0.016554495 0.006251951 -0.42638916 0.14186202 0.20567662 0.49097204 0.12669332
0.004360649 0.034846373 0.25097477 0.1500252 -0.083245374 0.11592415 -0.11992246 -0.5218214
-0.16305172 -0.019379884 -0.3571467 0.3289229 -0.0076367212 0.13109453 0.3566541 0.484296
0.06267766 -0.03509002 -0.041744158 -0.10479033 -0.24196038 0.07631921 -0.47307262 0.08252167
0.42932475 0.16784216 -0.047760505 -0.060417585 0.6354799 0.62184274 0.05109282 -0.4515911
-0.07883533 0.5936805 -0.16120538 0.13760461 0.14557321 0.20662697 -0.29138324 -0.03499951
-0.5746396 0.15122129 0.29413396 -0.011530786 -0.006544101 -0.1624399 0.8111372 0.6603443
0.08933633 -0.03571174 0.37362173 0.3726407 -0.15350461 0.14651652 -0.07139322 0.46211782
0.424613 -0.38068727 0.039423004 0.12354638 -0.04662023 -0.5479097 0.076599576 -0.008371659
0.7608279 0.30444333 0.24941266 -0.51254237 -0.056225803 0.49672866 -0.5666047 0.13042079
0.09158527 0.021382134 0.14766519 -0.15960859 -0.14746046 0.35900056 0.23299825 0.32348457

shared.0.bias f4 [256]
00000000: 105b 123d 1e42 78be 3794 93be 71fc 99be
00000010: 756f 24bd 7dd7 113e 1a9a ce3c 9da0 ff3e
00000020: 8c4d c43d 1145 9cbe 80da 2bbd b91f 023e
00000030: 21be 113f e0cc e9bd eee3 53be e155 05bf
00000040: 90fe 393d b59e 3cbe 7124 ad3c 5fa6 233e
00000050: 4148 08bf e8b2 183f 92b7 49be c9e5 89be
00000060: 5813 21be fdbd b23e f2bf 7fbd e6b6 32bd
00000070: 9192 183f 6b5b a6bd 7f33 82be e2dd c4be
00000080: 2332 a23e c8de 6d3d 4354 d43d 340c 3cbe
00000090: b4ec eb3e dd15 01bb 1b4c e6be 19c0 a3bc
000000a0: e398 023f 16c1 2ebe d0d7 e73e 77f9 73be
000000b0: a12d 243f 018d 0bbe 3864 46bb 83ad efbd
000000c0: d9da 99be ae6e b6be bdf1 27be c16e 5d3d
000000d0: f489 31bd e17a 0f3e 3f04 e53d 3206 afbe
000000e0: 7d55 ec3e 861a 3b3e f55d 98bd ef9d a63e
000000f0: 769f 2f3f 3664 9cbe 336d 343f fb89 bf3e
00000100: b4ea dabd ce9a 103e d54f 933e 9bbb d03e
00000110: 3f96 073f 35a5 613e 30c9 143e de83 3c3e
00000120: c883 993d 660f c8be 8aed 143e 9816 db3c
00000130: d11c 193d e24b 76be 2e4c 5f3e 4f10 b0bd
00000140: 8493 dcbe 3ee7 083f 1201 4d3d 76c2 e2be
00000150: 7e43 cb3e fb2f 853d a50f ccbd 0b54 e0bc
00000160: c2f2 09be c5cb e83d ccfa 0f3d 8664 113d
00000170: 0116 a83e 444c 7ebd fcd4 073f e27d 9fbd
00000180: b6f7 a23c 4862 733e d11c a4be 1758 4dbe
00000190: fcc6 173e 3992 6abe 93c8 8b3d 0127 99bc
000001a0: 0c2a 353e d2b8 23bd bf28 083f bfeb 65be
000001b0: f066 c1bd 31f5 e7be e8b2 9cbe ac80 083a
000001c0: 6f83 60be 3d3b 42be 917b b0bc f199 473e
000001d0: 0055 163f 424a bebe 8ed0 a5be d84e 04bf
000001e0: 2f61 18bf 3ab8 2bbe 24dd 613e e5f7 bb3e
000001f0: ebe0 99be 4ca1 d8bd 3d6a b6be 6f26 c13e
00000200: 3b20 cf3d e647 c1be f369 623e 67f5 08be
00000210: 3134 45bd 4c16 79be b190 553c acd7 d8be
00000220: 0fcf a4be 5e3d 48bd ce39 82bd bf04 85bd
00000230: 5efe 91be 093b 66bd b88f 86bd aca2 f13e
00000240: 1cc3 233f 06df b4be 692c c63e fe43 3f3e
00000250: 54db fe3b 508a 123e 55da 8c3e b1ae f73e
00000260: 73ae 9bbe b10d 8dbe 7d15 9a3e 028a 7e3e
00000270: a65f 363e 597b e33e 1e7b ebbc 0394 0f3f
00000280: 03ba 18bf ecc0 acbe 1558 213e d44a e53e
00000290: e375 f7bc ccda 0dbe c696 193f 42a2 2abe
000002a0: 6cfc 94ba 051e c2bd 7fa1 043f 8fa1 c4bd
000002b0: 471a 96be 5515 91be b4a3 e63e f7bd ee3e
000002c0: e51a 8c3e f6d8 a5be f5be 2e3e 0bac 37be
000002d0: 0263 27be 6be3 0fbe ac57 99be 2347 273f
000002e0: a734 cbbd 46f9 b0be 1a0b 12be f8a0 373e
000002f0: 55a8 8abe 7f0a 91bd 6339 a6bd 9861 dcbc
00000300: 00f8 8cbd 413c c4be 2b70 223f e5d4 043e
00000310: a5e4 6f3c 016c 083d 62bd 3ebe dc2e 063f
00000320: 6ac2 1fbe f670 69be 60b6 b0bc 9b00 a5be
00000330: 9de0 b8bd 91b7 41be ef52 86be acb9 94be
00000340: 0238 d8be 5c6f 11be 7a29 e4be 604f 0c3f
00000350: bd5c 263e 5933 c53d 7c40 273f 7dca 6abe
00000360: d417 19bd 1390 a6bd ed43 06bf 1ab2 02bf
00000370: 2c52 553e ebfb 43be 737b 82be bdc9 da3e
00000380: 9533 8e3c 6cdb 4bbe 104c 00be 715c 80be
00000390: 0f5a 80be f9ec b1bd 0e92 273f 778a d13e
000003a0: 734a 3c3f 979f acbe d81f b0be 8d92 1c3f
000003b0: 90bd babe 953a 63bd 0244 8dbd 36be 243f
000003c0: 97c1 1dbe 30d6 75bd 0435 ad3d b0e2 e1bd
000003d0: abaa 7bbe 330f c4bd 87e2 0e3c 0a7a a1be
000003e0: d56f efbc 37d7 95bc c6b7 3bbe b86c f83e
000003f0: 6d84 0bbf 4dc6 f03e 1617 1d3d a4a3 cc3e
0.035731375 -0.24243972 -0.28824016 -0.3007541 -0.040145356 0.14242359 0.025219966 0.49927226
0.095851034 -0.30521443 -0.041956425 0.12707414 0.5693074 -0.1141603 -0.20692417 -0.52084166
0.045408785 -0.18419917 0.02113554 0.15981434 -0.5323525 0.5964799 -0.19698933 -0.26933125
-0.15730035 0.34910575 -0.062438913 -0.043631457 0.5959864 -0.08122905 -0.25429913 -0.38450533
0.31678876 0.05807379 0.10367634 -0.1836403 0.46079028 -0.001969687 -0.4497994 -0.01998906
0.51014537 -0.17065844 0.4528184 -0.23825632 0.64132124 -0.13628007 -0.0030272137 -0.117030166
-0.3004978 -0.35631317 -0.1640081 0.0540607 -0.043344453 0.14011718 0.111824505 -0.34184414
0.46158972 0.18271837 -0.07439796 0.3254237 0.68602693 -0.30545205 0.70479125 0.37409958
-0.10689297 0.14121553 0.28771845 0.40768132 0.5296363 0.22035678 0.14529872 0.18409678
0.074958384 -0.39074248 0.14543739 0.026744172 0.037380997 -0.24052384 0.21806404 -0.085968606
-0.43081295 0.5347785 0.05004985 -0.44288987 0.3969993 0.06503292 -0.099639215 -0.027383825
-0.13471511 0.11366991 0.035151288 0.035496257 0.32829288 -0.06208445 0.53059363 -0.07787682
0.019893508 0.2376796 -0.32053235 -0.20053135 0.14822 -0.22907342 0.06825366 -0.018695356
0.17691821 -0.03997118 0.53187174 -0.22453211 -0.09443462 -0.45304254 -0.30605245 0.0005207162
-0.21925138 -0.1896791 -0.021543296 0.19492318 0.5872345 -0.3716603 -0.32385677 -0.51682806
-0.5952329 -0.16769496 0.22057015 0.36712566 -0.3005441 -0.1057764 -0.35627928 0.37724635
0.10113569 -0.37750167 0.22110729 -0.13374864 -0.048145477 -0.24324912 0.013034985 -0.42352045
-0.32189223 -0.04888665 -0.063586816 -0.06495046 -0.2851438 -0.056208644 -0.06570381 0.4719442
0.6396959 -0.35326403 0.38705757 0.1867828 0.007777611 0.14310575 0.27510324 0.48375466
-0.30406532 -0.27549508 0.3009452 0.24857333 0.17809924 0.44430044 -0.02874523 0.5608522
-0.5965883 -0.33740938 0.15756257 0.44783652 -0.03020758 -0.13852996 0.59995687 -0.16663459
-0.0011366731 -0.09478382 0.51808923 -0.09601127 -0.29316923 -0.28336588 0.4504677 0.46629307
0.2736427 -0.3239209 0.17065032 -0.17936723 -0.16346362 -0.14051597 -0.299497 0.6534292
-0.09922152 -0.3456518 -0.14262047 0.17932498 -0.27081552 -0.0708208 -0.081164144 -0.026902005
-0.0688324 -0.3832722 0.63452405 0.12971838 0.014641915 0.033306126 -0.18626931 0.5241525
-0.15601507 -0.22796997 -0.021571338 -0.32227024 -0.090272166 -0.18917681 -0.26235148 -0.29047906
-0.4223023 -0.14202636 -0.44562894 0.54808617 0.16246314 0.096289344 0.6533277 -0.22928806
-0.03737624 -0.08132949 -0.52447397 -0.5105301 0.20832127 -0.19139068 -0.2548481 0.4273204
0.01735858 -0.19907922 -0.12529016 -0.25070527 -0.2506871 -0.08687777 0.65457237 0.40925953
0.735511 -0.33715507 -0.34399295 0.6116112 -0.3647275 -0.05547579 -0.06897737 0.6435274
-0.1540588 -0.06001872 0.084573776 -0.11029565 -0.24576823 -0.095732115 0.0087210005 -0.3153842
-0.02922813 -0.018291099 -0.18331823 0.48520446 -0.5449894 0.4702629 0.038352095 0.39968598

shared.2.weight f4 [256, 256]
00000000: 7ee8 e6bd 320e cfbd b24f 44be 7506 9cbd
00000010: b5e3 cfbe b80e 863e 5035 8b3b 9e8c d63d
00000020: 73f1 71be 2daf 7dbe 7da5 873d 7778 183e
00000030: daa8 d83d 7cc9 723d 1490 6ebe e8f5 44be
00000040: 095a 33be 8317 383d bb77 ebbb 4392 e2bd
00000050: b334 eabe 5f0c a63d d692 b5bd a189 abbe
00000060: b2fb 81bd 57bb a7bd cdce a2bc 35fc adbe
00000070: f8db 1abe 6016 7abd b3f4 f1bd cc60 88be
00000080: 3158 cdbd 9124 7a3b 3318 0dbd fe36 033e
00000090: 91e4 55bd 1a9b 1d3d 70e6 22be 4018 39be
000000a0: 2e9e b13d d1e4 86bd 97a7 14bc 893a 87bd
000000b0: 5bad 313e aea6 4bbe be6a 68bd 00f9 793b
000000c0: 9aaa 8bbd d69a 55bd d061 81be 2fe4 84be
000000d0: 7fe8 2e3d e981 84be 49f2 a1bc ec1c 6dbe
000000e0: b618 b23d 240b d7bd b3b4 32be 857d 853d
000000f0: 863e d83d 9061 9ebe c0a7 5e3d e302 0b3d
00000100: 9500 d2bd 48dc b83d ceec 4d3d 267d 0fbe
00000110: ed4c a73d 2d15 85be 6616 1a3e 451f fbbd
00000120: fe52 073d d9a6 1bbe 521f 34be a066 37bb
00000130: adae 7e3d 14cc c03b fe06 3fbe 95ea c9bc
00000140: f2a0 65be c71a a63d 8588 893d 6a73 3bbe
00000150: cbb4 603d 7327 533d 787e 303d a7b6 1bbe
00000160: e19c 693e 29c9 89be d590 683c 67ba da3d
00000170: 321f e5bd 3f90 283d 7b3d fd3d c252 8d3c
00000180: c34a b33d 8757 8f3d dc7c 673d f884 49be
00000190: ac65 3d3d bf77 03be 26ab 0bbe 9d0b 503d
000001a0: 37e3 8e3d d6ba c3be 8dc4 30be 04d1 49bc
000001b0: 4f95 f43d 2078 e0bd d552 f5bc 26f5 4dbe
000001c0: 1089 3abe fbcd 7dbd eace 0d3d 254e 41ba
000001d0: d645 5e3d 11a5 65be f4e9 80be cb01 77be
000001e0: 7718 51be 464a 7bbd 726b e9bb 321c db3d
000001f0: b846 263d 3eee 05bf afff 92be 65b2 963c
00000200: 53a5 f3bd e096 943d 4ea6 75bd 9af3 6bbb
00000210: bf3d 2ebe 67d4 2abe f3d8 72bc cdd6 69be
00000220: e164 70bc 0f15 833d b1be 6d3d 61a1 80be
00000230: 5e5d 48bc 72b4 ebbd 845c d2bd 4281 383d
00000240: f4ee 03be acee b0be 2b3a ee3d 24f2 7fbe
00000250: 9566 55be 6f46 1fba 2eee 35bd 5e05 31bd
00000260: 7f4a cfbc c034 d6be 248f 23bd a566 143d
00000270: 5329 a33d 731f bfbd 0648 dd3d 6d74 8a3c
00000280: 8a84 97be 1ee1 fcbd 448b 523c 62ec 773d
00000290: 7934 463c d9c5 8bbe a738 8ebe 820b 1f3e
000002a0: 0d5f 063e 9ddb b13d 5b45 503d 66f8 20bd
000002b0: dc56 b5be 9013 a4be 84cc d6bd 78c6 293e
000002c0: 763b 8d3c b6d8 5f3d 9e39 0b3e e88c bcbd
000002d0: 02a0 05bd f578 383d f19d 183f e9a8 073e
000002e0: 2224 1b3c 1a10 36bb fc7c fd3c a7c4 32be
000002f0: a8d7 1f3d 570f abbe 8316 5cbd 706b 3d3e
00000300: 122a b9bc dedf 43be 43a1 d8bc 38c6 ccbd
00000310: 7074 5b3d b229 35be 343a 95bc c4ee 02be
00000320: d46d 803d 35fa e3bd 74ec 9cbe 3077 ebbd
00000330: 4c3f 2cbe 35d3 23be 4809 603d 2a75 46be
00000340: 4b40 7abe eb65 533d 041f 01be 2b7f ea3c
00000350: 957a 433d c7bd 15bd 8210 d33c a70c 05be
00000360: 52c4 6d3d 31d5 563d b87b 5ebe c5ba 37be
00000370: c274 8f3d b80c 73bd 00fe 643d 2f3f 373c
00000380: 2425 7fbd 8d2f 89bd c774 333d f035 30be
00000390: 282d e1bd 7bcf 0abc cc39 8b3b d21e 07be
000003a0: 0b10 f43c 80a8 e9be 9d7a 14bd 1c06 233d
000003b0: 1cac 93be 8060 febe 816c aa3d aa54 aa3c
000003c0: 9fea bdbe 1d42 bdbc e1b6 373d 5b92 60bd
000003d0: 4514 de3d 9a2e 4dbe 8f08 66bd 08a0 d23c
000003e0: ff41 113d 9c60 2c3d 1aeb 5ebe e9c1 c5bd
000003f0: 82f9 77be 75b2 85bd 80ed 6f3d 3c43 f4bc
-0.11274813 -0.101101294 -0.19171026 -0.07618419 -0.40603414 0.26183105 0.0042482987 0.10476039
-0.23627262 -0.24773856 0.06623361 0.14889704 0.10579081 0.05927418 -0.23297149 -0.19234431
-0.17514814 0.044944298 -0.007185904 -0.110630535 -0.4574333 0.08107828 -0.08865897 -0.3350344
-0.06346835 -0.08190029 -0.019874 -0.3398148 -0.15122974 -0.061056495 -0.11814251 -0.2663635
-0.10026587 0.0038168768 -0.034446906 0.12813947 -0.05221993 0.038477995 -0.15908217 -0.18075657
0.086727485 -0.06586612 -0.00907316 -0.066029616 0.17351286 -0.19887802 -0.056742422 0.00381428
-0.06819649 -0.052149616 -0.25269938 -0.2595534 0.042702194 -0.25880364 -0.01976885 -0.23155564
0.086961195 -0.10500172 -0.17451744 0.065180816 0.105588004 -0.3093381 0.054359198 0.0339383
-0.10254017 0.0902639 0.050274663 -0.14012584 0.08168969 -0.25992718 0.15047607 -0.122618236
0.033038132 -0.15200366 -0.17590073 -0.0027984753 0.062178303 0.005883703 -0.18655011 -0.02464799
-0.22424677 0.08110576 0.06715492 -0.18305746 0.054859918 0.051551294 0.04308936 -0.15206395
0.22813751 -0.26911286 0.014194687 0.10680085 -0.11187591 0.04115319 0.12365242 0.017251376
0.08754494 0.069991164 0.05651556 -0.1967963 0.04623954 -0.12838648 -0.13639507 0.050792325
0.069769315 -0.38228482 -0.17262478 -0.0123179 0.11942541 -0.10960412 -0.029946724 -0.20113048
-0.18216348 -0.061964016 0.034621157 -0.000737401 0.05426582 -0.22426249 -0.25178492 -0.24121778
-0.20419489 -0.06135013 -0.007123404 0.10698737 0.040594786 -0.52316654 -0.28710696 0.018395612
-0.118967675 0.072553396 -0.059973054 -0.0036003352 -0.17015742 -0.16682588 -0.014822233 -0.22835846
-0.014672489 0.06400501 0.058043186 -0.25123122 -0.012229292 -0.115090266 -0.10271552 0.045045145
-0.12884122 -0.34557092 0.116321884 -0.24994713 -0.20839913 -0.0006075864 -0.0444166 -0.04321801
-0.025304077 -0.4183712 -0.03993143 0.036230702 0.07966866 -0.0933217 0.10804753 0.01690122
-0.29593307 -0.12347625 0.012850586 0.060528167 0.012097471 -0.27299383 -0.27777597 0.15531734
0.13122196 0.08684466 0.050847393 -0.03929939 -0.3541783 -0.32046175 -0.10488227 0.16579616
0.017240267 0.05465003 0.13596198 -0.09206563 -0.0326233 0.04503723 0.59616 0.13248028
0.009469064 -0.0027780593 0.030943386 -0.1745783 0.039024025 -0.3341014 -0.053732406 0.18498015
-0.022603069 -0.19128367 -0.026444083 -0.09998745 0.05357784 -0.17691687 -0.01821623 -0.12786394
0.06270948 -0.111317076 -0.3064915 -0.114973426 -0.16821021 -0.15998538 0.05469635 -0.19380632
-0.24438588 0.05161087 -0.12609488 0.028625092 0.047724325 -0.03655794 0.025764707 -0.12993108
0.058048554 0.05244941 -0.21726882 -0.1794234 0.07004692 -0.0593383 0.055906296 0.011184498
-0.06229128 -0.06698523 0.04381254 -0.17208076 -0.10994941 -0.008472319 0.0042488333 -0.13195351
0.029792806 -0.45636368 -0.036249746 0.03980075 -0.28842247 -0.49683 0.08321477 0.020792324
-0.37093064 -0.023102814 0.04485214 -0.054827075 0.1084371 -0.20037308 -0.056160506 0.025711074
0.03546333 0.04208432 -0.21769372 -0.09656126 -0.24216273 -0.065281786 0.058576107 -0.029817216

shared.2.bias f4 [256]
00000000: 220d b13d 5867 a03e dbdc 5fbd 8eba 6a3e
00000010: b475 be3c 6ff6 a0bd 19ca adbe 331f 18be
00000020: 2f22 e53c 4650 f13c b1e1 f93d 1545 8f3c
00000030: 02d6 643c 13e4 cdbd e771 1e3e 1fea 0c3d
00000040: ba35 3abd cef7 4a3d afee cbbc 968b e7bc
00000050: 45e0 b93c bee7 f93c cfa2 afbb 0561 6c3d
00000060: 8684 c73c 010c 883e 7f7a 32bb 2d70 4abd
00000070: a059 593e 64f7 d9bc 865f 903e e2b8 173d
00000080: cff8 50be 9da2 a23d 65b9 2b3e 889d dfbd
00000090: 555c 48bd 27cc ddbd 723b ec3c 5d6c 263e
000000a0: 81c4 cbbc 3577 9a3e bdf9 7cbc edfb 483e
000000b0: 92a4 b8bd 4286 97bd c48d 0bbc 516e df3d
000000c0: 11b7 8e3d 5774 a5bd a6a9 b2bc 90ec b5bd
000000d0: 1a93 07bb 37fa 943e 0025 863d cdd6 96bb
000000e0: 6988 1c3e 2b89 663e eaf9 093e 6d62 d6ba
000000f0: 834c 2fbd 12f1 cb3d fbeb b83d cca0 e93d
00000100: b8a6 0f3d 5184 2fbe 9978 55bc 5501 ebbc
00000110: 5361 383e ebd2 cd3c cb6a bfbd e2cd a23e
00000120: f4b7 e03d a9cb a1bd 438e 233e df58 98bd
00000130: d3c4 f13d f8ca b6bc 1f13 0cbd a334 643e
00000140: f63f d83d c635 09be 83fd 09bd e7b3 8cbc
00000150: 8468 44be 99b2 ff3c 1694 303b 7919 28bc
00000160: c4e1 003d 0de7 0a3d 318a 8d3e f86b a83e
00000170: 0d59 57bc b9f9 163e bf87 1f3e 28ae 06be
00000180: f424 86bd b663 9c3b 0eb4 b63c 9cd3 09be
00000190: 098c c3bd f9c2 9a3e 06a5 a4be 70f0 fabd
000001a0: 543e 54bd 9eb6 bcbc 6a51 70be 64f8 9b3e
000001b0: 3909 cd3c f150 1dbc 502e f0bd 7886 a1bd
000001c0: a502 f9bd 7731 263e 8dbd c33c d116 803e
000001d0: d98a 78bd ca25 b23e 31db a43d fa20 923c
000001e0: 579c c53c 06c9 af3e 3bff 72bd 2bd9 d7bd
000001f0: 2d8f 233d d39f 38be 3a75 8e3d 0dd5 983d
00000200: eaf8 833e 9684 6b3e cad8 02be 26dc 1fbd
00000210: 0b33 54bd c3e7 01be b42a c3bc d2bd 753c
00000220: cfa4 20bd 6e3c a13e 79d5 3b3d beff fc3d
00000230: 2f72 3ebe aaae b5bd 8854 b0bd 3206 443d
00000240: 7567 57bd f22e 363e 28d5 c0bc c6bc 213e
00000250: 2760 a4bd 9d2a 1bbe 7e15 a63d b890 713d
00000260: 0f03 d43b 9b88 b23e 14bf 043e eae9 b4bd
00000270: 4e92 a6be 3ee8 0f3c 4697 73bc 89a6 5fbd
00000280: 9c7b 3abc c9ff 5d3e 571e 16bc a531 e03d
00000290: 2da2 9b3d 0da6 d0bc ef91 2fbe 9dca 303d
000002a0: bd1b 0fbe 7270 7a3d 20a2 a4bc 447d aabd
000002b0: e9cd b7bd debb 293e 84f1 f73c 1d8e c6bd
000002c0: 298e 843d 7c48 87bd 771c 8b3e f8d6 36bd
000002d0: 376b 863d 0c6f ee3d 0159 2e3e 0505 1f3e
000002e0: 5e34 ff3d 3f71 32bd 39d7 7b3e d65b 94bc
000002f0: 1c6c 73bd 8253 1abd 2313 8f3e 50a7 4abd
00000300: 0f65 d4bc aa13 983e 9ef9 a9bd 2cb4 16bd
00000310: ff7a 893d b25e a1bc 378a 71bd a6e2 193d
00000320: 9c42 27bd bab0 993e 9fc5 bb3c a20b 7e3c
00000330: a7eb 863d ba2f 613c 0509 d03d b7ec 583d
00000340: 3079 0ebd aa66 a93d d325 de3d 3e9a babd
00000350: e789 4a3e 981f b3bd 93ab 973c c53b 3cbd
00000360: a7e2 36bd 1ff3 8cbb c3e1 1c3e 0a31 ad3e
00000370: bd82 a63d 0095 3e3e 3996 a43e dd82 683d
00000380: 3f99 40bd 8bee 913c 824b e03d 9303 8f3e
00000390: 45be 4bbc 28bc 07be c427 04bd 71bc 653c
000003a0: 0ba4 12bd c80f 063d 64f7 593b 91d3 4dbe
000003b0: 5154 9d3c cc36 973c 0dee 383e b5b7 78be
000003c0: fee1 703a b79f 3ebd 6c60 52be 7796 21be
000003d0: ef08 273c 989b 52be 9cd5 20bc ba88 28be
000003e0: abd9 84bd 18ad bd3c 60d2 723d 0c83 abbc
000003f0: e1f5 fcbc 33a3 b93c 3730 36bd 981a 02bd
0.08645083 0.31328845 -0.054653984 0.22922727 0.023249485 -0.078595035 -0.3394325 -0.14855652
0.027970402 0.029457223 0.1220125 0.017488996 0.013967039 -0.10053267 0.15473138 0.034402963
-0.045461394 0.04955273 -0.024894087 -0.028264802 0.022689948 0.030506011 -0.0053599845 0.057709713
0.024355184 0.26571658 -0.0027233658 -0.049423385 0.21225595 -0.026607223 0.2819788 0.037041552
-0.20407413 0.07941172 0.16769941 -0.109187186 -0.04891618 -0.108299546 0.02883694 0.16252275
-0.024873974 0.30169073 -0.015440402 0.19627352 -0.09015764 -0.073986545 -0.008517686 0.10909713
0.06968511 -0.08078831 -0.02180941 -0.08883011 -0.0020687045 0.2909715 0.06550026 -0.004603243
0.15286411 0.22513263 0.13474241 -0.0016356237 -0.042797577 0.0995809 0.09029385 0.11407623
0.035071105 -0.17140318 -0.013029241 -0.028687159 0.18005876 0.025124988 -0.09346541 0.317977
0.10972586 -0.07900173 0.15972237 -0.07438826 0.11805119 -0.02231358 -0.034197923 0.22285704
0.105590746 -0.13399419 -0.033689033 -0.017175628 -0.19180495 0.031213092 0.0026943735 -0.010259979
0.031465307 0.033911753 0.27644494 0.32894874 -0.01314379 0.14743699 0.15579127 -0.13152373
-0.06550017 0.0047726287 0.022302654 -0.13459629 -0.09548194 0.30226877 -0.32157153 -0.12252891
-0.051817253 -0.023036297 -0.23468557 0.30462945 0.025028812 -0.0096018175 -0.117275834 -0.07886976
-0.121587075 0.16229807 0.023894096 0.25017408 -0.06067929 0.34794456 0.0804962 0.01783799
0.0241224 0.34333056 -0.059325438 -0.105394684 0.039931465 -0.18029718 0.06955953 0.07462511
0.25775844 0.22999796 -0.12778011 -0.03902831 -0.05180649 -0.12686066 -0.023824073 0.01499887
-0.039219674 0.31491417 0.04585788 0.123534665 -0.18598245 -0.08871205 -0.08609873 0.04785747
-0.0525889 0.17791346 -0.02353914 0.15794668 -0.08026152 -0.15152974 0.08109568 0.058975905
0.006470091 0.34869847 0.12963516 -0.08833678 -0.32533497 0.008783398 -0.014867609 -0.05460218
-0.01138201 0.21679606 -0.009162507 0.10946969 0.07599292 -0.025469804 -0.17145513 0.043161977
-0.13975425 0.061142392 -0.020096838 -0.08324674 -0.08974821 0.16575572 0.03026653 -0.09695075
0.064724274 -0.06605622 0.27170154 -0.044638604 0.06563418 0.11642274 0.1702614 0.15529259
0.1246116 -0.04356503 0.2459382 -0.018110197 -0.059429273 -0.037677296 0.27944288 -0.049475968
-0.025927095 0.29702502 -0.08299564 -0.03679292 0.06712913 -0.019698475 -0.058969703 0.037569664
-0.040835008 0.30017644 0.022921382 0.015505703 0.06587916 0.013744289 0.1015797 0.052960124
-0.034783542 0.08271535 0.10847058 -0.091114506 0.19779168 -0.087462604 0.01851443 -0.04595544
-0.044649746 -0.004301443 0.15320496 0.33826476 0.08130405 0.18611526 0.3214586 0.056765426
-0.047021147 0.017813941 0.10951902 0.27932414 -0.0124355005 -0.1325537 -0.032264486 0.014021979
-0.035800975 0.032729894 0.0033259029 -0.20100237 0.019205244 0.018458746 0.18059559 -0.24288829
0.0009188949 -0.046539035 -0.20544595 -0.15780054 0.010195001 -0.20567167 -0.009816553 -0.16458407
-0.06486829 0.023153827 0.05928266 -0.020936511 -0.030878963 0.022660827 -0.044479575 -0.031763643

actor.weight f4 [3, 256]
00000000: efdd df3d 43d8 58bd 6077 21bd a663 4b3c
00000010: daae bdbe 58ed 85bd 5d04 43bc ea05 203c
00000020: 696d 0c3d a390 a33d bbe4 9c3e 102f 89bc
00000030: 10db 3c3e 3a8c aa3c 04d6 8c3e c106 74bd
00000040: 3b24 1e3e c04b 673d 4ab0 1f3c 59cc 123d
00000050: 121d d93d fcec 8a3d e7d3 1abe b84b 72bb
00000060: 2974 a0bb 90f8 5eba a095 073d 39b3 493d
00000070: 9c82 36be b8c6 3b3c 9b0c 75be 766a 1c3c
00000080: 1ab9 8f3d 1a4e 90ba c2b3 f23e df26 113d
00000090: 62c4 023e 857f 48bd 2651 22be a4ec b1bd
000000a0: 7a57 333d 7a78 613d e0d0 73bd ed12 cd3d
000000b0: a88c 9a3d 07d8 0d3d 0287 c13d c436 5f3e
000000c0: 4e1d b53d 6e1c 023e 9ded febd 0caa e0bd
000000d0: 6aff 013d 81d1 783e e051 9c3e 5689 e73d
000000e0: bae4 3abc 76df c23e a3e6 8a3e f279 8cbb
000000f0: 5fd5 b33c 8a08 723e 4e80 7bbe 2e15 45bd
00000100: 8180 03bf f8b8 373d f9cb 563d b19a 0d3d
00000110: fc39 a63e 85da c9bb 217a a03d 6272 913e
00000120: fb6b 9d3d dcf9 6cbe 2567 bebe 453f 9f3d
00000130: e641 1abd ddc2 773b 90ab ab3c a435 413e
00000140: 6f3c 973d ee85 a93b 9a70 04bd ea19 373d
00000150: b70c b93b 3230 573e f99c 603e 1045 4c3d
00000160: ab85 22bd acaa 623e d73d 2bbd 155a 3d3e
00000170: 1a42 b73c ebf0 b33d 1fd6 433e 7c95 753d
00000180: 54b9 e53b e4a7 8fbc e98b 5a3d 4c1e ac3d
00000190: 7ac9 e03d c028 843d 64d1 84bc dbf0 6c3c
000001a0: c617 14be 23d8 183d 7d14 55bd 3c61 9abe
000001b0: 1ca6 95be c39b cabb 5452 d23d e6c3 a53d
000001c0: 909d ef3d b6f9 9a3d 73ba 553e acbc 1abd
000001d0: 42d2 8c3e b79d 2e3d c2dc 363e cf0a 45be
000001e0: 229e 283d 6320 cd3d 0d06 3c3d bd26 e83c
000001f0: c5c0 14bd 88a7 52bc d155 07be 8ead df3b
00000200: e3d5 43bc 08d9 123e 1c33 183c b792 383d
00000210: fa70 5ebd 551a ea3c 029d 093d bbc2 15be
00000220: 28b4 5d3e d653 12bf 43a7 90be 3a5c 343b
00000230: b0c7 bd3d f94d cabc 16db f9bb 43b3 d33e
00000240: 1bc6 123c e7e1 e03e 2145 cc3c 9ef8 5c3e
00000250: bfdf b73c cc60 c83c 8e4b b43c 057e 263d
00000260: 89eb 9b3d 8735 e9bd e14e ddbd 29f8 543d
00000270: 173a 193d 2263 bebc 3cae 633c 22c4 b13c
00000280: a7d0 543d 21f8 c43d 7dce 75bd 7ff1 ad3d
00000290: 2782 f53d 1239 a63d e41d 74bd 5e04 0a3d
000002a0: 7bcb f43d dd04 603e a1e0 fc3d 433d 16ba
000002b0: 2657 b73c 17c2 653e 0b3c 85bc 8f3c 703b
000002c0: 0b38 bfbd 5369 603e 379c 6c3e 573a 0ebd
000002d0: ecea c33c 1363 a7bd f0b6 823d 48ca 3c3e
000002e0: ca46 a1bc ed8b 3abd 82a6 a2bd b5c8 573d
000002f0: 3ded 1f3d c675 8bbd 6061 683e d06f f1bc
00000300: ce04 a73c 88e1 053d 8d3c 5f3d 339a 95bd
00000310: 7dce dabd 8ff5 a83c ec02 193c 9802 d23c
00000320: 0775 cf3b 3783 243d 1156 2b3e cb00 c4bd
00000330: 2c47 47bd 5ed7 e43d 42e2 e13e bc74 cabd
00000340: 3c49 bd3d 4884 8c3c 3e96 f43d bb20 e83d
00000350: 5391 9f3b 85d2 0a3e 8a81 3f3d 029c bfbd
00000360: 6b0f 013d a498 bebc d3db d03e 7773 f0be
00000370: 3179 f13e 57d0 acbe 9860 723d 134b 2cbe
00000380: 5822 6f3e 112e e2bd c9ce e03d 443b 203d
00000390: 7861 a9bd f5d0 c63d 8e5b 413e 0b7e 90be
000003a0: 50c8 bd3d 1033 40bc a514 04bd 7442 623d
000003b0: 920f a3bb aae9 c73c 7f89 afbe 9e49 283e
000003c0: ea5f 483d 25c7 5bbb 6706 813d 9202 c53c
000003d0: 02ad dcbc c415 6a3e 7451 953c 941f b03d
000003e0: 8e1a 97bd c7e4 f13e 7b28 dfbd 38cf 0dbf
000003f0: 202b 9bbd 2be0 4b3e 27e9 303d 5b9b 173c
0.10931002 -0.05294062 -0.039420485 0.012413895 -0.37047464 -0.0653941 -0.011902896 0.009767035
0.03428403 0.07986572 0.30643257 -0.016746074 0.1844294 0.020818818 0.2750703 -0.059576754
0.15443508 0.056468725 0.00974662 0.035839412 0.10601248 0.067834824 -0.15119897 -0.0036971401
-0.00489666 -0.00085056666 0.033101678 0.049243186 -0.17823261 0.011460952 -0.2393059 0.009546867
0.07017727 -0.0011009604 0.4740277 0.03543746 0.12770227 -0.048949737 -0.15851268 -0.08687714
0.043784596 0.055046536 -0.05952537 0.100133754 0.07546359 0.034629848 0.09449579 0.21798235
0.0884348 0.12706158 -0.12447665 -0.10969934 0.031737722 0.2429867 0.30531216 0.113054916
-0.011407072 0.38061112 0.27129087 -0.004286998 0.02195233 0.2363607 -0.24560663 -0.0481159
-0.51367956 0.044854134 0.052440617 0.034571353 0.32466114 -0.0061600828 0.07835794 0.2840758
0.07686611 -0.23142189 -0.37188068 0.077757396 -0.037660502 0.0037805357 0.02095583 0.18868119
0.07384574 0.0051734364 -0.032333948 0.044702448 0.0056472677 0.21014479 0.2193488 0.04987055
-0.039678257 0.22135419 -0.041807022 0.18491395 0.022370387 0.08786186 0.1912465 0.059957013
0.007010618 -0.017536111 0.053356085 0.08404216 0.109759286 0.06453085 -0.016213126 0.014461721
-0.14462194 0.0373155 -0.052021492 -0.3015231 -0.29228294 -0.006183119 0.10269609 0.08094005
0.116999745 0.0756716 0.20871906 -0.037777588 0.27504164 0.042630877 0.1785765 -0.19242404
0.041166432 0.10015943 0.045904208 0.028338784 -0.03631665 -0.012857325 -0.1321633 0.0068261093
-0.01195285 0.14340603 0.009289529 0.045061793 -0.05430696 0.02857701 0.033597 -0.14625065
0.21650755 -0.57159173 -0.2825261 0.0027520792 0.09266603 -0.024695383 -0.007624994 0.41347703
0.008958365 0.4392235 0.024935307 0.21579215 0.022445558 0.024460219 0.022008684 0.040647525
0.07613284 -0.11387163 -0.108060606 0.051994476 0.037408914 -0.02324063 0.013896521 0.021699969
0.0519568 0.09617639 -0.060011376 0.08493327 0.11987715 0.08116354 -0.05959882 0.03369557
0.11952873 0.21876855 0.12347532 -0.00057311746 0.022380423 0.2243732 -0.016263982 0.003665719
-0.09336861 0.21915178 0.23106466 -0.034723606 0.02391573 -0.08173194 0.06382549 0.18436539
-0.019687075 -0.0455436 -0.07941915 0.052681644 0.039044607 -0.06809573 0.22693396 -0.029472262
0.020388033 0.032685786 0.054501105 -0.07304802 -0.10683916 0.020624904 0.009339076 0.025636002
0.0063310894 0.0401642 0.1673205 -0.09570464 -0.04865186 0.111738905 0.44117934 -0.098855466
0.09242484 0.01715292 0.11942719 0.11334368 0.004869619 0.1355687 0.046754397 -0.09355928
0.031508844 -0.023266144 0.40792713 -0.46963093 0.47162774 -0.337527 0.05917415 -0.16825514
0.23352945 -0.11043943 0.10976941 0.03911902 -0.08270544 0.09707824 0.18882582 -0.28221163
0.09266722 -0.011730924 -0.03224625 0.055239156 -0.0049762214 0.024403412 -0.3428459 0.16434333
0.048919596 -0.0033535447 0.06300049 0.024049077 -0.026937965 0.22859865 0.018227316 0.08599773
-0.07378112 0.47244856 -0.10896393 -0.55394316 -0.07576585 0.19909732 0.0431911 0.009253348

actor.bias f4 [3]
00000000: 17c1 713d 8850 05bc f4f1 853c
0.059022035 -0.008136876 0.016350724

critic.weight f4 [1, 256]
00000000: dd2b adbe 30fd a73d 7afb acbe 71a5 3d3d
00000010: 5d63 713c 5a6e a4bb 1195 083d f543 2fbf
00000020: 1127 2a3d 2a25 ffbe aae1 c9be 5b01 d43c
00000030: fae8 813d c978 25bf c351 f93d 76dd febb
00000040: 792b 50be 03a9 eebe 1c97 ae3a ac30 38bd
00000050: 39d9 d3be fd19 d6bd 5c15 083f d555 2a3d
00000060: 1cb3 df3b 2d44 8b3e 1591 a7ba 28ce a83e
00000070: bc52 5d3e eec7 123d 0764 163e 08ce e83c
00000080: c31b a03b facf a43c 140b c8be 9e3c f6be
00000090: 34c2 1b3e 60f5 37bf 265e 9dbe 87a6 193d
000000a0: 1ff4 0f3d d2ff 2c3e ff9d 083d fb3a 7d3c
000000b0: feb9 113e a558 e4bc f3f0 25be 0ea3 e93e
000000c0: 1bb1 35be b854 893c 1472 bfbe b014 4a3c
000000d0: 0a66 103d 7e0c 433e 6a1a eabd 9ed7 183e
000000e0: c4d4 15be 7709 2d3e d84a 4ebe cb76 b03a
000000f0: 1203 58bd 869f adbd a57f 6b3c 6647 663d
00000100: 4e01 ef3e 97de 40bf 0894 09bf a646 e3be
00000110: 7819 eabe 7a3b 6f3d 9071 20bf e15f 323e
00000120: a69e 03be 88b8 533e 4bf2 37be 9ce1 833d
00000130: fc4a 88be 77a5 1b3d 2c5e 2e3d dcd5 9c3e
00000140: b5a9 43be c43f 873d b89a 533d 185a 1d3d
00000150: 8df0 833d e02a 57be 1388 d93c 6749 293d
00000160: ae48 1b3d 46fb d0bc c84e 083e 8a76 8a3d
00000170: 7225 cb3c a4db a7be 1346 81be e4cb 8d3d
00000180: bfa9 8c3d 329f b93c 8d39 473d 18ba 28bf
00000190: 7b06 c1bc e637 063e b2a2 78bb 5753 823d
000001a0: 923c 483d 9684 3f3c f095 03bc e9ae 6b3e
000001b0: da75 bf3e 0684 1a3d cd58 bebe 05c7 0e3e
000001c0: a2c4 fa3d 39d8 4b3d 44b9 95bd 96fc 093d
000001d0: f622 d43e 8404 5e3e 36b0 4cbe 0832 c73d
000001e0: 1e3d a5bd 2a62 153e 01c1 d33d 6b4c 983a
000001f0: b767 c33d be02 5abf 2be1 5b3d 3e97 5abe
00000200: 5538 583e 5e9c b5be 300e 1dbf 58d0 a639
00000210: b5bc 103d 4b26 603d d9d5 dd3c 4897 80bb
00000220: 115b bcbe be57 083f f2d3 c03c b7b7 41be
00000230: ddf6 793d 182f dbbb a391 13bf 7403 993d
00000240: c70c 273d 46dc 3abe c675 8e3c b209 86be
00000250: 7412 d73b 9374 3fbf 695e 17be 8392 18be
00000260: 4730 10be 60b9 413e 9527 2e3c d5b3 d8be
00000270: cb8d 173e 3bf8 c03c dfeb 0d3d 09e9 603c
00000280: ae23 da3b dd12 a73d 7274 7b3d 8557 c93d
00000290: 44eb 8bbe c8d0 49bf 4820 b73d a045 8a39
000002a0: f56c 433d c21e 993d 3096 02bf fad5 5bbc
000002b0: 985d 13bf b4ff dcbe f445 7a3b 4eaa 17bc
000002c0: f4f6 08be 194f b23d e14f 8e3e 41a9 1bbd
000002d0: 9eb0 d6bd 6338 d7bd caba 973d f871 d6be
000002e0: 7504 a23c 647a 5cbd bf85 8d3e e74e f33b
000002f0: ffc6 6b3d e867 763d 02cf 5a3e c8cd 433d
00000300: 35ea 4f3d 051d 5c3e 53d0 31bf a899 63be
00000310: 95af dbbd 7347 67bc b795 d53d d3dd 303d
00000320: 0788 b93c caaa c93d eea8 9dbd d508 47bb
00000330: 600d b6bc 6875 05bf ccc9 1bbe c805 87be
00000340: f129 17bf 363c 54be 5900 8bbd f87e a33d
00000350: d99b 743d f471 37bc 34f4 c0bc 4945 f43d
00000360: d6f7 d5bc 066d efbe f73c 0fbe f292 d73e
00000370: 836a aabb 6796 2d3e 0b5e 6f3e a8a7 b03c
00000380: 7ba1 513e afcc 9fbd 6a20 693d 9c1c d93d
00000390: 1e20 9d3c cf3a 42bf 5ef5 70bb 17ce 9c3b
000003a0: d9d6 e3be 70cf bbbe af38 f93e c420 34be
000003b0: 50c7 d83c 6dfa 8f3c 2adf 253e 77e3 4b3d
000003c0: 06f2 5c3d 6537 32be cb2c 0d3d 25f4 10bc
000003d0: 7ab2 f83c dea8 283e f181 1e3d 73a0 49bf
000003e0: 3145 aebc 2a4e 1d3e a01c 69bd c362 ad3e
000003f0: dde7 b8bb 846f c3bd 76d3 12bf 327f 213d
-0.33822528 0.082025886 -0.3378561 0.046300355 0.014733163 -0.0050180377 0.033345286 -0.6846307
0.041541163 -0.4983304 -0.3942998 0.025879553 0.06343265 -0.6463743 0.12173798 -0.007777865
-0.20329084 -0.4661332 0.0013320181 -0.044968292 -0.41376665 -0.104541756 0.5315759 0.041585762
0.0068267714 0.27200451 -0.0012784327 0.32969785 0.21613592 0.0358352 0.14686595 0.028418556
0.004886122 0.020118702 -0.39070952 -0.48093122 0.15210801 -0.7185879 -0.30735892 0.03751233
0.03514492 0.16894463 0.0333538 0.015455957 0.14231107 -0.0278743 -0.16205196 0.45632213
-0.17743342 0.01676403 -0.37391722 0.012334034 0.035253562 0.19047734 -0.11430819 0.14926001
-0.14631945 0.16898142 -0.20145738 0.0013463137 -0.052737303 -0.08477692 0.014373695 0.056220435
0.46680683 -0.75339645 -0.537415 -0.44389838 -0.45722556 0.05840633 -0.6267328 0.17419387
-0.12853488 0.20675862 -0.17963521 0.06439516 -0.2661971 0.037999596 0.042570278 0.30631912
-0.19107707 0.06603959 0.051661223 0.038416 0.06442366 -0.2101245 0.026554143 0.041329768
0.03791111 -0.025510442 0.13311303 0.06760891 0.024798129 -0.3278476 -0.25248775 0.06923655
0.06868314 0.022658918 0.04863887 -0.65908957 -0.02356266 0.13107261 -0.003793877 0.06363552
0.04888589 0.011689326 -0.008031353 0.23015942 0.373946 0.037723564 -0.37177125 0.13943107
0.12244536 0.049766753 -0.07310727 0.03368815 0.41432923 0.2168141 -0.19989094 0.097263396
-0.08068298 0.14588228 0.10339547 0.0011619454 0.095412664 -0.85160434 0.053681534 -0.21346757
0.21115239 -0.3547086 -0.61349773 0.00031817215 0.035336215 0.05472402 0.02707951 -0.003924284
-0.36788228 0.53258884 0.023538563 -0.18917738 0.061026443 -0.0066889636 -0.576441 0.07471362
0.04078367 -0.1824809 0.017390143 -0.26179272 0.006563479 -0.74787253 -0.14782108 -0.1489964
-0.14080916 0.18918371 0.010629554 -0.423247 0.14800183 0.023555866 0.034648772 0.013727435
0.0066570854 0.08157895 0.061390348 0.09831146 -0.2732793 -0.788342 0.08941704 0.00026373286
0.04771133 0.0747657 -0.5101042 -0.013417715 -0.5756469 -0.43163836 0.0038188668 -0.009256912
-0.13375455 0.08706493 0.27795318 -0.03800321 -0.10482906 -0.10508802 0.07408674 -0.41883826
0.019777516 -0.05382766 0.27641103 0.0074251774 0.057562824 0.060157686 0.2136803 0.04780367
0.050760467 0.21495445 -0.694585 -0.22226584 -0.10726849 -0.014116156 0.104289465 0.043180298
0.02264787 0.098470286 -0.076982364 -0.0030370255 -0.022223175 -0.5213227 -0.15213698 -0.26371598
-0.5904837 -0.20726094 -0.06787176 0.07983202 0.05971894 -0.011196602 -0.023553945 0.119272776
-0.026119154 -0.46762866 -0.139881 0.42104298 -0.0052006855 0.16951905 0.23375718 0.02156432
0.20471756 -0.07802712 0.056915678 0.1060116 0.019180354 -0.75870985 -0.0036767344 0.00478531
-0.44499853 -0.366817 0.4867606 -0.17590624 0.026462227 0.017575467 0.16198412 0.049777474
0.05394175 -0.17403944 0.034466546 -0.008847271 0.030358542 0.16470668 0.03869814 -0.7876045
-0.021273227 0.15361848 -0.056912065 0.33864412 -0.0056428746 -0.09542754 -0.57353914 0.039427944
