Experimenten/Experiment1Snake/PPO/ppo_snake_1600.pth (torch, 280852 bytes, 7 tensors)

shared.0.weight f4 [256, 9]
0.16988318 -0.05678864 0.4301609 -0.19864628 0.017948717 0.060530778 0.5111812 0.2737811
-0.16648634 -0.31058246 0.19609317 -0.008408241 -0.23378482 -0.039374787 -0.32384604 0.051622014
-0.22448765 -0.30610412 0.15013058 -0.0057515698 0.21249244 -0.05364765 0.05664313 -0.32891527
-0.23486573 0.10518009 -0.3417827 -0.15972921 -0.13422701 0.22513124 -0.44259223 -0.2584238
0.24588686 0.1512644 0.26781315 0.04536526 -0.22417249 -0.18421543 -0.3574898 -0.2587224
-0.3467189 -0.19860381 -0.2726516 -0.28578505 -0.048380405 0.39877325 0.22619672 0.35436207
-0.25810024 -0.011483877 -0.030035486 -0.14194421 0.37394845 0.17029633 -0.09717134 -0.21411596
0.4083491 0.3987196 -0.017795889 0.041881382 0.0641085 0.21080638 0.4834892 0.17172661
-0.045905948 -0.14883175 0.08490192 -0.015733598 0.004066902 -0.08620272 0.12733015 -0.22286151
-0.2589412 -0.2076008 0.27784088 -0.10056241 -0.12635978 -0.016004525 0.02246272 0.10620378
-0.15205091 0.038213387 -0.13323352 0.43100324 0.072078936 0.16084103 -0.10366324 -0.23078707
0.25492993 -0.39606985 -0.2700106 0.05389806 0.3106002 -0.35353065 -0.21627593 -0.048566118
-0.009711674 0.14652002 0.48594573 0.24426095 -0.14354122 -0.186361 -0.21373259 -0.08104592
-0.048225548 -0.08112951 -0.07781563 0.53620946 -0.030275065 0.28473967 0.013099391 0.20243892
0.14018528 -0.0316462 0.25672266 -0.057132598 0.5246616 0.3699595 -0.022832576 -0.23718917
0.05413277 0.28934395 0.17382269 0.048824534 -0.08911434 -0.18716282 -0.37384713 -0.31266132
0.3891155 -0.30140525 0.08378466 -0.19421934 -0.15688582 0.19262157 -0.05944553 -0.31510955
-0.33019578 0.25930053 0.24008743 0.14134808 -0.12848954 0.28114462 -0.04624162 0.18244961
-0.11547246 -0.13061333 0.3621697 0.068592824 -0.0023030692 -0.104420915 0.43006825 -0.1340699
-0.17655316 0.16250056 0.2081238 0.36680076 0.070405625 0.095454365 0.13336919 0.4413372
0.40337965 0.3898293 0.16939184 0.37839216 0.12497949 -0.10326994 0.29622105 -0.15313669
0.45475262 -0.016977275 0.055847697 -0.07592786 0.19464935 0.25464618 0.41143805 0.24795339
0.08340354 -0.036893524 0.31279835 0.18030909 0.03207617 -0.13209139 0.036933992 -0.26462176
-0.19216852 -0.056369647 -0.3256311 0.28399518 -0.23788127 0.072016194 0.15824935 0.29127708
0.045749117 -0.1895661 -0.032376636 -0.02355171 -0.10960347 0.09771089 -0.12800239 0.10113749
0.33978903 0.36279425 -0.14104615 -0.1616078 0.40095565 0.33434516 0.14904597 -0.18590385
-0.09500469 0.22750421 0.038868997 0.01430541 0.3203207 0.060482286 -0.23182705 -0.26546502
-0.38521066 0.1392659 0.0799196 0.06413503 -0.046157084 -0.21813975 0.46227807 0.37114727
-0.10475443 -0.07727637 0.14692615 0.44398317 -0.024778826 0.24239787 -0.09375546 0.32550162
0.31472957 -0.18638404 -0.16208862 0.08029784 0.06408487 -0.30578294 0.15883696 0.023035554
0.42000967 0.10962512 0.21087082 -0.36237416 -0.19999267 0.184686 -0.41668814 0.22539762
0.09476991 -0.17461932 0.27762073 -0.30144504 -0.15539227 0.2536434 0.010693465 0.2945179
00000000: dbf5 2d3e 349b 68bd 0d3e dc3e ee69 4bbe
00000010: 3009 933c 1fef 773d c5dc 023f 092d 8c3e
00000020: 657b 2abe aa04 9fbe a6cc 483e b8c2 09bc
00000030: 4a65 6fbe 7547 21bd 26cf a5be 9b71 533d
00000040: 17e0 65be aeb9 9cbe d5bb 193e aa77 bcbb
00000050: 9e97 593e a3bd 5bbd a002 683d 9567 a8be
00000060: a480 70be a968 d73d 24fe aebe 0e90 23be
00000070: ce72 09be ce88 663e 739b e2be 2050 84be
00000080: c4c9 7b3e 0ee5 1a3e ce1e 893e ecd0 393d
00000090: 798d 65be f8a2 3cbe e708 b7be 4377 84be
000000a0: 2485 b1be cc5e 4bbe fe98 8bbe 6b52 92be
000000b0: 882a 46bd 022c cc3e 1da0 673e f26e b53e
000000c0: b725 84be df26 3cbc fb0c f6bc d359 11be
000000d0: 2c76 bf3e 2962 2e3e c401 c7bd 3741 5bbe
000000e0: 2213 d13e fa24 cc3e afc8 91bc d08b 2b3d
000000f0: 514b 833d a1dd 573e e58b f73e 1ad9 2f3e
00000100: e007 3cbd 5a67 18be 0fe1 ad3d bfe3 80bc
00000110: a643 853b 0d8b b0bd d662 023e cf35 64be
00000120: f193 84be 4e95 54be 2941 8e3e aaf3 cdbd
00000130: 7564 01be ec1b 83bc bd03 b83c 5e81 d93d
00000140: 3cb3 1bbe a485 1c3d 5e6e 08be 75ac dc3e
00000150: 1f9e 933d 83b3 243e 654d d4bd 7253 6cbe
00000160: 2d86 823e abc9 cabe d43e 8abe 36c4 5c3d
00000170: fd06 9f3e f801 b5be 7077 5dbe 44ed 46bd
00000180: b71d 1fbc 5809 163e e1cd f83e 8b1f 7a3e
00000190: 78fc 12be 6bd5 3ebe b7dc 5abe 67fb a5bd
000001a0: 2788 45bd 3b27 a6bd cd5d 9fbd 0645 093f
000001b0: 6a03 f8bc 66c9 913e d49e 563c 264c 4f3e
000001c0: bb8c 0f3e 729f 01bd 2771 833e df03 6abd
000001d0: 3950 063f 556b bd3e 620b bbbc b8e1 72be
000001e0: 53ba 5d3d e424 943e 93fe 313e 3cfc 473d
000001f0: 9481 b6bd 9ca7 3fbe e468 bfbe 2515 a0be
00000200: 263a c73e ca51 9abe 4b97 ab3d 6fe1 46be
00000210: ada6 20be 973e 453e 287d 73bd 0a56 a1be
00000220: 6c0f a9be 0ac3 843e 7bd9 753e 8dbd 103e
00000230: c392 03be 30f2 8f3e da67 3dbd 12d4 3a3e
00000240: d37c ecbd 80bf 05be 4f6e b93e 657a 8c3d
00000250: 17ef 16bb a2da d5bd e831 dc3e 9f49 09be
00000260: 5aca 34be 8c66 263e 681e 553e 4fcd bb3e
00000270: d330 903d 947d c33d ef91 083e f3f6 e13e
00000280: c787 ce3e b597 c73e 0e75 2d3e 9ebc c13e
00000290: 3ff5 ff3d 317f d3bd 49aa 973e ddcf 1cbe
000002a0: 56d5 e83e ed13 8bbc 8ec0 643d 1180 9bbd
000002b0: 2952 473e fc60 823e 02a8 d23e 7ee7 7d3e
000002c0: 7acf aa3d aa1d 17bd 1b27 a03e f2a2 383e
000002d0: 4d62 033d f742 07be 1948 173d 817c 87be
000002e0: d3c7 44be dce3 66bd 1fb9 a6be d167 913e
000002f0: 2697 73be 3a7d 933d 1e0c 223e 4522 953e
00000300: 6d63 3b3d 9e1d 42be 5d9d 04bd 84ef c0bc
00000310: c977 e0bd a61c c83d 0f13 03be 2c21 cf3d
00000320: d4f8 ad3e 2bc0 b93e 676e 10be 847c 25be
00000330: 0f4a cd3e 4a2f ab3e 829f 183e 945d 3ebe
00000340: d291 c2bd ddf6 683e 1935 1f3d 3d61 6a3c
00000350: 1301 a43e 46bc 773d 1264 6dbe 08eb 87be
00000360: 553a c5be b89b 0e3e e3ac a33d 3a59 833d
00000370: 360f 3dbd 0760 5fbe b6af ec3e 0407 be3e
00000380: 7e89 d6bd 1343 9ebd cf73 163e c351 e33e
00000390: f7fc cabc 2637 783e dd02 c0bd 26a8 a63e
000003a0: 3c24 a13e 75db 3ebe 8ffa 25be 3273 a43d
000003b0: ee3e 833d 958f 9cbe 28a6 223e 0fb5 bc3c
000003c0: 820b d73e 2383 e03d 85ee 573e 1b89 b9be
000003d0: e1ca 4cbe 541e 3d3e 2658 d5be a2ce 663e
000003e0: ba16 c23d 68cf 32be 4e24 8e3e 0157 9abe
000003f0: 271f 1fbe 8cdd 813e a533 2f3c 0dcb 963e

shared.0.bias f4 [256]
0.18339507 -0.21766 -0.25462946 -0.19173656 -0.10227856 0.22603726 0.28437564 0.31100592
0.10733636 -0.3773555 0.003060543 0.24692369 0.46141994 0.09129695 -0.29324675 -0.38700524
0.13628769 0.013450638 0.22306167 0.3096359 -0.39750677 0.35654035 0.015107496 -0.3201609
-0.17261352 0.31973422 -0.04651525 -0.17532565 0.41976365 -0.2687153 -0.3067023 -0.354482
0.28308603 0.29812646 0.3716916 -0.17876615 0.37566978 0.07658955 -0.3101508 -0.16389471
0.27466676 -0.13939993 0.39506084 -0.14040077 0.5538735 0.15240721 -0.17188247 -0.08993358
0.012977011 -0.23434883 0.11763708 -0.12192749 0.17337777 0.17017274 0.026270147 -0.31422365
0.4227671 0.11173372 0.013039442 0.3195248 0.5319048 -0.10531956 0.4474926 0.26619527
-0.19118257 0.065395765 0.3351516 0.3490397 0.3974423 0.15709445 0.46808666 0.41504943
0.2689408 -0.4345461 -0.10648861 0.35790297 0.087320365 -0.3195374 0.18919596 -0.14335936
-0.31241697 0.44021505 0.15826385 -0.2170196 0.24129328 0.3679307 -0.021293094 0.05624148
-0.14244883 -0.044957094 0.12619127 -0.11654061 0.19193725 0.09547487 0.34763885 0.16996194
0.29909864 -0.0942797 -0.26912472 -0.059561092 0.124399215 -0.15689792 0.34028852 0.32421574
0.42049122 -0.06846013 0.38613895 -0.33779117 -0.059171025 -0.40466395 -0.39670768 -0.041310318
-0.22306949 -0.14356013 0.049405266 0.3718478 0.47082394 -0.29654217 0.012524906 -0.4571419
-0.42303404 -0.2688818 0.1985759 0.3067089 -0.28768513 -0.3152081 -0.3024845 0.41081667
0.26195118 -0.22430152 0.33325174 0.009814686 0.102238014 -0.2900448 0.19286765 -0.30823243
-0.2193385 -0.19997968 0.10547779 0.14560227 -0.0027847255 -0.015950497 -0.1792185 0.2936981
0.39404234 -0.4324368 0.2627838 0.12813447 0.22310136 0.29212195 0.04647373 0.33989176
-0.12679343 -0.3024287 0.10622702 0.3320793 0.25533545 0.17601518 0.018815443 0.3221893
-0.44588745 -0.25620303 0.22599341 0.45163846 0.118538305 -0.22821787 0.39237455 0.047407683
0.34133637 0.1809068 0.31984317 0.21135348 -0.24050073 -0.3849861 0.26647758 0.40216073
0.19107316 -0.09191758 0.21794055 -0.21903293 0.074073695 -0.18633533 -0.22229017 0.56952274
-0.056295536 -0.39734057 -0.013279818 0.1113204 -0.17058758 -0.19476992 -0.14325301 0.22833003
-0.21091916 -0.37905872 0.4267048 0.39947885 0.3107634 -0.07172071 0.19072166 0.4704343
-0.19260497 -0.3702368 -0.09131056 -0.27670357 -0.2430303 -0.2734739 -0.1977352 -0.29600102
-0.34243265 0.20527759 -0.27383918 0.25257435 0.02080745 0.041618846 0.51259387 -0.1321718
0.15482217 0.009502648 -0.43838072 -0.39603668 0.45705572 0.08659219 -0.23376292 0.42579398
0.24773318 -0.19423738 -0.16239782 -0.3317405 -0.36978886 0.07790656 0.4908756 0.245522
0.544289 -0.3699338 -0.25842133 0.33332288 -0.4397621 -0.13107044 0.0064616376 0.5016217
-0.26430315 0.08407837 0.0560099 0.13157944 -0.07088021 0.15531029 0.1190306 -0.25327167
0.2525797 0.14859891 0.03201679 0.44349226 -0.4365424 0.22365187 0.00061965897 0.28539658
00000000: ebcb 3b3e 43e2 5ebe cb5e 82be 9756 44be
00000010: 6c77 d1bd 5076 673e af99 913e 2b3c 9f3e
00000020: 2ad3 db3d bd34 c1be 6493 483b 90d9 7c3e
00000030: 3c3f ec3e e5f9 ba3d 7024 96be 8d25 c6be
00000040: 008f 0b3e 1160 5c3c 476a 643e 9988 9e3e
00000050: 0286 cbbe 758c b63e 6e85 773c 21ec a3be
00000060: 99c1 30be 34b4 a33e c686 3ebd 9188 33be
00000070: 43eb d63e 0d95 89be 1508 9dbe aa7e b5be
00000080: a7f0 903e 08a4 983e 5d4e be3e 790e 37be
00000090: ca57 c03e fbda 9c3d 16cc 9ebe 04d4 27be
000000a0: 1fa1 8c3e dbbe 0ebe 6a45 ca3e 38c5 0fbe
000000b0: a7ca 0d3f a310 1c3e f501 30be 192f b8bd
000000c0: 879d 543c 24f9 6fbe b6eb f03d 1fb5 f9bd
000000d0: f189 313e c341 2e3e 7e34 d73c ece1 a0be
000000e0: ee74 d83e a6d4 e43d 62a3 553c c198 a33e
000000f0: ea2a 083f c8b1 d7bd c01d e53e bf4a 883e
00000100: 5dc5 43be 37ee 853d fe98 ab3e 55b5 b23e
00000110: 8f7d cb3e 5edd 203e 0ea9 ef3e 5c81 d43e
00000120: 9cb2 893e d47c debe b316 dabd 0f3f b73e
00000130: 05d5 b23d 689a a3be 96bc 413e cccc 12be
00000140: 1ef5 9fbe de63 e13e eb0f 223e 633a 5ebe
00000150: 9615 773e 6a61 bc3e db6e aebc 775d 663d
00000160: 1bde 11be ee24 38bd 4938 013e d8ac eebd
00000170: 338b 443e 5488 c33d b8fd b13e 810a 2e3e
00000180: 7523 993e b715 c1bd b7ca 89be 55f6 73bd
00000190: 04c5 fe3d d9a9 20be 4c3a ae3e 9bff a53e
000001a0: a04a d73e d334 8cbd 01b4 c53e f7f2 acbe
000001b0: 515d 72bd 1d30 cfbe 451d cbbe 0235 29bd
000001c0: 546c 64be 6d01 13be 2d5d 4a3d d662 be3e
000001d0: d60f f13e 60d4 97be 4335 4d3c 810e eabe
000001e0: eb97 d8be e0aa 89be 7b57 4b3e f308 9d3e
000001f0: 774b 93be f562 a1be 40df 9abe 9056 d23e
00000200: 771e 863e 4caf 65be f99f aa3e c7cd 203c
00000210: 2a62 d13d c180 94be 197f 453e a4d0 9dbe
00000220: 469a 60be 79c7 4cbe bd04 d83d c318 153e
00000230: f17f 36bb 9eaa 82bc 0e85 37be 995f 963e
00000240: ebbf c93e 5b68 ddbe 998b 863e af35 033e
00000250: af74 643e 0291 953e 3d5b 3e3d 4b06 ae3e
00000260: 23d6 01be efd7 9abe 8d8d d93d 4c06 aa3e
00000270: 54bb 823e 533d 343e d822 9a3c fff5 a43e
00000280: 5c4b e4be 0b2d 83be d16a 673e 283d e73e
00000290: 36c4 f23d f2b1 69be 51e5 c83e 8f2e 423d
000002a0: a4c3 ae3e a23f 393e 7cc2 a33e 0c6d 583e
000002b0: d345 76be e61c c5be c06f 883e 03e8 cd3e
000002c0: afa8 433e 493f bcbd cf2b 5f3e 2b4a 60be
000002d0: f3b3 973d b0ce 3ebe 09a0 63be 3ecc 113f
000002e0: 2696 66bd 3970 cbbe 9893 59bc f3fb e33d
000002f0: 83ae 2ebe c471 47be ebb0 12be 59cf 693e
00000300: 31fb 57be fc13 c2be 0d79 da3e 7e88 cc3e
00000310: 611c 9f3e 4fe2 92bd 8a4c 433e c4dc f03e
00000320: 3d3a 45be ae8f bdbe 0801 bbbd 17ac 8dbe
00000330: efdc 78be c504 8cbe 197b 4abe 728d 97be
00000340: 5553 afbe 4a34 523e a634 8cbe 6d51 813e
00000350: 6374 aa3c 8678 2a3d 5a39 033f 0b58 07be
00000360: b489 1e3e ffb0 1b3c 7073 e0be 52c5 cabe
00000370: 3503 ea3e 3f57 b13d 8c5f 6fbe ab01 da3e
00000380: c4ad 7d3e 2ae6 46be 9d4b 26be e4d9 a9be
00000390: f754 bdbe 798d 9f3d 0c54 fb3e 1f6a 7b3e
000003a0: 8656 0b3f f767 bdbe cd4f 84be 4ca9 aa3e
000003b0: 7f28 e1be 5437 06be 25bc d33b 486a 003f
000003c0: be52 87be 4831 ac3d a36a 653d c3bc 063e
000003d0: a529 91bd a909 1f3e 51c6 f33d d3ac 81be
000003e0: 2052 813e 502a 183e 0a24 033d 6b11 e33e
000003f0: 7c82 dfbe ff04 653e 9c70 223a 801f 923e

shared.2.weight f4 [256, 256]
-0.0030062585 -0.040442847 -0.017087666 -0.03142311 0.023120359 0.16856685 0.11122322 0.035419863
-0.0521137 0.0055917236 0.020260891 0.020718224 0.092193045 -0.018411167 -0.07579387 -0.022153929
0.041748866 0.052724518 -0.035336323 -0.021294279 -0.09682378 0.0801948 0.06514919 -0.032692607
-0.038393404 -0.015069813 -0.06348235 -0.07296656 0.04945031 -0.035874855 -0.05315216 -0.07109743
-0.05555788 0.025915092 -0.040671654 0.060698494 -0.032935407 0.042892836 0.006168083 -0.030904202
0.030473448 -0.009087133 0.021427307 -0.02804432 0.19029969 -0.03144792 -0.03335303 0.05028509
0.05616744 0.052874915 -0.02247065 -0.00072081725 -0.0005408755 0.065575555 -0.012582555 -0.09011273
0.07370552 0.057742346 0.012703048 0.052182753 0.101294085 0.005800164 0.048512544 0.041811094
-0.018618621 0.013989853 0.03370222 0.06181678 0.08985467 -0.012701594 0.13482398 0.06658636
0.0059896344 0.005231955 0.067026846 0.01846461 -0.0026328834 -0.045431204 0.01727105 0.011768533
-0.05484824 0.067822754 0.061729424 -0.03993192 0.06307499 0.083610274 0.029298658 0.05514118
0.07070551 -0.021036267 0.0011689692 0.0037572186 -0.011084475 0.028505178 0.078664534 -0.017151117
0.045985606 -0.0032945427 -0.026847703 0.009193199 -0.005143668 0.03967457 -0.01381234 -0.03070593
0.066503644 -0.099228695 -0.017472964 -0.07536948 0.02719353 -0.033261668 -0.13082652 0.036761966
0.010487814 0.026248213 0.0789455 -0.029766526 0.09727208 -0.0047871135 0.023673585 0.06126534
-0.06257611 -0.041096557 0.073284656 0.123086825 0.03998824 -0.08168086 -0.013492382 0.08029245
0.04454246 0.057992138 0.07527514 0.009423868 0.027839595 -0.00011489109 -0.015894802 0.053931497
-0.012328493 0.07023491 0.032760564 0.037775606 0.0394774 -0.023658743 -0.025572283 -0.02802714
-0.012445639 -0.05107705 0.059738047 0.018190043 0.04755918 0.07465688 -0.0010690105 0.0040767062
0.016051836 -0.05377056 0.017322704 0.011468316 0.07419464 -0.0144982785 -0.015163292 -0.018086122
-0.07277883 -0.019609315 -0.0018823018 0.12729529 0.069941945 -0.04854106 -0.014870849 -0.020399524
0.07510781 0.05595071 -0.030315805 -0.0032752065 -0.04280841 -0.061365336 -0.009705077 0.17910038
0.030450651 0.03772762 0.052376505 -0.043924797 0.049512487 0.022648435 0.18656218 0.08821683
-0.032089163 -0.026287632 0.0050460068 -0.027230332 0.0187955 -0.030546857 0.014015478 0.09601631
-0.043871496 -0.055239048 0.010300748 -0.021057006 0.07631185 0.01669535 0.017575948 0.029168667
-0.0147363935 -0.041029762 -0.07831956 0.006826069 -0.0794662 0.057423227 0.019157708 0.009449654
-0.085583664 0.046540126 -0.050156437 0.024928305 0.05294261 -0.04151324 0.013070034 -0.0050708735
0.032546017 0.025797488 0.023730893 -0.081079155 0.08405657 0.055020973 0.034584194 0.032117687
0.03766119 0.041335423 -0.008475124 0.014027882 -0.057829972 -0.017256731 0.098174974 -0.019105544
0.09509674 0.03776321 -0.08904081 0.05292689 -0.06331234 -0.058310714 0.037891872 -0.005203272
-0.04171159 0.015985623 0.0638284 -0.016678533 0.06640341 0.025771521 0.000760415 -0.014703835
0.0558691 0.056728587 -0.046878934 0.00871308 -0.06263425 -0.06796742 0.07308217 0.056131016
00000000: a604 45bb 66a7 25bd 6ffb 8bbc 85b5 00bd
00000010: e866 bd3c ca9c 2c3e 00c9 e33d 6b14 113d
00000020: 2d75 55bd c73a b73b 2bfa a53c 44b9 a93c
00000030: b5cf bc3d 04d3 96bc d139 9bbd 287c b5bc
00000040: dc00 2b3d aaf5 573d d2bc 10bd 5771 aebc
00000050: 8c4b c6bd 2c3d a43d f06c 853d afe8 05bd
00000060: 6742 1dbd 60e7 76bc 0903 82bd 7e6f 95bd
00000070: 698c 4a3d 83f1 12bd 14b6 59bd 889b 91bd
00000080: a990 63bd e34b d43c 5297 26bd fc9e 783d
00000090: 47e7 06bd 66b0 2f3d a11d ca3b cf2a fdbc
000000a0: 74a3 f93c 33e2 14bc 5288 af3c 34bd e5bc
000000b0: ecdd 423e 89cf 00bd 309d 08bd bdf7 4d3d
000000c0: d40f 663d 5e93 583d 5e14 b8bc 3af5 3cba
000000d0: 8ac9 0dba 7a4c 863d 1027 4ebc 068d b8bd
000000e0: ebf2 963d 3d83 6c3d 7220 503c 95bd 553d
000000f0: 4673 cf3d 4d0f be3b 17b5 463d 1c42 2b3d
00000100: 1486 98bc b235 653c 570b 0a3d 9833 7d3d
00000110: ba05 b83d 591a 50bc 4c0f 0a3e 6e5e 883d
00000120: b244 c43b d270 ab3b 5f45 893d 1843 973c
00000130: 748c 2cbb 1216 3abd 047c 8d3c ced0 403c
00000140: 8ca8 60bd a8e6 8a3d fed7 7c3d a78f 23bd
00000150: 762d 813d dd3b ab3d bd03 f03c b8db 613d
00000160: 0dce 903d 4054 acbc 1938 993a ab3b 763b
00000170: a89b 35bc b183 e93c df1a a13d 8080 8cbc
00000180: 675b 3c3d 41e9 57bb b7ef dbbc 129f 163c
00000190: 378c a8bb cd81 223d 274d 62bc 018b fbbc
000001a0: 1033 883d 6a38 cbbd 7623 8fbc 505b 9abd
000001b0: f7c4 de3c 633d 08bd 63f7 05be b793 163d
000001c0: 15d5 2b3c 7e06 d73c 2eae a13d eed8 f3bc
000001d0: 9636 c73d 38dd 9cbb 1bef c13c 5df1 7a3d
000001e0: e727 80bd dd54 28bd 4416 963d f214 fc3d
000001f0: b5ca 233d 4b48 a7bd 270f 5dbc 5e70 a43d
00000200: 2872 363d 2a89 6d3d da29 9a3d 9166 1a3c
00000210: dd0f e43c aff1 f0b8 d135 82bc 46e7 5c3d
00000220: 73fd 49bc 52d7 8f3d f12f 063d 98ba 1a3d
00000230: 0eb3 213d fbcf c1bc f77c d1bc 2c99 e5bc
00000240: cbe8 4bbc 2b36 51bd e2af 743d 4903 953c
00000250: 6acd 423d b5e5 983d 0a1e 8cba e495 853b
00000260: 247f 833c 853e 5cbd 58e8 8d3c 9be5 3b3c
00000270: 5cf3 973d 308a 6dbc 756f 78bc 5929 94bc
00000280: 110d 95bd b7a3 a0bc 91b7 f6ba b259 023e
00000290: b93d 8f3d fed2 46bd dda4 73bc e71c a7bc
000002a0: 20d2 993d 922c 653d da58 f8bc d9a4 56bb
000002b0: df57 2fbd 385a 7bbd 0b02 1fbc 1766 373e
000002c0: a573 f93c 4788 1a3d bf88 563d 7dea 33bd
000002d0: 9bcd 4a3d 3689 b93c 280a 3f3e 06ab b43d
000002e0: ed6f 03bd 2959 d7bc f958 a53b 2512 dfbc
000002f0: 05f9 993c 673d fabc 2da1 653c 33a4 c43d
00000300: 99b2 33bd 5742 62bd 78c4 283c be7f acbc
00000310: 6349 9c3d b0c4 883c 6ffb 8f3c 21f3 ee3c
00000320: ea70 71bc d30e 28bd 0166 a0bd 38ad df3b
00000330: 2dbf a2bd 9e34 6b3d a0f0 9c3c b9d2 1a3c
00000340: 7d46 afbd dca0 3e3d d670 4dbd 7236 cc3c
00000350: 5ada 583d ca09 2abd b223 563c 9229 a6bb
00000360: f94e 053d 4155 d33c 4a67 c23c d40c a6bd
00000370: da25 ac3d ac5d 613d 28a8 0d3d d68d 033d
00000380: 9f42 1a3d 554f 293d 3fdb 0abc 34d5 653c
00000390: 1fdf 6cbd fd5d 8dbc f60f c93d 3b83 9cbc
000003a0: 14c2 c23d 98ad 1a3d 075b b6bd dec9 583d
000003b0: e6a9 81bd 37d7 6ebd 8234 1b3d 3680 aabb
000003c0: c6d9 2abd 48f4 823c 77b8 823d 6ba1 88bc
000003d0: 83fe 873d cc1e d33c 9656 473a 5be8 70bc
000003e0: ffd6 643d 3c5c 683d 2004 40bd 4ec1 0e3c
000003f0: 6346 80bd 8132 8bbd 1bac 953d a3e9 653d

shared.2.bias f4 [256]
0.11665125 0.028832769 0.14571974 0.013438347 0.113377765 0.11909193 -0.2812811 0.1386187
0.027970402 0.23207521 0.17783931 0.017488996 0.15913747 0.22244616 0.15289359 0.2047282
0.21367002 0.23472925 -0.022353932 0.1024588 0.2466339 0.20827001 -0.036426093 -0.047455955
0.024355184 0.019844433 -0.03378489 -0.10560107 0.1896695 -0.026607223 0.13065556 0.033856343
-0.18791647 -0.053527884 0.19403645 0.14282563 0.19616961 0.21342614 0.23179914 -0.020841457
-0.021699645 0.1713039 0.16382046 -0.0011719952 -0.19654633 0.10900279 0.15754093 -0.11201335
0.1516016 0.12082454 0.20924588 -0.11406971 0.0011030855 0.114895046 0.14859724 0.20810956
0.23558609 0.16450354 0.18445876 0.22031273 0.10806943 0.19574377 0.19643189 -0.02818574
-0.075245425 0.14866203 0.17283621 0.20235811 0.21311633 0.0282176 0.16291209 0.19812438
0.2130962 0.1923408 0.19866362 0.13792127 0.15067048 -0.019277932 -0.016603297 -0.019824302
0.16709077 -0.12734105 -0.033689033 -0.016961304 -0.18431084 0.17206372 0.22928256 -0.010259979
0.031465307 0.14253041 0.15747502 0.19438457 -0.012023662 0.1789557 0.18763621 0.116068624
0.17973875 0.0047726287 -0.040324677 0.10323264 0.10926798 0.14874661 -0.2769899 0.13114958
0.1768226 0.004343881 -0.22449654 0.19260873 -0.122601524 -0.0096018175 0.21558759 0.13468069
0.11436032 0.02168045 0.14810596 0.02767467 -0.20589018 0.078514986 0.11928545 -0.12980132
0.189692 0.065869175 0.15597239 0.13814934 0.17951047 0.13619602 0.19063073 0.15294576
0.0059024883 0.23567276 0.1967039 -0.03590522 -0.048636585 -0.12043745 -0.023824073 0.1482904
0.17623414 0.06054419 0.16184191 0.19874796 -0.12893958 -0.055095922 0.18646342 0.12479519
-0.0525889 0.2341249 -0.051605474 0.19005004 -0.08026152 0.13164715 0.22193876 0.15062954
0.17882475 0.05350421 0.0071638916 0.12551893 -0.22148645 0.011929333 -0.011518579 0.1446297
0.20406425 -0.03530699 0.12338705 -0.052973554 0.16257542 0.23910646 -0.16902319 0.0010676789
-0.13615626 0.03651234 0.23376471 -0.044615407 0.15746887 0.22150496 0.03026653 -0.060658433
0.12677744 0.14791101 0.12989259 0.15680945 0.22532901 0.17466943 -0.0035904925 0.1598247
-0.034283657 0.14302877 -0.010624549 -0.014996648 -0.02518032 0.16142313 0.14398523 -0.049475968
-0.025927095 0.007068708 0.1608274 0.21548949 0.2082463 0.1795227 0.16994542 0.037569664
-0.040835008 0.13848156 0.16815373 0.19998758 0.20379601 0.21512134 0.15808807 0.12444657
0.23171861 0.15244238 0.21211399 0.14713188 0.04546491 0.110237084 0.22309867 0.20330341
-0.044649746 0.21047929 0.16792928 0.080510855 0.15400636 0.23604958 0.07189399 0.17471462
0.16177061 0.17623499 -0.053683177 0.037919704 0.19282891 0.1373881 0.12574153 0.14566974
0.15880358 0.22622436 -0.053226914 -0.16827816 0.019205244 0.018458746 0.13372211 -0.23577102
0.0009188949 0.14868109 -0.20253192 -0.16606425 0.010195001 -0.1304248 0.19079232 0.15206225
0.11898305 0.11216795 0.13344382 -0.12156595 0.16473597 0.15007196 0.24096021 -0.030933755
00000000: dae6 ee3d b332 ec3c 8e37 153e 832c 5c3c
00000010: 9a32 e83d 78e6 f33d 1404 90be 0ff2 0d3e
00000020: 2f22 e53c 20a5 6d3e 821b 363e 1545 8f3c
00000030: eff4 223e edc8 633e 2390 1c3e 45a4 513e
00000040: 50cc 5a3e dd5c 703e 981f b7bc ebd5 d13d
00000050: 998d 7c3e bc44 553e 8733 15bd 2d61 42bd
00000060: 8684 c73c cb90 a23c 0662 0abd 6045 d8bd
00000070: b938 423e 64f7 d9bc 92ca 053e f3ac 0a3d
00000080: 2d6d 40be 0e40 5bbd 7eb1 463e e240 123e
00000090: b0e0 483e 628c 5a3e c15c 6d3e b4bb aabc
000000a0: 74c3 b1bc 4a6a 2f3e 8dc0 273e a29d 99ba
000000b0: 7143 49be db3c df3d 6952 213e 4167 e5bd
000000c0: 733d 1b3e db72 f73d 8d44 563e 619d e9bd
000000d0: 6895 903a 184e eb3d e029 183e ac1a 553e
000000e0: 7b3d 713e 9e73 283e c2e2 3c3e a999 613e
000000f0: 8153 dd3d 0e71 483e 7125 493e c8e5 e6bc
00000100: 461a 9abd dc3a 183e fafb 303e f736 4f3e
00000110: 2b3b 5a3e 9928 e73c 6dd2 263e 1ee1 4a3e
00000120: e435 5a3e fdf4 443e 7a6e 4b3e 3c3b 0d3e
00000130: 5d49 1a3e c1ec 9dbc a303 88bc 9366 a2bc
00000140: d819 2b3e b165 02be 83fd 09bd 6ff2 8abc
00000150: fbbb 3cbe 7931 303e 0cc9 6a3e 7919 28bc
00000160: c4e1 003d 7ef3 113e 2241 213e c00c 473e
00000170: e5fe 44bc 2a40 373e b523 403e 63b5 ed3d
00000180: 6f0d 383e b663 9c3b 7d2b 25bd a26b d33d
00000190: e4c7 df3d 0851 183e 9fd1 8dbe 134c 063e
000001a0: fc10 353e 1d57 8e3b 6ce2 65be 393b 453e
000001b0: 8216 fbbd f150 1dbc fec2 5c3e bce9 093e
000001c0: be35 ea3d 339b b13c 17a9 173e fdb5 e23c
000001d0: e0d4 52be 77cc a03d ee4b f43d a3ea 04be
000001e0: 9f3e 423e 6be6 863d 3ab7 1f3e 0577 0d3e
000001f0: 98d1 373e f876 0b3e b434 433e d09d 1c3e
00000200: a969 c13b 3354 713e bf6c 493e 5a11 13bd
00000210: 2837 47bd e9a7 f6bd b42a c3bc 70d9 173e
00000220: b976 343e 2ffd 773d e3b9 253e 9684 4b3e
00000230: bd08 04be 43ac 61bd 44f0 3e3e 9f94 ff3d
00000240: 7567 57bd 70be 6f3e 4360 53bd 7a9c 423e
00000250: 2760 a4bd 83ce 063e ea43 633e a13e 1a3e
00000260: d61d 373e 3b27 5b3d 14bf ea3b 0988 003e
00000270: 58cd 62be 4073 433c 6cb8 3cbc cf19 143e
00000280: 38f6 503e 109e 10bd 5ab2 fc3d ccfa 58bd
00000290: 2c7a 263e 53d8 743e 6a14 2dbe 5cf1 8b3a
000002a0: 8c6c 0bbe f78d 153d 0460 6f3e a5be 36bd
000002b0: 853f 213e 32d2 623e 84f1 f73c fa74 78bd
000002c0: f2d1 013e fc75 173e 9002 053e a892 203e
000002d0: a6bc 663e 8bdc 323e 784e 6bbb 16a9 233e
000002e0: 056d 0cbd 2276 123e 9712 2ebc 80b4 75bc
000002f0: f546 cebc 1b4c 253e dd70 133e 50a7 4abd
00000300: 0f65 d4bc 9fa0 e73b f0af 243e 47a9 5c3e
00000310: 853e 553e ccd4 373e 2c06 2e3e a6e2 193d
00000320: 9c42 27bd 1cce 0d3e 7e30 2c3e 8bc9 4c3e
00000330: e7af 503e c548 5c3e d7e1 213e d8dd fe3d
00000340: a547 6d3e db19 1c3e 6934 593e bda9 163e
00000350: 6a39 3a3d fbc3 e13d fa73 643e c52e 503e
00000360: a7e2 36bd e287 573e a7f5 2b3e e0e2 a43d
00000370: d8b3 1d3e fbb6 713e 283d 933d 64e8 323e
00000380: 32a7 253e f276 343e e4e2 5bbd b151 1b3d
00000390: f174 453e 77af 0c3e 63c2 003e 732a 153e
000003a0: 689d 223e 5ca7 673e 7704 5abd 1c51 2cbe
000003b0: 5154 9d3c cc36 973c 73ee 083e f56d 71be
000003c0: fee1 703a db3f 183e 8764 4fbe bf0c 2abe
000003d0: ef08 273c 148e 05be 105f 433e 35b6 1b3e
000003e0: 63ad f33d 4fb8 e53d 7fa5 083e 92f7 f8bd
000003f0: 8cb0 283e 77ac 193e 46be 763e c968 fdbc

actor.weight f4 [3, 256]
0.05803482 -0.024534564 0.0056450977 -0.035183642 -0.06382534 -0.06582606 -0.063977666 -0.02408267
0.03428403 0.046734765 0.059560373 -0.016746074 0.06258624 7.483958e-05 0.013599851 0.0029156262
0.10175967 0.02326766 0.00989873 -0.009348558 0.043585148 0.042083092 -0.11934042 -0.025852526
-0.00489666 0.028892932 0.030653724 -0.09816326 -0.067675196 0.011460952 -0.091140255 -0.005369059
0.01605636 -0.017868351 0.079859085 -0.00087722146 0.077908784 -0.04731856 -0.070424095 -0.017752854
0.04091446 0.059421454 0.036152996 0.039585687 0.019390237 -0.029967183 0.042092603 0.11743097
-0.018190682 -0.0026412893 -0.06566596 0.00065864134 0.031746387 0.13842641 0.07702285 0.013747764
-0.07297294 0.05268817 0.05072932 0.004261194 0.042515576 0.08593425 -0.06663837 -0.060859714
-0.13608317 -0.02152323 -0.0087061655 0.023400197 0.009729975 -0.0051194774 0.05060123 0.09779469
-0.09132359 0.0045221057 -0.009184234 0.009621907 0.011807355 0.003120767 0.022639932 0.11344362
-0.053143594 0.009615299 -0.032333948 0.044706464 0.0040267594 0.076037675 0.067522876 0.04987055
-0.039678257 0.07224577 -0.014401738 0.04407659 0.023868974 0.0033461098 -0.05236485 -0.025547104
-0.019802501 -0.017536111 0.05437777 0.016444813 0.062530644 0.04136518 -0.023823217 0.024100611
-0.035680618 0.028331976 -0.048200622 -0.08302596 -0.098801315 -0.006183119 0.07768415 -0.022882402
0.03652164 0.049719367 0.0669334 -0.02636409 0.07734738 0.013934399 -0.03296107 0.012004375
0.05615755 0.024257947 0.00060786604 -0.036243923 0.056148626 -0.025158575 -0.041768808 0.09416016
0.015024712 0.009341399 -0.020664355 0.042534113 -0.05361277 0.023757035 0.033597 -0.0034580764
0.08109236 -0.18516688 -0.026798276 -0.06897135 0.080744915 -0.05251175 0.020499405 0.010018598
0.008958365 0.022925762 0.02733126 -0.0013645 0.022445558 -8.480652e-05 0.012444505 -0.008781074
0.052278057 -0.06291287 -0.05380486 -0.0061695664 0.02176539 -0.022737697 0.014108692 -0.00037512562
0.0058929124 0.059201483 -0.09560505 0.06093616 -0.021348437 0.037756156 -0.06878359 0.018472845
0.11966064 0.019029614 0.0551016 -0.016920442 0.027663192 -0.022484979 -0.016263982 0.007630445
-0.032852005 0.05017375 0.11545246 -0.033900697 0.01711967 -0.10549433 -0.037870366 0.00288478
-0.03329978 -0.09837425 -0.021225581 0.05263623 0.060349893 0.019192703 0.12242811 -0.029472262
0.020388033 0.027750587 -0.033797152 -0.035389636 -0.08424896 -0.020848062 -0.042165507 0.025636002
0.0063310894 0.02435441 0.09454792 -0.07048789 -0.053761113 0.033997364 0.008961837 -0.09581073
0.04099913 0.07531892 0.039024606 0.048859708 -0.00068246503 0.06927612 -0.060797963 -0.021350324
0.031508844 -0.01930654 -0.01729797 -0.17104846 0.014302169 -0.07826959 0.018504819 0.023559397
0.059881084 -0.03597407 -0.02329894 0.041346062 -0.059924096 0.0091425795 0.045847833 -0.077849455
0.054948483 -0.047253214 -0.026852468 0.037297554 -0.0049762214 0.024403412 -0.09356251 0.098234065
0.048919596 -0.052754696 0.063006036 0.002512769 -0.026937965 0.076259784 -0.016628314 0.044879016
-0.06764201 0.04579824 -0.041246824 -0.021633346 -0.039495792 0.0897169 0.021466509 0.009253362
00000000: ebb5 6d3d b6fc c8bc 83fa b83b b91c 10bd
00000010: dcb6 82bd d0cf 86bd b906 83bd 0549 c5bc
00000020: 696d 0c3d f46c 3f3d 94f5 733d 102f 89bc
00000030: 372d 803d 32f3 9c38 e9d1 5e3c 1714 3f3b
00000040: 6067 d03d d29b be3c 482e 223c b22a 19bc
00000050: 5786 323d 525f 2c3d c068 f4bd adc8 d3bc
00000060: 2974 a0bb dfb0 ec3c 851d fb3c d209 c9bd
00000070: 4b99 8abd b8c6 3b3c bea7 babd eeee afbb
00000080: a188 833c a660 92bc 298d a33d 56f5 65ba
00000090: a48e 9f3d 1bd1 41bd 823a 90bd 6f6e 91bc
000000a0: ec95 273d e963 733d 2a15 143d 9a24 223d
000000b0: 46d8 9e3c bd7d f5bc 4b69 2c3d a67f f03d
000000c0: a004 95bc 7b19 2dbb e07b 86bd aca8 2c3a
000000d0: 8008 023d a7bf 0d3e 28be 9d3d 4d3e 613c
000000e0: d672 95bd 8dcf 573d 8cc9 4f3d 7ca1 8b3b
000000f0: d024 2e3d 4cfe af3d b379 88bd 0948 79bd
00000100: 6359 0bbe 7c51 b0bc 4ea4 0ebc c5b1 bf3c
00000110: 796a 1f3c 4ac1 a7bb 3c43 4f3d 9548 c83d
00000120: dd07 bbbd 2c2e 943b 7879 16bc 34a5 1d3c
00000130: a373 413c c885 4c3b 6177 b93c 2155 e83d
00000140: 19ad 59bd 7d89 1d3c 9a70 04bd 201e 373d
00000150: e8f2 833b a4b9 9b3d 6f49 8a3d 1045 4c3d
00000160: ab85 22bd 97f5 933d 44f5 6bbc a889 343d
00000170: de88 c33c 684a 5b3b 867c 56bd 2948 d1bc
00000180: db38 a2bc e4a7 8fbc 39bb 5e3d 46b7 863c
00000190: 1110 803d 896e 293d e828 c3bc a56e c53c
000001a0: d725 12bd 7618 e83c 046e 45bd 8409 aabd
000001b0: 5858 cabd c39b cabb de18 9f3d e073 bbbc
000001c0: b797 153d 89a6 4b3d 6114 893d 81f9 d7bc
000001d0: 4e68 9e3d 1b4d 643c 3002 07bd 00ae 443c
000001e0: 7605 663d 9ab8 c63c 3359 1f3a 8274 14bd
000001f0: 1afc 653d 5b19 cebc c515 2bbd 0bd7 c03d
00000200: 362a 763c ab0c 193c 4b48 a9bc 4038 2e3d
00000210: 1099 5bbd 1d9e c23c 029d 093d e5a0 62bb
00000220: c013 a63d 639c 3dbe 0f88 dbbc da40 8dbd
00000230: 975d a53d 9016 57bd 5eee a73c 0c25 243c
00000240: 1bc6 123c cfce bb3c cee5 df3c 06d9 b2ba
00000250: bfdf b73c 27da b1b8 09e4 4b3c 7ede 0fbc
00000260: 8421 563d 76d8 80bd 7c62 5cbd 132a cabb
00000270: 554d b23c 6844 babc 2528 673c 82ac c4b9
00000280: 5519 c13b 417d 723d 95cc c3bd 3298 793d
00000290: ebe2 aebc 33a6 1a3d 69de 8cbd 5d54 973c
000002a0: a310 f53d fee3 9b3c 37b2 613d bd9c 8abc
000002b0: eb9d e23c 6b32 b8bc 0b3c 85bc d008 fa3b
000002c0: d38f 06bd fd82 4d3d 5772 ec3d 75db 0abd
000002d0: 8d3e 8c3c 690d d8bd f51d 1bbd 940e 3d3b
000002e0: 5a65 08bd 7078 c9bd 45e1 adbc 1699 573d
000002f0: 7331 773d 043a 9d3c 97bb fa3d d06f f1bc
00000300: ce04 a73c 3355 e33c e26e 0abd b9f4 10bd
00000310: b88a acbd 8ec9 aabc bdb5 2cbd 9802 d23c
00000320: 0775 cf3b e682 c73c 57a2 c13d f45b 90bd
00000330: 9d34 5cbd d240 0b3d abd4 123c 6a38 c4bd
00000340: b4ee 273d ce40 9a3d 44d8 1f3d 1e21 483d
00000350: 74e7 32ba a3e0 8d3d 4907 79bd e0e6 aebc
00000360: 6b0f 013d c028 9ebc 79b4 8dbc 5427 2fbe
00000370: a553 6a3c cf4b a0bd 6b97 973c a3ff c03c
00000380: de45 753d 8c59 13bd 6bdd bebc 7d5a 293d
00000390: f872 75bd c2ca 153c f0ca 3b3d 896f 9fbd
000003a0: a911 613d 968c 41bd b5f9 dbbc 52c5 183d
000003b0: 920f a3bb aae9 c73c b49d bfbd f12e c93d
000003c0: ea5f 483d 4f15 58bd 4f09 813d 45ad 243b
000003d0: 02ad dcbc 172e 9c3d 1a38 88bc 0fd3 373d
000003e0: e587 8abd ef96 3b3d 6ef2 28bd 6a38 b1bc
000003f0: 57c6 21bd 7ebd b73d 88da af3c 6a9b 173c

actor.bias f4 [3]
0.06154718 -0.019379523 0.020644028
00000000: e518 7c3d cec1 9ebc aa1d a93c

critic.weight f4 [1, 256]
-0.04345129 0.0058893356 -0.04111861 0.055181235 -0.06392789 -0.0729728 0.10643332 -0.06599143
0.041541163 -0.035637014 -0.039433084 0.025879553 -0.06408016 -0.055440784 -0.03415751 -0.0744224
-0.062056422 -0.023331843 -0.00069657713 -0.086913384 -0.036990635 -0.05386172 0.0852051 0.008898498
0.0068267714 0.00973014 0.03248521 0.03758499 -0.039080776 0.0358352 -0.031661835 0.054168183
0.0827512 0.007927831 -0.029335521 -0.061548512 -0.086550236 -0.048674304 -0.04113432 0.040643215
0.038304925 -0.024663955 -0.06858927 0.020213813 0.120406136 -0.08520523 -0.04836505 0.07136286
-0.080902845 -0.07177152 -0.04639647 0.07332874 0.038292106 -0.030919006 -0.0452587 -0.06457857
-0.05442268 -0.03819768 -0.04556714 -0.08343613 -0.04083632 -0.056144916 -0.06386233 0.05199653
0.05292867 -0.050263863 -0.031391595 -0.06355225 -0.030226346 0.04696567 -0.04051493 -0.022415332
-0.07396943 -0.049894653 -0.028208125 -0.08973303 -0.031603992 0.040417224 0.038934514 0.044769958
-0.06513787 0.070454285 0.051661223 0.038416 0.066341035 -0.053174254 -0.10153737 0.041329768
0.03791111 -0.06918152 -0.023206951 -0.036446694 0.024950566 -0.07011533 -0.050584454 -0.08485008
-0.06573246 0.022658918 0.052926697 -0.039268177 -0.07996282 -0.032947812 0.05394871 -0.086257294
-0.08491752 0.011956401 0.106948316 -0.026767801 0.07467871 0.037723564 -0.06502356 -0.06853582
-0.063568614 0.055998374 -0.047205362 0.036657322 0.082809165 0.054766655 -0.031166203 0.057803076
-0.080757186 0.029068314 -0.06853481 -0.08512507 -0.093639486 -0.040124655 -0.06927718 -0.057547335
0.019688513 -0.033891257 -0.05986188 0.0034880524 0.038436323 0.062622376 0.02707951 -0.07441747
-0.047966287 0.010372655 -0.07735624 -0.07395265 0.054511126 0.054595776 -0.031202061 -0.06094911
0.04078367 -0.037723783 0.037208166 -0.038641147 0.006563479 -0.06796725 -0.07173044 -0.07497938
-0.044089444 0.014120873 0.012402889 -0.04160233 0.13694823 0.026174022 0.037650883 -0.07916303
-0.072186925 0.055712502 -0.050629914 0.079416975 -0.067708075 -0.04913681 0.08768528 0.050778747
0.051802322 0.010779893 -0.062326446 -0.004157012 -0.07935703 -0.034128215 0.0038188668 0.0046449113
-0.066055685 -0.063072 -0.017571045 -0.08289264 -0.083458364 -0.04269436 0.030581173 -0.029930202
0.043157496 -0.07459488 0.031945094 0.009496363 0.031282473 -0.06389629 -0.021333309 0.04780367
0.050760467 0.06995684 -0.038304973 -0.05512485 -0.05410708 -0.09410034 -0.07968331 0.043180298
0.02264787 -0.02120831 -0.037044633 -0.0751982 -0.061903074 -0.04153958 -0.03619926 -0.074245185
-0.052974194 -0.06744914 -0.036191363 -0.06596298 0.00600168 -0.07786463 -0.11883493 -0.0801236
-0.026119154 -0.05475201 -0.038861275 0.01355213 -0.049827427 -0.041830365 0.021474008 -0.06693311
-0.06409768 -0.03795848 0.013359328 0.03901375 -0.0839088 -0.046986956 -0.07035088 -0.07445079
-0.028339136 -0.035552774 0.07663212 0.13771889 0.026462227 0.017575467 -0.034123957 0.113237895
0.05394175 -0.07946651 0.03730209 0.06385057 0.030358542 0.07454849 -0.083834775 -0.050847366
-0.07889164 -0.064023465 -0.064033814 0.048296988 -0.0842729 -0.062949926 -0.050948862 0.03943903
00000000: fbf9 31bd 54fb c03b fd6b 28bd b805 623d
00000010: a0ec 82bd c372 95bd b6f9 d93d 8426 87bd
00000020: 1127 2a3d 1ef8 11bd 9684 21bd 5b01 d43c
00000030: 753c 83bd e015 63bd bfe8 0bbd c56a 98bd
00000040: e02e 7ebd 6c22 bfbc 809a 36ba a5ff b1bd
00000050: 7e83 17bd 1b9e 5cbd 0380 ae3d 01cb 113c
00000060: 1cb3 df3b 2a6b 1f3c 360f 053d b8f2 193d
00000070: 2a13 20bd eec7 123d d7af 01bd 75df 5d3d
00000080: 7679 a93d bce3 013c 0c51 f0bc 4b1a 7cbd
00000090: 4041 b1bd b55e 47bd 767c 28bd 8079 263d
000000a0: a0e5 1c3d 100c cabc 8878 8cbd 7097 a53c
000000b0: 7e97 f63d 1480 aebd 6e1a 46bd b126 923d
000000c0: 64b0 a5bd f2fc 92bd 3a0a 3ebd 612d 963d
000000d0: 2fd8 1c3d db49 fdbc 3061 39bd c541 84bd
000000e0: 51ea 5ebd 2c75 1cbd 9ca4 3abd 90e0 aabd
000000f0: fc43 27bd 36f8 65bd 41ca 82bd 50fa 543d
00000100: bccb 583d 7be1 4dbd 7994 00bd af27 82bd
00000110: 3e9d f7bc 135f 403d fcf2 25bd 5ca0 b7bc
00000120: 497d 97bd 565e 4cbd ba14 e7bc f3c5 b7bd
00000130: 3073 01bd 888c 253d cc79 1f3d b460 373d
00000140: 0167 85bd 564a 903d b89a 533d 185a 1d3d
00000150: cfdd 873d 3fcd 59bd d3f2 cfbd 6749 293d
00000160: ae48 1b3d 0aaf 8dbd 811c bebc 2149 15bd
00000170: 2165 cc3c a098 8fbd a531 4fbd e1c5 adbd
00000180: bd9e 86bd 329f b93c aac9 583d abd7 20bd
00000190: 8cc3 a3bd 49f4 06bd 53f9 5c3d aaa7 b0bd
000001a0: 3de9 adbd c8e4 433c b807 db3d 2648 dbbc
000001b0: 27f1 983d 0684 1a3d 122b 85bd 825c 8cbd
000001c0: 4330 82bd 8d5e 653d 695a 41bd fd25 163d
000001d0: da97 a93d 0053 603d 4450 ffbc ebc2 6c3d
000001e0: 0664 a5bd ac20 ee3c fa5b 8cbd 0d56 aebd
000001f0: 0fc6 bfbd c059 24bd 32e1 8dbd c1b6 6bbd
00000200: ce49 a13c 8fd1 0abd bb31 75bd cf97 643b
00000210: 686f 1d3d 2940 803d d9d5 dd3c 3068 98bd
00000220: 4c78 44bd 11f2 293c f36c 9ebd 7d74 97bd
00000230: 0f47 5f3d d29f 5f3d 779b ffbc c6a5 79bd
00000240: c70c 273d 4184 1abd 9767 183d 2e46 1ebd
00000250: 7412 d73b 6a32 8bbd 69e7 92bd ca8e 99bd
00000260: 2297 34bd 3c5b 673c 7d35 4b3c 3467 2abd
00000270: 283c 0c3e e76a d63c d037 1a3d 3a20 a2bd
00000280: bdd6 93bd cb32 643d 5061 4fbd 5ea5 a23d
00000290: 88aa 8abd ae43 49bd 5794 b33d 60fd 4f3d
000002a0: ac2e 543d 269e 303c 044a 7fbd 8b37 88bb
000002b0: f085 a2bd 07ca 0bbd f445 7a3b 5734 983b
000002c0: 3448 87bd e52b 81bd 27f1 8fbc 9ec3 a9bd
000002d0: 38ec aabd 48e0 2ebd 5e85 fa3c 2f30 f5bc
000002e0: eac5 303d 33c5 98bd dcd8 023d a296 1b3c
000002f0: 0d22 003d 0fdc 82bd 31c3 aebc c8cd 433d
00000300: 35ea 4f3d 8845 8f3d ade5 1cbd 98ca 61bd
00000310: 639f 5dbd aeb7 c0bd 0131 a3bd d3dd 303d
00000320: 0788 b93c 0dbd adbc 1dbc 17bd 8401 9abd
00000330: 148e 7dbd 6825 2abd ad45 14bd dc0d 98bd
00000340: 78fb 58bd c622 8abd 653d 14bd 9917 87bd
00000350: bea9 c43b 7e77 9fbd ba5f f3bd d817 a4bd
00000360: d6f7 d5bc a543 60bd 002d 1fbd c109 5e3c
00000370: d817 4cbd 5156 2bbd 42ea af3c 3a14 89bd
00000380: a545 83bd 5a7a 1bbd 15e1 5a3c e2cc 1f3d
00000390: 60d8 abbd 6575 40bd 1f14 90bd a879 98bd
000003a0: 7a27 e8bc c99f 11bd 4df1 9c3d 2e06 0d3e
000003b0: 50c7 d83c 6dfa 8f3c 90c5 0bbd 45e9 e73d
000003c0: 06f2 5c3d 56bf a2bd 14ca 183d 16c4 823d
000003d0: 7ab2 f83c e1ac 983d 91b1 abbd 5445 50bd
000003e0: f191 a1bd bc1e 83bd 2924 83bd 10d3 453d
000003f0: 4597 acbd e4eb 80bd c1af 50bd d28a 213d
