Experimenten/Experiment1Snake/PPO/ppo_snake_7100.pth (torch, 280852 bytes, 7 tensors)

shared.0.weight f4 [256, 9]
000000 ae 28 17 3e dc 1c 3c bd 6a 70 af 3e 1e 82 99 be
       0.14761612 -0.04592596 0.34265453 -0.29982084
000010 22 8c b7 3b f5 2c 41 3c 98 1b 1d 3f b6 9f 0e 3f
       0.005601422 0.011790504 0.6137023 0.5571245
000020 3d ab 5d bd 09 7e 03 bf ad 77 86 3e 15 91 02 3e
       -0.054118384 -0.5136419 0.2626318 0.12750657
000030 f5 42 c7 be 4a 24 b4 bc a1 e3 7b be 5c 20 b9 3e
       -0.38918272 -0.02198996 -0.24598552 0.361575
000040 92 bd 88 be e8 c3 71 be 0e ec 3d bd 4f eb 0d 3e
       -0.2670713 -0.23609889 -0.046367697 0.13859294
000050 a0 6c bd 3e b3 bf 72 be f2 f3 f0 3c 01 c1 53 be
       0.36996937 -0.2370594 0.029413197 -0.20679094
000060 c6 a2 44 bd 23 d5 38 3e d9 0e 10 bf d3 eb a9 be
       -0.048006795 0.18050055 -0.56272656 -0.33187732
000070 6e a6 ea bd 11 3e 51 3e 98 9e e1 be 95 06 65 be
       -0.11457525 0.20433833 -0.4406631 -0.22365792
000080 11 9e 7c 3e 94 76 99 3e b4 3a ac 3e 4f de 98 3e
       0.24669673 0.2997328 0.33638537 0.29857108
000090 14 2d 6c be 70 f9 9b bd 0e c6 e7 be 82 9d a9 be
       -0.23064071 -0.07615936 -0.4526829 -0.3312798
0000a0 f9 f3 9b be 5b 8f 22 be b5 c0 50 be b9 54 a9 be
       -0.30459574 -0.15874998 -0.20386012 -0.3307245
0000b0 83 06 46 3e 77 f3 ba 3e dd 0a 6e 3e 96 87 9b 3e
       0.19338422 0.36513874 0.23246332 0.3037688
0000c0 9a 28 cf be 73 07 83 bc 8c af 57 bb 6d e5 84 bd
       -0.40460664 -0.015994763 -0.003291103 -0.06489072
0000d0 3c 3f 00 3f fa 44 1d 3e e0 a3 4f be bd 75 9b be
       0.5009649 0.15358344 -0.20277357 -0.30363265
0000e0 0c 84 a5 3e 4f 09 c4 3e ea ce 17 bc 9e bb 21 3d
       0.32327306 0.38288352 -0.009265641 0.039485566
0000f0 c0 0a 27 3e 9f 36 a1 3e f7 c7 17 3f 29 b0 22 3e
       0.16312695 0.31486985 0.592895 0.15887512
000100 3a 58 b0 3c 6a 1b 02 bc 62 e3 bc 3d 6d 84 1c 3c
       0.021526445 -0.007941106 0.09223057 0.009553057
000110 f3 55 be 3b 59 0d 1b bf e3 c8 88 3e b3 5a 29 bf
       0.005808586 -0.6056724 0.26715764 -0.6615402
000120 0e cd fa be 0e e5 a5 be ce 53 c3 3e a9 c9 f9 bc
       -0.4898457 -0.32401317 0.38149875 -0.030491667
000130 62 66 d4 bc d2 30 2d b9 86 a8 15 3e f2 58 9d 3e
       -0.025927726 -0.00016516753 0.14615068 0.30731922
000140 f2 2d 33 bf 14 16 a0 3c 68 fe 88 3d 00 d0 03 3f
       -0.6999198 0.019541778 0.06689149 0.5148926
000150 8f 7c 69 be a3 47 1c 3d cc 2c cb bd d0 4b 27 be
       -0.22801422 0.038154256 -0.09920654 -0.16337514
000160 88 f8 bb 3e 58 42 33 bf d3 1b 99 be f9 23 4e 3e
       0.36713052 -0.7002311 -0.2990404 0.2013091
000170 07 cf 62 3e 8f 6e 03 bf de 28 35 be eb be 7a bd
       0.22149287 -0.51340574 -0.17691371 -0.06121723
000180 2e 96 d1 3d c4 e3 8c 3e d9 e4 4e 3f c0 3a 4d 3e
       0.102337226 0.2751752 0.80817944 0.20041943
000190 86 e1 17 be 17 b1 ae be 1b 49 84 be 14 d5 92 bc
       -0.14832124 -0.34119484 -0.25837025 -0.01792387
0001a0 12 ac d8 bd 34 9e 87 bd 4a 8f c5 3d 92 e5 87 3f
       -0.10579695 -0.06621972 0.09646471 1.0616934
0001b0 85 a8 50 3c 34 27 9b 3e 54 d8 2b bb 59 0a 90 3e
       0.012735491 0.30303347 -0.002622147 0.28132895
0001c0 7a 91 1f 3d 2a 5d 3c bc ac 06 b8 3e 60 bf 96 be
       0.038957097 -0.011496821 0.3594259 -0.29442883
0001d0 f9 0b 24 3f cf 2e cd 3e 43 96 15 be c1 9b c4 be
       0.6408077 0.40074775 -0.14608102 -0.3840008
0001e0 c4 5f 28 bd 0c 09 72 3e b4 7f 4c 3e d8 30 5e 3e
       -0.041106954 0.23636264 0.1997059 0.2169832
0001f0 40 a8 c5 3d c1 e0 2c be 8a b5 d1 be 69 99 8f be
       0.09651232 -0.16882612 -0.40958816 -0.2804673
000200 8d 36 0f 3f f1 54 d6 be 72 f8 c2 3d 03 ac 4b be
       0.5594261 -0.4186168 0.095200434 -0.19889836
000210 41 d2 76 bd 5a bf 42 3e 4c 7f a7 be f6 77 d0 be
       -0.060259108 0.19018307 -0.32714307 -0.40716523
000220 c8 7a 95 be e1 fa 7b 3e 38 c9 f6 3d b1 5a 12 3d
       -0.29195237 0.24607421 0.12050098 0.03573102
000230 ea e4 c4 bd 18 d4 f6 3e 1f 93 0f 3d f2 3a ae 3e
       -0.096139744 0.4820869 0.035052415 0.34029347
000240 cd fd d8 be 32 f0 d4 bd e0 f5 e1 3e 3b 3d 1e 3d
       -0.42381135 -0.10397376 0.441329 0.038632613
000250 cb 0b 85 bd 26 f6 ee bd 4e d5 37 3f fe 70 7b 3e
       -0.0649639 -0.11668043 0.7180985 0.24554822
000260 1b 86 84 be fb 47 2a 3e 1d 73 8a 3d 5c c8 39 3e
       -0.25883564 0.16629021 0.06760237 0.18142837
000270 59 e0 10 3e 05 40 da 3c 0f 94 87 3d 7e 16 21 3f
       0.14148082 0.026641855 0.06620037 0.62924945
000280 59 11 16 3f 23 c1 07 3f 97 1b 3c 3e e2 17 07 3f
       0.5862022 0.5302908 0.183699 0.5277082
000290 f6 2e 9e 3b 38 a0 f0 be d9 87 56 3e 6e 69 c6 bd
       0.0048273755 -0.46997237 0.2095026 -0.09688078
0002a0 64 0c 1c 3f b3 da 6b 3d 1c 38 c9 bb fd ca a4 be
       0.60956407 0.057581615 -0.006140722 -0.32186118
0002b0 c5 29 13 3e 3a f5 4a 3e ff 5d f9 3e f9 42 1d 3e
       0.14371403 0.19820109 0.48704526 0.1535758
0002c0 2c c8 2d 3d 13 cf 36 3d 84 6d 6f 3e c7 37 70 3e
       0.042427227 0.044631075 0.2338162 0.23458777
0002d0 cc ec e3 39 57 4f 9c ba 6a 62 de bd 38 ff d4 be
       0.0004347324 -0.0011925501 -0.10858615 -0.41600966
0002e0 59 07 20 be b9 92 35 bd f8 90 e1 be 75 7c 45 3e
       -0.15627803 -0.04432938 -0.44055915 0.19285758
0002f0 f0 a5 5c 3c ce 12 00 3e fa 34 9b 3e 4b bb e0 3e
       0.013467297 0.12507173 0.30313855 0.43892893
000300 a7 16 2d 3d db be 91 bd ff 85 77 bd 76 da 15 be
       0.04225793 -0.07116481 -0.060430523 -0.14634117
000310 1d 47 24 be cb da 6f 3d b3 2e c5 be 63 3e 7b 3d
       -0.16042753 0.058558267 -0.3851219 0.061338793
000320 58 74 ce 3e 1d eb 69 3e a4 64 bd bd 19 65 ef bd
       0.40323138 0.22843595 -0.09247711 -0.11689205
000330 70 9a 25 3f 53 91 15 3f 34 ba ce 3d cd 13 f0 be
       0.6468878 0.5842487 0.10094109 -0.46890107
000340 d2 c6 9d bd c4 a0 01 3f 54 94 91 bd 81 53 02 3e
       -0.077039376 0.50635934 -0.071083695 0.12727167
000350 fa cf 3a 3e e3 75 0e 3e 3f 74 93 be 50 24 91 bd
       0.182434 0.13912158 -0.28799626 -0.07087004
000360 cb 60 09 bf 79 2c 12 3e a7 82 9a 3e f1 94 0a 3d
       -0.5366332 0.14274777 0.30177805 0.033833448
000370 6a 25 78 bd 2a e1 27 be af 82 48 3f a9 2a 27 3f
       -0.060582556 -0.16394487 0.7832441 0.6529947
000380 35 1e bf 3d 1a ee 9b bd 00 da a4 3e a8 0d e6 3e
       0.093319334 -0.07613774 0.3219757 0.44932294
000390 69 1a 21 be 70 21 20 3e fc 56 e4 bd 0f c7 f5 3e
       -0.15732731 0.15637755 -0.111494035 0.48003432
0003a0 be 25 e4 3e b9 a7 c9 be 4e f8 19 3d 57 1d 10 3e
       0.44560045 -0.39385775 0.037590317 0.14073692
0003b0 32 5a 30 bd a0 5e 01 bf cb ff b4 3d b4 a8 d1 ba
       -0.043054767 -0.5053501 0.08837851 -0.0015995712
0003c0 1f e1 3c 3f d5 86 9f 3e bd 78 84 3e 82 69 13 bf
       0.7378101 0.31157556 0.25873366 -0.5758287
0003d0 f8 2d 7e bd 8b 89 ce 3e 72 9c fa be 24 f1 04 3e
       -0.062055558 0.40339312 -0.48947483 0.12982613
0003e0 7f c5 00 3e 0e 3c 2d bd c1 df 27 3e 07 86 44 be
       0.12575339 -0.0422936 0.16393949 -0.19191752
0003f0 be c2 1b be 8f 1f a3 3e fd da 39 3e 00 f9 9d 3e
       -0.15211007 0.31860015 0.18149944 0.30854034

shared.0.bias f4 [256]
000000 76 28 be 3d 58 09 84 be c5 07 94 be 14 02 85 be
       0.09285061 -0.2578838 -0.28912178 -0.25978148
000010 bf 49 e4 bd 16 89 0d 3e 71 05 09 3e 4c 03 cd 3e
       -0.111468785 0.13821825 0.13380982 0.40041578
000020 4e 6d c2 3d 15 27 bb be 3b 34 12 bd 15 32 0f 3e
       0.094935045 -0.36553255 -0.035694342 0.13983949
000030 4e cb 06 3f 0f c4 73 bd 11 ef 5b be fe 68 f5 be
       0.5265397 -0.059513148 -0.21477915 -0.47931665
000040 8f 9b 40 3d 8e 1f f8 bd f6 86 7a 3d b3 1f 45 3e
       0.047023352 -0.121153936 0.061163865 0.19250374
000050 2d e8 f8 be 3b 18 06 3f 76 04 24 be 62 22 8a be
       -0.48614636 0.5238072 -0.16017327 -0.26979357
000060 30 fa f5 bd 6f 7a b0 3e a2 fe 2c bd da e4 7f bd
       -0.1201061 0.3446841 -0.042235024 -0.06247411
000070 2b 92 09 3f 7c c7 b9 bd 0a e3 8c be bf e9 bf be
       0.5373866 -0.09071252 -0.27516967 -0.37483022
000080 d4 3b 93 3e 85 d3 c5 3d 02 d1 04 3e d3 66 2a be
       0.28756583 0.09659485 0.12970355 -0.16640787
000090 c6 60 e5 3e 41 fe be 3a fb ec c9 be 21 7f df bc
       0.44800395 0.0014571623 -0.39438614 -0.0272823
0000a0 2c d2 ef 3e 6c 1d 25 be 74 4b eb 3e 39 0d 7b be
       0.46840036 -0.16124505 0.45956004 -0.24516763
0000b0 9c bc 17 3f ae aa 96 bc 63 28 ba bc 5e 10 fd bc
       0.5927217 -0.018391933 -0.022724336 -0.030891594
0000c0 12 d3 5d be fe fe 88 be a0 f7 c4 bd a6 a5 52 ba
       -0.21662548 -0.26757044 -0.09617543 -0.0008035548
0000d0 9a d6 6e 3d f1 04 28 3e 5c 86 d7 3d 6a 2c 89 be
       0.05831013 0.16408135 0.10523674 -0.26791698
0000e0 ed a5 d5 3e b6 bb 42 3e 87 c9 71 bd fe 45 ae 3e
       0.41728154 0.19016919 -0.059030082 0.34037775
0000f0 2f f2 21 3f 67 fe 4c be 0d 17 22 3f bf df a2 3e
       0.6326017 -0.20018922 0.6331642 0.3181133
000100 60 e8 ee bd 29 47 25 3e 8c cd 94 3e 3f a1 c1 3e
       -0.11665416 0.16140427 0.2906307 0.37818334
000110 f4 75 f7 3e 1e 92 58 3e d8 b9 95 3e 04 e2 77 3e
       0.4833218 0.2114949 0.2924335 0.24207312
000120 49 98 bc 3d 9a 2f c8 be 28 4c 4c 3d 54 e2 f0 3d
       0.092087336 -0.39098817 0.049877316 0.11761919
000130 a4 91 64 3c 50 d7 84 be 0a 20 65 3e 47 91 ee bd
       0.013950739 -0.2594552 0.22375503 -0.11648803
000140 14 34 d5 be ff e5 05 3f 65 5b 44 3d e8 16 a2 be
       -0.41641295 0.5230407 0.047938723 -0.316581
000150 4f 0b b1 3e 4c e5 27 3e 00 ab c5 bd 60 47 0e bd
       0.3457894 0.16396064 -0.09651756 -0.034736037
000160 64 45 f3 bd b3 82 65 3d 84 b9 92 3d 20 de e7 3c
       -0.118784696 0.056032848 0.071642905 0.02830416
000170 89 8f 9a 3e cc a1 1b bd c5 70 f3 3e de f3 0a bd
       0.30187634 -0.0379961 0.47546974 -0.033923976
000180 6b d8 9d 3d 64 9d 12 3e 62 a4 96 be c2 be 21 be
       0.07707294 0.14317852 -0.2942229 -0.15795425
000190 84 80 e0 3d 66 15 68 be f8 7f 46 3e ba 75 b2 3d
       0.109620124 -0.22664413 0.19384754 0.08713861
0001a0 e9 c0 41 3e 70 a8 2b bd be de fc 3e 45 48 71 be
       0.18921246 -0.04190868 0.4938869 -0.23562725
0001b0 7d bc 56 bd 1d 79 ca be 49 81 8e be df 35 ee bc
       -0.05242585 -0.39545527 -0.27833012 -0.029078422
0001c0 78 0c 51 be 20 75 56 be a9 9a 54 3c f2 a6 48 3e
       -0.20414913 -0.20943117 0.012976327 0.19594935
0001d0 44 4d 0b 3f 85 a0 a1 be 9f 84 2a be 9d 01 00 bf
       0.54414773 -0.3156778 -0.16652153 -0.5000246
0001e0 1d 03 0e bf 78 30 2b be 9c ab 40 3e 62 d8 aa 3e
       -0.554735 -0.16717708 0.18815464 0.33368212
0001f0 58 80 9e be 1a c0 55 be 94 23 a8 be f7 54 d1 3e
       -0.30957294 -0.20874062 -0.32839644 0.40885136
000200 73 aa f8 3d 47 e5 a1 be 79 de 80 3e bf 7d d3 bd
       0.121418856 -0.31620237 0.25169733 -0.103267185
000210 d4 fe 72 3c 9b 43 6e be 6e fd a6 3d fe 24 bf be
       0.014831264 -0.23267977 0.081538066 -0.3733291
000220 47 09 95 be a3 c3 a0 bd 36 d5 8f bc 64 f4 5a bd
       -0.2910864 -0.07849815 -0.017557722 -0.053455725
000230 4b b5 47 be 9e 0c 0e bd 5f b0 5d bd 28 2f db 3e
       -0.19502752 -0.03468 -0.05412328 0.42809415
000240 21 a2 13 3f 0c b0 aa be 89 eb b3 3e ab 7d 44 3e
       0.57669264 -0.33337438 0.35140637 0.19188564
000250 f5 62 7f 3d ec d6 4d 3e 80 49 58 3e 81 c8 e1 3e
       0.062350232 0.20101517 0.21121788 0.44098285
000260 51 2d 76 be 2d c7 7e be de b6 7e 3e d9 6a 90 3e
       -0.24040724 -0.24880667 0.24874446 0.28206518
000270 37 49 35 3e 1e 02 c7 3e ea 8b 5c bc 4b 63 fa 3e
       0.1770371 0.38868803 -0.0134610925 0.4890388
000280 0a 41 06 bf 6d 28 9e be 41 e6 53 3e 4d 0f dd 3e
       -0.5244299 -0.30890217 0.20693304 0.43175736
000290 8a 24 ee bc 6a 54 4e be 42 f8 0a 3f 6e 6e fd bd
       -0.029070158 -0.20149389 0.5428506 -0.123745784
0002a0 ae fb 8d 3d 6c b7 37 bc f3 0b 01 3f 34 fb 81 bc
       0.0693277 -0.011213165 0.5040886 -0.015866853
0002b0 60 fd 71 be d0 98 8f be 44 01 ce 3e a9 18 d9 3e
       -0.23631811 -0.28046274 0.4023534 0.42401627
0002c0 a7 d6 85 3e bf a3 99 be 1c d9 2a 3e fe a0 f9 bd
       0.2614033 -0.3000774 0.16684383 -0.1218891
0002d0 54 47 86 bd 2c 62 23 be 61 98 8c be 52 b3 1c 3f
       -0.065565735 -0.15955418 -0.27460006 0.6121112
0002e0 32 35 a5 bd 73 f2 c8 be c3 59 08 be f5 c2 11 3e
       -0.08066787 -0.39247474 -0.13315491 0.14234526
0002f0 3a 4d 78 be 17 f4 b8 bd 46 77 83 bd 77 fa 8e 3c
       -0.2424821 -0.090309314 -0.06419234 0.017453415
000300 51 7d e3 bd e3 ab c3 be be 96 19 3f c9 44 27 3e
       -0.111078866 -0.38217077 0.5999564 0.16334833
000310 ab f7 91 3d 64 00 55 3d d1 dd 28 bd e7 5d fd 3e
       0.07127317 0.052002326 -0.041227166 0.49485704
000320 ac 3c 1c be 98 75 8c be d4 7e 49 bd 36 86 96 be
       -0.1525752 -0.27433467 -0.04919322 -0.2939927
000330 57 c7 ea bd 93 8e 5d be 9a a4 28 be cb d5 88 be
       -0.11463802 -0.21636419 -0.1646904 -0.2672561
000340 81 f9 a9 be a6 cc 0a bd f1 d6 d1 be de 61 f1 3e
       -0.3319817 -0.033886574 -0.409843 0.4714498
000350 04 bf f3 3d a1 6f f9 3d 1c fc 18 3f 77 f2 39 be
       0.11901668 0.12179495 0.5975969 -0.18158899
000360 13 bf 37 bc ce a2 81 3c 04 4f 09 bf f1 ef ec be
       -0.011214989 0.015824702 -0.53636193 -0.4627681
000370 7a 07 7f 3e 1c f3 0d be b0 4b 6f be cf 0c f3 3e
       0.24905196 -0.1386227 -0.23368716 0.4747071
000380 e5 86 b2 3d d6 ad 16 be 41 91 d9 bd fc 37 8c be
       0.08717135 -0.1471475 -0.10623408 -0.27386463
000390 dd 08 8a be 47 53 5e bd 9d 5d 18 3f 51 12 ce 3e
       -0.26959887 -0.05427864 0.5951784 0.4024835
0003a0 74 7f 2d 3f 86 0c c1 be 8f cb 92 be b1 fa 08 3f
       0.67772603 -0.37704867 -0.28670928 0.53507525
0003b0 ed c4 b5 be 49 a4 b0 bd 67 c1 9e bd 71 f9 16 3f
       -0.35501805 -0.08625085 -0.07751732 0.5897437
0003c0 1e 8c 18 be 7f 41 b9 3c ad 7e df 3d c5 85 fd bc
       -0.148972 0.022614239 0.10912833 -0.030947575
0003d0 df 82 5c be b7 67 2c 3c 7a 0c ad 3c e4 79 95 be
       -0.21534298 0.010522774 0.021124113 -0.29194558
0003e0 27 cd 6d 3d 2a e7 3c 3d 3d bd 04 be 48 44 f8 3e
       0.058056977 0.046118893 -0.12962814 0.48489594
0003f0 12 dd 02 bf 70 0a dd 3e ba fd 07 3d d7 b0 cf 3e
       -0.51118577 0.43172026 0.033200957 0.40564606

shared.2.weight f4 [256, 256]
000000 1b aa cd bd a9 3a b6 bd 2f 21 e5 bd 0e 77 90 bd
       -0.10042211 -0.08897907 -0.1118797 -0.07053958
000010 e3 05 74 bd ed ff 3c 3e 93 64 c9 3d 5b 58 e0 3d
       -0.059575927 0.18457003 0.09833636 0.109543525
000020 9e 7c 1e be 7f 4b e6 bd 94 50 6d 3d e2 49 c2 3d
       -0.15477225 -0.112448685 0.057938173 0.09486748
000030 e7 5d a6 3d 57 91 de 3c de eb cd bd 16 a5 2c bd
       0.08123379 0.027168913 -0.10054754 -0.042149626
000040 67 6d 29 bd d6 9b 16 3d ce 37 3e bd 8c 50 5f bd
       -0.0413641 0.03676971 -0.04643994 -0.054520175
000050 60 23 9e be e3 9e 3b 3d 6e db d8 3c ea 01 10 be
       -0.30886364 0.045805823 0.02647182 -0.1406323
000060 73 4c 46 bd 6b 18 7c bd 6f 7a 79 bd 67 35 2d be
       -0.04841275 -0.061546724 -0.060907777 -0.16914903
000070 a4 48 9c bd 4a c5 00 bd b9 bb 25 be 62 e8 8c be
       -0.076310426 -0.03143815 -0.16184892 -0.27521044
000080 27 71 50 bd 2e e2 0e bd e6 36 88 bd a6 6b cc 3d
       -0.05088916 -0.03488367 -0.06651096 0.0998147
000090 e5 51 46 bd 7a 3b 1f 3d 9f f0 d6 bd 96 4f 3c be
       -0.048417944 0.03887508 -0.104951136 -0.18389735
0000a0 72 c6 97 3d 72 3e 05 3e bc 00 dc bb c2 39 a1 bd
       0.07410897 0.13012102 -0.0067139547 -0.078723446
0000b0 e5 ca 1a 3e f9 3d 68 bd b2 84 18 bd 7f 71 d3 3d
       0.1511646 -0.056699727 -0.037235923 0.10324382
0000c0 f9 74 3d 3d 63 05 24 3d ae df 80 bd b6 1e b6 bd
       0.046254132 0.0400442 -0.062926635 -0.088925764
0000d0 dd 39 8f bb 3b f7 2f bd 3b 7c 5e bc e7 99 22 be
       -0.0043709115 -0.042960387 -0.013579424 -0.15879022
0000e0 76 d4 23 3d 78 2d e9 bd d9 dc 52 bc dd f3 92 3d
       0.03999754 -0.113856256 -0.012870037 0.071754195
0000f0 7a 03 b2 3d c5 93 11 bd 7e 59 8b 3c b5 bb fe bb
       0.08692069 -0.035541315 0.017010447 -0.0077738413
000100 d7 29 ed bd 28 41 1a 3d 24 85 92 3c 34 2c 86 bd
       -0.11580246 0.037659794 0.017885752 -0.065514
000110 93 a1 55 3d 5f 75 3c be 1b c3 fe 3d b0 d6 82 bb
       0.052156042 -0.18404149 0.12439557 -0.003992878
000120 90 08 07 3b 79 2d f1 bd 25 ba 4b be 42 d9 3b bb
       0.002060447 -0.11776251 -0.19895227 -0.0028663431
000130 f9 b5 fb 3c 61 15 ab bd 64 0a 04 be 29 fd ed bc
       0.03072642 -0.08353687 -0.12894589 -0.02905138
000140 d4 e5 e5 bd 0a 16 6f 3d 13 44 75 3d fa 9c 6f bd
       -0.11225477 0.058370627 0.059879374 -0.058499314
000150 0a 27 77 3d 41 38 69 3d 7b 65 32 3d 05 c3 9b 3c
       0.060339965 0.056938414 0.04355381 0.019013891
000160 59 f4 c5 3d 2a 60 37 be a6 07 1b 3d 12 79 3f 3c
       0.09665746 -0.17907777 0.03784909 0.01168658
000170 13 8d bf bd d8 c2 07 3d 0f a1 cb 3d 2b a9 8a bc
       -0.0935308 0.0331448 0.09942829 -0.016926369
000180 43 7c 7c 3d 44 75 d7 3c 5f f3 20 bc 18 c3 54 bd
       0.061641943 0.026301034 -0.009823649 -0.05194387
000190 85 4f 06 bd c8 a9 b3 3d fa 8f ac bd c5 c7 b8 bc
       -0.03279068 0.087726176 -0.08425899 -0.022556195
0001a0 63 2f 81 3d 76 a3 9a be 7b b9 f2 bd 51 66 c1 bd
       0.063078664 -0.30202836 -0.11851784 -0.094433434
0001b0 d8 2d 82 3d 17 5c 7e bd 2e 53 0b be d9 1a c1 bd
       0.063564 -0.062099542 -0.1360595 -0.09428949
0001c0 fe 25 1e 3c f4 1e a3 bd 6c 5f 25 3d c1 35 38 3b
       0.009652613 -0.07964888 0.040374205 0.0028108212
0001d0 71 62 cc 3c d9 8f 38 be bc d9 6a bd a2 5a e2 bc
       0.024949284 -0.18023624 -0.057336554 -0.027631108
0001e0 92 2c 2e be 5f 44 a2 bd 5f cc 27 bd 47 7d ab 3d
       -0.1700919 -0.07923197 -0.040966388 0.08373504
0001f0 66 43 1b 3d 59 bb 9e be 47 49 ee 3b da 24 25 3d
       0.037906073 -0.3100231 0.007271919 0.040318348
000200 67 49 8a bc c0 b1 76 3d 84 04 17 bd bf 71 3b 3c
       -0.016880704 0.06022811 -0.03686954 0.011440693
000210 03 5f fa 3b 9c c8 b8 bd 6a 70 8d bb b4 ff 19 bd
       0.007640721 -0.09022638 -0.0043163793 -0.037597373
000220 2e 04 ce 3c 5e b3 73 3d 90 8c 3f 3d 5a de 58 bd
       0.025148477 0.05949723 0.04676491 -0.052946426
000230 04 35 2e ba ee 80 44 be 01 7f d4 bd 90 78 e3 3b
       -0.0006645473 -0.19189808 -0.103757866 0.0069418624
000240 6b 97 94 bd 8d 01 3b be 67 33 96 3d af f7 fb bd
       -0.07255443 -0.1826231 0.07334023 -0.12303101
000250 84 c7 e6 bc 95 27 08 3d 06 e8 0f bd df d4 cf bd
       -0.028171308 0.033240873 -0.035133384 -0.10148024
000260 98 45 5f 3c 77 61 6a be 45 01 e2 bc 3b 84 1e bd
       0.013627432 -0.22888742 -0.027588496 -0.038700324
000270 7a 78 38 3d 25 bd dd bd 38 1d 26 3d a2 50 4c bc
       0.04503677 -0.10827092 0.04055521 -0.012470396
000280 82 41 40 be 61 15 60 bc cc 5e bf 3c 62 db 67 3d
       -0.18774989 -0.013676972 0.023360632 0.056605704
000290 0d f3 56 3d b5 b8 5f be 05 28 08 be f2 60 98 3d
       0.052477885 -0.21847804 -0.13296516 0.07440366
0002a0 2f dc df 3d 66 ef 7f 3d c6 41 68 bc 36 30 05 bd
       0.109306686 0.062484168 -0.014175838 -0.03251668
0002b0 7b a0 81 be bf e3 27 be 5d a8 d6 bd 4f 81 1a 3e
       -0.2531775 -0.16395472 -0.104813315 0.1508839
0002c0 ba ad c0 3c 70 b2 33 3d eb bf 38 3d a2 53 cd bd
       0.02352034 0.043871343 0.045104902 -0.10025717
0002d0 07 c5 2a bb 3a 20 5b 3d d1 06 f0 3e f3 9f b0 3d
       -0.002605738 0.05349753 0.468802 0.08624258
0002e0 b7 a0 98 bd 9f dd e7 bc 6a 20 7b 3c 40 cc 08 be
       -0.07452529 -0.02830392 0.015327552 -0.13359165
0002f0 74 6a dd 3c c0 82 27 be 47 58 94 bd 03 23 fb 3d
       0.0270283 -0.16358471 -0.072434 0.12262537
000300 3e 0e b2 bd 90 bd 38 be 02 86 50 bd 9b 01 81 bd
       -0.08694123 -0.18041062 -0.05090905 -0.06299134
000310 fb 01 83 3d ea 47 7d bd 88 12 8b bc 79 46 cc bd
       0.06396862 -0.06183616 -0.01697661 -0.09974379
000320 90 39 06 3c 31 11 c2 3c 41 eb 70 be dc 76 7e bd
       0.008192435 0.023689838 -0.23527242 -0.062125072
000330 72 7b 59 be 2e 77 15 bd 92 08 25 3d 5e 48 0b be
       -0.21238497 -0.03649061 0.040291376 -0.13601825
000340 3d 95 d3 bd 40 d3 1a 3c 98 ce e7 bd c9 a2 56 bc
       -0.10331199 0.00944978 -0.113187015 -0.013100334
000350 c1 36 84 3b d7 0f 04 bd 8a 5c 0d bc f6 77 f0 bc
       0.0040348475 -0.03224167 -0.00862802 -0.029354077
000360 18 e3 04 3d 39 aa 15 3d 81 6d 83 bd 0c f7 17 be
       0.032443136 0.03653929 -0.064173706 -0.14840335
000370 07 5e 50 3d c3 1d 83 bc 5b 4c 82 3d 52 79 08 bd
       0.05087092 -0.016005402 0.0636222 -0.033318825
000380 10 52 13 3d c2 e1 1f 3c 4b ea 2b bc 62 5c 1d be
       0.035966933 0.009758415 -0.0104928715 -0.15367272
000390 20 c9 fb bd e2 38 81 bc f3 89 84 3c 78 7e 83 bd
       -0.12294221 -0.015774194 0.01617906 -0.064206064
0003a0 ea 2e 84 3c 3e d2 76 be 42 94 8c bd 55 ec 82 bc
       0.016135652 -0.24103639 -0.068642154 -0.015981833
0003b0 af 31 21 be de 30 be be a4 c0 78 3d cb 14 cb bc
       -0.15741609 -0.37146658 0.06073059 -0.024790188
0003c0 8a e1 84 be f7 72 cf 3c e8 04 66 3d 02 c0 30 bd
       -0.25953323 0.025323374 0.056157023 -0.043151863
0003d0 5c db 87 3d 26 42 7a bc ee 56 86 3c a7 32 3b bc
       0.06633636 -0.01527456 0.016398873 -0.011425651
0003e0 a2 68 fe 3c 41 93 29 3d c6 f7 03 be e4 8b 91 bd
       0.031055752 0.041400198 -0.12887487 -0.0710676
0003f0 c0 ca 2f be a3 d3 c3 bd 65 61 8c 3d ba 85 12 3b
       -0.17167187 -0.09561851 0.06854514 0.002235754

shared.2.bias f4 [256]
000000 1b 60 55 3d 44 5e 86 3e ea 3f 4e bd d5 c6 39 3e
       0.052093606 0.26243794 -0.050353922 0.18142255
000010 51 eb 5c 3c 00 e2 bb bc 67 1e 88 be 09 c2 0d be
       0.013483838 -0.022934914 -0.26585695 -0.1384355
000020 2f 22 e5 3c ba 86 22 3d 4a a3 db 3d 15 45 8f 3c
       0.027970402 0.039679267 0.10724504 0.017488996
000030 8c f4 9f 3c d0 26 2c bd a7 d3 0a 3e 98 f0 70 3d
       0.019525789 -0.042029202 0.13557301 0.058823198
000040 f6 25 7d 3b 6b e1 46 3d cd f6 c0 bc 7e 14 12 bc
       0.0038627363 0.04855482 -0.023555184 -0.0089160185
000050 09 d0 a5 3d be e7 f9 3c 91 28 9a bb 4b a3 e1 3c
       0.0809632 0.030506011 -0.004704543 0.027543684
000060 86 84 c7 3c 1f f6 62 3e 74 3f 85 3c de c1 24 bd
       0.024355184 0.221642 0.016265608 -0.04022395
000070 8a 82 45 3e 64 f7 d9 bc b8 35 76 3e 6a 1a fc 3c
       0.19288078 -0.026607223 0.2404393 0.030774314
000080 cf f8 50 be 5f 7c 1d 3d 50 3e 27 3e d8 0e de bd
       -0.20407413 0.038448688 0.16332364 -0.10842675
000090 82 e7 b6 3c 05 4a 11 bd 82 7b f5 3c 3d 47 fb 3d
       0.022327188 -0.03547098 0.02996612 0.12269447
0000a0 81 c4 cb bc 41 6c 88 3e 18 58 22 3d 30 10 20 3e
       -0.024873974 0.2664509 0.039634794 0.15631175
0000b0 89 1c a2 bd 29 6b 59 bd c4 8d 0b bc 6d e1 84 3d
       -0.07915599 -0.05308071 -0.008517686 0.06488309
0000c0 f8 23 9f 3d 60 7a f2 bc 9a 92 0b 3c 09 76 6c bd
       0.07770532 -0.029599369 0.008518839 -0.057729755
0000d0 68 95 90 3a bb 19 77 3e 00 25 86 3d 57 62 34 3d
       0.0011030855 0.24130909 0.06550026 0.044039097
0000e0 9a 3b 12 3e 2c ab 50 3e 9d 5e 06 3e 57 fe 90 3d
       0.14280549 0.20377797 0.1312203 0.070797615
0000f0 30 0d 2b bd 3c 86 f0 3d cb b6 c7 3d 5f 11 61 3d
       -0.041760623 0.11744353 0.09751662 0.054948207
000100 cb d1 d0 3c 3f 90 e0 bd 73 cd a4 bc 09 09 25 bd
       0.025490662 -0.10965013 -0.020117497 -0.04029182
000110 4b 25 2c 3e 99 28 e7 3c e3 2c ab bd 9b 55 90 3e
       0.16811101 0.0282176 -0.08358171 0.28190312
000120 37 a4 06 3e 8b f1 bc bb d1 dd 0a 3e 76 99 13 bb
       0.1314858 -0.005766099 0.13561179 -0.002252189
000130 1b 26 f3 3d f8 ca b6 bc 1f 13 0c bd e6 fd 30 3e
       0.118725024 -0.02231358 -0.034197923 0.17284355
000140 2a 11 b2 3d c6 35 09 be 83 fd 09 bd e7 b3 8c bc
       0.0869468 -0.13399419 -0.033689033 -0.017175628
000150 84 68 44 be e6 e2 32 3d 31 52 9d 3d 79 19 28 bc
       -0.19180495 0.04367342 0.076816924 -0.010259979
000160 c4 e1 00 3d ee cb 47 3d 8c 7c 7b 3e 81 40 8f 3e
       0.031465307 0.048778467 0.2455923 0.279789
000170 0d 59 57 bc fc bb 07 3e fb 6f 05 3e 2b 06 45 bd
       -0.01314379 0.13255304 0.13030998 -0.048101585
000180 f0 a1 02 bc b6 63 9c 3b 00 ee 0a bb dc 1c 07 be
       -0.007973179 0.0047726287 -0.0021198988 -0.13194603
000190 92 4d 24 bd a2 47 80 3e 6a 20 a2 be 5b 7b 83 bd
       -0.04011304 0.25054651 -0.31665355 -0.064200126
0001a0 8e f2 20 3d f4 e5 7d bc 63 43 43 be 74 b1 78 3e
       0.03929382 -0.01549672 -0.19068675 0.24286443
0001b0 6f c8 40 bc f1 50 1d bc a5 44 36 bd 3a 70 d7 bc
       -0.011766537 -0.0096018175 -0.04449906 -0.026298631
0001c0 a6 74 62 bd c5 70 df 3d 8d bd c3 3c ce ce 53 3e
       -0.055287026 0.10910181 0.023894096 0.20684358
0001d0 24 7f b1 bd f9 4e 98 3e c8 89 ad 3d d7 72 06 bc
       -0.08666828 0.2974775 0.08473545 -0.008206091
0001e0 0a d8 fe 3c 58 61 98 3e 9a fa 81 bc bd 57 aa bc
       0.031108875 0.29761767 -0.015866566 -0.02079379
0001f0 06 2d 56 3d c7 e2 f1 bd 04 93 98 3d 38 88 2f 3d
       0.05228903 -0.118108325 0.07449916 0.042854518
000200 31 c5 43 3e 1c 26 4c 3e e4 9f 68 bd 26 dc 1f bd
       0.19118191 0.19936413 -0.05679311 -0.03902831
000210 0b 33 54 bd c3 e7 01 be b4 2a c3 bc a6 7e 69 39
       -0.05180649 -0.12686066 -0.023824073 0.00022267792
000220 ad 4e 14 bd da c1 89 3e 11 b5 28 3d 1a ea ab 3d
       -0.036207844 0.2690571 0.041188303 0.08394261
000230 2f 72 3e be de c7 78 bd ce 8c 81 bd c7 9c 49 3d
       -0.18598245 -0.060737483 -0.063256845 0.04922178
000240 75 67 57 bd d1 5a 33 3e 43 60 53 bd 43 88 16 3e
       -0.0525889 0.17515112 -0.051605474 0.14700417
000250 27 60 a4 bd 6e ec 1d be d7 2c 5e 3d 51 6e f5 3c
       -0.08026152 -0.15422222 0.05424198 0.02995983
000260 d9 91 1c 3c 7c e5 99 3e f9 e2 ba 3d dc 51 8b bd
       0.009556257 0.30057895 0.09125323 -0.06802723
000270 a1 92 79 be 3e e8 0f 3c 12 8f 41 bc ec 5e 2b bc
       -0.2437234 0.008783398 -0.011813896 -0.010459643
000280 9e e4 50 3d 61 f4 2b 3e 29 59 5b 3b 8e c0 90 3d
       0.050999276 0.16792442 0.0033469892 0.07067977
000290 05 62 ef 3d a3 0e 98 bc ef 91 2f be 5c f1 8b 3a
       0.116886176 -0.018561667 -0.17145513 0.0010676789
0002a0 bd 1b 0f be 32 ea c9 3d 66 4b 88 bc ab 2e a8 bd
       -0.13975425 0.09859122 -0.016637515 -0.08212026
0002b0 08 83 b1 bd 26 39 0f 3e 84 f1 f7 3c fa 74 78 bd
       -0.0866757 0.13986644 0.03026653 -0.060658433
0002c0 0b a7 82 3d 83 5a 87 bc 85 f8 61 3e d9 d0 ff ba
       0.06379517 -0.016522652 0.22067459 -0.0019517198
0002d0 06 4c 96 3d d1 94 e7 3d 32 21 fa 3d 3b e7 f8 3d
       0.07338719 0.11307681 0.12213363 0.12153479
0002e0 12 19 c1 3d b3 de ce 3b 74 14 48 3e d6 5b 94 bc
       0.0942861 0.006313169 0.19539052 -0.018110197
0002f0 f5 46 ce bc cf 63 d7 3c f7 7c 6c 3e 50 a7 4a bd
       -0.02518032 0.02629271 0.23094545 -0.049475968
000300 0f 65 d4 bc a9 f6 80 3e 26 4a 84 bd 64 40 9c bb
       -0.025927095 0.25188187 -0.06459455 -0.004768418
000310 57 02 8a 3d 8a a2 bc 3c e0 d0 10 bb a6 e2 19 3d
       0.067387275 0.023026723 -0.0022097155 0.037569664
000320 9c 42 27 bd 43 0e 79 3e 9f c5 bb 3c 90 48 6c 3d
       -0.040835008 0.24321847 0.022921382 0.05768639
000330 f3 be 91 3d d5 27 ad 3c 48 30 ef 3d 79 bb 9a 3c
       0.07116499 0.021137157 0.11679131 0.018888222
000340 fc f6 0b bd 55 fc 97 3d 70 bf e5 3d 00 e3 20 bc
       -0.03417109 0.074211754 0.112181544 -0.009819746
000350 22 2f 19 3e f4 c8 0e bd 3f 6b 85 3d 1a 57 37 3c
       0.14959386 -0.034859613 0.06514596 0.0111902
000360 a7 e2 36 bd c8 5c c2 bc c4 8f f1 3d 21 80 98 3e
       -0.044649746 -0.023725882 0.11794999 0.29785255
000370 31 ea 64 3d 5f cb 31 3e 7d 46 8d 3e c6 2c 5c 3d
       0.055887405 0.17362736 0.2759284 0.053753637
000380 dc 63 4f 3c 8b ee 91 3c 00 31 89 3d 54 30 6f 3e
       0.012658086 0.017813941 0.06698799 0.2335828
000390 4d 84 6c 3d 69 26 e3 bd be 21 8f bc ad 07 15 3c
       0.05774336 -0.110913105 -0.017472144 0.009096068
0003a0 91 b7 99 bc 48 02 5d 3d cb 76 ae bb 0b f2 1d be
       -0.01876429 0.053957254 -0.00532422 -0.15424363
0003b0 51 54 9d 3c cc 36 97 3c db ad 20 3e c1 60 39 be
       0.019205244 0.018458746 0.1569132 -0.18103315
0003c0 fe e1 70 3a ca 2c e0 bc 6c 60 52 be 65 30 18 be
       0.0009188949 -0.027365107 -0.20544595 -0.14862211
0003d0 ef 08 27 3c d6 e2 0b be 9f b5 f2 3c 3c 49 0f be
       0.010195001 -0.1366075 0.02962762 -0.1399278
0003e0 a2 8b 97 bc 9e 28 e5 3c 86 63 39 3d db 9e ac bc
       -0.0184992 0.02797347 0.04526093 -0.021071842
0003f0 58 db 8f 3c 89 ac e3 3c e0 16 e7 bc 98 1a 02 bd
       0.017560646 0.027792232 -0.02820915 -0.031763643

actor.weight f4 [3, 256]
000000 d7 4c 0f 3e 27 78 49 bd eb ec 2a bc 3d 52 ec bb
       0.13994156 -0.04918685 -0.010432462 -0.007211952
000010 2d 05 5b be 89 51 9d bd 88 4f 03 bd 73 b4 ab bc
       -0.21388693 -0.07681567 -0.03205827 -0.020960068
000020 69 6d 0c 3d 8d 49 81 3d 69 29 71 3e 10 2f 89 bc
       0.03428403 0.06312857 0.23550953 -0.016746074
000030 cc c4 0c 3e cc 42 1e bc 25 70 2e 3e b5 16 45 bc
       0.13746947 -0.00965948 0.17034967 -0.01202934
000040 43 66 15 3e 90 07 f5 3c a5 a2 23 3c 5f 13 93 3d
       0.14589791 0.029910833 0.009987508 0.07181429
000050 52 54 f7 3d fc ec 8a 3d dc 60 44 be 2f 5e de bc
       0.1207663 0.067834824 -0.19177574 -0.02714452
000060 29 74 a0 bb 1f c1 46 3d 9b f6 0d 3d 3c 77 e6 3c
       -0.00489666 0.04852402 0.03465901 0.028133027
000070 66 ba 2e be b8 c6 3b 3c b7 c1 69 be 5f dc af bb
       -0.17063293 0.011460952 -0.22827803 -0.0053668465
000080 1a b9 8f 3d bb 00 53 3b dd ac b8 3e 4c 98 e5 bb
       0.07017727 0.003219648 0.36069384 -0.0070066806
000090 34 40 0a 3e 5d d8 78 bd 3e 3d 36 be 06 7f 68 bd
       0.13501054 -0.060753215 -0.177968 -0.056761764
0000a0 7a 57 33 3d c1 f3 b7 3d 0b 1f 45 3b 9b dc 96 3d
       0.043784596 0.08982039 0.0030078318 0.07366296
0000b0 be 6b 83 3a 9b 91 38 bb 02 87 c1 3d c2 34 57 3e
       0.0010026617 -0.002816296 0.09449579 0.2101622
0000c0 4b aa d8 3d ca ec a3 3c cf 62 e8 bd 5c 15 91 bd
       0.10579356 0.02001037 -0.11346971 -0.07084152
0000d0 80 08 02 3d 72 81 7a 3e e0 51 9c 3e 8e b8 c4 3d
       0.031746387 0.24463442 0.30531216 0.096055135
0000e0 ba 8b 08 3d 5b 72 af 3e bc ba 5f 3e 79 d1 1b bc
       0.03333638 0.34266934 0.21848577 -0.009510391
0000f0 aa 76 fc bb 80 26 2f 3e 4d 1c ec bd 2e 48 a3 bd
       -0.0077045755 0.1710453 -0.115288354 -0.079727516
000100 84 81 e6 be e4 8d 8e bb 8e 9c 24 3d fe 6d 2d bc
       -0.45020688 -0.004350411 0.040188365 -0.010585306
000110 8f ff 5a 3e 4a c1 a7 bb 0f 5c 9c 3d 1b 20 89 3e
       0.2138655 -0.0051194774 0.07634746 0.26782307
000120 b1 35 59 3d a6 6c 22 be e6 cd 9f be c8 3c 24 3d
       0.05302972 -0.15861759 -0.31211776 0.040097028
000130 2b 1c 5b bd dd c2 77 3b 90 ab ab 3c 33 5a 48 3e
       -0.05349366 0.0037805357 0.02095583 0.19565658
000140 0c f9 92 3d ee 85 a9 3b 9a 70 04 bd ea 19 37 3d
       0.07176408 0.0051734364 -0.032333948 0.044702448
000150 b7 0c b9 3b 27 6f 51 3e a4 e8 14 3e 10 45 4c 3d
       0.0056472677 0.20452558 0.1454187 0.04987055
000160 ab 85 22 bd d1 86 56 3e b8 02 81 bd df 1d 1a 3e
       -0.039678257 0.20949866 -0.06299347 0.15050457
000170 1a 42 b7 3c d0 b8 4b 3d a5 60 d1 3d 33 e5 90 3c
       0.022370387 0.049736798 0.102235116 0.017687416
000180 f9 88 13 3d e4 a7 8f bc be 34 6b 3d 34 67 89 3d
       0.0360193 -0.017536111 0.057423346 0.067091376
000190 b1 24 c9 3d fe 4d 9c 3d cc d3 85 bc 5b 32 61 3d
       0.098214515 0.07632063 -0.016336344 0.054979663
0001a0 95 42 cc bd c2 f5 26 3d 43 09 18 bd d3 b3 95 be
       -0.09973637 0.040761717 -0.037118208 -0.29238757
0001b0 66 32 90 be c3 9b ca bb f1 ec b5 3d 61 2d 4b 3d
       -0.2816345 -0.006183119 0.088830836 0.049603824
0001c0 18 23 cf 3d 6a b7 86 3d 73 ba 55 3e 01 0f 29 bd
       0.101141155 0.06577952 0.20871906 -0.041274074
0001d0 75 c6 06 3e 3a 25 29 3d 28 48 fc 3d 5a a0 05 be
       0.13161643 0.041295268 0.1231845 -0.1304945
0001e0 65 b0 18 3d 48 34 bc 3d 19 8a c5 3c 40 98 b3 bb
       0.037277598 0.09189659 0.024113702 -0.005480796
0001f0 48 e5 55 3d c7 92 b4 bc ca ff c6 bd 28 f0 27 3d
       0.052220613 -0.022042645 -0.09716757 0.041000515
000200 13 98 b6 bc de 16 de 3d 16 36 5a bc b7 92 38 3d
       -0.022289312 0.10844205 -0.013318559 0.045061793
000210 fa 70 5e bd 55 1a ea 3c 02 9d 09 3d bf 13 ff bc
       -0.05430696 0.02857701 0.033597 -0.031137345
000220 95 7b 2d 3e f8 10 12 bf bb 59 fa bd 72 27 0f bd
       0.16941674 -0.5705714 -0.12224146 -0.034949727
000230 b0 c7 bd 3d d9 2e 04 bd 41 80 d1 bc a1 69 cf 3d
       0.09266603 -0.03227124 -0.025573852 0.10127569
000240 1b c6 12 3c 61 b2 92 3e ce e5 df 3c 7c 8a 63 3e
       0.008958365 0.28651717 0.02733126 0.22220796
000250 bf df b7 3c 8a 26 51 3c 88 2e 16 3b 60 8c 18 3b
       0.022445558 0.012765536 0.0022915918 0.002327703
000260 1c ec 9b 3d a5 3c f3 bd 5b 04 d1 bd 78 b3 89 3d
       0.07613394 -0.118768014 -0.10205909 0.06723684
000270 29 9f 59 3d 22 63 be bc 3c ae 63 3c f6 bf 31 3c
       0.053130303 -0.02324063 0.013896521 0.01084899
000280 eb f8 ed 3c d2 9a a4 3d b7 e0 42 bd 9f dc 3e 3d
       0.029049357 0.08037342 -0.047577586 0.04659712
000290 1e 8a c4 3d 53 d2 84 3d e4 1d 74 bd 5d 54 97 3c
       0.09596656 0.06485429 -0.05959882 0.018472845
0002a0 7b cb f4 3d e1 82 00 3d 87 32 9e 3d 8d ec 13 ba
       0.11952873 0.031374816 0.07724481 -0.0005642854
0002b0 cc 4a cc 3c 03 f1 c7 3d 0b 3c 85 bc d0 08 fa 3b
       0.02493801 0.09762766 -0.016263982 0.007630445
0002c0 f8 cc 9c bd ba cd 04 3e c5 50 7b 3e 64 e4 05 bd
       -0.07656282 0.12969103 0.2454253 -0.032688513
0002d0 46 12 09 3c cf 01 23 bd 83 4a 4b 3d 0f f0 0c 3e
       0.008366173 -0.039796647 0.049631607 0.1376345
0002e0 27 f0 9d bc 81 8d ec bd 9c 3a b5 bd b5 c8 57 3d
       -0.019279553 -0.11550427 -0.088490695 0.052681644
0002f0 73 31 77 3d b8 5d 57 ba e0 d3 78 3e d0 6f f1 bc
       0.060349893 -0.00082155643 0.24299574 -0.029472262
000300 ce 04 a7 3c b6 a3 09 3d 1e 83 f4 3c 00 a9 12 bd
       0.020388033 0.033603393 0.029847678 -0.035805702
000310 9a 40 e1 bd a5 dc d0 3a af 13 76 bc 98 02 d2 3c
       -0.1099865 0.0015934898 -0.015019341 0.025636002
000320 07 75 cf 3b fc a8 c2 3c 11 56 2b 3e 7b 13 a8 bd
       0.0063310894 0.023762219 0.1673205 -0.082068406
000330 2c 47 47 bd 31 24 85 3d 43 37 9f 3e 3d 79 90 bd
       -0.04865186 0.065010436 0.3109685 -0.07054374
000340 a4 3d 9f 3d 39 84 59 3d 3e 96 f4 3d 11 db f0 3d
       0.07775429 0.053104613 0.11942719 0.117605336
000350 5c 80 1b 3b 6c f8 f4 3d 6f 1d 27 bd 30 fe 03 bd
       0.0023727631 0.11961445 -0.040799554 -0.032224834
000360 6b 0f 01 3d 15 fb 8e bc 37 c1 8c 3e 11 b0 ee be
       0.031508844 -0.01745371 0.2749116 -0.46618703
000370 5d cc 59 3e 87 8f 58 be d4 19 90 3d 7c 4b 2a bd
       0.21269365 -0.21148501 0.07036176 -0.041575894
000380 c1 4d 24 3e 11 2e e2 bd c8 bd be 3d 15 c3 14 3d
       0.16045286 -0.11043943 0.09313542 0.036318857
000390 93 98 7a bd d8 b4 99 3d 5d c3 07 3e b3 4f 0a be
       -0.061180662 0.07505196 0.13258119 -0.13506965
0003a0 a0 19 e9 3d 03 ad 53 bc db 7b 61 bd a4 1e 7c 3c
       0.11381841 -0.012919667 -0.05504976 0.015388165
0003b0 92 0f a3 bb aa e9 c7 3c b4 e7 a7 be 01 fe 14 3e
       -0.0049762214 0.024403412 -0.32793963 0.1455002
0003c0 ea 5f 48 3d 74 bb 6b bd 67 06 81 3d 34 cf df bb
       0.048919596 -0.057551816 0.06300049 -0.0068301205
0003d0 02 ad dc bc d1 b1 5f 3e d5 f6 d5 3b ff d8 9b 3d
       -0.026937965 0.21845175 0.006529669 0.07609748
0003e0 6d 88 b5 bd 07 72 38 3e 18 0e cd bd 5d 0c 9a be
       -0.08863912 0.18012248 -0.10012454 -0.30087557
0003f0 91 30 84 bd dd c8 08 3e 7e 1f 13 3d 5b 9b 17 3c
       -0.06454576 0.13357873 0.035918705 0.009253348

actor.bias f4 [3]
000000 82 e6 4a 3d bb 4a 5d 3a 1c cd 8c 3c
       0.049536236 0.00084416167 0.017187648

critic.weight f4 [1, 256]
000000 1d 10 b3 bd 96 7c c8 3d e9 bb 8f be d5 c8 a2 3d
       -0.08743308 0.09789388 -0.28073052 0.07948462
000010 61 8f 06 3c 8a 68 91 bc fc 75 30 3d 58 06 1d bf
       0.008212895 -0.017750043 0.04308127 -0.61337805
000020 11 27 2a 3d 1a 6d ef be 0d dc 9a be 5b 01 d4 3c
       0.041541163 -0.46762925 -0.3024601 0.025879553
000030 a1 2d 3e 3a 86 4c 09 bf 96 a5 e8 3d 84 a5 7d ba
       0.0007254724 -0.5363239 0.11359708 -0.0009675848
000040 17 ce 57 be 7f f8 dd be 3a 77 d0 ba bb a9 31 bd
       -0.21074711 -0.4335365 -0.0015904673 -0.04337476
000050 01 31 c4 be fd 19 d6 bd 9d e8 e6 3e 12 4c e0 3c
       -0.38318637 -0.104541756 0.45099345 0.027380023
000060 1c b3 df 3b bd 98 8b 3e 8d 01 20 3d 7e 71 84 3e
       0.0068267714 0.27264968 0.03906398 0.25867838
000070 70 04 4f 3e ee c7 12 3d 17 06 1b 3e d4 d6 58 3d
       0.20216537 0.0358352 0.15139042 0.05293925
000080 c3 1b a0 3b 74 f7 88 3d 25 ec 7a be e1 c3 de be
       0.004886122 0.06687823 -0.24504144 -0.4350882
000090 c3 a3 31 3d 0b 89 1c bf b5 d0 96 be 9f cd 51 3d
       0.043369066 -0.6114661 -0.29456106 0.051221486
0000a0 1f f4 0f 3d 2e 73 27 3e e2 ca 87 3c 95 ee 3b 3d
       0.03514492 0.16352531 0.016576234 0.045881826
0000b0 f9 f2 91 3c fe 32 8a bc f3 f0 25 be 18 ee e6 3e
       0.017816054 -0.016870018 -0.16205196 0.45103526
0000c0 b5 a1 e0 bd c3 8b ab bc 60 c9 97 be e6 e9 ac 3c
       -0.10968343 -0.020940667 -0.29645824 0.021107625
0000d0 2f d8 1c 3d af 53 4d 3e 6a 1a ea bd d3 6f 99 3a
       0.038292106 0.20051454 -0.11430819 0.00117063
0000e0 42 4f e5 bd 62 6f 2a 3e 76 eb 85 bd 98 f1 e8 bc
       -0.11196758 0.16644052 -0.06539051 -0.028435513
0000f0 3e 49 bd bd d7 1c 17 bd af 2b a7 b7 bb d9 b2 3d
       -0.092424855 -0.03689274 -1.9928293e-05 0.08732935
000100 19 0b ca 3e 29 1e 2b bf 56 c4 01 bf 93 aa bf be
       0.39461592 -0.66842896 -0.5069021 -0.37434825
000110 a4 e9 9e be 13 5f 40 3d 33 ae 1a bf 23 b0 2e 3e
       -0.3103763 0.04696567 -0.60422057 0.17059378
000120 c0 65 d4 bd 69 db f2 3d b9 b2 a9 bd 5f 80 df ba
       -0.1037097 0.118582554 -0.08286042 -0.0017051807
000130 2c 6c 18 be 77 a5 1b 3d 2c 5e 2e 3d c6 ac 9f 3e
       -0.14885014 0.037999596 0.042570278 0.31186503
000140 e4 9a a5 bd c4 3f 87 3d b8 9a 53 3d 18 5a 1d 3d
       -0.08086184 0.06603959 0.051661223 0.038416
000150 8d f0 83 3d 4f c3 57 be 4b d9 d3 bc 67 49 29 3d
       0.06442366 -0.21070598 -0.02586045 0.041329768
000160 ae 48 1b 3d 6b 94 1f bd 08 47 02 3e a9 92 b0 3d
       0.03791111 -0.0389599 0.12722409 0.08621723
000170 72 25 cb 3c b0 20 3c be d9 b0 04 be a0 4e dc bb
       0.024798129 -0.18371844 -0.12958087 -0.00672324
000180 78 88 14 3d 32 9f b9 3c 2e 01 66 3d 82 60 1a bf
       0.03626296 0.022658918 0.05615347 -0.6030351
000190 b0 e4 46 bd d0 fe 0f 3e 87 db a5 bb 19 ab 27 3d
       -0.048557937 0.14062047 -0.00506157 0.040934656
0001a0 4d 6c 45 3c 24 6b 54 3c 95 cb f1 bb e2 77 6c 3e
       0.012049747 0.012964997 -0.007379005 0.23092607
0001b0 12 44 a8 3e 06 84 1a 3d b3 ed 95 be 57 87 2d 3d
       0.32864434 0.037723564 -0.29282913 0.0423654
0001c0 7b 9a 5f 3c 93 1d ae 3d 44 b9 95 bd 7c a7 70 3d
       0.013647671 0.085017346 -0.07310727 0.058753476
0001d0 07 1c 4f 3e d4 ed 64 3e 60 49 29 be 7a d6 88 3d
       0.20225535 0.22356349 -0.16531897 0.06681533
0001e0 8f 24 ad bd b4 d1 20 3e 06 f5 1e 3d b9 d1 6c bc
       -0.084542386 0.15704995 0.03880789 -0.014454299
0001f0 20 5d 1b 3d e1 0e 35 bf 65 d1 92 3c af d6 59 bd
       0.037930608 -0.7072583 0.017922113 -0.053183254
000200 f5 98 36 3e 9c 7e 92 be 8d 7c 00 bf 58 d0 a6 39
       0.17831786 -0.2861222 -0.5019005 0.00031817215
000210 b5 bc 10 3d 4b 26 60 3d d9 d5 dd 3c de 48 e5 3b
       0.035336215 0.05472402 0.02707951 0.006997212
000220 80 aa 8c be ff 15 0a 3f 8c 40 49 3c 98 a3 b4 bd
       -0.2747383 0.53939813 0.012283456 -0.088202655
000230 dd f6 79 3d 23 e4 8c 3d 16 ef 04 bf 7d a6 43 3c
       0.061026443 0.06879451 -0.51927316 0.011941549
000240 c7 0c 27 3d ff 24 09 be 97 67 18 3d 41 cd 11 be
       0.04078367 -0.13393019 0.037208166 -0.14238454
000250 74 12 d7 3b 76 0c 2f bf f9 42 db bd 88 e9 9e bc
       0.006563479 -0.6837839 -0.107061334 -0.019398466
000260 c6 40 10 be 44 dd 4f 3e d3 73 ed 3c b1 4d b2 be
       -0.14087209 0.2029925 0.028985893 -0.348249
000270 3d 11 b2 3d 3b f8 c0 3c bd 37 1a 3d 3d 7f 88 bc
       0.08694694 0.023555866 0.037650812 -0.016662234
000280 8e 91 a6 bc 29 9a d5 3d 87 ec 30 bc f3 f4 b4 3d
       -0.020333078 0.10429794 -0.01079858 0.08835783
000290 a9 10 4d be ea 1e 3d bf 48 20 b7 3d 60 fd 4f 3d
       -0.20025887 -0.73875296 0.08941704 0.050778747
0002a0 f5 6c 43 3d 17 4d d1 3b e0 c7 e3 be b6 18 5e bc
       0.04771133 0.0063873637 -0.4448843 -0.013555696
0002b0 c8 cd 0b bf 64 16 64 be f4 45 7a 3b 57 34 98 3b
       -0.5461087 -0.22274166 0.0038188668 0.0046449113
0002c0 a8 93 52 bd a2 9e d9 38 c1 e8 8f 3e 9a c1 b7 bc
       -0.051410347 0.00010376914 0.28107265 -0.022431184
0002d0 1e 79 63 bb f0 22 99 bd 93 87 7b 3d 0e d7 70 be
       -0.0034709643 -0.07477367 0.06140859 -0.23519537
0002e0 5b 15 57 3d 6f a7 5f 3a 99 34 91 3e e7 4e f3 3b
       0.0525106 0.00085317245 0.2836044 0.0074251774
0002f0 0d 22 00 3d b0 a6 00 3c c8 9a 57 3e c8 cd 43 3d
       0.031282473 0.007852241 0.21055138 0.04780367
000300 35 ea 4f 3d d1 2f 60 3e 73 82 23 bf b1 20 72 be
       0.050760467 0.2189324 -0.63870925 -0.23645283
000310 fa 18 d2 bd 4c bf 23 bc d3 69 d4 3b d3 dd 30 3d
       -0.1025867 -0.009994339 0.006482342 0.043180298
000320 07 88 b9 3c a0 fd d7 3d ee a8 9d bd e8 12 f1 bc
       0.02264787 0.10546422 -0.076982364 -0.02942796
000330 52 ff d1 bc 34 c2 00 bf f9 a1 00 be 86 dd 37 be
       -0.025634442 -0.5029633 -0.12561788 -0.17955598
000340 c3 b1 09 bf 66 18 df bd c7 f4 8d bd 76 09 a1 3a
       -0.5378687 -0.108933255 -0.06931453 0.0012286145
000350 58 80 af 3d 4b dc 0c bd 49 06 13 bd d9 9a 9b 3d
       0.085694015 -0.034389775 -0.035894666 0.07597894
000360 d6 f7 d5 bc d5 79 e7 be e5 21 e6 bd 82 ee dd 3e
       -0.026119154 -0.45210138 -0.112369336 0.4334603
000370 f9 b1 24 bb 8f 77 f7 3d fd b0 77 3e 1c f9 74 3c
       -0.0025130494 0.12083351 0.2418861 0.01495197
000380 68 cf 62 3c af cc 9f bd 62 2b 8d 3d 7b 4d 00 3e
       0.013843395 -0.07802712 0.0689304 0.12529556
000390 39 d0 c4 bb 56 eb 2a bf ea 2b 87 38 0e c9 b6 3b
       -0.0060062674 -0.66765344 6.445481e-05 0.005578167
0003a0 e1 92 d8 be 6a 84 bb be 42 e0 8e 3e 95 f2 bf bd
       -0.4229956 -0.3662446 0.2790547 -0.09372441
0003b0 50 c7 d8 3c 6d fa 8f 3c 1f d9 14 3e 26 6b 10 3d
       0.026462227 0.017575467 0.1453595 0.035258435
0003c0 06 f2 5c 3d 0e 3e 29 be cb 2c 0d 3d 60 4a fb 3d
       0.05394175 -0.16527578 0.034466546 0.12270045
0003d0 7a b2 f8 3c cb 58 15 3c 78 03 fb b9 8b 67 3a bf
       0.030358542 0.009115408 -0.00047877035 -0.72814244
0003e0 ca 17 4e bb 64 c7 00 bb d4 0b 12 bc 0d 2c 8d 3e
       -0.0031447285 -0.0019650096 -0.008913953 0.2757267
0003f0 1f 64 f0 bc 65 06 97 3b e5 43 0b bf 32 7f 21 3d
       -0.029344616 0.0046089166 -0.54400474 0.039427944
