Experimenten/Experiment1Snake/PPO/ppo_snake_10000.pth (torch, 280864 bytes, 7 tensors)

shared.0.weight f4 [256, 9]
00000000: c657 da3d 4016 a9bd ed28 a33e 29a3 a5be
00000010: 09a9 87bc c9c3 f8b7 57be 143f fad7 003f
00000020: df3e 56bd d30f f5be c2d1 873e 7df5 193e
00000030: 3602 f2be 9800 48bb 5194 92be 84fe af3e
00000040: 96a9 11be ea6e 0ebe 9e44 06bd 6d5f 4d3e
00000050: 76ee df3e ec7a a7be 3786 233d 3120 0cbe
00000060: 4c9c 1a3c 1555 993e 1c1d 05bf 84d3 a9be
00000070: b938 26be 003b e83d 528a c0be c58b 4fbe
00000080: d3ff 673e 992d 843e 1c2e b43e 9231 913e
00000090: b24f 7cbe f69f 17be f020 a3be 7145 89be
000000a0: 37d5 9dbe a91b 1ebe 37e5 06be ed5d 8bbd
000000b0: 28f6 3a3e 27f2 bb3e 952e 6d3e a3d4 9c3e
000000c0: 5870 c1be 8089 9e3c cfb0 783b ef61 b4bd
000000d0: 211b da3e c533 0a3e 3326 a0be 9f86 b6be
000000e0: 36ab 933e 45d5 ad3e cf52 8fbc 0e09 9b3c
000000f0: c66c 203e afe0 6d3e 8a87 153f 13ff 573e
00000100: bbd3 b23d 2887 d63c df89 083e 3dee 1fbc
00000110: 66c8 1e3c 4a73 14bf 35ca 963e ee92 18bf
00000120: e1ed 0fbf 819b 7ebe edb3 d33e fe22 8abc
00000130: cd0b d0bc 89aa 28b9 edef 1a3e d5c7 ae3e
00000140: cf66 4abf bc18 013d b255 333e 930d 183f
00000150: 3898 84be 04b3 4f3d de86 9ebd 1d5d dfbd
00000160: 4f92 b83e b739 58bf e25c adbe b7f6 763e
00000170: 1ed9 523e 4995 05bf a9d7 0dbe fc68 3abc
00000180: 2fc1 d23d c121 af3e 5d35 593f 1aab 0d3e
00000190: 7d66 0cbe 8111 bebe 4b3a 60be 7fa8 8ebc
000001a0: 44c2 27be 0771 b3bd 46aa 253d d8d0 8b3f
000001b0: 2b75 a63d 400d a13e 70aa a1bc 7a86 953e
000001c0: f4e5 183d 05a7 dabb 725a ad3e 2244 d5be
000001d0: ed94 243f 1a4a ce3e 1c65 45be 7186 e3be
000001e0: 5c5a a0bd 1d84 363e 8f29 533e a50d 2b3e
000001f0: 81e5 863d 8832 dbbd 4288 cbbe 52a0 b5be
00000200: 2044 283f ce28 d2be 1306 ff3d 976f 27be
00000210: 3965 e1bc f6d0 f63d 4e95 91be 0280 f6be
00000220: c59b d3be a81f 933e 35be f53d 3c66 98bc
00000230: cbf2 34bd 051b fb3e 22ab 053d b321 cb3e
00000240: b6bf e1be b065 b7bd 3039 e73e ef43 8ebc
00000250: 161e f9bc f569 28be 1b5c 343f 8738 733e
00000260: a51e 6abe b61a ec3d 337d 813c 5c11 1a3e
00000270: 6e64 083e 3c6a 403c 4530 323d cf28 183f
00000280: 53d8 1d3f 8340 083f 2e9a 213e c550 043f
00000290: e0be 06bd 8444 00bf adf1 503e 9f35 6abd
000002a0: 744e 173f a4ac e73c a789 3c3c 8f98 d9be
000002b0: f5aa 163e 7cda 553e 485f 003f ad68 0b3e
000002c0: 3067 b53a c8e7 5a3d 3b5d 703e ab20 1e3e
000002d0: 3fce 85bd 3c65 f13d c46a e6bd 4512 03bf
000002e0: bff0 32be 3fdd f9bc 53f8 b3be eafb b33e
000002f0: abc9 9f3b f5ce 063e 79c6 b93e a350 fb3e
00000300: 6d8a 7e3d fa92 cebc 59e3 32bd 85da c7bd
00000310: 45c1 78be 5e3e 963d 3372 f6be 01f6 9d3d
00000320: 1024 e03e 84d5 263e 8a0f 7abd 1039 4bbd
00000330: 6b8d 1f3f b766 1e3f c650 4d3d 9f21 e3be
00000340: d3b9 93bd b895 173f 2d03 26be 5be6 133e
00000350: fb43 1c3e 40b4 503e 87c1 93be 3d7a 0abd
00000360: 4f4f 14bf 5e22 0b3e 94f6 963e 847c f4bc
00000370: 0cc2 28bc f886 24be 4e8a 4b3f 1474 273f
00000380: e2ed a13d d326 26bd 0b0f c13e 0339 c53e
00000390: d43b 1fbe 5ae3 133e 6e29 94bd 3555 f23e
000003a0: 7831 dc3e e038 c6be 8f5c 293d 24ef f23d
000003b0: c036 45bd 93bd 0fbf 82cf 843d a779 01bb
000003c0: 783f 403f a180 993e b288 803e c392 00bf
000003d0: b467 73bd ffd0 fe3e eb19 11bf da2c 123e
000003e0: 124c be3d 65ea f33c ae1e 0e3e 9881 28be
000003f0: 333c 1fbe 7435 bc3e 460f 703e abea a43e
0.10661273 -0.08256197 0.3186716 -0.32351044 -0.016560094 -2.9655073e-05 0.58102936 0.50329554
-0.052306052 -0.47863635 0.2652722 0.15035053 -0.47267312 -0.0030517932 -0.2862878 0.34373868
-0.14224848 -0.13909498 -0.032780282 0.20055933 0.4373662 -0.3271097 0.03992292 -0.13684155
0.009436678 0.29947725 -0.5199754 -0.33169186 -0.16232575 0.11339378 -0.3760553 -0.20268162
0.22656183 0.25816038 0.3519143 0.28358132 -0.24639776 -0.14807114 -0.31861067 -0.26810792
-0.30826733 -0.15440239 -0.13173376 -0.06805024 0.18257964 0.36708185 0.23162301 0.3063098
-0.37781024 0.019352674 0.0037947183 -0.08807742 0.42598823 0.13496311 -0.31279144 -0.35649583
0.2884156 0.33951774 -0.01749554 0.018925216 0.15666494 0.23230241 0.5840994 0.21093397
0.08731791 0.026187494 0.13333844 -0.00976139 0.009691333 -0.5798842 0.29451147 -0.59599197
-0.5622235 -0.24864008 0.4134821 -0.016862389 -0.025396252 -0.00016085258 0.15130587 0.34136835
-0.79063123 0.03151773 0.17513159 0.5939571 -0.25897384 0.050707832 -0.077405676 -0.10906432
0.36049125 -0.84463066 -0.33859926 0.24117552 0.20590636 -0.52180916 -0.13851799 -0.011377569
0.10290753 0.3420544 0.8484705 0.13834801 -0.13710971 -0.3712273 -0.21897237 -0.01741433
-0.163827 -0.08761793 0.04044559 1.0923109 0.08127817 0.3145542 -0.019734591 0.2920416
0.037328675 -0.0066727423 0.33858067 -0.41653544 0.6428974 0.4029091 -0.19276851 -0.44438508
-0.07829735 0.17823835 0.20621322 0.16704424 0.06586743 -0.107029974 -0.39752394 -0.35473877
0.6572895 -0.41046757 0.124523304 -0.16351162 -0.027514087 0.12051575 -0.28434223 -0.48144537
-0.4132978 0.2873509 0.1199917 -0.018603437 -0.044176858 0.49044052 0.032633908 0.39674148
-0.44091576 -0.08954942 0.45160818 -0.017366378 -0.030409854 -0.1644667 0.7045304 0.23752032
-0.22863252 0.11528532 0.01580677 0.15045685 0.13319561 0.011744078 0.043503065 0.5943727
0.6165821 0.5322344 0.15781471 0.51685745 -0.032896876 -0.50104547 0.20404692 -0.057180043
0.59104085 0.028280564 0.011507428 -0.42499205 0.14713652 0.20884126 0.5014539 0.1361415
0.0013839956 0.0534437 0.23473065 0.1544215 -0.06533479 0.11786887 -0.11250833 -0.5119975
-0.1747465 -0.030501006 -0.35150394 0.35153133 0.0048763356 0.13164885 0.36284235 0.49084958
0.06214373 -0.025216568 -0.043673847 -0.09758476 -0.24292476 0.07336114 -0.48134002 0.07712937
0.43777514 0.16292387 -0.061049975 -0.049614966 0.6232516 0.6187548 0.05012586 -0.44361588
-0.072131775 0.5921283 -0.16212149 0.14443342 0.15260307 0.2038126 -0.28858587 -0.03380798
-0.57933515 0.13587329 0.29485 -0.02984453 -0.010300171 -0.16067111 0.7950791 0.65411496
0.07906701 -0.04056437 0.3770679 0.3852006 -0.15550166 0.14442196 -0.072344646 0.47330633
0.43006492 -0.38715267 0.041348036 0.11862019 -0.048147917 -0.5614864 0.064848915 -0.0019756348
0.75096846 0.2998095 0.2510429 -0.5022394 -0.05942507 0.49768826 -0.5668017 0.14274922
0.09291853 0.029774854 0.13878891 -0.16455686 -0.15550308 0.36759531 0.23443326 0.32210287

shared.0.bias f4 [256]
00000000: c1f8 d93c cb3f 80be 027d 92be 24b1 98be
00000010: 3a8c 30bd 002f 153e 04ab be3c 28e7 013f
00000020: a2f6 db3d d27c 98be 4e0e 0bbd 46b9 fd3d
00000030: adf1 123f dcb8 e9bd 9e9d 4bbe 5f3e 02bf
00000040: 5dd0 f03c 1329 43be 6f9e 8c3c dbb1 2e3e
00000050: ea7c 04bf 157b 1a3f 306c 4dbe 2e0d 87be
00000060: f9e9 33be 4ee2 b43e fb99 90bd 7713 27bd
00000070: 9980 183f bb4e 98bd 4149 81be d0fd c3be
00000080: fe66 a43e 4a8b 4f3d d6fd cd3d db58 42be
00000090: 81fb ec3e 384e 2ebc 5af6 e2be 194f 80bc
000000a0: a139 053f fbf0 2ebe 20b7 e93e 2c95 71be
000000b0: 29c8 253f 1ad0 f2bd f4cb debb 8b20 ebbd
000000c0: 432a 9bbe 7362 bfbe 5289 28be 6da5 823d
000000d0: b7f8 44bd 962e 093e d7f6 ef3d 154d b1be
000000e0: 6684 f03e 8440 343e 3ca1 8dbd cbb2 a73e
000000f0: 421a 313f 1305 9fbe 7356 363f 4553 c73e
00000100: 97e0 ddbd b6e0 103e 52c3 933e d1a8 ce3e
00000110: bbd2 083f dad0 5d3e 6eb7 083e 6f8c 353e
00000120: 42c1 8f3d ec4c d0be 6508 173e bd34 a93c
00000130: a168 3b3d 0a44 75be 05eb 5b3e abd5 b0bd
00000140: 2e59 dfbe 7638 0a3f fe76 293d 44f4 e5be
00000150: c194 d03e 8339 7c3d 765b e0bd 02e9 f5bc
00000160: 21ce 07be 7a7e f73d e382 303d aa4c 253d
00000170: 9504 ab3e e36f 94bd b9a5 083f b1bd a5bd
00000180: e679 0a3d 3dd3 753e 875e a5be 3190 52be
00000190: 08b9 113e 564e 70be 691e 7d3d 6078 e3bc
000001a0: e8d6 2a3e b411 02bd 62d6 073f 9b6e 60be
000001b0: c554 d0bd db52 e9be cea7 a4be 4df3 803b
000001c0: b46b 5cbe 31a1 53be 6794 acbc 0043 483e
000001d0: 51a5 173f 66b6 bdbe 72bd acbe 9d23 02bf
000001e0: c46a 16bf c049 22be 895c 653e 6cd3 bd3e
000001f0: df23 a0be 8692 cdbd 3fec b2be 2c20 c43e
00000200: d285 d73d ad57 c3be 7e0c 5f3e 02fd 1cbe
00000210: 1df1 5dbd e28d 72be 732c 543c 4373 d8be
00000220: 9fa8 a2be 8b1a 5bbd a972 98bd a068 95bd
00000230: 43db 90be c35a 49bd 888f 86bd d8ff f23e
00000240: c7f0 243f 1ec2 b4be 3b9a c93e f213 443e
00000250: c772 d53b 37d8 123e 8866 8d3e e914 f83e
00000260: 850e 9cbe d7ef 88be 29de 9d3e 6ea6 7d3e
00000270: 27c8 363e 5d6a e73e bf25 01bd a6bb 113f
00000280: 50b1 18bf 2bf1 adbe 4e0c 2a3e 5289 e73e
00000290: 6147 fcbc de2f 11be a101 193f d7a1 2fbe
000002a0: d282 16bc 2ed7 d6bd 9e8a 053f 199a d1bd
000002b0: 3d41 92be 2b1a 8cbe 629a ea3e f9d0 f13e
000002c0: 2291 913e 58e0 a8be 7c0a 2f3e 74d2 40be
000002d0: 8bb2 2abe fd04 13be 53b9 95be 9792 283f
000002e0: 902b d3bd 777f b5be 09d5 10be ea07 3f3e
000002f0: 4d3e 93be c6ce 82bd 2a1d abbd 7a5e 0fbd
00000300: 0fc5 8ebd 4e82 c3be 24ea 223f d3c5 fc3d
00000310: b99e ad3c 0cef 543d 7507 4fbe 9433 073f
00000320: 82fa 21be aa57 5fbe c96e acbc 27df a5be
00000330: 9ce8 acbd a0b6 4ebe fffb 82be 3376 92be
00000340: 60fe d8be 2133 21be d478 e4be c63a 0e3f
00000350: d32d 263e abef b83d 5446 293f b673 6ebe
00000360: 549c 4cbd f7e8 c9bd 679b 05bf 1e39 05bf
00000370: 8b83 4b3e 5ad6 49be d687 83be 986d d93e
00000380: 743e 5e3c 172c 50be dae0 febd b64d 77be
00000390: 678e 82be 0fe7 cabd 6020 293f 0079 d63e
000003a0: 4cd1 3d3f 97d0 aabe 6bd2 adbe 2d5a 1e3f
000003b0: 0a48 bcbe 0208 19bd 530a 90bd d320 263f
000003c0: de02 1dbe 59d7 7ebd 2f5c ad3d 6e99 d8bd
000003d0: e066 84be 3285 cbbd 1bb2 0cbb d98e a7be
000003e0: 95ac acbc 258b adbc edad 40be 50fa f53e
000003f0: e329 0bbf 38fe f53e c6b1 033d 64d0 d03e
0.026607873 -0.2504867 -0.28610998 -0.29822648 -0.04310248 0.1456871 0.023274906 0.5074334
0.10740401 -0.2978273 -0.03394919 0.12388854 0.5740002 -0.11412212 -0.19884345 -0.5087642
0.02939623 -0.19058637 0.01716539 0.17060034 -0.51753104 0.6034406 -0.20060802 -0.26377243
-0.17569722 0.35328907 -0.070606194 -0.040790047 0.59571224 -0.07436892 -0.252512 -0.3827958
0.32109827 0.050669946 0.10058181 -0.18979208 0.46285632 -0.010638766 -0.44328576 -0.015662717
0.5204106 -0.17084114 0.45647526 -0.23592061 0.64758545 -0.118560985 -0.0067992155 -0.114808165
-0.3030568 -0.37379798 -0.16458634 0.06379209 -0.048088755 0.13396677 0.11717003 -0.3462912
0.46976012 0.17602736 -0.06915519 0.32753596 0.6918069 -0.3105856 0.7122566 0.38930717
-0.10833853 0.1414822 0.28859955 0.40363172 0.5344655 0.21661702 0.13351223 0.17729352
0.07019283 -0.40683687 0.14749296 0.02065503 0.04575408 -0.23951736 0.21476372 -0.08634504
-0.43622726 0.539924 0.041373245 -0.44912922 0.4073849 0.061578285 -0.10954945 -0.030018333
-0.13262226 0.1208467 0.043093573 0.040356316 0.33401933 -0.07247903 0.5337787 -0.080928214
0.033807658 0.24006362 -0.3229868 -0.20562817 0.1423074 -0.23467383 0.06179658 -0.02776736
0.16683543 -0.031755164 0.530615 -0.21917193 -0.101724185 -0.45571026 -0.32159275 0.0039352537
-0.2152546 -0.20666958 -0.021066858 0.19556808 0.5923663 -0.3705322 -0.33738285 -0.5083559
-0.5875666 -0.15848446 0.2239858 0.37075365 -0.31277367 -0.10037713 -0.34945866 0.38305795
0.10523571 -0.3815283 0.21782109 -0.1533089 -0.05418502 -0.23686936 0.012950051 -0.42275438
-0.31769273 -0.05349211 -0.07443745 -0.07295346 -0.28292283 -0.049158823 -0.06570345 0.47460818
0.644299 -0.3530435 0.3937548 0.19148234 0.0065139267 0.14340292 0.27617288 0.48453453
-0.30479828 -0.26745483 0.30833557 0.24770519 0.1784979 0.45198336 -0.031530138 0.56926954
-0.5964556 -0.3397306 0.16606256 0.45221955 -0.030795755 -0.14178416 0.5976811 -0.17151581
-0.009186463 -0.10490261 0.5216464 -0.1023447 -0.28565398 -0.27363715 0.4582091 0.47229746
0.2843104 -0.3298366 0.17093843 -0.18830281 -0.16669671 -0.14357372 -0.29242954 0.6584868
-0.10311043 -0.3544881 -0.14143766 0.18655363 -0.2875847 -0.06387095 -0.08355172 -0.03500221
-0.0697118 -0.38185352 0.6363852 0.123424195 0.021193849 0.051985785 -0.20217688 0.52813077
-0.15818217 -0.21810785 -0.02104892 -0.32396814 -0.08442804 -0.20186853 -0.25582883 -0.28605804
-0.42381573 -0.1574216 -0.44623435 0.5555843 0.16228418 0.09030088 0.6612294 -0.23286328
-0.049953774 -0.09858888 -0.5219025 -0.5204028 0.19874398 -0.19710675 -0.25689572 0.42466426
0.013564695 -0.20329319 -0.12445231 -0.24150738 -0.2549927 -0.09907352 0.66065025 0.4188919
0.74147487 -0.33362266 -0.339496 0.6185635 -0.3677371 -0.037361152 -0.07033219 0.64893836
-0.15333125 -0.06221709 0.08464848 -0.105761394 -0.25859737 -0.09937514 -0.0021468464 -0.32726172
-0.021078387 -0.021184513 -0.18816347 0.48042536 -0.5436079 0.48045516 0.03215196 0.4078399

shared.2.weight f4 [256, 256]
00000000: 9c80 e4bd 5d43 d1bd b9df 4cbe 83ad aebd
00000010: f339 d5be 133c 873e f3cb f4bb c5e5 e93d
00000020: 5257 7bbe 05da 7dbe c367 7d3d 4aa6 163e
00000030: 598d ce3d e5d4 563d 5ae0 76be 3bd9 3cbe
00000040: 0cde 36be f164 143d a21e 7cbc cb87 f6bd
00000050: c9f3 ecbe 4bf6 aa3d dc4f babd 0024 b5be
00000060: a320 91bd 39de afbd 46ec ebbc 3cc8 b4be
00000070: f42b 18be 279b 93bd 8d9a f9bd cc60 88be
00000080: d318 c8bd ede4 8f3b 8ecb 21bd 066d e83d
00000090: c7d7 5dbd 43ef d93c 70e6 22be f2a3 3bbe
000000a0: d059 b13d 51cc b5bd 7880 51bc 5140 8fbd
000000b0: 16ba 2f3e 7b05 56be 65b0 90bd 1d91 efbc
000000c0: 311e 89bd 5c57 4cbd 5de7 84be 0b34 81be
000000d0: 0d05 1d3d f817 88be 43f3 edbc f3f8 7abe
000000e0: 1f41 b53d 1f3c d2bd 9c66 39be be59 653d
000000f0: ec64 d83d 9329 a7be 8cdf 623d 7cb4 fd3c
00000100: 4e03 d2bd 7283 c33d 8206 393d 5f1d 0cbe
00000110: 05f2 a93d 5da1 84be 43d1 113e ad8f 04be
00000120: 6099 d13c 5807 1fbe f36a 35be 6e99 b2bb
00000130: 67e6 513d 4585 bb3b da7d 46be 7d6d fdbc
00000140: 3680 70be 44ed 9a3d 0972 853d ff06 55be
00000150: 30ef 563d 6920 2b3d 37db 083d 8291 21be
00000160: 2ca6 6b3e 8d3f 8abe c30b 02ba f709 d33d
00000170: 55c2 e1bd b6f2 153d 9b98 f03d d13c 643c
00000180: bd30 a03d 3582 8f3d d3e3 3d3d 2f2d 4abe
00000190: 9290 3e3d b17d 02be 7562 17be cbde 4e3d
000001a0: 1d76 7c3d 27c1 c3be 88ca 29be 02a3 5dbc
000001b0: 2b79 e83d 5b3c f0bd ddb6 12bd 0ba5 55be
000001c0: c0e4 3fbe 330a 86bd 8f00 383d fb03 49bc
000001d0: e159 5d3d 11a5 65be 35c1 85be a639 79be
000001e0: 7718 51be 163f 8cbd 1e65 07bc d342 dd3d
000001f0: 37e9 123d 6a66 03bf 821b 9fbe 7762 603c
00000200: 9db1 f5bd 8f1b 7d3d b784 70bd 413b 02bb
00000210: 7388 38be 6578 35be c350 d6bc f69a 78be
00000220: 5a9d b4bc 2567 723d 5ccb 4e3d 4661 78be
00000230: c8c0 17bc f55b d5bd c5ca dcbd 1402 423d
00000240: bfd7 f5bd 6d40 bbbe fd9f e73d 8b00 74be
00000250: f2c3 57be e92e 39bc df99 4fbd 0577 30bd
00000260: f00f 2dbd d6ab debe 5125 18bd 3652 0e3d
00000270: 73b8 a33d 3eaf c0bd b63d d53d 0380 6b3c
00000280: 9e3e 9bbe 8693 02be df8c d3b9 41b7 7f3d
00000290: 8cb0 58b9 62ad 8cbe 0045 8bbe 87ea 1b3e
000002a0: 9cfd f93d 8f06 ab3d 7579 473d 65c0 49bd
000002b0: 86bc bcbe 8b17 abbe fc2d d4bd 6950 2a3e
000002c0: 00f9 543c 4f42 463d db69 083e 2c4e d3bd
000002d0: b85d 34bd ca17 123d 543f 173f ed71 073e
000002e0: a07e 873b caf4 01bc 3e0e df3c 6cff 28be
000002f0: 4b77 0d3d 4467 acbe f947 3fbd e2b7 3c3e
00000300: 030e d1bc dedf 43be 9857 bdbc f418 d5bd
00000310: c146 2a3d 9df4 48be 9ff8 8cbc 86c8 07be
00000320: 58b2 6e3d 7067 f8bd 2f2e 99be 7fe5 02be
00000330: 493c 28be eb52 34be 5cc4 463d 39a9 4fbe
00000340: 9c07 81be 27b9 433d 31e3 efbd a6b9 f73c
00000350: e641 3b3d 6d8a 15bd d8db de3c 96c5 08be
00000360: 77f6 4d3d 7f51 313d 8f5d 66be 9830 46be
00000370: 9751 7b3d dc78 74bd 321d 373d 1956 503c
00000380: d029 9cbd cd5d 9abd d06a 1e3d f035 30be
00000390: a82e f7bd 1dad 87bc 82d2 103c cbbd 0bbe
000003a0: d89b ef3c 3fc5 e8be b1dc 43bd aab3 2d3d
000003b0: ac42 9abe 68ea febe 35c8 8d3d a43b bb3c
000003c0: 58a9 bdbe 5982 02bd 940b 293d 226b 7ebd
000003d0: 5ea2 d83d a02e 59be eedd 63bd f953 8d3c
000003e0: f348 0c3d 1ae0 e63c 95a6 61be c9d0 babd
000003f0: 3228 7dbe 17fc 87bd 5158 423d 866e eabc
-0.11157343 -0.10217927 -0.20007218 -0.085291885 -0.41645774 0.2641302 -0.0074706017 0.11420778
-0.24545029 -0.24790199 0.061866533 0.14711872 0.10085554 0.052449126 -0.24109021 -0.18442242
-0.17858142 0.036229078 -0.015388163 -0.12037619 -0.46279743 0.08347758 -0.09097263 -0.35379028
-0.07086303 -0.085873075 -0.028799187 -0.35309017 -0.14860517 -0.07207327 -0.12187681 -0.2663635
-0.0977036 0.0043913038 -0.039500766 0.113489196 -0.05416086 0.026603347 -0.15908217 -0.18324259
0.086597085 -0.08876861 -0.012786977 -0.06994689 0.1716083 -0.20900528 -0.070648946 -0.029244
-0.06695212 -0.049888 -0.25957766 -0.25235018 0.038334895 -0.26580787 -0.02904666 -0.24509029
0.088503115 -0.102653734 -0.18105549 0.055993788 0.10566124 -0.32648906 0.055388972 0.03096985
-0.102545366 0.095465556 0.045172222 -0.13683079 0.08298115 -0.2590436 0.14239983 -0.12945433
0.02558583 -0.15530145 -0.17716579 -0.005450419 0.05124512 0.005722674 -0.19383946 -0.030935997
-0.23486409 0.07564786 0.06515891 -0.2080345 0.0524742 0.041778956 0.033412185 -0.15778163
0.23012608 -0.2700161 -0.0004960859 0.10304635 -0.11023394 0.03660842 0.11747857 0.013930515
0.07821796 0.07007257 0.04635985 -0.19743799 0.04652459 -0.1274326 -0.14783652 0.05050544
0.06163608 -0.382333 -0.16581166 -0.013527634 0.11351236 -0.11730262 -0.035818923 -0.2086374
-0.18739605 -0.06544914 0.044922408 -0.012269015 0.054040793 -0.22426249 -0.26123968 -0.24338397
-0.20419489 -0.0684797 -0.008263854 0.10803761 0.035866942 -0.51328146 -0.31075674 0.013695351
-0.11996768 0.06179386 -0.058720317 -0.0019871744 -0.18020801 -0.17721708 -0.026161557 -0.24277863
-0.022047687 0.059180398 0.050486907 -0.24255857 -0.009262271 -0.1041793 -0.10780863 0.047365263
-0.12004041 -0.3657259 0.11309812 -0.23828332 -0.21070841 -0.011302688 -0.050683852 -0.043082256
-0.042251527 -0.43490475 -0.037144963 0.03474637 0.07994165 -0.09408425 0.10412161 0.014373782
-0.3032121 -0.12751588 -0.00040350013 0.062430624 -0.00020665134 -0.2747603 -0.2720108 0.15226184
0.12206575 0.0835086 0.048699815 -0.049255747 -0.36862582 -0.334164 -0.10360333 0.16632237
0.012998819 0.04840308 0.1332163 -0.103176445 -0.04403469 0.03566722 0.59081006 0.13227053
0.004134968 -0.007931897 0.02722847 -0.16503686 0.034537595 -0.33672535 -0.046699498 0.1842952
-0.025519377 -0.19128367 -0.023113057 -0.1040515 0.041571382 -0.19624563 -0.017208396 -0.13260087
0.05827555 -0.12129104 -0.29918048 -0.12782858 -0.16429247 -0.17609756 0.048527107 -0.20279397
-0.25201118 0.047783997 -0.11713255 0.030239891 0.045717143 -0.036508966 0.027204439 -0.13356623
0.050283875 0.04329061 -0.22496627 -0.19354475 0.061357107 -0.059685573 0.044705577 0.01271584
-0.076251626 -0.07537422 0.038676083 -0.17208076 -0.12069446 -0.016562039 0.0088392515 -0.13646619
0.029249117 -0.45462987 -0.04781789 0.04240767 -0.30128992 -0.49788213 0.06922952 0.022855587
-0.37043262 -0.03186259 0.041270807 -0.06211389 0.10577844 -0.21209192 -0.05563157 0.017251955
0.034249257 0.028183032 -0.22036202 -0.09121854 -0.24722365 -0.06639879 0.047447506 -0.028617155

shared.2.bias f4 [256]
00000000: fe6f b33d be48 a33e 6c71 84bd 8284 703e
00000010: 2050 f63c 6ff6 a0bd 7016 aebe 2525 18be
00000020: 2f22 e53c c44b 093d 65ce 043e 1545 8f3c
00000030: 062a 9a3c 9b25 debd 2a43 1f3e 1fea 0c3d
00000040: ba35 3abd 670a 2b3d afee cbbc 968b e7bc
00000050: 9da4 b63c bee7 f93c a1cf 883b d15f 7f3d
00000060: 8684 c73c 82fd 893e 7f7a 32bb e4a9 02bd
00000070: d7b9 613e 64f7 d9bc a0e1 923e 8840 e73c
00000080: cff8 50be 0649 b03d 91bc 3e3e 2e45 cebd
00000090: b3b9 56bd 731c ecbd 63b9 bf3c 1b65 2c3e
000000a0: 81c4 cbbc d1cd 9d3e 6c8e 38bc 91b4 4e3e
000000b0: 3f0d b5bd dbdd b1bd c48d 0bbc a251 ee3d
000000c0: 2dd1 883d 9af7 69bd bea1 e0bc 99a7 b4bd
000000d0: 1a93 07bb d883 973e 0025 863d b8f2 c3bb
000000e0: 40a7 183e 8588 6c3e 5faa 0b3e b7bb 88bb
000000f0: 01ec 35bd c7f4 bd3d 45cf aa3d 37d3 f43d
00000100: ea6c 033d f9cc 37be 0e4d 61bc 2db5 07bd
00000110: f5e4 323e ebd2 cd3c 82d4 bebd d622 a63e
00000120: b491 ea3d 8d6b a1bd a254 203e 9e20 9ebd
00000130: b217 f63d f8ca b6bc 1f13 0cbd 0b67 693e
00000140: f625 cd3d c635 09be 83fd 09bd 023c a2bc
00000150: 8468 44be 99b2 ff3c c84e aaba 7919 28bc
00000160: c4e1 003d 0de7 0a3d 51a8 903e 70d3 ab3e
00000170: 0d59 57bc 5801 103e e7cc 083e b572 0fbe
00000180: 960e 7ebd b663 9c3b be1b ef3c 423c 09be
00000190: 760c ccbd 523b 9d3e 06a5 a4be d586 f6bd
000001a0: 83fb 62bd 9eb6 bcbc 6a51 70be 582d a03e
000001b0: 9b9b bc3c f150 1dbc 8753 efbd f818 9cbd
000001c0: e2c0 eebd 5e52 2c3e 8dbd c33c 1988 833e
000001d0: 79d2 72bd 8133 b53e 88ca 8c3d b6c0 953c
000001e0: 579c c53c 10bd b23e f12d 94bd 2bd9 d7bd
000001f0: e48b 013d e67b 3fbe f652 403d b7db 963d
00000200: 4cee 853e 6999 6f3e ad92 10be 26dc 1fbd
00000210: 0b33 54bd c3e7 01be b42a c3bc 9dee 6d3c
00000220: e39f 27bd 3a5d a33e 2d4b 5f3d b76e df3d
00000230: 2f72 3ebe aaae b5bd 2b36 b0bd 7094 553d
00000240: 7567 57bd 5d8f 323e bb0c a1bc 6825 1b3e
00000250: 2760 a4bd 467d 20be 5067 973d e590 4a3d
00000260: 0f03 d43b 985b b53e 5921 073e 5ef1 c4bd
00000270: 437f acbe 3ee8 0f3c 4697 73bc 7fbf 81bd
00000280: 329f 8bbc f736 643e 2daf c7bb 64fd ec3d
00000290: 2da2 9b3d 4744 ddbc ef91 2fbe 7946 4f3d
000002a0: bd1b 0fbe 8583 533d b6f8 b8bc 447d aabd
000002b0: 77ce b6bd 4570 303e 84f1 f73c 1d8e c6bd
000002c0: 4cab 803d 9627 8bbd a829 8d3e 3848 4bbd
000002d0: acc6 863d 39b9 fb3d f1b2 2f3e bf2d 253e
000002e0: e4fe 053e a15f 5ebd 143a 803e d65b 94bc
000002f0: 1f44 84bd 3319 f0bc fb0f 923e 50a7 4abd
00000300: 0f65 d4bc 3673 9b3e 82dd b2bd 2cb4 16bd
00000310: ff7a 893d b25e a1bc 3f8e 81bd a6e2 193d
00000320: 9c42 27bd c545 9c3e 9fc5 bb3c df2b 583c
00000330: a7eb 863d 17b3 083c de8c b03d b501 373d
00000340: ad2b 0ebd 4840 bd3d d325 de3d afc7 a3bd
00000350: bb3c 513e 5d9b c1bd e3f9 fa3b 49f3 38bd
00000360: a7e2 36bd eeff 3abc d994 1a3e 6929 af3e
00000370: 4b42 ad3d aca9 3f3e c440 a73e dc81 7b3d
00000380: fda3 54bd 8bee 913c 9994 ef3d 2cfa 913e
00000390: 2fde 6dbc dc2a 0dbe c427 04bd b0e4 573c
000003a0: a4ef 2cbd b584 053d 5432 99bb 91d3 4dbe
000003b0: 5154 9d3c cc36 973c 0dcc 403e b9ab 82be
000003c0: fee1 703a b79f 3ebd 6c60 52be b4b1 22be
000003d0: ef08 273c 6b45 51be e1d2 953a 4921 1dbe
000003e0: abd9 84bd d7c7 a03c 7187 3f3d c600 acbc
000003f0: 90e5 fdbc c47e b23c 8d79 3cbd 981a 02bd
0.08761595 0.31891435 -0.06466946 0.23488048 0.030067503 -0.078595035 -0.34001493 -0.1485792
0.027970402 0.03351952 0.12969358 0.017488996 0.018818866 -0.108470164 0.15552965 0.034402963
-0.045461394 0.041757967 -0.024894087 -0.028264802 0.02229529 0.030506011 0.004175142 0.062347237
0.024355184 0.26951224 -0.0027233658 -0.0319003 0.22043549 -0.026607223 0.28687763 0.028229013
-0.20407413 0.08607678 0.1862662 -0.10071789 -0.05242319 -0.11528864 0.023403829 0.16835444
-0.024873974 0.30821088 -0.011264425 0.20186068 -0.08840417 -0.08684894 -0.008517686 0.11636664
0.06680522 -0.057120897 -0.027420875 -0.08821029 -0.0020687045 0.29592776 0.06550026 -0.005979862
0.14907551 0.23098953 0.1363921 -0.004172768 -0.044414524 0.09275203 0.08340315 0.119543485
0.03208629 -0.17949285 -0.013751281 -0.033131767 0.17470153 0.025124988 -0.093178764 0.32448453
0.11453572 -0.07881842 0.15657285 -0.07721065 0.12016238 -0.02231358 -0.034197923 0.22793214
0.10017006 -0.13399419 -0.033689033 -0.019804005 -0.19180495 0.031213092 -0.0012993449 -0.010259979
0.031465307 0.033911753 0.28253415 0.33559752 -0.01314379 0.14063013 0.13359414 -0.14008601
-0.06202563 0.0047726287 0.029188033 -0.13401893 -0.09963314 0.3070932 -0.32157153 -0.12037436
-0.05541564 -0.023036297 -0.23468557 0.31284595 0.023023417 -0.0096018175 -0.116858535 -0.0762195
-0.11657883 0.16828296 0.023894096 0.25689772 -0.059282754 0.35390857 0.06874567 0.018280368
0.0241224 0.34909868 -0.07235325 -0.105394684 0.03162755 -0.18699607 0.046954118 0.07366126
0.2615837 0.23398365 -0.14118452 -0.03902831 -0.05180649 -0.12686066 -0.023824073 0.014522222
-0.040923964 0.31907064 0.054515053 0.10909789 -0.18598245 -0.08871205 -0.08604082 0.052143514
-0.0525889 0.17437501 -0.01965939 0.15150988 -0.08026152 -0.15672788 0.07392752 0.04945459
0.006470091 0.35421443 0.13196315 -0.0961635 -0.33690843 0.008783398 -0.014867609 -0.06335353
-0.017043684 0.22286592 -0.0060938806 0.11571768 0.07599292 -0.027010096 -0.17145513 0.050604317
-0.13975425 0.0516391 -0.022579532 -0.08324674 -0.08926099 0.17230327 0.03026653 -0.09695075
0.06282672 -0.0679466 0.27570844 -0.04962942 0.065808624 0.12291188 0.17158104 0.16130732
0.13085514 -0.054290418 0.2504431 -0.018110197 -0.064583056 -0.02930889 0.28527817 -0.049475968
-0.025927095 0.30361336 -0.087336555 -0.03679292 0.06712913 -0.019698475 -0.063259594 0.037569664
-0.040835008 0.3052198 0.022921382 0.013194053 0.06587916 0.00834348 0.08620618 0.044679362
-0.03470962 0.09240776 0.10847058 -0.07997071 0.20433323 -0.09453461 0.0076591833 -0.04515389
-0.044649746 -0.011413557 0.15095843 0.3421128 0.0845991 0.18717068 0.326666 0.06140314
-0.051914204 0.017813941 0.11698265 0.28511178 -0.014518305 -0.13785881 -0.032264486 0.013177082
-0.042220727 0.032597262 -0.004675189 -0.20100237 0.019205244 0.018458746 0.18827839 -0.2552164
0.0009188949 -0.046539035 -0.20544595 -0.15888101 0.010195001 -0.20436637 0.0011430645 -0.15344729
-0.06486829 0.019626541 0.046760026 -0.020996463 -0.030993253 0.021788962 -0.046014357 -0.031763643

actor.weight f4 [3, 256]
00000000: 8853 db3d 61a8 53bd 4611 4cbd ec5e 5e3c
00000010: 9c2c c1be 58ed 85bd 8e71 8ebc f519 173c
00000020: 696d 0c3d 4a0a 8b3d 9a53 a33e 102f 89bc
00000030: 2cf3 453e 1671 3e3c d522 8e3e c106 74bd
00000040: 3b24 1e3e c521 343d 4ab0 1f3c 59cc 123d
00000050: b051 e83d fcec 8a3d aea3 20be 60d5 eaba
00000060: 2974 a0bb b4d2 9039 a095 073d ed08 483d
00000070: 1875 39be b8c6 3b3c 42c7 73be db99 083c
00000080: 1ab9 8f3d 2549 a8b9 d335 f13e 43b0 b73c
00000090: 21e1 013e 8209 6dbd c3aa 30be e033 afbd
000000a0: 7a57 333d 521e 6e3d ca6c 65bd 20a7 d13d
000000b0: 4b7b 9f3d 0a48 d83c 0287 c13d f990 613e
000000c0: 22d8 ad3d 13d8 023e e177 07be 82e4 e6bd
000000d0: 6aff 013d 8c73 7b3e e051 9c3e ff84 d13d
000000e0: a343 97bc d14a c43e 3528 883e 85d0 34bc
000000f0: f560 613c fae1 6e3e 93e6 79be 3c9e 43bd
00000100: 91d3 06bf 3d0b 113d 52e6 263d 7819 aa3c
00000110: 69c8 a43e 85da c9bb 6dc7 8e3d 4bc5 923e
00000120: 8b30 7e3d 3add 71be e2a1 c0be ac88 ab3d
00000130: 340a bfbc ddc2 773b 90ab ab3c f061 433e
00000140: 7aab 973d ee85 a93b 9a70 04bd cf19 373d
00000150: b70c b93b 3230 573e 989a 583e 1045 4c3d
00000160: ab85 22bd acaa 623e e6b9 27bd 0241 403e
00000170: 1a42 b73c 696d b73d 3741 483e 5b57 7e3d
00000180: bf8e 74bb e4a7 8fbc f74f 643d a9a5 9b3d
00000190: ce71 db3d e97b 8a3d 64d1 84bc 8a13 b93a
000001a0: f4c3 13be 23d8 183d 7d14 55bd c946 9abe
000001b0: 8508 9abe c39b cabb a65c c83d eacf a43d
000001c0: 2d2e df3d b715 9e3d 73ba 553e 6f96 14bd
000001d0: aab2 913e bfd1 343d 8d8a 2f3e 24b6 44be
000001e0: 229e 283d 30af d03d a5d2 1e3d bd26 e83c
000001f0: c1a4 1cbd 7933 b8bc f4f7 febd ac2a ea3b
00000200: 850e 1ebc 328b 223e 34af 473a b792 383d
00000210: fa70 5ebd 551a ea3c 029d 093d ed8e 18be
00000220: 7b7d 513e 853e 12bf 4cea 93be d71b 033b
00000230: b0c7 bd3d f94d cabc 7930 8dbc 9e1f d53e
00000240: 1bc6 123c 3892 db3e ea35 bf3c ef9e 583e
00000250: bfdf b73c 3a32 6a3c c28e ad3c 88b9 113d
00000260: 89eb 9b3d e4c7 e6bd 3b68 dabd 6ef4 2a3d
00000270: e89b d63c 2263 bebc 3cae 633c f1d8 983c
00000280: 84ed 633d 08ad c83d fe8d 59bd 44b6 b03d
00000290: 2782 f53d bb51 943d e41d 74bd 257b 1c3d
000002a0: 7bcb f43d e69f 603e 855c dd3d 433d 16ba
000002b0: c6eb 723c 1854 603e 0b3c 85bc 8f3c 703b
000002c0: 6c13 bcbd 2da0 543e 65b4 6e3e 1837 39bd
000002d0: 6ef4 d63c 8af5 8ebd 44a8 813d 4ee4 383e
000002e0: 0f40 93bc 36ce 62bd fe82 9dbd b5c8 573d
000002f0: 69f4 143d 5b6e 99bd 9017 6b3e d06f f1bc
00000300: ce04 a73c 9525 0d3d ebda 273d 339a 95bd
00000310: 7dce dabd 8ff5 a83c ede7 56ba 9802 d23c
00000320: 0775 cf3b 1bc0 303d 1156 2b3e 68b2 cfbd
00000330: 2c47 47bd 935c cf3d 7f55 dc3e 91d2 d4bd
00000340: 374a a43d 27e5 f63b 3e96 f43d e3a2 d53d
00000350: ad6d e73b 690c 083e 0f85 133d 1be1 dbbd
00000360: 6b0f 013d 07f1 10bd d008 d13e 89b1 efbe
00000370: 81db f43e fb55 abbe d2dd 7a3d f01d 35be
00000380: b82e 653e 112e e2bd 3e00 e53d b794 233d
00000390: 6fbd b7bd 9bbc b33d 8e5b 413e 24b4 92be
000003a0: 72b3 ab3d 88b3 a6bc bc10 43bd 7442 623d
000003b0: 920f a3bb aae9 c73c 9827 b1be b298 203e
000003c0: ea5f 483d 25c7 5bbb 6706 813d 5ee6 d43c
000003d0: 02ad dcbc 2abe 6b3e 3850 6a3c ef24 9b3d
000003e0: 8e1a 97bd 42e5 f73e 01ea ebbd 8720 11bf
000003f0: dfb5 a4bd ac81 513e 1ba4 073d 5b9b 173c
0.10709292 -0.05167425 -0.04982116 0.013572436 -0.37729347 -0.0653941 -0.017388131 0.009222497
0.03428403 0.06789072 0.3189972 -0.016746074 0.19331044 0.0116236415 0.2776095 -0.059576754
0.15443508 0.043977518 0.00974662 0.035839412 0.11343706 0.067834824 -0.15687439 -0.0017916374
-0.00489666 0.00027622806 0.033101678 0.048836637 -0.18111074 0.011460952 -0.2380648 0.008337463
0.07017727 -0.00032097954 0.47111377 0.022422915 0.12683536 -0.057870395 -0.1725264 -0.08554816
0.043784596 0.058134384 -0.056011952 0.10236955 0.07787188 0.026401538 0.09449579 0.22027959
0.0848849 0.12777738 -0.13229324 -0.11274053 0.031737722 0.24555796 0.30531216 0.10230445
-0.018464869 0.3833833 0.26593176 -0.011036043 0.0137560265 0.2332839 -0.24404363 -0.047758326
-0.52666575 0.03541111 0.040746994 0.020764098 0.3218415 -0.0061600828 0.06971631 0.28666148
0.062058013 -0.23619547 -0.37623507 0.083756775 -0.023320295 0.0037805357 0.02095583 0.19080329
0.074057534 0.0051734364 -0.032333948 0.044702347 0.0056472677 0.21014479 0.21152723 0.04987055
-0.039678257 0.22135419 -0.04094877 0.18774799 0.022370387 0.08956415 0.19556127 0.062095027
-0.0037316529 -0.017536111 0.055740323 0.075999565 0.10715066 0.06761915 -0.016213126 0.0014120203
-0.14430219 0.0373155 -0.052021492 -0.3013213 -0.30084625 -0.006183119 0.09783296 0.08047469
0.10897479 0.077189855 0.20871906 -0.036276277 0.28456622 0.044145342 0.17142697 -0.19210106
0.041166432 0.10189664 0.038775105 0.028338784 -0.03824306 -0.022485482 -0.12449637 0.0071462
-0.009647016 0.15873411 0.0007617355 0.045061793 -0.05430696 0.02857701 0.033597 -0.14898272
0.20458023 -0.5712665 -0.28889692 0.0020005608 0.09266603 -0.024695383 -0.017235028 0.41625684
0.008958365 0.42884994 0.023341138 0.21154378 0.022445558 0.0142942015 0.021186236 0.035577327
0.07613284 -0.11268595 -0.10664412 0.041737013 0.026197389 -0.02324063 0.013896521 0.018658133
0.055646434 0.09798628 -0.05311393 0.086285144 0.11987715 0.07242151 -0.05959882 0.038203377
0.11952873 0.21935996 0.10808662 -0.00057311746 0.014826721 0.21907079 -0.016263982 0.003665719
-0.09183392 0.20764227 0.23311003 -0.045218557 0.0262396 -0.069804266 0.06330922 0.18055841
-0.017974881 -0.05537244 -0.076910004 0.052681644 0.0363659 -0.07491752 0.22958207 -0.029472262
0.020388033 0.03445967 0.04098026 -0.07304802 -0.10683916 0.020624904 -0.0008198012 0.025636002
0.0063310894 0.043151956 0.1673205 -0.1014145 -0.04865186 0.10125079 0.43033978 -0.10391725
0.08021968 0.0075346413 0.11942719 0.10431459 0.007062635 0.13285984 0.036015566 -0.10736295
0.031508844 -0.03538611 0.40827036 -0.46815136 0.47823718 -0.33464035 0.0612467 -0.17687201
0.22381103 -0.11043943 0.11181687 0.039936747 -0.089716785 0.08776208 0.18882582 -0.2865306
0.08383836 -0.020349279 -0.04762338 0.055239156 -0.0049762214 0.024403412 -0.3460052 0.15683249
0.048919596 -0.0033535447 0.06300049 0.025988754 -0.026937965 0.2302176 0.014301352 0.07575404
-0.07378112 0.48417097 -0.11519242 -0.5669026 -0.08042502 0.20459622 0.033115488 0.009253348

actor.bias f4 [3]
00000000: 3c7a 773d ce0a e0bb 04ae 4a3c
0.060419306 -0.0068372255 0.01237059

critic.weight f4 [1, 256]
00000000: 27e4 aebe d68a ad3d ec55 abbe 03c5 453d
00000010: 608b 553c 5a6e a4bb c001 f63c eacd 2bbf
00000020: 1127 2a3d 7d93 fbbe 56be cabe 5b01 d43c
00000030: 491c 993d b671 24bf 5fee ee3d 76dd febb
00000040: 792b 50be 1c24 eebe 1c97 ae3a ac30 38bd
00000050: e09e d1be fd19 d6bd 0791 0a3f ef4b 1e3d
00000060: 1cb3 df3b 11d1 8c3e 1591 a7ba 160c b13e
00000070: db4d 653e eec7 123d 5f1e 193e a9d5 023d
00000080: c31b a03b be23 b53c 41dd c9be 87ef f7be
00000090: f749 223e ac91 36bf 6d76 9dbe f3e5 283d
000000a0: 1ff4 0f3d e7fd 2f3e 57e2 2a3d 9d0c 8f3c
000000b0: 28cd 223e edd3 0bbd f3f0 25be e77f ea3e
000000c0: a2cf 32be eeb8 4d3d 433f bdbe fc40 f93b
000000d0: 0a66 103d 3256 463e 6a1a eabd ee18 193e
000000e0: dd91 13be 72ae 323e 674c 5bbe 0066 653a
000000f0: 4ff7 67bd 2f3b a5bd 62c2 5b3c 3211 6c3d
00000100: 4bab ef3e c8b3 3fbf 6c28 08bf 5475 e3be
00000110: ee8d ecbe 7a3b 6f3d 5c88 1dbf e1e6 353e
00000120: 161e 0fbe 30be 503e 837a 3dbe 1618 883d
00000130: 5612 92be 77a5 1b3d 2c5e 2e3d 6875 9e3e
00000140: 4616 45be c43f 873d b89a 533d 2a72 183d
00000150: 8df0 833d e02a 57be 7b17 ed3c 6749 293d
00000160: ae48 1b3d 46fb d0bc 2182 0e3e 1d3e 923d
00000170: 7225 cb3c 419a a3be 414e 7abe f9f7 9a3d
00000180: 7725 8a3d 329f b93c d4b5 313d 494a 27bf
00000190: 6447 95bc 4a9a 083e b2a2 78bb 80bb 6a3d
000001a0: cf74 533d 9684 3f3c f095 03bc 2c68 6e3e
000001b0: daca bb3e 0684 1a3d ea96 c6be 6647 0c3e
000001c0: f2b4 fe3d 8c09 533d 44b9 95bd 04c1 133d
000001d0: 18de d53e 090a 613e b7a7 49be 41e1 d03d
000001e0: 1e3d a5bd 502e 183e d292 be3d 6b4c 983a
000001f0: 62a8 b53d dea1 57bf 0643 423d df42 5dbe
00000200: 8b5a 5c3e 1469 babe fb66 1abf 58d0 a639
00000210: b5bc 103d 4b26 603d d9d5 dd3c 78b3 273b
00000220: 523a c0be 4144 093f c03b 983c 23c2 3fbe
00000230: ddf6 793d 182f dbbb df97 11bf 13bb b73d
00000240: c70c 273d ddc1 37be 29dc 833c 527f 7ebe
00000250: 7412 d73b 2470 3fbf 2416 12be 10db 15be
00000260: 4730 10be 1328 443e 9d19 383c 479f d4be
00000270: 6f1e 0f3e 3bf8 c03c dfeb 0d3d 2d5b 4b3c
00000280: 31e2 283b fbdf ab3d 30cd 7a3d f0ee ca3d
00000290: 44eb 8bbe 684f 49bf 4820 b73d 0e69 183c
000002a0: f56c 433d 9e72 973d 7f23 02bf fad5 5bbc
000002b0: 9a23 12bf 3c75 e1be f445 7a3b 4eaa 17bc
000002c0: 0083 0bbe 32c5 a53d 77d7 8f3e 2f6e 81bd
000002d0: 8444 ccbd 6cb5 ccbd 6de9 983d 7319 dcbe
000002e0: 8d02 b33c f642 85bd 5e24 8f3e e74e f33b
000002f0: d473 4c3d 10c8 893d 3b17 5e3e c8cd 433d
00000300: 35ea 4f3d 9ff0 5e3e 1e43 30bf a899 63be
00000310: 95af dbbd 7347 67bc 3cc2 c63d d3dd 303d
00000320: 0788 b93c bf1d cf3d eea8 9dbd 901a 213b
00000330: 600d b6bc d751 05bf 4c4f 17be 43da 85be
00000340: 355c 16bf 8dc3 62be 5900 8bbd ca94 9a3d
00000350: b320 7e3d b88e dfbb 3ea6 09bd dc52 f13d
00000360: d6f7 d5bc c8e6 ecbe 9830 0fbe cee4 d93e
00000370: d6d9 65bb 0d03 333e 7d9b 723e 24b6 a03c
00000380: cab9 4e3e afcc 9fbd 6e18 653d 9ae8 dd3d
00000390: 6a0f 983c 6713 41bf 5ef5 70bb 0444 723b
000003a0: 58aa e1be d979 b8be 5e7d fa3e c420 34be
000003b0: 50c7 d83c 6dfa 8f3c c535 293e b45f 343d
000003c0: 06f2 5c3d 6537 32be cb2c 0d3d 9c57 c0bc
000003d0: 7ab2 f83c 3df9 263e e448 523d f400 47bf
000003e0: 3145 aebc 9fd9 203e a084 51bd a45b ad3e
000003f0: 1031 7aba 87c2 ecbd c379 10bf 327f 213d
-0.3415844 0.084737465 -0.3346399 0.04828359 0.013033718 -0.0050180377 0.030030131 -0.67111075
0.041541163 -0.49135962 -0.3959834 0.025879553 0.07476098 -0.6423601 0.116665594 -0.007777865
-0.20329084 -0.46511924 0.0013320181 -0.044968292 -0.40941525 -0.104541756 0.54127544 0.038646635
0.0068267714 0.27503255 -0.0012784327 0.34579533 0.22392981 0.0358352 0.14952992 0.031942043
0.004886122 0.02211177 -0.39426616 -0.48424932 0.15848528 -0.7131603 -0.30754414 0.04123492
0.03514492 0.171867 0.04171976 0.01746207 0.15898573 -0.034137655 -0.16205196 0.45800707
-0.17462018 0.05022519 -0.36962327 0.0076066237 0.035253562 0.19368818 -0.11430819 0.14950916
-0.14411111 0.17449358 -0.21415864 0.0008750856 -0.056632336 -0.08067929 0.013413044 0.057633586
0.46810374 -0.748837 -0.5318668 -0.44425452 -0.46202034 0.05840633 -0.6153619 0.17763855
-0.1397632 0.20385051 -0.18503766 0.06645219 -0.28529614 0.037999596 0.042570278 0.3094895
-0.19246778 0.06603959 0.051661223 0.03721825 0.06442366 -0.2101245 0.02894186 0.041329768
0.03791111 -0.025510442 0.13916828 0.071407534 0.024798129 -0.31953624 -0.24443914 0.07566828
0.06745427 0.022658918 0.043386295 -0.65347725 -0.018222518 0.13340107 -0.003793877 0.05730772
0.05162507 0.011689326 -0.008031353 0.23281926 0.366782 0.037723564 -0.38787013 0.13699111
0.12436856 0.051522776 -0.07310727 0.036072746 0.41771007 0.21976484 -0.19692884 0.10199214
-0.08068298 0.14861417 0.093053475 0.0011619454 0.08870007 -0.84231365 0.0474272 -0.2160754
0.21518914 -0.36408293 -0.60313386 0.00031817215 0.035336215 0.05472402 0.02707951 0.002558915
-0.37544495 0.5361977 0.018583179 -0.18726401 0.061026443 -0.0066889636 -0.5687236 0.089712285
0.04078367 -0.17945047 0.016096191 -0.24853256 0.006563479 -0.7478049 -0.14266258 -0.14634347
-0.14080916 0.19155912 0.011236575 -0.4152777 0.13976453 0.023555866 0.034648772 0.012411875
0.0025769586 0.0839233 0.06123084 0.09908855 -0.2732793 -0.7863679 0.08941704 0.009302391
0.04771133 0.07394908 -0.5083541 -0.013417715 -0.57085574 -0.44034755 0.0038188668 -0.009256912
-0.13624191 0.08094253 0.28094074 -0.06319844 -0.09974006 -0.09995541 0.074663974 -0.42988166
0.021851802 -0.065069124 0.27957433 0.0074251774 0.04991515 0.06727612 0.21688549 0.04780367
0.050760467 0.21771477 -0.6885241 -0.22226584 -0.10726849 -0.014116156 0.09705016 0.043180298
0.02264787 0.101130955 -0.076982364 0.0024582483 -0.022223175 -0.52078 -0.14776343 -0.26143083
-0.58734447 -0.22144909 -0.06787176 0.075479105 0.062042903 -0.0068224333 -0.033605807 0.11783382
-0.026119154 -0.46269822 -0.13983381 0.42557377 -0.0035072467 0.17481633 0.23692127 0.019618101
0.2018806 -0.07802712 0.0559315 0.10835381 0.018562037 -0.7542023 -0.0036767344 0.003696681
-0.44075274 -0.36030462 0.48923773 -0.17590624 0.026462227 0.017575467 0.16524418 0.044036582
0.05394175 -0.17403944 0.034466546 -0.023479275 0.030358542 0.16306014 0.051339045 -0.7773583
-0.021273227 0.15708016 -0.05115187 0.3385898 -0.0009544054 -0.11560541 -0.56435794 0.039427944
