Experimenten/Experiment1Snake/PPO/ppo_snake_600.pth (torch, 280840 bytes, 7 tensors)

shared.0.weight f4 [256, 9]
00000000: 9083 2b3e 93fc 1fbd 401b e23e a761 63be
00000010: d391 8c3c fe5b 793d fe1f da3e 5262 683e
00000020: 395a 80be 0449 9fbe 3576 463e 6ce4 d1bc
00000030: 1aca 65be a05f 46bd 9a94 abbe 2e9a c83d
00000040: d019 4dbe a043 76be baf3 023e 7602 d63b
00000050: f064 553e ea08 52bd fa8f 953d e1ca acbe
00000060: de92 38be b075 e83d e079 9ebe f5fc f0bd
00000070: 6aa5 1abe 38e0 553e 0e9b bdbe 8266 90be
00000080: 25f7 8a3e cba0 783e 3ea4 893e 353c 903c
00000090: 7ab2 72be aec6 3bbe b803 b5be 52d2 88be
000000a0: 8a69 b2be 27ec 5dbe 9d91 79be 9d76 8abe
000000b0: 8a4c f6bb 5a10 d03e efe9 6e3e e48d b93e
000000c0: 4e3f 84be e0aa 9fbb dce9 abbc 3d12 61be
000000d0: 88af aa3e fe29 b93d bf04 a1bd 4b6e 60be
000000e0: 7060 d43e 815f cf3e 26ae b1bc 8e15 f63c
000000f0: b49c 18bc 23ba 263e a0c9 cb3e 4a40 3c3e
00000100: fd34 c2bc 3851 0fbe 6989 b43d f87a 1bbc
00000110: 0723 03bc e711 febd 612c b73d dccb 92be
00000120: 97ed 4fbe be2d 20be 7183 8f3e 75f7 93bd
00000130: 9f2d 5dbe acc2 313c f3d6 98bc 0574 7a3d
00000140: dca2 3cbe 408c 873d 0e86 f6bd 15b8 d63e
00000150: 7813 b93d 3a84 493e 06d0 ffbd 1b48 80be
00000160: e69b 7f3e f1e7 b3be 1f30 7ebe 9ce7 653d
00000170: 3972 a73e 737b a6be f7ea 90be 4267 56bd
00000180: 0e5a 9bbd b1e6 a93d 377d bc3e 782e 803e
00000190: fe90 24be f63c 33be b128 3cbe 3aeb e4bd
000001a0: 5a1f 22bd 3483 01be 89b7 ebbd 141b d33e
000001b0: 7913 d9bc 69e9 9a3e 699b 1d3d dd0e 4c3e
000001c0: 6889 123e 61ac 2abd 354c 303e 470c d4bd
000001d0: c40f d83e bc05 ba3e 15e9 4dbc ebe4 5cbe
000001e0: 4973 703d c80c a13e 591d 333e 4ffc b7bc
000001f0: a2da 05be 1630 6fbe 3f77 bebe 1388 a7be
00000200: e2e4 be3e acd3 9bbe 069b c23d 0ecf 42be
00000210: 5a61 14be 0c91 463e c1b5 803c ca53 91be
00000220: 8e0f 94be 1a6f 963e e3b0 693e 09b7 333e
00000230: f36d 31be 6cf1 953e 75d3 50bd e518 693e
00000240: fe3f 83bd 6510 07be 0000 ae3e 9129 c93d
00000250: d6d5 8f3c c909 f0bd 709c a13e 0aff 2bbe
00000260: 7353 51be 470e 0c3e 3b14 6a3e aea4 b43e
00000270: 6ee0 353d 95af d23d 1d37 1e3e afd6 b43e
00000280: 7012 b03e 55da 9a3e 77c0 333e f0a6 c83e
00000290: 3d48 103e e4d6 cdbd 7cad 983e d968 29be
000002a0: 8e1e bd3e 7d82 8ebd fe1d 8cbc 7e52 a5bd
000002b0: eabb 663e 7b43 8d3e 3e8a d03e 32cd 803e
000002c0: 733b a03d 7021 d5bd 03a0 873e b323 a23d
000002d0: 3ee3 983c c62f e9bd c16d 683d af79 8bbe
000002e0: 9091 44be 7413 69bd 87c3 a8be 462c 983e
000002f0: d5fd 79be 7480 c13d da4c 213e b930 983e
00000300: 282f 5d3d 5b13 48be 721d 1dbd ad54 a5bd
00000310: baef 12be 363e 753c b38d c3bd 9021 f43d
00000320: 085d ac3e e877 c13e f59f 1bbe aeb8 2abe
00000330: 51ed 983e b17b 973e aa7a 6c3d 8548 2ebe
00000340: 0cbd c2bd 62b1 523e c3fd 7c3d 79c5 263d
00000350: 59e9 a93e e336 913d 3097 79be d282 77be
00000360: 9544 a4be 7389 193e c59c b63c e0af 993d
00000370: d77f 56bd 033d 87be 16f6 a43e 92de 983e
00000380: 2e30 05be b8b9 87bd 8c86 1c3e 56d3 ee3e
00000390: a671 46ba 60f5 763e cafd c0bd e878 753e
000003a0: d081 8b3e 4fa5 82be 298a 0dbe a286 a53d
000003b0: c030 a63d 411d 8fbe 2ca2 633e 049e 873c
000003c0: 896f a23e dbf5 813d d591 583e b662 a7be
000003d0: c5c7 3bbe 066d 303e 5fe9 d3be 8562 7f3e
000003e0: f7aa 9c3d e2d8 2bbe c97a a03e d400 94be
000003f0: b546 f6bd f029 873e 2650 813c d5ad 9a3e
0.16749406 -0.039059233 0.44161415 -0.2220522 0.017159378 0.060878746 0.42602533 0.22693756
-0.25068834 -0.31110394 0.1938103 -0.025621615 -0.22440377 -0.04843104 -0.33511811 0.097950324
-0.20029378 -0.24049234 0.12788287 0.006531055 0.20839286 -0.051278032 0.07302852 -0.33748534
-0.18024775 0.11350572 -0.30952358 -0.11766998 -0.15102163 0.20886314 -0.3703236 -0.28203207
0.2714168 0.24280088 0.2688312 0.017606834 -0.23700896 -0.18337509 -0.353544 -0.26722962
-0.34846145 -0.21672116 -0.24371953 -0.2704362 -0.0075164484 0.40637475 0.23331426 0.36241066
-0.25829548 -0.004872665 -0.020985536 -0.21979614 0.33337045 0.090412125 -0.07862233 -0.21917073
0.41479826 0.4050255 -0.021689486 0.030039575 -0.009314705 0.16281943 0.39802265 0.183839
-0.023706907 -0.13995826 0.088152714 -0.009489767 -0.008003957 -0.12405758 0.089440115 -0.28671157
-0.20305477 -0.1564245 0.2802997 -0.07224933 -0.21599434 0.010849636 -0.018657183 0.0611458
-0.18421501 0.066185474 -0.12037288 0.41937318 0.090369165 0.19679347 -0.12490849 -0.25055012
0.24961814 -0.35137895 -0.24823044 0.056129083 0.32704332 -0.3251606 -0.28304264 -0.052344568
-0.07585536 0.08295954 0.3681428 0.25035453 -0.16070935 -0.17503724 -0.18374898 -0.111776784
-0.03958068 -0.12647706 -0.11509616 0.41231596 -0.026498543 0.30256203 0.03847829 0.19927545
0.14310229 -0.0416683 0.1721657 -0.10353904 0.42199528 0.363325 -0.012567778 -0.215717
0.058703694 0.31455064 0.17491664 -0.022459177 -0.13071683 -0.23358187 -0.37200353 -0.32721004
0.37284 -0.3043493 0.095022246 -0.19024298 -0.14490262 0.19391268 0.015711667 -0.28384238
-0.28918117 0.2938164 0.22821383 0.17550291 -0.17327099 0.29285753 -0.05098291 0.22763403
-0.0640869 -0.13189848 0.33984375 0.09822381 0.01755802 -0.11720616 0.31564665 -0.16796508
-0.2044199 0.13677321 0.2285928 0.3528189 0.044403486 0.10287396 0.15450712 0.3532004
0.34389067 0.302447 0.17553888 0.39189863 0.14090057 -0.10050753 0.29819858 -0.16543902
0.36937374 -0.069584824 -0.017104145 -0.08072375 0.22532621 0.27590546 0.4073047 0.25156552
0.07823839 -0.10406768 0.26489267 0.07916965 0.018663045 -0.11386065 0.056745294 -0.27241275
-0.19196153 -0.056903318 -0.32961676 0.29721278 -0.24413235 0.094483286 0.15751973 0.29724672
0.05400005 -0.19538634 -0.03835816 -0.08072791 -0.14349261 0.0149684455 -0.09548511 0.11920464
0.33664727 0.37786794 -0.15197738 -0.16672012 0.29868558 0.29586557 0.05773417 -0.17019852
-0.09508714 0.20575479 0.061765444 0.04071567 0.33185843 0.07090547 -0.2437408 -0.24170998
-0.32083574 0.14993839 0.02229155 0.075042486 -0.05236801 -0.26413736 0.32219 0.29857308
-0.1300666 -0.0662722 0.152857 0.46645612 -0.00075700355 0.2411704 -0.094234064 0.23971903
0.27247477 -0.25516745 -0.13822235 0.0808232 0.08114767 -0.27952006 0.22229832 0.01655484
0.3172572 0.06345721 0.2114938 -0.32692498 -0.18337925 0.17229089 -0.41388986 0.24939926
0.076497965 -0.16781953 0.31343678 -0.28906882 -0.12025205 0.26399183 0.015785288 0.30210748

shared.0.bias f4 [256]
00000000: 0516 413e 6dcb 63be 64d8 84be ca74 20be
00000010: 2ed3 e0bd 7bcd 743e 0421 993e b629 ac3e
00000020: 28f1 2c3e 7a52 b6be 7d58 f23c 6c15 863e
00000030: 4c93 f73e e6ee d33d bfa4 9dbe 09b8 b3be
00000040: 7ab3 263e b3e8 0abc 3fac 763e f5cd a93e
00000050: a31c c7be 8914 c03e 1e31 373d 6afd 9fbe
00000060: 747b 29be 764f b33e 364b abbc 3194 24be
00000070: c833 e63e bdc2 82be 3927 8fbe 3465 a8be
00000080: 9f85 a33e 3fc3 9a3e 361f c33e 81fe 26be
00000090: 1f57 d03e 9eda 983d d564 a3be 0d72 2abe
000000a0: 119a a43e fdbb f3bd 29b6 dc3e 9097 d3bd
000000b0: 8e29 123f e2ba 2b3e 2ec5 29be 932e 6bbd
000000c0: 227a 163d d91d 54be 046c 103e 4d1d f2bd
000000d0: 9502 413e 5f20 5f3e 6dda 9a3c fc75 9ebe
000000e0: ca2f e63e b7f7 fb3d 3448 ff3c 13a8 ad3e
000000f0: 929d 0c3f 8fa4 87bd d32a ed3e f984 8d3e
00000100: d5f2 13be 4195 9e3d aedd bb3e 0a8a c23e
00000110: 61ae d93e 8c18 433e 063d f93e 5ba7 e63e
00000120: fa92 903e 054a d6be 56f5 b2bd a829 c73e
00000130: 18ef 953d 7594 98be 17fb 5b3e b892 babd
00000140: faed 97be bc49 f13e 2fb3 613e 300a 34be
00000150: 68be 873e 3134 c23e 3f85 dbbc f337 c53d
00000160: fdff eebd 467c 69bd d076 093e 29ef ddbd
00000170: da57 673e cfc3 df3d bfe3 c13e 5209 4a3e
00000180: 6228 a53e 7ec4 10be 2db5 84be b2ad 88bc
00000190: 1a13 053e 6700 35be 5a31 b13e d8f8 b33e
000001a0: a978 dc3e a2c5 9cbd 75cd d53e 0013 a6be
000001b0: 3e25 47bd 273b ccbe a778 b6be 0c62 193c
000001c0: 4a4b 69be 8dc7 05be 1b88 7b3d 8f8c c33e
000001d0: cc69 f93e 6af1 93be 3ef1 0c3d f4db bfbe
000001e0: 0605 cabe 9b63 83be c7e9 5c3e be17 a53e
000001f0: 1148 71be 704a 9fbe 82b0 9dbe 8f69 da3e
00000200: e323 993e 8eea 4abe 1eaf b03e ecc6 f53c
00000210: bfc1 0f3e ee5c 97be 91e4 6b3e 1765 97be
00000220: 5d58 47be 3c6f 23be f390 073e 6b29 3e3e
00000230: a650 4d3b f890 bbbb cf8f dfbd 3b66 b23e
00000240: 4d3d d93e 2c2a d3be bbd8 983e d36f 173e
00000250: 44cc 7e3e 4643 a63e 690e 853d 976b ba3e
00000260: f05d 06be f6fe 9abe c3ab 123e 4121 aa3e
00000270: b4fc 863e b392 4d3e 6215 6e3d 4131 b13e
00000280: 4f33 d9be 833e 5ebe d45f 873e ec7e ee3e
00000290: 3b93 023e a94e 62be bd2f dc3e 4b3e 953d
000002a0: a449 b63e 27f9 493e 6385 b63e 04d5 673e
000002b0: e0f4 7fbe e851 c1be e036 913e 1bae d63e
000002c0: 7ff7 623e 7227 79bd 361d 573e 0fa7 1bbe
000002d0: 2650 b03d 301d 19be b3dc 55be f7c2 163f
000002e0: 0ab2 43bd 4394 c5be 882b 2f3d 6e2e 0c3e
000002f0: b841 0abe 5e9a 1fbe 0307 06be dde2 803e
00000300: a9a4 59be b239 b8be 036d e33e b3dd dd3e
00000310: 5f41 a63e 5c9a 28bd dc1a 583e 4fb8 f83e
00000320: 9bb2 17be 0052 b9be 7eef acbd 369c 7fbe
00000330: 6b01 60be b8e6 85be 7f6a 44be 8449 a1be
00000340: 47bf adbe 3c3b 6f3e 3f02 82be 504c 8a3e
00000350: 3a97 e03c 5977 8b3d 4812 093f 626a febd
00000360: 74e9 233e ae32 7c3d 8503 d8be 9479 cdbe
00000370: 4179 f13e f21d c73d acbf 4cbe 8a27 e73e
00000380: 572f 873e 95fa 2ebe 0239 0cbe 7f86 b0be
00000390: c75f a8be 23bc ce3d 48a3 ff3e a722 813e
000003a0: cf56 0e3f e560 b2be 94b5 63be 973d b43e
000003b0: d8da e6be 4509 bbbd 6f79 a53b 17fe 073f
000003c0: e5ed 86be a1b2 cc3d c031 983d 8621 203e
000003d0: 7ed2 8cbd 7135 353e 5d52 303e a545 70be
000003e0: 80c6 853e c279 213e 5f1e 593d de94 ea3e
000003f0: 4dcb d7be ce3a 823e 44a0 2c3b 3015 ac3e
0.18856056 -0.2224557 -0.25946343 -0.15669551 -0.10977779 0.2390651 0.29908 0.33625573
0.16888869 -0.356098 0.02958321 0.2618822 0.48354566 0.10348301 -0.30789754 -0.35101345
0.16279402 -0.008478331 0.24089144 0.33164945 -0.38889036 0.37515667 0.044724576 -0.31248027
-0.16551 0.3502156 -0.020909887 -0.16072156 0.4496138 -0.255392 -0.27959612 -0.32889712
0.31937882 0.30227086 0.3810975 -0.16308023 0.40691468 0.07463573 -0.31912866 -0.1664507
0.32148793 -0.1190109 0.43107727 -0.10331643 0.5709466 0.16770509 -0.16579124 -0.057417464
0.03673757 -0.20714511 0.14103705 -0.11821995 0.18848641 0.21789692 0.018902982 -0.3094939
0.44958335 0.12303107 0.031162359 0.33917293 0.54927933 -0.06623184 0.46321735 0.27640513
-0.14448102 0.07743312 0.36692566 0.3799594 0.42515853 0.19052333 0.4867937 0.45049557
0.28237134 -0.41853347 -0.087382 0.3889897 0.07320994 -0.29800764 0.21482502 -0.09110016
-0.2967375 0.47126567 0.2204101 -0.17582011 0.26512456 0.37930444 -0.026796935 0.09629812
-0.1166992 -0.057003282 0.1342423 -0.10836632 0.22592106 0.109260194 0.3786907 0.19730118
0.32257372 -0.14137456 -0.25919476 -0.016684387 0.12995568 -0.17675935 0.34607965 0.3515079
0.43060806 -0.07654883 0.41758314 -0.3243637 -0.0486195 -0.3988888 -0.35638925 0.009361755
-0.22782627 -0.13064404 0.061409097 0.38193175 0.4871353 -0.28895122 0.034409754 -0.37472498
-0.39456958 -0.2566193 0.21573554 0.32244676 -0.23562647 -0.3111148 -0.30798727 0.4265866
0.29910192 -0.19816038 0.34508604 0.03000208 0.14038752 -0.29563087 0.2303641 -0.29569313
-0.19467302 -0.15960401 0.13238887 0.18570487 0.0031328588 -0.0057240687 -0.10916101 0.3484362
0.4242958 -0.41243112 0.29852852 0.14788751 0.24882609 0.324732 0.06496889 0.3641021
-0.13121772 -0.30272645 0.14323334 0.33228496 0.26364672 0.20075493 0.05812586 0.3460789
-0.42421958 -0.21703534 0.264403 0.4658121 0.12751476 -0.22100319 0.4300517 0.07287272
0.35603058 0.1972395 0.3564864 0.22639853 -0.24995756 -0.37757802 0.2836218 0.41929707
0.22164725 -0.060828634 0.21007237 -0.15200447 0.08609037 -0.1495254 -0.20884971 0.5889124
-0.047777213 -0.38589677 0.042766124 0.13689587 -0.13501632 -0.1558623 -0.13088612 0.25173083
-0.21254219 -0.35981518 0.44419107 0.43333206 0.3247175 -0.041162834 0.21103996 0.48578116
-0.14814226 -0.36195374 -0.08444117 -0.24961933 -0.21875541 -0.26152587 -0.1918125 -0.315014
-0.33934996 0.2336244 -0.2539234 0.27011347 0.02741586 0.06809873 0.5354352 -0.12422635
0.16007024 0.06157177 -0.42190185 -0.4013182 0.47162822 0.097225085 -0.19994992 0.45147353
0.26403305 -0.17087777 -0.13693622 -0.34477612 -0.32885572 0.10094478 0.4992926 0.2522175
0.5560121 -0.3483955 -0.22237235 0.3520324 -0.4508884 -0.091326274 0.0050498764 0.53122085
-0.26353374 0.09995008 0.07431364 0.15637788 -0.06876086 0.17696168 0.17218919 -0.23464067
0.26128006 0.15769103 0.05300748 0.45816702 -0.42147294 0.2543549 0.0026340643 0.33609915

shared.2.weight f4 [256, 256]
00000000: 1395 403c c7fa 0bbd c455 08bc 0726 33bd
00000010: e145 a13c 4a56 2a3e 6520 ab3d 47ac a63d
00000020: d19b 31bd 50ba 023c 16aa e13b 4fb6 bf3a
00000030: 2e6b b13d 5082 73bc 6a81 85bd 28ea 04bd
00000040: 25e6 833d 62ff 013d 903c f7bc d727 a4bc
00000050: ce56 c3bd a821 be3d c47b 8f3d 463c 15bd
00000060: 0574 14bd 3cfd adba b186 86bd ab7b 93bd
00000070: 5939 833d c70d 04bd 57cd 30bd ed01 a1bd
00000080: c5b4 2fbd d08b 883c 6ba6 2cbd 8f00 653d
00000090: d69b 1ebd b573 1b3d a674 d43b 229d a2bb
000000a0: e619 0e3d de81 49bc d4fd 033d 878e bcbc
000000b0: edb6 483e e072 0bbd 1c35 30bd 8837 4a3d
000000c0: 21b2 373d abc0 203d bc15 a7bc 07b8 4d3c
000000d0: 4bdd 93bb b834 a73d 6663 70bc 9fbf b2bd
000000e0: 61e8 9d3d 7115 893d cbe9 1f3c cc86 553d
000000f0: f97a e13d f19c b7ba dff8 733d 4948 373d
00000100: 9c67 15bc 14ca 99ba 8194 153d f35e 8f3d
00000110: 5b9a d13d fa4a d73b a207 f33d f0af 843d
00000120: ea2e 87bb 9542 05bc e338 4c3d 28a9 8b3b
00000130: 8ed4 fdbb b84f 49bd bce3 bd3c 9bbe ca3b
00000140: c1ce 4dbd 7b34 933d d81f 583d f1b9 54bd
00000150: ce2b 803d 09fb 973d cdf1 3f3c 39fb 523d
00000160: 864f 623d 9c0b 20bc f6ee b0bc 6052 a13c
00000170: 16be ee3b 2aef cc3c c881 9a3d 390a 8bbc
00000180: 523a 3a3d 25f7 29bb 40bf 1fbd 6a0c 3d3c
00000190: e4a3 4bbc a11c 213d 39e0 30bc ad97 c3bc
000001a0: b21c 593d 45dc 92bd e344 feb9 323f 85bd
000001b0: b5d0 193d 47fc 3dbd f980 0fbe e49f 393d
000001c0: c932 1d3c 32a8 c23c 9fa1 ba3d 9cf9 b0bc
000001d0: 8381 dc3d f2cd edba 5545 9b3c c89f 7b3d
000001e0: 8594 7fbd d62d 08bd 6b78 c03d 739c 0a3e
000001f0: b704 fa3c 39c5 72bd 5ed8 a9bc c59f b53d
00000200: 1b0b 493d 1df5 3a3d 2d23 b13d 9b4c d23b
00000210: 00a3 253d 61c1 073c 9638 aebc 11c3 413d
00000220: 38de d7bc 52e7 773d 5f8e 043d dd36 323d
00000230: 292d 443d e627 ddbb 0793 f1bc 1763 aebc
00000240: 187d 013c 86cc 6dbd 8570 683d ae20 083d
00000250: b302 523d d30e 973d 5b91 a2bc 9a53 3d3d
00000260: 167b 253b 6377 64bd aea8 aa3c db6f 763c
00000270: 8356 cf3d 23a4 81bb c55a 85bc 6123 7ebc
00000280: 894b 97bd edf7 c6bc 68eb 99bb 7523 053e
00000290: 3a1b 8a3d a16d 66bd 3ece 30bb b82b 1abd
000002a0: b0b8 423d 2d28 2b3d 4361 77bc a5d1 e0ba
000002b0: 5d09 e2bc 8bc4 85bd 605b bb3a d717 4a3e
000002c0: 39c0 ae3c 53b5 7e3c 7d45 a73d c1fc 58bd
000002d0: 20ae 3d3d 4369 ce3b b38e 113e 5711 a33d
000002e0: 70ef 00bd 024e 12bd df2f a5ba 8130 febc
000002f0: bb05 5f3c d1b1 69bc 6f99 813c f66c 9a3d
00000300: 76d3 1dbd 1855 64bd 34b9 963c 9951 7fbc
00000310: 2221 8b3d 2054 5e3c b5cc 8b3c 6f0b 633d
00000320: 1f3a 25bc b7be 29bd c711 5bbd 9a50 2d3a
00000330: fc7b 79bd 8306 663d 4b96 ee3c c4fb 013c
00000340: f3f9 aabd f8b6 373d 33df 49bd 52f1 553d
00000350: ded3 5e3d b811 61bd 7e8a 953c c519 adbc
00000360: eaa3 013d 8f1c fb3c 52f0 a93c 991a aebd
00000370: b750 a03d c015 503d 789a 0a3d 9c7c f83c
00000380: da1f 9a3c e112 ea3c a349 0abc def2 dd3c
00000390: d8a7 a6bd a550 97bc 7bb4 e93d 3422 9fbc
000003a0: b510 e83d 167c e73b 4e6b cbbd 57e3 a43d
000003b0: 1b4a 85bd 25ab 3dbd db69 fa3c 904e ed3b
000003c0: ea41 46bd 0752 013d 6cb2 3f3d f593 b0bc
000003d0: a64d a73d 690e 813c e835 e73b e3bc a1bc
000003e0: 1087 633d 7b5e 373d d954 27bd 0b51 3e3c
000003f0: 6067 71bd 899a 66bd 4b5f 843d 0e67 873d
0.011754292 -0.034174707 -0.008321229 -0.043737438 0.019686641 0.16634479 0.08355788 0.08138328
-0.04336149 0.007978991 0.006886731 0.0014626476 0.08663021 -0.014862612 -0.065188244 -0.03244987
0.06440381 0.031737693 -0.030180246 -0.020038528 -0.09538041 0.09283763 0.07006028 -0.036434434
-0.036243457 -0.0013274322 -0.06568659 -0.07201322 0.064074226 -0.0322397 -0.043164577 -0.078616954
-0.042897005 0.01666823 -0.042150896 0.055908736 -0.038722835 0.037952144 0.006483632 -0.0049625793
0.034692667 -0.012299029 0.03222449 -0.023017181 0.1960103 -0.0340451 -0.0430194 0.049369365
0.04484761 0.039246242 -0.020396106 0.012556083 -0.004512464 0.08164352 -0.014672136 -0.08727955
0.077103384 0.06693543 0.00976033 0.052130505 0.11009783 -0.0014008564 0.059563514 0.04474667
-0.009118941 -0.0011733198 0.036518577 0.07000532 0.10234519 0.006570217 0.1186669 0.0647887
-0.0041254656 -0.00813355 0.04985894 0.0042621084 -0.0077462858 -0.04914829 0.023179881 0.0061872727
-0.050246004 0.07187744 0.052764744 -0.05193514 0.06258355 0.07420928 0.011715365 0.051509116
0.05525162 -0.009768393 -0.02159832 0.0196926 0.0072858436 0.025016386 0.07544285 -0.016972648
0.045465775 -0.0025934663 -0.03900075 0.011538604 -0.012429211 0.039333943 -0.010795646 -0.023876036
0.05300588 -0.07170919 -0.0004849798 -0.06506194 0.037552554 -0.04638317 -0.14014043 0.0453185
0.009594628 0.023761842 0.09112858 -0.021603398 0.1076689 -0.0018143042 0.018953959 0.061431676
-0.0623975 -0.033246838 0.09397968 0.13536243 0.030519826 -0.059270117 -0.020733055 0.08868364
0.049082857 0.045643914 0.086492874 0.0064178235 0.040438652 0.008285851 -0.021267217 0.04730517
-0.02635108 0.06052334 0.03236234 0.043509353 0.04789463 -0.006749141 -0.029489053 -0.021287484
0.00790336 -0.058056377 0.056747932 0.03323429 0.051272105 0.07375874 -0.019844702 0.046222307
0.0025250367 -0.05577792 0.020832386 0.015041317 0.10123923 -0.003956334 -0.016278634 -0.015511365
-0.07387454 -0.024288142 -0.004697252 0.13001807 0.06743474 -0.056256894 -0.0026978399 -0.03763935
0.047539413 0.04178636 -0.015098873 -0.0017152323 -0.027592355 -0.06531628 0.00142942 0.19735657
0.021331893 0.015546161 0.08167551 -0.05297542 0.046308637 0.0062991693 0.14214592 0.07962292
-0.031478345 -0.035718925 -0.0012602768 -0.031028988 0.013612206 -0.014263586 0.015820233 0.07540314
-0.038531743 -0.055745214 0.018398859 -0.015583419 0.06793429 0.013569862 0.017065385 0.055430826
-0.010084658 -0.041441645 -0.05348375 0.0006611437 -0.060909256 0.056158554 0.0291244 0.007933561
-0.08348455 0.044852227 -0.049285125 0.052232094 0.05440127 -0.05494854 0.018254515 -0.021130452
0.03165046 0.030653266 0.020744476 -0.08501167 0.07827895 0.050801992 0.03383872 0.030332856
0.018814016 0.028573455 -0.008440408 0.027093347 -0.081374824 -0.018471071 0.11411377 -0.019425489
0.113313116 0.0070643527 -0.09932576 0.08051174 -0.06508275 -0.046305794 0.030568054 0.0072420314
-0.048402704 0.031572368 0.046801016 -0.021554926 0.08169107 0.015753942 0.0070559867 -0.019743389
0.055548728 0.044767838 -0.0408524 0.011616002 -0.058936477 -0.05629972 0.06463488 0.06611453

shared.2.bias f4 [256]
00000000: 7af1 0a3e b332 ec3c 1682 273e 832c 5c3c
00000010: 5943 063e 97d3 0a3e 2d80 84be d572 203e
00000020: 2f22 e53c 3515 813e 41b6 483e 1545 8f3c
00000030: d0a0 353e 9dd6 763e bf08 2e3e 73a9 633e
00000040: 1fc9 6d3e 744b 823e 981f b7bc c0fd f53d
00000050: 3174 883e dc44 683e 6ce7 a5bc 2d61 42bd
00000060: d5be d33c 244d 053c 0662 0abd 1a04 b8bd
00000070: 89ac 513e 64f7 d9bc c2e9 163e f3ac 0a3d
00000080: 850f 2cbe 0e40 5bbd 5580 5a3e 3d16 253e
00000090: 171e 5b3e 735d 6a3e 2058 7f3e b4bb aabc
000000a0: 74c3 b1bc d46b 453e 0460 3a3e a29d 99ba
000000b0: 35d7 32be 2f3c 003e d2b3 343e f990 cabd
000000c0: 2e52 2d3e c054 0c3e be58 673e 7c1c d4bd
000000d0: 6895 903a 1ca7 0a3e ce93 2c3e 4595 653e
000000e0: 23a1 813e 8d12 3c3e 5f2f 503e 32db 723e
000000f0: 5938 023e bdd9 5b3e 63b1 593e c8e5 e6bc
00000100: 5cea b1bd c779 2b3e 7a46 433e 0f91 613e
00000110: 6973 6d3e 9928 e73c 45ef 383e 4ac4 5f3e
00000120: 9b6b 6a3e 1b57 583e a4b7 5f3e 3b58 1f3e
00000130: caf4 2f3e c1ec 9dbc a303 88bc f025 0ebd
00000140: 4844 3d3e f451 e7bd 83fd 09bd 550f 74bc
00000150: 6bb1 1bbe ea62 443e 01cc 7c3e 7919 28bc
00000160: 2996 143d 0b02 263e 3568 333e d6c9 5a3e
00000170: e5fe 44bc 8220 4c3e fff8 503e 4f78 083e
00000180: 5e15 4a3e b663 9c3b 7d2b 25bd 2061 013e
00000190: ecfd 013e 1166 2e3e a187 79be 0308 183e
000001a0: 13b8 473e 1d57 8e3b 94f3 4dbe 7396 543e
000001b0: 5abc e5bd f150 1dbc 5cc0 6f3e b146 1c3e
000001c0: fa05 073e 339b b13c 99ca 2b3e fdb5 e23c
000001d0: 747c 37be 3adc 793d c1aa 0d3e ec7b 0dbe
000001e0: b334 553e 75a5 3a3d 608a 313e b5d0 1d3e
000001f0: b4e0 4a3e 90b5 1e3e ca1d 553e 1184 303e
00000200: 825c 80bc 49f0 813e dd1f 5c3e 5a11 13bd
00000210: 2837 47bd 7b54 b3bd 8247 a9bc dfe4 2a3e
00000220: d771 473e 27a1 233d da4a 383e 26d3 5d3e
00000230: 9ad2 e2bd 43ac 61bd 754f 543e 6431 113e
00000240: 7567 57bd 24be 803e 4360 53bd ddfe 523e
00000250: ebff 99bd a3c2 193e 644e 763e 0319 2c3e
00000260: 3ae7 493e a9f7 333d 14bf ea3b 97f6 113e
00000270: 0e0b 55be 17df 473c 6cb8 3cbc 0cbc 253e
00000280: 69d8 623e 109e 10bd 5486 0d3e 0548 66bd
00000290: 7b27 3b3e 4123 843e 259f 10be 5cf1 8b3a
000002a0: c6e3 eebd f78d 153d ec29 813e a5be 36bd
000002b0: 5adf 323e 1f7a 743e 84f1 f73c fa74 78bd
000002c0: 5c32 153e 5ff1 283e 2995 193e 3357 323e
000002d0: 0a2c 793e 9062 403e 784e 6bbb cf34 363e
000002e0: 056d 0cbd 0c65 223e c754 b8bc 80b4 75bc
000002f0: f546 cebc 6f67 383e 4257 283e cca9 3dbd
00000300: 0f65 d4bc 6fe5 0bbc 0b71 373e dc9a 6e3e
00000310: af23 673e c7ed 483e 2ceb 3e3e a6e2 193d
00000320: bd70 1abd 64b5 203e 682b 403e 9145 5e3e
00000330: 956a 613e 67b9 703e 9574 333e 27c6 113e
00000340: 8d42 803e 0c22 2f3e 6657 6d3e e947 283e
00000350: 6a39 3a3d 0809 033e 3482 753e 435c 623e
00000360: a7e2 36bd 548d 693e 3a0c 3c3e 1d74 713d
00000370: eb4c 2e3e 65bb 813e 30f0 593d b40f 463e
00000380: c447 383e 8cd1 483e e4e2 5bbd b151 1b3d
00000390: bc07 563e 421c 203e 10f9 123e efa9 253e
000003a0: d50e 363e 5c57 793e d428 3dbd 31ea 16be
000003b0: 5154 9d3c cc36 973c 4b33 183e 15cf 5dbe
000003c0: fee1 703a b12c 2b3e ed6d 31be 4b92 1bbe
000003d0: ef08 273c 6e61 0bbe cec0 543e f0e2 2d3e
000003e0: ebb2 0a3e 2e58 043e e01e 1b3e e175 f3bd
000003f0: ce51 3a3e 064f 2c3e f2ed 843e c968 fdbc
0.13568678 0.028832769 0.16358218 0.013438347 0.13111629 0.13557278 -0.2587904 0.15668805
0.027970402 0.25211492 0.19600774 0.017488996 0.17737126 0.24105306 0.16995524 0.22232608
0.23221253 0.2544819 -0.022353932 0.120112896 0.26651147 0.22682518 -0.020251952 -0.047455955
0.025847832 0.008136068 -0.03378489 -0.08985157 0.20475973 -0.026607223 0.14737609 0.033856343
-0.16802795 -0.053527884 0.21338017 0.16121764 0.21398197 0.2288721 0.24935961 -0.020841457
-0.021699645 0.19279414 0.1820069 -0.0011719952 -0.17464907 0.12522958 0.17646721 -0.098909326
0.1692588 0.13704205 0.22592446 -0.103569955 0.0011030855 0.1354031 0.16853258 0.22420223
0.2531825 0.18366452 0.2033057 0.23716429 0.12716807 0.2146978 0.21259074 -0.02818574
-0.08687279 0.16745673 0.19069853 0.22027992 0.23188557 0.0282176 0.18060024 0.21852222
0.2289261 0.21126978 0.21847397 0.15561001 0.17183223 -0.019277932 -0.016603297 -0.03470415
0.18483078 -0.11294928 -0.033689033 -0.014896234 -0.15204398 0.19178358 0.24687196 -0.010259979
0.036276016 0.16211717 0.1752022 0.21366057 -0.012023662 0.19934276 0.20407484 0.13327144
0.19734713 0.0047726287 -0.040324677 0.12634706 0.1269452 0.17031123 -0.24368145 0.14846806
0.19503812 0.004343881 -0.20112449 0.20760517 -0.11217566 -0.0096018175 0.23413223 0.15261342
0.13185874 0.02168045 0.16776504 0.02767467 -0.17918569 0.06100104 0.13834669 -0.13816804
0.20820884 0.04556795 0.17337942 0.15411647 0.1981228 0.15498948 0.20812145 0.1723788
-0.015669111 0.25378636 0.2149653 -0.03590522 -0.048636585 -0.08756348 -0.02066398 0.1668887
0.1947702 0.03994861 0.17997304 0.21662578 -0.11075325 -0.055095922 0.20733435 0.14178997
-0.0525889 0.25145066 -0.051605474 0.20605035 -0.075195156 0.15015654 0.24053341 0.16806416
0.19717112 0.04393736 0.0071638916 0.14254223 -0.20804998 0.012199185 -0.011518579 0.16185015
0.22152866 -0.03530699 0.13820773 -0.056221027 0.1827678 0.25808147 -0.14123209 0.0010676789
-0.11664538 0.03651234 0.25227296 -0.044615407 0.17468014 0.2387471 0.03026653 -0.060658433
0.14569992 0.16498326 0.14998306 0.17416076 0.24333206 0.18787599 -0.0035904925 0.17793582
-0.034283657 0.15858859 -0.022501362 -0.014996648 -0.02518032 0.18008207 0.16439536 -0.04630451
-0.025927095 -0.008538588 0.17914216 0.23301262 0.22572206 0.19621955 0.18644398 0.037569664
-0.03770517 0.15694195 0.18766558 0.21706225 0.22013314 0.23508225 0.17524941 0.14235745
0.25050774 0.17102832 0.23177871 0.16433682 0.04546491 0.12796414 0.2397545 0.22105508
-0.044649746 0.22807819 0.18364039 0.058948625 0.1702153 0.25338283 0.053207576 0.19341928
0.17996126 0.19611186 -0.053683177 0.037919704 0.20901388 0.1563578 0.14352822 0.16178106
0.17779095 0.24349731 -0.046181515 -0.14737774 0.019205244 0.018458746 0.14863317 -0.21661027
0.0009188949 0.16716267 -0.1732709 -0.15192525 0.010195001 -0.13611385 0.20776674 0.16981101
0.13544814 0.12924263 0.15148497 -0.11887718 0.18195269 0.1682702 0.25962788 -0.030933755

actor.weight f4 [3, 256]
00000000: 305a 2c3d b6fc c8bc 703c 6d3c b91c 10bd
00000010: 6bf5 57bd 9f47 3ebd 2ef1 6dbd 9bc7 a2bc
00000020: 696d 0c3d f21e 293d bffe 4f3d 102f 89bc
00000030: e02e 2b3d c4da c7bb 6a08 c13c a41d 2f3c
00000040: ec77 a03d b8a7 ae3c 482e 223c 3c03 40bc
00000050: 590c 233d 1d07 e83c a5b9 c1bd adc8 d3bc
00000060: 9917 b5bb ba6b 4c3b 851d fb3c 03cd b0bd
00000070: 315c 27bd b8c6 3b3c 5d9d 66bd eeee afbb
00000080: 3254 6b3c a660 92bc ce8d 8c3d 5813 bc3a
00000090: 1336 963d add4 b2bc a3a1 45bd 6f6e 91bc
000000a0: ec95 273d 8fa7 383d 0873 df3c 9a24 223d
000000b0: c1e2 a4ba 3bb0 a6bc 3b66 f33c 9bc6 a13d
000000c0: bc58 d2bb 70c6 113c fbad 5cbd df9e ddbc
000000d0: 8008 023d 552a bc3d 271b 863d 175f 923c
000000e0: 851d 52bd 3905 103d 1487 e53c 15a9 e63c
000000f0: 94ec 223d c21d 8a3d b47c 34bd 0948 79bd
00000100: ddbc a4bd 4c0c d6bc 9adf a2ba d393 f73c
00000110: bfb0 4b3c 4ac1 a7bb bd1d 473d b5a1 743d
00000120: bcf2 80bd e88f 89b9 0450 b5bb bbf3 663c
00000130: 20a2 3d3b c885 4c3b 6177 b93c 7cbd 7e3d
00000140: 7611 4abd a625 3d3c 9a70 04bd b222 383d
00000150: 6455 223c d457 703d faf2 8f3d 1045 4c3d
00000160: 25ea b1bc 54a4 3f3d b6a0 79ba 2183 db3c
00000170: de88 c33c 1b84 023c e2d0 a5bc 859d e3bc
00000180: 174c 94bc e4a7 8fbc 39bb 5e3d 1518 eebb
00000190: 9661 783d b73a f73c 091d dcbc 57f4 c13c
000001a0: e7e7 05bd 7618 e83c 1c8b 2fbd 8ee2 44bd
000001b0: f667 abbd c39b cabb 8a26 853d fe93 eebc
000001c0: a07f 363d 89a6 4b3d 72db 493d 81f9 d7bc
000001d0: 861a 963d 2105 b03c 1f97 8abc b62b ba3b
000001e0: 9de4 1c3d 3ade c23c 6983 f73b d031 f3bc
000001f0: e854 263d 3d83 c4bc aca7 10bd b096 8b3d
00000200: 0299 793c 86fd a43c 4beb 9cbc 4038 2e3d
00000210: 1099 5bbd 6c41 0a3d 2524 093d a582 5fbc
00000220: f658 743d 28f0 37bd 82f8 0abd 96c3 76bd
00000230: 6f50 893d 9016 57bd baae 8b3c e144 4a3b
00000240: 1bc6 123c a635 f63c cee5 df3c 9afe 333c
00000250: 459c e43c f156 97bb 5753 873c 0ccf 46bc
00000260: d567 2b3d 9dcd 2ebd 7c62 5cbd 9b1e 303b
00000270: ff84 c73c 644c babc 2528 673c 0068 a33c
00000280: 5f26 5d3b 417d 723d 1f01 82bd ff78 1b3d
00000290: fd0e 94bc 3d72 093d 678a 87bd 5d54 973c
000002a0: 3997 e53d fee3 9b3c b266 3b3d bd9c 8abc
000002b0: d1cd 173d 2ce2 97bc 0b3c 85bc d008 fa3b
000002c0: eff4 debc 4fbd 583d ee3c 943d dc02 f9bc
000002d0: 32ae a33c ab6b 8cbd f51d 1bbd f8fd a93b
000002e0: 5a65 08bd 595c 8ebd 04d4 373c 1699 573d
000002f0: 7331 773d f0de 103b 7b85 9d3d bdcc d9bc
00000300: ce04 a73c 99ec 5c3c 6481 05bd dcc0 fcbc
00000310: f550 8bbd 98f6 11bc 0f52 09bd 9802 d23c
00000320: d57a ca3b 0a84 2c3d 5d6d 983d 04e3 57bd
00000330: 7390 1fbd 52a1 b33c 4f11 8a3c a397 88bd
00000340: b662 ff3c 35d5 4e3d 332c d23c 6ea5 483d
00000350: 74e7 32ba bc49 6e3d fe9c 30bd 8fae 9dbc
00000360: 6b0f 013d d947 28bc 0832 0c3b db0b 53bd
00000370: 4641 af3c b8a9 79bd d015 45bc 761d 9c3c
00000380: 40ad 293d b3db 34bd 6bdd bebc 7d5a 293d
00000390: 2e0d efbc 0e60 d93b aa35 3a3d aaae 68bd
000003a0: 1a0e 383d f3eb 1dbd 29b8 0abd 73cb a33c
000003b0: 920f a3bb aae9 c73c 7f50 80bd 6539 b33d
000003c0: ea5f 483d 5f09 3cbd 601a 543d f62c af3b
000003d0: 02ad dcbc 846c 863d 1a87 62bc 1742 1f3d
000003e0: 2786 1abd 74a7 303d b97a 30bd ffc8 62bb
000003f0: c15a 00bd fd39 8a3d d858 8b3c 6a9b 173c
0.042078197 -0.024534564 0.014479741 -0.035183642 -0.052724283 -0.046455022 -0.058091335 -0.01987057
0.03428403 0.041289277 0.050780054 -0.016746074 0.04179275 -0.006099077 0.023563582 0.010688219
0.07835373 0.021320209 0.00989873 -0.011719521 0.039806698 0.028323704 -0.09459237 -0.025852526
-0.0055264947 0.003119214 0.030653724 -0.08632853 -0.040859405 0.011460952 -0.056302417 -0.005369059
0.014363335 -0.017868351 0.068629846 0.0014349027 0.073345326 -0.021829927 -0.048249852 -0.017752854
0.04091446 0.04508167 0.02727653 0.039585687 -0.0012579785 -0.020347705 0.029711833 0.07899209
-0.0064192694 0.008897409 -0.05387686 -0.027053295 0.031746387 0.09187762 0.06548148 0.017867608
-0.051297683 0.03516123 0.028018512 0.028156796 0.0397764 0.06743957 -0.04406424 -0.060859714
-0.08043835 -0.02612891 -0.0012426258 0.030221855 0.012432276 -0.0051194774 0.048612345 0.05972453
-0.06296298 -0.00026237895 -0.0055332202 0.014096196 0.0028935745 0.003120767 0.022639932 0.062192425
-0.04933306 0.011544621 -0.032333948 0.044954963 0.009908054 0.05867751 0.07028766 0.04987055
-0.021718094 0.046787575 -0.0009522544 0.026795926 0.023868974 0.007966067 -0.020241205 -0.027785072
-0.018102689 -0.017536111 0.05437777 -0.0072660544 0.06063994 0.030179365 -0.026869314 0.02367608
-0.032691862 0.028331976 -0.042857274 -0.048067622 -0.08369438 -0.006183119 0.06501491 -0.029123303
0.044555306 0.049719367 0.049281545 -0.02636409 0.07329278 0.02148682 -0.016917763 0.0056814803
0.03830396 0.023787607 0.007553507 -0.029686838 0.040608317 -0.02398836 -0.035316154 0.06815851
0.015234234 0.02014042 -0.019155165 0.042534113 -0.05361277 0.033753797 0.033481736 -0.013641988
0.059655152 -0.044906765 -0.0339284 -0.06024512 0.067047946 -0.05251175 0.01705109 0.003086381
0.008958365 0.030054878 0.02733126 0.010985995 0.027906546 -0.0046185185 0.016519232 -0.012134325
0.04184707 -0.042676557 -0.05380486 0.002687371 0.02435541 -0.022741504 0.014108692 0.019947052
0.0033744795 0.059201483 -0.0634787 0.037957188 -0.018073553 0.03355621 -0.06618195 0.018472845
0.11210484 0.019029614 0.045752235 -0.016920442 0.037061516 -0.018540464 -0.016263982 0.007630445
-0.027216403 0.052914914 0.07238184 -0.030396871 0.019980524 -0.068564735 -0.037870366 0.005187746
-0.03329978 -0.06951208 0.011219982 0.05263623 0.060349893 0.0022105537 0.07691475 -0.026586885
0.020388033 0.013484144 -0.0325941 -0.030853681 -0.06802551 -0.00890889 -0.033525523 0.025636002
0.0061791935 0.04211811 0.074427344 -0.052706733 -0.038956117 0.02192751 0.016853957 -0.066695474
0.031174999 0.0504963 0.025655841 0.04898589 -0.00068246503 0.058175787 -0.04311847 -0.019248275
0.031508844 -0.010271036 0.0021392126 -0.051524978 0.02139343 -0.060952872 -0.012029126 0.019057017
0.04142499 -0.044154834 -0.02329894 0.041346062 -0.02918109 0.006633765 0.045461334 -0.056807198
0.044935323 -0.038555097 -0.033867035 0.019994473 -0.0049762214 0.024403412 -0.062653534 0.087511815
0.048919596 -0.045907374 0.051782966 0.005345936 -0.026937965 0.065636665 -0.013826156 0.038881388
-0.037725594 0.043128446 -0.043085787 -0.0034604666 -0.03133655 0.06749342 0.017010137 0.009253362

actor.bias f4 [3]
00000000: b2c8 863d 312a b7bc 0bbf 623c
0.06581248 -0.022358986 0.0138394935

critic.weight f4 [1, 256]
00000000: d085 85bd 54fb c03b eb8a 87bd b805 623d
00000010: 34c5 c6bd 33f0 cbbd 7316 003e 1810 c5bd
00000020: 1127 2a3d c126 7abd a4d1 80bd 5b01 d43c
00000030: 8e3f b1bd a205 a9bd 2580 63bd 543e cdbd
00000040: 9173 b8bd 9d9f 3bbd 809a 36ba 2fc6 edbd
00000050: f6c4 7cbd ea25 9bbd 0baa 9d3d 01cb 113c
00000060: 1cb3 df3b 6503 8d3c 360f 053d 8d9f 9c3d
00000070: 4c81 83bd eec7 123d 96ee 81bd 75df 5d3d
00000080: 2f2f cc3d bce3 013c 8e91 60bd 4987 b8bd
00000090: 55bd e5bd 5294 a2bd 8298 8ebd 8079 263d
000000a0: a0e5 1c3d 4bf6 4dbd 04fd bfbd 7097 a53c
000000b0: ab35 083e a72c e1bd bc7e 96bd dfc1 b53d
000000c0: 4895 dcbd 78be c1bd 3c60 94bd 795b a73d
000000d0: 2fd8 1c3d 1a62 72bd b87c 99bd bd10 b4bd
000000e0: 9f03 acbd 2284 82bd 6152 91bd a370 dbbd
000000f0: 46ed 87bd fb95 acbd e09f bcbd 50fa 543d
00000100: 16d2 993d 217c a5bd f3ec 6bbd 8dc1 bbbd
00000110: 9678 57bd 135f 403d d372 81bd 9646 39bd
00000120: f1fc d9bd 6b0f 9dbd 05af 5ebd c10a f0bd
00000130: 1219 83bd 888c 253d cc79 1f3d 4bfb 8f3d
00000140: 7038 bdbd 8e7e a83d b89a 533d b4b4 1e3d
00000150: 86fa 9c3d 5f41 aabd 2335 04be 6749 293d
00000160: e78a 183d a1b6 cfbd 2e83 3fbd 5b29 70bd
00000170: 2165 cc3c f692 cbbd 1c3a 9ebd e137 e0bd
00000180: bc10 babd 329f b93c aac9 583d e606 87bd
00000190: 35d3 d2bd 68c8 87bd 032b b23d 7b17 f1bd
000001a0: 5a45 f5bd c8e4 433c e287 f13d 530b 5bbd
000001b0: 049b a63d 0684 1a3d 8dbd b6bd a55f babd
000001c0: afa8 b6bd 8d5e 653d 6a29 93bd fd25 163d
000001d0: aee1 c43d 3e4f a53d 9d57 65bd 5bce a33d
000001e0: 6bb8 e1bd 8de3 693d d705 c1bd d4d8 dfbd
000001f0: ab44 f8bd 0274 8abd 2b69 c9bd 3a75 a3bd
00000200: b826 263d c415 7cbd be19 b6bd cf97 643b
00000210: 686f 1d3d 34ab b23d c839 f33c 8b1e c8bd
00000220: d168 8ebd 1a81 8abc 2410 d8bd 8af6 d3bd
00000230: 6617 a43d d29f 5f3d e641 80bd 05b6 afbd
00000240: c70c 273d 8906 71bd 9767 183d 52dc 79bd
00000250: 66d0 083c 0f83 c6bd c056 d3bd c9e4 d5bd
00000260: e631 87bd b61c ff3c 7d35 4b3c 709d 87bd
00000270: eceb 183e 0762 d63c d037 1a3d 67bf d2bd
00000280: 3fce c2bd cb32 643d cb8f 97bd 96c2 d13d
00000290: 72f5 d3bd 1bf9 a4bd 2958 fd3d 60fd 4f3d
000002a0: c0d6 ab3d 269e 303c 7b5b b8bd 8b37 88bb
000002b0: 537b e5bd 1ee2 58bd f445 7a3b 5734 983b
000002c0: 8931 c4bd 7c29 acbd 2b93 1bbd 51f0 dabd
000002d0: 0619 dfbd c236 85bd 5e85 fa3c a318 59bd
000002e0: eac5 303d 77d4 cebd 8292 443d a296 1b3c
000002f0: 0d22 003d 0810 b4bd a694 2dbd 92a3 503d
00000300: 35ea 4f3d 652f b23d 32a7 83bd e5f2 a4bd
00000310: 68c6 adbd 731a f6bd cf9e d5bd d3dd 303d
00000320: 9d18 d23c d351 43bd 3e41 73bd 5cdc cdbd
00000330: 23cb afbd f925 90bd 22ae 6cbd d214 d2bd
00000340: 9a77 9ebd 1111 c3bd 0e48 72bd 361d b8bd
00000350: bea9 c43b ee7d d1bd 89e7 16be 0a56 debd
00000360: d6f7 d5bc b7f5 a6bd 6fef 76bd c9d9 f63c
00000370: 97eb 8ebd 8540 87bd 950d 2e3d 5ff8 bebd
00000380: e585 b3bd 722c 8fbd 15e1 5a3c e2cc 1f3d
00000390: 76bf ebbd 72ca 92bd 3b19 c1bd 704a cebd
000003a0: 15f8 5dbd 1b3e 82bd d065 b93d f74a 0e3e
000003b0: 50c7 d83c 6dfa 8f3c d7d5 6fbd 9938 043e
000003c0: 06f2 5c3d c2ae dfbd 9035 963d f441 813d
000003d0: 7ab2 f83c 542c cf3d 5785 debd 5783 9bbd
000003e0: d7cd debd e009 b5bd 9427 bcbd 4579 9d3d
000003f0: fa5c debd eace acbd 404e 99bd d28a 213d
-0.06519663 0.0058893356 -0.066182934 0.055181235 -0.09705582 -0.09957924 0.12508564 -0.0962221
0.041541163 -0.061072115 -0.06289986 0.025879553 -0.086547 -0.082530275 -0.05554213 -0.10021654
-0.090064175 -0.045806516 -0.00069657713 -0.11610066 -0.061711274 -0.07575591 0.07698449 0.008898498
0.0068267714 0.017213533 0.03248521 0.076476194 -0.06421146 0.0358352 -0.06344335 0.054168183
0.09969937 0.007927831 -0.05482631 -0.090101786 -0.11217753 -0.07938446 -0.06962682 0.040643215
0.038304925 -0.05028371 -0.09374431 0.020213813 0.13301723 -0.10994845 -0.073483914 0.088748686
-0.10770661 -0.09460157 -0.07244918 0.08171744 0.038292106 -0.05917559 -0.07494491 -0.08792255
-0.08399128 -0.063728586 -0.07095791 -0.10714843 -0.06637053 -0.08427044 -0.09210181 0.05199653
0.07510774 -0.08080316 -0.05759902 -0.09167776 -0.052605234 0.04696567 -0.06320729 -0.04523333
-0.10643948 -0.07668956 -0.05436613 -0.11720801 -0.06401266 0.040417224 0.038934514 0.07030352
-0.0923928 0.082272634 0.051661223 0.03874655 0.07664971 -0.0831325 -0.12910895 0.041329768
0.037241843 -0.101422556 -0.046755962 -0.05863319 0.024950566 -0.0994014 -0.07725927 -0.10948158
-0.09085223 0.022658918 0.052926697 -0.06593113 -0.10294191 -0.06630021 0.0869961 -0.11772057
-0.119761184 0.011956401 0.11793496 -0.053477596 0.08135036 0.037723564 -0.08922873 -0.09100274
-0.089188926 0.055998374 -0.071856335 0.036657322 0.096133575 0.08071755 -0.055991758 0.079983436
-0.11021503 0.057101775 -0.09424942 -0.109300286 -0.121224724 -0.06760408 -0.09834512 -0.079813436
0.04056427 -0.061544195 -0.08891629 0.0034880524 0.038436323 0.08724061 0.029690638 -0.097714506
-0.06953586 -0.016907264 -0.105499536 -0.10349758 0.080122754 0.054595776 -0.06262569 -0.08579639
0.04078367 -0.058844123 0.037208166 -0.06100113 0.008350467 -0.09692966 -0.103192806 -0.10444028
-0.06601314 0.03114162 0.012402889 -0.06621826 0.14933747 0.02616979 0.037650883 -0.10290413
-0.095119946 0.055712502 -0.07400473 0.102421924 -0.10349549 -0.080553256 0.12370331 0.050778747
0.0839057 0.010779893 -0.090018235 -0.004157012 -0.11205163 -0.052950017 0.0038188668 0.0046449113
-0.095797606 -0.0840635 -0.037982147 -0.10690368 -0.10893445 -0.06504585 0.030581173 -0.05300201
0.043157496 -0.10099118 0.047991283 0.009496363 0.031282473 -0.0879212 -0.04237809 0.050937243
0.050760467 0.08700446 -0.06428374 -0.08054141 -0.084851086 -0.120167635 -0.10430681 0.043180298
0.025646502 -0.047685456 -0.05938839 -0.10051796 -0.08583667 -0.07038493 -0.057783253 -0.102578774
-0.07737656 -0.095247395 -0.059150748 -0.089899465 0.00600168 -0.10229097 -0.14736761 -0.108562544
-0.026119154 -0.08152335 -0.060286935 0.030133145 -0.06978529 -0.06604103 0.04249342 -0.09324717
-0.08765773 -0.06990899 0.013359328 0.03901375 -0.11511128 -0.0716752 -0.094286405 -0.100727916
-0.054191668 -0.06359502 0.09052622 0.13895784 0.026462227 0.017575467 -0.058553543 0.12912215
0.05394175 -0.10922004 0.07334435 0.06311408 0.030358542 0.10115877 -0.10865276 -0.075934105
-0.108791046 -0.08839774 -0.091872364 0.07689146 -0.108575776 -0.08437903 -0.07485628 0.03943903
