Experimenten/Experiment1Snake/PPO/ppo_snake_8500.pth (torch, 280852 bytes, 7 tensors)

shared.0.weight f4 [256, 9]
00000000: 0cd1 0b3e d4b0 6fbd 831e ab3e 2e32 9ebe
00000010: 973c 993b 11d6 a53c bfdd 163f a0d5 083f
00000020: 5124 32bd a5e4 f7be b750 983e f79c 203e
00000030: 06b0 ebbe d167 153c dbd7 83be 5ef8 b53e
00000040: 1729 3bbe 9445 47be ea33 913c 0eca 313e
00000050: 7873 c13e 6a82 a4be 3c73 413d 9fcf 39be
00000060: cd62 743c 3b3e 643e 2922 06bf 1103 abbe
00000070: b73a 0bbe c42a 4f3e 8a8d e4be 9cf5 61be
00000080: dc56 653e 46ab 993e f341 b83e d809 983e
00000090: 0c7a 5dbe 26c4 95bd 3939 cdbe 568f 9cbe
000000a0: b138 a2be d7ef 18be f89f 1cbe b2c9 2ebe
000000b0: 4a7a 623e 5c50 ba3e b1c8 603e e403 9d3e
000000c0: 3a50 b8be 16c6 433b 70f7 453c 859d 8ebd
000000d0: e8e8 ed3e ecfd 183e 5822 81be 9319 b5be
000000e0: 5344 923e 7e0b c03e 4783 a83b 2426 9c3c
000000f0: 6c8e 193e 44a4 963e f070 163f 8cbd 4f3e
00000100: bc4e 3d3d fbb0 39bc 9b62 093e ed4b 48bc
00000110: 4d59 863a 6103 1bbf 5061 8d3e f0e2 21bf
00000120: c855 07bf a831 96be 862f be3e 6bdc 8bbc
00000130: 9eba 25bd 12c6 ff3a 56c3 dd3d 358b 983e
00000140: 8235 4abf 6de8 6a3d 3fcd f23d 26bf 083f
00000150: 97dd 93be 69c5 d73c a0c8 c6bd 78d0 0cbe
00000160: d8fc ad3e 60b4 49bf a097 99be 3442 553e
00000170: 1bd5 4a3e f182 01bf ad2b 38be 66cf 2ebd
00000180: 0aed c03d 5280 aa3e c259 553f 4a26 273e
00000190: 047a 1cbe c68a b6be 6ba0 64be 0261 28bc
000001a0: b2a0 23be 840d bcbd 0d5e 9d3d 58e8 893f
000001b0: 22f9 3b3d f029 9b3e cabd b4bc 1512 983e
000001c0: 1e82 223d 32af f1bb 8361 aa3e 3549 b5be
000001d0: 67d3 273f cb32 c23e a526 1fbe 70fd ccbe
000001e0: 0198 8dbd 7024 6b3e 3130 4c3e b454 383e
000001f0: f0c2 6f3d 9473 2cbe 6a00 bfbe cdbc a1be
00000200: 2f3f 173f 8ebc e4be fc6d de3d 66d3 41be
00000210: 974c 32bd de6c 0c3e f383 9ebe 1b13 e4be
00000220: 1992 afbe 7418 7a3e 3653 ce3d 9946 373c
00000230: 15ef a7bd 0240 ee3e 72cc 923d f30a b83e
00000240: 8e48 cdbe 2b1c c2bd 0474 e73e c3c2 003b
00000250: fb3a 6fbd 1c13 09be 641c 393f ef9e 893e
00000260: c037 6bbe ff77 093e 65dd 3b3d afdc 233e
00000270: 4ee7 203e f963 753a 10eb 743d e673 1d3f
00000280: 5d55 1c3f b170 063f 590f 403e eee5 0f3f
00000290: f987 e6bb 8c4e 01bf 05e2 543e cc65 84bd
000002a0: 5fc9 1b3f 6540 243d d96f a83c 21d8 d0be
000002b0: baf0 093e 3de2 5c3e 84ac fb3e 2908 1d3e
000002c0: f201 973c ac84 1a3d d09f 763e d17b 353e
000002d0: 7514 9bbc e571 833c f190 99bd d06e e8be
000002e0: 84ae 2fbe 679d f33a 1aeb ccbe bcc9 883e
000002f0: 3fb3 e53c 0716 053e 5e40 ad3e 9014 ee3e
00000300: eeea 4e3d a432 2bbd d1b5 1cbd 82d4 febd
00000310: f5bc 53be fae5 a03d 82c9 d7be 248a 7f3d
00000320: 5341 d93e 0636 3e3e 5431 9abd 97c9 b1bd
00000330: 6257 263f 8a84 1c3f e843 883d 5873 e7be
00000340: 808b babd eae2 0b3f 51dd 13be 58ee 003e
00000350: e0c5 253e e4a3 343e 030b 8fbe 1ead e4bc
00000360: 20d3 05bf e418 203e f733 983e 5db6 733c
00000370: 93c0 0abd 897e 28be bea2 503f 2928 2c3f
00000380: 064e d93d ea28 71bd 8f9b b13e 0f35 d63e
00000390: 4482 23be ec91 253e 5594 c9bd 593d f33e
000003a0: 8f01 dc3e 6eab c7be 18ac 693d 1e99 0b3e
000003b0: 6541 07bd c8e5 0abf be04 993d 93d9 14bc
000003c0: 1e26 413f 0d3d a13e e5ed 7b3e 36eb 17bf
000003d0: f2bc 87bd a522 e83e eb04 03bf f118 de3d
000003e0: ea28 f23d 5599 84bb a731 223e 8f27 3dbe
000003f0: 44de 07be 0f3f ac3e 63fb 553e e312 9f3e
0.13653964 -0.058518246 0.33421716 -0.3089766 0.0046764123 0.020243676 0.5893211 0.53450966
-0.043491665 -0.4841663 0.2974908 0.15684877 -0.46032733 0.00911899 -0.25750622 0.35541052
-0.18277393 -0.19460136 0.01772495 0.17362234 0.37783408 -0.32130748 0.047229037 -0.18145607
0.014916134 0.22289364 -0.52395874 -0.33400777 -0.13596617 0.20231158 -0.44639236 -0.22066349
0.22396415 0.30013484 0.35987815 0.2969501 -0.21628588 -0.07312803 -0.4008272 -0.30578107
-0.31683877 -0.14935242 -0.15295398 -0.17069128 0.22116962 0.36389434 0.21951558 0.3066703
-0.35998708 0.0029872707 0.0120829195 -0.06963638 0.46466756 0.14940614 -0.25221515 -0.35371074
0.28567752 0.37508768 0.0051426026 0.019061156 0.14995736 0.294222 0.5876608 0.2028715
0.046217665 -0.011333699 0.13416521 -0.012225133 0.0010250002 -0.6055203 0.27613306 -0.63236904
-0.52865267 -0.2933476 0.37145633 -0.017072877 -0.040461175 0.0019513986 0.10828273 0.29793707
-0.78987896 0.057350565 0.11855554 0.5341667 -0.28879997 0.02633925 -0.09706235 -0.137514
0.33981967 -0.78790855 -0.29998493 0.20826036 0.19807856 -0.50590426 -0.17985411 -0.04267826
0.094202116 0.33301026 0.83340085 0.163232 -0.1528092 -0.3565275 -0.2232682 -0.010277035
-0.15979269 -0.091822654 0.076839544 1.0774031 0.04589189 0.30305433 -0.022063155 0.29701295
0.03967487 -0.0073756212 0.3327752 -0.35407415 0.6555695 0.37929377 -0.15542085 -0.40037107
-0.06913758 0.22963119 0.19940259 0.18001062 0.058535516 -0.16840965 -0.37305003 -0.31589356
0.59080786 -0.44675106 0.108608216 -0.18928298 -0.043530073 0.13713405 -0.30960044 -0.44545826
-0.3429115 0.2442339 0.10074465 0.011186265 -0.08199898 0.4653321 0.07167901 0.35945854
-0.40094417 -0.09478029 0.452057 0.0019647337 -0.058405858 -0.13386196 0.72308946 0.2687907
-0.22970486 0.13424681 0.045865435 0.16002153 0.15713236 0.00093609054 0.059794486 0.6150497
0.61067754 0.52515703 0.18755855 0.5621022 -0.007035252 -0.5051048 0.20789345 -0.06464729
0.6085414 0.040100474 0.020561146 -0.40789893 0.13470736 0.21570678 0.49155056 0.15335144
0.018433545 0.037724182 0.24084401 0.17723013 -0.018930653 0.01604552 -0.074983485 -0.45397043
-0.17156416 0.0018586338 -0.40023118 0.2671641 0.028039573 0.12996684 0.3383817 0.46500063
0.050517015 -0.04179634 -0.03825933 -0.124428764 -0.2067755 0.078563645 -0.42145926 0.0623876
0.4243265 0.18575296 -0.0752894 -0.08681028 0.64977086 0.6113974 0.06653577 -0.45205188
-0.09108639 0.5464312 -0.14439894 0.12590921 0.16188765 0.17640644 -0.2793809 -0.02791458
-0.52275276 0.15634495 0.29727146 0.014875022 -0.03387506 -0.1645452 0.81498325 0.6724878
0.10610585 -0.05887691 0.34688994 0.41837355 -0.15967661 0.16168946 -0.09842745 0.47507742
0.4296994 -0.38997978 0.057048887 0.13632628 -0.03302135 -0.5425687 0.074716076 -0.009085077
0.7544879 0.3149189 0.24602468 -0.5934328 -0.06627835 0.45338932 -0.5117938 0.10844601
0.1182421 -0.004046599 0.15839253 -0.18472122 -0.13268381 0.3364186 0.20896678 0.31069097

shared.0.bias f4 [256]
00000000: 250a 983d 0e48 72be 5442 96be 3396 87be
00000010: a571 5dbd 0d25 113e 3370 8d3d 9e02 ed3e
00000020: 6331 b33d ae81 b1be 9eb5 21bd e4f4 043e
00000030: ee6c 0c3f f24c bdbd dfb0 5ebe 595f 04bf
00000040: 8fe8 403d 3217 1bbe 3bef 7c3d 0319 313e
00000050: 745c 01bf ae5a 113f 0dd7 3cbe 120c 92be
00000060: 9679 f7bd 2832 b23e 1cad 21bd 86c3 74bd
00000070: 3458 133f cd58 8cbd f4c8 80be 2211 bebe
00000080: 3cb7 9b3e 5ccd a03d 2ae7 f93d 307d 3bbe
00000090: eb1a e23e 6190 39bc 0fdc dfbe 8ef2 fdbc
000000a0: f5cf 013f 6dce 41be 506f eb3e 3838 7ebe
000000b0: 2bcd 1e3f f013 e2bd 2beb 03bb 9438 98bd
000000c0: 858e 88be d965 9dbe 63b2 0fbe 0591 003d
000000d0: 9f2a 32bc 31cc 193e d903 013e da00 96be
000000e0: db53 da3e f6e2 4d3e 61ac 5ebd 008a a63e
000000f0: dfc3 293f 99fd 6cbe 412f 2d3f b4fa b63e
00000100: e2ff e2bd 68e2 1b3e ce39 8f3e 2503 c73e
00000110: fa1e 033f 21c8 5e3e 5a3f 5a3e 8ac8 633e
00000120: 5fe9 9b3d b64b c0be 748f c43d 2b40 5f3d
00000130: 76a9 3b3c f603 6abe 62cb 683e 5c6f ddbd
00000140: 0e8d e5be a7b9 093f 6386 0a3d d458 c2be
00000150: 42b7 c33e 8570 c73d 018a ccbd cb78 91bc
00000160: fcea 0fbe 2e1a aa3d a8a1 443d c18e a13c
00000170: 540d a33e 3998 a2bd 9b07 033f 3fd6 2bbd
00000180: fc5d 1f3d f85c 323e e499 97be a7c7 4abe
00000190: 67d9 053e 71cc 72be 85a0 e63d 0a6a f83c
000001a0: 44f0 433e b33b 40bd 0b26 013f c3ce 66be
000001b0: 5aeb 95bd 960c ccbe 7dd9 99be a310 00bd
000001c0: 4772 3dbe dbad 48be a651 853c 9cac 503e
000001d0: 0f3b 123f 4584 aebe 466b 6fbe 2463 00bf
000001e0: 565d 11bf 7ad1 26be c20d 573e 80f1 b53e
000001f0: bde3 96be f0a6 20be 89fc a8be 6744 c63e
00000200: 1900 dd3d d8ef acbe 595e 7a3e c784 fbbd
00000210: 56c8 ddbb 8d9d 77be a8a6 6a3d 50b7 d7be
00000220: b56a a0be 4536 95bd 8c6d 9abc 2eae a4bd
00000230: a045 71be 67ba 11bd 221a 24bd 6fb9 e33e
00000240: c04e 1c3f 71a6 b3be a312 c03e 9fa3 3a3e
00000250: d856 c13c 3e4f 243e f99a 733e aa52 f13e
00000260: 76f0 90be 7af8 90be 82fa 893e 86ca 8d3e
00000270: ed57 343e ae11 d73e 3acc 81bb c0a8 073f
00000280: 7f00 14bf aefd a3be 265e 203e dbc4 e13e
00000290: 54b2 34bd ace5 3dbe 86d0 103f 3de7 0abe
000002a0: 2c57 ba3c 465a 18bd 15fe 023f e099 41bd
000002b0: b919 7cbe d292 9dbe baee dd3e b60e e63e
000002c0: 83dc 7e3e 7764 9fbe 8a73 333e e1a0 2ebe
000002d0: 05f7 f2bd 8203 2dbe d11a 94be 87ea 223f
000002e0: 4752 d9bd a007 b9be cf74 27be 8b90 1a3e
000002f0: b7ed 68be 0130 a2bd f8e9 67bd b0b1 f13b
00000300: d5ac 9abd 7f09 b9be 9c32 1d3f 4083 033e
00000310: bab7 cd3c bb1a 273d ee34 03be 96f4 023f
00000320: 4442 25be 2258 66be 08aa e7bc 953b 96be
00000330: 798a a9bd 7710 4bbe 82b5 3dbe e989 87be
00000340: 622c c0be 3cc0 bbbd 8126 d9be a120 043f
00000350: 8ff3 143e 7a6d f93d b641 1f3f eb4d 5ebe
00000360: 1843 ebbc 6bfa abbb a4d8 0abf 7658 fdbe
00000370: b9a3 743e 96ae 2bbe 7f35 60be 9d30 e93e
00000380: ea66 c33c ec25 2ebe 1e27 d5bd 4653 80be
00000390: e287 79be fcf1 a3bd ce8d 213f 4c0a bd3e
000003a0: 5214 363f 799b b6be 9923 a7be 9b9c 143f
000003b0: 64e5 b4be 489d 66bd 9baf 9ebd ad46 1f3f
000003c0: 1dbc 2fbe 622a 8abc 9720 d03d e638 a4bd
000003d0: 5ee2 61be 2c17 30bd 730e 223c 8bde 90be
000003e0: 9d8d 883c a08b b93c eac7 2dbe 86a3 f43e
000003f0: ed49 0ebf b444 e13e 9bb6 f23c cd2c c63e
0.0742381 -0.23660299 -0.2934748 -0.2648178 -0.054063458 0.1417429 0.06906166 0.4629106
0.08749654 -0.3466925 -0.039479844 0.12984043 0.54853714 -0.09243192 -0.21747158 -0.5170799
0.047096785 -0.15145567 0.061751585 0.17294697 -0.505317 0.5677899 -0.1844141 -0.28524834
-0.120837376 0.3480389 -0.03947173 -0.05975678 0.5755646 -0.06852875 -0.25153315 -0.37122446
0.30413234 0.07851669 0.12202294 -0.18309474 0.44161162 -0.0113259265 -0.4372258 -0.030999448
0.5070794 -0.18926401 0.45983362 -0.24826133 0.6203181 -0.11038959 -0.0020129185 -0.074326664
-0.26671234 -0.30741766 -0.14032893 0.0313883 -0.0108744195 0.15019299 0.12599124 -0.29297525
0.42642102 0.2010611 -0.054363612 0.3252716 0.663145 -0.23143615 0.6765023 0.35738146
-0.11083962 0.15223086 0.2797379 0.38869587 0.5121914 0.2175603 0.21313229 0.22244468
0.076128714 -0.37557763 0.09597674 0.054504555 0.011453977 -0.22853073 0.22733834 -0.10812256
-0.4483418 0.5379891 0.033819567 -0.37958395 0.38225752 0.09738258 -0.0998726 -0.017757794
-0.14054483 0.08305775 0.04800573 0.01972139 0.31846106 -0.079391904 0.5118348 -0.041952368
0.03890799 0.17418277 -0.29609597 -0.19802724 0.13071214 -0.237108 0.112610854 0.030324
0.19134623 -0.046931934 0.50448674 -0.22539811 -0.073202804 -0.39853352 -0.30048743 -0.031265866
-0.18500625 -0.1959757 0.016274285 0.20378345 0.57121366 -0.3408529 -0.23380765 -0.50151277
-0.56783044 -0.16290846 0.21001342 0.35535812 -0.29470626 -0.15688682 -0.3300517 0.38724062
0.10791034 -0.33776736 0.24450053 -0.12281185 -0.0067682667 -0.24181195 0.057287842 -0.42132044
-0.3133141 -0.07285742 -0.018851064 -0.08041035 -0.23561716 -0.035578158 -0.040063985 0.44477412
0.6105766 -0.35087922 0.3751422 0.18226479 0.02360098 0.16045853 0.23789586 0.4713338
-0.28308457 -0.28314573 0.26948935 0.27693576 0.17611666 0.42005676 -0.0039611133 0.5299187
-0.57813257 -0.3202948 0.15660915 0.440955 -0.04411538 -0.18544644 0.5656818 -0.13564773
0.022746645 -0.037195466 0.5116895 -0.047265887 -0.24619187 -0.30776078 0.43346196 0.449331
0.24888806 -0.31131336 0.17524543 -0.17053558 -0.118635215 -0.1689587 -0.2892671 0.6363911
-0.10611396 -0.3613863 -0.16353153 0.15094201 -0.22746931 -0.07919312 -0.056619614 0.0073759183
-0.07552496 -0.36140057 0.6140535 0.12843037 0.025112022 0.040796977 -0.1281316 0.5115446
-0.1613856 -0.22494557 -0.02827932 -0.29342332 -0.08278365 -0.198305 -0.18526271 -0.26472405
-0.3753386 -0.09167525 -0.4241219 0.5161229 0.14546035 0.12179084 0.6220964 -0.21709411
-0.028718516 -0.005248358 -0.5423682 -0.49481553 0.2389058 -0.16765818 -0.21895407 0.45544901
0.023852784 -0.17006654 -0.10407852 -0.25063533 -0.24368241 -0.08005139 0.63107 0.36921918
0.71124756 -0.3566549 -0.32644346 0.5805146 -0.3533126 -0.05630234 -0.07748338 0.6221722
-0.17161603 -0.016865913 0.10162466 -0.08018665 -0.22059008 -0.04299085 0.00989114 -0.28294787
0.016669089 0.022649586 -0.16970792 0.47781008 -0.5558155 0.4399773 0.029628089 0.38706055

shared.2.weight f4 [256, 256]
00000000: cb66 18be af3e bbbd d338 28be a4e9 c5bd
00000010: 4d83 4abe f5fc 5b3e 78e2 a43c 09f4 963d
00000020: ac6a 7fbe 3faa 27be 167f 873d e5fb 093e
00000030: fe21 b43d 8278 0b3d 0876 50be 5f74 28be
00000040: 9fec e9bd 33f3 a43c ec31 f4bc d604 cebd
00000050: f5bf b9be 5b58 733d c95c 3fbd 52d2 67be
00000060: 8ca1 92bd cbb3 cbbd ae85 1bbd 218b 7cbe
00000070: 82a7 03be ad9e 6abd 9131 03be d365 8bbe
00000080: eb28 10be 2462 4fbc 0f3a 8abd 4173 f53d
00000090: 0a78 90bd c2d7 ab3c 5e58 0dbe 164b 3abe
000000a0: 56c9 a03d ab04 9fbc d29e e8bc a8e2 dfbd
000000b0: a7fe 1c3e d305 0abe 28a7 45bd 53af 283d
000000c0: 6cda 29bd 8170 8dbc 3dfa 53be 0ca6 37be
000000d0: ac77 053d 2c93 2fbe 624e 01bc 368b 47be
000000e0: 3443 533d 0c46 0ebe 19e9 d6bd 3450 4a3d
000000f0: 1ac4 a23d bf25 edbd 9cf2 c83c a30d 37ba
00000100: 3c30 11be 98e9 ac3d 978e 053d 5990 abbd
00000110: 685e 433d da2f 8cbe 5a02 0c3e f347 2fbc
00000120: c4cf bc3b e31c 2bbe 3d73 57be fc3e a0bc
00000130: de15 033d 0f63 2bbd 39f1 31be 145a 49bd
00000140: 6edb 47be b501 603d 8dbe 153d fc43 0dbe
00000150: 1b26 f83c 70a4 073d f943 dd3c dff6 28bc
00000160: 7d94 393e c1a4 77be 4dc3 593a b37e 6b3d
00000170: 34e0 02be d760 be3a 26cf c63d 3fed babb
00000180: 74ca 363d 7720 6f3d 8737 ff3c 663f 33be
00000190: 0405 0d3c 45e7 35bd 982d 19be d049 5e3b
000001a0: a0e5 453d 56a9 b2be e3cb f0bd 1bfb 82bd
000001b0: ca30 ae3d b1ba e8bd 4759 93bd 2a48 06be
000001c0: 5fd0 cabd 0646 acbd d367 9fbc eef0 b0bc
000001d0: b571 b33c f753 45be 6ac3 fbbd 3344 dabd
000001e0: 807c 36be c79d 85bd 7a83 03bd 9ae1 9b3d
000001f0: 0941 253d f3ba c9be 0145 07be 1fd7 1a3c
00000200: 47fd 48bd 37fd 413d 43db b8bd aaa3 8fbc
00000210: 7c04 81bd 2f21 f2bd 0cfb 14bd a292 f5bd
00000220: b7c4 bebc 3f39 f43c 33cb 083d d8a9 dfbd
00000230: 805d 10bd 0460 2cbe 0093 ddbd 962a c33c
00000240: ca31 0cbe bc59 83be 00ab ad3d a86f 41be
00000250: 7c39 27be 900e 8cbb 5da0 49bd eb6f 95bd
00000260: 1cab e1bc 7822 92be ce74 84bd 9ec3 b2bb
00000270: f91f 253d 8d5e e7bd 0fd2 c83d 0f8b adbb
00000280: 3e96 5bbe c6c3 83bd f714 0d3c 7771 c83c
00000290: 451c 993c 7abb 95be c16d 3dbe 477d 123e
000002a0: fcca ef3d 85a0 513d 4e34 703c 671e 4bbd
000002b0: 2028 a0be 450c 68be 6006 00be 3296 0d3e
000002c0: 1901 673b ea3b f63c cf99 c63d 5075 edbd
000002d0: 689f 22bd 8568 153d 3fb7 0b3f 94d1 ca3d
000002e0: fa4e f8bc 07bc 28bd 9b86 ab3c 5a23 2fbe
000002f0: 572e 173d 61c1 a4be fac5 ccbd 9a7d 173e
00000300: 6790 7bbd 90bd 38be 1445 58bd 271c e3bd
00000310: eb89 003d 660d 00be 2098 5bbd ebb5 0ebe
00000320: 129a fb3c 486e 64bc 7550 98be 9905 c4bd
00000330: 4429 54be db70 e0bd 609d be3c 49e3 46be
00000340: 0ebc 5bbe dc6f 9f3c db2c 08be 71b8 1a3b
00000350: 9653 833c 380a 75bc 55ee 28bc 2fc6 adbd
00000360: 673b 133d 1ed3 033d e3e2 28be 872b 13be
00000370: ab63 453d f20a 7bbd 945d fc3c 571f cbbc
00000380: a122 43bd 85f0 55bd 5b1b 823b f268 2fbe
00000390: 1e93 f6bd bc05 e9bc 55f8 cdbc 5c75 03be
000003a0: 1b86 933b 8462 8fbe a271 3ebd 80c1 033c
000003b0: e9e1 5ebe d12c fdbe f660 813d 6e1f 85bc
000003c0: 362d 98be 3054 3abd 8528 933c b5ef 88bd
000003d0: 498b 983d a2be 19be 198a 04bd 41e3 afba
000003e0: d4bc c3bb 242f 8c3c 7a4b 5bbe 0f08 cdbd
000003f0: 2f01 6cbe 4272 c2bd e741 3f3d abb2 43bd
-0.14882962 -0.09142815 -0.16427927 -0.09663704 -0.1977665 0.21483214 0.02012752 0.07370765
-0.24943036 -0.16373537 0.066160366 0.13474996 0.08795546 0.034050472 -0.20357525 -0.16450642
-0.11422085 0.020135498 -0.02980896 -0.10059516 -0.36279264 0.059410434 -0.046719346 -0.22638825
-0.07159719 -0.09946402 -0.037969284 -0.24662448 -0.12856868 -0.05728023 -0.12811877 -0.27226123
-0.14078109 -0.012657676 -0.06749355 0.119848736 -0.07054146 0.020976905 -0.1380324 -0.18192706
0.07850902 -0.019411406 -0.028396044 -0.10931903 0.15331517 -0.13478784 -0.048255116 0.041182827
-0.04146807 -0.01726556 -0.20700927 -0.17934436 0.03258483 -0.17145985 -0.007892223 -0.19486699
0.05157776 -0.13893908 -0.104936786 0.049392894 0.0794756 -0.11579465 0.024529748 -0.0006982928
-0.14178556 0.08442992 0.032606687 -0.083771415 0.047697455 -0.27380258 0.13672772 -0.010698306
0.0057620723 -0.16710238 -0.21040054 -0.019561283 0.032003276 -0.041842517 -0.17377175 -0.04915817
-0.195173 0.054689128 0.036558677 -0.13795465 0.030291608 0.033115804 0.027009951 -0.010312765
0.1812305 -0.24183942 0.0008306995 0.057493877 -0.12780839 0.001452471 0.09707479 -0.0057045515
0.044626668 0.05838057 0.031154407 -0.17504653 0.008607153 -0.04441001 -0.14958799 0.0033918507
0.04831469 -0.34894818 -0.11757638 -0.06395551 0.085053995 -0.113637336 -0.07194763 -0.13113466
-0.09903025 -0.084117934 -0.019458687 -0.02159926 0.021904806 -0.19270311 -0.12293132 -0.10657539
-0.1782093 -0.06524234 -0.032107808 0.076113895 0.040345225 -0.39400443 -0.13209917 0.009450703
-0.04906967 0.047360625 -0.09026196 -0.017534096 -0.062996835 -0.118227355 -0.03637223 -0.119908586
-0.02328716 0.029812453 0.03339691 -0.10921067 -0.03524542 -0.16833502 -0.10819054 0.023824017
-0.13690868 -0.256544 0.08479881 -0.1889025 -0.16330522 -0.004274197 -0.0492252 -0.07296737
-0.027547412 -0.28541923 -0.06467591 -0.0054554483 0.040313695 -0.11297331 0.098056905 -0.005296118
-0.21444032 -0.06433825 0.008610955 0.024468167 0.018690238 -0.29244596 -0.18498899 0.14305602
0.11708638 0.051178474 0.014660908 -0.04958954 -0.31280613 -0.2266093 -0.12502432 0.13826826
0.0035248457 0.030057866 0.096973054 -0.11594641 -0.039702803 0.03647663 0.54576486 0.09903255
-0.030311096 -0.04119494 0.020938208 -0.1710333 0.036909427 -0.32178786 -0.099986985 0.14794007
-0.06141701 -0.18041062 -0.052800253 -0.11089354 0.03138153 -0.12505111 -0.053611875 -0.13936584
0.030713115 -0.013942309 -0.29748884 -0.0957138 -0.20718867 -0.109590255 0.023268402 -0.1942264
-0.21458456 0.019462518 -0.13298361 0.002360847 0.016031068 -0.01495605 -0.010310729 -0.08485066
0.035945322 0.03218376 -0.164928 -0.14372073 0.048190754 -0.061289735 0.03080634 -0.024795217
-0.047640447 -0.05223133 0.003970546 -0.17129877 -0.12039779 -0.028445117 -0.025142828 -0.12837738
0.0045020706 -0.2800485 -0.046495087 0.008041739 -0.21765865 -0.49448255 0.06317322 -0.016250338
-0.29721993 -0.045490444 0.017963657 -0.066863455 0.074484415 -0.15014127 -0.032358263 -0.0013419167
-0.005973438 0.017112322 -0.21415511 -0.10011303 -0.23047327 -0.09494449 0.04669371 -0.047777813

shared.2.bias f4 [256]
00000000: 8a4f 5f3d badc 953e 4e33 78bd ad3d 593e
00000010: 3bd0 a53c cb79 2bbd aaf3 9fbe 30ab 0cbe
00000020: 2f22 e53c 8b74 243d 8444 f23d 1545 8f3c
00000030: 5a20 483d bdbd 92bd fac5 1c3e b909 643d
00000040: e311 a7bc e676 123d 5fe2 c7bc 968b e7bc
00000050: 747c 893d bee7 f93c 2e50 d339 67d2 4b3d
00000060: 8684 c73c d66d 743e 9ecd d1ba fdeb 51bd
00000070: 2377 573e 64f7 d9bc 4a6b 873e cdd9 8d3d
00000080: cff8 50be 2472 8a3d c970 3f3e 579f eabd
00000090: 2546 82bc f89b 8fbd 22f7 b13c 3db0 1c3e
000000a0: 81c4 cbbc 7e5f 933e 80b1 fd3b 8b5e 393e
000000b0: 13a5 c7bd 8ced a4bd c48d 0bbc 152b aa3d
000000c0: d3c9 903d 294e 0cbd 97ee 3cbc 982e 9dbd
000000d0: 1a93 07bb 46e6 883e 0025 863d 6ac3 223c
000000e0: e30b 1b3e 039f 613e 8dee e93d acce 5c3d
000000f0: 5f72 41bd 15fb e13d 41b8 903d 7f9b aa3d
00000100: 897b 373d 861f 15be bcf7 a1bc 36a2 1abd
00000110: 1226 303e a624 e63c c2dd babd 35c6 9a3e
00000120: d2f1 103e 30a0 3cbd 42eb 1a3e af6f e7bc
00000130: 06e3 003e f8ca b6bc 1f13 0cbd e07c 4e3e
00000140: da15 be3d c635 09be 83fd 09bd e7b3 8cbc
00000150: 8468 44be 99b2 ff3c d7a3 073d 7919 28bc
00000160: c4e1 003d 0de7 0a3d ef42 873e 7916 9e3e
00000170: 0d59 57bc 5f5e 103e 9b21 093e fd2d aabd
00000180: 641d 13bd b663 9c3b 7b0d be3b efd2 08be
00000190: 867c 4bbd 9228 8e3e 4331 a3be c172 b8bd
000001a0: 8003 77bc 9eb6 bcbc 03a0 5fbe 779b 8e3e
000001b0: c2a3 653c f150 1dbc f2e6 9ebd ab3d 8dbd
000001c0: a5a2 ebbd 7566 143e 8dbd c33c 39d2 703e
000001d0: 2d75 aebd 379b a83e 65bb b33d 469e 213c
000001e0: 579c c53c e552 a63e bbdb 2abd cb4e 9ebd
000001f0: 3053 1e3d 4332 19be d47e 783d 195e 593d
00000200: d07c 663e 7073 5d3e 79c1 b2bd 26dc 1fbd
00000210: 0b33 54bd c3e7 01be b42a c3bc 6d44 44bb
00000220: f0c7 fbbc da12 973e e077 423d ea35 f93d
00000230: 2f72 3ebe c123 78bd e007 97bd 008d e53c
00000240: 7567 57bd 86b4 3a3e 4360 53bd 78a2 1d3e
00000250: 2760 a4bd bded 2abe 1ff1 4c3d 9e32 163d
00000260: 0f03 d43b 0229 a93e 6e1a 053e 8c7a b5bd
00000270: ba77 91be 3ee8 0f3c 4697 73bc 8705 f7bc
00000280: 2489 2a3c f386 483e cb2a 3b3c 21bb cd3d
00000290: 4c50 ff3d 7f7b cfbc ef91 2fbe ae5b 333d
000002a0: bd1b 0fbe f90e 483d a546 ddbc 447d aabd
000002b0: 96c8 c0bd 6820 2a3e 84f1 f73c fa74 78bd
000002c0: b933 9c3d 902f 5bbd 93a1 7e3e 6ac4 19bd
000002d0: c577 253d b58f e63d 97ef 183e e0d2 073e
000002e0: 7025 e73d 35c8 19bd 185a 693e d65b 94bc
000002f0: 69d4 f6bc 7061 05bc 9247 843e 50a7 4abd
00000300: 0f65 d4bc 02f3 8d3e 59f9 aabd 1cab cbbc
00000310: ff7a 893d 4fb2 d33b 4486 17bd a6e2 193d
00000320: 9c42 27bd cf6b 8d3e 9fc5 bb3c 2df2 473d
00000330: a7eb 863d c1cf 963a b3fc f63d 8e41 293d
00000340: 5bd0 04bd 58f6 853d d325 de3d 9863 85bd
00000350: 0bec 3b3e d694 36bd e058 6d3d 3ed2 1cbd
00000360: a7e2 36bd ca95 b5bc 16c7 013e e346 a13e
00000370: 1953 923d 0a94 413e 4635 9a3e fa16 053d
00000380: 83ce c9bc 8bee 913c 3f31 ba3d 3b1c 853e
00000390: 99d9 983c b4f7 0fbe 8b5f 033c 9e89 963c
000003a0: 66da 10bd 6654 273d 03ed beba 22ff 32be
000003b0: 5154 9d3c cc36 973c 9c8e 333e e7e0 68be
000003c0: fee1 703a b79f 3ebd 6c60 52be 97bb 0bbe
000003d0: ef08 273c c6f9 34be a998 b43c 4791 22be
000003e0: c845 4fbd 6a79 df3c 8812 3d3d 3ced ffbb
000003f0: 9999 5b3b 9bca b83c f956 37bd 981a 02bd
0.054519214 0.29269964 -0.060595803 0.21214934 0.020240894 -0.041864198 -0.31240588 -0.13737178
0.027970402 0.040150207 0.118294746 0.017488996 0.048858978 -0.07165096 0.15309897 0.055673335
-0.020394271 0.03575792 -0.024399934 -0.028264802 0.06713191 0.030506011 0.00040304795 0.049761202
0.024355184 0.23870024 -0.0016006713 -0.051250447 0.21041541 -0.026607223 0.26449043 0.06926308
-0.20407413 0.06760052 0.18695368 -0.11456173 -0.015902588 -0.070121706 0.021724287 0.15301605
-0.024873974 0.28783792 0.007742107 0.18102472 -0.09748282 -0.08053121 -0.008517686 0.083089985
0.07069745 -0.034254227 -0.011531494 -0.07674903 -0.0020687045 0.26738185 0.06550026 0.009934286
0.15141253 0.22033314 0.11422453 0.053908035 -0.047228213 0.11034218 0.07066394 0.0833044
0.044795547 -0.14562806 -0.01977145 -0.037752353 0.17202023 0.028093647 -0.09124328 0.30229345
0.14154747 -0.046051204 0.15128806 -0.028251497 0.12586603 -0.02231358 -0.034197923 0.20164824
0.092815116 -0.13399419 -0.033689033 -0.017175628 -0.19180495 0.031213092 0.033115234 -0.010259979
0.031465307 0.033911753 0.26418254 0.3087652 -0.01314379 0.140985 0.13391726 -0.08309553
-0.0359167 0.0047726287 0.005799947 -0.13361715 -0.0496793 0.27765328 -0.3187352 -0.090062626
-0.015076518 -0.023036297 -0.21838383 0.27852985 0.014016094 -0.0096018175 -0.07758893 -0.06896528
-0.11505631 0.1449221 0.023894096 0.23517694 -0.08518443 0.3293092 0.08775977 0.0098643955
0.0241224 0.32485119 -0.041713458 -0.07729872 0.038653553 -0.1496058 0.060667828 0.053068254
0.2250855 0.21626067 -0.08728308 -0.03902831 -0.05180649 -0.12686066 -0.023824073 -0.0029948012
-0.030734986 0.2950657 0.047477603 0.121684864 -0.18598245 -0.060580973 -0.07374549 0.028021336
-0.0525889 0.18232927 -0.051605474 0.15394008 -0.08026152 -0.16692252 0.05003464 0.036669366
0.006470091 0.330391 0.12998363 -0.088612646 -0.28411657 0.008783398 -0.014867609 -0.030154003
0.010408673 0.19582729 0.011423777 0.10045458 0.12466487 -0.025327442 -0.17145513 0.043788604
-0.13975425 0.048842404 -0.027011225 -0.08324674 -0.09413259 0.16613925 0.03026653 -0.060658433
0.07627053 -0.053512156 0.24866323 -0.03754083 0.040397424 0.11257879 0.14935146 0.13264036
0.112864375 -0.037544448 0.22788274 -0.018110197 -0.030130582 -0.008140907 0.25835854 -0.049475968
-0.025927095 0.27724463 -0.083483405 -0.024861865 0.06712913 0.006460465 -0.03699328 0.037569664
-0.040835008 0.27621314 0.022921382 0.04881494 0.06587916 0.0011506007 0.12059917 0.041322283
-0.032425266 0.06541127 0.10847058 -0.065131366 0.18351762 -0.044575535 0.057946086 -0.03828644
-0.044649746 -0.022166152 0.12673602 0.31499395 0.07144756 0.18904129 0.3011877 0.032492615
-0.024634605 0.017813941 0.09091424 0.259981 0.018658446 -0.14059335 0.008018385 0.018376168
-0.03536453 0.040851973 -0.0014566485 -0.17480138 0.019205244 0.018458746 0.1753487 -0.22742043
0.0009188949 -0.046539035 -0.20544595 -0.13645779 0.010195001 -0.17673406 0.02204545 -0.15875731
-0.050603658 0.027279574 0.04616025 -0.007810263 0.00335083 0.022557547 -0.044760678 -0.031763643

actor.weight f4 [3, 256]
00000000: 44a9 c73d e43e 41bd 48bf 5bbb 0c1b 673b
00000010: 2cf1 9fbe 4794 94bd dc25 d7bc e608 3fbc
00000020: 696d 0c3d 5ed1 873d 6c78 7a3e 102f 89bc
00000030: 0754 3e3e d48f 063c 62f3 5f3e ce3c 5fbd
00000040: 6fba 173e fcde 193d 3ea2 233c 59cc 123d
00000050: fb80 003e fcec 8a3d d737 24be d7b7 81bc
00000060: 2974 a0bb 5874 e33c 5f97 073d e698 423d
00000070: a36e 45be b8c6 3b3c 354a 69be 1ca0 4a3c
00000080: 1ab9 8f3d db2c 9e3a 4386 d93e 1eab b43c
00000090: 7abf 063e f534 46bd 62cc 1cbe 7d54 71bd
000000a0: 7a57 333d 8acd b13d 0be0 7ebd c7f0 b83d
000000b0: a3fe fd3b 2347 023c 0287 c13d 7ed0 6b3e
000000c0: f894 af3d ae21 eb3c 4f61 e9bd c5ff bebd
000000d0: 6aff 013d b208 7c3e e051 9c3e 6d8d e13d
000000e0: 8ec6 723c 72a9 be3e 23a5 5f3e 4a75 24bc
000000f0: 3087 e33b 4973 503e 876e 2ebe ffba 5ebd
00000100: 9702 03bf 91d6 9d3c cb30 273d 7d03 7f3c
00000110: 80ca 943e 9748 d3bb 579b 963d 9b3b 933e
00000120: 4feb a23d 472e 77be f3b8 b9be 1b1a d13c
00000130: 34e9 adbd ddc2 773b 90ab ab3c 6ff5 453e
00000140: 6b84 443d ee85 a93b 9a70 04bd ea19 373d
00000150: b70c b93b 3230 573e 5a45 353e 1045 4c3d
00000160: ab85 22bd acaa 623e 10c0 63bd 2085 303e
00000170: 1a42 b73c 32bc 663d fa4b ea3d 64fe e53c
00000180: 39d8 dc3c e4a7 8fbc dd74 193d dc8c 933d
00000190: 1f3d d23d 8e6b 963d 64d1 84bc 6545 403d
000001a0: 6abd 11be 23d8 183d dc5d 52bd 9d4a a1be
000001b0: 11ac a4be c39b cabb 81c3 cf3d a77e 683d
000001c0: 0099 d83d 0aa6 983d 73ba 553e 3d17 1abd
000001d0: d4cf 703e a7a2 3b3d 4aea 2f3e 16d2 2dbe
000001e0: 229e 283d 6127 c83d 2143 ee3c 4f9a ab3b
000001f0: 4b29 a23c 21d0 babb 04bf f5bd d3a6 27b9
00000200: 490d 80bc 4df7 9a3d 3864 043b b792 383d
00000210: fa70 5ebd 551a ea3c 029d 093d 518e bfbd
00000220: e877 473e d971 13bf 1799 5bbe 12b3 6bbd
00000230: b0c7 bd3d ff1d 02bd f92a 97bb 8777 683e
00000240: 1bc6 123c c61a c63e cee5 df3c 1608 803e
00000250: bfdf b73c dae3 853c 2020 b83c 097c f83b
00000260: 89eb 9b3d 81d3 e9bd 79f7 c1bd ad23 943d
00000270: e7fb 6b3d 2263 bebc 3cae 633c e3b6 8f3c
00000280: 5257 0f3d 0da3 b93d 5431 a2bd 4acc 7e3d
00000290: 1d5c bc3d d358 963d e41d 74bd 7436 083d
000002a0: 7bcb f43d df69 0d3e 04a8 bf3d 433d 16ba
000002b0: 4380 9f3c cfba 063e 0b3c 85bc d008 fa3b
000002c0: be86 b3bd 4657 4a3e 6046 783e 7327 02bd
000002d0: cd2a 493b 7415 45bd ef21 703d 2e03 373e
000002e0: 6d98 73bc de94 05be a812 acbd b5c8 573d
000002f0: a589 6d3d fb2f 79bd 52e0 7c3e d06f f1bc
00000300: ce04 a73c cfef 0f3d f306 383d d48c 88bd
00000310: 7dce dabd 2ae2 8e3c 4953 82bb 9802 d23c
00000320: 0775 cf3b 9528 013d 1156 2b3e 06ad adbd
00000330: 2c47 47bd 3ece ae3d 4caa d03e 879d cabd
00000340: 2646 9b3d b167 fe3b 3e96 f43d 44a6 e53d
00000350: 3011 d83b 4382 ff3d c2d9 14bd aa8e a2bd
00000360: 6b0f 013d 6ae7 b4bc abd9 b03e 16a9 f1be
00000370: 1f14 b43e ac04 8dbe e33f 873d 64f1 dabd
00000380: c27c 4f3e 112e e2bd dd6a db3d b18b 243d
00000390: d407 5abd ab32 b73d 1090 483e d283 62be
000003a0: f80a e63d fac9 0f3b 1986 dcbd f0cd 0a3d
000003b0: 920f a3bb aae9 c73c 10a7 acbe 2236 083e
000003c0: ea5f 483d 25c7 5bbb 6706 813d 959e 5fbb
000003d0: 02ad dcbc 074b 4d3e 1668 b4ba 9028 bf3d
000003e0: f1a7 cbbd 8ffe ae3e 9c8d 07be d423 f6be
000003f0: 71dc 94bd ad45 443e 7aa1 803d 5b9b 173c
0.09749082 -0.047179118 -0.003353076 0.0035263924 -0.31238687 -0.07254844 -0.02626317 -0.011659836
0.03428403 0.066317305 0.2446 -0.016746074 0.18586741 0.008213002 0.21870187 -0.054501347
0.14817213 0.03756617 0.009987412 0.035839412 0.12549202 0.067834824 -0.16036926 -0.015834732
-0.00489666 0.027765438 0.033103343 0.047509097 -0.19280486 0.011460952 -0.22782214 0.012367275
0.07017727 0.0012067811 0.42485246 0.022054251 0.1315898 -0.048390348 -0.15312341 -0.058918465
0.043784596 0.086817816 -0.062225383 0.090303 0.0077513023 0.007951531 0.09449579 0.23028752
0.085733354 0.028702583 -0.11395513 -0.09326128 0.031737722 0.24612692 0.30531216 0.11013303
0.014817847 0.37238652 0.21840338 -0.0100377295 0.006943606 0.20356478 -0.1703435 -0.054377552
-0.51175827 0.019267352 0.040818017 0.0155647965 0.29060745 -0.0064478624 0.073538475 0.28756413
0.07955038 -0.24138747 -0.36273918 0.025525143 -0.084917456 0.0037805357 0.02095583 0.19331907
0.047977846 0.0051734364 -0.032333948 0.044702448 0.0056472677 0.21014479 0.17702237 0.04987055
-0.039678257 0.22135419 -0.055603087 0.17238283 0.022370387 0.05633182 0.11440273 0.028075404
0.026958572 -0.017536111 0.037464965 0.07204601 0.10265564 0.07344733 -0.016213126 0.04694118
-0.14232412 0.0373155 -0.051359043 -0.31502238 -0.32162526 -0.006183119 0.10144711 0.05676141
0.105760574 0.074535444 0.20871906 -0.037619818 0.2351678 0.045809414 0.17179218 -0.16974673
0.041166432 0.09773136 0.029084744 0.005236901 0.01979508 -0.0057010804 -0.11999324 -0.00015988508
-0.015631335 0.075667 0.0020201337 0.045061793 -0.05430696 0.02857701 0.033597 -0.093533166
0.19479334 -0.5759559 -0.21445118 -0.05754382 0.09266603 -0.031766888 -0.004613277 0.22701846
0.008958365 0.38692302 0.02733126 0.2500617 0.022445558 0.016344 0.022476256 0.0075831455
0.07613284 -0.11417294 -0.0947103 0.07233367 0.05761328 -0.02324063 0.013896521 0.017543262
0.034995385 0.090643026 -0.07919565 0.062206544 0.09197257 0.073411606 -0.05959882 0.033255056
0.11952873 0.13809918 0.09358218 -0.00057311746 0.01947034 0.131572 -0.016263982 0.007630445
-0.087659344 0.19759855 0.24245596 -0.031775903 0.0030695677 -0.048116162 0.05862611 0.17872307
-0.014867884 -0.1304507 -0.08401996 0.052681644 0.057992596 -0.060836773 0.24694946 -0.029472262
0.020388033 0.03514081 0.044928502 -0.06667486 -0.10683916 0.017441828 -0.0039772135 0.025636002
0.0063310894 0.031532843 0.1673205 -0.08480267 -0.04865186 0.08535431 0.40754926 -0.09893327
0.07581739 0.007763826 0.11942719 0.11213353 0.006593846 0.12476017 -0.036340483 -0.07937367
0.031508844 -0.022083003 0.34541067 -0.47199315 0.351716 -0.27542627 0.06603982 -0.10690573
0.20262435 -0.11043943 0.10713742 0.040172283 -0.05323012 0.08945211 0.19586205 -0.22120598
0.11232561 0.0021940456 -0.107677646 0.033887804 -0.0049762214 0.024403412 -0.3372121 0.133019
0.048919596 -0.0033535447 0.06300049 -0.0034121622 -0.026937965 0.20048152 -0.001376393 0.093339086
-0.09944142 0.34178588 -0.13237613 -0.4807421 -0.07268608 0.19167204 0.06280799 0.009253348

actor.bias f4 [3]
00000000: cc96 5f3d 4ef8 3ebb 6e6f 883c
0.05458717 -0.00291397 0.016654696

critic.weight f4 [1, 256]
00000000: e060 4ebe a202 bf3d 7f7d a3be e9ec 863d
00000010: 046b 573c 302f 203b b547 423d 26cb 2bbf
00000020: 1127 2a3d ddae 00bf 9a9e b4be 5b01 d43c
00000030: 89bc 75bc 2387 16bf c7b1 f53d e8a5 63bb
00000040: 9ddf 6cbe 27fa e9be 9a3f 8eba ac30 38bd
00000050: 0c4c ccbe fd19 d6bd 3aff 013f bbf1 1f3d
00000060: 1cb3 df3b 0ee2 8e3e d4fa b3ba 1352 9a3e
00000070: 0d46 673e eec7 123d 662d 203e 097e b23b
00000080: c31b a03b 47c8 443d 4832 b2be 8735 e4be
00000090: ed1f e53d 5c80 27bf a620 99be d6f0 4b3d
000000a0: 1ff4 0f3d 5863 2e3e 349f 183d d0ad 123d
000000b0: e767 053d 89dd 123b f3f0 25be 7315 f43e
000000c0: 1b3d 02be 4dee aebb f3f7 aebe c952 033d
000000d0: 0a66 103d c761 4c3e 6a1a eabd 0e46 733d
000000e0: f721 fdbd 971f 3e3e 1c89 fcbd 2160 5bbc
000000f0: b791 93bd c393 93bd 1a1b 213b c749 9a3d
00000100: 4d4e e13e 33a5 37bf ab8e 07bf cf8a d6be
00000110: 7cc7 c0be 1aa9 763d 01c7 23bf 95d5 3c3e
00000120: 8265 e1bd d87b 5a3e 5f63 0bbe 67a9 923b
00000130: 8e6e 6bbe 77a5 1b3d 2c5e 2e3d 7225 a13e
00000140: 87d8 06be c43f 873d b89a 533d 185a 1d3d
00000150: 8df0 833d e02a 57be 96f3 b63b 6749 293d
00000160: ae48 1b3d 46fb d0bc a89c 0b3e e171 a83d
00000170: 7225 cb3c 5fd2 84be cc89 38be c917 c33c
00000180: 111b 663d 329f b93c 93d6 793c 8b0a 26bf
00000190: 6e49 14bd 1ce3 0e3e c954 e2bb b91c 863d
000001a0: 5d4d 1c3d 9684 3f3c f84b 93bc 4a77 803e
000001b0: 8ef9 bf3e 0684 1a3d ecb1 a4be 2ae9 fc3d
000001c0: 900b a43d 25d0 9e3d 44b9 95bd 589b 503d
000001d0: 0ecc 9e3e 1171 663e 472b 36be 3267 a23d
000001e0: 1e3d a5bd 7011 203e 5486 f83d 56d5 b23c
000001f0: 7f39 b43d 9e23 45bf ca39 cb3b d8b4 f5bd
00000200: 8d5c 523e 3d18 a9be b96a 0bbf 58d0 a639
00000210: b5bc 103d 4b26 603d d9d5 dd3c 9e15 3fbb
00000220: 8edd a1be 1fa8 0b3f 73d1 863c de5a 22be
00000230: ddf6 793d bd1b 5e3c 2d63 10bf e567 b4bb
00000240: c70c 273d 638c 1abe 9767 183d cd90 60be
00000250: 7412 d73b b934 3bbf e0ae 0ebe cb4e 4cbd
00000260: 4730 10be 61eb 4d3e 9213 de3c 2fc4 cdbe
00000270: b350 0b3e 3bf8 c03c dfeb 0d3d ea05 de3b
00000280: f4ef ecbb 9e6e c63d cdda 4d3d 1eea c53d
00000290: 0acf 87be d218 49bf 4820 b73d 88cf 693d
000002a0: f56c 433d 28ca 1f3d c86d f9be fad5 5bbc
000002b0: 70bc 15bf 9b64 aabe f445 7a3b 5734 983b
000002c0: bda4 e0bd 9a3d dd3c 1936 953e a891 03bb
000002d0: 243b 54bb 7b36 9bbd 9531 9e3d 73ce aebe
000002e0: 092a 1f3d a32b f13b 9444 933e e74e f33b
000002f0: 6ec8 843d ea46 133d ce62 5d3e c8cd 433d
00000300: 35ea 4f3d d22c 633e 557d 2dbf 0667 58be
00000310: 95af dbbd d7e2 bfbb 76d3 043d d3dd 303d
00000320: 0788 b93c 7cdc ec3d eea8 9dbd a5b1 5fbc
00000330: 600d b6bc 7947 07bf 4fa9 05be 2478 5dbe
00000340: 47cf 14bf 586d 10be 5900 8bbd f7b1 4c3d
00000350: 95a5 aa3d 91ac aabc f373 e3bb 7ee0 bb3d
00000360: d6f7 d5bc bedb f2be 8a0c f8bd d512 df3e
00000370: 1311 3dbb 2076 173e ee90 793e 9774 773c
00000380: 0615 bf3d afcc 9fbd c3d4 8d3d 2c68 f33d
00000390: 7545 853c b956 39bf 5632 77bc 6b76 f83a
000003a0: 181e e7be d235 c1be 42f9 be3e 938a 22be
000003b0: 50c7 d83c 6dfa 8f3c c98c 253e ee56 0a3d
000003c0: 06f2 5c3d 6537 32be cb2c 0d3d 3f13 3f3d
000003d0: 7ab2 f83c cddc 7f3d 721b d93c 0c34 47bf
000003e0: 4b96 f3bb bf69 153c 1844 05bd 0a22 a03e
000003f0: 2656 95bc 9051 f4bb 5d9c 15bf 327f 213d
-0.20154142 0.09326674 -0.31931683 0.06588156 0.013148073 0.0024442188 0.047431666 -0.67106855
0.041541163 -0.5026682 -0.35277253 0.025879553 -0.014998564 -0.5879995 0.11996799 -0.003473634
-0.23132177 -0.45698664 -0.0010852695 -0.044968292 -0.3990177 -0.104541756 0.5078007 0.03904889
0.0068267714 0.2790684 -0.0013731369 0.30140743 0.22585316 0.0358352 0.15642318 0.0054471535
0.004886122 0.04804256 -0.34803987 -0.44572088 0.1118773 -0.65430236 -0.2990772 0.049790226
0.03514492 0.17030084 0.037261203 0.03581029 0.032569792 0.0022409877 -0.16205196 0.47672614
-0.12718622 -0.0053384663 -0.34173545 0.032061372 0.035253562 0.19959174 -0.11430819 0.05939298
-0.12359994 0.18566738 -0.12330839 -0.013389618 -0.07205527 -0.07205918 0.0024582804 0.07533603
0.4400505 -0.7173645 -0.5295207 -0.41902778 -0.37652194 0.06021986 -0.6397553 0.1844085
-0.11005689 0.21336305 -0.13612126 0.0044757607 -0.22991392 0.037999596 0.042570278 0.3147388
-0.13168536 0.06603959 0.051661223 0.038416 0.06442366 -0.2101245 0.005583237 0.041329768
0.03791111 -0.025510442 0.13633978 0.08224846 0.024798129 -0.2594175 -0.18021315 0.023815053
0.056178156 0.022658918 0.015248912 -0.6485984 -0.03620284 0.13953823 -0.00690708 0.06548447
0.038159717 0.011689326 -0.01798056 0.2509101 0.37495083 0.037723564 -0.32166994 0.1234916
0.08010018 0.07754544 -0.07310727 0.050929397 0.31015056 0.22504069 -0.17789946 0.07929839
-0.08068298 0.15631652 0.12134996 0.021830242 0.08800029 -0.7700747 0.0062019574 -0.11997384
0.20543118 -0.33026305 -0.5445972 0.00031817215 0.035336215 0.05472402 0.02707951 -0.0029157172
-0.31614345 0.5455341 0.016457295 -0.15854976 0.061026443 0.013556418 -0.5640133 -0.0055055493
0.04078367 -0.15092616 0.037208166 -0.21930237 0.006563479 -0.73127323 -0.13933897 -0.04987983
-0.14080916 0.20109321 0.027108941 -0.4018874 0.13605003 0.023555866 0.034648772 0.0067756074
-0.007230753 0.09689067 0.050257493 0.09663795 -0.26525146 -0.785535 0.08941704 0.057082683
0.04771133 0.03901115 -0.4871657 -0.013417715 -0.5849066 -0.3327988 0.0038188668 0.0046449113
-0.10968921 0.027006913 0.29142836 -0.0020075832 -0.0032383883 -0.07578751 0.07724301 -0.34141883
0.038858447 0.007359938 0.28763258 0.0074251774 0.064835414 0.0359563 0.21619722 0.04780367
0.050760467 0.22185066 -0.67769367 -0.2113305 -0.10726849 -0.005855899 0.032428227 0.043180298
0.02264787 0.115654916 -0.076982364 -0.013653194 -0.022223175 -0.52843434 -0.13052867 -0.21627861
-0.5812878 -0.14104211 -0.06787176 0.049974408 0.083323635 -0.02083424 -0.0069413125 0.09173678
-0.026119154 -0.47433275 -0.12111767 0.43569055 -0.0028849288 0.14791155 0.24371693 0.015103481
0.09330182 -0.07802712 0.06925347 0.118851036 0.016268471 -0.72397953 -0.015087685 0.001895619
-0.45140147 -0.37736374 0.37299544 -0.15873174 0.026462227 0.017575467 0.16166987 0.03377431
0.05394175 -0.17403944 0.034466546 0.046649214 0.030358542 0.06246643 0.026502345 -0.7781379
-0.007433688 0.00911945 -0.032535642 0.3127597 -0.018229555 -0.007456012 -0.58441716 0.039427944
