Experimenten/Experiment1Snake/PPO/ppo_snake_5000.pth (torch, 280852 bytes, 7 tensors)

shared.0.weight f4 [256, 9]
00000000: 6af0 153e b370 b4bd 01ee b53e 8ba5 6ebe
00000010: f1a8 c43c 684c 0f3d edf4 333f 1663 053f
00000020: f9cf 3fbd e9b6 01bf 5dcd 663e c4fd 393e
00000030: b30d 9ebe ffd0 353c 6ceb 81be c0cb 9c3e
00000040: a8ed 82be d243 a8be 27c5 5dbd a0bd 9f3d
00000050: 338e d03e c68d 00be a6d8 883d 28c9 7fbe
00000060: a5b1 7fbd 1424 1b3e b5f0 fbbe 132d a9be
00000070: f76c fdbd b2b0 803e 4871 f8be 7747 64be
00000080: 7882 703e 0664 7e3e 093f 9b3e df8f a63e
00000090: 5962 5bbe 3c74 f3bd 98a1 e2be 3ad5 9cbe
000000a0: 687e 93be 3d68 57be 80dc 55be 653c adbe
000000b0: aa1d 813e 8abe b93e 91f0 483e b990 8f3e
000000c0: 579d b4be b901 54bd d6af 75bd c6ff adbd
000000d0: 1330 f13e 7027 613e 62d6 11be c51e 98be
000000e0: 5b38 b73e d520 bc3e 9eb4 133c 0b3b aa3d
000000f0: 2ed6 193e 0cdb 943e 5384 1e3f 282d d03d
00000100: 2222 c2bd 6b7b 03be ed76 063d c33f 083b
00000110: 9ca7 f1ba 347b 09bf a877 903e d663 1fbf
00000120: 00af c1be 1df1 dcbe ca0c ae3e f80f 67ba
00000130: 2456 46bd f506 19bd 0d35 2d3e 72bd 913e
00000140: da61 f6be f65e 12bd d107 52bc 3a40 f23e
00000150: 7f93 a4bd c769 a73d 12a7 adbd a1f7 1fbe
00000160: 0626 b83e 4aad 0abf 89c3 a1be a504 273e
00000170: aebf 733e f10b f6be 0b27 28be cdb8 99bd
00000180: a0f7 1e3e c825 573e a7a0 4e3f ce4c 5e3e
00000190: 576a bbbd 4ee4 a1be 449d 99be 7b1b 3abd
000001a0: e925 7cbd 8678 acbc da24 1e3d 22f9 8a3f
000001b0: db2a 70bd e2e9 7b3e 6d5a 9bbd 65d1 753e
000001c0: ce85 6c3d 3d75 d1bc 792a b83e 3bc8 c0bd
000001d0: a3e1 273f 5938 c13e 64d6 99bd fe84 a9be
000001e0: 2331 593c fc1f 823e 5660 483e fd10 553e
000001f0: a7e2 e53d 5589 58be d0a1 dabe 860f 90be
00000200: eddf 083f 12a6 abbe 917c 9f3d 06cb 59be
00000210: c301 02bd debd 473e 9e46 a6be afd6 87be
00000220: 5cf2 acbe 0c99 8f3e 764b 283e eeaf 893d
00000230: f856 d4bd ae47 f23e 8ac1 2bbd 980c be3e
00000240: addb 90be e650 06be 6ab3 d43e 1ab9 c73d
00000250: 556e 5fbd 84c5 9abd be9e 4e3f 1ec7 553e
00000260: ff0b 72be e0e4 363e 70af cb3d 150d 8d3e
00000270: dc6e e43d 7073 843d 9206 c53d f39a 1d3f
00000280: 04ab 0b3f 48ff 053f c92d 073e 94a9 ed3e
00000290: 3ae4 eb3c aceb 91be d62e 683e 42ed 01be
000002a0: 0f96 2d3f 865c 143e 3def 86bb 260b 34be
000002b0: fe17 af3d c6c2 2f3e 663a dd3e c8de 543e
000002c0: fd57 8f3d 99e6 1abb d19e 903e 80e9 963e
000002d0: cb9b 5e3d 9d50 6dbd 09aa 96bd 524b a2be
000002e0: 648e 2bbe 99f1 80bd c0c9 bcbe 1339 2f3e
000002f0: b2a0 5cbc 2ebc f73d f53d 6d3e 55e9 b33e
00000300: 19eb 7c3d 80a5 bcbd 0161 38bd e002 12be
00000310: 19ba a2bd 5bed bc3d 8ae5 88be d2b2 253d
00000320: 688f c23e f958 9f3e b7e6 f3bd a2a1 00be
00000330: 8a63 283f 129c 0a3f 7762 3b3e b78c b3be
00000340: 3525 d1bd 1052 d73e a29f 97bb d52a 9b3d
00000350: 8025 673e 7edd 58bd af1e abbe baf5 f3bd
00000360: 13d1 ebbe 6372 ec3d ac67 863e 637c 5e3d
00000370: 62b8 89bd a105 35be 2e10 443f 5630 173f
00000380: 8faf da3d cbe6 b8bd 6fda 843e 5a3b d53e
00000390: 7920 f5bd b8df 2e3e c587 dcbd e2b1 113f
000003a0: 5594 f43e 2ff1 babe 5bf0 b1bc 7aa3 f43d
000003b0: b952 bebc 279e e1be 62c1 a23d 67c4 cbbc
000003c0: c44d 3a3f cdac 8a3e dc80 923e 97f5 01bf
000003d0: 4f4f 0cbe e0c8 ab3e c532 f9be fee7 093e
000003e0: 0409 ae3d dc67 21be 23bf 0e3e cd5d 7bbe
000003f0: 83ed 6ebe 1544 6c3e 0c9f a93d ff52 ab3e
0.14642492 -0.08810558 0.35533145 -0.23305337 0.024006339 0.034984976 0.702956 0.5210432
-0.046829198 -0.50669724 0.22539277 0.1816321 -0.30869827 0.011097192 -0.25374925 0.306242
-0.25571942 -0.32864243 -0.054143097 0.0779984 0.4073349 -0.12554082 0.066819474 -0.24979079
-0.062425274 0.15150481 -0.49207082 -0.330422 -0.12374299 0.25134808 -0.48523927 -0.22292887
0.2348727 0.24842843 0.3032153 0.3253164 -0.21424235 -0.11887404 -0.4426391 -0.3063143
-0.28807378 -0.21035857 -0.20884895 -0.3383514 0.25217944 0.36278182 0.19623019 0.28040102
-0.3527629 -0.051759455 -0.059982143 -0.084960505 0.4710699 0.219877 -0.14241937 -0.29710975
0.35785183 0.367438 0.00901523 0.08312043 0.1502311 0.2907337 0.6192066 0.10164863
-0.094791666 -0.12840049 0.03282826 0.0020789958 -0.0018436792 -0.5370362 0.2821629 -0.6226171
-0.37828827 -0.43152705 0.33994132 -0.000881433 -0.048421994 -0.03736015 0.16914769 0.28464848
-0.4812153 -0.035735093 -0.012819246 0.47314626 -0.08035945 0.08174472 -0.08479132 -0.15621807
0.3596651 -0.5417067 -0.31594494 0.16310365 0.23803589 -0.48055986 -0.16421144 -0.07505951
0.15524149 0.21010506 0.80713886 0.21708986 -0.09151142 -0.31619495 -0.30002797 -0.045436364
-0.06155959 -0.021053564 0.038609363 1.0857279 -0.05863462 0.24600938 -0.07585607 0.24005659
0.057744794 -0.025568599 0.35969904 -0.09413191 0.6557867 0.37738302 -0.07511595 -0.33109277
0.013256344 0.25415027 0.19567999 0.20807262 0.11224871 -0.21146138 -0.42701578 -0.28136843
0.53466684 -0.3352514 0.07787431 -0.21268854 -0.03173996 0.19506022 -0.32475752 -0.26530978
-0.33778656 0.28046453 0.16435036 0.06723009 -0.103681505 0.47320312 -0.04193262 0.37118983
-0.282926 -0.13116798 0.41543132 0.09752102 -0.05454858 -0.07557204 0.8071097 0.20876738
-0.23637389 0.17860746 0.099455714 0.27549043 0.11153957 0.064673305 0.09620394 0.6156456
0.54557824 0.52342653 0.1320106 0.4641844 0.02879535 -0.28500116 0.22674116 -0.12688163
0.67807096 0.1448842 -0.004117875 -0.17582378 0.08549498 0.17164144 0.43208617 0.2078811
0.06999204 -0.0023635982 0.28246167 0.2947502 0.054347795 -0.057938207 -0.073566504 -0.3169809
-0.16753536 -0.06296081 -0.36872673 0.17111616 -0.013466047 0.12096439 0.23168166 0.35138956
0.061747644 -0.09211254 -0.045014385 -0.14258909 -0.079456516 0.092249595 -0.26737624 0.04045374
0.38000035 0.31122568 -0.1190924 -0.12561658 0.65776885 0.54144394 0.1829928 -0.35068294
-0.10212175 0.42054796 -0.004627184 0.07576529 0.22572899 -0.052945606 -0.33421847 -0.11912103
-0.46057948 0.11545255 0.2625097 0.054317843 -0.06724621 -0.17677929 0.7658719 0.5905813
0.106780164 -0.09028395 0.25947902 0.41646844 -0.11969084 0.1707753 -0.107680835 0.5691205
0.47769418 -0.36512133 -0.021721056 0.11945243 -0.023232805 -0.44065973 0.07947041 -0.024873925
0.7277491 0.27084962 0.28613937 -0.50765365 -0.13702129 0.33551693 -0.48671547 0.13467404
0.08497813 -0.15762275 0.139401 -0.24547501 -0.23332791 0.23072846 0.08282289 0.33461758

shared.0.bias f4 [256]
00000000: 75d0 c83d c030 4cbe 0f69 69be 0c49 86be
00000010: 1e0b edbd f76b ee3d 07ec 313e 7a0c 5f3e
00000020: e13a c73d 93f1 cbbe efcc 43bd afd0 263e
00000030: 3d02 cb3e 2984 063c 9fe1 49be 4665 cdbe
00000040: 7ae7 dd3d 9c09 87bd 9943 d43d 3e69 2f3e
00000050: ed3d d7be b480 e53e c5aa abbd a524 8abe
00000060: e856 efbd 63da 9b3e 9c79 61bd e27b ecbd
00000070: bf06 d53e dc41 fcbd e040 84be 0f81 b5be
00000080: c494 893e b6a2 233e d9bc 563e 4a46 69be
00000090: f1a3 cb3e f7cb 173d 825d aabe 9624 99bd
000000a0: 5d42 cb3e 35d6 32be 4de2 ca3e 3f17 62be
000000b0: 7bc5 003f bda2 1b3d b8bf 5fbd b646 fcbc
000000c0: 05e1 f0bd d7c9 3cbe 24a6 92bc 5df2 45bd
000000d0: d9d2 e53d 74b8 0a3e 9477 7e3d 39ba 61be
000000e0: 7f5d b93e 7ecd 073e f5aa a9bd 26de a03e
000000f0: a7cc 0b3f f534 1fbe cad1 093f e1b9 413e
00000100: 9974 fcbd 000b 153e 71d2 8a3e cde5 913e
00000110: 050f c43e 4ef6 463e ad48 b13e cbb1 883e
00000120: fc13 213e 663c c7be 9fa1 e53c 83a0 483e
00000130: 8b26 6f3b 122c 93be 38a2 4e3e 88cf 35be
00000140: e608 a2be 2fd6 e43e 72f0 af3d bdb7 92be
00000150: ec41 8e3e c43b 823e 6c70 99bd 1909 29bd
00000160: 47ef 65bd df55 393c a686 463d 2d6a d9bc
00000170: 7ca8 733e e6f0 01bc c1ed c73e 03ac cf3c
00000180: 26e7 253e e8d8 9c3d 62d0 a4be dd0b 07be
00000190: 7c31 c03d b0bb 34be 6687 723e f9bc 283e
000001a0: 04e8 943e c5d2 0bbd 1331 dc3e fb68 76be
000001b0: 059c 41bd 77b3 ccbe e643 b2be 0bd6 faba
000001c0: 8be7 40be 2ffd 35be 8513 ab3c 66e2 7d3e
000001d0: e376 e63e 136e 93be 6953 c5bd 6d3d f1be
000001e0: 2a7f fcbe 0edb 56be 528d c13d eb22 823e
000001f0: fc56 8fbe 3279 88be d8a3 afbe c6cd b23e
00000200: 7d2c 353e 9f81 8dbe 2598 5e3e 1bb0 59bd
00000210: 97dc c93c cff9 86be ef3a d13d cb82 a7be
00000220: 74bd 7abe 566d ffbd 5a9b 2e3b eeee 553c
00000230: dbb5 19be c0cb 87bc 656c a9bd f558 c83e
00000240: dbe5 003f 7ede b0be 1915 853e 0c17 1e3e
00000250: fef9 bc3d f755 543e 66fb 2c3e a8eb af3e
00000260: 2d6f 44be cb05 71be a973 773e 8195 5e3e
00000270: 7d61 2a3e 3023 933e 0ab2 28bb cb31 c63e
00000280: 6f99 f5be 820c a3be ec34 643e 4a6e bb3e
00000290: acea d93c e2f9 55be 3c2c e63e c2ef d5bd
000002a0: 7f1d 413e cccd 873d 85fe db3e 4295 8e3d
000002b0: 6bed 4ebe 1bad 97be b7a7 9a3e 30ee b33e
000002c0: eeb7 5f3e f833 59be 02dd de3d d572 0dbe
000002d0: f649 e3bc e68d 27be 82b3 7fbe b939 073f
000002e0: aafe efbd ab92 dfbe 769d bcbd 3149 fa3d
000002f0: c7bf 60be c365 c1bd 97f4 6dbd 31b8 a63d
00000300: 747b 21be 1489 c4be 4875 093f 1584 8d3e
00000310: df88 143e 2969 073c 011c 673d 4349 ca3e
00000320: 64ac 19be 9ea0 a8be 549b d6bc 3835 7ebe
00000330: 6df7 18be 4f80 7bbe ac7e 0bbe c814 6cbe
00000340: bad6 a6be 4009 203d 789e adbe b646 c23e
00000350: 159c 3f3d 8462 0b3e 7a99 063f b876 44be
00000360: c758 503d 2999 003a 3369 e6be 0691 e4be
00000370: 77ad 983e 1fc5 0ebd 2ccf 69be 0e85 c53e
00000380: c602 0e3e 4c11 18be e81a febd 04c0 6ebe
00000390: 86be 9bbe f7e8 04bd 8e01 013f aeb0 c03e
000003a0: 167e 173f fcc4 a6be d916 7bbe 4df2 dd3e
000003b0: 1cb0 b6be 7823 12be ccaf bfbd 1587 023f
000003c0: 7e7d 2abe 4a34 ea3c 242f 0a3e b4e3 093d
000003d0: 20ce 50be 643b 0a3d 1135 193d a3a0 96be
000003e0: 81e8 043e 6ff6 363d 97e5 23bd e813 df3e
000003f0: 1d27 d2be 30f8 c33e 4bc5 793d da52 b73e
0.09805385 -0.19940472 -0.22793983 -0.26227605 -0.11574386 0.116416864 0.17375194 0.21782103
0.09728027 -0.39832744 -0.04780286 0.16290544 0.39650145 0.00821022 -0.19714974 -0.40116328
0.10835166 -0.0659363 0.10364456 0.1712999 -0.42039433 0.44824755 -0.08382181 -0.26981083
-0.11686498 0.30440053 -0.055047616 -0.11547066 0.4160671 -0.12317249 -0.25830746 -0.35450026
0.26871312 0.15980038 0.20970477 -0.2278072 0.39773515 0.03705975 -0.33274466 -0.07477681
0.3969907 -0.17464526 0.3962578 -0.2207918 0.5030133 0.037996996 -0.054626197 -0.030795436
-0.11761669 -0.18436371 -0.017901488 -0.04832684 0.112218566 0.13546926 0.062125757 -0.22043695
0.36204144 0.13261983 -0.082845606 0.31419486 0.5460915 -0.15547545 0.5383574 0.18918563
-0.12326927 0.14554977 0.2711368 0.28495637 0.3829271 0.19429895 0.3462576 0.26698145
0.1573028 -0.38913268 0.028031169 0.1959248 0.003649148 -0.2874456 0.20179069 -0.17754948
-0.31647414 0.4469466 0.08590783 -0.28655806 0.2778467 0.25436223 -0.07492146 -0.04126844
-0.056136396 0.011311977 0.048468255 -0.026539886 0.2379474 -0.00793097 0.3904858 0.025350576
0.16201457 0.07658559 -0.32190233 -0.13188119 0.093844384 -0.17649722 0.23684463 0.16478337
0.29083264 -0.034136552 0.4300619 -0.24063484 -0.047267932 -0.3998067 -0.34817427 -0.0019137276
-0.18838327 -0.17772363 0.020883331 0.24793395 0.45012578 -0.28794917 -0.0963505 -0.47117177
-0.49315768 -0.20982 0.09450783 0.25417265 -0.2799605 -0.26654965 -0.3430469 0.34922618
0.17692752 -0.27637956 0.21737726 -0.053146463 0.024641318 -0.26362464 0.10216319 -0.32716975
-0.24486333 -0.12472026 0.002664289 0.013057454 -0.15010779 -0.016576648 -0.08272628 0.3913037
0.5035073 -0.34544748 0.2599266 0.15438479 0.0922737 0.20735918 0.16892776 0.3435948
-0.19183035 -0.23537366 0.24165215 0.21736719 0.16638751 0.28737783 -0.0025740885 0.38709864
-0.47968623 -0.3184548 0.22285813 0.3660758 0.026601158 -0.20896104 0.44955623 -0.10446121
0.18858908 0.066310495 0.4296762 0.069620624 -0.20207755 -0.29624256 0.3020608 0.3514266
0.21847507 -0.21211231 0.10881998 -0.13813336 -0.027745228 -0.16362724 -0.2497082 0.5282245
-0.11718495 -0.43666586 -0.09209721 0.122209914 -0.21948157 -0.09443238 -0.058094587 0.081406005
-0.1576975 -0.38385832 0.5369458 0.27639833 0.14505337 0.008264818 0.05642319 0.3950902
-0.15007168 -0.3293504 -0.026197113 -0.24824989 -0.14938135 -0.24560665 -0.1362254 -0.23054802
-0.32585698 0.03907132 -0.33909965 0.37944573 0.04677971 0.136118 0.52577937 -0.19185913
0.050865915 0.0004905635 -0.45002136 -0.44641894 0.29819843 -0.034855958 -0.22832936 0.38578075
0.13868245 -0.14850348 -0.12407476 -0.23315436 -0.30418795 -0.032448735 0.50393 0.37634796
0.59176767 -0.32572162 -0.24520434 0.43348923 -0.35681236 -0.14271343 -0.093597025 0.5098737
-0.16649434 0.028589386 0.13494545 0.03366442 -0.2039113 0.033748046 0.037404124 -0.2941943
0.12979318 0.04466861 -0.040013876 0.43569875 -0.41045466 0.3827529 0.06097917 0.35805398

shared.2.weight f4 [256, 256]
00000000: 254b 97bc 2bce a0bd e534 89bd 9887 a5ba
00000010: c57c 913b 7346 153e 33e5 0d3e c29d a53d
00000020: 6782 02be b1a1 acbd cdf6 873d 493e 473d
00000030: 64cb 8e3d d4b3 86bc 62ec 15be 984f 04bc
00000040: 3b17 8c3b 3e3f b43d affc 9abd 3fdd 1dbd
00000050: 9ccd 0fbe 5150 c63c 5149 903d d416 05bd
00000060: c72d c6bc 1ccd 5fbd c79a 0ebd ab12 a6bd
00000070: e416 633b d50e c4bd cc55 12be e5ab 30be
00000080: 8aba a0bd 086b 543c 69dc 18bd ce67 1d3e
00000090: 4ce9 54bd a572 323d 84c6 2cbd 7272 43be
000000a0: 3db2 da3b 28e7 923c ac3a 84bc f6b0 0abd
000000b0: 3ce1 e73d df68 11bd eeb4 52bd 848d 343d
000000c0: e59a 913d d186 673d a937 eebc 70c4 84bd
000000d0: 4a3d 0bbc 2284 683c c27e 80bd 5942 00be
000000e0: b045 533d bb36 203c ae62 333d 35f8 f73c
000000f0: d0ec 803d 16b1 f53c 9d08 773b 3b12 383c
00000100: f8e9 a0bd d160 f1bc 183f 3a3c 3b6c d73b
00000110: 4dac 6b3d 573f babd 33ec 093e e3e2 223d
00000120: ec76 a4bb 02cb 2bbd 63ba 6abe c416 173d
00000130: 1f78 6c3c 394c c7bd ec02 9abc 50ba 9a3c
00000140: 2541 c4bd a706 0b3d 97f5 803d 66a3 eb3c
00000150: 9256 383d 6cbd a63d af73 7d3d 3155 653d
00000160: 549c 653c 7e57 8bbd c936 4b3d 8deb 21bd
00000170: abb4 81bd 7618 db3c ef78 583d 1232 c3bb
00000180: 217e 593d 6e36 0dbd 6eba a03c 81aa 4b3d
00000190: 0e45 09bd 84fe 293e f29c 69bc f382 28bd
000001a0: 5fdb 813d 272f 90be 2430 aebd 951e 01be
000001b0: f381 243c b2d3 adbc e655 2abe b65b 94bd
000001c0: 282f b83b 729c 693c 835d a43d 5658 b0bc
000001d0: c152 413d c301 a0bd 1632 0f3c a165 693d
000001e0: c9d7 b3bd 84fc e3bd b767 37bb a065 a03d
000001f0: 902c 893d 36f0 3fbe c3d0 44bc 16c2 673d
00000200: 7cdb 693c 68c2 c83d c2c5 423d 490e fb3c
00000210: 4415 233b 50b2 c2bd 4ef9 e43a 5007 523d
00000220: 051d 2f3d 9c93 a63d d0ca 373d e91d 583c
00000230: 1d6a 3a3d 9e0d 01be e45c 70bd 5983 a0bd
00000240: d4af 99bd 3ffe a6bd fef4 033d db7a 77bd
00000250: 8fc5 633d 9ab9 713d a034 ecbd f32b a2bd
00000260: 47c8 733d 6b06 debd e451 e6bc 8dff d2bc
00000270: 2dbb 603d 0d26 c1bd f120 523d c16e a1bd
00000280: a61a 51bd 31d8 4f3d ff3f d23b 8a98 c03d
00000290: ed85 a03d b6df f3bd dba8 8ebd 1013 563d
000002a0: ebae ba3d 3aea 683d 6e64 c2bd d904 5fbb
000002b0: 9ef4 2abe dc48 07be 4b5f 88bd 173f 043e
000002c0: 2443 223c cb9a 5a3d ff7f 3dbc d843 0bbd
000002d0: 2d6d 443d 9f69 9b3d 4238 c23e 4391 673d
000002e0: 0cce 72bd dd7d c6bc 54b3 90ba 1523 4cbd
000002f0: df7a 273d 2ae3 e6bd 09e0 12bd b99f 013e
00000300: 1cc8 e1bd 576f edbd 6262 70bd ea86 33bd
00000310: 570f ad3d 3d5e 71ba 877b 9f3a d170 01bd
00000320: e473 16bd 6650 97bd 7176 50be 7e2c 82bc
00000330: fc2e 50be 630a 1f3d 328d 0e3d 7657 e8bc
00000340: 1f36 c1bd 7852 313d b9cf c2bd 0a2e 97bd
00000350: 8ad6 a9bb 9649 0dbd 7553 05bd 9748 1c3d
00000360: e24b 193d b4ba 063d 3e25 693c 0660 e9bd
00000370: 5d39 863d e6f4 643d 660f a93d a608 aabb
00000380: 971b 4a3d b1b4 653d 1de0 75bb add7 d6bd
00000390: e398 14be ca4e fcbc 1027 033d 48ba 44bd
000003a0: da3d c43c 6592 a6bd d3dc 60bd d91b 40bd
000003b0: 8720 f1bd 4baa 8dbe fb6f 6b3d ca72 30bd
000003c0: d3b0 1dbe 082a c33c bb29 a13d 1cf9 bbbb
000003d0: 26b0 d53d 4894 343d 3666 56bc d76e f6bb
000003e0: a743 483d fe63 a63d dc07 6ebd 0356 0cbd
000003f0: 65c0 ddbd 6382 14be 6d14 9a3d cf08 d23c
-0.018468449 -0.078518234 -0.06699542 -0.0012628911 0.0044399225 0.14577655 0.13856964 0.080867305
-0.12745057 -0.08429278 0.066388704 0.048643384 0.069723874 -0.01644317 -0.14640954 -0.008075617
0.00427523 0.08801125 -0.07567727 -0.038541075 -0.14043278 0.02420822 0.07045234 -0.032492474
-0.02419175 -0.054638967 -0.034815576 -0.081090294 0.0034651095 -0.095731415 -0.14290541 -0.17253073
-0.078480795 0.012964971 -0.037319575 0.1537163 -0.0519803 0.043566365 -0.042181507 -0.19086626
0.0066740797 0.01793249 -0.016141258 -0.03386017 0.11322257 -0.035500403 -0.05144208 0.044080272
0.07109622 0.056525055 -0.029079275 -0.0648278 -0.008498499 0.014191659 -0.06274177 -0.1252531
0.05158013 0.009778674 0.04379528 0.030269722 0.062951684 0.029991668 0.0037694343 0.011234815
-0.07857126 -0.029465111 0.011367582 0.0065741814 0.057537366 -0.09094112 0.13469009 0.039767157
-0.0050190594 -0.04194165 -0.22922663 0.036886945 0.014432936 -0.09731335 -0.018800221 0.018887669
-0.09582738 0.03394189 0.062968425 0.028764438 0.045004435 0.08141598 0.061877903 0.055989448
0.014014322 -0.06803797 0.049612794 -0.03953128 -0.06333288 0.026745062 0.052849706 -0.0059568966
0.0530988 -0.034475736 0.019620147 0.049723152 -0.03351312 0.16600996 -0.01425861 -0.041140508
0.0634067 -0.28160974 -0.08505276 -0.12609322 0.010040748 -0.021219108 -0.1663433 -0.07244055
0.005620856 0.014258491 0.080256484 -0.021526497 0.04719806 -0.07812836 0.008739969 0.056981687
-0.08781392 -0.11132148 -0.0027985403 0.078318834 0.06697953 -0.18743977 -0.012012663 0.05658158
0.014273521 0.09802705 0.047551878 0.03064646 0.0024884501 -0.09506667 0.0017469318 0.051276505
0.042752285 0.08133623 0.04487115 0.013190725 0.045511354 -0.12602851 -0.058682337 -0.078375526
-0.0750424 -0.08153962 0.032216065 -0.0604199 0.05560833 0.059014894 -0.11533475 -0.07918539
0.05951717 -0.10841068 -0.02811522 -0.025756622 0.054866005 -0.09431086 0.051300947 -0.07882453
-0.051050805 0.050743286 0.0064163203 0.094040945 0.07838044 -0.11907904 -0.069658004 0.052264273
0.09115394 0.056864 -0.09491812 -0.003402999 -0.16694877 -0.13211387 -0.06658801 0.12914692
0.009903703 0.05337028 -0.011566161 -0.034000248 0.04795568 0.07588505 0.37933546 0.056535017
-0.059278533 -0.024229938 -0.0011039772 -0.049838144 0.040888663 -0.11273797 -0.035858188 0.12658586
-0.11024496 -0.11593502 -0.058687575 -0.043829836 0.084501915 -0.0009207463 0.0012167551 -0.03160173
-0.036731616 -0.07388382 -0.20357682 -0.015890356 -0.20330423 0.038828265 0.034802623 -0.028362017
-0.09434151 0.04329154 -0.09512276 -0.07381828 -0.0051830458 -0.034494005 -0.032550294 0.038155165
0.037425883 0.032892898 0.014230071 -0.11395268 0.0655391 0.055897616 0.0825489 -0.0051890193
0.049342718 0.056080524 -0.0037517615 -0.10490356 -0.14511447 -0.030799288 0.032019675 -0.048029214
0.023955274 -0.08133391 -0.054898094 -0.046901558 -0.11773782 -0.27668986 0.05747984 -0.04307822
-0.15399484 0.023823753 0.078692876 -0.0057364833 0.10433988 0.044086725 -0.013085892 -0.0075205374
0.048892643 0.08124541 -0.058112964 -0.034261715 -0.10827712 -0.14502864 0.07523427 0.025638966

shared.2.bias f4 [256]
00000000: 4065 a83c f224 4a3e fa83 533c 3a37 ea3d
00000010: 1f8a 443b 1107 023a a2a2 93be a5ab 32bd
00000020: 2f22 e53c 6b07 e43d df6d 9a3d 1545 8f3c
00000030: e72c 0c3d cae1 963d ebfe d43d 1690 a33d
00000040: 6b44 ab3d cb3b 173e cdf6 c0bc b60d 85bc
00000050: d080 0b3e 1732 c63d 68ed ec3c 162a 4cbd
00000060: 8684 c73c 7968 253e 0662 0abd e146 61bd
00000070: d92f 143e 64f7 d9bc f2d0 283e 6a1a fc3c
00000080: 1f7b 32be 6fdd d6bc d4ca 0e3e 5fb7 5cbb
00000090: fbef 673d 62f3 6b3d 7e96 083e e34f 5a3d
000000a0: 74c3 b1bc 4cef 543e 47c4 203d 8f57 b63d
000000b0: 6638 02be 2c70 b7bc 86f8 2e3d 6d08 ab3b
000000c0: eabf 373d 6d18 1ebb 9206 cf3d df01 9fbd
000000d0: 6895 903a 88ba 293e 8982 8d3d 1241 bb3d
000000e0: f146 f03d 6501 0b3e b3c3 c83d 84fb c73d
000000f0: 8a29 af3c a74f a43d aa0c b33d 39dd fcbb
00000100: 9b0a 683a 7ea3 d8bc f215 823d 5b69 813d
00000110: 743f 053e 9928 e73c 0e29 273c 9fdf 663e
00000120: d2e6 e03d ece2 b03d f4b3 ff3d 69f7 563c
00000130: a9b0 b53d f8ca b6bc a303 88bc f3a2 d23d
00000140: b3bb 6c3d 05fe 05be 83fd 09bd 6ff2 8abc
00000150: 8468 44be 0d08 a83d 7464 d33d 7919 28bc
00000160: c4e1 003d bcb0 323d 7d27 343e f9ec 613e
00000170: e5fe 44bc c2ad de3d d49c ef3d 4005 9ebc
00000180: d2ff 463d b663 9c3b 7d2b 25bd 7330 2ebd
00000190: c2d4 17bc 4727 3f3e cfd4 73be c513 543b
000001a0: 8740 713d 1d57 8e3b e654 59be 94b8 413e
000001b0: aea8 77bd f150 1dbc 7ebd a23d fa43 5b3c
000001c0: e70c 16bc c036 273d a2b3 6f3d 22c4 0b3e
000001d0: 88ec 9fbd 1963 6b3e 541e 413d 5273 46bd
000001e0: c2f7 7f3d f217 693e 588e 113d 65dc b03b
000001f0: 0280 4c3d 1b67 c4bc 42f4 953d a6ae f23c
00000200: f22b 033e a781 1f3e d28d 353d 26dc 1fbd
00000210: 0b33 54bd c3e7 01be b42a c3bc 3813 333c
00000220: 55cb 163d 8e67 3d3e 4fbd 2a3d 2d14 993d
00000230: 2f72 3ebe 43ac 61bd 8672 303d 6795 163c
00000240: 7567 57bd feed 063e 4360 53bd c39f ea3d
00000250: 2760 a4bd 800d 80bd 1810 ef3d 5254 173d
00000260: 8f33 9c3d 7bcb 6b3e 2fcc 1e3d 0592 09bb
00000270: 77be 69be 3ee8 0f3c 6cb8 3cbc e8f7 8a3c
00000280: 703e a03d b7d1 ca3d d534 d13c c68d 4e3c
00000290: 8d6e b83d f7ef 903d 19fa 2cbe 5cf1 8b3a
000002a0: bd1b 0fbe f78d 153d e11a b43d a5be 36bd
000002b0: 17ce a43c 8846 e33d 84f1 f73c fa74 78bd
000002c0: fe03 e43c 1287 713c 575f 283e 9e6a dd3c
000002d0: 1c01 c73d 1109 c03d faf0 883d f056 cf3d
000002e0: 81eb c33c 538a e83c 51ec 023e d65b 94bc
000002f0: f546 cebc 60a2 063d e793 323e 50a7 4abd
00000300: 0f65 d4bc f9d4 393e fda8 e43c 8584 b23d
00000310: 84b3 aa3d 3b08 5b3d f02a 233d a6e2 193d
00000320: 9c42 27bd 0bdf 353e 6cb8 933d 9f75 ab3d
00000330: dea0 a03d 57f7 d13d 6964 a63d 9571 7e3c
00000340: 9b3a 923d 9536 113d 83fd f93d 4c4b d53c
00000350: 0f4e 913d 75ae 4abc 3b08 c23d 38f2 8c3d
00000360: a7e2 36bd 675a a03d 46df ba3d a06d 5e3e
00000370: 5d30 1a3d fb42 183e 4575 533e cf35 423d
00000380: 5bd9 2c3d 8e97 bd3d db27 1b3c dd28 1f3e
00000390: 163e a33d 33bb b4bc cc5f 3eba be24 b53c
000003a0: 73c1 2d3d aad6 0c3e c053 2fbd be38 a6bd
000003b0: 5154 9d3c cc36 973c 1fd2 c23d 9842 3ebe
000003c0: fee1 703a d465 fb3c 6c60 52be 28dd 2cbe
000003d0: ef08 273c f140 02be aeed 763d 2590 44bd
000003e0: bc4d a73a acac cb3a cad0 a43c baa6 60bd
000003f0: c7bb 3a3d f741 e43c 1138 a93d c968 fdbc
0.020556092 0.19740656 0.012909884 0.11436315 0.0029989553 0.00049601594 -0.28835016 -0.043620724
0.027970402 0.11134227 0.075404875 0.017488996 0.03422251 0.073672846 0.10400184 0.079864666
0.08362659 0.14768903 -0.023555184 -0.01624189 0.13623357 0.09677523 0.028921798 -0.049844824
0.024355184 0.16153134 -0.03378489 -0.054999236 0.14471377 -0.026607223 0.16485956 0.030774314
-0.1742978 -0.026228635 0.1394456 -0.0033678634 0.056625348 0.057605155 0.13338658 0.053298842
-0.021699645 0.2079441 0.039249685 0.08903419 -0.12716827 -0.022392355 0.04271748 0.0052195103
0.044860758 -0.0024123446 0.10108675 -0.07764029 0.0011030855 0.16575062 0.06909663 0.091432706
0.11732281 0.1357475 0.09802952 0.0976477 0.021382112 0.08023005 0.0874265 -0.0077168015
0.0008851678 -0.026445147 0.06351842 0.06318923 0.13012487 0.0282176 0.010202659 0.22546242
0.109815255 0.08637032 0.12485495 0.013120511 0.08871586 -0.02231358 -0.016603297 0.10284986
0.05779619 -0.13085182 -0.033689033 -0.016961304 -0.19180495 0.082046606 0.10321894 -0.010259979
0.031465307 0.04362558 0.17593189 0.22063054 -0.012023662 0.108729854 0.116998345 -0.019289613
0.048583813 0.0047726287 -0.040324677 -0.042526674 -0.009267034 0.18667327 -0.23811649 0.0032360416
0.05889943 0.004343881 -0.21223792 0.18918067 -0.0604636 -0.0096018175 0.07946299 0.013382906
-0.00915835 0.040823698 0.05852092 0.13649037 -0.07808787 0.22987022 0.047148064 -0.04844982
0.06249214 0.2276304 0.03553614 0.005397367 0.049926765 -0.023974946 0.07321979 0.029624294
0.12809733 0.15576802 0.044324704 -0.03902831 -0.05180649 -0.12686066 -0.023824073 0.010929875
0.036815006 0.18496534 0.041684445 0.07474551 -0.18598245 -0.055095922 0.043077968 0.009190894
-0.0525889 0.13176724 -0.051605474 0.114562534 -0.08026152 -0.06252575 0.116729915 0.03694565
0.076270215 0.2302684 0.038768943 -0.0020991575 -0.22826563 0.008783398 -0.011518579 0.016963914
0.07824409 0.09903281 0.025537888 0.012607044 0.09005461 0.0707702 -0.1689228 0.0010676789
-0.13975425 0.03651234 0.08794189 -0.044615407 0.020117803 0.11097437 0.03026653 -0.060658433
0.027833935 0.014741676 0.1644262 0.027028378 0.097170085 0.09376729 0.06686588 0.10124004
0.023916008 0.02838627 0.1278546 -0.018110197 -0.02518032 0.032869697 0.17439233 -0.049475968
-0.025927095 0.18147649 0.027912611 0.08716682 0.08335021 0.053474646 0.03983587 0.037569664
-0.040835008 0.17760865 0.0721291 0.08372044 0.07843183 0.102522545 0.081246205 0.01553001
0.07140084 0.035452444 0.12206557 0.02603688 0.070949666 -0.012370695 0.09474226 0.06882137
-0.044649746 0.07829743 0.09124617 0.21721506 0.03764378 0.14869301 0.20650204 0.047414597
0.042199474 0.092574224 0.0094699515 0.15542932 0.07970826 -0.02206192 -0.00072621997 0.022112247
0.042420816 0.13753763 -0.04280448 -0.081162915 0.019205244 0.018458746 0.09512734 -0.18580091
0.0009188949 0.030688204 -0.20544595 -0.1688124 0.010195001 -0.12720086 0.060285263 -0.04798903
0.0012764256 0.0015539131 0.02011909 -0.054846503 0.045589235 0.027863486 0.08262647 -0.030933755

actor.weight f4 [3, 256]
00000000: 2fe7 c93d 1c21 fcbc 99a9 ca39 483e 90bc
00000010: 1a91 96bd 0667 9cbd b8bd a1bd d51e b9bc
00000020: 696d 0c3d 6d31 813d b191 223e 102f 89bc
00000030: 6f9f e13d b226 48bb 1f09 953d 4755 db3b
00000040: 3f51 183e 6e26 593d a5a2 233c 5368 633c
00000050: daa8 f73d 7128 ab3d c58f 98be 7f27 c4bc
00000060: 2974 a0bb 37b3 c83d 851d fb3c bdd3 c8bd
00000070: 9aaf e5bd b8c6 3b3c c4ca 33be 5fdc afbb
00000080: 6110 103d a978 c0bc a905 6b3e cced 0c3c
00000090: 13ba ef3d ee6f a5bd 3088 08be 4912 9ebc
000000a0: ec95 273d 69de 043e edb3 633d b453 823d
000000b0: e0f0 b43b 229b 9dbc a550 9e3d 8b57 573e
000000c0: e1e4 f7bb 22b6 083b 4314 a0bd d8c3 36bd
000000d0: 8008 023d 550e 863e 7dfb 3c3e d4fd 263d
000000e0: 351b 82bd cd97 2b3e de6c c73d 2276 d0bb
000000f0: ee5a 843c 79b8 c43d c105 a1bd c50f 94bd
00000100: d250 a9be b9a1 3fbc 1ca5 553d 9f94 813c
00000110: bda9 b13d 4ac1 a7bb 2ae9 bf3d d525 733e
00000120: 5303 afbd 2cea 3a3c ac8a fcbd afd0 f93c
00000130: 15a1 80bd ddc2 773b 6177 b93c 6011 623e
00000140: 8ef4 2ebd d04d a73b 9a70 04bd 201e 373d
00000150: b70c b93b 4e32 263e 4296 d93d 1045 4c3d
00000160: ab85 22bd 316b c73d 28ef 27bd 2fc9 ed3d
00000170: de88 c33c da76 08bd d148 1dbd b1c3 03bb
00000180: 79db 003c e4a7 8fbc 39bb 5e3d 4a06 593d
00000190: 000b b33d 60e5 ec3d 7f94 1cbd bf6f 2b3d
000001a0: 2d1b eabc 7618 e83c 99c3 8ebc 1795 34be
000001b0: 24d5 4ebe c39b cabb 2796 043e 48ea 203b
000001c0: 2366 783d 93da 743d 3439 143e e046 f1bc
000001d0: 4c12 963d de23 663d 0372 dbbc 9a0c babc
000001e0: aeee b73d f9a8 d43d fc3c 363c d49d d3bc
000001f0: 5e58 b43d eb0a 30bc 67df 19bd 9b1b f53d
00000200: ff43 663b 5be3 cf3c 9efc 90b8 b792 383d
00000210: fa70 5ebd 551a ea3c 029d 093d 3569 883c
00000220: 355a 183e 0c46 04bf ac47 96bc ecc6 b9bd
00000230: b0c7 bd3d 9016 57bd 6e6a 59bb 7401 333d
00000240: 1bc6 123c f028 e53d cee5 df3c d536 503d
00000250: bfdf b73c a552 d53c e27f 743c 3321 033c
00000260: 8a9d c13d 2d3e cbbd d2ba c0bd fcc5 673d
00000270: f96f 213c 2263 bebc 2528 673c 83bf 4e3a
00000280: c752 ac3c 600f b63d 2256 ddbd 88d2 803d
00000290: e725 c6bc 1488 a53d 2e22 74bd 5d54 973c
000002a0: 7bcb f43d fee3 9b3c 91f4 9b3d bd9c 8abc
000002b0: 0cd5 3e3d 8e3e cb3c 0b3c 85bc d008 fa3b
000002c0: 29dc 54bd 0479 a33d 7700 8a3e 5bc8 dcbc
000002d0: 1b03 ac3c 6b27 04be a1ef 533c 10ff 8b3d
000002e0: 3515 9bbc 27f1 eebd a2b1 78bd b5c8 573d
000002f0: 7331 773d 1925 353d 4c92 7e3e d06f f1bc
00000300: ce04 a73c aedd 623d cc90 9e3c dc18 d8bc
00000310: 5cc0 fdbd ac7c 35bc bb58 fbbc 9802 d23c
00000320: 0775 cf3b 62cc 003d a28b 143e 196f a5bd
00000330: a09b 74bd 41b7 8a3d 4e40 d73d 773a e8bd
00000340: 4c5f 9d3d e310 f53d b467 2c3d ad16 a93d
00000350: 9d62 93bb 1a4a d33d 1e32 58bd e00d 7aba
00000360: 6b0f 013d fc09 b03b 5e62 953d 93d7 d3be
00000370: 560b 503d 76cc e2bd 674a ce3d ebc2 263d
00000380: c0b1 ed3d 6dc0 c3bd 23a5 2c3d ab8e 603d
00000390: 1926 99bd 46e0 983d 4fc2 ad3d 8025 c3bd
000003a0: ba0a e93d a5c1 afbb a2ee b6bd fba3 aa3b
000003b0: 920f a3bb aae9 c73c c6ed 51be e409 d43d
000003c0: ea5f 483d 0b3b 77bd 6706 813d eed3 ce3a
000003d0: 02ad dcbc a590 093e cffb c93b 3113 b03d
000003e0: 92ff adbd 5e18 af3d 4893 09bd 36f3 3cbe
000003f0: acbc 53bd 69b7 063e 1c3e e63c 6a9b 173c
0.09858548 -0.030777507 0.00038654802 -0.017607823 -0.07351895 -0.07636838 -0.07897514 -0.02259771
0.03428403 0.06308255 0.1587589 -0.016746074 0.11016738 -0.0030540642 0.0727713 0.0066935155
0.14874743 0.053015165 0.009987508 0.013879853 0.12092753 0.08357323 -0.29797187 -0.023944614
-0.00489666 0.097998075 0.030653724 -0.09806011 -0.11215134 0.011460952 -0.17557818 -0.0053668465
0.03517187 -0.023495035 0.22951378 0.008601617 0.11705413 -0.080779895 -0.13333201 -0.019295828
0.04091446 0.12975468 0.055591512 0.06363621 0.0055218786 -0.019239012 0.077302255 0.21029489
-0.0075651263 0.0020860513 -0.078163646 -0.044620365 0.031746387 0.2618281 0.1845531 0.040769413
-0.063528456 0.16757126 0.09737562 -0.006361739 0.01615664 0.09605498 -0.078624256 -0.0722957
-0.33069474 -0.0116962725 0.052159414 0.015817938 0.08674953 -0.0051194774 0.093706444 0.237449
-0.08545556 0.01140837 -0.12331137 0.030495016 -0.06280724 0.0037805357 0.022639932 0.2207694
-0.042713694 0.0051057115 -0.032333948 0.044706464 0.0056472677 0.16230127 0.106243625 0.04987055
-0.039678257 0.09737242 -0.04099956 0.11610638 0.023868974 -0.03331647 -0.03839952 -0.0020105655
0.007864826 -0.017536111 0.05437777 0.052984513 0.087423325 0.11567187 -0.038227554 0.041854616
-0.028577412 0.028331976 -0.017427253 -0.17634998 -0.20198494 -0.006183119 0.12947904 0.0024553705
0.06064428 0.05977876 0.14474946 -0.029452741 0.073277086 0.05618655 -0.026787763 -0.022711087
0.089810714 0.103837915 0.011122938 -0.025832094 0.08805917 -0.010744791 -0.03756657 0.11968156
0.0035135744 0.025376966 -6.913509e-05 0.045061793 -0.05430696 0.02857701 0.033597 0.01665173
0.14878161 -0.51669383 -0.018344723 -0.090711445 0.09266603 -0.05251175 -0.003317501 0.043702558
0.008958365 0.11189449 0.02733126 0.050833542 0.022445558 0.026040385 0.014923068 0.008003521
0.09453876 -0.099239685 -0.09410633 0.056585297 0.0098533565 -0.02324063 0.014108692 0.0007886814
0.021035565 0.08889651 -0.10807444 0.06290156 -0.024187995 0.080825955 -0.05960291 0.018472845
0.11952873 0.019029614 0.07615007 -0.016920442 0.046589896 0.024810102 -0.016263982 0.007630445
-0.051967774 0.07982066 0.2695348 -0.026951006 0.020997575 -0.12905662 0.01293555 0.06835759
-0.01893101 -0.1166709 -0.06071628 0.052681644 0.060349893 0.044224832 0.24860495 -0.029472262
0.020388033 0.05538719 0.019356154 -0.026379041 -0.12390205 -0.011077087 -0.030681958 0.025636002
0.0063310894 0.031444915 0.1450639 -0.08077831 -0.059718728 0.06773234 0.10510312 -0.11339276
0.07684192 0.119661115 0.042091087 0.08256278 -0.0044978396 0.10316868 -0.05278217 -0.00095388107
0.031508844 0.005372284 0.07294153 -0.41375408 0.05079206 -0.11074154 0.10072785 0.040713232
0.11606169 -0.09558187 0.042149674 0.05482356 -0.0747797 0.07464652 0.08484327 -0.09528637
0.11378999 -0.0053636604 -0.08932234 0.0052075363 -0.0049762214 0.024403412 -0.2050086 0.10353449
0.048919596 -0.060359042 0.06300049 0.0015779713 -0.026937965 0.13434084 0.006164051 0.085974105
-0.08496012 0.085495695 -0.033587724 -0.18452153 -0.051693603 0.13155903 0.028105788 0.009253362

actor.bias f4 [3]
00000000: 1428 863d fc74 43bc 1d47 a83c
0.06550613 -0.011929747 0.020541722

critic.weight f4 [1, 256]
00000000: bef7 7ebd 94dd a23d 1dc5 b7bd d81f 903d
00000010: 963a 0ebd 91b0 81bd f7cc 413d 19fc 24be
00000020: 1127 2a3d 1825 0dbe cf93 0fbe 5b01 d43c
00000030: 8fe0 48bd 205d c2bd 9937 5a3d 66c9 4ebd
00000040: 01f8 d9bc ee3e 08be 3a77 d0ba 2c21 90bd
00000050: 7ce9 17be de55 19bd 2404 ca3e d98f fb3b
00000060: 1cb3 df3b 77a9 763e 360f 053d 4616 283e
00000070: 3052 a93d eec7 123d fc0a eb3d d4d6 583d
00000080: 1524 2a3d 5132 c03a 997f 90bd fce5 6cbd
00000090: 69fc 5ebd 9b6e 21be 4b82 38bd 60e5 cb3c
000000a0: a0e5 1c3d 996d 053e 4508 16bd 9ccc 103d
000000b0: 0b44 793d 22d1 85bd fbb5 86bd 8c7c e43e
000000c0: 49d0 96bd 056e 82bd ad15 7fbd d440 af3c
000000d0: 2fd8 1c3d 1c69 333e 6818 eebc 4206 44bd
000000e0: 56c7 6cbd 6105 103d d759 75bd f479 96bd
000000f0: 869d 25bd ca40 63bd b0eb 15bd ab0f 803d
00000100: f362 b83e 5e52 32be cd30 33be 39d7 3ebd
00000110: c901 d3bd 135f 403d bf56 27be 3f89 143e
00000120: 7664 27bd 1b66 cabc 4511 84bd abdd 61bd
00000130: 706e d2bd 77a5 1b3d cc79 1f3d 3976 8f3e
00000140: 62b6 04bd d7a3 8d3d b89a 533d 185a 1d3d
00000150: 8df0 833d 37be 00be dd7d 9dbd 6749 293d
00000160: ae48 1b3d 80d9 92bd 419e b73d 9440 6d3d
00000170: 2165 cc3c 3f0e 01be 2a57 36bd f726 7bbd
00000180: e9e9 1cbd 329f b93c aac9 583d 2b8c 0dbe
00000190: 80a7 afbd 2fa4 e23d 9772 b93c be0d 35bd
000001a0: d3a4 32bd c8e4 433c 624c 813d 705b 013e
000001b0: e039 613e 0684 1a3d 66a3 d7bc 8634 1fbd
000001c0: 7166 35bd a0d5 563d 3c32 1dbd 04d4 493d
000001d0: 3e58 d63d 5fd5 433e bbab a7bd 49dd aa3c
000001e0: e54b 29bd fdfb 043e 33ec 2fbd ddcb 81bd
000001f0: e391 5cbd 4cfa 6abe 3a40 1dbd 5528 6dbd
00000200: c60e 0f3e 38c3 f3bd 9dce 98bd 58d0 a639
00000210: b5bc 103d 4b26 603d d9d5 dd3c b0d5 40bd
00000220: 9ca7 d4bc 994d 003f fb60 27bd 816d 88bd
00000230: ddf6 793d d29f 5f3d 436f 08be 2d04 3ebd
00000240: c70c 273d 25d0 54bd 9767 183d dbbb 55bd
00000250: 7412 d73b d903 48be 3a4a 68bd 2d5a 78bd
00000260: 94aa 3bbd 3469 373e 5f9a 323b 5940 adbd
00000270: ef54 033e 3bf8 c03c d037 1a3d 2f0e 85bd
00000280: 6c63 75bd f9fe b13d a355 0cbd e82f 4d3d
00000290: dd30 1abe c926 84be adc9 b73d 60fd 4f3d
000002a0: f56c 433d 269e 303c cf27 60bd 8b37 88bb
000002b0: d8bd 11be 2910 96bd f445 7a3b 5734 983b
000002c0: 3149 4ebd 00ef 45bd df12 793e ac9c 85bd
000002d0: 4806 5fbd b97c babc fb79 223d 2eca 8ebd
000002e0: 50d5 273d ac05 4ebd 7e77 7e3e e74e f33b
000002f0: 0d22 003d bd1e 22bd 0e72 393e c8cd 433d
00000300: 35ea 4f3d e464 413e a41d 2dbe 8df2 99bc
00000310: 4e87 8bbd 1546 8dbd 5142 35bd d3dd 303d
00000320: 0788 b93c 0130 8b3d b13e 7fbd bea0 8fbd
00000330: e821 99bc d975 0abe 887b 12bd ebf4 15be
00000340: 17bd c2bd 4c8c a2bd 8648 4dbd 3295 4dbd
00000350: 4cdd 333c 82d5 95bd 2647 bebd 224f dfbc
00000360: d6f7 d5bc 2f06 c6bd 2358 19bd 31cd c83e
00000370: 6547 dbbc 48eb 6b3d 8579 543e 6c3c 0cbd
00000380: d122 1abd a4ff 9ebd bae3 3a3d abb0 e43d
00000390: 3721 71bd 89dd 43be 0ff2 45bd dd2a 3ebd
000003a0: 8309 12be 8982 f9bd 408d 153e 8bc7 ed3c
000003b0: 50c7 d83c 6dfa 8f3c 00c2 5b3d 2c25 5a3d
000003c0: 06f2 5c3d a132 eabd cb2c 0d3d 2ffd 7e3d
000003d0: 7ab2 f83c e682 2c3d e446 61bd a391 72be
000003e0: 7406 53bd f172 2cbd fcc7 20bd 1c26 6b3e
000003f0: 7126 8fbd ab99 27bd 281f bbbd d28a 213d
-0.062247984 0.07952419 -0.08973143 0.07037324 -0.03472384 -0.063325055 0.04731461 -0.16111793
0.041541163 -0.13783681 -0.14021228 0.025879553 -0.04904228 -0.094904184 0.05327568 -0.050485037
-0.026607515 -0.13305256 -0.0015904673 -0.07037577 -0.14835161 -0.037435405 0.39456284 0.00767706
0.0068267714 0.24088083 0.03248521 0.16414747 0.08267629 0.0358352 0.114767045 0.05293925
0.041538317 0.0014663433 -0.07055587 -0.057836518 -0.054439936 -0.15764849 -0.045046132 0.024889648
0.038304925 0.1303009 -0.03662898 0.03535138 0.060855906 -0.065340295 -0.06577679 0.44626272
-0.07363946 -0.06368641 -0.06227653 0.021393217 0.038292106 0.17520565 -0.029064372 -0.04785753
-0.05780729 0.03516138 -0.05990013 -0.073474795 -0.04043343 -0.05548171 -0.036601722 0.062529884
0.36012992 -0.17414233 -0.17499085 -0.04659197 -0.10303075 0.04696567 -0.16341685 0.1450548
-0.04086729 -0.02470689 -0.064486064 -0.05514304 -0.102749705 0.037999596 0.038934514 0.28019884
-0.032400496 0.069160156 0.051661223 0.038416 0.06442366 -0.12572561 -0.07690022 0.041329768
0.03791111 -0.07170391 0.089657314 0.057922915 0.024950566 -0.1260309 -0.04451672 -0.061316457
-0.03830901 0.022658918 0.052926697 -0.13823001 -0.0857687 0.11066472 0.022637649 -0.04420256
-0.04361422 0.011956401 0.06313397 0.12632537 0.21994734 0.037723564 -0.026323032 -0.03886845
-0.04428715 0.052449822 -0.038377985 0.04927446 0.104660496 0.19124363 -0.08187052 0.02085747
-0.041332144 0.12986751 -0.042949867 -0.06337712 -0.053850066 -0.22947043 -0.03839133 -0.05789979
0.1397048 -0.119024694 -0.07461283 0.00031817215 0.035336215 0.05472402 0.02707951 -0.04707879
-0.025958829 0.50118405 -0.040863972 -0.06661511 0.061026443 0.054595776 -0.13323693 -0.0463907
0.04078367 -0.051956315 0.037208166 -0.052181106 0.006563479 -0.19532718 -0.056711413 -0.060632873
-0.045816973 0.17911226 0.0027252657 -0.08459539 0.12825368 0.023555866 0.037650883 -0.06496846
-0.05990927 0.0869121 -0.034261357 0.050094515 -0.15057702 -0.2581084 0.089740135 0.050778747
0.04771133 0.010779893 -0.054725464 -0.004157012 -0.14232576 -0.07327301 0.0038188668 0.0046449113
-0.05036277 -0.04832363 0.24323605 -0.065240234 -0.05444935 -0.02276455 0.03966711 -0.069721565
0.040974915 -0.050298378 0.2485027 0.0074251774 0.031282473 -0.039580096 0.18109915 0.04780367
0.050760467 0.18886143 -0.16905838 -0.018792415 -0.06812917 -0.06898133 -0.044252697 0.043180298
0.02264787 0.067962654 -0.062315647 -0.07013081 -0.018692926 -0.13521518 -0.03576234 -0.1464421
-0.09508722 -0.07936916 -0.050117992 -0.050191112 0.010978054 -0.07316114 -0.09290914 -0.027259413
-0.026119154 -0.09669148 -0.03743757 0.3921905 -0.026767442 0.05759743 0.20749481 -0.03423731
-0.03763086 -0.07763603 0.045627333 0.11166509 -0.058869567 -0.19127478 -0.04832655 -0.046427596
-0.14261441 -0.12183101 0.14604664 0.029025814 0.026462227 0.017575467 0.05365181 0.053258106
0.05394175 -0.11435438 0.034466546 0.062253173 0.030358542 0.042117022 -0.054999247 -0.23688368
-0.051519826 -0.042101804 -0.03925322 0.22963756 -0.06989754 -0.040918034 -0.09136802 0.03943903
