Experimenten/Experiment1Snake/PPO/ppo_snake_3900.pth (torch, 280852 bytes, 7 tensors)

shared.0.weight f4 [256, 9]
0.16162723 -0.103471175 0.37493566 -0.15990612 0.02027524 0.018639682 0.750109 0.4330039
-0.028193587 -0.40791544 0.18870129 0.11912592 -0.2804909 -0.035825673 -0.27636817 0.24156743
-0.2362679 -0.40583202 0.109448105 -0.008918075 0.30982125 -0.066647 0.04917615 -0.29189545
-0.0869055 0.09318976 -0.4272471 -0.29050547 -0.14084123 0.27814993 -0.45939815 -0.22041193
0.22537178 0.21646203 0.30812 0.29286996 -0.18706177 -0.12133554 -0.47147778 -0.29968646
-0.2943265 -0.1929326 -0.31881937 -0.32513025 0.11769943 0.3463597 0.18706065 0.29285163
-0.24699152 -0.029366156 -0.0763923 -0.07707705 0.49587804 0.23127659 -0.14607708 -0.27262598
0.3572133 0.3776738 0.0095092505 0.06912746 0.1419543 0.31491363 0.59710276 0.08081321
-0.12170994 -0.14567734 0.04669133 0.01188021 -0.003989927 -0.39946717 0.23127468 -0.5416661
-0.3165266 -0.38278478 0.34342146 -0.023697244 -0.05770904 -0.022065131 0.19427818 0.22932805
-0.31922707 0.05641915 -0.12904459 0.41628784 -0.013878856 0.07945858 -0.0756841 -0.18129253
0.29835704 -0.5035383 -0.298987 0.11565693 0.23679669 -0.40085673 -0.17250332 -0.059734423
0.15709616 0.2080949 0.7470274 0.21156275 -0.08017978 -0.28758276 -0.27792376 -0.022772018
-0.061625775 -0.032760613 -0.009873568 1.0328411 -0.08910167 0.24378856 -0.07659691 0.21661735
0.12422849 -0.031405974 0.33701295 0.047888827 0.6107795 0.36001694 -0.068793476 -0.29503626
0.04194885 0.26829702 0.17329016 0.19976418 0.06592054 -0.19648828 -0.3893057 -0.33929068
0.49383298 -0.3193522 0.0776148 -0.19680658 -0.016372059 0.12582187 -0.2631535 -0.2611155
-0.3220086 0.23456663 0.2065026 0.041776143 -0.11671932 0.46211663 -0.09598653 0.33539465
-0.2144209 -0.058418054 0.42015752 0.07406258 -0.034972448 -0.05373644 0.83020383 0.091463715
-0.21272543 0.1549441 0.11793488 0.30395207 0.08942803 0.060548164 0.11786788 0.59300745
0.5308567 0.50815 0.1501199 0.4413053 0.039838277 -0.18833794 0.24625003 -0.1538797
0.7187463 0.12653567 0.03953049 -0.12975352 0.13547906 0.16381067 0.42483246 0.22829755
0.08939415 -0.010441503 0.416415 0.28629577 0.047731485 -0.099919215 -0.08665322 -0.2955985
-0.1661621 -0.061560806 -0.33792642 0.21210898 -0.09694607 0.08524341 0.21850093 0.33423644
0.049809813 -0.12637356 -0.033252724 -0.14780341 -0.061466735 0.119471125 -0.23838903 0.10330035
0.3407896 0.331179 -0.12831715 -0.13114978 0.6255098 0.4711292 0.18069863 -0.3089235
-0.112660944 0.35771024 0.01734483 0.07563146 0.24095918 -0.077177726 -0.27802786 -0.14835608
-0.42322358 0.1492831 0.14945526 0.064829126 -0.057103753 -0.19669306 0.7424854 0.49913883
0.0842645 -0.10183958 0.25648928 0.41066658 -0.109885715 0.17572841 -0.11087455 0.5979301
0.48085222 -0.29540798 -0.05593666 0.098410994 -0.006283154 -0.38284448 0.08634659 0.00018606611
0.7112046 0.21999782 0.31384447 -0.45557192 -0.18162921 0.2695728 -0.47208664 0.14974794
0.09137203 -0.14153191 0.19497 -0.2814547 -0.27804282 0.23937808 0.049260926 0.2877266
00000000: 9c81 253e b2e8 d3bd 91f7 bf3e 6ebe 23be
00000010: 4318 a63c 3fb2 983c 2507 403f b0b2 dd3e
00000020: 3df6 e6bc 4bda d0be e93a 413e 4af8 f33d
00000030: 819c 8fbe f1bd 12bd 2180 8dbe 745d 773e
00000040: 36f0 71be 37c9 cfbe 5426 e03d 1e1d 12bc
00000050: e4a0 9e3e 397e 88bd ee6c 493d 5273 95be
00000060: 83fb b1bd 46da be3d 22c0 dabe 22bd 94be
00000070: af38 10be ab69 8e3e 3c36 ebbe aab3 61be
00000080: dcc7 663e 39a8 5d3e e8c1 9d3e 0df3 953e
00000090: 1f8d 3fbe c57e f8bd 8965 f1be 8170 99be
000000a0: f7b1 96be 2090 45be 4b3c a3be 7977 a6be
000000b0: 660c f13d 0f56 b13e d48c 3f3e a6f0 953e
000000c0: 58eb 7cbe 4b91 f0bc 9173 9cbd 93da 9dbd
000000d0: bae3 fd3e c5d3 6c3e 3b95 15be a295 8bbe
000000e0: a9e4 b63e 765e c13e b0cc 1b3c b392 8d3d
000000f0: 785c 113e 5c3c a13e badb 183f 6581 a53d
00000100: 1043 f9bd 712c 15be 683f 3f3d 36a5 423c
00000110: efbd 82bb f686 ccbe 45d3 6c3e a1aa 0abf
00000120: c60f a2be 5efc c3be f0d4 af3e b920 c2bc
00000130: 5060 6cbd efc1 b4bc dcf0 463e f9d4 6a3e
00000140: bb71 a3be c417 673d 4424 04be ae23 d53e
00000150: 2464 63bc 2ebb a23d 4400 9bbd c0a4 39be
00000160: 41c2 983e e3e7 00bf d314 99be 8add ec3d
00000170: d57a 723e 183d cdbe b6a4 30be 15ac 74bd
00000180: d1dd 203e d416 553e 303d 3f3f e8a3 583e
00000190: 4c35 a4bd 0c3e 93be 064c 8ebe 628c babc
000001a0: 4f6b 7cbd fe2f 06bd bfc4 21bc 2334 843f
000001b0: f07a b6bd b5a3 793e d7de 9cbd f0d0 5d3e
000001c0: 826b fe3d 8da3 00bd f68c ac3e 1327 443d
000001d0: 0c5c 1c3f 2454 b83e 98e3 8cbd fe0e 97be
000001e0: 8fd2 2b3d 3a5e 893e fa72 313e fb8e 4c3e
000001f0: 5901 873d 3934 49be 1453 c7be 82b7 adbe
00000200: add7 fc3e 2282 a3be 82f4 9e3d aa87 49be
00000210: b21e 86bc 73d7 003e 0ebc 86be eeb0 85be
00000220: 50de a4be 3c32 703e 6b75 533e 761d 2b3d
00000230: 8a0a efbd 8d9a ec3e 9694 c4bd d9b8 ab3e
00000240: 2791 5bbe c547 6fbd e31e d73e 1fae 973d
00000250: 453f 0fbd be1a 5cbd 3d88 543f 5451 bb3d
00000260: b2d4 59be aba9 1e3e d887 f13d 9b9f 9b3e
00000270: 0b26 b73d 5a01 783d b764 f13d 56cf 173f
00000280: 3ae6 073f 1e16 023f 08b9 193e c5f2 e13e
00000290: 762d 233d a9db 40be f828 7c3e a492 1dbe
000002a0: c2ff 373f 9192 013e b9ea 213d 1bde 04be
000002b0: 06bb 0a3e fcbd 273e a483 d93e d5c6 693e
000002c0: 4814 b73d d612 2bbc 5934 d53e 5c95 923e
000002d0: 1782 433d 72a2 ccbd 3e77 b1bd b058 97be
000002e0: 6626 2abe 2f27 7cbd b104 adbe 1933 593e
000002f0: a98b c6bd 1994 ae3d b5be 5f3e 0a21 ab3e
00000300: 6005 4c3d 1268 01be 0234 08bd c759 17be
00000310: 8bc4 7bbd 47ad f43d 411c 74be 228f d33d
00000320: f97b ae3e 4b90 a93e 9265 03be 214c 06be
00000330: 6921 203f d937 f13e 1009 393e 392b 9ebe
00000340: c8ba e6bd cc25 b73e bf16 8e3c abe4 9a3d
00000350: 01be 763e 5b0f 9ebd ab59 8ebe a8ea 17be
00000360: c3b0 d8be abdd 183e cd0a 193e 22c5 843d
00000370: a0e5 69bd e869 49be 8613 3e3f 208f ff3e
00000380: de92 ac3d 4591 d0bd 9052 833e e442 d23e
00000390: c30b e1bd 26f2 333e 3212 e3bd f211 193f
000003a0: 4332 f63e b73f 97be d71d 65bd b48b c93d
000003b0: eae2 cdbb 3104 c4be 7bd6 b03d be1a 4339
000003c0: 8111 363f 1c47 613e 39b0 a03e b940 e9be
000003d0: 02fd 39be 7205 8a3e 57b5 f1be 8657 193e
000003e0: 4221 bb3d beed 10be 37a6 473e d51a 90be
000003f0: a15b 8ebe 871f 753e d3c5 493d e750 933e

shared.0.bias f4 [256]
0.13535757 -0.21915308 -0.23226528 -0.23058073 -0.1172504 0.14514586 0.18734857 0.19851816
0.11949677 -0.42116106 -0.036167324 0.18043673 0.3688601 0.031990845 -0.23392114 -0.4047416
0.15909745 -0.0642112 0.15338589 0.21543077 -0.43518704 0.40971622 -0.050398514 -0.29696447
-0.14284097 0.30126402 -0.057269283 -0.160181 0.35873258 -0.16187395 -0.26301712 -0.36445314
0.27938238 0.20992798 0.27419862 -0.23340778 0.34541333 0.034818817 -0.3077555 -0.09212
0.3753395 -0.18755892 0.36277398 -0.2007366 0.46947291 0.06882675 -0.077284575 -0.083688416
-0.058823336 -0.16491093 0.012130133 -0.05925416 0.11872516 0.14825055 0.03485748 -0.25395417
0.33413756 0.13023578 -0.06322666 0.32330924 0.5126232 -0.12422949 0.5015643 0.16003902
-0.15469849 0.14462933 0.26151913 0.2764909 0.3488714 0.19517614 0.37302685 0.3144129
0.19493786 -0.40658587 0.014233198 0.24219224 0.01626864 -0.2894742 0.17885466 -0.18518229
-0.3385294 0.41813996 0.08153555 -0.27029166 0.23668341 0.28928697 -0.06758741 -0.031507015
-0.037281502 0.0027051964 0.08550325 -0.03959232 0.21184282 0.0017125712 0.36978176 0.07560958
0.2018699 0.06104006 -0.26636076 -0.13194871 0.07963986 -0.15801595 0.25891417 0.23131892
0.3376669 -0.03070573 0.40622333 -0.23630832 -0.032966934 -0.38813588 -0.35501322 0.017401142
-0.21201862 -0.16916466 0.023871314 0.2749077 0.42119497 -0.32605755 -0.043863166 -0.4949017
-0.47452584 -0.2378852 0.10032906 0.2261113 -0.2727402 -0.276532 -0.34963763 0.35155168
0.19754337 -0.24817434 0.24411565 -0.054094836 0.0721957 -0.2728566 0.124634705 -0.312959
-0.23174746 -0.17538819 0.025394507 0.0741151 -0.09861815 0.0077377036 -0.120473385 0.36884975
0.4848756 -0.39173135 0.22847657 0.15862621 0.13483582 0.22337215 0.16982034 0.33000192
-0.16413759 -0.2572939 0.22011149 0.24415596 0.18771625 0.25642705 0.0010066737 0.36567175
-0.4636528 -0.30856138 0.19843222 0.3530217 0.03951122 -0.20009042 0.41795063 -0.05791024
0.24835452 0.09121319 0.39685035 0.1285301 -0.19836763 -0.35172385 0.25347576 0.32608584
0.17808138 -0.16457303 0.1481791 -0.19996932 -0.012065631 -0.16400412 -0.23833536 0.49549794
-0.10662435 -0.43424085 -0.02591446 0.13549384 -0.22159621 -0.10165024 -0.048352472 0.11424721
-0.16538723 -0.3903479 0.51630795 0.33123332 0.19788927 -0.05320874 0.10272016 0.37812418
-0.16371097 -0.37139222 -0.027532326 -0.23228031 -0.16753693 -0.2913412 -0.15709832 -0.26359683
-0.33110955 0.09400658 -0.30222502 0.34873644 0.0632708 0.12055747 0.5023388 -0.16489634
0.10539886 0.0014442849 -0.4422977 -0.44531918 0.34490722 0.0077484897 -0.25096712 0.3667738
0.16123731 -0.13846207 -0.1307916 -0.22892278 -0.30013263 -0.00857034 0.47645402 0.33859822
0.5609381 -0.31787238 -0.25413767 0.39454576 -0.40818167 -0.13595156 -0.07270051 0.47684145
-0.1871494 0.034114998 0.1096084 0.055291336 -0.15294605 0.05330864 0.059603702 -0.28646204
0.15751502 0.06665112 -0.022303874 0.41347814 -0.4131174 0.3576793 0.021362266 0.32340252
00000000: 2d9b 0a3e aa69 60be f3d6 6dbe 5b1d 6cbe
00000010: fa20 f0bd 1ea1 143e 4ed8 3f3e 5848 4b3e
00000020: b9ba f43d 6ca2 d7be 3024 14bd 68c4 383e
00000030: 3bdb bc3e d508 033d 0689 6fbe 4a3a cfbe
00000040: 71ea 223e 2981 83bd 3111 1d3e e299 5c3e
00000050: d6d0 debe 53c6 d13e ac6e 4ebd ba0b 98be
00000060: e744 12be 473f 9a3e 3293 6abd 7d06 24be
00000070: ccab b73e 49c2 25be 2eaa 86be 9a99 babe
00000080: 350b 8f3e 5cf7 563e c363 8c3e 7302 6fbe
00000090: 04da b03e 2d9e 0e3d 2192 9dbe 69a9 bcbd
000000a0: 802c c03e 720f 40be 83bd b93e e58d 4dbe
000000b0: c15e f03e 0af5 8c3d 6047 9ebd d564 abbd
000000c0: bdf0 70bd 69de 28be 77bd 463c 7db4 72bd
000000d0: 2d26 f33d fece 173e b8c6 0e3d 4806 82be
000000e0: 1414 ab3e 875c 053e fb7c 81bd ca88 a53e
000000f0: 463b 033f 086c febd 8566 003f 45e1 233e
00000100: 4869 1ebe b619 143e d6e5 853e 3790 8d3e
00000110: 469f b23e 41dc 473e 60fd be3e bafa a03e
00000120: ca9d 473e 062c d0be 5c32 693c 3e01 783e
00000130: d045 853c f635 94be ad25 373e 6da0 3dbe
00000140: ba53 adbe 7116 d63e 1cfc a63d ab63 8abe
00000150: 235d 723e 6c1d 943e 456b 8abd 800d 01bd
00000160: 7db4 18bd aa49 313b 541c af3d 8e2b 22bd
00000170: 53ed 583e 5b78 e03a 0954 bd3e 32d9 9a3d
00000180: fcb6 4e3e 2405 7a3d 7060 88be 901d 07be
00000190: 391a a33d efce 21be 6690 843e dede 6c3e
000001a0: ade2 ac3e 958a fbbc 81fc cf3e cffa 71be
000001b0: 5608 07bd bfb9 c6be 4bc4 b5be d78c 8e3c
000001c0: 691b 59be 8039 2dbe c68d c33c b4c0 8c3e
000001d0: dea6 d73e 04f1 a6be dda9 33bd c163 fdbe
000001e0: 0df5 f2be 2e98 73be 5279 cd3d b889 673e
000001f0: 9aa4 8bbe 9a95 8dbe b403 b3be 95fe b33e
00000200: cf48 4a3e 6a21 7ebe 74f9 793e 8c92 5dbd
00000210: 57db 933d dcb3 8bbe 7b40 ff3d 293c a0be
00000220: 354f 6dbe f698 33be 2408 d03c a8c9 973d
00000230: 50f8 c9bd 908c fd3b c0ba f6bd e0d9 bc3e
00000240: 9d41 f83e 0391 c8be c3f5 693e e96e 223e
00000250: 6712 0a3e abbb 643e 62e5 2d3e 03f6 a83e
00000260: af13 28be 07bc 83be e864 613e 0504 7a3e
00000270: b038 403e 684a 833e 5df2 833a 5439 bb3e
00000280: e663 edbe c2fb 9dbe d131 4b3e 43bf b43e
00000290: 84d6 213d 81e4 4cbe a0fd d53e 4a33 6dbd
000002a0: a650 7e3e fbcd ba3d f82f cb3e 659d 033e
000002b0: e220 4bbe 2615 b4be 93c7 813e b9f4 a63e
000002c0: f75a 363e d585 28be 43bc 173e c2c4 4cbe
000002d0: edae 45bc b2f0 27be 2f0e 74be e8b1 fd3e
000002e0: de5d dabd d154 debe 904a d4bc e6be 0a3e
000002f0: 1eea 62be 002e d0bd 3e0d 46bd 71fa e93d
00000300: 455b 29be aedb c7be c22c 043f 6a97 a93e
00000310: 7ca3 4a3e 68f1 59bd f25e d23d 7e99 c13e
00000320: d9a3 27be 1f27 bebe 798b e1bc e4da 6dbe
00000330: cd8e 2bbe ac2a 95be 62de 20be 2af6 86be
00000340: 3187 a9be 8686 c03d 3dbd 9abe 958d b23e
00000350: 1f94 813d d6e6 f63d 4799 003f 96da 28be
00000360: 5cdb d73d 294e bd3a d874 e2be e000 e4be
00000370: ae97 b03e 0be7 fd3b c37e 80be c7c9 bb3e
00000380: 651b 253e 00c9 0dbe 3cee 05be bc6a 6abe
00000390: fcaa 99be 9d6a 0cbc c8f1 f33e bf5c ad3e
000003a0: a499 0f3f 2bc0 a2be 551e 82be e701 ca3e
000003b0: 30fd d0be e336 0bbe 01e4 94bd 9024 f43e
000003c0: 18a4 3fbe 2bbc 0b3d 5e7a e03d 2b79 623d
000003d0: e49d 1cbe 295a 5a3d 0323 743d 27ab 92be
000003e0: 9e4b 213e 6280 883d 9db6 b6bc 68b3 d33e
000003f0: 2084 d3be be21 b73e ebff ae3c 0495 a53e

shared.2.weight f4 [256, 256]
-0.017156232 -0.044416912 -0.025460148 -0.005624982 0.025910167 0.13943103 0.115369335 0.054929163
-0.08719124 -0.0013369195 0.050804377 0.030924138 0.07279271 -0.02662196 -0.10465235 -0.0014668914
0.015824705 0.08546103 -0.05043843 -0.043128807 -0.078062415 0.022934906 0.0736541 -0.03489078
-0.016877461 -0.047759507 -0.017324612 -0.08282005 0.020633526 -0.053338975 -0.09190231 -0.07638661
-0.08590915 0.019166855 -0.03887366 0.17166519 -0.05978241 0.02865445 -0.004564548 -0.1177302
-0.00857288 0.0100185275 -0.018389732 -0.034057725 0.108579144 -0.04634447 -0.046656493 0.04528429
0.05889763 0.054575276 -0.03961169 -0.04144605 -0.0007688443 0.045706723 -0.035977203 -0.08925189
0.05292348 0.035293017 0.033326063 0.017549345 0.05543405 0.03234328 0.004504298 0.01691385
-0.030881444 -0.050819203 0.016605591 0.031192316 0.055116694 -0.058205094 0.14182897 0.059484664
-0.020897644 -0.0073796045 -0.22640917 0.038331304 0.0042500016 -0.063944936 0.017147219 0.016572692
-0.07428042 0.034836564 0.064736284 0.010198582 0.02633837 0.08091718 0.05738795 0.058664627
0.0029950964 -0.046357185 0.028601851 -0.024135202 -0.04692269 0.03245324 0.039981134 -0.0058402177
0.041980766 -0.039512683 0.020316929 0.026854226 -0.0042280867 0.14732358 -0.011830932 -0.0496282
0.058695775 -0.21716459 -0.07141856 -0.10261027 0.0074514095 -0.026713181 -0.10423813 -0.0055727866
0.017723497 0.03097361 0.05259737 -0.04522862 0.056026954 -0.006278277 0.022871658 0.058259767
-0.053733647 -0.062442154 0.017149398 0.079813 0.06588153 -0.113302395 -0.0011904021 0.06181969
0.02752407 0.08690001 0.056344528 0.0031879812 0.015187831 -0.036575552 -0.010697372 0.049040847
0.020326443 0.09275193 0.054161556 0.022200834 0.026241422 -0.07483589 -0.033596788 -0.08820489
-0.07830544 -0.0648078 0.027310563 -0.030124614 0.052876186 0.06212312 -0.11741987 -0.054805223
0.037793376 -0.07026226 -0.03124769 -0.009722208 0.048998784 -0.073976405 0.045581438 -0.08826192
-0.056905176 0.047851663 -0.00017222235 0.093027905 0.06278883 -0.074620344 -0.05226985 0.032389954
0.08077015 0.059683982 -0.09066081 -0.008275639 -0.10641074 -0.09314138 -0.042324208 0.117643245
-0.00048902875 0.04408133 0.0224354 -0.032573473 0.0547163 0.062082246 0.3954659 0.049913976
-0.041576847 -0.0058993404 0.016378038 -0.04102388 0.045054868 -0.09144887 -0.03581043 0.12780233
-0.0858969 -0.06802358 -0.052615754 -0.03849742 0.07051113 0.0009254756 0.009072489 -0.019361755
-0.032027215 -0.047555115 -0.13795255 -0.010230009 -0.1381021 0.030760195 0.017639276 0.005309964
-0.087522894 0.03953593 -0.06384282 -0.068737045 0.0069505027 -0.04700483 -0.036181156 0.031730376
0.042775273 0.041511696 0.026457772 -0.0708641 0.077918164 0.059768364 0.070070125 0.018156363
0.025107361 0.035956476 -0.004552157 -0.023153845 -0.10030853 -0.015646115 0.030334687 -0.046697386
0.029882938 -0.023504747 -0.059385564 -0.033079248 -0.0767093 -0.20132552 0.05953792 -0.038559113
-0.100852914 0.013572624 0.06524036 -0.007846351 0.08889852 0.038120408 -0.0011123858 0.013729311
0.037985444 0.06996831 -0.049248688 -0.02671274 -0.0747207 -0.14105004 0.057993937 0.03687301
00000000: 3a8b 8cbc 82ee 35bd cd91 d0bc c551 b8bb
00000010: 8f41 d43c 02c7 0e3e c246 ec3d 67fd 603d
00000020: 5291 b2bd 933b afba 4018 503d 9e54 fd3c
00000030: 5814 953d 4c16 dabc f953 d6bd b544 c0ba
00000040: d0a2 813c 3106 af3d 8798 4ebd d5a7 30bd
00000050: 30df 9fbd fce1 bb3c f6d7 963d a2e9 0ebd
00000060: 9a42 8abc 799f 43bd 58ec 8dbc 8f9d a9bd
00000070: a407 a93c f879 5abd 4737 bcbd 9570 9cbd
00000080: 23f1 afbd cf03 9d3c fd39 1fbd 00c9 2f3e
00000090: 66de 74bd bdbc ea3c 3492 95bb 881c f1bd
000000a0: 4475 0cbc c024 243c 10a6 96bc 1d80 0bbd
000000b0: be5e de3d b3d3 3dbd e11a 3fbd 057c 393d
000000c0: a43e 713d 538a 5f3d de3f 22bd 55c3 29bd
000000d0: 448c 49ba f936 3b3d d55c 13bd b2c9 b6bd
000000e0: 4ac6 583d 698f 103d e980 083d a5c3 8f3c
000000f0: d00e 633d 637a 043d ca98 933b ea8e 8a3c
00000100: 15fb fcbc cc27 50bd 7308 883c 0787 ff3c
00000110: 0bc2 613d 7768 6ebd 9d3b 113e 31a6 733d
00000120: 8931 abbc 9cd0 f1bb ced7 67be 4901 1d3d
00000130: 9943 8b3b 90f5 82bd 5378 8c3c 74c3 873c
00000140: 5520 98bd c9b0 0e3d 7594 843d f417 273c
00000150: 91c3 d73c e8b7 a53d a10f 6b3d 524a 703d
00000160: 6149 443b 08e1 3dbd 6e4e ea3c 30b7 c5bc
00000170: 0232 40bd b0ed 043d 42c3 233d 4c5f bfbb
00000180: 06f4 2b3d 0dd8 21bd b06f a63c 65fd db3c
00000190: c38b 8abb fedb 163e 87d6 41bc f046 4bbd
000001a0: fb6a 703d 6560 5ebe e543 92bd 5525 d2bd
000001b0: f42a f43b 9ad5 dabc cd7a d5bd ec9b b6bb
000001c0: de30 913c 5ebc fd3c 5770 573d a541 39bd
000001d0: 857c 653d 01ba cdbb 585d bb3c cba1 6e3d
000001e0: d017 5cbd 58c3 7fbd e57c 8c3c 0075 a33d
000001f0: e5ec 863d 160b e8bd 4407 9cba a536 7d3d
00000200: 297a e13c a2f8 b13d 85c9 663d 73ed 503b
00000210: 61d6 783c 3fd0 15bd 0844 2fbc 0edf 483d
00000220: a483 a63c b9f4 bd3d 82d8 5d3d 86de b53c
00000230: 40f8 d63c 8f43 99bd c99c 09bd c4a4 b4bd
00000240: 9a5e a0bd f4b9 84bd 67ba df3c e5c7 f6bc
00000250: b394 583d d074 7e3d d479 f0bd 717b 60bd
00000260: 3acd 1a3d a9e5 8fbd 28fb ffbc e549 1fbc
00000270: f3b2 483d f180 97bd 9ab3 3a3d aac2 b4bd
00000280: 6715 69bd 1b00 443d 9696 34b9 6a85 be3d
00000290: 6e97 803d 8dd2 98bd e918 56bd 54ab 043d
000002a0: d26a a53d 3177 743d 60ac b9bd 8c96 07bc
000002b0: e0ed d9bd e8c0 bebd 265c 2dbd f1ee f03d
000002c0: 2a32 00ba a08e 343d 72ca b73c c36b 05bd
000002d0: 331e 603d f449 7e3d 827a ca3e 9972 4c3d
000002e0: 7c4c 2abd 414f c1bb 3c2b 863c a808 28bd
000002f0: 748b 383d 8c49 bbbd f5ad 12bd 9dde 023e
00000300: b7ea afbd f24f 8bbd 9e83 57bd 78af 1dbd
00000310: 2468 903d 9e9b 723a c7a4 143c 8b9c 9ebc
00000320: f82e 03bd 27c9 42bd 6f43 0dbe c59b 27bc
00000330: a36a 0dbe cefc fb3c 3e80 903c 35ff ad3b
00000340: 343f b3bd 6df0 213d 06c0 82bd 02c6 8cbd
00000350: 0bc1 e33b 2388 40bd b132 14bd b6f7 013d
00000360: 2035 2f3d 2b08 2a3d f8bd d83c 3221 91bd
00000370: 8f93 9f3d accf 743d ed80 8f3d a7bc 943c
00000380: f4ad cd3c 1947 133d 432a 95bb 22ad bdbc
00000390: 8f6e cdbd 482c 80bc 7380 f83c c245 3fbd
000003a0: 10cd f43c 078d c0bc 473e 73bd 1b7e 07bd
000003b0: c419 9dbd 4728 4ebe 09de 733d 29f0 1dbd
000003c0: f98b cebd b65f 5e3c bd9c 853d fb8d 00bc
000003d0: 6d10 b63d 2524 1c3d 79cd 91ba e7f0 603c
000003e0: a096 1b3d 8c4b 8f3d feb8 49bd add4 dabc
000003f0: 2b07 99bd 6c6f 10be 0d8b 6d3d 2708 173d

shared.2.bias f4 [256]
0.020600257 0.16083269 0.050134044 0.088700876 0.01244535 0.014518163 -0.2872838 0.032807607
0.027970402 0.15281719 0.09964686 0.017488996 0.05509605 0.12296374 0.09445851 0.098176904
0.115108885 0.1653844 -0.022353932 -0.004961654 0.1691418 0.10467401 0.045645192 -0.049844824
0.024355184 0.1164951 -0.03378489 -0.044807393 0.13761747 -0.026607223 0.13377042 0.030774314
-0.21467516 -0.053527884 0.14079326 0.038382236 0.09032475 0.13089162 0.1648689 0.030144867
-0.021699645 0.17216559 0.059440084 0.05554629 -0.15647087 0.0022193065 0.060595613 -0.011608802
0.04791883 0.015136368 0.13068533 -0.12394269 0.0011030855 0.13110322 0.074664876 0.10584608
0.13965406 0.108362 0.09839776 0.11276418 0.028153643 0.095173515 0.09509214 -0.02818574
0.02028163 0.059916258 0.11248895 0.09531319 0.14736171 0.0282176 0.07982752 0.2086509
0.113487765 0.09063889 0.116137914 0.030867025 0.080026284 -0.02231358 -0.016603297 0.059447948
0.062119316 -0.13085182 -0.033689033 -0.016961304 -0.18913649 0.09559797 0.122023694 -0.010259979
0.031465307 0.041476477 0.16021606 0.20147483 -0.012023662 0.09404078 0.09590947 0.009350577
0.07570581 0.0047726287 -0.040324677 0.02376454 0.0031225763 0.1564864 -0.2769899 0.024263274
0.069211625 0.004343881 -0.27320024 0.20256746 -0.05342399 -0.0096018175 0.112725094 0.02885222
0.008782298 0.02168045 0.069341235 0.10096962 -0.09856997 0.18998776 0.04440149 -0.08675461
0.08413768 0.19015111 0.049841244 0.03208531 0.07215973 0.058071237 0.08896052 0.050757173
0.09905426 0.16738905 0.093551345 -0.03902831 -0.05180649 -0.12043745 -0.023824073 0.04205012
0.076479994 0.14405912 0.056257583 0.092258826 -0.18207663 -0.055095922 0.107828036 0.020652566
-0.0525889 0.14381315 -0.051605474 0.10046801 -0.08026152 0.022421466 0.12076318 0.044059485
0.08399543 0.19274879 0.0071638916 0.03485295 -0.27368423 0.008783398 -0.011518579 0.0380015
0.09890314 0.062513806 0.02611164 -0.03540943 0.07368628 0.15899354 -0.1689228 0.0010676789
-0.13615626 0.03651234 0.12879331 -0.044615407 0.059239764 0.12804078 0.03026653 -0.060658433
0.03121618 0.043514483 0.14332037 0.05058174 0.11822161 0.08913158 0.039283063 0.09234624
-0.0059810467 0.03798553 0.09136835 -0.018110197 -0.02518032 0.058920976 0.15741089 -0.049475968
-0.025927095 0.14557035 0.09117474 0.11528504 0.11428529 0.07131695 0.0640842 0.037569664
-0.040835008 0.15745063 0.08733488 0.094593436 0.10103441 0.13998619 0.081886634 0.034457892
0.12688473 0.048763003 0.13205132 0.042617436 0.044120878 0.0045103147 0.1140486 0.09760334
-0.044649746 0.11122024 0.07750471 0.17191458 0.054116208 0.1568075 0.17021586 0.069719866
0.059084028 0.09424802 -0.01898971 0.13580348 0.08943411 0.041623615 0.020908136 0.040093727
0.09212895 0.16218022 -0.032299254 -0.095383294 0.019205244 0.018458746 0.10548102 -0.22608855
0.0009188949 0.054593965 -0.20292434 -0.1688124 0.010195001 -0.15494008 0.08443732 0.051327508
0.013582481 0.008034289 0.0258728 -0.027573165 0.05739947 0.048955895 0.13616197 -0.030933755
00000000: dfc1 a83c 53b1 243e 5b59 4d3d cea8 b53d
00000010: 95e7 4b3c 97dd 6d3c dd16 93be 4561 063d
00000020: 2f22 e53c 1c7c 1c3e a713 cc3d 1545 8f3c
00000030: 65ac 613d 6ad4 fb3d 7773 c13d f910 c93d
00000040: 35be eb3d 875a 293e 981f b7bc 5f95 a2bb
00000050: 8233 2d3e 545f d63d 74f6 3a3d 162a 4cbd
00000060: 8684 c73c fc94 ee3d 0662 0abd f587 37bd
00000070: 98eb 0c3e 64f7 d9bc 1dfb 083e 6a1a fc3c
00000080: ced3 5bbe 0e40 5bbd 1c2c 103e b136 1d3d
00000090: 2ffc b83d 7408 063e 65d3 283e 5ef2 f63c
000000a0: 74c3 b1bc 2d4c 303e 7277 733d 8284 633d
000000b0: e639 20be c971 113b 1b33 783d d832 3ebc
000000c0: 8946 443d 87fe 773c 60d2 053e aad5 fdbd
000000d0: 6895 903a ec3f 063e e6e9 983d d4c5 d83d
000000e0: 7901 0f3e e5ec dd3d c484 c93d e8f0 e63d
000000f0: 78a2 e63c 55ea c23d abbf c23d c8e5 e6bc
00000100: a925 a63c c06a 753d 9b60 e63d 9033 c33d
00000110: fde5 163e 9928 e73c 9c7c a33d 95a8 553e
00000120: 466c e83d e2a0 b93d b7d9 ed3d d8dc fc3c
00000130: d2e4 a33d f8ca b6bc a303 88bc b17f 733d
00000140: d370 7e3d 05fe 05be 83fd 09bd 6ff2 8abc
00000150: ffac 41be dec8 c33d 8fe7 f93d 7919 28bc
00000160: c4e1 003d 3de3 293d ae0f 243e 6b4f 4e3e
00000170: e5fe 44bc 7498 c03d 2f6c c43d 2a33 193c
00000180: a60b 9b3d b663 9c3b 7d2b 25bd daad c23c
00000190: 23a4 4c3b f93d 203e 9fd1 8dbe c6c3 c63c
000001a0: d3be 8d3d 1d57 8e3b e7e0 8bbe d86d 4f3e
000001b0: 1dd3 5abd f150 1dbc 6adc e63d 7e5b ec3c
000001c0: a1e3 0f3c 339b b13c c702 8e3d 29c9 ce3d
000001d0: 0ddf c9bd 278c 423e 56de 353d 67ac b1bd
000001e0: 6050 ac3d f9b6 423e 5526 4c3d e36b 033d
000001f0: 7bc8 933d 1bdc 6d3d ef30 b63d c1e6 4f3d
00000200: f6dc ca3d 0968 2b3e d997 bf3d 26dc 1fbd
00000210: 0b33 54bd e9a7 f6bd b42a c3bc bf3c 2c3d
00000220: 8ba1 9c3d 3c84 133e 5a6e 663d 32f2 bc3d
00000230: 4c72 3abe 43ac 61bd f2d4 dc3d 922f a93c
00000240: 7567 57bd c143 133e 4360 53bd 2cc2 cd3d
00000250: 2760 a4bd 39ad b73c b052 f73d b877 343d
00000260: cc05 ac3d f05f 453e 14bf ea3b f8c1 0e3d
00000270: 5720 8cbe 3ee8 0f3c 6cb8 3cbc 76a7 1b3d
00000280: bb8d ca3d 3d07 803d 14e8 d53c 7a09 11bd
00000290: d5e8 963d 34cf 223e 19fa 2cbe 5cf1 8b3a
000002a0: 8c6c 0bbe f78d 153d 65e2 033e a5be 36bd
000002b0: 65a5 723d 1f1d 033e 84f1 f73c fa74 78bd
000002c0: 13b9 ff3c 3e3c 323d 93c2 123e cc2e 4f3d
000002d0: 2c1e f23d 9e8a b63d 47e7 203d 0720 bd3d
000002e0: a8fc c3bb b796 1b3d 541f bb3d d65b 94bc
000002f0: f546 cebc 1f57 713d 5230 213e 50a7 4abd
00000300: 0f65 d4bc 6510 153e d2b9 ba3d 901a ec3d
00000310: 680e ea3d 9f0e 923d 943e 833d a6e2 193d
00000320: 9c42 27bd bd3a 213e a1dc b23d 34ba c13d
00000330: 21eb ce3d 8a58 0f3e 2eb4 a73d b823 0d3d
00000340: 12ee 013e b7bb 473d 7638 073e 9f8f 2e3d
00000350: 18b8 343d 43cb 933b 5092 e93d 43e4 c73d
00000360: a7e2 36bd 70c7 e33d caba 9e3d 600a 303e
00000370: f5a8 5d3d 2592 203e 114d 2e3e 4ac9 8e3d
00000380: 1802 723d 1b05 c13d 4f90 9bbc 1110 0b3e
00000390: 3b29 b73d 867d 2a3d 8a47 ab3c 5239 243d
000003a0: 1aae bc3d 9212 263e 394c 04bd 5158 c3bd
000003b0: 5154 9d3c cc36 973c 6f06 d83d c283 67be
000003c0: fee1 703a ec9d 5f3d 66cb 4fbe 28dd 2cbe
000003d0: ef08 273c 9da8 1ebe 79ed ac3d cb3c 523d
000003e0: 0e89 5e3c 40a2 033c 32f3 d33c 1ee1 e1bc
000003f0: b51b 6b3d fa85 483d 0b6e 0b3e c968 fdbc

actor.weight f4 [3, 256]
0.08489979 -0.025852459 -0.0061553554 -0.028385626 -0.07405792 -0.082014665 -0.07900775 -0.022466218
0.03428403 0.045192897 0.08400714 -0.016746074 0.08733798 0.0034910485 0.020556206 -0.0021145241
0.13891415 0.02634442 0.00989873 -0.0041207634 0.051020138 0.066328645 -0.23029679 -0.023944614
-0.00489666 0.102340795 0.030653724 -0.12760934 -0.09785321 0.011460952 -0.15400621 -0.0053668465
0.005875435 -0.017868351 0.1298165 0.0035494613 0.08992567 -0.08069259 -0.10850641 -0.009990195
0.04091446 0.12533566 0.045203302 0.054248814 0.006178292 -0.037905112 0.060361307 0.1796636
-0.019920964 -0.013031025 -0.08007331 -0.024064668 0.031746387 0.24569428 0.1109442 0.011807091
-0.093179315 0.099285275 0.08061052 -0.017278088 0.041251786 0.11076338 -0.088733 -0.060859714
-0.28320464 -0.021692764 -0.0005385653 0.02355905 0.014403708 -0.0051194774 0.050364673 0.19824278
-0.12095028 0.010314276 -0.044762503 0.016489102 -0.0067234067 0.0037805357 0.022639932 0.2133395
-0.051402707 0.0051057115 -0.032333948 0.044706464 0.0038689745 0.11774604 0.077586554 0.04987055
-0.039678257 0.106187075 -0.026606195 0.09684946 0.023868974 -0.013454449 -0.08762732 -0.01959744
-0.014596831 -0.017536111 0.05437777 0.05224674 0.06834657 0.11613171 -0.023823217 0.02645023
-0.032767247 0.028331976 -0.036483675 -0.14348663 -0.17082812 -0.006183119 0.097809 -0.01177899
0.035097003 0.049719367 0.10221471 -0.0373436 0.057303675 0.05393436 -0.06661801 -0.0020094481
0.07779497 0.0955764 -0.0024519362 -0.040747676 0.075033575 -0.03365898 -0.049611118 0.1296456
0.011537933 -0.015009867 -0.017238958 0.045061793 -0.05430696 0.023757035 0.033597 0.007442424
0.11229626 -0.4865052 -0.020873142 -0.07467438 0.092718236 -0.05251175 0.013422766 0.0201302
0.008958365 0.026138648 0.02733126 -0.013025716 0.022445558 0.0096186455 0.012605052 -0.0011548895
0.06888017 -0.092829384 -0.05380486 -0.011544737 0.03682387 -0.02324063 0.014108692 -0.01032652
0.008945552 0.07637203 -0.12739713 0.08372102 -0.034386523 0.048418008 -0.05960291 0.018472845
0.11966064 0.019029614 0.06915711 -0.016920442 0.021724826 -0.019612545 -0.016263982 0.007630445
-0.04266616 0.053404335 0.23675066 -0.035456754 0.01661935 -0.14846337 -0.024072157 0.002580304
-0.033302233 -0.12701818 -0.047426578 0.052681644 0.060349893 0.03412801 0.22639215 -0.029472262
0.020388033 0.05807241 -0.03462413 -0.036965262 -0.11087895 -0.026934745 -0.046784453 0.025636002
0.0063310894 0.021324778 0.13123716 -0.08582812 -0.06967804 0.041268937 0.0124423215 -0.1177123
0.060699526 0.10779153 0.05525121 0.057905007 -0.00024641142 0.08284459 -0.07093877 -0.014439647
0.031508844 -0.023932083 -0.026934624 -0.3799845 0.013166828 -0.097232826 0.09564088 0.032378078
0.087439775 -0.058019854 -0.0010264567 0.048708413 -0.08712625 0.025583452 0.055851694 -0.09916782
0.0725909 -0.06071303 -0.06629035 0.017865436 -0.0049762214 0.024403412 -0.13522342 0.10314394
0.048919596 -0.053832676 0.06301766 0.0015779713 -0.026937965 0.098536 -0.016053604 0.05628373
-0.093846045 0.05745666 -0.035331637 -0.10956268 -0.05140671 0.11615914 0.028323477 0.009253362
00000000: f1df ad3d 89c8 d3bc ddb2 c9bb f988 e8bc
00000010: aeab 97bd 4ef7 a7bd d1ce a1bd 130b b8bc
00000020: 696d 0c3d 301c 393d ef0b ac3d 102f 89bc
00000030: 41de b23d 13ca 643b 7d65 a83c d493 0abb
00000040: 833f 0e3e 41d0 d73c 482e 223c 7807 87bb
00000050: 7efa 503d 50d7 873d ecd2 6bbe 7f27 c4bc
00000060: 2974 a0bb 0d98 d13d 851d fb3c 06ac 02be
00000070: 4467 c8bd b8c6 3b3c ceb3 1dbe 5fdc afbb
00000080: b986 c03b a660 92bc 9eee 043e 149e 683b
00000090: f32a b83d 2842 a5bd 9c38 debd eaad 23bc
000000a0: ec95 273d fe57 003e 1927 393d 0134 5e3d
000000b0: 4573 ca3b 6442 1bbd 6b3d 773d bcf9 373e
000000c0: 4a31 a3bc 1580 55bc 7afd a3bd 4423 c5bc
000000d0: 8008 023d 4897 7b3e b636 e33d 8772 413c
000000e0: ccd4 bebd 1456 cb3d 2117 a53d c78a 8dbc
000000f0: a2f7 283d e9d7 e23d a6b9 b5bd 0948 79bd
00000100: 3300 91be 06b5 b1bc 812e 0dba e9fe c03c
00000110: 88fd 6b3c 4ac1 a7bb 304b 4e3d 2800 4b3e
00000120: c8b4 f7bd 36fd 283c e358 37bd 2714 873c
00000130: 0650 dcbb ddc2 773b 6177 b93c ab75 5a3e
00000140: a58b 52bd d04d a73b 9a70 04bd 201e 373d
00000150: 9f8e 7d3b d624 f13d b3e5 9e3d 1045 4c3d
00000160: ab85 22bd 9c78 d93d 3cf5 d9bc 0259 c63d
00000170: de88 c33c 0d70 5cbc f475 b3bd cf8a a0bc
00000180: 8c27 6fbc e4a7 8fbc 39bb 5e3d ad00 563d
00000190: 49f9 8b3d 76d6 ed3d e828 c3bc 27ae d83c
000001a0: f336 06bd 7618 e83c e86f 15bd 29ee 12be
000001b0: 91ed 2ebe c39b cabb 1650 c83d aafc 40bc
000001c0: e0c1 0f3d 89a6 4b3d f255 d13d 9af5 18bd
000001d0: 42b7 6a3d 47ea 5c3d 066f 88bd f2b0 03bb
000001e0: f852 9f3d 8fbd c33d aab0 20bb 09e7 26bd
000001f0: 34ab 993d 00de 09bd 0735 4bbd d1c1 043e
00000200: 9909 3d3c f2eb 75bc b738 8dbc b792 383d
00000210: fa70 5ebd 1d9e c23c 029d 093d 94df f33b
00000220: 95fb e53d 3617 f9be 27fe aabc e2ee 98bd
00000230: 0fe3 bd3d 9016 57bd 29eb 5b3c 17e8 a43c
00000240: 1bc6 123c b820 d63c cee5 df3c d069 55bc
00000250: bfdf b73c 8697 1d3c 6c85 4e3c a95f 97ba
00000260: 0c11 8d3d 551d bebd 7c62 5cbd 2326 3dbc
00000270: a0d4 163d 2263 bebc 2528 673c 9030 29bc
00000280: 5d90 123c f068 9c3d 6574 02be ed75 ab3d
00000290: e2d8 0cbd f651 463d 2e22 74bd 5d54 973c
000002a0: a310 f53d fee3 9b3c 3ea2 8d3d bd9c 8abc
000002b0: 43f8 b13c 7daa a0bc 0b3c 85bc d008 fa3b
000002c0: b6c2 2ebd 81be 5a3d c46e 723e 1a3b 11bd
000002d0: 4e25 883c c806 18be f932 c5bc 511a 293b
000002e0: ec67 08bd 0e11 02be 5f42 42bd b5c8 573d
000002f0: 7331 773d d0c9 0b3d 58d3 673e d06f f1bc
00000300: ce04 a73c 56dd 6d3d 08d2 0dbd e368 17bd
00000310: 8114 e3bd 41a6 dcbc 0ea1 3fbd 9802 d23c
00000320: 0775 cf3b 4db1 ae3c 0963 063e a7c6 afbd
00000330: 5cb3 8ebd 9e09 293d e1da 4b3c 2513 f1bd
00000340: 11a0 783d cec1 dc3d 184f 623d cd2d 6d3d
00000350: c830 81b9 6daa a93d 5948 91bd 4594 6cbc
00000360: 6b0f 013d 370d c4bc 00a6 dcbc 548d c2be
00000370: aeb9 573c 0122 c7bd 5edf c33d e09e 043d
00000380: a013 b33d 3aa6 6dbd 2c8a 86ba 7982 473d
00000390: 3f6f b2bd 6394 d13c bfc4 643d 7f18 cbbd
000003a0: 8aaa 943d 3aae 78bd 3cc3 87bd 895a 923c
000003b0: 920f a3bb aae9 c73c 0278 0abe 213d d33d
000003c0: ea5f 483d a77f 5cbd 670f 813d eed3 ce3a
000003d0: 02ad dcbc 3ecd c93d d982 83bc c589 663d
000003e0: 5b32 c0bd ad57 6b3d e8b7 10bd 6662 e0bd
000003f0: d88f 52bd d8e4 ed3d a306 e83c 6a9b 173c

actor.bias f4 [3]
0.06625009 -0.016181892 0.020831255
00000000: 21ae 873d e38f 84bc 4fa6 aa3c

critic.weight f4 [1, 256]
-0.018136956 0.06855572 -0.016224911 0.07866649 -0.03686845 -0.060817078 0.047382858 -0.032940384
0.041541163 -0.021392727 -0.023348423 0.025879553 -0.04790148 -0.02554348 0.0038522445 -0.051848162
-0.025516149 -0.055473913 -0.00069657713 -0.06586145 -0.013797272 -0.021023523 0.32672575 0.00767706
0.0068267714 0.20773517 0.03248521 0.06629148 0.004226702 0.0358352 0.0906613 0.05293925
0.04405118 0.007927831 -0.015806714 -0.041800622 -0.056460816 -0.053492244 -0.014595347 0.030540535
0.038304925 0.09704729 -0.04181583 0.03706356 0.08421473 -0.06441599 -0.019431876 0.40279567
-0.065778226 -0.06147725 -0.014503177 0.04170803 0.038292106 0.14209485 -0.0054803235 -0.0464863
-0.01837423 0.0023686003 -0.01909657 -0.07255766 -0.019803073 -0.019545311 -0.040698238 0.05199653
0.31307176 -0.02673917 -0.036262516 -0.023989065 -0.017911537 0.04696567 -0.027108239 0.11381482
-0.02393216 -0.025547048 -0.041895274 -0.05606996 -0.07250173 0.037999596 0.038934514 0.24984112
-0.032121565 0.069160156 0.051661223 0.038416 0.06442365 -0.021981236 -0.07570865 0.041329768
0.03791111 -0.029683225 0.077084124 0.04696952 0.024950566 -0.09626959 -0.019781958 -0.061234217
-0.041544266 0.022658918 0.052926697 -0.031065846 -0.0775606 0.082412414 0.05394871 -0.04880216
-0.04741743 0.011956401 0.09250319 0.096605174 0.16515006 0.037723564 -0.03288479 -0.04198322
-0.046556458 0.055998374 -0.008277642 0.053323753 0.08460044 0.17101465 -0.038217165 0.019765893
-0.04558677 0.116469644 -0.047179114 -0.06268393 -0.05839067 -0.04222394 -0.043611925 -0.030363154
0.11052536 -0.03253867 -0.024813265 0.00031817215 0.035336215 0.062622376 0.02707951 -0.048326425
-0.028375197 0.471321 -0.043810397 -0.03315367 0.064095974 0.054595776 -0.053898595 -0.04445227
0.04078367 -0.0089340545 0.037208166 -0.02049401 0.006563479 -0.04038375 -0.03633354 -0.055614486
-0.015766988 0.1593013 0.012402889 -0.015091169 0.09309662 0.023555866 0.037650883 -0.063959174
-0.05559383 0.08141136 -0.033680648 0.04740664 -0.1129584 -0.061442938 0.089740135 0.050778747
0.051802322 0.010779893 -0.027993469 -0.004157012 -0.04921123 -0.011684309 0.0038188668 0.0046449113
-0.048852533 -0.04847501 0.19272844 -0.06295555 -0.055383064 -0.02553118 0.035596948 -0.022348985
0.052268483 -0.05355511 0.21499419 0.0074251774 0.031282473 -0.0405348 0.13834736 0.04780367
0.050760467 0.1718061 -0.030658241 -0.022383928 -0.02137873 -0.07377936 -0.049168415 0.043180298
0.02264787 0.06362801 -0.01603446 -0.066134356 -0.026728397 -0.022233127 -0.0054468024 -0.08795971
-0.03925406 -0.036825147 -0.008224337 -0.04902618 0.0027519157 -0.068176806 -0.09437832 -0.03861031
-0.026119154 -0.022475703 -0.01339197 0.3611236 -0.029129803 0.00017306762 0.17710592 -0.03864126
-0.040936016 -0.045280527 0.024699908 0.09671521 -0.06158144 -0.034882106 -0.050714903 -0.04994391
-0.034332756 -0.011169286 0.063978665 0.05022013 0.026462227 0.017575467 0.017233932 0.059776586
0.05394175 -0.06435355 0.037285805 0.062253173 0.030358542 0.025043234 -0.05758352 -0.0329366
-0.05383953 -0.038598724 -0.036218356 0.18631497 -0.06710534 -0.040956017 -0.020977905 0.03943903
00000000: f493 94bc f166 8c3d 1bea 84bc e61b a13d
00000010: 5f03 17bd 541b 79bd 8714 423d 7fec 06bd
00000020: 1127 2a3d cd3f afbc 3145 bfbc 5b01 d43c
00000030: 5834 44bd 8f40 d1bc f075 7c3b bd5e 54bd
00000040: 3e07 d1bc 9d38 63bd 809a 36ba 5ee2 86bd
00000050: f40d 62bc 8639 acbc 9948 a73e d98f fb3b
00000060: 1cb3 df3b 87b8 543e 360f 053d d4c3 873d
00000070: 2580 8a3b eec7 123d a2ac b93d d4d6 583d
00000080: 036f 343d bce3 013c 157d 81bc 2137 2bbd
00000090: 7543 67bd af1a 5bbd 5321 6fbc 2530 fa3c
000000a0: a0e5 1c3d bbc0 c63d 1347 2bbd f6cf 173d
000000b0: c678 ac3d 88ec 83bd 992f 9fbc 3c3b ce3e
000000c0: bcb6 86bd 92cf 7bbd bc9e 6dbc 0ad6 2a3d
000000d0: 2fd8 1c3d 5081 113e 4994 b3bb 6b68 3ebd
000000e0: 8e85 96bc 853a 1b3b 6970 9cbc 1c99 94bd
000000f0: 0e3a a2bc 7d1d a0bc 32b3 26bd 50fa 543d
00000100: f14a a03e 1b0c dbbc 0188 14bd b784 c4bc
00000110: 37bb 92bc 135f 403d 1912 debc bf17 e93d
00000120: 610d c4bc 0b48 d1bc 619a 2bbd 9da9 65bd
00000130: c97b 94bd 77a5 1b3d cc79 1f3d 5ad6 7f3e
00000140: e791 03bd d7a3 8d3d b89a 533d 185a 1d3d
00000150: 8cf0 833d fe11 b4bc 230d 9bbd 6749 293d
00000160: ae48 1b3d 3c2a f3bc 48de 9d3d 1d63 403d
00000170: 2165 cc3c fe28 c5bd c60d a2bc bbd0 7abd
00000180: 522a 2abd 329f b93c aac9 583d cd7d febc
00000190: 18d8 9ebd d7c7 a83d 53f9 5c3d c6e4 47bd
000001a0: c738 42bd c8e4 433c 5072 bd3d efd8 c53d
000001b0: 191d 293e 0684 1a3d 34b2 06bd 99f6 2bbd
000001c0: fcb1 3ebd 8d5e 653d f29e 07bc 026a 5a3d
000001d0: ff42 ad3d 771e 2f3e 9a89 1cbd 15ec a13c
000001e0: 31b9 3abd a387 ee3d e33e 41bd 6f60 80bd
000001f0: 0e2b 6fbd 03f3 2cbd 6ba2 32bd 26bc f8bc
00000200: 1f5b e23d 4547 05bd 3045 cbbc 58d0 a639
00000210: b5bc 103d 2940 803d d9d5 dd3c eef1 45bd
00000220: 1a73 e8bc fc50 f13e 8872 33bd 25cc 07bd
00000230: c044 833d d29f 5f3d c6c4 5cbd 9513 36bd
00000240: c70c 273d 2460 12bc 9767 183d 0ee3 a7bc
00000250: 7412 d73b 6e69 25bd 7ad2 14bd 04cc 63bd
00000260: c529 81bc e11f 233e 7d35 4b3c f340 77bc
00000270: 71a9 be3d 3bf8 c03c d037 1a3d 07fd 82bd
00000280: 5bb6 63bd 00bb a63d b8f4 09bd 772d 423d
00000290: bc56 e7bd 97ab 7bbd adc9 b73d 60fd 4f3d
000002a0: ac2e 543d 269e 303c 8f52 e5bc 8b37 88bb
000002b0: b791 49bd 8b6f 3fbc f445 7a3b 5734 983b
000002c0: 9819 48bd bb8d 46bd 9b5a 453e d7ee 80bd
000002d0: 5ad9 62bd c426 d1bc 1bce 113d 3815 b7bc
000002e0: 7a17 563d 9a5c 5bbd 7027 5c3e e74e f33b
000002f0: 0d22 003d d207 26bd eeaa 0d3e c8cd 433d
00000300: 35ea 4f3d f0ed 2f3e fe26 fbbc 805e b7bc
00000310: 7222 afbc a219 97bd d264 49bd d3dd 303d
00000320: 0788 b93c 674f 823d b35a 83bc 7371 87bd
00000330: 83f5 dabc 3f22 b6bc 177b b2bb 3824 b4bd
00000340: ddc8 20bd f7d5 16bd 5fbf 06bc adcf 48bd
00000350: 7c59 343b 48a0 8bbd 6c49 c1bd d825 1ebd
00000360: d6f7 d5bc f71e b8bc fe69 5bbc 31e5 b83e
00000370: a0a1 eebc 7c79 3539 415b 353e 4c46 1ebd
00000380: 86ac 27bd 1378 39bd 7657 ca3c a012 c63d
00000390: d23c 7cbd 8ae0 0ebd 6eba 4fbd fc91 4cbd
000003a0: 81a0 0cbd 62ff 36bc 3f07 833d 9fb3 4d3d
000003b0: 50c7 d83c 6dfa 8f3c 2d2e 8d3c 4bd8 743d
000003c0: 06f2 5c3d cbcb 83bd 00b9 183d 2ffd 7e3d
000003d0: 7ab2 f83c 7827 cd3c b2dc 6bbd 87e8 06bd
000003e0: d786 5cbd b219 1ebd b359 14bd 5ac9 3e3e
000003f0: 866e 89bd 7fc1 27bd dbd9 abbc d28a 213d
