Experimenten/Experiment1Snake/PPO/ppo_snake_7200.pth (torch, 280852 bytes, 7 tensors)

shared.0.weight f4 [256, 9]
00000000: 0eec 113e e61d 47bd aa57 b43e a15f 9dbe
00000010: d978 2a3c 3ff8 a93c 4bbe 193f 1005 0e3f
00000020: ca90 71bd 2b08 02bf 2531 8c3e 8a4a 003e
00000030: f76e cbbe cfb6 9cbc b07a 7cbe 35e1 be3e
00000040: 49ba 75be 0285 5ebe 910d 48bd 3d76 133e
00000050: 4e1a ba3e 4132 77be 6c41 403d b0d2 4dbe
00000060: 5006 31bd 18c0 3a3e 0cac 11bf 5f15 adbe
00000070: 544f fbbd bb79 543e 7318 e1be c7a0 63be
00000080: 121b 7c3e a9c5 993e 4a76 ac3e 3d47 973e
00000090: 4d2a 6cbe d022 95bd 9cb5 ddbe 9a9c 9cbe
000000a0: f114 97be cd5b 36be bf7d 49be e39e 9fbe
000000b0: 5e3f 5b3e 75d3 ba3e 6c73 6a3e 589e 9e3e
000000c0: a0d2 cdbe 3564 b7bc 3246 fb3b b046 99bd
000000d0: 6fba f93e e6fb 133e 9b50 54be f880 a2be
000000e0: 41ce a73e a766 c83e 4f51 0bbc 658a 343d
000000f0: da53 263e 1ecf 9d3e 1588 173f a194 2f3e
00000100: 0bb8 d13c 27d5 94ba 5a61 cc3d 3c34 ff3b
00000110: f580 0e3c 4a99 18bf 11e4 853e 77c9 29bf
00000120: 54b9 f9be 730d a2be d9dc c33e 2457 03bd
00000130: d809 d9bc 15ba f6bb f19f 163e 3855 9d3e
00000140: 45ae 38bf 0764 e93c c94f 863d dfee 023f
00000150: aa10 7bbe 57bb f83c e104 bbbd ae57 27be
00000160: dd7c b83e 1b36 3bbf a795 98be 30c8 503e
00000170: af7d 623e 44cb 01bf 3f02 2bbe f10d 88bd
00000180: a43a cf3d 5bc0 923e f979 513f 589f 503e
00000190: 017f 15be 95a4 b3be 3207 7dbe f2bd 1ebc
000001a0: 1a62 e8bd 9bec 80bd 1078 cc3d a7c9 893f
000001b0: 8e5e 853c 7f89 9b3e c400 88ba b75d 953e
000001c0: 9386 0a3d b3f1 54bb b208 b83e c520 9dbe
000001d0: d6a0 223f 58df cd3e 67c2 14be 6d54 c7be
000001e0: 131f 6dbd c0a6 6f3e e654 463e d2ec 573e
000001f0: aee8 c13d 18e8 2ebe f6d6 c7be 5d37 94be
00000200: a687 0f3f 577b d8be cff6 bb3d 43ce 4abe
00000210: c472 72bd ecc7 3f3e 177f b1be 4d68 d8be
00000220: 77a5 91be 4e65 7f3e 1b01 e33d 0e70 2d3d
00000230: 72a2 c4bd 8f8c f63e d00c 293d cd21 b23e
00000240: 5591 dbbe a9d8 cabd f920 e13e dc10 ea3c
00000250: 7c13 87bd 2330 ffbd f906 373f 5ef6 813e
00000260: 718d 84be d718 273e 3790 783d 4414 3d3e
00000270: 32cd 0f3e 05ca ff3c 166f 723d 8194 203f
00000280: eef5 163f 429a 083f 143d 453e 9225 093f
00000290: 6bc8 24bb 9aad f8be 62ef 483e 7c0b d6bd
000002a0: 8280 1b3f 7d33 7b3d 8b72 51bb 0cef a5be
000002b0: d6f6 113e 7091 513e a316 fe3e bef7 223e
000002c0: dd8f 563d b96f 553d 6b6c 653e 088e 6a3e
000002d0: ea97 4b3a 3eef a1bb 62ed f2bd 51fc d5be
000002e0: 03c7 15be e11d 1dbd 50b5 dfbe 126e 4b3e
000002f0: 0b5e 913c 6878 013e 49a8 9f3e 2427 e33e
00000300: 0f72 593d 2355 85bd 5df4 57bd ef5b 0fbe
00000310: ecd1 2dbe 3aeb 673d 61cf c6be ef45 7b3d
00000320: 88d8 d03e aa64 5d3e edc7 b9bd d768 eebd
00000330: ba19 243f 0df5 163f 20a5 cc3d f109 eebe
00000340: 1b1f bbbd a88f 033f 0755 56bd a83d f63d
00000350: 282a 423e a1bf 203e 4727 94be 2d8a 85bd
00000360: 4a89 09bf 6cc7 133e 47bb 9b3e 4ceb bb3c
00000370: 242f 82bd 1002 27be 37a9 473f 685b 293f
00000380: 8a21 c43d 6d1a a4bd e25d a73e 71bd e63e
00000390: 6ea7 1dbe acd0 1f3e 0ead ccbd 2bd9 f53e
000003a0: ed9c e13e 43e3 cdbe 3ccd 3d3d 91c1 0c3e
000003b0: 50bd 32bd 269e 05bf 0069 b33d d6cc bebb
000003c0: 50c2 3c3f f46a a13e cacf 863e 1f8e 13bf
000003d0: 1adc 81bd acbd d43e d313 f2be c139 013e
000003e0: 653a 063e c37e dfbc 01a2 2a3e d80d 42be
000003f0: 55a8 18be df57 a63e b108 443e d64e a13e
0.14250204 -0.048612498 0.35223132 -0.30737022 0.010404789 0.020748256 0.6005599 0.55476475
-0.058975972 -0.50793713 0.27381244 0.12528434 -0.39733097 -0.019130139 -0.24656177 0.37281194
-0.23996843 -0.21730426 -0.048841063 0.14400573 0.36348194 -0.24140264 0.04693739 -0.20099902
-0.04321891 0.1823734 -0.5690315 -0.33805367 -0.1227099 0.20749561 -0.43963966 -0.222293
0.24619702 0.30033615 0.33683997 0.29546538 -0.23063011 -0.072820306 -0.4330262 -0.30588228
-0.29508165 -0.17808457 -0.19676875 -0.31175908 0.21410891 0.36489454 0.22895592 0.30980182
-0.40199757 -0.02238665 0.00766828 -0.07484186 0.4877505 0.1445156 -0.20733874 -0.3173902
0.32774547 0.39140818 -0.008503272 0.044077296 0.16242924 0.3082208 0.5919202 0.17146541
0.025600454 -0.0011355028 0.09979506 0.0077882092 0.008697738 -0.596089 0.26150563 -0.66323036
-0.48774207 -0.31650886 0.3825443 -0.032065526 -0.026493952 -0.007529507 0.1470945 0.3072908
-0.72140914 0.02849008 0.065581866 0.5114574 -0.24518076 0.030362768 -0.0913179 -0.16342041
0.36032763 -0.73129433 -0.29801676 0.20388865 0.22118257 -0.50700784 -0.16700076 -0.06643284
0.10118607 0.2866238 0.8182674 0.20373285 -0.1459923 -0.35086504 -0.24709776 -0.009688841
-0.113468364 -0.06295129 0.099838376 1.0764664 0.016280439 0.3037834 -0.0010376205 0.2917306
0.033819746 -0.0032492697 0.35944134 -0.30689064 0.63526666 0.4020946 -0.14527284 -0.389316
-0.057890963 0.23403454 0.19368324 0.21086434 0.09468208 -0.17080724 -0.3903119 -0.2894849
0.5606636 -0.422816 0.091779344 -0.19805245 -0.05919148 0.18728608 -0.34667274 -0.42267075
-0.28446552 0.24940988 0.11084195 0.04234319 -0.096012965 0.48154113 0.041271985 0.34791413
-0.42884317 -0.09904606 0.4397047 0.028572492 -0.06595513 -0.12460353 0.71495014 0.25383276
-0.2588916 0.1631807 0.06068441 0.18464762 0.1404312 0.03122426 0.05918797 0.627266
0.5896901 0.5336038 0.1926158 0.5357295 -0.0025143872 -0.48569947 0.19622567 -0.10451409
0.6074296 0.0613284 -0.0031959142 -0.3240894 0.14254317 0.20465636 0.49626645 0.15914819
0.052383292 0.0521085 0.2240464 0.22905743 0.00077664724 -0.00494185 -0.118616834 -0.41794065
-0.14626698 -0.038358573 -0.43693018 0.19866207 0.017745038 0.12643588 0.3118308 0.443658
0.05308729 -0.06510379 -0.052723277 -0.13999914 -0.1697461 0.056620814 -0.38830093 0.06134599
0.407902 0.21620432 -0.09071336 -0.1164109 0.64101756 0.5896767 0.099924326 -0.4649196
-0.09136792 0.5139108 -0.052327182 0.12023479 0.18961394 0.156981 -0.28936216 -0.065204956
-0.5372511 0.14431542 0.3041632 0.022939347 -0.063566476 -0.1630938 0.77992576 0.661551
0.095767096 -0.08012853 0.32688814 0.45066407 -0.153959 0.15606946 -0.09993945 0.4801725
0.44065037 -0.4021245 0.046338305 0.13745715 -0.043637574 -0.5219444 0.087602615 -0.005822758
0.73734 0.3152691 0.26330405 -0.57638735 -0.06340809 0.41550958 -0.4728075 0.12619688
0.13108213 -0.027282124 0.16663362 -0.18950593 -0.14907964 0.32488915 0.1914394 0.3150546

shared.0.bias f4 [256]
00000000: 4a78 b83d fe23 82be f3c2 96be 0182 87be
00000010: 8a54 b2bd 9f0a 0f3e f86f 083e 0b98 d53e
00000020: 625a c73d d81d bebe fd92 ffbc c1ff 133e
00000030: 3d1d 093f aa3c 8dbd f9d5 5bbe a8d4 f8be
00000040: 65ea 233d b129 00be 10ca 6c3d a19a 4d3e
00000050: 3111 fdbe 3f9a 093f 7be3 29be 1d90 86be
00000060: b43f ffbd 7a5a b23e f2eb 3bbd d98a 45bd
00000070: b2fc 0c3f 3b41 adbd f7da 8cbe 765a c1be
00000080: 873e 973e 0c51 aa3d 1f56 fb3d ef72 34be
00000090: 755f e93e 356b 65bb 4363 cfbe aa3c d3bc
000000a0: ac9c f63e 6628 21be 4ab9 ed3e a90f 75be
000000b0: 55de 193f 75db 8cbc 5eab a0bc b6b4 33bd
000000c0: 3ab0 66be b463 88be 6fc9 d6bd 1501 03bc
000000d0: f044 7b3d d18b 323e 4d69 e33d 8a1a 95be
000000e0: ab97 d83e 0056 463e efac 74bd a0f0 b13e
000000f0: 7558 243f 245d 45be aff3 253f bc98 a93e
00000100: 7c58 f7bd 32e3 273e 9607 973e 0d72 c63e
00000110: 92f1 fa3e d1b4 5b3e 40e1 933e 4167 763e
00000120: c795 c13d 83e9 cbbe 8674 6e3d 7281 e43d
00000130: 6224 1bbb 32e3 84be a827 693e 85b6 efbd
00000140: ea51 ddbe 657e 073f ab0b 363d 30d2 a8be
00000150: 6767 b73e b725 2d3e b11d e9bd b3a8 05bd
00000160: 3763 febd b8e2 643d 0462 6d3d 53e7 9f3c
00000170: c428 9e3e 77bb 2ebd 7bb8 f83e 9595 f2bc
00000180: 3072 863d 3685 1e3e 40f7 94be e1b7 29be
00000190: 8cc2 e83d cded 64be c87b 3c3e 7207 b13d
000001a0: fb21 3a3e 007a 1dbd c6d2 003f 6c54 76be
000001b0: d7a1 71bd c15d d0be 9f7f 94be 9fc3 e0bc
000001c0: c667 54be 8c61 54be 6bc1 7d3c 02de 383e
000001d0: 184e 0d3f 84c6 a4be 2719 34be 7ede 01bf
000001e0: 1561 10bf 50b4 22be c019 493e 61d7 ae3e
000001f0: 8f47 9dbe 5ed1 5abe 9ce8 a6be 2a55 d23e
00000200: 2d9b 023e 8f09 a9be bb37 833e 76e2 f2bd
00000210: fe91 673c 9a2e 64be bbb5 913d 85eb bfbe
00000220: 631d 97be b325 a3bd 6661 c3bc 39de 80bd
00000230: adb6 4bbe 85e5 06bd f90b 32bd de54 df3e
00000240: 9e0e 153f 08bc a8be 66bf b63e 111e 3f3e
00000250: 8cb3 633d 0da7 4f3e d143 5d3e 51e3 e53e
00000260: 3794 79be 0b8a 83be fa2b 833e ff06 953e
00000270: 9c8e 363e 3702 cb3e f1ae dfbb 0280 fe3e
00000280: ebda 08bf 689a 9dbe 8d35 493e 276e df3e
00000290: 3856 18bd eca9 54be a8d7 0c3f 50ed f3bd
000002a0: 8b9a 823d f21d c9bc eb69 033f 8368 aabc
000002b0: 4cfc 71be 9e2d 92be 0f82 d53e 5afe dc3e
000002c0: 80bd 8a3e 5a56 9cbe 795b 323e 23f4 0bbe
000002d0: f8a4 8fbd 595a 26be d62c 8bbe fd9a 1e3f
000002e0: 11de aabd 7bec c8be 480a 0fbe 572c 183e
000002f0: 60f6 73be 818a b1bd 2362 8ebd dbf9 7d3c
00000300: 2320 d7bd 74b1 c1be 148a 1a3f 52ab 1f3e
00000310: 7301 693d 42c7 733d 2faf 6bbd a77a 003f
00000320: c29a 22be 0e86 8cbe 5a33 63bd 9d78 96be
00000330: 2c99 f1bd 3d2d 56be fadc 32be 858c 89be
00000340: ca7c adbe c653 27bd 86f1 d4be e956 f63e
00000350: c681 f83d 18c3 033e 7ad1 193f c39f 37be
00000360: 69ca 9ebc b977 383c 28e9 0abf 746e eabe
00000370: ec61 823e 2bef 10be 59a4 73be 8568 f53e
00000380: 2b08 9e3d 18ab 24be bc3e ecbd d494 8bbe
00000390: 2a10 86be 9580 6dbd 4c99 1a3f 993a ce3e
000003a0: c9bd 2f3f a3b4 bcbe 9e11 9bbe ac6c 0b3f
000003b0: 7dcd b5be d010 aabd b61c afbd 9dd9 183f
000003c0: 7822 1abe 49f5 573c 1646 d53d 2cca bbbc
000003d0: 2cd7 5dbe c593 9b3a f333 b03c 9dc9 99be
000003e0: 84a1 4e3d 3adb f63c 5fee 01be 3473 fa3e
000003f0: a5b6 07bf fe8f e13e 0fb6 d83c 3f39 d13e
0.09007318 -0.25418085 -0.2944561 -0.26466373 -0.08707531 0.13968895 0.13323963 0.41717562
0.09734036 -0.37132144 -0.03119802 0.14453031 0.5356024 -0.068963364 -0.21468343 -0.48599744
0.040018458 -0.12515904 0.05780989 0.20078517 -0.49427179 0.53750986 -0.16590683 -0.26281825
-0.12463322 0.34834653 -0.04587931 -0.04822812 0.5507308 -0.08459707 -0.27510807 -0.3776433
0.29539892 0.0831624 0.12272286 -0.17621969 0.4558064 -0.0035006527 -0.40505418 -0.025785763
0.48166406 -0.15738067 0.46430427 -0.23931755 0.60104877 -0.017194489 -0.019612964 -0.04387351
-0.22528163 -0.26638567 -0.10487639 -0.007995863 0.06134504 0.17436148 0.11104069 -0.2912181
0.42303213 0.19368744 -0.059735235 0.34753895 0.64197475 -0.19273812 0.64824957 0.3312434
-0.12077424 0.16395262 0.29497975 0.3875889 0.4901243 0.21455695 0.2888279 0.24062826
0.09452396 -0.39826593 0.058216594 0.11157502 -0.002367281 -0.25954586 0.22769034 -0.11704735
-0.43226558 0.5292724 0.04444472 -0.3297286 0.35821077 0.16908918 -0.11382616 -0.032631587
-0.124212675 0.05588028 0.057954803 0.019519484 0.30890477 -0.04265925 0.48578247 -0.029612342
0.06564748 0.15480503 -0.29094887 -0.1657405 0.11365232 -0.22356339 0.18406594 0.08643998
0.18177025 -0.038446426 0.50321615 -0.24055642 -0.058992233 -0.4069653 -0.29003617 -0.02743703
-0.20742711 -0.20740336 0.015488009 0.1805344 0.55197287 -0.32182705 -0.1758772 -0.5073012
-0.56398135 -0.15889096 0.19638729 0.34148696 -0.30718657 -0.2136893 -0.32599342 0.410806
0.12754507 -0.33015105 0.25628456 -0.118596 0.014133928 -0.22283402 0.071147405 -0.37484375
-0.29514608 -0.07966175 -0.023850154 -0.062923856 -0.19893904 -0.03293373 -0.04346845 0.43619436
0.5822543 -0.32955956 0.356929 0.18663813 0.05559115 0.20278569 0.21607901 0.4489999
-0.24372946 -0.25691256 0.2561949 0.291069 0.17827839 0.39650127 -0.0068262746 0.49707037
-0.5345904 -0.30781865 0.19649334 0.43638727 -0.0371916 -0.20767945 0.55016565 -0.11910498
0.06377133 -0.024550412 0.51333493 -0.020801788 -0.236314 -0.28550428 0.4170079 0.43162805
0.27097702 -0.3053463 0.17417707 -0.1366735 -0.07013887 -0.16245402 -0.27182645 0.61955243
-0.08343137 -0.3924292 -0.13968766 0.14860664 -0.23824453 -0.08668996 -0.06952312 0.015501465
-0.105041765 -0.37830698 0.6036694 0.15592697 0.056886148 0.0595162 -0.057540115 0.5018715
-0.15879348 -0.27446026 -0.055468895 -0.29388896 -0.11796793 -0.20915695 -0.17467108 -0.2686502
-0.3388427 -0.040851377 -0.41590518 0.48113182 0.12134127 0.12867391 0.6008526 -0.17932038
-0.019383626 0.011259013 -0.5426202 -0.45787394 0.25465333 -0.14153735 -0.23793162 0.47931305
0.07716402 -0.16080892 -0.11535403 -0.27261984 -0.26184207 -0.057983954 0.6039016 0.4027908
0.68648964 -0.36856565 -0.30286878 0.54462695 -0.35508338 -0.08303988 -0.08550398 0.5970705
-0.15052211 0.013181039 0.104137585 -0.022923551 -0.21664113 0.00118696 0.021509146 -0.3003663
0.050447002 0.030133832 -0.12688588 0.48916018 -0.5301307 0.4405517 0.026454 0.40863988

shared.2.weight f4 [256, 256]
00000000: 7d93 ebbd 71c2 bebd 8b7f e3bd 33c4 a5bd
00000010: 8e3b 7fbd 6156 363e 0d73 a53d 5940 cb3d
00000020: c899 29be 41b3 ecbd fdff 623d a953 b33d
00000030: 63da 913d e0c3 c63c 1a63 ccbd 823e 2ebd
00000040: f2ad 37bd 798d c13c 7c50 43bd 8be7 82bd
00000050: c4cc a0be 7a8d 173d e4fb 893c 668b 15be
00000060: 1f02 61bd ead4 89bd 3f16 86bd ea45 32be
00000070: bfaa bcbd 67ec edbc 6faf 28be 62e8 8cbe
00000080: c0f5 87bd 860c 26bd 8099 9cbd 39d1 ba3d
00000090: d3d6 6fbd b13e 013d a0fa d5bd f340 3fbe
000000a0: c313 8c3d 4c29 ec3d 998e 8bbc d250 acbd
000000b0: fae4 0f3e 5b66 9bbd 60e2 2abd 1446 c23d
000000c0: b9ed e33c ec04 b73c 0fa4 9ebd 155d c4bd
000000d0: 775e 22bc 99e5 5cbd 99b5 22bc 3a23 2cbe
000000e0: aa94 0b3d f860 fabd 12ea 99bc 98ce 813d
000000f0: f260 973d 2fc2 14bd 00e4 6a3b a6fe adbc
00000100: 5d0b efbd 3e33 0b3d ce84 3c3c 18dd a7bd
00000110: d52a 263d dfe8 49be c879 ef3d 0e9e 6bbc
00000120: c624 98bb 7e8f f4bd 690d 5abe f74d 7fbc
00000130: e952 c23c 981d b1bd e1e1 14be f521 19bd
00000140: 2071 e0bd f92e 4d3d d350 4f3d 9520 9dbd
00000150: 25d1 383d 97ab 3e3d db7a 153d 0223 413c
00000160: b874 c33d d42c 42be b941 c83c 7165 0b3c
00000170: 8bf1 d7bd c5a8 f43c 8346 bc3d 29c3 bdbc
00000180: 8d06 4e3d 38b2 a53c 4670 d3ba 9569 97bd
00000190: 81ca 34bd f29a 8c3d f097 d3bd 3e23 f1bc
000001a0: dfd9 613d ae07 a1be 11bf 05be 2ed9 b7bd
000001b0: f024 783d 72aa 7ebd bdba 0abe f8f8 b6bd
000001c0: 8572 8c3a fd93 babd af57 083d 9acf 08bc
000001d0: 8ad4 4b3c 4af7 3bbe 5022 8abd d1fd 11bd
000001e0: 922c 2ebe e5ca a0bd e464 59bd 89ac 933d
000001f0: 8e09 ea3c 2aa1 a0be 2fc3 243c 27b3 ef3c
00000200: 1331 94bc c0e0 3e3d c8fd 5dbd fc5e f03b
00000210: 3336 453b 6296 b3bd 84b8 9cbc a815 44bd
00000220: 97f5 1b3c cd4c 543d 8280 383d d4f4 62bd
00000230: e707 59bc 7cf2 40be 3e4c e7bd f485 7a3b
00000240: 5c78 aabd 56bd 40be aac7 843d 0f13 07be
00000250: 76ea 3abd 15be b33c a64b 31bd 5b0f debd
00000260: 77a0 723b f299 64be 20c8 10bd 0c16 4dbd
00000270: cbd9 033d 596e f2bd 0635 203d a1b1 adbc
00000280: 5023 42be 8b05 d2bc d855 5e3c 654c 213d
00000290: 7ab6 3e3d 999f 5abe 9a41 18be 6ea8 923d
000002a0: ec1c d13d b7de 6b3d 4e59 9fbc c2b0 38bd
000002b0: dd08 7fbe 85e7 22be 1d0e f3bd 6ff8 0d3e
000002c0: 02b8 6f3c f3fa 033d e6b0 313d 5065 e8bd
000002d0: 55ae 89bc 71f6 253d 7978 ef3e 9a76 993d
000002e0: 6d7c acbd de29 e5bc 507f 0a3c 7a48 22be
000002f0: 1522 c13c c72f 2ebe 5bcb 99bd 9d24 e83d
00000300: 8c7e b9bd 90bd 38be b420 74bd 75f8 97bd
00000310: 51aa 453d 1ae5 8cbd ded3 bcbc 51d4 ebbd
00000320: 7635 c33b 0df7 aa3c dd43 6cbe 8e7c 96bd
00000330: d467 52be 9bde 36bd bd9a 003d febb 11be
00000340: 36d9 e7bd 2a1a 16bb 2d26 e2bd 3fdf b1bc
00000350: 8655 2abb f38d 3ebd 5559 9abc d361 3abd
00000360: 5a4a e43c e726 143d c955 7ebd eb7e 10be
00000370: b837 1d3d a422 02bd 8d70 493d 1e6c 30bd
00000380: cc58 9b3c 5d00 033b a4ec 82bc e017 28be
00000390: 18e8 00be b5f0 6ebc f917 4939 2af6 9cbd
000003a0: f216 783b f5cf 7dbe ba0d 9fbd b4f7 c7bc
000003b0: 85be 1bbe f6f4 bfbe 8694 5e3d 23dd 0bbd
000003c0: 4fd3 84be cfa3 8d3c 9856 443d 7d53 4ebd
000003d0: a9bd 663d 53cb 0bbd b26d 8e3c fdae 69bc
000003e0: faff 8c3c 77c0 f53c 025c 0dbe 0851 abbd
000003f0: fe66 31be a883 cebd 06b4 773d 7f10 60bc
-0.115027405 -0.093144305 -0.11108311 -0.08094063 -0.062312655 0.17806388 0.08078585 0.09924383
-0.16562569 -0.115576275 0.05541991 0.08756191 0.07121732 0.024263322 -0.099798396 -0.04254008
-0.04484362 0.02362703 -0.047684178 -0.063918196 -0.31406224 0.037000157 0.016843744 -0.14603958
-0.054933663 -0.06730063 -0.06547212 -0.17409483 -0.09212255 -0.02904339 -0.16473173 -0.27521044
-0.0663867 -0.040539287 -0.07646465 0.09121937 -0.05855448 0.031553928 -0.104481936 -0.1867712
0.06839707 0.11531314 -0.01703577 -0.08413853 0.14052191 -0.07587882 -0.041719794 0.094860226
0.027823316 0.022341214 -0.077461354 -0.095880665 -0.0099102175 -0.0539299 -0.009930992 -0.16810313
0.034077324 -0.122255266 -0.018788371 0.06338233 0.07391538 -0.036318 0.0035841465 -0.02123959
-0.11672089 0.033984415 0.0115062725 -0.08196467 0.04056819 -0.1971774 0.1169315 -0.014380945
-0.0046430556 -0.119414315 -0.21294178 -0.015582553 0.023721175 -0.08648223 -0.14539291 -0.0373859
-0.10959077 0.050093625 0.05061419 -0.0767223 0.04512133 0.04655036 0.036494117 0.011788132
0.09543747 -0.18962413 0.024445402 0.008508072 -0.105441175 0.029865632 0.091931365 -0.023164349
0.050299216 0.020226583 -0.0016131483 -0.07393185 -0.044138435 0.06865491 -0.10331714 -0.02943575
0.05513942 -0.31451172 -0.13061167 -0.089769706 0.0605821 -0.062174268 -0.13547798 -0.08934206
0.0010715282 -0.09110258 0.033286747 -0.008350277 0.01244081 -0.18356052 -0.06744826 -0.03564245
-0.1700919 -0.07851199 -0.053074732 0.07210643 0.02856901 -0.31372958 0.010056301 0.029260231
-0.018089807 0.046601057 -0.054197103 0.007335542 0.003009212 -0.087689176 -0.019130953 -0.047872216
0.009519002 0.051831055 0.04504443 -0.055409268 -0.013246513 -0.188425 -0.11293839 0.0038226815
-0.08323738 -0.18822226 0.064833954 -0.13190864 -0.045633756 0.021941224 -0.043285035 -0.108427726
0.0037021914 -0.2232435 -0.035347104 -0.050069854 0.032190125 -0.118374534 0.039113067 -0.021202864
-0.18958783 -0.025637409 0.013570271 0.039379496 0.046560742 -0.21349944 -0.14868775 0.07161032
0.102105945 0.057585444 -0.019451763 -0.045090444 -0.24905725 -0.1590863 -0.11867926 0.13864301
0.014631273 0.032221746 0.043381594 -0.11347449 -0.01680676 0.040518228 0.467716 0.074933246
-0.0842217 -0.027974065 0.008453205 -0.1584796 0.023575822 -0.17010413 -0.0750949 0.113351084
-0.0905734 -0.18041062 -0.0596015 -0.07420436 0.04825813 -0.06879635 -0.023050245 -0.115151055
0.005957301 0.020869756 -0.23072763 -0.07347976 -0.2054742 -0.044645887 0.03139757 -0.1423187
-0.113207266 -0.0022903779 -0.11042438 -0.021712897 -0.0025990917 -0.046522092 -0.018841425 -0.04550345
0.027867485 0.036169913 -0.06209353 -0.14110915 0.038383216 -0.031771317 0.049179602 -0.04307186
0.01896324 0.001998923 -0.01598198 -0.16415358 -0.12588537 -0.014583756 0.00019177784 -0.076641396
0.0037855473 -0.2478636 -0.0776629 -0.024410106 -0.15209396 -0.37491578 0.05434086 -0.03414644
-0.25942466 0.017290024 0.047934145 -0.05037259 0.056333218 -0.034129452 0.017386291 -0.014262912
0.017211903 0.029999001 -0.1380463 -0.08365065 -0.17324445 -0.10083705 0.060474418 -0.013675808

shared.2.bias f4 [256]
00000000: dd4a 253d cb63 8b3e bab3 6cbd 3961 423e
00000010: 703a 253c ba53 efbc 6366 8ebe bb19 11be
00000020: 2f22 e53c b221 173d 7bd1 e13d 1545 8f3c
00000030: ab17 ad3c afcc 3cbd 04c8 103e 2cf5 623d
00000040: 22d5 75ba f3d0 2e3d cdf6 c0bc 357e ffbb
00000050: e309 933d bee7 f93c 1fb0 21bc 6150 ff3c
00000060: 8684 c73c 8338 683e 549e b73c b340 2fbd
00000070: 23c8 463e 64f7 d9bc fb4b 7c3e 6a1a fc3c
00000080: cff8 50be 9b84 3c3d 5c6c 253e 614a e8bd
00000090: 7975 b63c 2ae8 35bd 0124 e33c c8bf 043e
000000a0: 81c4 cbbc 0f21 8c3e ce29 093d c7a4 273e
000000b0: 9d69 96bd 7c18 67bd c48d 0bbc 6074 963d
000000c0: 8549 9e3d 71f8 02bd 1c50 2e3b 0da7 60bd
000000d0: 6895 903a f8ed 7c3e 0025 863d 2c6b 0a3d
000000e0: 7f87 103e 8e9d 553e 2cf2 073e e20c 883d
000000f0: 6344 3dbd f29f ff3d 0d10 c33d bf67 6b3d
00000100: 6757 123d df2a eebd ba62 bbbc b3de 22bd
00000110: ef1c 2b3e 9928 e73c f2c3 b5bd 5814 943e
00000120: 58ab 0c3e d5c5 20bc cdc4 0a3e 4c71 abbb
00000130: 5b9d f53d f8ca b6bc 1f13 0cbd b3ed 363e
00000140: 0c79 ac3d c635 09be 83fd 09bd e7b3 8cbc
00000150: 8468 44be c626 3b3d 90b9 a03d 7919 28bc
00000160: c4e1 003d 2be3 373d 5ec8 823e 26d5 913e
00000170: 0d59 57bc c982 093e e38b 033e eb7a 4bbd
00000180: 9fe5 1bbb b663 9c3b c844 883b 2aee 0cbe
00000190: 99b9 2bbd 4804 833e 6a20 a2be 0e4f 7abd
000001a0: d950 033d f68b 9cbc 8d10 3dbe 94f3 803e
000001b0: f5b0 91bb f150 1dbc da9f 44bd da8c e6bc
000001c0: 0dca 80bd a671 e83d 8dbd c33c a946 5c3e
000001d0: 3a22 9cbd 0142 9c3e f351 b43d 8a7c b83a
000001e0: 7571 f03c c6c9 9b3e 953a 93bc 8ac2 c7bc
000001f0: c86c 483d 515f f6bd b392 9e3d 1e0d 413d
00000200: f9cd 4f3e f83e 4b3e 0efb 76bd 26dc 1fbd
00000210: 0b33 54bd c3e7 01be b42a c3bc 3292 10bc
00000220: 96fd 2bbd 649b 8c3e f38c 303d 5fe3 9b3d
00000230: 2f72 3ebe 9b43 86bd 74b4 88bd 046c 4b3d
00000240: 7567 57bd d97d 383e 4360 53bd 4084 153e
00000250: 2760 a4bd 297c 21be b861 5c3d afd9 0a3d
00000260: 0f03 d43b 316d 9d3e 4050 cc3d 448b 97bd
00000270: 4233 79be 3ee8 0f3c 128f 41bc 654c 5dbc
00000280: e66d 473d ffa1 333e 99c6 b23a a3d0 a03d
00000290: d23d f93d 6b60 d0bc ef91 2fbe 5cf1 8b3a
000002a0: bd1b 0fbe bb28 cf3d 0cc9 a3bc 447d aabd
000002b0: 45e7 b5bd d1db 123e 84f1 f73c fa74 78bd
000002c0: fb72 783d f366 aebc 92a9 6b3e 76df f4bb
000002d0: cd10 8b3d 2700 e43d 4e4f 033e 817b ee3d
000002e0: 7ff6 cd3d b3bd c6ba 8d1f 4f3e d65b 94bc
000002f0: f546 cebc 3333 493c 6965 773e 50a7 4abd
00000300: 0f65 d4bc 0242 843e db4b 90bd b79b 04bc
00000310: 5702 8a3d a8c2 b03c 98e2 b13a a6e2 193d
00000320: 9c42 27bd 1ba9 803e 9fc5 bb3c 223d 5a3d
00000330: 1f57 8d3d 51f9 7a3c df62 f23d eaf6 7a3c
00000340: ba86 14bd ea4e a83d c51b e33d e729 7dbc
00000350: d454 1f3e e698 1bbd f9b3 7b3d fc72 353c
00000360: a7e2 36bd fa03 d0bc 2aad ee3d 899d 9b3e
00000370: e698 6a3d 29dc 3c3e 5552 903e 833c 203d
00000380: 3e50 0e3c 8bee 913c 9d09 9c3d 38f2 753e
00000390: 50c5 603d 3184 e8bd d081 80bc 42b8 a4ba
000003a0: e3f6 c5bc 014b 553d ed85 24bb 1287 24be
000003b0: 5154 9d3c cc36 973c 5cdc 273e 05ff 40be
000003c0: fee1 703a 96e4 8cbc 6c60 52be d82b 18be
000003d0: ef08 273c 391b 15be 345d e13c 170a 10be
000003e0: 3847 c5bc 5c47 df3c 45c4 1b3d 9a6d afbc
000003f0: 5cdc 533c 36c6 c93c fc1f 04bd 981a 02bd
0.0403546 0.27224573 -0.057788588 0.189824 0.010084733 -0.029214729 -0.2781249 -0.14169972
0.027970402 0.03689737 0.11026283 0.017488996 0.02112945 -0.04609364 0.141388 0.055409595
-0.00093777676 0.04267974 -0.023555184 -0.0077970275 0.0717962 0.030506011 -0.009868651 0.031166257
0.024355184 0.22677808 0.022414364 -0.04278631 0.19412284 -0.026607223 0.24638359 0.030774314
-0.20407413 0.0460249 0.16154617 -0.11342312 0.022272812 -0.044410862 0.027727129 0.12963784
-0.024873974 0.27368972 0.033487134 0.16371451 -0.07344363 -0.056419834 -0.008517686 0.073464155
0.077288665 -0.031975213 0.0026598042 -0.054846812 0.0011030855 0.24700153 0.06550026 0.033793613
0.14114188 0.20860884 0.13275975 0.06643082 -0.046207797 0.12481679 0.09524546 0.057471987
0.035727885 -0.11629271 -0.022874225 -0.039763164 0.16710256 0.0282176 -0.08875264 0.2892177
0.13737237 -0.009812792 0.13551636 -0.005232012 0.11992904 -0.02231358 -0.034197923 0.17864113
0.08421525 -0.13399419 -0.033689033 -0.017175628 -0.19180495 0.045691274 0.07847893 -0.010259979
0.031465307 0.04489438 0.25543493 0.28482932 -0.01314379 0.13428797 0.12846331 -0.04967777
-0.0023787988 0.0047726287 0.00415859 -0.13762727 -0.041925047 0.25589204 -0.31665355 -0.06111055
0.032059524 -0.019109707 -0.18463345 0.25185835 -0.0044461438 -0.0096018175 -0.04800401 -0.028143335
-0.06288538 0.11349802 0.023894096 0.2151133 -0.07623716 0.30519107 0.08804693 0.0014075201
0.029350976 0.30427378 -0.01797227 -0.024384756 0.048931867 -0.12029899 0.077428244 0.04713165
0.20293416 0.1984824 -0.06029802 -0.03902831 -0.05180649 -0.12686066 -0.023824073 -0.008823918
-0.041989885 0.27462304 0.04310317 0.07611727 -0.18598245 -0.065558635 -0.06675044 0.04966356
-0.0525889 0.18016757 -0.051605474 0.1460123 -0.08026152 -0.1577002 0.05380413 0.033899006
0.006470091 0.3074737 0.09976244 -0.0739961 -0.2433596 0.008783398 -0.011813896 -0.013506983
0.04868879 0.17542265 0.0013639509 0.07852294 0.121699944 -0.0254366 -0.17145513 0.0010676789
-0.13975425 0.101151906 -0.019993328 -0.08324674 -0.08882002 0.14341666 0.03026653 -0.060658433
0.06065653 -0.021289324 0.23013905 -0.0074729277 0.06790314 0.111328416 0.12823221 0.1164465
0.10056781 -0.0015162736 0.2022688 -0.018110197 -0.02518032 0.012280273 0.24159779 -0.049475968
-0.025927095 0.2583161 -0.07045718 -0.008093766 0.067387275 0.021577194 0.0013571559 0.037569664
-0.040835008 0.25129017 0.022921382 0.053280957 0.06901383 0.015318231 0.118352644 0.015317658
-0.036261298 0.08218177 0.11089281 -0.015451885 0.15559703 -0.037987612 0.061450932 0.011074778
-0.044649746 -0.025392521 0.11654122 0.30393627 0.05727472 0.1844336 0.28187814 0.03912021
0.008686123 0.017813941 0.07619021 0.2401818 0.054875672 -0.113533385 -0.0156869 -0.001256712
-0.024165576 0.052073482 -0.002510424 -0.1606715 0.019205244 0.018458746 0.16392654 -0.18847282
0.0009188949 -0.017198842 -0.20544595 -0.14860475 0.010195001 -0.14561166 0.027510263 -0.14066349
-0.024081811 0.027255706 0.038028974 -0.021414567 0.012930956 0.024630647 -0.032257065 -0.031763643

actor.weight f4 [3, 256]
00000000: 3725 0d3e d3ae 51bd cc33 88bb 16be 05bc
00000010: 3870 58be 8df1 abbd 92cf 26bd 019d 6dbc
00000020: 696d 0c3d 6daa 8b3d ba8d 743e 102f 89bc
00000030: 16bd 093e 4dbf 9fbb 3f46 293e f0e6 5abc
00000040: 0bdd 183e 60e1 123d a5a2 233c ea8d 9b3d
00000050: d94d 023e fcec 8a3d 15a0 43be a359 d9bc
00000060: 2974 a0bb 4312 423d 3c05 d63c ea0e 943c
00000070: bc23 39be b8c6 3b3c e7cb 6cbe 5fdc afbb
00000080: 1ab9 8f3d b5e2 843a 4bd2 b93e f1fe 9bba
00000090: 84be 053e d48b 62bd b6c2 39be 1908 74bd
000000a0: 7a57 333d 7e50 b73d 2090 f83b 5a26 913d
000000b0: 5d90 713a e0e6 05bc 0287 c13d bae1 5b3e
000000c0: 446c ea3d a150 423c 1465 dcbd febb 9cbd
000000d0: 8008 023d edd0 783e e051 9c3e 8f00 be3d
000000e0: 7cd1 333d 77a6 af3e 9ab4 653e 9957 8cbc
000000f0: 42d1 87ba cbe1 383e dd2e f3bd 4c42 99bd
00000100: e732 e6be a323 ad3a db6f 3a3d c904 e3bb
00000110: 5947 5f3e 4ac1 a7bb e503 aa3d 1c0f 893e
00000120: 307e 7b3d 4921 27be 0e4d 9cbe 74f6 2e3d
00000130: 2d88 35bd ddc2 773b 90ab ab3c bb80 463e
00000140: f5f7 9f3d ee85 a93b 9a70 04bd ea19 373d
00000150: b70c b93b 4772 5d3e 4572 0f3e 1045 4c3d
00000160: ab85 22bd 52ec 5e3e a13f 86bd 6948 183e
00000170: 1a42 b73c aa4c 6f3d 6f33 df3d 698d 3a3c
00000180: 980f f63c e4a7 8fbc 3eec 483d b039 953d
00000190: 02bc bb3d a5ec 973d ccd3 85bc dd50 693d
000001a0: f456 c2bd 787f 183d 19e7 40bd 19d2 97be
000001b0: 01ff 90be c39b cabb 8fe5 b83d 3dfe 513d
000001c0: 1b37 c63d 3dab 823d 73ba 553e b76f 2ebd
000001d0: e89a fd3d 51ea 203d daf3 0d3e af6e 09be
000001e0: 65b0 183d 3975 b73d 5dc7 cf3c efc2 4abc
000001f0: d123 6e3d 20af 8abc 65c9 b5bd 0e3e 2f3d
00000200: 04f2 d5bc 761c e13d 11f2 febb b792 383d
00000210: fa70 5ebd 551a ea3c 029d 093d 74e1 f9bc
00000220: 1968 333e 7526 13bf ecbf f5bd ee83 babc
00000230: b0c7 bd3d 8bf9 1dbd 8f7d 9cbc 89d9 dc3d
00000240: 1bc6 123c 3ed0 9a3e cee5 df3c 56bf 653e
00000250: bfdf b73c 8e1e 943c b9f3 a33a f732 943b
00000260: 89eb 9b3d 7a67 f9bd 8d50 d4bd 7070 953d
00000270: 2b22 423d 2263 bebc 3cae 633c 5f2d 983b
00000280: 2790 bb3c d72f a13d db9f 2cbd 8c71 4d3d
00000290: 973c dc3d f30c 913d e41d 74bd 5d54 973c
000002a0: 7bcb f43d 22c0 fd3c 5e0e aa3d 433d 16ba
000002b0: a29a f93c eef3 cd3d 0b3c 85bc d008 fa3b
000002c0: 5c0c 9abd d63e fb3d 49df 7a3e 5cb2 24bd
000002d0: 84f8 323b 038d 1dbd ac67 2e3d c965 0d3e
000002e0: 6d0c acbc 2d85 e9bd 003c bbbd b5c8 573d
000002f0: 7331 773d d8b1 a43b d348 7a3e d06f f1bc
00000300: ce04 a73c 4cf4 003d 390f 123d 8b76 34bd
00000310: 9a40 e1bd abec 9dbb 38ac 5cbb 9802 d23c
00000320: 0775 cf3b 95f0 973c 1156 2b3e c781 b7bd
00000330: 2c47 47bd 7f95 8e3d e9c2 a23e dec8 67bd
00000340: 18be aa3d f1cb 5b3d 3e96 f43d 0c07 e23d
00000350: e69c 24ba 15a5 e83d eed1 3fbd d35f ecbc
00000360: 6b0f 013d 454c acbc cff0 8d3e 05a2 f1be
00000370: 26c8 5a3e c6ea 6dbe 7d66 8b3d 1ca2 03bd
00000380: 31c6 233e 112e e2bd 4ade b53d d6d9 093d
00000390: d13f 8bbd 1de6 a43d 59df 043e 573d 06be
000003a0: a819 f53d efcd 97bc 0610 84bd 2d19 363c
000003b0: 920f a3bb aae9 c73c b547 a9be a4bb 0b3e
000003c0: ea5f 483d f8d8 5cbd 6706 813d 7a1e 83bc
000003d0: 02ad dcbc 0872 583e 5dde fb3b 3be5 a73d
000003e0: 12d7 c0bd 88a0 413e 437b c6bd e094 a3be
000003f0: 491d 95bd 985c 123e d059 2c3d 5b9b 173c
0.13783728 -0.051192116 -0.0041565653 -0.008162996 -0.21136558 -0.083956815 -0.0407253 -0.014502765
0.03428403 0.068196155 0.2388219 -0.016746074 0.13451037 -0.0048750998 0.16530703 -0.013360724
0.14928071 0.035859466 0.009987508 0.07595427 0.12725009 0.067834824 -0.19104035 -0.026532
-0.00489666 0.047380697 0.026125543 0.018073518 -0.18080038 0.011460952 -0.23124658 -0.0053668465
0.07017727 0.0010138365 0.36293253 -0.001190154 0.13060957 -0.05530913 -0.18140683 -0.059578035
0.043784596 0.089508995 0.0075855404 0.07087393 0.0009214932 -0.008172721 0.09449579 0.21472827
0.11446431 0.011860044 -0.107614666 -0.07653044 0.031746387 0.24298449 0.30531216 0.0927745
0.04390095 0.3430669 0.22432175 -0.017131614 -0.0010362046 0.18054883 -0.11874173 -0.07483348
-0.4496071 0.0013209473 0.04551683 -0.0069280607 0.2180456 -0.0051194774 0.08301524 0.2676934
0.06139964 -0.16321291 -0.30527538 0.042715505 -0.04431932 0.0037805357 0.02095583 0.19385044
0.07810966 0.0051734364 -0.032333948 0.044702448 0.0056472677 0.21625625 0.14008434 0.04987055
-0.039678257 0.21769837 -0.06555105 0.14871372 0.022370387 0.058422722 0.10898482 0.011386254
0.030036733 -0.017536111 0.049053423 0.07286394 0.09166719 0.07418183 -0.016336344 0.056961883
-0.09489241 0.03723094 -0.047095392 -0.2965248 -0.28319553 -0.006183119 0.0902816 0.05126785
0.09678479 0.06380317 0.20871906 -0.04258701 0.12383062 0.03928596 0.13862553 -0.13421129
0.037277598 0.08957905 0.025363619 -0.012375577 0.058139626 -0.01692921 -0.088763036 0.04278379
-0.026116379 0.109917566 -0.0077803214 0.045061793 -0.05430696 0.02857701 0.033597 -0.030503012
0.17520179 -0.57480556 -0.11999497 -0.022767987 0.09266603 -0.03856806 -0.01910284 0.10783679
0.008958365 0.30237 0.02733126 0.2243627 0.022445558 0.018080976 0.0012508548 0.004522677
0.07613284 -0.1217794 -0.10366926 0.072968364 0.047395866 -0.02324063 0.013896521 0.0046440805
0.022895886 0.07870453 -0.042144638 0.050157115 0.10753744 0.07082548 -0.05959882 0.018472845
0.11952873 0.030975405 0.083035216 -0.00057311746 0.030469242 0.100562915 -0.016263982 0.007630445
-0.075218886 0.122678444 0.24499239 -0.04020916 0.0027308771 -0.038464557 0.042579338 0.13808359
-0.021002019 -0.114023544 -0.091423035 0.052681644 0.060349893 0.0050260834 0.24441843 -0.029472262
0.020388033 0.03148298 0.03565905 -0.044058364 -0.1099865 -0.004819473 -0.0033671986 0.025636002
0.0063310894 0.018547336 0.1673205 -0.089603 -0.04865186 0.06962108 0.3178933 -0.056588046
0.08337039 0.05366129 0.11942719 0.110365 -0.0006279483 0.11359612 -0.046831064 -0.028854286
0.031508844 -0.021032462 0.27722785 -0.47193924 0.21365413 -0.2323409 0.068066575 -0.03213702
0.15993573 -0.11043943 0.08880289 0.03365501 -0.067992814 0.08051703 0.12975825 -0.13109337
0.11967784 -0.018530814 -0.06448369 0.011114401 -0.0049762214 0.024403412 -0.3306252 0.13645798
0.048919596 -0.053917855 0.06300049 -0.016005743 -0.026937965 0.2113725 0.00768642 0.08198019
-0.094160214 0.18908894 -0.09691479 -0.3194952 -0.07280976 0.14293134 0.04207784 0.009253348

actor.bias f4 [3]
00000000: 840b 403d cd27 783a 9f29 a13c
0.046885982 0.000946638 0.019673167

critic.weight f4 [1, 256]
00000000: 2e25 a6bd 3322 d33d 29c6 96be f96e a93d
00000010: 4d77 d73b fa30 abbc 6f68 a93c dd58 23bf
00000020: 1127 2a3d 616a f9be ca54 9dbe 5b01 d43c
00000030: 08a3 57bb 9f0d 10bf e15e e73d 3f82 893a
00000040: 136a 6bbe 9abd e9be 3a77 d0ba b0ed 19bd
00000050: 34df ccbe fd19 d6bd 9980 ea3e 11fa 113d
00000060: 1cb3 df3b c5aa 8f3e 0743 153d 525d 823e
00000070: 531e 523e eec7 123d ce5f 203e d4d6 583d
00000080: c31b a03b edc3 933d 6e6b 7ebe 4223 eabe
00000090: f623 1d3d 050b 22bf 2639 97be abad 6e3d
000000a0: 1ff4 0f3d 5ea8 303e 0bc1 a93c 539e 4e3d
000000b0: cef3 a63c 39c2 91bc f3f0 25be d796 e93e
000000c0: 74bb e0bd e7c0 bbbc e5f8 a1be 00c5 cd3c
000000d0: 2fd8 1c3d 01a6 533e 6a1a eabd 25fe 073b
000000e0: 73a2 ddbd e7cf 353e 299f 85bd 8965 00bd
000000f0: 4b57 d2bd 745b 11bd bcc5 28bb 9422 a83d
00000100: 0aa2 d03e 7942 31bf 59f8 06bf 885e cbbe
00000110: 5c5e a0be 135f 403d 3922 1fbf b4ca 373e
00000120: 87de cabd 6f99 0b3e 350c a1bd 5623 913b
00000130: 12ab 13be 77a5 1b3d 2c5e 2e3d a700 a33e
00000140: 8315 9bbd c43f 873d b89a 533d 185a 1d3d
00000150: 8df0 833d f954 68be 58c6 edbc 6749 293d
00000160: ae48 1b3d 15b6 07bd 54d3 093e 3b33 b93d
00000170: 7225 cb3c bc1c 30be d07f 01be 7be7 e5bb
00000180: 8fd6 163d 329f b93c 8406 5b3d 69af 1fbf
00000190: b02d 51bd 86c7 173e 87db a5bb 36df 643d
000001a0: 5da6 1e3c 9f8d 483c 025b 18bb 735c 773e
000001b0: 93ef ae3e 0684 1a3d 3e2d 9fbe 8d33 433d
000001c0: 6622 8f3c 1c07 b83d 44b9 95bd c6b8 823d
000001d0: 9e5c 603e 272e 6b3e dcb9 25be 6fee 8e3d
000001e0: 1ef0 acbd f2fc 253e 7e9e 3e3d 8729 84bc
000001f0: a139 4c3d 3819 3bbf fef5 083d 66aa 52bd
00000200: b9bd 3f3e e2db 92be cb54 07bf 58d0 a639
00000210: b5bc 103d 4b26 603d d9d5 dd3c aa21 ee3b
00000220: f1c2 92be 606a 0b3f 8281 143c fc75 a4bd
00000230: ddf6 793d 10d2 823d d855 0abf c3e5 733c
00000240: c70c 273d 7fd6 07be 9767 183d 9768 0dbe
00000250: 7412 d73b becb 33bf fb66 e0bd 5096 28bc
00000260: 4730 10be 71b2 543e 7efc 143d 2238 bbbe
00000270: 133c bc3d 3bf8 c03c bd37 1a3d 4066 94bc
00000280: e330 b8bc 052c e03d 1d6c e1bb 8e24 c03d
00000290: ed20 47be c9be 42bf 4820 b73d 60fd 4f3d
000002a0: f56c 433d 16cd 043c 42bb efbe fad5 5bbc
000002b0: ff8c 10bf f83b 68be f445 7a3b 5734 983b
000002c0: 573c 27bd 2b89 b4bb 2c5a 933e 74b3 cbbc
000002d0: 5221 e1bb 8b96 8ebd 0e7d 983d 1ed7 72be
000002e0: 1e16 683d 8485 75bb 49c0 943e e74e f33b
000002f0: 0d22 003d 5a63 dc3b 5081 5e3e c8cd 433d
00000300: 35ea 4f3d 37de 653e a140 2abf cf0b 73be
00000310: fa18 d2bd 43e9 44bc d41d 303c d3dd 303d
00000320: 0788 b93c f403 e63d eea8 9dbd 1301 02bd
00000330: 5a3a cfbc ed08 05bf a94f f8bd 546f 2ebe
00000340: 20e3 0fbf b4b7 e7bd 9175 8cbd 9acf 1bba
00000350: caaa c13d a326 1abd 3ec5 1ebd f666 b13d
00000360: d6f7 d5bc d454 e9be a536 e3bd 066a e03e
00000370: 4cfd a2ba 84e9 093e c24b 7d3e 85aa 763c
00000380: fd12 a13c afcc 9fbd 064b a03d 2c72 043e
00000390: ce35 21bc ee02 31bf 878c 2fbb 55d1 0f3b
000003a0: 4227 e0be 75fc bdbe ae59 913e f09d b0bd
000003b0: 50c7 d83c 6dfa 8f3c 47f1 163e 5b07 d23c
000003c0: 06f2 5c3d b0a8 44be cb2c 0d3d 25d5 d03d
000003d0: 7ab2 f83c 2e93 b23b 3f30 fe3b 5616 41bf
000003e0: 074d dcbb 721e c63b ab68 3e3b b28d 8e3e
000003f0: 73ed 06bd 757d 653b 1759 11bf 327f 213d
-0.0811256 0.10309257 -0.2944806 0.082731195 0.006575501 -0.020897377 0.02067968 -0.6380747
0.041541163 -0.48713973 -0.3072875 0.025879553 -0.003290357 -0.56270784 0.112973936 0.0010491087
-0.22989683 -0.45652467 -0.0015904673 -0.037580192 -0.4001404 -0.104541756 0.45801237 0.035638873
0.0068267714 0.28059974 0.036440875 0.25461823 0.2051938 0.0358352 0.15661547 0.05293925
0.004886122 0.07215104 -0.24845669 -0.45730025 0.038364373 -0.63298064 -0.29535788 0.05827109
0.03514492 0.17251727 0.020721933 0.05044396 0.020379927 -0.017792808 -0.16205196 0.45622894
-0.10973254 -0.022919131 -0.31635204 0.025118351 0.038292106 0.20668794 -0.11430819 0.0020750847
-0.10822 0.1775509 -0.06524498 -0.03134683 -0.10270556 -0.035487607 -0.0025752624 0.0820972
0.40748626 -0.69242054 -0.527227 -0.3972056 -0.3132199 0.04696567 -0.62161595 0.17948419
-0.09905725 0.13632749 -0.078636564 0.004429261 -0.14420727 0.037999596 0.042570278 0.31836435
-0.075724624 0.06603959 0.051661223 0.038416 0.06442366 -0.22688664 -0.029025242 0.041329768
0.03791111 -0.03313263 0.13459522 0.090429746 0.024798129 -0.17198461 -0.12646413 -0.00701612
0.036825713 0.022658918 0.05347301 -0.6237703 -0.05106896 0.14822206 -0.00506157 0.055876933
0.009683219 0.012240796 -0.0023247604 0.2415636 0.34167156 0.037723564 -0.31089205 0.047656585
0.017472457 0.08985731 -0.07310727 0.06382899 0.2191033 0.22966824 -0.16184181 0.06979071
-0.08444236 0.16209772 0.04653787 -0.016133083 0.049859647 -0.73085356 0.03343772 -0.051432036
0.18724717 -0.28683382 -0.5286376 0.00031817215 0.035336215 0.05472402 0.02707951 0.0072671967
-0.28664353 0.5445919 0.00906408 -0.08030316 0.061026443 0.063877225 -0.5403724 0.014886322
0.04078367 -0.13265418 0.037208166 -0.13809429 0.006563479 -0.7023276 -0.10957142 -0.010289744
-0.14080916 0.20771195 0.036373608 -0.36566263 0.09191146 0.023555866 0.037650812 -0.018115163
-0.022484249 0.10945896 -0.006879343 0.09381972 -0.19446154 -0.76072365 0.08941704 0.050778747
0.04771133 0.008105537 -0.46822554 -0.013417715 -0.5646514 -0.22679126 0.0038188668 0.0046449113
-0.04082903 -0.0055095158 0.28779733 -0.024865843 -0.006870427 -0.069623075 0.07445727 -0.23714873
0.056661718 -0.0037463615 0.29052952 0.0074251774 0.031282473 0.006725711 0.21729016 0.04780367
0.050760467 0.2244805 -0.66504866 -0.23734973 -0.1025867 -0.012018505 0.010749299 0.043180298
0.02264787 0.11231223 -0.076982364 -0.031739306 -0.025296379 -0.51966745 -0.12124569 -0.17034656
-0.5620594 -0.113143355 -0.068583615 -0.0005943716 0.094564036 -0.037634503 -0.038762324 0.08662216
-0.026119154 -0.4557253 -0.11094407 0.4383089 -0.0012435107 0.13467985 0.2473593 0.015055303
0.019662375 -0.07802712 0.078268096 0.12934178 -0.009839488 -0.69145095 -0.0026786642 0.002194484
-0.4377995 -0.37106672 0.28388733 -0.08623874 0.026462227 0.017575467 0.14740478 0.025638273
0.05394175 -0.19204974 0.034466546 0.10196904 0.030358542 0.005449674 0.007757216 -0.75424707
-0.0067230496 0.00604611 0.0029054086 0.2784248 -0.032941293 0.0035017405 -0.56776565 0.039427944
