Experimenten/Experiment1Snake/PPO/ppo_snake_5900.pth (torch, 280852 bytes, 7 tensors)

shared.0.weight f4 [256, 9]
0.15583949 -0.061170362 0.33594227 -0.3127348 0.022693153 0.030312747 0.6475755 0.5421503
-0.07412291 -0.49626806 0.26357818 0.16946504 -0.34457457 -0.004811092 -0.24907142 0.35701728
-0.2488438 -0.24050072 -0.10322744 0.063281685 0.3946363 -0.14717454 0.021201741 -0.23703943
-0.0740366 0.14137802 -0.5224887 -0.3474868 -0.12924504 0.22836795 -0.4911902 -0.21114007
0.25039637 0.26093605 0.30687958 0.3069509 -0.23897456 -0.11155565 -0.42142603 -0.30964854
-0.29833668 -0.18431456 -0.2055978 -0.36850363 0.25683677 0.36681896 0.19800146 0.28869706
-0.40309182 -0.035702355 -0.040140655 -0.06885422 0.49982235 0.17336537 -0.15366617 -0.3286924
0.34305495 0.3570331 0.0014624516 0.08295521 0.15108575 0.3017352 0.58736515 0.12704346
-0.039354414 -0.06475871 0.06306575 0.0025927369 -0.001936088 -0.6396994 0.26036975 -0.7034734
-0.4153432 -0.3790692 0.34761685 0.005498546 -0.04754987 -0.019942362 0.17656024 0.30584335
-0.56614614 -0.035433866 0.016864877 0.48812944 -0.11521432 0.059637144 -0.095767014 -0.15156704
0.36434853 -0.6099435 -0.32843715 0.19186257 0.23290044 -0.4917783 -0.17012504 -0.06525334
0.11593172 0.24195002 0.81063807 0.196082 -0.11203678 -0.3130139 -0.29094866 -0.044205572
-0.07475862 -0.043762367 0.06693575 1.0482273 -0.030637493 0.2826998 -0.021529783 0.2739154
0.0616201 -0.025174525 0.3712904 -0.23881362 0.63333184 0.40798002 -0.09197917 -0.35068014
0.001883887 0.24842058 0.18279745 0.18813549 0.11917202 -0.18569559 -0.38206962 -0.29864678
0.5418422 -0.3489943 0.07578615 -0.21633214 -0.049321346 0.20505372 -0.35230038 -0.31425643
-0.31146735 0.2568961 0.129422 0.058731787 -0.10138034 0.48160422 -0.0084351115 0.35745436
-0.32768926 -0.16861413 0.4085112 0.05277521 -0.059745025 -0.08935279 0.7551657 0.2493107
-0.26437068 0.19181253 0.074651785 0.22475387 0.13031757 0.05729684 0.09423143 0.6162797
0.5539059 0.51872516 0.17913039 0.52932066 0.025914462 -0.38459614 0.2130137 -0.10702662
0.6382148 0.084013715 -0.003995391 -0.24556598 0.08502982 0.20367263 0.46539307 0.17806326
0.06298572 0.03990134 0.2221254 0.2585407 0.030909702 -0.030272743 -0.080784686 -0.34675443
-0.15126958 -0.053717483 -0.4521372 0.20283596 -0.014516808 0.11999147 0.2645841 0.39067742
0.06494775 -0.08841774 -0.04434389 -0.12759197 -0.11672612 0.08120736 -0.29068422 0.015280942
0.3896447 0.25406137 -0.10971506 -0.122456715 0.6497648 0.5782656 0.15925403 -0.36348957
-0.124325395 0.47647214 -0.055411685 0.12917288 0.20036085 0.056975193 -0.32917818 -0.12164776
-0.46359637 0.104674995 0.30261028 0.014244526 -0.055856377 -0.16907814 0.76749015 0.6416613
0.11548736 -0.08377178 0.29879537 0.4337965 -0.13914791 0.18040298 -0.09921749 0.5203982
0.45089313 -0.3912325 0.023586411 0.1416017 -0.03629734 -0.4686155 0.08416539 -0.018344427
0.7305097 0.30122617 0.27136144 -0.56170857 -0.11827915 0.37808967 -0.47487503 0.14897366
0.11480767 -0.07764496 0.14418085 -0.24316911 -0.1950253 0.28103638 0.12439144 0.33814994
00000000: 6394 1f3e c68d 7abd a000 ac3e c71e a0be
00000010: fee6 b93c 7052 f83c 82c7 253f 5dca 0a3f
00000020: c1cd 97bd d916 febe b8f3 863e 3e88 2d3e
00000030: 146c b0be 5da6 9dbb 940c 7fbe f8ca b63e
00000040: e9d0 7ebe d245 76be e868 d3bd d499 813d
00000050: c50d ca3e ecb4 16be 46af ad3c 77ba 72be
00000060: 80a0 97bd 66c5 103e d2c1 05bf cae9 b1be
00000070: d058 04be 4ad9 693e 487d fbbe 1a35 58be
00000080: f433 803e 6999 853e 521f 9d3e ab28 9d3e
00000090: bfb5 74be 4a77 e4bd 27c5 d7be 418a 9ebe
000000a0: 96bf 98be f5bc 3cbe 3b88 52be 82ac bcbe
000000b0: 1c80 833e b2cf bb3e e5c0 4a3e 1ad0 933e
000000c0: 0d62 cebe a23c 12bd 876a 24bd 7103 8dbd
000000d0: b7e8 ff3e b186 313e aa5a 1dbe 5f4a a8be
000000e0: e6a4 af3e 0bcd b63e bcaf bf3a 6ce4 a93d
000000f0: 39b6 1a3e 097d 9a3e 905d 163f ae17 023e
00000100: 1832 21bd 37a0 84bd 9e28 813d e8ea 293b
00000110: 55c4 fdba 57c3 23bf 2f4f 853e d516 34bf
00000120: dda7 d4be 5c15 c2be d6fa b13e 262d b43b
00000130: a7c3 42bd 2a5e a3bc 35cc 343e 8097 9c3e
00000140: f4ee 10bf 1a23 11bd 3628 8a3c 1aec f93e
00000150: 7cf5 ebbd 1446 743d 7f21 c4bd 6434 1bbe
00000160: e48b ba3e 4225 1cbf ea28 a8be 9f77 443e
00000170: 747d 6e3e 5eca fbbe 4235 2ebe 8ba3 85bd
00000180: 9c6d ed3d bfc1 773e fa85 4f3f b8c9 483e
00000190: 8a73 e5bd 5c43 a0be 39f7 94be e710 35bd
000001a0: 0c1b 99bd 2b40 33bd 9c15 893d 502c 863f
000001b0: 7bfb fabc 07be 903e 3a5f b0bc a43e 8c3e
000001c0: 5c65 7c3d ce3a cebc c619 be3e 8f8b 74be
000001d0: 0922 223f c2e2 d03e 935f bcbd 598c b3be
000001e0: c2ec f63a f761 7e3e 412f 3b3e 97a6 403e
000001f0: 7610 f43d fc26 3ebe a19e c3be 3be8 98be
00000200: 2cb6 0a3f 62af b2be c535 9b3d 2c86 5dbe
00000210: 2e05 4abd 9af9 513e b760 b4be 38e6 a0be
00000220: a678 9fbe e387 833e 3387 043e be90 703d
00000230: 7fa0 cfbd d494 f63e 6c33 0abc 4204 b73e
00000240: e3c6 a7be 2fa9 2cbe 6128 d13e d22a 583d
00000250: 33b7 74bd 98fe b6bd 8a52 413f 4e4b 7f3e
00000260: 985b 87be 816a 443e 09e3 983d e125 663e
00000270: f871 053e 17b0 6a3d 68fc c03d 82c4 1d3f
00000280: c7cc 0d3f 2ccb 043f f56d 373e 8f81 073f
00000290: 914a d43c c9e9 c4be 4320 5a3e c630 dbbd
000002a0: 0c62 233f 620f ac3d c5eb 82bb a675 7bbe
000002b0: 1d24 ae3d 8f8f 503e 0048 ee3e 3756 363e
000002c0: a8fe 803d 966f 233d d774 633e 725f 843e
000002d0: 5836 fd3c 8bfe f7bc 7172 a5bd cc89 b1be
000002e0: 6ae6 1abe dd06 5cbd 877e e7be 3bb4 4f3e
000002f0: e8d7 6dbc 16be f53d 9177 873e df06 c83e
00000300: 5303 853d 5c14 b5bd f0a1 35bd 78a7 02be
00000310: 1b0e efbd 0b50 a63d 90d4 94be eb5c 7a3c
00000320: 837f c73e 5514 823e 4ab2 e0bd 96ca fabd
00000330: fc56 263f 3709 143f 7d13 233e 4e1b babe
00000340: 509e febd 28f4 f33e 5df7 62bd e545 043e
00000350: 652b 4d3e d25e 693d 0b8a a8be 7622 f9bd
00000360: 815c edbe d85f d63d bcef 9a3e df61 693c
00000370: a8c9 64bd d222 2dbe 3c7a 443f ea43 243f
00000380: a384 ec3d 8a90 abbd b5fb 983e 931a de3e
00000390: ca7c 0ebe 8fbb 383e 8a32 cbbd d138 053f
000003a0: 77db e63e a04f c8be 4a38 c13c 0900 113e
000003b0: 85ac 14bd 5fee efbe e75e ac3d 0d47 96bc
000003c0: af02 3b3f 513a 9a3e e3ef 8a3e 22cc 0fbf
000003d0: 573c f2bd f894 c13e d222 f3be 8d8c 183e
000003e0: 4920 eb3d 5204 9fbd 25a4 133e 5301 79be
000003f0: b6b4 47be 00e4 8f3e f0c0 fe3d fd21 ad3e

shared.0.bias f4 [256]
0.07981212 -0.20111449 -0.2820158 -0.2865908 -0.11345512 0.10842861 0.14126804 0.30377144
0.1070433 -0.3906194 -0.042224202 0.14796485 0.47720823 0.0036029953 -0.19405459 -0.44168574
0.04577419 -0.087594524 0.11504552 0.18284494 -0.44035864 0.48729607 -0.13284437 -0.26860294
-0.122734286 0.33055606 -0.034927137 -0.09127363 0.48354092 -0.091872804 -0.23446277 -0.3686492
0.2838756 0.112271816 0.1699475 -0.1996318 0.42353842 0.006772464 -0.3440793 -0.05605828
0.4290561 -0.17916659 0.4320574 -0.24342951 0.5491031 0.022336135 -0.04345941 -0.022869235
-0.1811031 -0.21789998 -0.05172367 -0.048182167 0.099429406 0.15440428 0.09900212 -0.24553244
0.3714211 0.16751501 -0.077371456 0.32106373 0.58784664 -0.16982321 0.58784264 0.2532193
-0.08676737 0.13575448 0.302317 0.34473616 0.43690273 0.1891558 0.32334623 0.27703172
0.11331687 -0.38980404 0.031456146 0.14868757 0.009598233 -0.24095859 0.23830079 -0.17255843
-0.359589 0.49057204 0.07281263 -0.302807 0.31570914 0.2038645 -0.084828235 -0.022497216
-0.10787661 0.0017779116 0.04330906 -0.0005044699 0.26974788 -0.021134403 0.43788022 0.00507527
0.11456579 0.100095965 -0.3002466 -0.15246989 0.11168593 -0.20800307 0.21340206 0.13669941
0.24568743 -0.02180162 0.4609204 -0.24459817 -0.019848268 -0.40464738 -0.27720907 -0.0038578797
-0.23024805 -0.17440645 0.010266609 0.20287435 0.50186914 -0.29366225 -0.12208875 -0.4976129
-0.50356984 -0.18300316 0.14746022 0.29418704 -0.28180373 -0.26004517 -0.3391565 0.38517496
0.17110513 -0.31702214 0.23498392 -0.07538334 -0.0016077827 -0.2418853 0.086549364 -0.32771808
-0.2722027 -0.09058996 -0.0019556237 -0.019795287 -0.17791212 -0.024163593 -0.06276245 0.39795938
0.54492223 -0.31088272 0.3108594 0.1608711 0.06665191 0.20251395 0.18345214 0.39536816
-0.21767846 -0.2312946 0.24029736 0.25333467 0.16814153 0.33592123 0.0041187624 0.42902535
-0.5062235 -0.31151694 0.22445981 0.4060048 -0.022454344 -0.23057358 0.48478493 -0.11715555
0.103331715 0.04678906 0.4627278 0.014987885 -0.21693979 -0.274211 0.36140037 0.38472262
0.24333818 -0.2692581 0.14491746 -0.14777125 -0.042852707 -0.17243305 -0.24031112 0.56561184
-0.08046361 -0.42527837 -0.11966925 0.118742414 -0.22041103 -0.09191935 -0.07474298 0.042723037
-0.11041909 -0.3714923 0.5609584 0.21607536 0.08707051 0.03528879 0.026207557 0.4550668
-0.13044672 -0.34118617 -0.026363697 -0.24895377 -0.13486399 -0.24049877 -0.15287594 -0.2571728
-0.30754286 0.010964844 -0.37041146 0.42504212 0.07880719 0.1333553 0.5590259 -0.18856138
0.021613173 0.027154837 -0.454672 -0.4520507 0.27403352 -0.09858117 -0.23571225 0.4390457
0.11099212 -0.17557114 -0.11080828 -0.24943058 -0.28798985 -0.035956703 0.5513397 0.37119073
0.6355926 -0.34741133 -0.2755657 0.48059827 -0.33890337 -0.12298749 -0.0856644 0.55041754
-0.13714875 0.007441309 0.122992575 0.0056103976 -0.21155226 0.024013296 0.027908582 -0.29022682
0.09230839 0.055151362 -0.090717785 0.4745628 -0.43445602 0.4147913 0.022935174 0.3767585
00000000: 8974 a33d f5f0 4dbe 6064 90be 08bc 92be
00000010: 285b e8bd d20f de3d 92a8 103e ee87 9b3e
00000020: 8539 db3d 44ff c7be 49f3 2cbd 1984 173e
00000030: a354 f43e 3b20 6c3b 3fb6 46be a224 e2be
00000040: b87d 3b3d c264 b3bd fc9c eb3d b43b 3b3e
00000050: b076 e1be df7e f93e 5b08 08be 5386 89be
00000060: 1d5c fbbd a53e a93e c20f 0fbd abed babd
00000070: ad92 f73e cf27 bcbd 0217 70be 97bf bcbe
00000080: 2558 913e c4ee e53d b806 2e3e 476c 4cbe
00000090: 07da d83e 8ceb dd3b 292b b0be 5e9d 65bd
000000a0: 3ead db3e 7277 37be a136 dd3e 9645 79be
000000b0: 0592 0c3f 45fa b63c 7f02 32bd 4358 bbbc
000000c0: 1773 39be 2c21 5fbe 33dc 53bd aa5a 45bd
000000d0: a5a1 cb3d 281c 1e3e a0c1 ca3d db6c 7bbe
000000e0: e82a be3e 0e89 2b3e ed74 9ebd 7762 a43e
000000f0: 1e7d 163f 23e6 2dbe db7c 163f f6a5 813e
00000100: 17b3 b1bd 3903 0b3e 4bc9 9a3e 4281 b03e
00000110: b7b1 df3e 0fb2 413e a38d a53e 1ad7 8d3e
00000120: ad12 e83d 6594 c7be 29d8 003d 8e41 183e
00000130: e841 1d3c d9bd 76be 1f05 743e 28b3 30be
00000140: 0d1c b8be 422c fb3e ca1e 953d 8509 9bbe
00000150: a1a4 a13e dbc1 503e 6dba adbd 154c b8bc
00000160: 69ee dcbd d008 e93a d764 313d 673e 04ba
00000170: 651c 8a3e 0e22 adbc d631 e03e 734e a63b
00000180: 78a1 ea3d 1dff cc3d ecb9 99be 1121 1cbe
00000190: 98bb e43d c2fe 54be 1286 5a3e eefa 0b3e
000001a0: 7c95 7b3e 5099 b2bc c2fd eb3e f177 7abe
000001b0: d698 a2bc f12d cfbe 59ee 8dbe 7bd4 7cbb
000001c0: 25c6 6bbe 9b97 32be 4735 283c 4bbe 4f3e
000001d0: 7f7a 003f e65a 96be ab09 fabd 1ec7 febe
000001e0: f4e9 00bf 2e65 3bbe d0ff 163e af9f 963e
000001f0: 9448 90be a424 85be eca5 adbe a735 c53e
00000200: 2f36 2f3e ba50 a2be a09f 703e 9562 9abd
00000210: 3cbc d2ba c8b0 77be cb40 b13d aaca a7be
00000220: 275e 8bbe 3b87 b9bd ec29 00bb ba29 a2bc
00000230: 982e 36be baf2 c5bc 9989 80bd 55c1 cb3e
00000240: 0680 0b3f 052c 9fbe f728 9f3e 65bb 243e
00000250: cc80 883d d15f 4f3e e1da 3b3e b26d ca3e
00000260: 1ae7 5ebe 7ed8 6cbe 8310 763e 15b5 813e
00000270: 4b2d 2c3e defd ab3e aff6 863b 36a9 db3e
00000280: dd97 01bf 267f 9fbe cbd8 653e dcdf cf3e
00000290: 2cf2 b7bc 7b1b 6cbe bb35 f83e 40ef efbd
000002a0: 949f d33d e3a5 3f3d a8ea ec3e bf8f 753c
000002b0: 7725 5ebe 6265 8cbe 7809 b93e 5dfa c43e
000002c0: a52d 793e 33dc 89be 3e65 143e 5951 17be
000002d0: 5286 2fbd 4a92 30be 1e14 76be f0cb 103f
000002e0: 1bca a4bd 16be d9be 2715 f5bd 392f f33d
000002f0: 6eb3 61be 3640 bcbd d912 99bd 5afe 2e3d
00000300: 6723 e2bd 3d34 bebe f89a 0f3f dc42 5d3e
00000310: 0652 b23d fa8a 103d 3bb1 d63c 84fe e83e
00000320: d393 05be f4af aebe aef8 d7bc bded 7ebe
00000330: c919 0abe 4f45 76be 838b 1cbe 27ac 83be
00000340: 4276 9dbe e4a5 333c 92a6 bdbe 1f9f d93e
00000350: aa65 a13d 4b8e 083e 521c 0f3f 3c16 41be
00000360: 1c0e b13c d273 de3c c5ca e8be 3073 e7be
00000370: 1f4e 8c3e ede4 c9bd 8d5e 71be 99ca e03e
00000380: d64f e33d ecc8 33be 74ef e2bd bb6a 7fbe
00000390: 6873 93be 5647 13bd 9924 0d3f b60c be3e
000003a0: 32b6 223f e6df b1be f316 8dbe fa10 f63e
000003b0: be84 adbe dde0 fbbd d170 afbd 2ae8 0c3f
000003c0: b970 0cbe 39d6 f33b 88e3 fb3d 6dd7 b73b
000003d0: 28a1 58be 88b7 c43c 8aa0 e43c 9c98 94be
000003e0: 2e0c bd3d 65e6 613d 3fca b9bd e5f9 f23e
000003f0: 0571 debe 865f d43e 8ce2 bb3c 7de6 c03e

shared.2.weight f4 [256, 256]
-0.056144465 -0.10288326 -0.10390239 -0.044204507 0.014966403 0.1751729 0.12403827 0.1296856
-0.14599551 -0.12482382 0.068772756 0.08268437 0.08776348 -0.016186232 -0.15585715 -0.014247648
-0.021767447 0.060644925 -0.0539173 -0.03905904 -0.19593824 0.054369636 0.05329864 -0.07894137
-0.036044285 -0.045381088 -0.056212567 -0.12548956 -0.008924271 -0.065492585 -0.20655619 -0.21056107
-0.06734706 0.012295202 -0.06531419 0.12168925 -0.0383523 0.035415422 -0.044264834 -0.21925987
0.05491525 0.0593408 0.0024675827 -0.05941462 0.14391465 -0.03106155 -0.058471665 0.05521414
0.07562553 0.07809351 -0.037932586 -0.05176532 0.013275637 -0.008915084 -0.04114582 -0.17320676
0.041437503 -0.017523035 0.020870065 0.050649054 0.0944488 0.019799791 0.027203416 -0.008953121
-0.13058124 0.026534704 0.023397485 0.0010546291 0.06890091 -0.11608443 0.1416338 0.03719129
-0.009670472 -0.08128979 -0.21635832 0.03637735 0.0011039989 -0.16308242 -0.046968523 -0.016518142
-0.11430957 0.04987271 0.08467804 -0.0053546615 0.063478604 0.070972905 0.05416952 0.06479002
0.0610214 -0.12179299 0.03351296 -0.054065913 -0.05131223 0.039847437 0.06916091 0.0063437144
0.046035986 0.010750338 -0.00922498 0.027507097 -0.018614836 0.15538782 -0.027784862 -0.038047787
0.0687405 -0.29847503 -0.07038221 -0.14854881 0.008356056 -0.03420161 -0.1832724 -0.112583406
0.0038062953 -0.015971377 0.08630594 -0.02019393 0.04794851 -0.1012682 -0.0039611002 -0.0032594558
-0.09856982 -0.12156003 -0.008223594 0.09036571 0.0692484 -0.20643198 -0.013731209 0.06581035
0.02867955 0.07211695 0.0201793 0.027293652 0.0023795587 -0.0982522 0.00066193764 0.011203086
0.043569688 0.08404181 0.05350626 0.019214306 0.032437544 -0.18289985 -0.08288343 -0.032356173
-0.05456667 -0.13198493 0.055797487 -0.044518236 0.036617406 0.061362043 -0.075841226 -0.080813
0.039426893 -0.17617983 -0.0175731 -0.04686318 0.06224866 -0.10184922 0.050814044 -0.04114701
-0.12108564 0.022498582 0.014270119 0.09430836 0.059187215 -0.13382734 -0.06690829 0.064164594
0.11019397 0.06898402 -0.062310778 -0.016779218 -0.23398893 -0.14271307 -0.07595979 0.15712406
0.02699268 0.05781408 -0.0024475567 -0.07548427 0.03817219 0.05937331 0.39900672 0.08317764
-0.08727205 -0.017524546 -0.0025528413 -0.050983265 0.03415343 -0.14761338 -0.03400429 0.14621732
-0.14234264 -0.17314202 -0.04731435 -0.03934932 0.06689493 -0.022973675 0.0111152 -0.046117887
-0.041130938 -0.05427123 -0.20725429 -0.050841693 -0.23347111 0.014175625 0.026741909 -0.07468624
-0.07768238 0.0281917 -0.104453094 -0.028596047 -0.02437662 -0.0014621803 -0.015627466 0.03117306
0.028555185 0.041092295 0.008400066 -0.13966686 0.056523073 0.03759427 0.062364433 -0.0033023283
0.046094876 0.040217206 -0.03812234 -0.12952134 -0.14494342 -0.017563965 0.044644605 -0.0440729
0.029960632 -0.13066511 -0.10028647 -0.024266213 -0.12977831 -0.31868047 0.042272557 -0.018794173
-0.21545316 0.020815467 0.087010145 -0.0069959434 0.08158034 0.0287941 -0.010337029 -0.013716839
0.027769132 0.053272385 -0.066494085 -0.03382578 -0.14578992 -0.115893856 0.06947545 0.040416174
00000000: bdf7 65bd 75b4 d2bd c7ca d4bd c90f 35bd
00000010: a535 753c 8660 333e c707 fe3d 4dcc 043e
00000020: d97f 15be a2a3 ffbd bbd8 8c3d 6c56 a93d
00000030: 57bd b33d fd98 84bc 0499 1fbe f86e 69bc
00000040: a551 b2bc d066 783d 63d8 5cbd 5ffc 1fbd
00000050: 09a4 48be b2b2 5e3d ad4f 5a3d 03ac a1bd
00000060: 2ca3 13bd 85e1 39bd 263f 66bd 5680 00be
00000070: 1b37 12bc fa20 86bd 7783 53be 529d 57be
00000080: 41ed 89bd d171 493c 72c3 85bd 3738 f93d
00000090: 4d17 1dbd c30f 113d 0b4f 35bd a985 60be
000000a0: d0ee 603d 570f 733d 2bb7 213b bf5c 73bd
000000b0: 5d5e 133e cb74 febc fc7f 6fbd 3928 623d
000000c0: 8fe1 9a3d 7def 9f3d 335f 1bbd df07 54bd
000000d0: 0f82 593c 9310 12bc 8588 28bd 1d5d 31be
000000e0: 5fba 293d 788c 8fbc b3f7 aa3c 6275 4f3d
000000f0: 5f6e c13d 2c33 a23c b3d9 de3c 1cb0 12bc
00000100: 17b7 05be 4f5f d93c 15ac bf3c 7b3b 8a3a
00000110: ec1b 8d3d acbd edbd 7308 113e e555 183d
00000120: e670 1ebc 437b a6bd 098d 5dbe 6b00 153d
00000130: 0eb4 903a 14ff 26be 1162 40bd 0e51 87bc
00000140: 231b eabd 5447 4c3d ae6b ad3d 2876 afbb
00000150: 1201 823d 3e5a 913d dce0 5d3d a1b0 843d
00000160: 93f1 793d 9a6e f9bd e344 093d 3874 5dbd
00000170: c62c 52bd 1137 233d 3ca4 8d3d efde cf3b
00000180: 3b90 3c3d 3022 303c 5f24 17bc 9056 e13c
00000190: 247e 98bc fc1d 1f3e 149d e3bc ffd7 1bbd
000001a0: d2c7 8c3d b8d1 98be 8c24 90bd 2e1d 18be
000001b0: d7e7 083c fd16 0cbd c3ab 3bbe 2192 e6bd
000001c0: 0a73 793b 68d6 82bc 2bc1 b03d be6d a5bc
000001d0: a865 443d b465 cfbd 1ecc 81bb 989c 55bb
000001e0: f9de c9bd 77f4 f8bd 41bc 06bc a811 b93d
000001f0: 1bd2 8d3d e862 53be ddf8 60bc 94c7 863d
00000200: 60f1 ea3c 0db2 933d 0f4f a53c f096 df3c
00000210: 5ff2 1b3b 7338 c9bd e285 2d3a 268d 373c
00000220: 2176 323d 1d1e ac3d 6129 5b3d 5267 9d3c
00000230: 3bdd 043d 194a 3bbe cabe a9bd e887 04bd
00000240: 4d81 5fbd 0f27 07be e88b 643d c158 36bd
00000250: 22fc 153d c456 7b3d a552 9bbd 4981 a5bd
00000260: 187e 213d 7c68 34be 76f5 8fbc 9bf3 3fbd
00000270: 73f8 7e3d 5396 d0bd 6322 503d c489 28bd
00000280: bffb f7bd f24e b83c 38cd 693c be24 c13d
00000290: 4b6e 723d 090a 09be 3707 89bd ba68 833d
000002a0: 60ad e13d 7e47 8d3d 9639 7fbd 9274 89bc
000002b0: cb9a 6fbe 6023 12be ce90 9bbd 21e5 203e
000002c0: c11f dd3c 75ce 6c3d 3067 20bb 7f97 9abd
000002d0: 715a 1c3d 6e31 733d 9c4a cc3e 0a59 aa3d
000002e0: b0bb b2bd a38f 8fbc 924d 27bb d4d3 50bd
000002f0: 78e4 0b3d f627 17be 1548 0bbd feb9 153e
00000300: 45c2 11be 244c 31be b1cc 41bd c12c 21bd
00000310: 3600 893d 4a33 bcbc 871c 363c 1ce6 3cbd
00000320: ea78 28bd 824b 5ebd 783a 54be 613f 50bd
00000330: 0d13 6fbe e140 683c d911 db3c 19f5 98bd
00000340: f117 9fbd 48f2 e63c 81eb d5bd 4242 eabc
00000350: 7ab1 c7bc a1a6 bfba 2c05 80bc a55e ff3c
00000360: 90ec e93c 6550 283d 6ea0 093c d404 0fbe
00000370: bd84 673d 73fc 193d d971 7f3d e06b 58bb
00000380: fbcd 3c3d ccba 243d 2c26 1cbd 3ea1 04be
00000390: 0c6c 14be 4ee2 8fbc 43dd 363d c985 34bd
000003a0: 0070 f53c 13cd 05be fe62 cdbd f0c9 c6bc
000003b0: 9be4 04be 162a a3be fd25 2d3d 3df6 99bc
000003c0: c19f 5cbe 3385 aa3c 6032 b23d 3a3e e5bb
000003d0: 9813 a73d 9be1 eb3c a45c 29bc 98bc 60bc
000003e0: 177c e33c 2534 5a3d 0d2e 88bd e78c 0abd
000003f0: f449 15be c259 edbd 2549 8e3d 6e8b 253d

shared.2.bias f4 [256]
0.05104546 0.230496 -0.031012254 0.1454305 0.010098974 -0.0078049907 -0.28835016 -0.118997626
0.027970402 0.0643163 0.08070724 0.017488996 0.031775262 -0.01263332 0.1069307 0.07002243
0.025189226 0.07672864 -0.023555184 0.011547025 0.10266739 0.05830298 0.022641351 0.0022901283
0.024355184 0.19207054 -0.03378489 -0.06171117 0.16644613 -0.026607223 0.19935226 0.030774314
-0.16077583 -0.008466984 0.14793064 -0.09083786 0.07736064 -0.02434741 0.057936177 0.07668569
-0.024873974 0.23783822 0.035746623 0.11857989 -0.11188788 -0.0334599 0.019583417 0.029229572
0.07385143 -0.010501632 0.035810597 -0.059545316 0.0011030855 0.19958402 0.077869296 0.08542863
0.12598202 0.160564 0.12804957 0.08418578 -0.03388619 0.11117596 0.07888475 0.025695963
0.01226923 -0.099722415 0.0035431765 -0.01601904 0.16326399 0.0282176 -0.06516802 0.25670204
0.139808 0.069730625 0.125285 0.021152634 0.11541209 -0.02231358 -0.016603297 0.1354403
0.08871339 -0.13085182 -0.033689033 -0.016961304 -0.19180495 0.054847814 0.10008696 -0.010259979
0.031465307 0.07548879 0.21148951 0.25678533 -0.01314379 0.1308682 0.13138348 -0.028200848
0.04492139 0.0047726287 -0.040324677 -0.118390195 -0.019583192 0.2145977 -0.23919113 0.0022606326
0.053451724 0.004343881 -0.16915773 0.1996991 -0.04567003 -0.0096018175 -0.006830049 0.016623655
-0.016717779 0.064622976 0.04298552 0.16875386 -0.08491848 0.26282626 0.082350604 -0.02936348
0.024640527 0.26063037 0.038464583 -0.0046081976 0.062836826 -0.096862905 0.090498544 0.049408346
0.15949348 0.1747964 -0.03352492 -0.03902831 -0.05180649 -0.12686066 -0.023824073 0.007398912
-0.023060696 0.23344514 0.03390111 0.071939744 -0.18598245 -0.055095922 -0.042380076 0.025873756
-0.0525889 0.17140062 -0.051605474 0.14491493 -0.08026152 -0.13708796 0.05872342 0.040504824
0.034180623 0.26291868 0.054406848 -0.039200682 -0.23733328 0.008783398 -0.011518579 0.004205593
0.071799755 0.13122234 0.03322763 0.034425754 0.12266424 -0.00275784 -0.1689228 0.0010676789
-0.13975425 0.06663988 0.00041973064 -0.02990671 -0.06152829 0.12871598 0.03026653 -0.060658433
0.05903152 0.008633788 0.18478261 0.014660121 0.08627152 0.11503738 0.08993767 0.10103375
0.047036603 0.015261089 0.15604581 -0.018110197 -0.02518032 0.033419296 0.1983424 -0.049475968
-0.025927095 0.21543865 -0.047519695 0.022554297 0.083952725 0.043288764 0.03118199 0.037569664
-0.040835008 0.21247338 0.04711751 0.07355319 0.11182103 0.04077851 0.10669096 0.008698184
-0.01694173 0.061101787 0.14269781 0.017117735 0.10086443 -0.017219877 0.08411713 0.079997346
-0.044649746 0.003690614 0.11229525 0.26086813 0.046642613 0.15920639 0.23796809 0.04426286
0.043617465 0.033238336 0.034166962 0.1961742 0.06978048 -0.09952237 -0.009298234 0.011493819
-0.0043726643 0.086016886 -0.029514585 -0.089794636 0.019205244 0.018458746 0.11438917 -0.16318403
0.0009188949 -0.004665289 -0.20544595 -0.16982754 0.010195001 -0.114691734 0.054114394 -0.117817625
-0.009886551 0.016004726 0.029349286 -0.044311754 0.032936163 0.030717757 -0.0043640877 -0.031763643
00000000: 0b15 513d 2507 6c3e 690d febc bceb 143e
00000010: 2b76 253c 02c1 ffbb a2a2 93be 07b5 f3bd
00000020: 2f22 e53c 44b8 833d d649 a53d 1545 8f3c
00000030: c726 023d fcfb 4ebc 7cfe da3d eb67 8f3d
00000040: a359 ce3c e823 9d3d cdf6 c0bc bc2f 3d3c
00000050: 4843 d23d 1bcf 6e3d 5b7a b93c fa15 163b
00000060: 8684 c73c 24ae 443e 0662 0abd dac4 7cbd
00000070: db70 2a3e 64f7 d9bc 0023 4c3e 6a1a fc3c
00000080: 6ba2 24be 1bb9 0abc 217b 173e 3309 babd
00000090: 416f 9e3d 3874 c7bc 7c4e 6d3d 630d 9d3d
000000a0: 81c4 cbbc dd8b 733e 0d6b 123d 03da f23d
000000b0: 7925 e5bd 400d 09bd 676d a03c db72 ef3c
000000c0: 6b3f 973d 090f 2cbc 22ae 123d cae5 73bd
000000d0: 6895 903a c15f 4c3e f079 9f3d 35f5 ae3d
000000e0: 6e01 013e e46a 243e 6d1f 033e 9869 ac3d
000000f0: 3fcc 0abd 39b0 e33d 548e a13d 5780 d23c
00000100: e104 493c 443b ccbd a334 683b 5d3a 83bc
00000110: ad2e 273e 9928 e73c d076 85bd 736e 833e
00000120: d429 0f3e eece 8e3d b64a 003e 4a48 ad3c
00000130: 2d5d ec3d f8ca b6bc a303 88bc ddb0 0a3e
00000140: 5eaf b53d 05fe 05be 83fd 09bd 6ff2 8abc
00000150: 8468 44be 1aa8 603d 64fa cc3d 7919 28bc
00000160: c4e1 003d de99 9a3d b590 583e 5e79 833e
00000170: 0d59 57bc 5002 063e 6489 063e 7705 e7bc
00000180: 7eff 373d b663 9c3b 7d2b 25bd 8f76 f2bd
00000190: ee6c a0bc 80bf 5b3e 85ee 74be 1f27 143b
000001a0: 32f0 5a3d 1d57 8e3b af37 2dbe ec7d 4c3e
000001b0: 7f10 3bbd f150 1dbc 9bce dfbb 552e 883c
000001c0: b9f3 88bc 0d59 843d 9611 303d d0cd 2c3e
000001d0: bde9 adbd 2a91 863e 6fa7 a83d ae8b f0bc
000001e0: eeda c93c 5871 853e 0a8d 1d3d 5d00 97bb
000001f0: 98b0 803d 0f60 c6bd 4d57 b93d 6860 4a3d
00000200: 4252 233e d4fd 323e 6d51 09bd 26dc 1fbd
00000210: 0b33 54bd c3e7 01be b42a c3bc 9372 f23b
00000220: c9e9 bcbc 3e0c 6f3e e4db 0a3d 2555 933d
00000230: 2f72 3ebe 43ac 61bd bb96 2dbd 33f5 d33c
00000240: 7567 57bd a583 2f3e 4360 53bd 9464 143e
00000250: 2760 a4bd c960 0cbe f887 703d 63e8 253d
00000260: fb00 0c3d 479d 863e b7d9 5e3d e590 20bd
00000270: 7f07 73be 3ee8 0f3c 6cb8 3cbc 12cf 893b
00000280: c00b 933d 265f 063e b219 083d 0502 0d3d
00000290: 6437 fb3d e1bc 34bb 19fa 2cbe 5cf1 8b3a
000002a0: bd1b 0fbe 7d7a 883d 4b0f dc39 ebfe f4bc
000002b0: 1705 7cbd 1fce 033e 84f1 f73c fa74 78bd
000002c0: 09cb 713d bb74 0d3c a737 3d3e 0131 703c
000002d0: 1faf b03d b898 eb3d 3e31 b83d c8ea ce3d
000002e0: 74a9 403d a609 7a3c 79ca 1f3e d65b 94bc
000002f0: f546 cebc ace2 083d 451a 4b3e 50a7 4abd
00000300: 0f65 d4bc f39b 5c3e 03a4 42bd cac3 b83c
00000310: 68ef ab3d 8f4f 313d 5f71 ff3c a6e2 193d
00000320: 9c42 27bd 9f92 593e 4afe 403d 0ea3 963d
00000330: 6d02 e53d 5e07 273d ca80 da3d d482 0e3c
00000340: 62c9 8abc de45 7a3d 601f 123e 7e3a 8c3c
00000350: 0392 ce3d b310 8dbc 9a45 ac3d a6d5 a33d
00000360: a7e2 36bd 3ade 713b 0dfb e53d 8290 853e
00000370: 530c 3f3d 0007 233e e8ad 733e f94c 353d
00000380: 3aa8 323d ec24 083d a8f2 0b3d e4e1 483e
00000390: 11e9 8e3d 62d2 cbbd 9f57 18bc 9250 3c3c
000003a0: 9148 8fbb 9f29 b03d 92c8 f1bc 40e6 b7bd
000003b0: 5154 9d3c cc36 973c df44 ea3d b719 27be
000003c0: fee1 703a 48df 98bb 6c60 52be 45e7 2dbe
000003d0: ef08 273c 80e3 eabd 0ea7 5d3d 5e4a f1bd
000003e0: 33fb 21bc 581c 833c ea6d f03c 3e80 35bd
000003f0: 12e8 063d cea3 fb3c 9f00 8fbb 981a 02bd

actor.weight f4 [3, 256]
0.14964087 -0.03378676 -0.010427272 -0.007534741 -0.11352313 -0.07989734 -0.07897514 -0.042208184
0.03428403 0.052627176 0.18404168 -0.016746074 0.12298786 -0.027465455 0.10204942 0.000864247
0.12610906 0.03791425 0.009987508 0.035107873 0.12727815 0.056135572 -0.26703408 -0.022990199
-0.00489666 0.08345151 0.030653724 -0.053633727 -0.17383151 0.011460952 -0.20722029 -0.0053668465
0.056489717 -0.006470715 0.31832692 -0.022789927 0.114793934 -0.0948791 -0.17724225 -0.03361076
0.043784596 0.11944394 0.04769384 0.07373669 0.005502339 -0.0099970065 0.07048699 0.21118957
0.016951097 0.007815635 -0.11327976 -0.04336341 0.031746387 0.2613702 0.2587858 0.06129976
-0.053008355 0.26871845 0.16201693 -0.010510328 -0.013944702 0.086730994 -0.083140366 -0.09010615
-0.38449037 -0.02523413 0.043382283 -0.008198706 0.12675636 -0.0051194774 0.07386052 0.26374093
-0.037928127 -0.062342566 -0.18887955 0.021190966 -0.052900564 0.0037805357 0.022639932 0.21477345
-0.008692294 0.0051057115 -0.032333948 0.044706464 0.0056472677 0.16233929 0.12282884 0.04987055
-0.039678257 0.11485555 -0.058212172 0.13397922 0.022370387 0.0013884908 0.012471631 0.0048378287
0.019489298 -0.017536111 0.05437777 0.0429697 0.09179156 0.10723214 -0.0053171655 0.046347026
-0.03761283 0.028331976 -0.02319501 -0.24308904 -0.24553339 -0.006183119 0.11124062 0.0066732108
0.07758222 0.06319024 0.15925871 -0.030728105 0.11468119 0.054718275 0.0117159905 -0.10064322
0.07599183 0.10130563 0.013982828 -0.017227378 0.0810707 -0.030669196 -0.055649135 0.086558394
-0.009460272 0.06394618 -0.02526866 0.045061793 -0.05430696 0.02857701 0.033597 0.006489798
0.13312791 -0.54847145 -0.039338984 -0.09360871 0.09266603 -0.05251175 -0.023313414 0.05319703
0.008958365 0.18177602 0.02733126 0.11452401 0.022445558 0.0059355064 -0.009422873 0.012365353
0.06704925 -0.10743792 -0.10261437 0.050672714 0.01724014 -0.02324063 0.014108692 -0.00053473824
0.025285985 0.086070575 -0.095190026 0.028626086 0.02372174 0.06438763 -0.05960291 0.018472845
0.11952873 0.022818753 0.059817873 -0.015216477 0.01920796 0.04526561 -0.016263982 0.007630445
-0.07953838 0.10014021 0.26693052 -0.030759756 0.014490623 -0.09967844 0.04682079 0.13625106
-0.019573314 -0.11605518 -0.07785071 0.052681644 0.060349893 0.029653795 0.25355437 -0.029472262
0.020388033 0.048620842 0.002849052 -0.038259134 -0.13993563 -0.0066179205 -0.01856898 0.025636002
0.0063310894 0.028506465 0.1369771 -0.08347133 -0.06034756 0.06448462 0.18502155 -0.11729112
0.052498378 0.08395819 0.076855496 0.093935445 0.0062248562 0.10963063 -0.049173705 -0.01434595
0.031508844 -0.014142834 0.15379307 -0.44140702 0.09603876 -0.14618745 0.09200864 0.026540795
0.13340403 -0.114586145 0.08443858 0.04561632 -0.07149093 0.061298557 0.10305373 -0.10850621
0.109133825 -0.014487492 -0.08330141 0.032440722 -0.0049762214 0.024403412 -0.3076988 0.105494626
0.048919596 -0.059449803 0.06300049 -0.00089103857 -0.026937965 0.14127994 0.009489094 0.07033524
-0.0872848 0.11349202 -0.07246839 -0.24037243 -0.057021674 0.13627566 0.0076120063 0.009253348
00000000: 753b 193e fc63 0abd 26d7 2abc fde5 f6bb
00000010: d17e e8bd 37a1 a3bd b8bd a1bd 7de2 2cbd
00000020: 696d 0c3d 988f 573d 6c75 3c3e 102f 89bc
00000030: 0fe1 fb3d 3cff e0bc 49ff d03d a28e 623a
00000040: bc22 013e f94b 1b3d a5a2 233c 46cd 0f3d
00000050: 3455 023e 6aee 653d b1b8 88be f155 bcbc
00000060: 2974 a0bb a0e8 aa3d 851d fb3c 0aaf 5bbd
00000070: e300 32be b8c6 3b3c 8e31 54be 5fdc afbb
00000080: c361 673d 4b08 d4bb bffb a23e f1b1 babc
00000090: 1519 eb3d f94f c2bd fe7e 35be 70ab 09bd
000000a0: 7a57 333d 069f f43d 9e5a 433d 4303 973d
000000b0: f74c b43b 7cca 23bc 7c5b 903d 1442 583e
000000c0: 07dd 8a3c 260d 003c 38ff e7bd d59d 31bd
000000d0: 8008 023d 51d2 853e 937f 843e 7515 7b3d
000000e0: 4a1f 59bd 7795 893e c4e7 253e 8333 2cbc
000000f0: 5278 64bc 05a0 b13d 7f45 aabd 9389 b8bd
00000100: ecdb c4be ceb7 cebc 9fb1 313d de53 06bc
00000110: 6bcc 013e 4ac1 a7bb 2f44 973d 0d09 873e
00000120: 865a 1bbd eb5a 7fbd a469 41be ad98 ad3c
00000130: 43ae 58bd ddc2 773b 6177 b93c 92ed 5b3e
00000140: 206a 0ebc d04d a73b 9a70 04bd 201e 373d
00000150: b70c b93b 453c 263e b08d fb3d 1045 4c3d
00000160: ab85 22bd 6339 eb3d e36f 6ebd d931 093e
00000170: 1a42 b73c 05fe b53a d055 4c3c a686 9e3b
00000180: 05a8 9f3c e4a7 8fbc 39bb 5e3d ff00 303d
00000190: 37fd bb3d 869c db3d 9e3b aebb 61d6 3d3d
000001a0: e90f 1abd 7618 e83c 7603 bebc 55ec 78be
000001b0: 1b6d 7bbe c39b cabb 1fd2 e33d f3aa da3b
000001c0: 6de3 9e3d e269 813d b714 233e 82b9 fbbc
000001d0: f9dd ea3d 4520 603d 6df4 3f3c 081e cebd
000001e0: 9ba1 9b3d 5379 cf3d 3b18 653c 6e20 8dbc
000001f0: 6508 a63d f73d fbbc 59f0 63bd 8745 b13d
00000200: 42ff 1abc 37f6 823d 3900 cfbc b792 383d
00000210: fa70 5ebd 551a ea3c 029d 093d 5fa8 d43b
00000220: af52 083e a068 0cbf ea21 21bd ecb5 bfbd
00000230: b0c7 bd3d 9016 57bd c6fb bebc 21e5 593d
00000240: 1bc6 123c 7e23 3a3e cee5 df3c 908b ea3d
00000250: bfdf b73c a37e c23b 6562 1abc 0d98 4a3c
00000260: 1e51 893d 6a08 dcbd 7c27 d2bd 318e 4f3d
00000270: 323b 8d3c 2263 bebc 2528 673c ad2d 0cba
00000280: 8e24 cf3c c545 b03d fdf2 c2bd 4181 ea3c
00000290: 1854 c23c a9dd 833d 2e22 74bd 5d54 973c
000002a0: 7bcb f43d 65ee ba3c 9603 753d 884e 79bc
000002b0: 035a 9d3c 6f68 393d 0b3c 85bc d008 fa3b
000002c0: 05e5 a2bd 4f16 cd3d 1eab 883e e2fb fbbc
000002d0: 146a 6d3c 3624 ccbd 28c7 3f3d 6685 0b3e
000002e0: 3758 a0bc 57ae edbd 3170 9fbd b5c8 573d
000002f0: 7331 773d 84ec f23c e1d1 813e d06f f1bc
00000300: ce04 a73c a626 473d 29b7 3a3b 9cb5 1cbd
00000310: 494b 0fbe 24db d8bb f91d 98bc 9802 d23c
00000320: 0775 cf3b 6486 e93c ba43 0c3e 04f3 aabd
00000330: 012f 77bd 8310 843d 4a76 3d3e 5436 f0bd
00000340: 8a08 573d 46f2 ab3d 6a66 9d3d 3a61 c03d
00000350: e1f9 cb3b 0686 e03d 5e6a 49bd 470b 6bbc
00000360: 6b0f 013d 58b7 67bc ee7b 1d3e 1a00 e2be
00000370: f8af c43d 2ab2 15be 076f bc3d 156c d93c
00000380: 119b 083e 24ac eabd 22ee ac3d 2ed8 3a3d
00000390: d669 92bd 3214 7b3d d60d d33d 8138 debd
000003a0: 8e81 df3d f25c 6dbc ee99 aabd 90e0 043d
000003b0: 920f a3bb aae9 c73c b28a 9dbe 910d d83d
000003c0: ea5f 483d a381 73bd 6706 813d 9694 69ba
000003d0: 02ad dcbc b0ab 103e 2578 1b3c ec0b 903d
000003e0: 60c2 b2bd 816e e83d 4f6a 94bd 3124 76be
000003f0: 8f8f 69bd d98b 0b3e 236e f93b 5b9b 173c

actor.bias f4 [3]
0.060938604 -0.009483943 0.018857693
00000000: c29a 793d 8a62 1bbc 737b 9a3c

critic.weight f4 [1, 256]
-0.08928229 0.09023669 -0.20489079 0.07516572 -0.009662329 -0.040839165 0.04731461 -0.48208815
0.041541163 -0.36496195 -0.2647504 0.025879553 -0.028764782 -0.4022403 0.08153258 -0.028637683
-0.142031 -0.3418082 -0.0015904673 -0.056188196 -0.33113596 -0.12536916 0.40620148 0.014158274
0.0068267714 0.2574957 0.03248521 0.2240387 0.13450143 0.0358352 0.13649243 0.05293925
0.028998962 0.037618406 -0.15206657 -0.31408983 -0.0374895 -0.46387514 -0.20427719 0.040033724
0.03514492 0.14651795 -0.0077285566 0.039015118 0.05472035 -0.04620328 -0.16954792 0.44568002
-0.093013056 -0.043278795 -0.22587569 0.020204412 0.038292106 0.18835127 -0.09197691 -0.025149876
-0.09432052 0.08110838 -0.081009656 -0.052382775 -0.08820583 -0.050182715 -0.011912063 0.09356995
0.3577509 -0.52223426 -0.4121539 -0.27039373 -0.23440504 0.04696567 -0.48760584 0.15193652
-0.083475016 -0.00168599 -0.07083019 -0.03299325 -0.12039189 0.037999596 0.038934514 0.29774612
-0.048956063 0.069160156 0.051661223 0.038416 0.06442366 -0.24905905 -0.05403788 0.041329768
0.03791111 -0.070471376 0.11014158 0.07702342 0.024798129 -0.14279108 -0.09842152 -0.03767481
-0.012032865 0.022658918 0.052926697 -0.46728307 -0.06888192 0.12726113 0.0059744017 -0.018929334
-0.018920947 0.011956401 0.021683406 0.16234927 0.25436598 0.037723564 -0.21595758 -0.008787897
-0.02112571 0.07043121 -0.102224216 0.056363557 0.14452416 0.2092996 -0.1334173 0.043164097
-0.04899519 0.1453185 -0.02176119 -0.041461512 -0.026472084 -0.5830376 -0.020988708 -0.064927876
0.16029745 -0.22387967 -0.38149747 0.00031817215 0.035336215 0.05472402 0.02707951 -0.021479985
-0.19761907 0.5254489 -0.015347416 -0.09023626 0.061026443 0.054595776 -0.39664072 -0.01771933
0.04078367 -0.114928715 0.037208166 -0.1086564 0.006563479 -0.55444807 -0.09121089 -0.045488495
-0.15050237 0.1949237 0.003415281 -0.27220768 0.12747523 0.023555866 0.037650883 -0.041293126
-0.04268157 0.0974112 -0.026348894 0.07236192 -0.17679286 -0.6044395 0.089740135 0.050778747
0.04771133 0.023408297 -0.32891047 -0.006165472 -0.42488638 -0.18443127 0.0038188668 0.0046449113
-0.033825625 -0.028522713 0.25664443 -0.045834776 -0.034092445 -0.051682156 0.049861863 -0.13708232
0.06507011 -0.027346341 0.27318683 0.0074251774 0.031282473 -0.017505022 0.18890883 0.04780367
0.050760467 0.20579687 -0.5008603 -0.13940044 -0.11820109 -0.043367837 -0.021169964 0.043180298
0.02264787 0.08655957 -0.11321646 -0.050447557 -0.024465755 -0.39109024 -0.10157882 -0.18164688
-0.40201914 -0.103700325 -0.07115696 -0.027888699 0.050444577 -0.055879787 -0.067793496 -0.004086862
-0.026119154 -0.35725695 -0.09027528 0.41813928 -0.006483097 0.08872594 0.22719398 -0.007733982
-0.01427512 -0.08600736 0.060596246 0.11928214 -0.034541998 -0.5312656 -0.027838053 -0.02370716
-0.3625316 -0.2774243 0.17833446 -0.002861255 0.026462227 0.017575467 0.07864469 0.025581956
0.05394175 -0.17034464 0.034466546 0.0597622 0.030358542 0.028880334 -0.033500332 -0.58888084
-0.029250184 -0.017203102 -0.0072393445 0.23557964 -0.051626824 -0.016414784 -0.40483955 0.039427944
00000000: a2d9 b6bd 04ce b83d e4ce 51be 7cf0 993d
00000010: bf4e 1ebc f846 27bd f7cc 413d 42d4 f6be
00000020: 1127 2a3d 4bdc babe 5d8d 87be 5b01 d43c
00000030: 1fa4 ebbc 71f2 cdbe 8efa a63d 9399 eabc
00000040: 9370 11be 7c01 afbe 3a77 d0ba 9825 66bd
00000050: a78a a9be c660 00be a4f9 cf3e 1bf8 673c
00000060: 1cb3 df3b 7ad6 833e 360f 053d 676a 653e
00000070: beba 093e eec7 123d acc4 0b3e d4d6 583d
00000080: 3b8f ed3c c215 1a3d 57b7 1bbe 62d0 a0be
00000090: 978e 19bd 0b81 edbe 0a2e 51be 67fa 233d
000000a0: 1ff4 0f3d cd08 163e d53f fdbb 51ce 1f3d
000000b0: 7222 603d a73f 3dbd f89d 2dbe 2c30 e43e
000000c0: a17d bebd 1b45 31bd f54b 67be b983 a53c
000000d0: 2fd8 1c3d 28df 403e 645e bcbd 1d07 cebc
000000e0: 1e2b c1bd 261c a63d 64e8 a5bd 528f 56bd
000000f0: 42a5 b4bd 648c 4dbd d02a 43bc 9aa1 bf3d
00000100: 202b b73e 25b1 05bf d605 d3be 0c71 8abe
00000110: e007 70be 135f 403d 79a7 f9be 3f95 1b3e
00000120: f3f4 aabd 70fc dcba 6b0f 91bd ee23 07bd
00000130: 0690 f6bd 77a5 1b3d cc79 1f3d 2e72 983e
00000140: 2786 48bd d7a3 8d3d b89a 533d 185a 1d3d
00000150: 8df0 833d 5609 7fbe d356 5dbd 6749 293d
00000160: ae48 1b3d 4c53 90bd e991 e13d 74be 9d3d
00000170: 7225 cb3c d337 12be 3991 c9bd e750 1abd
00000180: 7e25 45bc 329f b93c aac9 583d ba3f efbe
00000190: f711 8dbd be50 023e eac4 c33b b111 9bbc
000001a0: 1a00 9bbc c8e4 433c 66a1 b13c e33e 263e
000001b0: 423c 823e 0684 1a3d fc23 5dbe 1dfb 0fbc
000001c0: d30f adbc 3d3e 903d ee5a d1bd 79dd 663d
000001d0: 24fe 133e a252 563e 8b9e 08be d6cc 303d
000001e0: 2eaf 48bd 5fce 143e 8644 b2bc 8cd3 29bd
000001f0: fcdb d8bc f441 15bf 83f0 abbc e8f8 84bd
00000200: 0425 243e b640 65be a353 c3be 58d0 a639
00000210: b5bc 103d 4b26 603d d9d5 dd3c cbf6 afbc
00000220: a75c 4abe d283 063f ba73 7bbc cacd b8bd
00000230: ddf6 793d d29f 5f3d 7e14 cbbe 2128 91bc
00000240: c70c 273d bf5f ebbd 9767 183d 3f87 debd
00000250: 7412 d73b 4ff0 0dbf c6cc babd 2552 3abd
00000260: 4b1d 1abe 149a 473e e8d2 5f3b ce5e 8bbe
00000270: de88 023e 3bf8 c03c d037 1a3d fb22 29bd
00000280: dfd2 2ebd 867f c73d a3d9 d7bc 7c32 943d
00000290: 3009 35be 8cbc 1abf adc9 b73d 60fd 4f3d
000002a0: f56c 433d c2c2 bf3c f466 a8be ba07 cabb
000002b0: b58a d9be 8ddb 3cbe f445 7a3b 5734 983b
000002c0: bd8c 0abd 77a8 e9bc e666 833e 3fbd 3bbd
000002d0: 85a4 0bbd abb0 53bd f43b 4c3d 4f5f 0cbe
000002e0: 7a43 853d 6f05 e0bc 25df 8b3e e74e f33b
000002f0: 0d22 003d b166 8fbc 5171 413e c8cd 433d
00000300: 35ea 4f3d 6abc 523e 6138 00bf fdbe 0ebe
00000310: 6a13 f2bd 79a2 31bd a26c adbc d3dd 303d
00000320: 0788 b93c 2546 b13d 08de e7bd 19a2 4ebd
00000330: 686c c8bc fb3c c8be 8e08 d0bd a401 3abe
00000340: 74d5 cdbe d660 d4bd beba 91bd d776 e4bc
00000350: f99e 4e3d 34e2 64bd 51d7 8abd 15eb 85bb
00000360: d6f7 d5bc 62ea b6be 3fe2 b8bd 5a16 d63e
00000370: 2970 d4bb f2b5 b53d 8aa5 683e 586d fdbb
00000380: 31e2 69bc a024 b0bd c533 783d 324a f43d
00000390: e97b 0dbd 0601 08bf a10c e4bc 8535 c2bc
000003a0: be9d b9be 8f0a 8ebe 4f9d 363e e583 3bbb
000003b0: 50c7 d83c 6dfa 8f3c 7810 a13d 4091 d13c
000003c0: 06f2 5c3d d36e 2ebe cb2c 0d3d 35c9 743d
000003d0: 7ab2 f83c 7396 ec3c a537 09bd e5c0 16bf
000003e0: 159e efbc 85ed 8cbc 0638 edbb ca3b 713e
000003f0: a676 53bd 4c78 86bc 2147 cfbe 327f 213d
