Experimenten/Experiment1Snake/PPO/ppo_snake_6900.pth (torch, 280852 bytes, 7 tensors)

shared.0.weight f4 [256, 9]
000000 f9 df 16 3e 62 78 59 bd ee 15 b6 3e f6 15 94 be
       0.14733876 -0.05309332 0.35563606 -0.28923005
000010 bd 6e 36 3c a9 ac 8e 3c eb ba 1d 3f 1c b9 10 3f
       0.0111348005 0.017416315 0.6161334 0.56532454
000020 c8 b5 3d bd ce 9d 04 bf a3 c1 8a 3e 56 65 06 3e
       -0.04631594 -0.5180329 0.27100858 0.13124594
000030 d7 4f bd be 20 60 bd ba 52 6b 80 be d8 16 b4 3e
       -0.36974975 -0.0014448203 -0.2508188 0.35173678
000040 07 05 8c be c0 48 50 be 87 33 3a bd ef 48 ea 3d
       -0.27347586 -0.20340252 -0.045459297 0.11439692
000050 3d 73 ca 3e 44 3e 5d be 8a dd 36 3d 0b b8 50 be
       0.39541045 -0.21605784 0.04464487 -0.20382707
000060 5e 2a 12 bd e5 08 34 3e ec 51 0c bf 15 dc aa be
       -0.035684936 0.17581518 -0.548125 -0.33371034
000070 a4 8a d0 bd 02 f5 52 3e 75 7f e3 be 20 f5 5e be
       -0.101826936 0.20601276 -0.4443318 -0.21773195
000080 1b 3a 81 3e a2 d6 9a 3e 17 23 ad 3e 05 f9 9b 3e
       0.25239643 0.30241877 0.33815834 0.30463424
000090 8e e7 6c be 46 0b af bd 15 d1 e0 be 38 6c a1 be
       -0.23135206 -0.08547072 -0.43909517 -0.31527877
0000a0 93 28 97 be 1d 88 39 be dd 2d 4c be d7 ff aa be
       -0.29523143 -0.1811833 -0.1993937 -0.33398315
0000b0 80 43 62 3e 32 af bb 3e a7 22 6a 3e b5 6d 97 3e
       0.22096062 0.366571 0.22864781 0.29575887
0000c0 af ef d9 be 84 38 e2 bc 65 ca d0 b9 ef 80 87 bd
       -0.42565677 -0.02761484 -0.00039823647 -0.06616389
0000d0 a3 4b 00 3f 08 a9 0f 3e 17 38 44 be e9 a0 9a be
       0.5011541 0.14029324 -0.19162022 -0.3020089
0000e0 c5 6b 9e 3e de b5 c5 3e e0 08 68 bc 52 1d 5d 3d
       0.30941597 0.38615316 -0.014162272 0.05398304
0000f0 31 62 23 3e 9e 83 9f 3e ab be 16 3f 9d 31 1c 3e
       0.15955426 0.31155103 0.58884686 0.15253301
000100 60 78 48 3c 3e b0 8e bc 58 df bb 3d c1 9a 06 3b
       0.012235731 -0.017418023 0.09173459 0.0020539018
000110 00 22 93 3b af 14 1c bf 97 8f 89 3e f5 eb 27 bf
       0.004490137 -0.6096906 0.26867363 -0.65594417
000120 bd 8d f8 be a9 25 a6 be c4 0d c8 3e 77 12 e1 bc
       -0.48545638 -0.32450607 0.39073002 -0.027474625
000130 dc c8 fa bc 20 a8 cc bb 86 2c 25 3e f8 19 9c 3e
       -0.030613355 -0.006245628 0.16130266 0.30488563
000140 52 e4 2d bf 45 d2 52 3c 33 7e 49 3d df 5b 05 3f
       -0.67926514 0.012867515 0.04919262 0.5209331
000150 88 13 5b be 2b c3 28 3d 93 9e c8 bd 4a 85 18 be
       -0.2139417 0.04120175 -0.09795871 -0.14894596
000160 7d 7b ba 3e 88 a0 2b bf b3 5e 99 be 65 27 54 3e
       0.3642234 -0.67041826 -0.29955062 0.20718153
000170 af ef 61 3e 83 f5 02 bf d5 7f 2a be ae 3b 83 bd
       0.22064088 -0.5115587 -0.16650327 -0.06407867
000180 6b 55 ce 3d d4 30 8d 3e 44 a8 53 3f 01 6d 54 3e
       0.10074886 0.27576315 0.8267863 0.20744707
000190 f8 63 09 be a4 dd b2 be fb 75 8a be 54 7d 6b bc
       -0.13417041 -0.34934723 -0.27043137 -0.014373142
0001a0 a9 68 d7 bd a6 2c 72 bd 7d f8 b5 3d f9 64 86 3f
       -0.10518009 -0.05912461 0.08885286 1.0499564
0001b0 da 93 05 3c 4c 6b 9b 3e 42 a8 dc bb d0 59 8f 3e
       0.008152926 0.303553 -0.006733925 0.2799821
0001c0 27 30 0b 3d e4 3a d8 ba 88 48 bb 3e c0 95 95 be
       0.03398147 -0.0016497043 0.36578774 -0.29215813
0001d0 1a d7 22 3f 16 ff d0 3e 5e 11 fa bd 59 57 bf be
       0.6360947 0.40819615 -0.12210344 -0.37371328
0001e0 05 1a 62 bd 37 65 6f 3e 2d 9f 49 3e e4 4a 5d 3e
       -0.055200595 0.23378454 0.19689627 0.216106
0001f0 3c e3 da 3d d7 5e 34 be ab 28 d1 be ac a7 96 be
       0.10687873 -0.17614304 -0.4085134 -0.29424798
000200 eb b3 12 3f d1 7d d6 be 89 83 a0 3d 73 6a 47 be
       0.57305783 -0.41892865 0.07837588 -0.19474201
000210 8f 9a 4b bd e6 4c 52 3e 45 1c ac be 54 b8 bf be
       -0.049707945 0.20537147 -0.33615318 -0.3744532
000220 8c 78 92 be 3e 57 71 3e 57 b3 02 3e 12 08 50 3d
       -0.28607595 0.23568437 0.12763725 0.050788946
000230 47 3b d5 bd b3 af f1 3e 91 f5 e7 3c 27 86 b4 3e
       -0.10411697 0.4720436 0.028315337 0.352586
000240 48 77 d2 be 9f b4 00 be 28 44 e8 3e cb 4f 37 3d
       -0.4110663 -0.12568901 0.453645 0.04475383
000250 25 66 81 bd bb 3a fe bd 48 c1 35 3f 97 72 8b 3e
       -0.06318311 -0.12413546 0.7099805 0.27235863
000260 d5 1b 69 be f9 04 30 3e f7 94 8f 3d a2 aa 40 3e
       -0.22764523 0.17189397 0.07010835 0.18815091
000270 50 a2 0e 3e c9 33 1e 3d 43 6b 73 3d 63 a7 20 3f
       0.13929105 0.038623605 0.059428465 0.6275541
000280 4e 9e 14 3f eb bd 06 3f 09 56 37 3e fe 22 04 3f
       0.58054054 0.5263354 0.17903914 0.51615894
000290 47 e3 86 3c b6 fc ee be ad 2f 57 3e dd 91 e2 bd
       0.016465796 -0.46677178 0.2101428 -0.110629775
0002a0 99 76 1a 3f 2f 0f 74 3d 87 36 f8 3b 7f 7f 9e be
       0.60337216 0.059584793 0.0075748595 -0.30956647
0002b0 83 e9 ea 3d 81 6a 46 3e 63 8a fc 3e 89 22 25 3e
       0.1147032 0.19376566 0.4932433 0.16126455
0002c0 61 9e 69 3d 40 30 18 3d 4b d7 61 3e ff e3 69 3e
       0.057035808 0.03715539 0.22054784 0.2284088
0002d0 be ce 70 3c cd fc 5f ba 27 9a e2 bd 2b 00 d2 be
       0.014697729 -0.0008544445 -0.110645585 -0.41015753
0002e0 2d aa 13 be ef 36 26 bd 1e e8 e2 be 96 94 45 3e
       -0.14420386 -0.040579733 -0.44317716 0.19294962
0002f0 30 53 b0 3c 6c 10 fc 3d 54 13 95 3e 49 b0 dc 3e
       0.021524042 0.1230782 0.2911631 0.43103245
000300 2b 4e 48 3d 60 64 97 bd 90 62 80 bd 72 c9 0f be
       0.04890267 -0.07392192 -0.06268799 -0.14041689
000310 d2 b7 21 be 22 38 54 3d 4b 5b c1 be e1 de 3c 3d
       -0.15792778 0.051811345 -0.37764964 0.04611099
000320 89 f1 d0 3e d2 bc 73 3e 82 fc b4 bd 9b 48 fd bd
       0.40809277 0.23802498 -0.088372245 -0.12367364
000330 80 42 24 3f a4 a2 16 3f 02 da fa 3d 57 2b eb be
       0.6416397 0.5884192 0.12248613 -0.45931503
000340 09 81 ba bd 35 90 f8 3e 30 a9 38 bd 01 91 0f 3e
       -0.09106643 0.4854752 -0.045083225 0.14020158
000350 b1 fe 38 3e 30 a9 0a 3e 17 0f 9d be bb 3b b2 bd
       0.18065907 0.13541102 -0.30675575 -0.08702799
000360 ae c7 07 bf 26 76 06 3e e4 34 9d 3e 0f 30 25 3d
       -0.5303906 0.13131008 0.30704415 0.040329035
000370 ce 96 41 bd 0b c5 2f be 07 b3 45 3f 28 5d 29 3f
       -0.04726296 -0.1716501 0.772263 0.6615777
000380 1a 30 ea 3d 98 6c 9e bd 90 4f 9d 3e 7f e6 e9 3e
       0.11434956 -0.07735556 0.30724764 0.45683667
000390 d1 a2 1f be ea c3 23 3e 72 58 de bd d9 ea f7 3e
       -0.15589453 0.15992704 -0.10856713 0.48421362
0003a0 85 5e e5 3e 51 dc c5 be 76 d9 bd 3c 91 1c 16 3e
       0.44798675 -0.3864465 0.023174983 0.14659335
0003b0 8c 48 2b bd 00 4a ff be bb 79 c8 3d c7 ac 9a bc
       -0.041817233 -0.49861145 0.09788843 -0.018881215
0003c0 06 08 3b 3f c3 9b 9e 3e 6d 50 87 3e 4d 6d 13 bf
       0.7305912 0.30978212 0.26428548 -0.57588655
0003d0 7d 0d a5 bd 07 1d c9 3e 6b 3d eb be 87 14 11 3e
       -0.08059213 0.3927996 -0.45945296 0.14167987
0003e0 b2 93 04 3e 5a 40 e9 bc 76 58 24 3e e3 10 4f be
       0.12946966 -0.028473068 0.1604937 -0.20221286
0003f0 53 38 1b be c3 6b 9a 3e 7c f3 37 3e cf 7d 9d 3e
       -0.15158205 0.3016034 0.17963976 0.30760047

shared.0.bias f4 [256]
000000 7a 28 cd 3d bd 28 79 be c1 de 8a be 4f d1 82 be
       0.10017486 -0.24331947 -0.27123073 -0.25550315
000010 72 91 d5 bd 24 c5 02 3e 58 2d 09 3e 4e 1a c6 3e
       -0.10428132 0.12770516 0.13396204 0.38691944
000020 75 45 d8 3d 75 4f bb be 8b 42 06 bd 86 6f 12 3e
       0.10560123 -0.36584058 -0.032778304 0.14300355
000030 ac 70 05 3f cf 5c 44 bd 5b 54 53 be c6 d3 ef be
       0.5212505 -0.04794007 -0.20637648 -0.46841258
000040 ee 7a 64 3d ac 5c ea bd d2 5f 7b 3d a5 76 3c 3e
       0.055781297 -0.11443457 0.06137068 0.18404634
000050 23 e2 f3 be 42 16 04 3f 1c c5 1e be b0 5c 8c be
       -0.47633466 0.5159646 -0.15504879 -0.27414465
000060 a9 45 ec bd d5 d8 ae 3e 2c ce 33 bd d2 c2 85 bd
       -0.11536724 0.34149805 -0.043897793 -0.065313
000070 14 29 07 3f 18 ee b9 bd 5b 5b 90 be 82 64 c4 be
       0.52797055 -0.09078616 -0.281947 -0.3835793
000080 a8 89 96 3e 5a 2b c0 3d e0 79 06 3e 12 51 3b be
       0.29401898 0.09383269 0.13132429 -0.18292645
000090 85 41 e4 3e 0e 86 61 3c 9c 4c c5 be fe 8d 02 bd
       0.44581237 0.013764871 -0.3853501 -0.031873696
0000a0 ed 0f eb 3e d7 89 2c be 42 32 e7 3e 36 55 6b be
       0.45910588 -0.16849457 0.4515553 -0.22981724
0000b0 2b 0a 16 3f 0c a6 53 bb 54 b1 03 bd 85 ae 06 bd
       0.58609265 -0.0032295017 -0.032151535 -0.03288128
0000c0 42 91 59 be 4f 79 80 be 5b 29 b3 bd ea 61 c0 bb
       -0.21246818 -0.2509255 -0.08748122 -0.0058710473
0000d0 24 db 90 3d 8c 43 2c 3e 9d f9 bf 3d 7b a0 81 be
       0.07073048 0.16822642 0.09373782 -0.2531775
0000e0 3e 1c d1 3e 4f 35 3c 3e 4d 22 8f bd 98 80 ad 3e
       0.4084186 0.1837971 -0.06988964 0.33887172
0000f0 13 48 20 3f b5 b1 4b be fd ef 21 3f b6 81 a0 3e
       0.62609977 -0.19892009 0.6325682 0.31348962
000100 a3 27 eb bd 4e 3b 17 3e 2b 69 93 3e 0c 29 bf 3e
       -0.114821695 0.14768717 0.28791174 0.37336004
000110 71 02 f4 3e 35 28 58 3e 23 c3 9a 3e c0 b9 75 3e
       0.47658113 0.21109088 0.30227003 0.23996639
000120 ab 60 bc 3d 86 e2 c2 be 3b 28 27 3d 83 ac 00 3e
       0.091981255 -0.3806345 0.04080985 0.12565808
000130 82 2f 14 3c 25 d2 89 be 38 fb 69 3e 55 59 ef bd
       0.00904453 -0.2691814 0.22849739 -0.116869606
000140 28 63 cd be 26 22 04 3f 12 5b 58 3d 61 dd 9f be
       -0.40114713 0.51614606 0.052821226 -0.31223586
000150 87 56 b2 3e 1a 27 30 3e b0 ea d7 bd b6 6b e0 bc
       0.3483164 0.17202416 -0.1054281 -0.02739511
000160 f6 58 02 be 87 12 2b 3d bd 85 81 3d 74 bd 44 3c
       -0.12729248 0.041765716 0.06324337 0.01200806
000170 d2 fc 94 3e f4 41 6d bd 54 97 f0 3e 3b 2b c7 bc
       0.29099137 -0.057924226 0.46990454 -0.024312606
000180 9f 57 bd 3d 3a 9c 04 3e 8e af 91 be 1e 6b 1c be
       0.09245228 0.1295022 -0.2845425 -0.15275237
000190 70 92 e1 3d 28 c7 5b be 08 d4 4e 3e fa 25 d4 3d
       0.11014259 -0.21462691 0.20198071 0.10358806
0001a0 f0 a5 36 3e 3b 29 1b bd 01 c9 f9 3e 04 09 75 be
       0.17836738 -0.037881117 0.48786166 -0.2392922
0001b0 71 35 34 bd e4 78 d7 be 3c 71 93 be 27 a7 c5 bc
       -0.04399628 -0.4208442 -0.28797328 -0.024127556
0001c0 b9 7c 51 be c7 2e 56 be c4 c1 c6 3c be 82 56 3e
       -0.20457734 -0.20916282 0.024262317 0.20948312
0001d0 d7 a4 09 3f 9d 14 9c be b2 30 27 be f6 e2 fa be
       0.5376715 -0.30484477 -0.1632717 -0.49001282
0001e0 52 8a 0c bf d9 5c 3c be 0c af 3c 3e 80 da a7 3e
       -0.5489856 -0.18394794 0.1842615 0.3278389
0001f0 77 bf 99 be 76 99 59 be 72 3c a7 be b7 88 cf 3e
       -0.3002889 -0.21249947 -0.32663304 0.40533993
000200 82 25 13 3e f8 46 9e be 79 69 80 3e 6c 38 de bd
       0.14369777 -0.3091352 0.2508047 -0.10850605
000210 3c 00 24 3c b5 d5 76 be 47 f2 c2 3d d3 53 bb be
       0.0100098215 -0.2410496 0.09518867 -0.3658739
000220 d4 27 95 be 4b 89 c0 bd 2b d4 bc bc 17 ef 42 bd
       -0.2913195 -0.094011866 -0.023050388 -0.047591295
000230 47 d8 4a be 09 a7 1c bd b2 3d 57 bd d0 14 d5 3e
       -0.19809066 -0.038245235 -0.05254907 0.4161744
000240 f4 8b 12 3f 20 9e a9 be e1 0e b0 3e 49 e8 3e 3e
       0.572448 -0.33128452 0.34386352 0.18643297
000250 81 02 6e 3d 90 fe 53 3e 40 62 4f 3e f5 40 df 3e
       0.058107857 0.20702577 0.20252323 0.43604246
000260 6b a3 79 be 40 51 7a be e3 94 7d 3e 59 3e 8d 3e
       -0.24378745 -0.24445057 0.24763827 0.2758663
000270 2b 67 31 3e a6 77 c3 3e 31 3e 9e 3a 1e 3e f5 3e
       0.17324512 0.38177222 0.0012072978 0.47898954
000280 75 75 05 bf 11 a4 9f be 21 41 50 3e dc 83 db 3e
       -0.5213235 -0.3117986 0.20337345 0.42874038
000290 ec 7b e2 bc a1 ff 4b be 0c 48 08 3f 28 ed f3 bd
       -0.027646981 -0.19921733 0.53234935 -0.11910468
0002a0 5e 75 92 3d af 3c 60 bc 16 a1 fe 3e c1 15 02 bb
       0.07151292 -0.013686343 0.49732274 -0.0019849392
0002b0 b3 e9 68 be 7f ae 8a be 61 56 ce 3e b2 ee d5 3e
       -0.22745399 -0.27086255 0.40300277 0.41783673
0002c0 b4 58 87 3e f1 80 9b be 19 7a 24 3e 83 93 f2 bd
       0.26434863 -0.30371812 0.16062202 -0.11844542
0002d0 37 48 53 bd a1 27 23 be 14 3a 8c be a8 0a 1b 3f
       -0.05158254 -0.15933086 -0.2738806 0.60563135
0002e0 0c aa a9 bd d3 42 d7 be aa ed 13 be a5 55 09 3e
       -0.08284387 -0.4204317 -0.1444613 0.13411577
0002f0 67 b7 72 be 5e d3 af bd cb 7a 93 bd ef 30 e9 3c
       -0.23702775 -0.08585237 -0.07201155 0.028465716
000300 b7 e3 f2 bd 9b 9f c7 be ce 41 17 3f 4e 0d 2b 3e
       -0.118598394 -0.38988957 0.59084785 0.16704294
000310 a7 84 9c 3d f5 14 2f 3d e3 6b 28 bd 62 c7 fa 3e
       0.07642489 0.042744596 -0.041118514 0.48980242
000320 6a af 1b be dd c2 8d be 5a f0 33 bd 58 62 98 be
       -0.15203634 -0.2768773 -0.04393039 -0.2976253
000330 0e 8f f2 bd 83 50 6e be a8 48 22 be 1e 89 83 be
       -0.11843692 -0.232729 -0.15848029 -0.2569055
000340 ff e7 a6 be 51 e7 c5 bc 59 2a d1 be 5a 74 ed 3e
       -0.32598874 -0.024158152 -0.4085262 0.46377832
000350 32 6c e0 3d db 4e 00 3e 72 c7 16 3f 80 71 3b be
       0.109581366 0.12530081 0.5889808 -0.18305016
000360 2d db 19 bc 16 b5 5d 3c 0c 51 04 bf 64 11 f0 be
       -0.0093906345 0.013531944 -0.5168617 -0.46888268
000370 b1 a8 82 3e 2f f3 0a be e4 b8 70 be 33 b9 ed 3e
       0.25519326 -0.1356933 -0.2350803 0.46430358
000380 cc 15 a2 3d a4 84 38 be d0 55 d4 bd 01 67 85 be
       0.07914314 -0.18019348 -0.1036793 -0.26055148
000390 7b b1 8d be b3 4f 81 bd 12 a3 16 3f a3 0f ce 3e
       -0.2767447 -0.063140295 0.58842576 0.40246305
0003a0 5b b3 2b 3f e3 e8 b7 be 2f 72 96 be 02 cf 06 3f
       0.6707055 -0.35919866 -0.2938399 0.5265962
0003b0 55 41 af be d7 09 cb bd 4a 12 b5 bd fb a0 15 3f
       -0.34229532 -0.09913986 -0.08841379 0.5844876
0003c0 f6 34 1d be e5 cd fc 3c f8 ea d8 3d 3a ed b0 bc
       -0.15352234 0.030859897 0.10591692 -0.021597493
0003d0 fe 8b 5d be 04 6a 45 3c 1b fd c7 3c f1 c4 99 be
       -0.21635434 0.012049202 0.024412682 -0.30033067
0003e0 6d e4 83 3d 12 cf 34 3d 8d 4a ee bd ce 82 f7 3e
       0.06440053 0.04414279 -0.11635313 0.48341984
0003f0 01 13 fc be fb 90 d9 3e ff a7 aa 3c 05 e5 cc 3e
       -0.4923325 0.42493424 0.02083206 0.40018478

shared.2.weight f4 [256, 256]
000000 75 81 93 bd 69 aa b5 bd 9f 8b e5 bd e6 11 5d bd
       -0.07202426 -0.08870394 -0.11208271 -0.053972147
000010 07 ae 2c bd d0 9f 41 3e 3e 9d dc 3d b3 a2 d0 3d
       -0.042158153 0.1890862 0.10772179 0.101872824
000020 fe 2e 18 be 9d de dc bd 55 48 90 3d ef b2 bf 3d
       -0.14861676 -0.107846476 0.07045046 0.09360301
000030 5b 9f 9b 3d 84 e5 7f 3b 91 9a aa bd f8 4c 45 bc
       0.07598754 0.0039046714 -0.083302625 -0.012042277
000040 49 ae a3 bc 50 0e 3c 3d 66 ec 28 bd 34 a5 76 bd
       -0.019980567 0.045912087 -0.041241072 -0.060216144
000050 5d 9a 98 be 58 ce 5c 3d fe ab 42 3d 97 a5 11 be
       -0.2980527 0.053907722 0.047527306 -0.14223324
000060 ab 5f 02 bd 16 97 4c bd dd ac 4c bd ab 0d 22 be
       -0.031829517 -0.049948774 -0.049969543 -0.15825526
000070 2b 43 6e bd 35 44 87 bc ea 1b 2d be 89 03 8a be
       -0.058169525 -0.016512016 -0.1690518 -0.26955822
000080 bd f2 1e bd df e8 03 bd 28 5f 8f bd 4e de b7 3d
       -0.038805712 -0.032204505 -0.070005715 0.08977948
000090 b2 97 3a bd 87 31 f2 3c 74 cb b9 bd 5d 13 45 be
       -0.045554824 0.029564632 -0.09072009 -0.19245668
0000a0 32 34 74 3d 4b a8 14 3e 4e e0 24 bc 0a 2f 84 bd
       0.05962009 0.14517324 -0.010063244 -0.064542845
0000b0 93 c2 1a 3e d5 01 46 bd 28 af 70 bd bf 79 c4 3d
       0.15113287 -0.04834159 -0.058760792 0.09593534
0000c0 3f 23 83 3d ec ab 52 3d 35 49 17 bd 82 cf b6 bd
       0.06403207 0.05143349 -0.03693505 -0.08926298
0000d0 f0 63 12 3c f6 a0 c4 bc 1f 13 b5 bc 60 e6 20 be
       0.00893496 -0.024002533 -0.022103844 -0.15712881
0000e0 4c 27 38 3d af 79 bb bd 46 33 97 ba 5d 0e 6a 3d
       0.04495935 -0.09154069 -0.0011535666 0.057142604
0000f0 eb 20 a4 3d 13 75 dc bc f2 be 1b 3c b6 97 76 bc
       0.08014091 -0.026911294 0.009505974 -0.015050819
000100 bb 95 e1 bd 6a 34 ec 3c 10 19 0c ba d1 7f 3b bd
       -0.11014887 0.028833587 -0.0005344311 -0.045776192
000110 47 ea 28 3d c7 79 3b be aa 36 08 3e b1 7b 7d 3b
       0.04123905 -0.18308173 0.13302103 0.0038678462
000120 d8 46 69 3c 09 cb ed bd 1e ee 4c be f0 d7 47 bb
       0.014238082 -0.116109915 -0.2001271 -0.00304937
000130 97 86 2d 3a 74 f2 c8 bd f5 86 e2 bd 78 1c 89 bc
       0.0006619482 -0.09811869 -0.11060897 -0.016737208
000140 4b 17 d3 bd 98 30 42 3d d1 1b 85 3d 92 f2 0a bd
       -0.10307177 0.047409624 0.06499446 -0.03392274
000150 48 62 69 3d 63 78 46 3d 60 4b 0e 3d 07 e5 b9 3c
       0.056978494 0.048454653 0.034739852 0.022692217
000160 d7 ac a6 3d ee 7c 36 be 8e 7f 25 3d f4 7f 74 bc
       0.08138435 -0.17821094 0.04040485 -0.0149230845
000170 d2 52 ad bd c3 f0 36 3d fa 57 b4 3d f9 4c b8 bb
       -0.08463062 0.044663202 0.08805843 -0.00562441
000180 9c cb 82 3d 02 10 8a 3c 2d d3 d5 3b 33 20 e2 bc
       0.06386492 0.016853336 0.0065254183 -0.027603244
000190 94 12 8f bc a8 ba f6 3d cf 00 96 bd f2 8f bb bc
       -0.017464913 0.120473206 -0.07324373 -0.022895787
0001a0 88 36 60 3d b1 d2 93 be c6 81 db bd 9e 6e db bd
       0.054739505 -0.28871682 -0.10718112 -0.10714458
0001b0 3b 99 39 3d 9b 04 5f bd 21 1a 0c be cb 9c 9e bd
       0.045312148 -0.05444775 -0.13681842 -0.0774475
0001c0 72 3f b8 3c 04 ae 8a bd 3b fe 3d 3d ef 57 90 bb
       0.02249119 -0.06771472 0.04638503 -0.0044050138
0001d0 fc 3d bd 3c 6f d8 31 be f9 47 30 bd 04 49 d1 bc
       0.023100846 -0.17367719 -0.04303739 -0.025547512
0001e0 86 38 2a be a0 7a cb bd 73 4a 39 bd 7c 42 b9 3d
       -0.16623124 -0.09935498 -0.045237016 0.09045884
0001f0 16 2e 3a 3d 7e 2f 95 be 39 73 0a 3c 3d c4 2d 3d
       0.045454107 -0.29137796 0.008450323 0.042423476
000200 1e 3d 3d bc 9b 02 8f 3d d8 f3 a0 bc fc 8a 85 b9
       -0.011550216 0.06982919 -0.019647524 -0.00025471288
000210 4c 4c 3a 3c e7 9c c3 bd 38 3a 37 3b 81 e4 13 bd
       0.01137073 -0.09551411 0.0027958285 -0.03610659
000220 08 63 0e 3d c4 bd 83 3d 22 aa 58 3d 57 0b 48 bd
       0.034762412 0.06432679 0.052896626 -0.04883894
000230 cc ab 12 3c 6d 0b 3d be 9d 64 c2 bd e7 5c 33 3c
       0.008952092 -0.1846139 -0.09491847 0.010947443
000240 52 f0 68 bd e1 47 33 be aa 58 7a 3d 37 d8 f7 bd
       -0.056869812 -0.17507888 0.061119713 -0.121017866
000250 05 e2 29 b9 39 5d 24 3d a0 cd 1e bd 3c a2 db bd
       -0.00016201295 0.040127967 -0.038770318 -0.10724303
000260 48 36 51 3c d3 ca 68 be f9 cf e1 bc 6c 25 45 bd
       0.012769289 -0.22733621 -0.02756499 -0.04813139
000270 15 c6 1c 3d de f6 f7 bd 5d a9 28 3d 7f 19 6a bc
       0.038274843 -0.12107633 0.041177142 -0.014288305
000280 ff 9e 4a be a0 e8 49 3c 6e a7 d0 3c 58 85 83 3d
       -0.19787215 0.0123235285 0.025470462 0.06421918
000290 92 5f 21 3d dc 1a 51 be a6 1a f4 bd cf 4c 96 3d
       0.039397784 -0.20420402 -0.11919145 0.07338869
0002a0 6c 12 e2 3d 91 66 87 3d d1 d2 31 bd ea aa b3 bc
       0.1103867 0.0661136 -0.04341394 -0.021932084
0002b0 ab 6c 86 be fe 39 2e be 8a b4 d0 bd f3 2b 14 3e
       -0.26254782 -0.1701431 -0.10190685 0.1446989
0002c0 ff 19 b0 3c 0f 0f 34 3d dd ab f5 3c 54 af b3 bd
       0.02149677 0.043959673 0.029989177 -0.087736756
0002d0 5f 46 20 3c 40 bc 7e 3d 81 3a eb 3e 40 f9 b3 3d
       0.009782403 0.062191248 0.45943072 0.08787775
0002e0 71 dc a0 bd ca db be bc ee 5e 6a 3c 3e ec 05 be
       -0.07854546 -0.023298163 0.01430486 -0.130784
0002f0 af a5 0c 3d c5 ef 1a be 28 9f 9c bd 52 11 ff 3d
       0.034337696 -0.15130527 -0.07647544 0.124544755
000300 e8 94 d5 bd d7 f3 40 be 73 9a 3d bd 19 03 3c bd
       -0.10428792 -0.18843018 -0.046289872 -0.04590139
000310 c7 36 95 3d 75 63 65 bd 32 b6 2b bc 30 c8 d2 bd
       0.072858386 -0.056003053 -0.0104804505 -0.10292089
000320 dc b1 92 bb cc 64 80 3c fd 7b 6a be 15 52 7b bd
       -0.004476769 0.015673064 -0.2289886 -0.061357576
000330 52 cf 58 be 76 c0 3f bd 61 79 23 3d 29 13 08 be
       -0.21172836 -0.046814404 0.039910678 -0.13288559
000340 aa ad c8 bd 3a c2 ff 3b a7 9d c9 bd 52 7d e4 bc
       -0.09798749 0.007805136 -0.09844523 -0.027891789
000350 fe 3b f6 ba 8c 7a f6 bc cd 96 5d bc 60 65 84 bc
       -0.001878619 -0.030087732 -0.013524723 -0.01616162
000360 d2 c1 dd 3c 8f bc 3d 3d 79 1d 67 bd 3c ed 0b be
       0.02706996 0.0463224 -0.05642459 -0.13664716
000370 44 ee 60 3d 10 3e bc ba eb 74 88 3d a4 df f0 bc
       0.054914728 -0.0014361758 0.06662925 -0.029403515
000380 87 c6 3a 3d 7e d4 68 3c fa a0 bf bc e7 7d 23 be
       0.045599487 0.014210818 -0.02339219 -0.15965997
000390 10 a8 fd bd d4 f8 10 bb 49 09 8a 3c eb 96 81 bd
       -0.12385571 -0.002212097 0.01685013 -0.063276134
0003a0 52 19 22 3c b3 0b 79 be 92 f1 9d bd 59 a8 09 bd
       0.009893732 -0.24320869 -0.077120915 -0.033607814
0003b0 82 75 17 be 6f a5 b9 be 6b f7 01 3d 59 b8 08 bd
       -0.1479092 -0.36259028 0.031730097 -0.033378933
0003c0 d8 cc 8c be 6c 47 06 3d ec ff 53 3d 65 3f fd bc
       -0.27500033 0.032782957 0.051757738 -0.030914018
0003d0 92 1d 88 3d ee 94 2d 3c 67 dc 8f 3c c6 34 78 ba
       0.06646265 0.01059459 0.01756115 -0.0009468313
0003e0 4f e8 fc 3c 9e e5 15 3d 48 28 ec bd 91 93 78 bd
       0.030872492 0.036595933 -0.115311205 -0.060687605
0003f0 3b 2b 21 be b6 ae c7 bd 81 d3 79 3d 33 7e d9 3a
       -0.15739147 -0.0975012 0.06099272 0.0016593396

shared.2.bias f4 [256]
000000 6f 69 3d 3d 1b 4a 85 3e 06 8e 4e bd 68 bb 36 3e
       0.046243127 0.260331 -0.050428413 0.17844927
000010 c8 b7 98 3c 7b d7 ab bc b1 88 8b be af ca 07 be
       0.018642321 -0.020976773 -0.27252725 -0.13260911
000020 2f 22 e5 3c db 00 22 3d 18 4a e5 3d 15 45 8f 3c
       0.027970402 0.039551597 0.11195773 0.017488996
000030 7e e0 88 3c cb 40 16 bd 7d e9 02 3e cf 4f 6e 3d
       0.016708609 -0.036682885 0.12784381 0.05818158
000040 1c 1c 00 39 a3 00 61 3d cd f6 c0 bc 7d 93 f4 39
       0.00012217503 0.054932248 -0.023555184 0.00046649194
000050 80 8e a1 3d be e7 f9 3c 4e 41 35 3b 30 fb 91 3c
       0.07888508 0.030506011 0.0027657333 0.01781997
000060 86 84 c7 3c b1 bc 5e 3e 0d 57 1c 3c 3f 31 4e bd
       0.024355184 0.21751668 0.009542239 -0.050339933
000070 8b 1d 3c 3e 64 f7 d9 bc 67 12 73 3e 6a 1a fc 3c
       0.18370645 -0.026607223 0.23737489 0.030774314
000080 cf f8 50 be 2d c3 0d 3d 5d ac 22 3e 2f 17 d1 bd
       -0.20407413 0.034609962 0.15886064 -0.102095
000090 a0 a6 ea 3c 27 ab f0 bc c5 98 04 3d 39 b6 f1 3d
       0.028643906 -0.029378487 0.032372255 0.11802334
0000a0 81 c4 cb bc 82 4d 88 3e e1 92 44 3d 23 d7 19 3e
       -0.024873974 0.26621634 0.047991637 0.15023474
0000b0 76 a9 b3 bd ec 56 4b bd c4 8d 0b bc 04 50 58 3d
       -0.087725565 -0.049643442 -0.008517686 0.052810684
0000c0 88 d2 a4 3d f6 5b d4 bc 3c 01 41 3c af c9 58 bd
       0.08047968 -0.025922757 0.011780079 -0.052926715
0000d0 68 95 90 3a 74 a7 6f 3e 8e 86 8c 3d 49 1e 65 3d
       0.0011030855 0.23403722 0.06861602 0.055937085
0000e0 e7 8a 0f 3e f9 dd 48 3e e5 89 09 3e e8 ea 90 3d
       0.14017831 0.19615926 0.13431509 0.07076055
0000f0 2a 90 17 bd 78 ba f3 3d 20 93 b6 3d 30 14 5f 3d
       -0.03700272 0.119008005 0.089147806 0.05446261
000100 00 1b cb 3c 9c fe d5 bd 8c 2e 8b bc 67 ee 14 bd
       0.024793148 -0.104489535 -0.016989969 -0.03636017
000110 4e a8 36 3e 99 28 e7 3c f2 e4 a0 bd 92 ef 8e 3e
       0.1783764 0.0282176 -0.07856168 0.27917153
000120 44 c9 08 3e 3f a3 bd ba 9c 1b 0d 3e 05 d4 79 bb
       0.13358027 -0.0014468207 0.13780063 -0.0038120758
000130 8f 95 ee 3d f8 ca b6 bc a3 03 88 bc 04 06 29 3e
       0.1164962 -0.02231358 -0.016603297 0.16506201
000140 c1 6f b1 3d 05 fe 05 be 83 fd 09 bd e7 b3 8c bc
       0.086638935 -0.13085182 -0.033689033 -0.017175628
000150 84 68 44 be 05 b5 40 3d 22 3f 96 3d 79 19 28 bc
       -0.19180495 0.047047634 0.073362604 -0.010259979
000160 c4 e1 00 3d 05 dc 59 3d 4b 62 7a 3e b4 25 8d 3e
       0.031465307 0.053188343 0.24451558 0.27567828
000170 0d 59 57 bc 4c 4c 0a 3e c5 89 ff 3d 7d 15 24 bd
       -0.01314379 0.13505667 0.12477449 -0.040059555
000180 12 f1 b5 bb b6 63 9c 3b d2 da 0e bc 5b 73 04 be
       -0.0055524195 0.0047726287 -0.008719163 -0.1293463
000190 e6 03 02 bd 38 cd 7a 3e 35 ae a1 be 11 33 69 bd
       -0.031742 0.24492347 -0.31578222 -0.056933466
0001a0 a4 d7 08 3d a1 30 f9 bb 96 27 36 be 14 7b 6c 3e
       0.033408776 -0.007604674 -0.17788538 0.23093826
0001b0 f3 52 9e bc f1 50 1d bc 4e 65 38 bd 54 1b ec bc
       -0.019326663 -0.0096018175 -0.045018487 -0.028821625
0001c0 6f 23 2e bd 30 4e dd 3d 8d bd c3 3c 64 49 4e 3e
       -0.04251426 0.10805929 0.023894096 0.20145184
0001d0 94 58 9b bd d3 09 96 3e 52 54 b1 3d 4d 0c f8 bb
       -0.07585254 0.2930437 0.08658661 -0.0075698257
0001e0 2a c8 54 3d de d0 94 3e 94 bd 46 bc ab 26 a1 bc
       0.051948704 0.29065603 -0.01213016 -0.019671759
0001f0 58 ac 44 3d c7 ba e7 bd 04 4d a7 3d 9c 13 3b 3d
       0.048015922 -0.11314922 0.081689864 0.045672998
000200 39 44 3d 3e 6e 16 48 3e 81 1b 51 bd 26 dc 1f bd
       0.18483056 0.19539806 -0.05105162 -0.03902831
000210 0b 33 54 bd c3 e7 01 be b4 2a c3 bc fc a5 d4 3a
       -0.05180649 -0.12686066 -0.023824073 0.0016223784
000220 bb 2a 02 bd 0c 0d 88 3e d4 1c 0b 3d ae c5 a5 3d
       -0.031779032 0.26572454 0.03396304 0.08094345
000230 2f 72 3e be 43 ac 61 bd 6b 5f 66 bd 6b 93 1c 3d
       -0.18598245 -0.055095922 -0.05624334 0.038226526
000240 75 67 57 bd 9a 1d 36 3e 43 60 53 bd c9 51 17 3e
       -0.0525889 0.1778473 -0.051605474 0.14777292
000250 27 60 a4 bd 30 c3 19 be 7a 3e 68 3d 5e be 0d 3d
       -0.08026152 -0.15015864 0.056700207 0.034605376
000260 d9 91 1c 3c fc c3 96 3e 18 c7 bd 3d c6 e9 8d bd
       0.009556257 0.294464 0.0926649 -0.06929354
000270 56 4d 7d be 3e e8 0f 3c 6c b8 3c bc e3 b6 ef bb
       -0.24736533 0.008783398 -0.011518579 -0.007315503
000280 ab 39 6c 3d 4b 5e 25 3e ff f7 2b 3c 09 e0 8d 3d
       0.057672184 0.16149251 0.010496139 0.06927497
000290 6f 60 f3 3d b6 7d 9c bc ef 91 2f be 5c f1 8b 3a
       0.118836276 -0.019102912 -0.17145513 0.0010676789
0002a0 bd 1b 0f be 88 d0 ba 3d 1f e2 4b bc 80 c8 91 bd
       -0.13975425 0.091218054 -0.012444048 -0.071183205
0002b0 80 05 a2 bd ba 4f 10 3e 84 f1 f7 3c fa 74 78 bd
       -0.07911205 0.14092913 0.03026653 -0.060658433
0002c0 51 38 76 3d f6 0e 5c bc 23 f8 5b 3e f7 26 6e 3b
       0.0601123 -0.013431301 0.21481375 0.0036339143
0002d0 cf 03 9f 3d 87 9f ec 3d d7 de f5 3d c3 75 ee 3d
       0.07764398 0.11553865 0.12005394 0.11643555
0002e0 7b e5 b3 3d 63 99 80 3b c9 17 43 3e d6 5b 94 bc
       0.08784004 0.003924535 0.19052042 -0.018110197
0002f0 f5 46 ce bc 68 bf 00 3d 06 22 6e 3e 50 a7 4a bd
       -0.02518032 0.03143254 0.23255166 -0.049475968
000300 0f 65 d4 bc 09 02 7b 3e a1 f5 6a bd 15 21 fb 3a
       -0.025927095 0.24512495 -0.057363156 0.001915964
000310 c3 5a 8a 3d a4 0c ca 3c ab 71 95 3c a6 e2 19 3d
       0.06755593 0.02466423 0.018242678 0.037569664
000320 9c 42 27 bd ab ec 70 3e 9f c5 bb 3c 43 31 75 3d
       -0.040835008 0.23527782 0.022921382 0.059861433
000330 ef 05 9f 3d c5 56 a0 3c 47 11 f2 3d f7 ca 86 3c
       0.077648036 0.019572625 0.11819702 0.016454203
000340 2f f8 0a bd d2 60 a8 3d 20 61 fb 3d 80 2b 5b bb
       -0.033928093 0.08221592 0.122743845 -0.0033442676
000350 04 9c 0f 3e 58 aa ff bc 90 cd 86 3d 6f 8c 6c 3c
       0.14024359 -0.031209156 0.06582177 0.014437779
000360 a7 e2 36 bd 2e 0b 90 bc 81 a2 f0 3d 28 93 95 3e
       -0.044649746 -0.017583456 0.11749745 0.29213834
000370 9a 9f 6a 3d 73 1a 31 3e 68 0b 89 3e b0 f0 57 3d
       0.057281114 0.17295246 0.26766515 0.05271977
000380 37 3f f8 3c 8b ee 91 3c f9 88 8e 3d dd 54 68 3e
       0.03030358 0.017813941 0.06959719 0.22688623
000390 90 0b 67 3d 72 31 d9 bd e8 ae c2 bc 44 2e 8a 3b
       0.05640751 -0.10605134 -0.023765042 0.004216941
0003a0 2d e2 a7 bc 4c 52 75 3d d7 fb 71 bc e1 55 10 be
       -0.020493591 0.059892938 -0.014769516 -0.1409526
0003b0 51 54 9d 3c cc 36 97 3c 9b ae 14 3e b4 9b 44 be
       0.019205244 0.018458746 0.14519732 -0.19200021
0003c0 fe e1 70 3a 98 7f e4 bc 6c 60 52 be 17 e1 1c be
       0.0009188949 -0.027892873 -0.20544595 -0.1532024
0003d0 ef 08 27 3c 00 e0 02 be 57 b1 35 3d cf 12 0e be
       0.010195001 -0.12780762 0.044358578 -0.13874362
0003e0 fb 3d 9e bc 81 2d aa 3c 5a 84 14 3d a8 17 f8 bc
       -0.019316664 0.020773651 0.036259033 -0.030284718
0003f0 f3 f2 9e 3c e4 fb a3 3c 09 18 ce bc 98 1a 02 bd
       0.019402957 0.020017572 -0.025157945 -0.031763643

actor.weight f4 [3, 256]
000000 a5 f8 1f 3e c9 42 2e bd 9b a6 82 bc 21 e3 6f bb
       0.15622194 -0.04254416 -0.015948584 -0.0036603885
000010 22 d5 49 be 2d e6 9b bd 0c 34 51 bd 8e 37 db bc
       -0.1971021 -0.07612262 -0.051075026 -0.026759889
000020 69 6d 0c 3d 03 d4 5f 3d 17 6c 62 3e 10 2f 89 bc
       0.03428403 0.05464555 0.22111546 -0.016746074
000030 5b 30 0b 3e ba cc 6b bc c3 42 2b 3e 2c 9a 13 bc
       0.13592665 -0.014392072 0.16724686 -0.009008925
000040 32 9a 0b 3e 4e 2d ca 3c a5 a2 23 3c fa 3e 99 3d
       0.1363304 0.024679806 0.009987508 0.07482715
000050 75 ad e5 3d fc ec 8a 3d c4 09 41 be c8 02 bc bc
       0.11214725 0.067834824 -0.18851382 -0.022950545
000060 29 74 a0 bb ee a6 64 3d b7 c5 1f 3d 8c 71 22 3d
       -0.00489666 0.05582326 0.039006915 0.039659068
000070 f7 0a 28 be b8 c6 3b 3c 67 f5 62 be 5f dc af bb
       -0.16410433 0.011460952 -0.22163926 -0.0053668465
000080 1a b9 8f 3d 4a 02 01 3c 63 30 bd 3e 53 06 61 bc
       0.07017727 0.007874081 0.3695098 -0.013734418
000090 ce 6c 03 3e 63 bd 8e bd 0a ea 3a be 81 59 4d bd
       0.12834474 -0.069697164 -0.18253341 -0.050134186
0000a0 7a 57 33 3d 21 8b c3 3d ec a1 ff 3b 6c 40 9f 3d
       0.043784596 0.09548021 0.007801285 0.07775959
0000b0 ca c9 0e bb 3d c3 59 bb 02 87 c1 3d dc 9e 53 3e
       -0.0021787756 -0.0033227943 0.09449579 0.20666069
0000c0 6c cc f1 3d 75 95 93 3c 32 68 ec bd f3 da 84 bd
       0.118065685 0.018015603 -0.11543311 -0.06487074
0000d0 80 08 02 3d 4c 9e 7f 3e e0 51 9c 3e 92 d3 ba 3d
       0.031746387 0.24962729 0.30531216 0.09122385
0000e0 6a 57 01 3d 04 0f ad 3e dd e4 6e 3e ec 5b 04 bc
       0.031577505 0.3380052 0.23329492 -0.0080785565
0000f0 41 57 6f bc a3 a7 39 3e 95 9d c3 bd 39 68 a8 bd
       -0.014608205 0.18130355 -0.09551541 -0.08223004
000100 37 06 e3 be f3 bd 6d bc aa cf 08 3d 69 43 93 bc
       -0.4434068 -0.014510619 0.03340117 -0.01797648
000110 b5 f2 51 3e 4a c1 a7 bb 99 65 91 3d e6 d7 8a 3e
       0.20502742 -0.0051194774 0.07099456 0.27117842
000120 09 a8 69 3d 7f 28 28 be 30 63 91 be 70 43 13 3d
       0.057045016 -0.16421698 -0.28395987 0.035952985
000130 31 ef 14 bd dd c2 77 3b 61 77 b9 3c 8d d0 4d 3e
       -0.036360923 0.0037805357 0.022639932 0.20099087
000140 00 1c b3 3d d0 4d a7 3b 9a 70 04 bd ea 19 37 3d
       0.08745575 0.0051057115 -0.032333948 0.044702448
000150 b7 0c b9 3b 00 49 51 3e 73 7c 11 3e 10 45 4c 3d
       0.0056472677 0.20438004 0.1420763 0.04987055
000160 ab 85 22 bd 06 aa 51 3e 1c 81 71 bd 0f 81 1c 3e
       -0.039678257 0.20475015 -0.05896102 0.15283607
000170 1a 42 b7 3c 9c 4b 87 3d d5 f1 d6 3d 1e b3 84 3c
       0.022370387 0.06606218 0.104953445 0.016198691
000180 39 49 dc 3c e4 a7 8f bc c8 fc 7b 3d bb 78 6c 3d
       0.026890384 -0.017536111 0.061520368 0.057732325
000190 46 5a c7 3d dc 21 a9 3d 6a 57 85 bc e9 06 5f 3d
       0.09734015 0.08258411 -0.016277034 0.05444995
0001a0 1c 93 95 bd 6a a9 39 3d ab 22 ed bc c1 f8 90 be
       -0.073034495 0.04532758 -0.028947195 -0.28314784
0001b0 a3 be 8b be c3 9b ca bb 2e 63 be 3d 9d 4d 48 3d
       -0.27293882 -0.006183119 0.09296261 0.048902143
0001c0 5e 2a c1 3d 82 3e 90 3d 73 ba 55 3e 03 35 18 bd
       0.09431909 0.070431724 0.20871906 -0.03715993
0001d0 35 ff 00 3e 11 7b 3d 3d ec a0 f9 3d f5 1d ff bd
       0.12597354 0.046259943 0.121888965 -0.12456886
0001e0 63 57 1c 3d 02 40 c5 3d 78 0f 48 3c ad 8b ee bb
       0.038169276 0.09631349 0.012210719 -0.0072798342
0001f0 32 21 53 3d a0 ac ee bc 87 68 c2 bd a9 52 90 3d
       0.05154533 -0.029135048 -0.09492593 0.07047016
000200 1b 2d 8d bc 7a 1e c6 3d 5d 7f 92 bc b7 92 38 3d
       -0.017233422 0.09673782 -0.017882997 0.045061793
000210 fa 70 5e bd 55 1a ea 3c 02 9d 09 3d 32 d7 b3 bc
       -0.05430696 0.02857701 0.033597 -0.021953199
000220 dd 83 21 3e 6c b1 10 bf 80 de cf bd 5f ad 27 bd
       0.15772958 -0.56520724 -0.101498604 -0.040936824
000230 b0 c7 bd 3d 90 16 57 bd aa 68 00 bd 01 81 bb 3d
       0.09266603 -0.05251175 -0.031349815 0.09155465
000240 1b c6 12 3c e7 30 8d 3e ce e5 df 3c cb 14 6e 3e
       0.008958365 0.27576372 0.02733126 0.2325012
000250 bf df b7 3c 16 28 9a 3b 68 b8 c6 3b ca 1a c2 3b
       0.022445558 0.0047044856 0.0060644634 0.0059236037
000260 1c ec 9b 3d ed 0e e8 bd 12 d6 c7 bd b2 d9 70 3d
       0.07613394 -0.11330972 -0.097576275 0.05880136
000270 3a 1f 23 3d 22 63 be bc 25 28 67 3c df 15 21 3c
       0.0398247 -0.02324063 0.014108692 0.009831875
000280 b0 e2 ea 3c ca 9a ab 3d 79 7d 59 bd 84 cd 3d 3d
       0.028672546 0.08379133 -0.053098176 0.046338573
000290 94 da de 3d 65 14 6b 3d e4 1d 74 bd 5d 54 97 3c
       0.10881534 0.057392497 -0.05959882 0.018472845
0002a0 7b cb f4 3d a1 b5 0b 3d 7c a8 8e 3d a6 33 04 bb
       0.11952873 0.03410876 0.069657296 -0.0020172386
0002b0 5e 84 a6 3c 0b a8 ed 3d 0b 3c 85 bc d0 08 fa 3b
       0.02032679 0.11604317 -0.016263982 0.007630445
0002c0 a8 0f 8a bd ed c3 00 3e e5 9b 80 3e 7b 77 00 bd
       -0.067412674 0.1257474 0.25118938 -0.031363945
0002d0 4b a3 2b 3c 46 69 b8 bc b3 4d 5f 3d b7 03 1a 3e
       0.010475944 -0.022511136 0.05451746 0.1504048
0002e0 83 e9 85 bc cb 41 e8 bd 8e 95 af bd b5 c8 57 3d
       -0.016346699 -0.11340674 -0.08573447 0.052681644
0002f0 73 31 77 3d 3b ec aa 3b 32 d0 7b 3e d0 6f f1 bc
       0.060349893 0.005216149 0.24591139 -0.029472262
000300 ce 04 a7 3c d3 77 1d 3d 46 35 a1 3c be d6 22 bd
       0.020388033 0.03844435 0.019678723 -0.039755575
000310 9b dc e1 bd 36 ee 65 39 1b 9d 39 bc 98 02 d2 3c
       -0.11028405 0.00021927882 -0.011328961 0.025636002
000320 07 75 cf 3b a1 77 f5 3c 11 56 2b 3e 81 58 a7 bd
       0.0063310894 0.02996427 0.1673205 -0.08171178
000330 d3 e2 52 bd f6 88 6c 3d d5 53 9a 3e e0 a7 9e bd
       -0.051485848 0.057747804 0.30142084 -0.07746863
000340 0a 8a 8c 3d 55 61 95 3d 9b df f2 3d e7 7a e7 3d
       0.06862266 0.07293955 0.118590556 0.11302739
000350 a8 10 f4 3b 7a 70 f0 3d e5 db 2a bd 02 32 27 bd
       0.0074482746 0.11740203 -0.041713614 -0.040819176
000360 6b 0f 01 3d ab eb ba bc a0 9e 87 3e b5 3a eb be
       0.031508844 -0.022817453 0.2648821 -0.45943227
000370 e6 20 4c 3e 15 d5 3e be f2 0c 9a 3d 1c 01 cc bc
       0.19934425 -0.18635972 0.07522 -0.024902873
000380 3c 62 23 3e 11 2e e2 bd d2 8e c4 3d a0 51 2a 3d
       0.15955442 -0.11043943 0.09597553 0.04158175
000390 fb 8a 7b bd 65 3d 88 3d 3d 0b 03 3e 37 b3 00 be
       -0.06141184 0.06652335 0.12797256 -0.12568365
0003a0 55 63 db 3d 54 e7 9f bc bc 62 56 bd 7f 54 cd 3c
       0.107123055 -0.019519486 -0.052340254 0.025064705
0003b0 92 0f a3 bb aa e9 c7 3c f0 84 a5 be 7d e1 07 3e
       -0.0049762214 0.024403412 -0.32327986 0.1326961
0003c0 ea 5f 48 3d 37 b6 72 bd 67 06 81 3d e0 be 96 3a
       0.048919596 -0.059255805 0.06300049 0.0011500977
0003d0 02 ad dc bc a2 0a 54 3e d5 0c 11 3c 57 41 8e 3d
       -0.026937965 0.20707181 0.008853157 0.06946056
0003e0 56 b3 b2 bd eb 23 30 3e 8a 89 b3 bd 59 3b 8f be
       -0.08725612 0.17201202 -0.08766468 -0.27974966
0003f0 ad eb 7e bd 68 d6 0c 3e 7d 86 e0 3c 5b 9b 17 3c
       -0.062236477 0.13753664 0.027407879 0.009253348

actor.bias f4 [3]
000000 a6 0f 5f 3d 4a ce 7d bb 07 9e 96 3c
       0.054458283 -0.0038727694 0.0183859

critic.weight f4 [1, 256]
000000 2c d6 9e bd c4 c5 c7 3d 5a 02 88 be 91 2a a2 3d
       -0.07755694 0.09754518 -0.26564294 0.07918275
000010 ae 43 bb 3b a5 ed d1 bc d6 37 1e 3d 73 ad 17 bf
       0.005714855 -0.025626013 0.038627468 -0.5924904
000020 11 27 2a 3d 63 16 e5 be 1c d7 96 be 5b 01 d4 3c
       0.041541163 -0.44743642 -0.2946099 0.025879553
000030 c9 86 e1 bb b1 bf 03 bf 8f 5e d5 3d a0 f9 05 bb
       -0.0068825227 -0.5146437 0.10418426 -0.0020442978
000040 29 43 4b be 7b c4 d5 be 3a 77 d0 ba 50 ba 6c bd
       -0.19849838 -0.41751465 -0.0015904673 -0.05779487
000050 f8 23 bc be fd 19 d6 bd 78 80 e8 3e 50 08 ad 3c
       -0.36746192 -0.104541756 0.45410514 0.021122128
000060 1c b3 df 3b 34 c9 89 3e 22 fb 25 3d fe d2 86 3e
       0.0068267714 0.26911318 0.040522702 0.2633285
000070 81 b8 41 3e ee c7 12 3d bb 47 1a 3e d4 d6 58 3d
       0.18918039 0.0358352 0.15066426 0.05293925
000080 c3 1b a0 3b 52 15 8f 3d 39 30 65 be 52 e7 d4 be
       0.004886122 0.069864884 -0.22381677 -0.41582733
000090 74 a2 03 3d 74 79 16 bf 4f 89 8c be df 93 4f 3d
       0.03213735 -0.5877907 -0.27448508 0.05067813
0000a0 1f f4 0f 3d 20 b5 24 3e 18 6d 43 3c 58 f3 3c 3d
       0.03514492 0.16084719 0.011927865 0.04613051
0000b0 50 02 fc 3c d7 af c0 bc f3 f0 25 be f4 89 e4 3e
       0.030762821 -0.023521347 -0.16205196 0.446365
0000c0 8c 8b d5 bd b4 90 db bc fd 8d 90 be 73 39 9b 3c
       -0.10427007 -0.026802398 -0.28233328 0.018948292
0000d0 2f d8 1c 3d 92 4a 4b 3e 1e c6 ea bd 29 e3 a3 bb
       0.038292106 0.19852665 -0.11463569 -0.005001445
0000e0 e8 ea d9 bd 7a 1a 25 3e 2b 31 81 bd 5e d5 0f bd
       -0.10640508 0.16123381 -0.06308206 -0.035115592
0000f0 7f d6 bb bd d8 9c 00 bd 8b 7c 74 ba 62 28 b2 3d
       -0.09171771 -0.031399578 -0.00093264197 0.08699109
000100 70 3d c8 3e a7 76 24 bf 90 f3 fb be b1 9f b5 be
       0.39109373 -0.6424355 -0.4920926 -0.35473397
000110 eb 22 9a be 13 5f 40 3d 09 7e 15 bf bd 9b 2b 3e
       -0.30104765 0.04696567 -0.5839544 0.16758628
000120 3c 8f c2 bd 44 b4 a6 3d 76 c1 99 bd aa 01 b2 bc
       -0.09499976 0.08139852 -0.07507603 -0.02172931
000130 e6 74 07 be 77 a5 1b 3d cc 79 1f 3d 54 fc 9d 3e
       -0.13228187 0.037999596 0.038934514 0.30856574
000140 43 ec 8b bd d7 a3 8d 3d b8 9a 53 3d 18 5a 1d 3d
       -0.06832173 0.069160156 0.051661223 0.038416
000150 8d f0 83 3d 88 c9 56 be 5e c0 0d bd 67 49 29 3d
       0.06442366 -0.20975316 -0.034607284 0.041329768
000160 ae 48 1b 3d 1a e8 3f bd c7 bf 00 3e 4b 08 ab 3d
       0.03791111 -0.04685221 0.12573157 0.08351191
000170 72 25 cb 3c 8b 79 30 be 48 eb ef bd af a6 5d bc
       0.024798129 -0.17233865 -0.11714798 -0.01352851
000180 9c 71 be 3c 32 9f b9 3c bf 8a 6d 3d a2 03 15 bf
       0.023247533 0.022658918 0.057993647 -0.5820867
000190 28 e0 5f bd c0 ba 0e 3e 8b 5c aa bb 00 03 38 3d
       -0.05465713 0.13938427 -0.0051990203 0.044924736
0001a0 6f bc a2 3b 6d dc 90 3c 31 a5 9c 3b 24 03 60 3e
       0.0049663107 0.017683232 0.0047804345 0.21876198
0001b0 1b 3a a2 3e 06 84 1a 3d 89 68 90 be 7d 29 dc 3c
       0.31684956 0.037723564 -0.28204754 0.026875252
0001c0 d2 18 76 3b 29 c5 b2 3d 44 b9 95 bd 9e 9c 73 3d
       0.0037551415 0.087290116 -0.07310727 0.059475534
0001d0 8b 11 49 3e e2 49 64 3e 1b b3 1e be d7 39 79 3d
       0.19635598 0.22293809 -0.15498011 0.060846176
0001e0 82 c3 c5 bd 80 33 1e 3e 76 04 79 3c 30 f0 ae bc
       -0.09656431 0.15449333 0.0151988175 -0.021354765
0001f0 88 3f 01 bc 17 12 2f bf 62 b0 49 bb 76 73 4f bd
       -0.007888682 -0.6838698 -0.0030775298 -0.05064722
000200 99 1b 32 3e 52 d0 8e be b0 73 f6 be 58 d0 a6 39
       0.1739334 -0.2789331 -0.48135138 0.00031817215
000210 b5 bc 10 3d 4b 26 60 3d d9 d5 dd 3c ff 6a c2 3b
       0.035336215 0.05472402 0.02707951 0.005933165
000220 16 94 83 be 8d 95 09 3f 41 c5 04 3c a3 77 a7 bd
       -0.25698918 0.5374382 0.00810367 -0.08177116
000230 dd f6 79 3d d2 9f 5f 3d 46 87 fd be 4d e8 3a 3c
       0.061026443 0.054595776 -0.49517268 0.011407924
000240 c7 0c 27 3d fe 61 02 be 97 67 18 3d 2a d4 01 be
       0.04078367 -0.12732694 0.037208166 -0.1267859
000250 74 12 d7 3b 90 36 29 bf f7 8a b3 bd 37 1d 9b bc
       0.006563479 -0.6609888 -0.0876674 -0.01893483
000260 c6 40 10 be 15 83 4e 3e 44 52 e4 3c fd 12 a7 be
       -0.14087209 0.20167191 0.027871259 -0.32631674
000270 7b 99 b6 3d 3b f8 c0 3c d0 37 1a 3d ab 16 bd bc
       0.08915993 0.023555866 0.037650883 -0.023082098
000280 0a 2f dd bc df 09 d5 3d 0c b3 c1 bb 1c 49 bb 3d
       -0.026999969 0.104022734 -0.0059112366 0.09144804
000290 a4 5b 44 be d6 11 36 bf 48 20 b7 3d 60 fd 4f 3d
       -0.19175583 -0.71120965 0.08941704 0.050778747
0002a0 f5 6c 43 3d 45 f1 83 3b 31 af d9 be 0b dc 4e bc
       0.04771133 0.0040265643 -0.42516473 -0.0126257045
0002b0 82 44 06 bf d5 07 58 be f4 45 7a 3b 57 34 98 3b
       -0.52448285 -0.21096738 0.0038188668 0.0046449113
0002c0 be ee 07 bd a6 e9 2b bc d3 3a 8c 3e 24 2c f2 bc
       -0.033186667 -0.010492718 0.2738863 -0.029562064
0002d0 d6 be 3c bc 94 79 81 bd 45 84 76 3d a3 97 5d be
       -0.011520108 -0.06322017 0.060184736 -0.21639876
0002e0 cd fd 57 3d c7 74 b9 bb fd 99 90 3e e7 4e f3 3b
       0.052732278 -0.005659673 0.28242484 0.0074251774
0002f0 0d 22 00 3d 2e 5d 98 3b 8c e2 50 3e c8 cd 43 3d
       0.031282473 0.0046497798 0.20398921 0.04780367
000300 35 ea 4f 3d 9d 38 5d 3e a9 78 1d bf 89 9d 61 be
       0.050760467 0.21603628 -0.6151224 -0.22032751
000310 6c 07 c8 bd fb 34 8f bc ea 3a 14 3b d3 dd 30 3d
       -0.097670406 -0.017481318 0.0022618123 0.043180298
000320 07 88 b9 3c a4 96 d2 3d ee a8 9d bd 2f 49 13 bd
       0.02264787 0.10282639 -0.076982364 -0.035958465
000330 fc df d0 bc e5 6b f9 be 46 06 f0 bd 1e a6 33 be
       -0.02549743 -0.4871513 -0.117199466 -0.17543837
000340 d4 df 03 bf 07 e4 e4 bd 1e 4b 97 bd 25 c0 f5 bb
       -0.5151341 -0.11176305 -0.07387374 -0.007499712
000350 b4 63 a6 3d b8 77 2a bd 18 07 31 bd ad 27 4b 3d
       0.081244856 -0.04161808 -0.043219656 0.049598385
000360 d6 f7 d5 bc 6e 63 df be 18 ef da bd 40 62 dd 3e
       -0.026119154 -0.43630546 -0.10690135 0.4323902
000370 00 84 42 bb 0f 12 07 3e 09 7a 74 3e 79 58 1f 3c
       -0.002968073 0.13190483 0.23874678 0.009725683
000380 bf c3 f7 3b af cc 9f bd e0 bd 92 3d c3 58 fc 3d
       0.0075611765 -0.07802712 0.07165122 0.123216175
000390 09 37 70 bc 43 0c 25 bf 25 49 90 bb bd 7c 91 39
       -0.014661559 -0.64471835 -0.0044032508 0.00027749492
0003a0 97 da cf be ae 24 b2 be fb 05 87 3e 74 d9 98 bd
       -0.40596458 -0.3479361 0.2637175 -0.07463351
0003b0 50 c7 d8 3c 6d fa 8f 3c 6f 87 0d 3e 04 c1 13 3d
       0.026462227 0.017575467 0.13821195 0.036072746
0003c0 06 f2 5c 3d 9b 22 2b be cb 2c 0d 3d b8 35 b5 3d
       0.05394175 -0.1671242 0.034466546 0.08848137
0003d0 7a b2 f8 3c 36 aa f7 3b cb 84 2f 39 bb 46 34 bf
       0.030358542 0.0075581325 0.0001673877 -0.70420426
0003e0 ef d5 39 bc 32 a1 6e 3b c7 8d 0a bc 8c 88 89 3e
       -0.01134251 0.0036411998 -0.008456654 0.2686199
0003f0 1f cc 17 bd 0f 78 03 3c d8 1d 05 bf 32 7f 21 3d
       -0.0370599 0.00802423 -0.5199866 0.039427944
