Experimenten/Experiment1Snake/PPO/ppo_snake_8400.pth (torch, 280852 bytes, 7 tensors)

shared.0.weight f4 [256, 9]
00000000: ad5d 033e b7c4 8cbd d519 b33e 57b0 9dbe
00000010: ba53 c93b 4be4 b53c 84c0 163f 3279 093f
00000020: 1b38 57bd 4eac febe 46e9 9c3e 51ec 1b3e
00000030: 5734 e0be 2b92 ae3b 1df4 89be 78b7 b73e
00000040: b707 39be c920 37be c8bf 983a eba4 353e
00000050: f4a1 c63e 9bf1 93be 0c23 103d 2426 53be
00000060: 18bf 6d3c b1a3 723e bf10 00bf 792a b0be
00000070: f240 05be eefe 4f3e 3f2d ebbe 2065 54be
00000080: 1b9d 683e 86fd 9e3e 28d3 b73e ad47 983e
00000090: 3324 66be d409 82bd b14b cfbe 96f4 a0be
000000a0: b696 a0be f016 1bbe e280 1ebe 9c61 40be
000000b0: a28f 673e e862 b83e 2d57 643e e315 9d3e
000000c0: 1cc3 b8be 85c5 d4ba 795f 333c 3650 86bd
000000d0: 3958 ed3e aee6 0a3e e372 87be b44d aebe
000000e0: 970f 943e 398a c03e fd87 0d3b 42fd e73c
000000f0: 7e21 1e3e b925 983e 5604 123f f2e1 4b3e
00000100: eaf4 2a3d f05e 1fbb e07d 073e 95af 26bb
00000110: 2dd6 273c 8832 1cbf e62f 8c3e c532 24bf
00000120: da00 08bf 08e8 9ebe 46ac c13e 9b7e 8bbc
00000130: ba68 06bd b069 ab3a df33 d33d 1f40 953e
00000140: 3094 4dbf 91a3 743d 4702 d53d b162 0b3f
00000150: 95ed 91be 4e63 073d b18e cabd eea3 10be
00000160: fb58 ae3e 5e9a 4bbf fabf 98be f6bf 533e
00000170: 4644 533e eb56 03bf 7a29 2cbe 6a95 54bd
00000180: 9449 c03d 37af a43e 9de3 563f 2311 343e
00000190: d43d 12be 94c9 b8be 17a2 6ebe 363f 7b3b
000001a0: 07bc 1cbe e1b0 c8bd 2958 933d a8a4 8b3f
000001b0: 7ca9 453d 9160 9b3e 0780 b1bc 75cd 963e
000001c0: c267 213d efa9 68bb d319 ad3e ce6c b3be
000001d0: 495c 243f 24cc c93e a754 22be 5701 cebe
000001e0: 411d 9fbd 8468 663e f312 4a3e 67be 3f3e
000001f0: 880d 763d 9c8c 20be 0bb0 bbbe 45dc a7be
00000200: 8c0b 193f d443 dcbe 06e3 f63d 058a 44be
00000210: 293f 2fbd 0a71 1a3e 3a16 a2be a6d7 e9be
00000220: 199a acbe 3a94 823e 745f df3d a33b 313c
00000230: c0a0 babd bfa6 ee3e 341d 963d f73f b93e
00000240: d507 d6be 1a7d ebbd eeff ed3e 819a 5d3c
00000250: 6c08 4ebd e740 07be bc8e 363f 995a 8e3e
00000260: dc03 69be 8261 073e e66d 483d c192 2b3e
00000270: 3303 163e 18ad 413b 49b0 783d bbb3 1d3f
00000280: 0ff9 1b3f 2fb5 073f 2ac4 3f3e 7193 0d3f
00000290: 1bde ac3b 179b 02bf 6b65 5a3e f405 7abd
000002a0: 6cae 193f 9de9 373d 1dd3 0e3d cf41 d2be
000002b0: bba6 033e 2687 593e 073a fb3e eb5a 193e
000002c0: 6eb2 003d b726 2d3d 027a 723e 41a5 253e
000002d0: 55c9 30bc 1356 143c f41e 6dbd f3c2 ebbe
000002e0: da32 3cbe 734b b6bc 5a6a cdbe 665f 843e
000002f0: 319e 0a3d e438 053e e1b0 aa3e f649 ec3e
00000300: e374 523d fd16 3fbd 8a23 30bd 82d7 fbbd
00000310: 004b 53be ee04 813d 35cd ddbe ed48 3b3d
00000320: 4e8d e13e 9d5d 463e 9db1 95bd cf5e b0bd
00000330: 28a8 243f 2ff5 1c3f e887 833d f8ff ecbe
00000340: 7526 b4bd 8466 083f 3d2b 02be 6bc0 013e
00000350: 1c52 2a3e b9b9 2f3e 445b 8ebe c345 4cbd
00000360: 354d 0abf c0b1 183e b763 9e3e 1cfc a13c
00000370: 64ab f9bc f2cb 26be f935 4f3f 2967 2c3f
00000380: 02c7 d13d ad29 72bd f0bc a93e e128 dc3e
00000390: 6300 21be ef9f 273e c3d3 cfbd 37c7 f43e
000003a0: 4c8b dd3e a180 cbbe a5e8 573d 52fe 0b3e
000003b0: d4ba c4bc eaae 0abf c540 a63d fa08 66bb
000003c0: 5b3f 403f 7fc1 a23e dad7 813e 6bd3 19bf
000003d0: 743d 6ebd 7714 e43e 72a5 fcbe b395 e63d
000003e0: 1bdd 003e 1770 c0bb 1a90 293e cc0e 4cbe
000003f0: 43f3 05be 97a7 ab3e 86e0 4a3e 2709 a13e
0.12828703 -0.06873458 0.34980646 -0.307986 0.006144014 0.022203585 0.58887506 0.53700554
-0.05254374 -0.49740833 0.30646724 0.15226866 -0.43789932 0.005327483 -0.26944056 0.35882163
-0.18069349 -0.178836 0.0011653835 0.17738692 0.38795435 -0.28895268 0.035189673 -0.20620018
0.014510892 0.23695256 -0.5002555 -0.34407404 -0.13013056 0.20312092 -0.45932958 -0.20741701
0.22716181 0.31052798 0.35903287 0.29742184 -0.22474746 -0.06349531 -0.40487435 -0.31436604
-0.31364983 -0.15145469 -0.15478852 -0.18787235 0.22613385 0.3601296 0.2229888 0.3068076
-0.36086357 -0.0016233182 0.010948055 -0.06558268 0.4635637 0.1356456 -0.2645484 -0.34043658
0.28918144 0.37605456 0.0021595948 0.028319005 0.15442464 0.2971628 0.57037866 0.1991041
0.041737475 -0.0024318062 0.13231611 -0.0025434245 0.010243935 -0.61014605 0.27380294 -0.6413997
-0.531263 -0.310364 0.37826747 -0.017028144 -0.03281472 0.0013077762 0.10312628 0.29150483
-0.8030424 0.0597263 0.10400825 0.54447466 -0.28501573 0.03305369 -0.098904975 -0.14125034
0.34052262 -0.7953242 -0.29833966 0.20678696 0.20631513 -0.513045 -0.16812697 -0.051900305
0.09389034 0.32164928 0.8394106 0.17584662 -0.14281398 -0.36091292 -0.2330402 0.0038337237
-0.15306102 -0.09799362 0.071945496 1.0909624 0.048257336 0.30347112 -0.021667494 0.29453626
0.03940559 -0.003550168 0.33808765 -0.3504395 0.64203316 0.3941356 -0.15852605 -0.40235397
-0.077692516 0.22500807 0.19733791 0.18724976 0.0600715 -0.15678638 -0.36657748 -0.3278524
0.59783244 -0.430205 0.1205502 -0.19193275 -0.042784844 0.15082183 -0.31657583 -0.4567234
-0.33711317 0.25503713 0.10906878 0.010817441 -0.09112692 0.46611592 0.07329789 0.36181614
-0.4180285 -0.114984706 0.4648432 0.013525606 -0.050301 -0.13208352 0.71311545 0.27803496
-0.22755378 0.1322079 0.048932932 0.16755201 0.14649658 0.0029552635 0.060714994 0.6160237
0.6092691 0.5301084 0.18727174 0.553031 0.0052755005 -0.510179 0.2132775 -0.061040834
0.6003177 0.044900525 0.034869302 -0.41065833 0.12856571 0.21242961 0.4906771 0.14976089
0.031420164 0.04227325 0.23679355 0.1617632 -0.010790189 0.009053725 -0.057890847 -0.46047172
-0.18378773 -0.022252774 -0.40120202 0.25854033 0.03384227 0.13009983 0.33338073 0.46150178
0.051381003 -0.046652783 -0.043002643 -0.12296964 -0.20634079 0.062997684 -0.43320623 0.045723844
0.4405312 0.19371648 -0.07309268 -0.08611833 0.64319086 0.6131162 0.064224064 -0.4628904
-0.087963976 0.53281426 -0.12711807 0.12671058 0.16632885 0.17160691 -0.27804005 -0.049871217
-0.5402406 0.14911556 0.3093545 0.019773535 -0.030477233 -0.16288736 0.8094173 0.6734491
0.10243036 -0.059121776 0.3315196 0.42999938 -0.15722804 0.16369604 -0.10147812 0.4780824
0.43270338 -0.39746574 0.0527121 0.13671234 -0.024014868 -0.5417315 0.081178226 -0.0035100565
0.7509667 0.3178825 0.25359994 -0.60088223 -0.058164075 0.44546863 -0.49344975 0.112590216
0.12584345 -0.005872737 0.16558877 -0.1992752 -0.13081078 0.33526298 0.19812211 0.31452295

shared.0.bias f4 [256]
00000000: d493 933d 2b7d 6abe 7256 8ebe 7f33 8abe
00000010: d196 81bd 855c 103e c943 963d 0957 ec3e
00000020: e902 af3d 58f9 adbe 630e 17bd 1136 093e
00000030: ca57 0c3f 1147 bbbd b501 54be 8a77 01bf
00000040: 08b2 473d c781 1bbe d984 7e3d ae46 2b3e
00000050: 568e fdbe 7c34 103f 7d7f 39be f9c4 93be
00000060: fb41 f5bd ed9d b13e 14d5 11bd c7ad 5dbd
00000070: 897b 123f b712 88bd df93 81be 84d3 b5be
00000080: 0134 9f3e 52cf 9e3d 83d7 f43d 0d57 38be
00000090: 472c e13e d8bc 12bc e26f d2be 024b efbc
000000a0: 7e08 013f 963d 3dbe 17a8 ea3e 2298 7fbe
000000b0: da5d 1e3f e79d d7bd 396f 14bc dd1e 90bd
000000c0: b58d 88be 2d44 98be b0d2 06be a80e 053d
000000d0: 2cae 7f39 390c 193e 42cb 023e 59c7 99be
000000e0: 6064 d83e 595c 4a3e dc4d 82bd b7aa a43e
000000f0: 1a15 293f aef6 6bbe 598f 2c3f 054e b73e
00000100: a874 d7bd 3960 273e 9702 933e bb34 c53e
00000110: a477 023f 1e55 613e 7885 623e 7c93 603e
00000120: 31c1 973d c7ed b5be a94c c33d 3e46 823d
00000130: d05d 133c fa3b 6ebe f256 673e 920c dfbd
00000140: 251b e3be b467 083f 8a2b 283d 9c5b bebe
00000150: a5cb c23e 677a c33d a826 bbbd 6e1a dcbc
00000160: 3b07 0dbe 6ecf b53d 2298 463d 3eea ad3c
00000170: 1e9f a23e 7eae 8fbd 7627 003f 2ab5 22bd
00000180: edcf 273d 8ca2 353e f8da 96be 37a2 47be
00000190: d637 093e 8376 6ebe 8bf9 ed3d 9f05 013d
000001a0: c3f8 473e cef0 3abd fab7 003f 667b 6abe
000001b0: dbd3 89bd 4f67 ccbe ed12 98be cdd5 cabc
000001c0: 4cca 3fbe 6770 41be 3841 9b3c 6d30 4c3e
000001d0: dcaf 113f d0d9 a3be c92e 6dbe 18d9 03bf
000001e0: a38d 0dbf 5b2e 29be b45e 563e 1b74 b43e
000001f0: 8cf4 97be 4902 20be 4b0d afbe b824 c63e
00000200: 1606 d83d 61f8 adbe a8a5 793e c221 e6bd
00000210: 4bf0 7ebb 5cd2 78be 69c5 5d3d 764b d9be
00000220: 428a 9ebe c0f9 92bd 9449 b6bc 11cf 9fbd
00000230: fd89 79be 42b9 2cbd 5c13 0ebd 7f66 e13e
00000240: 2100 1c3f 8f9e b4be 847d c03e 9e99 3c3e
00000250: c341 ce3c c7ac 2d3e e19f 723e 20e4 ef3e
00000260: 4ce6 8cbe 9677 91be 8097 843e 8fa2 8e3e
00000270: a205 323e f527 d53e b07e fcbb 3f4f 073f
00000280: fcd8 13bf ceb3 a2be fbb9 253e 6665 e13e
00000290: e97a 19bd 0c48 34be 9848 0f3f a9de 05be
000002a0: 120b da3c f28c eabc 25c2 003f 910b 27bd
000002b0: 3ee9 74be 4fb9 9dbe 931e db3e 0ae6 e43e
000002c0: acb5 7e3e e69c a0be c9aa 2d3e 5a53 2ebe
000002d0: 130e e4bd 35c9 2cbe ee94 95be b46a 223f
000002e0: 6ce3 e5bd bae5 bdbe d717 22be 97ac 1e3e
000002f0: 2d52 69be 93be 91bd 7aa4 89bd 73ab c13b
00000300: ae8a a2bd 86d8 bdbe 1302 1c3f 856b 093e
00000310: 1232 0c3d 797c 163d 8e8f f1bd eaba 023f
00000320: f4d0 22be 7d8e 72be 2b91 ecbc 6818 95be
00000330: e515 b2bd ee2a 55be 9d04 33be af7e 7fbe
00000340: 71c1 bebe 5e8e afbd c956 d1be 294a 033f
00000350: d1d8 0e3e 5e14 043e 7549 1f3f 4e06 58be
00000360: 7368 c9bc a012 84bb 47b4 09bf c396 febe
00000370: 6385 6d3e 8c99 30be ac0f 5fbe 6323 e73e
00000380: 019e 113d 65f5 29be 588e d0bd 70e7 7dbe
00000390: fe5a 7abe b834 96bd a3ee 203f 7aff c03e
000003a0: 8857 353f 4933 b2be 39d9 9fbe 64d1 133f
000003b0: 4313 b1be 6543 71bd fee7 9abd 4fe7 1e3f
000003c0: e72d 31be 9176 dcbb 1649 dc3d aa36 8ebd
000003d0: 27db 65be 83de 17bd ed4d 603c 2c28 8ebe
000003e0: 83aa af3c 5aab b43c 1345 1fbe 940c f53e
000003f0: 3901 0fbf 7fc6 df3e 0c30 163d 7e63 c93e
0.0720593 -0.2289931 -0.27800328 -0.26992413 -0.06327594 0.14097793 0.07337148 0.46160153
0.08545477 -0.33979297 -0.036878955 0.13399531 0.54821455 -0.09144414 -0.20703776 -0.5057303
0.04875377 -0.15186225 0.062138412 0.16726181 -0.49522656 0.56330085 -0.18115039 -0.28861216
-0.119754754 0.346908 -0.035603598 -0.054120805 0.5721975 -0.066441946 -0.2530813 -0.35512936
0.31094363 0.07754387 0.11955168 -0.18001957 0.43979093 -0.008956157 -0.41100985 -0.029210571
0.50403583 -0.18480524 0.45831367 -0.24960378 0.61861956 -0.10528164 -0.009059721 -0.07037137
-0.26670614 -0.29739514 -0.13166308 0.03248468 0.00024383579 0.14946069 0.12772849 -0.30034903
0.4226408 0.1976179 -0.06362507 0.32161495 0.66047823 -0.2304332 0.6740623 0.35801712
-0.10520297 0.163453 0.28712913 0.38516793 0.5096381 0.22005126 0.22121227 0.21931261
0.07409895 -0.35532972 0.09536106 0.06361054 0.008994535 -0.23265067 0.22591761 -0.108910695
-0.44356647 0.5328324 0.041057147 -0.37179267 0.38045993 0.09544831 -0.091382325 -0.026868071
-0.1377229 0.08877455 0.04848493 0.02122986 0.31762022 -0.070157036 0.5006021 -0.039723553
0.040969778 0.17737788 -0.29463935 -0.19495474 0.13400206 -0.23287396 0.11619862 0.0314995
0.19528489 -0.045639805 0.50280726 -0.22898635 -0.06729861 -0.39922568 -0.2970194 -0.024760151
-0.18729514 -0.18890534 0.018951997 0.19940348 0.56908965 -0.32002115 -0.23162378 -0.51503134
-0.55294245 -0.1652159 0.20934564 0.3524483 -0.29678762 -0.15625872 -0.3418983 0.3869989
0.10548036 -0.3397856 0.24379599 -0.112369075 -0.003890055 -0.24298996 0.054143343 -0.42440385
-0.30964857 -0.07176542 -0.022251882 -0.07803167 -0.24369045 -0.042168863 -0.03468643 0.4402351
0.60937697 -0.3527722 0.3759576 0.18417975 0.025177842 0.1696044 0.23693801 0.46853733
-0.27519453 -0.2841155 0.25896835 0.27858397 0.17384961 0.41632047 -0.007705532 0.52855295
-0.57752967 -0.31777805 0.16184227 0.44022673 -0.037470732 -0.17605609 0.55970144 -0.1307322
0.026616607 -0.028631661 0.5029624 -0.040782515 -0.239171 -0.30805442 0.42796764 0.44706756
0.2487399 -0.31369704 0.1695968 -0.17023984 -0.11135497 -0.1687363 -0.29215187 0.63444066
-0.11225018 -0.3708933 -0.15829407 0.15495525 -0.22785254 -0.07116427 -0.067208245 0.005910331
-0.07936607 -0.37079257 0.60940665 0.13419922 0.03422744 0.0367398 -0.11794959 0.5106646
-0.15900022 -0.23687167 -0.028877815 -0.29120183 -0.08695582 -0.20817158 -0.17482229 -0.2495067
-0.3725696 -0.08572076 -0.40886524 0.51285034 0.13949896 0.12898394 0.6222146 -0.21096155
-0.024585938 -0.0040305406 -0.53790706 -0.49724397 0.23195414 -0.17246073 -0.21783322 0.45144185
0.035551075 -0.16597517 -0.101834 -0.24795318 -0.24448773 -0.07334274 0.6286413 0.37694913
0.7083669 -0.34804752 -0.31220415 0.5774138 -0.34585008 -0.058902163 -0.0756378 0.620717
-0.17302667 -0.0067280014 0.107561275 -0.0694402 -0.22446881 -0.037077438 0.013690454 -0.27765024
0.021443611 0.022054363 -0.15553693 0.4786116 -0.5586124 0.43706128 0.036666915 0.3933372

shared.2.weight f4 [256, 256]
00000000: 36d8 0ebe be5d b8bd 6933 24be 06a9 b1bd
00000010: 0ac5 44be db44 663e 09b0 263d 308c 943d
00000020: 2063 7bbe d28f 1dbe bc5d 8f3d 9aaf 173e
00000030: 986c ce3d 2629 2f3d bdd8 49be 728b 25be
00000040: 729c ddbd 0f25 103d ad0d b9bc f3ba b1bd
00000050: 01c2 b4be ae68 8c3d ad08 25bd 1a45 56be
00000060: bddf 9abd efd6 bebd c160 efbc 3e12 6bbe
00000070: c716 01be bc7d 4cbd 829a 04be 4ed4 8ebe
00000080: 94c4 12be 10a0 a4bb 6394 70bd 564b 053e
00000090: ec45 5fbd 8376 103d f50f 14be 71de 35be
000000a0: 0f15 b83d 0760 a8bc 8bbb 89bc eb9f d3bd
000000b0: 7bac 293e 299d e7bd 2548 13bd 59fd 283d
000000c0: 690a b6bc bab3 76b9 5ee3 3cbe 0071 25be
000000d0: 2abb 193d cac8 2ebe 11ae d43a d812 44be
000000e0: 4796 6d3d bf1d 0dbe 1737 b2bd ebc7 793d
000000f0: 2a36 b83d 04af ddbd 5ce8 093d e5e6 2f3c
00000100: 17f2 0bbe 006e c03d 843c 303d 8a67 90bd
00000110: 5fc9 633d 5914 88be 4dbd 153e d785 a3bb
00000120: 31d1 783c c63c 25be 2512 46be 27af 14bb
00000130: 7c97 303d 8121 26bd b469 31be b505 22bd
00000140: f8f4 31be 5c47 883d 8288 4f3d f40e 04be
00000150: 8cd0 393d ba54 413d 0486 293d eda1 62bb
00000160: 7660 433e 7428 66be 8c23 923c 6251 7d3d
00000170: 18af fcbd b2c0 4e3c 8b23 e13d ead3 ddba
00000180: df54 5f3d 5e4b 873d 0aea cc3c 0b61 2ebe
00000190: e59f af3c 74b2 ccbc 5f37 0fbe 431b 083c
000001a0: 3ee4 823d d46d b1be 16cc e1bd 68db 8cbd
000001b0: 9536 be3d 368d d1bd 62dc 86bd 88a9 01be
000001c0: 746c b9bd 5dec 9bbd 9724 acbc ad61 42bc
000001d0: 0a9a 013d f753 45be 6c80 e8bd 5afe ccbd
000001e0: 493f 2fbe c3fe 72bd b246 b9bc e897 b03d
000001f0: e181 483d f12d c7be f767 fabd b5e7 9a3c
00000200: 8b01 38bd b55c 723d 27a2 9fbd 1428 40bc
00000210: 8328 75bd 31d9 dbbd 9e18 c9bc c481 d3bd
00000220: b32c 0abc 172e 373d 44ca 273d bf31 c5bd
00000230: d379 03bd 6812 32be 238e d0bd 5e64 043d
00000240: f7e6 04be d92f 74be 0f0a c83d ed5e 34be
00000250: 5a70 12be 89f0 333c 2f3b 0dbd b6fb 8bbd
00000260: d8f1 1bbc ecdd 8abe d0e2 52bd 5011 273b
00000270: 0ba8 383d 4e20 ddbd 2850 d13d 3e08 0a3c
00000280: 1bfc 57be d982 24bd 93ee b23c 3255 1e3d
00000290: 2012 003d f016 94be e238 2cbe c04b 1b3e
000002a0: 2261 033e d307 843d d20e bb3c 1304 2abd
000002b0: bb44 9ebe e1f9 58be be4e f6bd 9980 183e
000002c0: 7876 9c3c b441 423d 0a06 d53d cc5e d6bd
000002d0: 40a5 e4bc 82bb 453d 313f 0e3f b4b4 e33d
000002e0: 48ae 95bc a33b 0fbd 8af2 e33c 0a84 25be
000002f0: 0f16 083d 2c5a a0be 8c12 d7bd 05af 243e
00000300: 342e 62bd 90bd 38be 58a6 33bd f7a9 d3bd
00000310: 83a2 3b3d f2cc ddbd eb36 44bd 6be9 03be
00000320: 5438 1e3d 8379 bfbc 9d18 96be 129e a6bd
00000330: 8f7c 56be 55fe c1bd 6c28 013d 1db7 48be
00000340: 3a6f 4abe f909 063d db2c 08be bb16 163c
00000350: c9b1 ba3c 8bdd 48bb 0ce1 ac3a 17b7 84bd
00000360: ac3a 383d fa42 133d 85f4 1abe 9f89 0ebe
00000370: 40f6 693d 46c0 3cbd 99f4 2c3d 5b9b 7dbc
00000380: aea1 edbc febd 10bd b5ae 3f3c f268 2fbe
00000390: 5bc0 dfbd dc89 a7bc 3112 65bc e1cd e7bd
000003a0: c857 4b3c fa22 8abe 897d 1ebd cd1a 583c
000003b0: 77b0 55be e696 fdbe d965 9a3d 9928 07bc
000003c0: 21bd 9abe d665 09bd f7e7 003d 69e1 7ebd
000003d0: 44a5 a53d 2658 02be 3f19 ddbc fc3c 023c
000003e0: 44d5 873b 61f0 053d 2127 54be fc99 b9bd
000003f0: 23f6 67be 5503 acbd f43c 7d3d eb76 2abd
-0.13949665 -0.09002255 -0.16035236 -0.08674817 -0.1921579 0.22487204 0.040695224 0.07253301
-0.24549532 -0.15386894 0.070003 0.1481308 0.10079306 0.04276385 -0.19711585 -0.16166475
-0.10820855 0.03519159 -0.022589529 -0.08678236 -0.35304263 0.068559036 -0.040291477 -0.20924798
-0.07562206 -0.09318339 -0.02922094 -0.22956178 -0.12606345 -0.049924597 -0.12949565 -0.2789635
-0.14332801 -0.0050239637 -0.058735263 0.1301702 -0.054510042 0.03526927 -0.14459212 -0.17760636
0.089883916 -0.020553602 -0.01681306 -0.10333236 0.16569702 -0.11309273 -0.035957474 0.041257236
-0.02222176 -0.00023527342 -0.18446109 -0.16156387 0.03753201 -0.17068782 0.0016226192 -0.19147813
0.058004644 -0.13780878 -0.08701914 0.060981672 0.08994706 -0.10824397 0.03366886 0.010736202
-0.13666569 0.09395981 0.043026462 -0.070509985 0.055611964 -0.26578024 0.14622994 -0.00499032
0.015186594 -0.16136464 -0.19342859 -0.0022687407 0.043113217 -0.040559296 -0.17325479 -0.039556224
-0.17378604 0.06654236 0.050667293 -0.12896329 0.0453649 0.047199942 0.041387573 -0.0034581379
0.19079766 -0.22476369 0.017839216 0.06184519 -0.12338084 0.012619184 0.109931074 -0.0016924117
0.0545243 0.06606172 0.025013942 -0.17029206 0.021438548 -0.024987437 -0.13985966 0.008307281
0.0639119 -0.34654105 -0.110252544 -0.06877786 0.092877544 -0.10232012 -0.065850034 -0.12662327
-0.09053889 -0.07613442 -0.021013541 -0.011864108 0.031641044 -0.19270311 -0.113526195 -0.10009451
-0.17113985 -0.05932499 -0.022616718 0.08622724 0.048951987 -0.38902238 -0.12226861 0.018909315
-0.044923346 0.059170444 -0.077946 -0.011728305 -0.059853088 -0.10734785 -0.024547871 -0.10327485
-0.008433509 0.04472169 0.04096438 -0.09628629 -0.032098603 -0.17389834 -0.101833604 0.03232228
-0.12978731 -0.23846377 0.097675435 -0.17614336 -0.14300671 0.010982641 -0.03448027 -0.068351194
-0.009518109 -0.27122438 -0.051485837 0.0025492497 0.045082133 -0.10797177 0.10220367 0.008424817
-0.21092264 -0.04016385 0.021842277 0.038655467 0.031267285 -0.2892375 -0.16818574 0.15165615
0.12830022 0.06446805 0.022834215 -0.04150779 -0.30911812 -0.21189071 -0.12026738 0.14892806
0.019099459 0.04742594 0.104015425 -0.104673 -0.027910829 0.048274525 0.5556517 0.11118451
-0.01827158 -0.034968983 0.027825613 -0.1616365 0.03322416 -0.31318796 -0.105015844 0.1608239
-0.055219844 -0.18041062 -0.04385981 -0.103351526 0.04580928 -0.10830106 -0.047903936 -0.1288201
0.038627937 -0.023373371 -0.29315653 -0.08135618 -0.20945953 -0.09472338 0.03153269 -0.19601102
-0.19768992 0.032724354 -0.13298361 0.009160693 0.022789853 -0.0030649628 0.0013189628 -0.06480234
0.04497783 0.035952546 -0.1513234 -0.13919686 0.057119608 -0.046081804 0.042225454 -0.015478934
-0.029007759 -0.03533744 0.011699368 -0.17129877 -0.10925361 -0.020451479 -0.013981388 -0.11318565
0.012411065 -0.2697981 -0.03869394 0.013189984 -0.20868097 -0.4952919 0.07538957 -0.008249425
-0.3022242 -0.033544384 0.03147122 -0.062226687 0.080881625 -0.12728938 -0.026989577 0.00794911
0.0041452963 0.032699946 -0.20718051 -0.09062573 -0.22652487 -0.08399073 0.061825708 -0.041617315

shared.2.bias f4 [256]
00000000: fdd6 833d 98fd 943e 6332 89bd 730b 563e
00000010: 662e 7c3c 2760 1cbd 5e9a 97be 90e3 0bbe
00000020: 2f22 e53c 395a 2c3d 560c ea3d 1545 8f3c
00000030: 663c 423d 2ea0 8abd 2b3b 1b3e 3ead 6e3d
00000040: ae73 92bc 1f3b 243d 5fe2 c7bc d22b e7bc
00000050: 5e56 823d bee7 f93c f639 4abb 53d1 3c3d
00000060: 8684 c73c b0e9 713e 7ea5 7236 78a0 44bd
00000070: dbe6 593e 64f7 d9bc 26e0 863e 0e70 8b3d
00000080: cff8 50be d17f 6f3d 6c5f 433e 1e2b debd
00000090: 94f3 d1bb 9b02 86bd d93a a93c 5d89 183e
000000a0: 81c4 cbbc 7dbd 933e 3f2a 5f3c b29c 363e
000000b0: eead cdbd 40ca 95bd c48d 0bbc 9b85 9b3d
000000c0: 9f29 923d c426 f5bc 04f2 55bc 728f 90bd
000000d0: 1a93 07bb f637 883e 0025 863d 313a 853c
000000e0: 644b 153e 3824 593e b048 013e ce6e 6a3d
000000f0: 36a7 41bd 07fa df3d 9da1 8d3d 788e a43d
00000100: 02a4 153d 52a8 13be f5f6 c4bc c35c fbbc
00000110: 6613 333e 5034 e53c 9a5a bbbd cb9e 993e
00000120: 902a 0f3e d2da 24bd 22c2 193e 752d dcbc
00000130: a03c 003e f8ca b6bc 1f13 0cbd d4df 4c3e
00000140: 9247 b53d c635 09be 83fd 09bd e7b3 8cbc
00000150: 8468 44be 99b2 ff3c e3d1 343d 7919 28bc
00000160: c4e1 003d 0de7 0a3d 68f9 883e 30a0 9c3e
00000170: 0d59 57bc 6d9c 0d3e 1993 073e e0c8 90bd
00000180: 4b3e d7bc b663 9c3b 9676 943b fed8 0abe
00000190: f70c 52bd a462 8d3e 4331 a3be 4d74 b0bd
000001a0: d8db 5ebc 9eb6 bcbc 3223 51be 349d 8e3e
000001b0: 6c7e c23a f150 1dbc 300c a1bd 680b 8cbd
000001c0: fde4 d0bd 7e11 103e 8dbd c33c 126e 6d3e
000001d0: 00e1 a0bd 6a88 a73e 775c b03d 3f37 ae3b
000001e0: 5a96 df3c 2736 a53e 07e2 e3bc 4373 7bbd
000001f0: 2e83 f33c c585 1abe 4865 643d 2e35 553d
00000200: bfef 663e 8888 513e 98ed a2bd 26dc 1fbd
00000210: 0b33 54bd c3e7 01be b42a c3bc 075d 4abc
00000220: 6e6c 07bd 5904 983e c9c4 293d 3a4b df3d
00000230: 2f72 3ebe 923c 43bd cb43 98bd f41f 123d
00000240: 7567 57bd 2401 373e 4360 53bd 8309 1b3e
00000250: 2760 a4bd 3b1e 2abe 2338 4f3d 628a 873c
00000260: 0f03 d43b 8738 a83e 2bf1 003e 4328 bbbd
00000270: a270 96be 3ee8 0f3c 4697 73bc d643 e6bc
00000280: d2b7 943c b36e 453e 5a7c 15ba 974b c83d
00000290: d532 f63d 46f1 07bd ef91 2fbe 08a7 2c3d
000002a0: bd1b 0fbe c5e7 403d 8b44 cfbc 447d aabd
000002b0: 00f3 b8bd 5660 233e 84f1 f73c fa74 78bd
000002c0: 43ed a93d 2c0a 2ebd 103f 7a3e 7e9e 16bd
000002d0: 0cfa 423d 185c e23d e660 133e 0873 0a3e
000002e0: d572 d83d 4336 cdbc 602d 683e d65b 94bc
000002f0: c740 ddbc fdfd c63a 45b0 843e 50a7 4abd
00000300: 0f65 d4bc a370 8d3e 1c94 a4bd 0a1b cdbc
00000310: ff7a 893d 4c3a 403b ec59 bcbc a6e2 193d
00000320: 9c42 27bd 918d 8c3e 9fc5 bb3c b58d 483d
00000330: a7eb 863d 4958 8cba 0628 f23d 1c8b ef3c
00000340: a894 07bd cc73 ac3d d325 de3d 6a57 4fbd
00000350: 6dcd 393e 98ae 3bbd 6d0d 7c3d 1146 a1bc
00000360: a7e2 36bd 2bdc d9bc b062 f73d 7e50 a23e
00000370: ae22 943d be71 3c3e 9596 993e 4698 f53c
00000380: 27a8 bdbc 8bee 913c 8afd b53d 97ab 833e
00000390: 9901 9f3c 9558 11be e726 3f3c aefb 6e3b
000003a0: c3a3 18bd 360a 253d 6a78 d0bb 06fa 2ebe
000003b0: 5154 9d3c cc36 973c 8392 303e a5ab 5abe
000003c0: fee1 703a b79f 3ebd 6c60 52be b0ab 01be
000003d0: ef08 273c affa 29be c1ce e63c c5bf 23be
000003e0: b833 4bbd 0743 053d f3aa 303d ab36 9ebc
000003f0: b936 883b e62a 733c efb4 34bd 981a 02bd
0.0643749 0.29099727 -0.06699064 0.20902805 0.015391922 -0.038177636 -0.2960996 -0.13661027
0.027970402 0.04207823 0.11428134 0.017488996 0.04742088 -0.06768833 0.1515929 0.058270685
-0.017877426 0.040095445 -0.024399934 -0.028219137 0.063641295 0.030506011 -0.0030857301 0.046098065
0.024355184 0.23624301 3.615714e-06 -0.048004597 0.2127947 -0.026607223 0.26342887 0.06808482
-0.20407413 0.058471505 0.1907937 -0.10848068 -0.0064072106 -0.06543466 0.020657944 0.1489615
-0.024873974 0.28855506 0.013620912 0.17833212 -0.1004294 -0.07313967 -0.008517686 0.075938426
0.07136845 -0.029925711 -0.013058189 -0.0705861 -0.0020687045 0.26605195 0.06550026 0.0162631
0.1457954 0.21205223 0.12625384 0.057234578 -0.047278605 0.10936361 0.06915591 0.08034986
0.036533363 -0.14419678 -0.02404354 -0.03068388 0.17487869 0.027979046 -0.0914814 0.30003962
0.1398108 -0.040247746 0.15015462 -0.026877144 0.12523127 -0.02231358 -0.034197923 0.20007259
0.088515416 -0.13399419 -0.033689033 -0.017175628 -0.19180495 0.031213092 0.044145476 -0.010259979
0.031465307 0.033911753 0.26752782 0.30590963 -0.01314379 0.13829203 0.13239707 -0.07069564
-0.02627482 0.0047726287 0.004530738 -0.13559338 -0.051281895 0.2761432 -0.3187352 -0.086159326
-0.0136022195 -0.023036297 -0.20423582 0.2785431 0.0014838702 -0.0096018175 -0.07863653 -0.06838113
-0.10199926 0.14069173 0.023894096 0.2318652 -0.07855415 0.32721263 0.08611386 0.0053166444
0.027293373 0.32267877 -0.02781774 -0.06138922 0.029725637 -0.15090092 0.05576065 0.05205267
0.22552393 0.20462239 -0.07955474 -0.03902831 -0.05180649 -0.12686066 -0.023824073 -0.012351281
-0.03306239 0.29690817 0.041447435 0.1090302 -0.18598245 -0.047665186 -0.074348055 0.035675004
-0.0525889 0.17871529 -0.051605474 0.15140347 -0.08026152 -0.16613095 0.050590646 0.016545478
0.006470091 0.32855627 0.12591998 -0.09138539 -0.29382807 0.008783398 -0.014867609 -0.028108519
0.018154059 0.1928051 -0.0005702429 0.097800426 0.12021414 -0.03318908 -0.17145513 0.04215148
-0.13975425 0.047096033 -0.025301239 -0.08324674 -0.090307236 0.15954718 0.03026653 -0.060658433
0.08297207 -0.04249017 0.24438119 -0.036772244 0.047601745 0.11052722 0.14392433 0.13520443
0.105687775 -0.025050288 0.22673559 -0.018110197 -0.027008427 0.0015181896 0.25915733 -0.049475968
-0.025927095 0.27624997 -0.08036062 -0.025037307 0.06712913 0.0029331623 -0.022992097 0.037569664
-0.040835008 0.27451757 0.022921382 0.048963267 0.06587916 -0.0010707463 0.1182404 0.029241137
-0.033100754 0.08420524 0.10847058 -0.050620474 0.1814477 -0.045820802 0.06153624 -0.01968673
-0.044649746 -0.026594242 0.1207937 0.31702036 0.07233177 0.18402764 0.29997697 0.029979836
-0.02315147 0.017813941 0.08886249 0.2571685 0.019409942 -0.14193948 0.01166699 0.003646593
-0.03726555 0.04029294 -0.0063620107 -0.17087564 0.019205244 0.018458746 0.1724339 -0.2135454
0.0009188949 -0.046539035 -0.20544595 -0.1266315 0.010195001 -0.16599534 0.02817476 -0.15991123
-0.04960987 0.032534625 0.04313178 -0.019313177 0.004156914 0.014841771 -0.044117864 -0.031763643

actor.weight f4 [3, 256]
00000000: 330d c83d 8210 4abd 8456 8fbc 489e e937
00000010: a046 9cbe cde7 91bd d520 ecbc 83be dfbc
00000020: 696d 0c3d 21d2 563d 2103 803e 102f 89bc
00000030: e2a7 393e d868 e9bb 8f01 5d3e ea62 6ebd
00000040: aa66 0c3e e9ce ab3c 3ea2 233c 59cc 123d
00000050: dc38 da3d fcec 8a3d 43d3 32be 627b aebc
00000060: 2974 a0bb ff0a f43c 5a88 0c3d 6458 0c3d
00000070: bc67 46be b8c6 3b3c a611 6bbe f0dc 0f3c
00000080: 1ab9 8f3d 3445 093a 3de8 d73e 5398 3b3b
00000090: ed78 033e fddd 7ebd 56b2 2fbe 3402 76bd
000000a0: 7a57 333d ca9b b13d c46d 88bd f51a b23d
000000b0: 4dff c93b 7dd2 983b 0287 c13d 2e2e 6b3e
000000c0: 8bfd a83d b57b f03c 93af 02be 40f2 c3bd
000000d0: 6aff 013d 2125 7c3e e051 9c3e cf0e db3d
000000e0: 8682 3f3c 8204 bd3e 908d 5c3e fc74 10bc
000000f0: c551 d8bb 81a1 4c3e 6171 2ebe 0f16 5cbd
00000100: bdef 04bf 61af 0c3b ad1f cd3c aa99 8039
00000110: a326 923e 7b48 d3bb 8611 6e3d 37d0 903e
00000120: 5175 9d3d c28a 7ebe 2341 babe 6158 833c
00000130: c652 afbd ddc2 773b 90ab ab3c 6011 463e
00000140: 1b14 403d ee85 a93b 9a70 04bd ea19 373d
00000150: b70c b93b 3230 573e c773 303e 1045 4c3d
00000160: ab85 22bd acaa 623e 704a 76bd bcb7 2c3e
00000170: 1a42 b73c 504f 543d 0ff6 ec3d a4cb d93c
00000180: 11b3 c83c e4a7 8fbc c354 393d d268 6b3d
00000190: 3a9f d23d 967b 963d 64d1 84bc d703 393d
000001a0: 97d9 0fbe 23d8 183d 48b7 5bbd a17f a4be
000001b0: a43a a7be c39b cabb feb7 b33d 920a 5c3d
000001c0: e1e2 d33d c13a 923d 73ba 553e f8b7 23bd
000001d0: 3ecf 643e 34a8 343d 5d5a 2d3e 852e 2abe
000001e0: f145 1e3d 5560 c43d d2bc 033d e516 a63b
000001f0: c7de ce3c 58df acbc 09fe ecbd 40e1 34bb
00000200: 5b2d 9bbc 7d2e a03d 9734 58bc b792 383d
00000210: fa70 5ebd 551a ea3c 029d 093d 4585 b2bd
00000220: 9bee 333e a7fb 13bf 67e7 51be 99d8 6bbd
00000230: b0c7 bd3d d77f 09bd 050c a7bc 7db8 653e
00000240: 1bc6 123c 0fc8 c13e cee5 df3c bbf6 7f3e
00000250: bfdf b73c 7db1 db3a 2736 183c 37f6 aa3a
00000260: 89eb 9b3d 20a1 edbd 0503 c9bd 7836 6c3d
00000270: e25b 4e3d 2263 bebc 3cae 633c 7060 843c
00000280: 0ccd 183d e1e2 b33d 25fb a4bd a213 6d3d
00000290: 8dab b93d 960c 6e3d e41d 74bd 62f1 043d
000002a0: 7bcb f43d 275d f53d a846 9c3d 433d 16ba
000002b0: 6baa 9a3b a0c8 033e 0b3c 85bc d008 fa3b
000002c0: dc62 b6bd 77a0 463e 485f 783e 50c3 fcbc
000002d0: 4e63 22ba 038c 35bd b92d 583d f5d8 3c3e
000002e0: 7f21 97bc 5060 04be b09d afbd b5c8 573d
000002f0: 3e48 6a3d 75d6 72bd 0686 7d3e d06f f1bc
00000300: ce04 a73c d158 0b3d e13b f13c ece4 8ebd
00000310: 7dce dabd 9af8 ca3b ce5a 71ba 9802 d23c
00000320: 0775 cf3b 1a45 d93c 1156 2b3e f03f adbd
00000330: 2c47 47bd f6e3 903d c412 cd3e 6be7 cebd
00000340: 0211 773d ae75 da3b 3e96 f43d c3a7 e83d
00000350: b1ac a63b f3a5 013e 56d5 18bd 0afa a5bd
00000360: 6b0f 013d 7f13 1bbd 9d44 ae3e 4941 f3be
00000370: c81c b03e 7b47 92be d485 873d d700 d2bd
00000380: 7e4e 4e3e 112e e2bd 9e6c ce3d e705 223d
00000390: 2155 55bd 7769 9a3d 55f8 433e 38eb 55be
000003a0: 8efa c53d 9563 3bbc 9abd 0abe 38e6 f33c
000003b0: 920f a3bb aae9 c73c c79c adbe 6b65 023e
000003c0: ea5f 483d 25c7 5bbb 6706 813d efd5 07bb
000003d0: 02ad dcbc f531 453e 1d8e f83b 5454 a03d
000003e0: a36a d6bd 9f8c ac3e 6a10 06be 62f6 fabe
000003f0: bd79 92bd e6f8 443e 80aa 423d 5b9b 173c
0.097681426 -0.04933215 -0.017497309 2.784947e-05 -0.30522633 -0.071242906 -0.02882425 -0.027312523
0.03428403 0.05244649 0.25002387 -0.016746074 0.18130448 -0.007123094 0.21582626 -0.0581998
0.13711038 0.020972686 0.009987412 0.035839412 0.10655376 0.067834824 -0.17463402 -0.021299068
-0.00489666 0.0297904 0.034309722 0.034263983 -0.19375509 0.011460952 -0.22955951 0.008780703
0.07017727 0.00052364473 0.4216937 0.0028624728 0.12839098 -0.062223423 -0.17157874 -0.060060695
0.043784596 0.086722925 -0.06661561 0.08696548 0.0061644674 0.004663764 0.09449579 0.22966835
0.082514845 0.029355863 -0.12762289 -0.0956769 0.031737722 0.24623539 0.30531216 0.10696184
0.011688834 0.36917502 0.21538377 -0.008816954 -0.0066015446 0.19983484 -0.17035438 -0.053731974
-0.5192831 0.0021466839 0.025039518 0.0002452855 0.28545102 -0.0064478493 0.05812218 0.28283855
0.07688392 -0.2485762 -0.3637782 0.016033353 -0.0856071 0.0037805357 0.02095583 0.19342566
0.046894174 0.0051734364 -0.032333948 0.044702448 0.0056472677 0.21014479 0.17231666 0.04987055
-0.039678257 0.22135419 -0.060129583 0.16866964 0.022370387 0.05183345 0.115703695 0.026586361
0.024499448 -0.017536111 0.04524685 0.05747301 0.10284276 0.07347791 -0.016213126 0.045169678
-0.14047848 0.0373155 -0.053641587 -0.32128623 -0.32661927 -0.006183119 0.08775328 0.053721018
0.10346008 0.07140113 0.20871906 -0.03997037 0.22344682 0.044105724 0.16929002 -0.16619308
0.03864092 0.095886864 0.032162495 0.005068647 0.025252713 -0.021102592 -0.11571891 -0.002760008
-0.018942526 0.07821367 -0.013196132 0.045061793 -0.05430696 0.02857701 0.033597 -0.087168254
0.1757149 -0.57805866 -0.20498429 -0.05757961 0.09266603 -0.033569183 -0.020391474 0.22433658
0.008958365 0.37847945 0.02733126 0.24996464 0.022445558 0.001676127 0.009290255 0.0013043348
0.07613284 -0.11602998 -0.09815029 0.057669133 0.050380595 -0.02324063 0.013896521 0.016159266
0.037304923 0.08783508 -0.080557145 0.05788005 0.09065924 0.05811747 -0.05959882 0.032456763
0.11952873 0.11980658 0.07630664 -0.00057311746 0.0047200224 0.12869501 -0.016263982 0.007630445
-0.08905575 0.1939715 0.24255097 -0.030854851 -0.0006194607 -0.04432298 0.05277798 0.18442138
-0.01844859 -0.12927365 -0.085749984 0.052681644 0.0571978 -0.059286553 0.24758157 -0.029472262
0.020388033 0.03402025 0.029447498 -0.06977257 -0.10683916 0.0061941864 -0.00092069514 0.025636002
0.0063310894 0.026522208 0.1673205 -0.08459461 -0.04865186 0.0707473 0.4005338 -0.10102733
0.060318954 0.0066668605 0.11942719 0.11360123 0.0050865044 0.12660961 -0.037312828 -0.08104332
0.031508844 -0.03786039 0.34036723 -0.47510746 0.34396958 -0.2857016 0.066173226 -0.102540664
0.2014713 -0.11043943 0.10079311 0.03955641 -0.05208314 0.07539647 0.191377 -0.2089051
0.0966693 -0.011437316 -0.1354889 0.029772863 -0.0049762214 0.024403412 -0.33908674 0.12734
0.048919596 -0.0033535447 0.06300049 -0.002072688 -0.026937965 0.19257338 0.0075853006 0.07828584
-0.10469558 0.33701035 -0.13092199 -0.490161 -0.07152126 0.19235572 0.047525883 0.009253348

actor.bias f4 [3]
00000000: 8373 593d 75c6 85bb 46a1 a43c
0.053088676 -0.004082496 0.020096432

critic.weight f4 [1, 256]
00000000: 24d8 4fbe 214b c23d 4dfc a2be a336 8c3d
00000010: 01ff 853c 2d54 013b a3a3 423d 839f 2abf
00000020: 1127 2a3d 2028 00bf 50c1 b1be 5b01 d43c
00000030: 11a3 59bc 35e0 14bf 8907 ef3d 28e9 563c
00000040: 04f8 6abe 36a7 ebbe 9a3f 8eba 6546 38bd
00000050: 7026 cdbe fd19 d6bd e1ed 013f be56 113d
00000060: 1cb3 df3b a5b5 8d3e 1bdc 17bb 4d6d 993e
00000070: f64c 623e eec7 123d 5583 223e dc23 9abb
00000080: c31b a03b 66d4 453d a24a b0be 724e e7be
00000090: e164 db3d 92c4 26bf e8d4 9abe fa5b 563d
000000a0: 1ff4 0f3d bf35 2e3e d5b6 373d fcb0 1a3d
000000b0: c1c5 0b3d 3476 073c f3f0 25be 5edb f23e
000000c0: de99 05be 3039 e7bb 2de6 adbe 2a51 dc3c
000000d0: 0a66 103d 0ef6 4b3e 6a1a eabd 5093 5f3d
000000e0: 7e4c f9bd e738 3c3e 485a 02be d2dc 72bc
000000f0: 7e10 98bd bfae 92bd 1e58 fbba 63d8 a03d
00000100: 78ff dc3e 776b 36bf 5ffc 06bf 8f30 d7be
00000110: a65e c0be cfd6 763d 7377 23bf c92f 3a3e
00000120: ccca debd c3e8 5c3e 3574 0ebe 0c28 f53a
00000130: f871 71be 77a5 1b3d 2c5e 2e3d ac9e a03e
00000140: 1e0b 0abe c43f 873d b89a 533d 185a 1d3d
00000150: 8df0 833d e02a 57be 4dea 493b 6749 293d
00000160: ae48 1b3d 46fb d0bc 4db9 0d3e d707 ac3d
00000170: 7225 cb3c 7209 86be 17cf 36be bd9a fa3c
00000180: 8f24 783d 329f b93c c80e a13c e2d5 24bf
00000190: 5eb5 1bbd a738 0f3e c954 e2bb 4665 8b3d
000001a0: d7a3 213d 9684 3f3c 3d87 9abc a330 7f3e
000001b0: 7b6b b93e 0684 1a3d 804a a1be 7b68 ec3d
000001c0: 1129 a93d e848 a43d 44b9 95bd 54f6 573d
000001d0: e901 9c3e 01fa 673e 1587 35be 82da a53d
000001e0: e9a2 abbd 641a 213e f02f e93d bb91 8c3c
000001f0: 8797 bc3d 5a60 43bf 7b91 9e3b 6bb6 d4bd
00000200: cf1a 533e 724d a1be 6558 0abf 58d0 a639
00000210: b5bc 103d 4b26 603d d9d5 dd3c c58f 7dba
00000220: 5c34 9fbe 4962 0c3f d5eb 6f3c 5674 17be
00000230: ddf6 793d 2b5d 853c cc3b 0fbf b2ce edbb
00000240: c70c 273d 242e 16be 9767 183d f053 60be
00000250: 7412 d73b c2c1 3abf a975 09be 3f68 07bd
00000260: 4730 10be 955f 503e 8f36 f13c 71a1 cbbe
00000270: 9849 df3d 3bf8 c03c dfeb 0d3d adaa d33b
00000280: 0f54 45bb 1a33 ca3d 2af3 133d fdbf cb3d
00000290: 95f0 88be 6bac 47bf 4820 b73d 5cc6 7d3d
000002a0: f56c 433d c92b e43c 84cf f9be fad5 5bbc
000002b0: 8058 15bf b7a6 a7be f445 7a3b 5734 983b
000002c0: e230 ebbd 50c4 f13c d336 943e 38e8 01bb
000002d0: bd1a aebb 47c9 9abd ddd2 933d 1949 aebe
000002e0: 65a7 243d 6b93 7e3c 01a1 943e e74e f33b
000002f0: c621 913d f064 3f3d 3880 5b3e c8cd 433d
00000300: 35ea 4f3d 136c 633e fa38 2dbf b874 5abe
00000310: 95af dbbd 783f 0ebc 801a 233d d3dd 303d
00000320: 0788 b93c 0349 f43d eea8 9dbd c93a 81bc
00000330: 600d b6bc 8199 06bf 079f 05be fa0a 59be
00000340: d611 14bf ef38 13be 5900 8bbd 0379 493d
00000350: 5e16 ad3d 3098 b7bc 028e 0cbc 7796 d53d
00000360: d6f7 d5bc c664 f3be c908 f4bd e62e e13e
00000370: a655 6d39 0188 103e 4c32 793e 808f c93c
00000380: 7050 bb3d afcc 9fbd 7d72 893d fdf3 f43d
00000390: 890d 3e3b 6eb5 37bf def8 4abc 6c7d 8eb8
000003a0: 069b e6be eb16 c0be 612c b33e d90f 1bbe
000003b0: 50c7 d83c 6dfa 8f3c e755 243e 6da5 033d
000003c0: 06f2 5c3d 6537 32be cb2c 0d3d f56c 423d
000003d0: 7ab2 f83c 1e66 603d 8e13 fe3c abde 46bf
000003e0: 70de 2b3a 681b 013c ff09 febc 73bb 973e
000003f0: 57dd a1bc f498 b8bb fc8b 15bf 327f 213d
-0.20297295 0.09486986 -0.31833115 0.068463586 0.016356947 0.001973401 0.047519337 -0.66649646
0.041541163 -0.50061226 -0.34717798 0.025879553 -0.013283507 -0.5815461 0.11671359 0.013117112
-0.22946173 -0.4602601 -0.0010852695 -0.04498901 -0.40068388 -0.104541756 0.507536 0.035483114
0.0068267714 0.27677646 -0.0023171965 0.29966202 0.22099671 0.0358352 0.15870412 -0.004703982
0.004886122 0.048298262 -0.3443194 -0.45177037 0.107126005 -0.6514369 -0.3024056 0.05233381
0.03514492 0.1701269 0.044852097 0.03776644 0.03412414 0.008267928 -0.16205196 0.4743299
-0.13046977 -0.007056378 -0.33964673 0.02689417 0.035253562 0.19918081 -0.11430819 0.054583848
-0.12172793 0.18381082 -0.12729752 -0.0148231555 -0.07425021 -0.071622364 -0.0019176041 0.078537725
0.43163657 -0.7125773 -0.5272884 -0.42029235 -0.3757221 0.06026345 -0.6385414 0.18182291
-0.10878524 0.21573167 -0.13911517 0.0018703952 -0.23578632 0.037999596 0.042570278 0.31371057
-0.13480803 0.06603959 0.051661223 0.038416 0.06442366 -0.2101245 0.003080982 0.041329768
0.03791111 -0.025510442 0.13840218 0.08399933 0.024798129 -0.2617908 -0.17852436 0.030591363
0.06058174 0.022658918 0.019660369 -0.6438886 -0.038014762 0.13986455 -0.00690708 0.06806426
0.03946289 0.011689326 -0.018863315 0.24920897 0.36214814 0.037723564 -0.3150215 0.115433656
0.08259786 0.08021718 -0.07310727 0.05272515 0.30470207 0.22653963 -0.17727311 0.08098318
-0.08380682 0.15732723 0.113860965 0.017159333 0.09208589 -0.76318896 0.00483912 -0.10386356
0.20615695 -0.315044 -0.5404113 0.00031817215 0.035336215 0.05472402 0.02707951 -0.00096726074
-0.31094635 0.5483747 0.014643629 -0.14790472 0.061026443 0.016279778 -0.5595062 -0.007257306
0.04078367 -0.14666039 0.037208166 -0.2190702 0.006563479 -0.729519 -0.1342379 -0.0330584
-0.14080916 0.20348962 0.02944496 -0.39771608 0.10902709 0.023555866 0.034648772 0.006459555
-0.0030109917 0.09873028 0.03612057 0.09948728 -0.2674605 -0.77997464 0.08941704 0.06195675
0.04771133 0.02785291 -0.48791134 -0.013417715 -0.58338165 -0.3274438 0.0038188668 0.0046449113
-0.11483933 0.029512554 0.28948078 -0.001982225 -0.005313246 -0.07557922 0.07217953 -0.34040144
0.040198702 0.015538077 0.29029086 0.0074251774 0.0708652 0.04672712 0.2143563 0.04780367
0.050760467 0.22209196 -0.67665064 -0.21333587 -0.10726849 -0.008682124 0.039820194 0.043180298
0.02264787 0.119279884 -0.076982364 -0.015775101 -0.022223175 -0.5257798 -0.13048945 -0.21195593
-0.57839715 -0.14377187 -0.06787176 0.04918767 0.08451532 -0.022411436 -0.008578779 0.104290895
-0.026119154 -0.47537822 -0.11915738 0.43981093 0.00022633988 0.14114381 0.24335593 0.024604559
0.091462016 -0.07802712 0.0671129 0.119605996 0.0028999767 -0.71761215 -0.012388436 -6.794449e-05
-0.45040148 -0.37517485 0.34994796 -0.15142764 0.026462227 0.017575467 0.16048394 0.032140184
0.05394175 -0.17403944 0.034466546 0.04746719 0.030358542 0.054784887 0.031015184 -0.77683514
0.0006556278 0.007880069 -0.031010626 0.296352 -0.019758863 -0.005633468 -0.58416724 0.039427944
