Experimenten/Experiment1Snake/PPO/ppo_snake_9800.pth (torch, 280852 bytes, 7 tensors)

shared.0.weight f4 [256, 9]
00000000: c206 fb3d 7403 5bbd 357e 9b3e 4f3d a9be
00000010: ad8a 26bc def6 d73b 636d 153f f411 023f
00000020: 4f99 f6bc 6cd4 f7be d956 8c3e c655 1a3e
00000030: eada e7be 18d8 0bbc 0003 93be 0acb b83e
00000040: 09ad 18be ff3f 18be 54f4 44bc 8120 623e
00000050: c956 e03e 3aca a8be 9b05 4d3d 6949 14be
00000060: db78 ad3c 797b 9f3e 8b9c 04bf 8dfc a5be
00000070: 092e 2ebe 8358 eb3d 4e47 c3be 0315 55be
00000080: 926b 663e 50ed 823e dc2a b33e a3e9 8d3e
00000090: 1ea8 7bbe fa39 1cbe 3ab3 a5be f4c9 82be
000000a0: 64e4 9fbe 9649 24be 84ae 07be 8b26 98bd
000000b0: 5ae4 3c3e c2d8 bb3e f46b 713e 0097 983e
000000c0: 94cf c4be 6e7a 9a3c a622 943b 3229 acbd
000000d0: 4466 d73e 2a1f 113e 4816 9abe 6bba b3be
000000e0: c89e 913e 1e7c b03e cddc b6bb 5ed6 0b3c
000000f0: 9e94 233e 6aeb 743e db0b 173f 6485 5a3e
00000100: b1b7 ad3d 2573 9f3c 6944 073e 91ed 0dbb
00000110: 4a53 0b3b f91f 14bf 07c8 963e d1ec 18bf
00000120: 9013 0ebf 6dee 7bbe 57fd c83e 0ec3 79bc
00000130: b719 b6bc d040 833c 21b8 0d3e ac4e b13e
00000140: e645 46bf 6481 803d e1b6 3a3e 6838 123f
00000150: 729b 86be b4d2 773d 7ca9 b1bd 0129 debd
00000160: a884 bc3e 559e 57bf fa22 adbe 348b 693e
00000170: da11 523e f899 03bf 0bed 0ebe a12e 1abc
00000180: 82c2 d73d c929 b23e e3c2 593f 73fd 023e
00000190: c9cc 03be 5796 b2be fb7d 59be ca77 9cbb
000001a0: 25e5 32be f902 a5bd e670 273d a2d8 8a3f
000001b0: d455 a23d 955c 9f3e f8f3 babc c68e 953e
000001c0: c931 1c3d cec0 c1bb b12b aa3e 8295 d3be
000001d0: f525 243f 9dd6 cb3e d989 40be 5e80 dcbe
000001e0: 4674 a6bd 396c 3c3e 3af0 5a3e b6e2 2d3e
000001f0: 06b9 8a3d f8a7 cfbd 8401 bebe 09ae afbe
00000200: 8680 243f 32fd dabe 42d3 023e 7ce8 2bbe
00000210: e372 dbbc f529 0d3e 0d12 8ebe 065b f6be
00000220: 4265 cebe d960 8d3e 8de8 eb3d d04a 87bc
00000230: 56c3 59bd 2b9d ed3e b681 373d 7512 d23e
00000240: 6b17 dbbe a8b6 9cbd e0c2 e93e e440 fbba
00000250: bba7 0fbd 88ac 1dbe ee40 393f 007b 803e
00000260: 5b74 59be 7c71 ea3d 138b fc3c c811 1b3e
00000270: 16a3 0d3e 6591 a93b 67b7 333d c33a 1a3f
00000280: 0f0b 1d3f ef36 0b3f b7b0 1d3e 436a 043f
00000290: eeda ddbc a82b 01bf 80ff 5f3e f666 41bd
000002a0: dd9b 183f d8c2 af3c 4ae2 783b 4b31 d4be
000002b0: 3156 153e f890 4e3e 2b25 fb3e ff5d 083e
000002c0: a1fc 8b3b 9d49 063d b429 7e3e 9aa6 1b3e
000002d0: 746a 87bd f0a7 d83d 85d7 ecbd 62de 02bf
000002e0: 40a9 29be 86cb 77bc a6b2 bcbe 5d58 a73e
000002f0: 7e0b fcbb aba5 073e 7ad5 b63e 17f3 f63e
00000300: 6a26 6e3d d243 0fbd 36f6 35bd 125e debd
00000310: 7e7d 76be d9df 893d 94e5 f0be 3142 b63d
00000320: de8c dc3e 7a9b 2e3e 6a4d 70bd 4179 4dbd
00000330: d60f 233f 85e0 1e3f 63b3 7b3d fc10 dfbe
00000340: 17bb a0bd 1f42 143f 17ba 1fbe 804e 0b3e
00000350: b408 243e 658e 573e cbde 93be 39b1 0fbd
00000360: 88bd 12bf f14f 1f3e bcbe 973e 8bd1 85ba
00000370: 29d3 02bc c619 20be 39fe 503f dcaa 293f
00000380: ef94 d73d a0ff 04bd b2af bf3e 47bf c03e
00000390: 5f9c 1cbe 1a71 1a3e ffb9 86bd 416d ef3e
000003a0: 0f51 de3e 33e0 c8be 5fb4 193d 7ec7 083e
000003b0: df77 48bd 6673 0dbf 6d40 8d3d 0fb8 0f3b
000003c0: bb0c 433f 00d5 983e fc75 823e d164 01bf
000003d0: 870f 7bbd c931 f43e fee6 0fbf 5fea f83d
000003e0: 8330 dc3d a078 983c 718d 1b3e 899f 2bbe
000003f0: 8bdf 13be 26d3 b83e 05e5 643e d3c4 a43e
0.12257148 -0.05347009 0.30369726 -0.33054587 -0.010164899 0.006590708 0.58370036 0.50808644
-0.0301024 -0.48404253 0.2741001 0.15071782 -0.45284206 -0.0085354075 -0.28713226 0.36092407
-0.14909758 -0.14868163 -0.012021143 0.22082712 0.43816212 -0.32966787 0.050054174 -0.14481129
0.021175792 0.3114889 -0.51801366 -0.32419243 -0.17009749 0.11491492 -0.3814034 -0.20808797
0.22501972 0.2557168 0.34993637 0.27717313 -0.2457585 -0.15256491 -0.32363302 -0.25544703
-0.31228936 -0.16043696 -0.13250166 -0.074292265 0.18446484 0.3668881 0.23576337 0.29802704
-0.3843962 0.018857207 0.004520732 -0.08406295 0.4207021 0.14172044 -0.30095124 -0.35103163
0.28441453 0.34469694 -0.0055805207 0.008534996 0.15974662 0.23917928 0.59002465 0.21339947
0.08482302 0.019464085 0.1320969 -0.0021656493 0.002125936 -0.57861286 0.29449484 -0.59736353
-0.554986 -0.24602671 0.39255783 -0.015244259 -0.022229059 0.016022116 0.13839771 0.34630334
-0.77450407 0.06274679 0.18233825 0.5711732 -0.2629047 0.060503677 -0.08674905 -0.108476646
0.3681996 -0.8422597 -0.33815747 0.22807008 0.20514622 -0.5140681 -0.13957612 -0.009410531
0.10535146 0.34797505 0.85063 0.12791996 -0.12871088 -0.34880325 -0.21239464 -0.004775022
-0.17470224 -0.080572076 0.040879153 1.0847361 0.07926527 0.31125322 -0.022821411 0.2921049
0.038133416 -0.0059128767 0.3323646 -0.41325003 0.6412042 0.39812174 -0.18802585 -0.43066686
-0.08127646 0.18400659 0.21380702 0.16981015 0.06773572 -0.10139459 -0.3711053 -0.34312466
0.6425861 -0.42771298 0.12775901 -0.16787905 -0.02678818 0.13785537 -0.27748147 -0.4811632
-0.4031163 0.2761295 0.11518965 -0.016515166 -0.053164802 0.46408972 0.044801436 0.41029707
-0.42791304 -0.076520264 0.4565649 -0.0019169119 -0.03507207 -0.15397847 0.723647 0.25093842
-0.21235792 0.11447427 0.030828035 0.15143502 0.13831744 0.005174803 0.043876078 0.60245913
0.61345 0.54380697 0.15399443 0.5172464 -0.027081933 -0.5045724 0.2187481 -0.04721733
0.5961283 0.021455213 0.0037976676 -0.41443858 0.1458366 0.20172489 0.49051794 0.13317107
0.004272059 0.032785047 0.24820596 0.15200272 -0.06612101 0.105789065 -0.115645446 -0.5112058
-0.1656847 -0.015124207 -0.36855048 0.32684603 -0.0076917997 0.13246791 0.35709745 0.48232338
0.058142103 -0.034976788 -0.04442426 -0.10857786 -0.24071309 0.06732149 -0.47050154 0.08899344
0.43076223 0.17051497 -0.058667578 -0.050164465 0.6369604 0.6206134 0.061450373 -0.43567646
-0.078481846 0.5791339 -0.15598331 0.13604164 0.16018945 0.21050413 -0.28880915 -0.035081122
-0.5732045 0.15557839 0.29637706 -0.0010209543 -0.007984915 -0.15634832 0.81637913 0.66276336
0.10526454 -0.032470345 0.37438732 0.37645933 -0.15294026 0.15082207 -0.06578445 0.46763042
0.43421218 -0.3923355 0.03752553 0.1335735 -0.048942443 -0.5525421 0.06897054 0.0021929776
0.761913 0.29850006 0.2548064 -0.5054446 -0.061294105 0.47694233 -0.5621184 0.12154078
0.107514404 0.018612206 0.15190674 -0.16760077 -0.14440744 0.36098593 0.22352989 0.32181415

shared.0.bias f4 [256]
00000000: bfed 233d e0be 75be 5e60 88be 5a7f 99be
00000010: 8b64 1abd a8e7 0f3e a1eb fa3c d0cd 003f
00000020: 04ad d23d 8ea3 95be 5ef2 28bd e2f4 073e
00000030: 84a6 113f 58ce e3bd 3d28 49be b6b9 03bf
00000040: 5862 523d f7a8 38be 3d85 803c e0a4 273e
00000050: 42ca 05bf 5203 183f 7522 43be b150 89be
00000060: 7870 16be c501 b53e f570 77bd 49c6 58bd
00000070: 81f1 173f 0122 9ebd 280a 81be 32ad c4be
00000080: 889a a63e a485 703d f3ad d63d ddff 42be
00000090: 20ae ec3e e46a 863b af13 debe 7ad2 69bc
000000a0: dcf1 033f eee6 2bbe 56a9 e93e 0160 7cbe
000000b0: 6ff5 233f e996 06be c733 f4bb 96f5 e4bd
000000c0: 0866 9dbe eeb5 b8be 59f8 26be 2d41 423d
000000d0: 2b23 1fbd 2da1 0b3e 08e8 f93d a44a afbe
000000e0: 6c0b eb3e 97f8 383e 905a 8dbd b580 a53e
000000f0: 6960 2f3f 8f9d 9cbe 54f1 333f f9de bd3e
00000100: ad1b d8bd df16 0b3e a566 933e a874 cb3e
00000110: 114e 073f bc09 643e 2cbc 1e3e d4a7 433e
00000120: e63d 9c3d 922f c0be fe65 073e 4903 e63c
00000130: 9d42 c83c ed2f 76be 6429 643e 9ec1 c0bd
00000140: a1e3 e2be ff80 093f bc46 573d 7bd7 dbbe
00000150: 9a6d c93e e6aa 8c3d 42db cbbd fe4b e9bc
00000160: 2465 0dbe b9c5 053e 5025 0d3d 8a75 e93c
00000170: cc71 a53e a07a 70bd 4165 073f f59b 9abd
00000180: 47e2 a63c db6c 693e b281 9dbe 87e1 49be
00000190: a5b4 123e 94f6 68be e2ef 8e3d c0f5 9dbc
000001a0: 3e30 393e 50df debc 8bc9 053f b74c 71be
000001b0: cc52 b1bd 19ad ecbe 8217 9abe 4bf8 193c
000001c0: ae87 5bbe 29a6 3ebe 9a71 cdbc ea0a 453e
000001d0: 5339 163f 463c bcbe 1728 9ebe e8c4 01bf
000001e0: c7d0 17bf b7cb 20be b21f 613e 147e bb3e
000001f0: 2176 97be e414 e8bd dab0 b6be a62b c23e
00000200: eac8 d33d 5216 c1be 6536 643e 77a6 0ebe
00000210: 5c08 61bd 03a1 70be 985b 5b3c b70b dcbe
00000220: 7f03 a1be 54ab 50bd 5262 82bd 29f3 8dbd
00000230: 93b9 93be da24 27bd 5fe0 8abd 01fe ef3e
00000240: 4f8b 233f 3495 b7be 03c7 c63e 0554 423e
00000250: 1e94 af3c e7bb 163e 090e 893e 6116 f63e
00000260: dfe1 9bbe 4256 88be 7b35 983e c1f7 813e
00000270: 781b 383e 1ae2 e13e 4d5b 05bd 68ed 0e3f
00000280: 9717 1bbf cf2a a7be 877e 153e a4b8 e43e
00000290: b3d8 d3bc 7e3a 09be 21b0 163f bb4d 2dbe
000002a0: 9009 ad3b 6ec2 c5bd f35d 033f 5e1a c6bd
000002b0: c0d1 8cbe 5e34 93be 4905 e63e d568 ee3e
000002c0: 7e29 8a3e 4c80 a9be eaf2 333e 9c0d 40be
000002d0: 0253 28be 82a1 09be 8df8 95be 8002 273f
000002e0: b172 d9bd ca2b b5be 8563 13be 0a13 3b3e
000002f0: 26e6 88be e102 82bd eab0 a9bd 0fe9 a7bc
00000300: 45f9 9abd 7279 bcbe 02f3 203f ba97 0e3e
00000310: 883f 533c 65a2 103d bfbb 47be fac9 053f
00000320: d75b 15be 672e 62be c369 ccbc 5981 a5be
00000330: 1612 b9bd 675e 43be ffae 86be 5d64 86be
00000340: 1d45 d0be d32d 0bbe d3ab e6be d98f 0b3f
00000350: 4204 1f3e f591 da3d d3b0 263f aa11 64be
00000360: 199b 11bd 1c85 95bd 06b7 06bf f14b 00bf
00000370: 0724 593e 5a1c 48be b808 82be 35cf da3e
00000380: 7b3e 8b3c d056 4cbe cf8c f9bd c8d1 7cbe
00000390: a614 86be a408 adbd 4c1a 273f 00c0 ce3e
000003a0: fdd3 3b3f 863b aebe c7bc adbe 8901 1c3f
000003b0: 6ab7 b9be 9f14 1dbd cb6d 8ebd 7a68 243f
000003c0: c361 13be 2d79 55bd 0c88 ab3d 558e edbd
000003d0: 6d76 79be 07d2 a9bd 9d90 4e3c e25e 9ebe
000003e0: f938 02bd 6305 36bc fa49 41be db52 f93e
000003f0: 4a0c 0dbf f778 f33e 7605 293d da44 cb3e
0.040021654 -0.23998594 -0.26636022 -0.29979974 -0.03769354 0.14053214 0.030629935 0.50314045
0.10286906 -0.29226345 -0.041246764 0.13277009 0.5689471 -0.11123341 -0.19644256 -0.5145525
0.05136332 -0.18033205 0.015688533 0.16371489 -0.52261746 0.59380066 -0.19056113 -0.26819375
-0.14691341 0.35352913 -0.06041046 -0.052923474 0.5935288 -0.077213295 -0.2520306 -0.38413388
0.32539773 0.0587212 0.10482397 -0.19042917 0.46226597 0.004102098 -0.43374392 -0.014271373
0.51540923 -0.16787311 0.45637006 -0.24645998 0.64046377 -0.13143505 -0.0074524614 -0.11179654
-0.30741906 -0.360763 -0.16305675 0.047425438 -0.0388519 0.13635702 0.122024596 -0.34236634
0.45907152 0.1806358 -0.06902039 0.32324758 0.68506485 -0.30588958 0.7029011 0.37084177
-0.10552154 0.13582943 0.2878925 0.3973744 0.52853495 0.22269338 0.1550147 0.1910699
0.07628994 -0.37536293 0.132225 0.028077738 0.024445826 -0.2404172 0.22281414 -0.094119295
-0.44314292 0.5371246 0.052557692 -0.42937836 0.39341432 0.06868534 -0.099539295 -0.028478619
-0.13808113 0.13063706 0.034459412 0.02849843 0.32313383 -0.058710694 0.52888876 -0.07549278
0.02037157 0.22795431 -0.30763012 -0.19714938 0.14326723 -0.22750312 0.06979348 -0.019282222
0.18084809 -0.027206093 0.52260655 -0.2356442 -0.086583704 -0.46225813 -0.3009606 0.009397577
-0.21438476 -0.18618073 -0.025078584 0.19242445 0.5868122 -0.36764735 -0.3088996 -0.5069108
-0.59302944 -0.15702711 0.21984747 0.36619627 -0.29582313 -0.113321096 -0.35681802 0.37923926
0.10341056 -0.37712342 0.22286375 -0.13930689 -0.054939613 -0.23498921 0.013388537 -0.42977688
-0.3144798 -0.05094464 -0.06366409 -0.06931145 -0.2885252 -0.04080663 -0.06781077 0.46873477
0.63884443 -0.3585602 0.3882371 0.18977363 0.021432932 0.14720117 0.2676852 0.4806395
-0.30445763 -0.2662831 0.29728302 0.25384334 0.17979228 0.44117814 -0.032557774 0.55831003
-0.6058287 -0.32649848 0.14599048 0.4467212 -0.025860166 -0.13401219 0.588625 -0.16924183
0.005280681 -0.09656225 0.5131523 -0.09672998 -0.27503777 -0.2875089 0.44925907 0.46564355
0.2698478 -0.33105695 0.17573133 -0.18755192 -0.16437915 -0.13440517 -0.29291192 0.6523819
-0.10617579 -0.3538497 -0.14393432 0.18268982 -0.2673809 -0.06348205 -0.08285697 -0.020496873
-0.07567076 -0.36811405 0.628708 0.13925067 0.012893565 0.03531112 -0.19505213 0.52261317
-0.14585815 -0.22088014 -0.024952775 -0.32325247 -0.09036653 -0.1907898 -0.26305386 -0.26248446
-0.4067773 -0.135917 -0.45052966 0.5451637 0.15528968 0.1067237 0.6511356 -0.22272363
-0.035548303 -0.07300779 -0.5262302 -0.5011588 0.2120515 -0.19542065 -0.25397277 0.4273621
0.016997566 -0.19954991 -0.1218506 -0.246894 -0.26187629 -0.08448914 0.652745 0.4038086
0.73370343 -0.34029788 -0.33933088 0.6093984 -0.36272746 -0.038349744 -0.06954535 0.6422192
-0.14392762 -0.052117515 0.08375558 -0.11599413 -0.24361582 -0.08292013 0.012607721 -0.30931765
-0.031792615 -0.011109683 -0.18875876 0.48696026 -0.55096877 0.47553226 0.041264974 0.39700967

shared.2.weight f4 [256, 256]
00000000: 71c5 d4bd fdee b8bd 58ea 48be b770 afbd
00000010: 8050 c7be 1b9a 863e 5c88 3e3c 0d74 cf3d
00000020: ffbc 7dbe e660 82be 51ca 853d 3a92 213e
00000030: b776 e63d e1b9 753d 8fd6 6dbe 7877 41be
00000040: 8ee0 22be ad88 4f3d 243b db3b 5e86 cbbd
00000050: 3a17 e4be 7a7c ad3d e7ba afbd 0212 a2be
00000060: 8d1a 7abd 71ec 8fbd ea30 ddbb e927 a5be
00000070: a1bf 17be 0a31 3dbd 4d40 febd cc60 88be
00000080: 48f3 e7bd b5f0 fc39 aefc 02bd 6cd5 093e
00000090: 3f18 2bbd ac99 2d3d 70e6 22be e143 37be
000000a0: ae9f c33d e859 8cbd 2451 9aba da03 a0bd
000000b0: 6112 363e 8460 46be 312c 51bd 849a 8e3b
000000c0: 0ab2 89bd 6ce3 1dbd 2991 7ebe 45cc 82be
000000d0: 42dc 553d a3b7 79be 9447 bbbb 27c9 72be
000000e0: af8c 9c3d 8fed d6bd 0197 25be 8bc6 873d
000000f0: 122e d93d 3670 94be 36d5 5c3d f1f0 073d
00000100: 702f e2bd 5c8e a73d 8c9c 653d 55ad f7bd
00000110: 926f ab3d 1ed5 82be 70ba 233e 091d dfbd
00000120: eb5f 013d eb52 25be 5fef 36be e7b0 913a
00000130: dadf 563d d872 c7bb b24a 33be 3f18 12bd
00000140: 8c37 64be 54ad ae3d 3ede 993d b236 31be
00000150: b1c9 543d d9fc 5e3d cd6e 4d3d 19e3 0abe
00000160: 8a55 643e 8104 8abe bc3b 6c3c 4091 cc3d
00000170: 1c56 d0bd 3d2b 4d3d 222f 013e 18b3 b93c
00000180: c6aa 983d 7e2b 933d add0 843d e3e9 4bbe
00000190: c469 5b3d 3ba4 ffbd 2bfb 02be a4fb 623d
000001a0: 81ef 9c3d 358e c3be faa1 25be a070 bcbc
000001b0: c59b f83d 8fb3 cfbd 9ff4 a0bc 9f2b 49be
000001c0: e27d 28be e310 70bd fdea f73c c8b4 16bc
000001d0: cae1 6f3d 24b7 56be 0407 6ebe 78f1 67be
000001e0: 7718 51be 9e2e 62bd 541b 2fba 59aa e13d
000001f0: 547e 4c3d 8ef4 02bf b845 8fbe d9b2 d23c
00000200: febd f2bd 0b54 823d cdca 50bd 5a18 13bb
00000210: e076 2bbe d395 1cbe d613 c0bc b577 58be
00000220: efca 47bc 66e3 963d 5f93 8e3d 20ae 6dbe
00000230: f7a7 3fbc 7b0e f4bd 04ed d9bd 0f4f 263d
00000240: 3f57 09be d354 a9be 2145 f53d ffdf 79be
00000250: d9d5 45be 16a9 373c e600 2cbd c555 19bd
00000260: c4ff a7bc 5a76 cbbe 4c1b 16bd 373b ea3c
00000270: 5fa4 a23d debc bbbd d8f4 d83d f614 ac3c
00000280: 8107 94be 4ec9 e0bd 58f2 873c 2db5 823d
00000290: 1fd3 813c ab80 91be 49b4 86be 3101 203e
000002a0: a822 0d3e 2f10 c03d 2f97 4c3d 76db 30bd
000002b0: d650 b5be de8e 9abe 41b6 ddbd f294 2b3e
000002c0: bddf d63c 2343 6c3d 2362 0e3e 7f45 c4bd
000002d0: b22d cbbc 18fa 4b3d 8063 193f 7087 093e
000002e0: 2aeb ae3b 887c 6a3b 6836 fa3c ca4f 2cbe
000002f0: 4667 293d c4ea abbe c8af 76bd 34e6 403e
00000300: 4500 f5bc dedf 43be 3a3c 15bd e63f cbbd
00000310: 3965 3c3d 74c4 24be 2f89 87bc c5a1 f8bd
00000320: ba69 8b3d 92cd d5bd 735e 9bbe c537 e4bd
00000330: 8919 33be 5258 1cbe a5f8 3d3d 7b5c 42be
00000340: 06bb 6dbe 2aec 713d 041f 01be dd31 f73c
00000350: ca25 343d 5f5d dbbc 8202 e43c ccfa fabd
00000360: f1d3 873d a164 7e3d 75cc 5fbe 3ce6 29be
00000370: 6628 873d 8aa2 6abd 55d4 413d b47e 993c
00000380: 0ac1 76bd 60ad 6bbd f52e 2c3d f035 30be
00000390: 3edf d1bd 4579 673b 3b4a f23b 6ef3 ffbd
000003a0: 1952 053d f3a1 e1be d6ca 3fbd 15d8 293d
000003b0: b96c 8cbe 1393 febe c8ca a43d aaa4 ba3c
000003c0: d8c8 bebe 2e71 cebc b70b 4e3d e05f 62bd
000003d0: cddb e93d 069c 44be f4a2 53bd 1666 1e3d
000003e0: 0998 cf3c e61e 223d a57a 62be 0b98 c9bd
000003f0: deff 7ebe 4702 73bd 06bf 843d 56c3 b5bc
-0.103892215 -0.090299584 -0.19620645 -0.085664205 -0.38928604 0.26289448 0.01162919 0.10129557
-0.24779128 -0.25464553 0.065327294 0.15778437 0.11253112 0.05999172 -0.23226379 -0.1889323
-0.15905973 0.050667454 0.0066903997 -0.09937738 -0.4454897 0.08471008 -0.08580571 -0.31654364
-0.061060477 -0.070275195 -0.006750216 -0.32257012 -0.14819194 -0.046189345 -0.12414608 -0.2663635
-0.11325699 0.00048244526 -0.031979255 0.1346032 -0.04177117 0.04238288 -0.15908217 -0.17896987
0.09551941 -0.06853086 -0.0011773449 -0.078132346 0.17780448 -0.19372755 -0.051067535 0.004351916
-0.067234114 -0.038546965 -0.24860062 -0.2554647 0.052212007 -0.24386458 -0.00571532 -0.23709546
0.07644021 -0.104945295 -0.16170885 0.06629666 0.1060449 -0.2899186 0.05391427 0.033188764
-0.11044204 0.0818145 0.056057498 -0.12093607 0.0837089 -0.2555322 0.15989089 -0.1089421
0.031585615 -0.16144912 -0.1786475 0.0011115343 0.052459575 -0.0060866885 -0.17508963 -0.035667654
-0.22286814 0.085291535 0.075130925 -0.17306021 0.05195016 0.054440353 0.050154496 -0.13563193
0.22298256 -0.2695656 0.014418539 0.09988642 -0.10172674 0.050090063 0.12615636 0.022668406
0.074544474 0.0718603 0.06485114 -0.1991344 0.053567663 -0.12482496 -0.12791125 0.055415764
0.07662869 -0.38194433 -0.1617507 -0.023002923 0.12139086 -0.1014167 -0.019647894 -0.19645546
-0.1645427 -0.058609854 0.030263418 -0.009198375 0.05856494 -0.209683 -0.23244864 -0.22650707
-0.20419489 -0.05522024 -0.00066797924 0.11018819 0.049925163 -0.5115441 -0.2798288 0.025720047
-0.118526444 0.06363686 -0.050974656 -0.0022444935 -0.16744566 -0.15291528 -0.023446959 -0.21139415
-0.012194379 0.073675916 0.069617026 -0.23210955 -0.011697761 -0.119168244 -0.1064091 0.04060274
-0.13412188 -0.33072528 0.11976076 -0.24401854 -0.19319858 0.011209747 -0.041993044 -0.03743531
-0.0205077 -0.39738733 -0.036647126 0.028592689 0.079415075 -0.09166883 0.10593575 0.021006089
-0.28911975 -0.10975896 0.01659505 0.06382213 0.01584774 -0.28418478 -0.26309422 0.15625454
0.13782752 0.09378087 0.049948867 -0.043178044 -0.35413235 -0.30187124 -0.10825778 0.16756037
0.026229734 0.057681214 0.13904624 -0.09583568 -0.024802063 0.049799055 0.5991745 0.13430572
0.0053380923 0.0035779793 0.030543521 -0.16827312 0.041358255 -0.3357755 -0.06022623 0.18837816
-0.029907355 -0.19128367 -0.03643439 -0.09924297 0.04599497 -0.16090566 -0.016544906 -0.1214023
0.06807275 -0.104396 -0.30345497 -0.1114345 -0.1749021 -0.15268067 0.046379704 -0.18980591
-0.23215875 0.059063114 -0.12609488 0.030175144 0.04398135 -0.026777921 0.027833227 -0.12254867
0.066322215 0.062107686 -0.21855338 -0.16591734 0.06599502 -0.057283916 0.047321636 0.018737175
-0.06024269 -0.05753839 0.04203697 -0.17208076 -0.10247658 0.0035320085 0.007394103 -0.124976024
0.032548998 -0.4406887 -0.0468243 0.041465838 -0.274267 -0.49721584 0.0804649 0.022783596
-0.37262607 -0.025200453 0.05030414 -0.055267215 0.11418877 -0.19200143 -0.051669076 0.038671575
0.02534105 0.03958025 -0.22117098 -0.09843453 -0.24902293 -0.059328344 0.06481747 -0.02218787

shared.2.bias f4 [256]
00000000: 74a6 b43d e7b5 9f3e 8826 85bd 666c 6a3e
00000010: 8bd4 e73c 6ff6 a0bd 1c6e aabe df24 0fbe
00000020: 2f22 e53c 5252 183d 57a1 fd3d 1545 8f3c
00000030: daa2 ac3c e4ea c3bd 46ec 1e3e 1fea 0c3d
00000040: ba35 3abd 5804 333d afee cbbc 968b e7bc
00000050: bfa0 db3c bee7 f93c 8d5c 2dbc c8f8 5b3d
00000060: 8684 c73c baa4 863e 7f7a 32bb 2cee 66bd
00000070: fe3d 5b3e 64f7 d9bc 8068 903e 7b10 283d
00000080: cff8 50be 7caa 9f3d 9349 373e 4560 cfbd
00000090: 38f3 25bd 5e9e ccbd 70a2 c93c 1e35 253e
000000a0: 81c4 cbbc e8f9 963e c7d7 2dbc ea81 493e
000000b0: 2ee7 b7bd cff5 a7bd c48d 0bbc 9414 da3d
000000c0: 7563 ab3d 0c24 c2bd 22f4 f8bc b607 a4bd
000000d0: 1a93 07bb f329 953e 0025 863d e89d 11bb
000000e0: 768b 1d3e 5d18 693e 0446 113e 6898 d63b
000000f0: c2fa 28bd a037 bd3d b621 9b3d f972 e93d
00000100: ff17 f03c 4365 27be 696a 7ebc 92bf 1abd
00000110: 4e7b 303e ebd2 cd3c d07f b2bd 169a a13e
00000120: b07e f63d 5dbe 94bd 91d9 1d3e 91e6 82bd
00000130: 6f75 003e f8ca b6bc 1f13 0cbd 2052 623e
00000140: fef5 d43d c635 09be 83fd 09bd e7b3 8cbc
00000150: 8468 44be 99b2 ff3c dd6a 473c 7919 28bc
00000160: c4e1 003d 0de7 0a3d 9e78 8f3e 759c a83e
00000170: 0d59 57bc eef9 123e 1d4f 143e 60d5 00be
00000180: 268a 78bd b663 9c3b c1e6 af3c 5be1 04be
00000190: a200 acbd c22b 993e 4331 a3be 98a1 e9bd
000001a0: 2834 79bd 9eb6 bcbc 6a51 70be 8472 9c3e
000001b0: f29c c23c f150 1dbc 557a f0bd e152 9bbd
000001c0: 2819 f2bd 5000 243e 8dbd c33c 38d3 7f3e
000001d0: c50e 73bd e9f4 b13e 824a a53d 7597 553c
000001e0: 579c c53c 8ca3 af3e 0f2e 68bd 2bd9 d7bd
000001f0: 816f 393d 8910 3cbe ba49 533d 372a 8b3d
00000200: 2625 833e 1553 613e 52e8 fdbd 26dc 1fbd
00000210: 0b33 54bd c3e7 01be b42a c3bc 417d 5e3c
00000220: bfe7 08bd 88a4 a13e 316e 5d3d 69dd ec3d
00000230: 2f72 3ebe aaae b5bd 7a6d b3bd be64 3f3d
00000240: 7567 57bd bd80 3a3e a5c4 bdbc b9f3 293e
00000250: 2760 a4bd a305 23be 38ab bc3d fe0a 703d
00000260: 0f03 d43b f427 b23e a25e 053e 7602 cfbd
00000270: 3826 a4be 3ee8 0f3c 4697 73bc 608f 43bd
00000280: f9f5 60bb fa97 5d3e 4471 b4bc dda6 dd3d
00000290: 2da2 9b3d 0dd5 7dbc ef91 2fbe aede 493d
000002a0: bd1b 0fbe 7b67 673d 1663 e0bc 447d aabd
000002b0: 103f aabd be05 283e 84f1 f73c 1d8e c6bd
000002c0: 7ba6 8b3d 2994 80bd 983a 8a3e 7fa7 22bd
000002d0: 39f8 593d 6abf fe3d 1695 233e 9a80 183e
000002e0: 8f7f f63d b898 56bd 9cf7 7c3e d65b 94bc
000002f0: d7d9 5ebd 2ac5 0fbd bc69 8c3e 50a7 4abd
00000300: 0f65 d4bc c425 983e 21ea a8bd 2cb4 16bd
00000310: ff7a 893d b25e a1bc 5b18 5bbd a6e2 193d
00000320: 9c42 27bd 5a07 993e 9fc5 bb3c 64b9 873c
00000330: a7eb 863d f265 323c 1ca8 b63d 5e48 443d
00000340: da03 e2bc e2cd ad3d d325 de3d e60e afbd
00000350: c953 493e 2043 96bd 387e 5b3c 704e 33bd
00000360: a7e2 36bd e167 5ebc 5475 1a3e fffe ad3e
00000370: 44b2 a23d a37e 393e 6da2 a33e 8739 833d
00000380: b33d 2fbd 8bee 913c 5dc2 e13d aeda 8e3e
00000390: 48ff 40bb 22bd 09be c427 04bd f6f6 543c
000003a0: 8331 31bd 35f9 f93c 05a3 9dba 91d3 4dbe
000003b0: 5154 9d3c cc36 973c 1520 3a3e 5c71 77be
000003c0: fee1 703a b79f 3ebd 6c60 52be c5a0 14be
000003d0: ef08 273c 0225 4fbe f901 19ba c6f4 23be
000003e0: abd9 84bd ab7e ca3c 7c67 533d 20eb ccbc
000003f0: ffdd b9bc ee5a 0f3d fc79 2fbd 981a 02bd
0.08820811 0.31193468 -0.0650149 0.22892913 0.02829959 -0.078595035 -0.33287132 -0.13978909
0.027970402 0.03718788 0.12384289 0.017488996 0.021073747 -0.09566286 0.15519819 0.034402963
-0.045461394 0.043705314 -0.024894087 -0.028264802 0.026810048 0.030506011 -0.010581148 0.053704053
0.024355184 0.2629755 -0.0027233658 -0.056379482 0.21410367 -0.026607223 0.28204727 0.041031342
-0.20407413 0.07796189 0.1789916 -0.10125784 -0.040515155 -0.09991144 0.024613589 0.16133544
-0.024873974 0.29487538 -0.010610527 0.19678465 -0.08979641 -0.08201181 -0.008517686 0.10648456
0.08368579 -0.09479532 -0.03038985 -0.08009283 -0.0020687045 0.29133567 0.06550026 -0.0022219364
0.15385231 0.227632 0.14186865 0.00654893 -0.041254766 0.09239125 0.07574789 0.113988824
0.029308317 -0.16347222 -0.0155283 -0.037780352 0.17234537 0.025124988 -0.087157845 0.3156287
0.120358825 -0.072628714 0.15415026 -0.06391633 0.12544797 -0.02231358 -0.034197923 0.2210164
0.10398482 -0.13399419 -0.033689033 -0.017175628 -0.19180495 0.031213092 0.012171474 -0.010259979
0.031465307 0.033911753 0.2802171 0.32931867 -0.01314379 0.14353153 0.14483304 -0.12581396
-0.060678624 0.0047726287 0.021472337 -0.12976591 -0.08398558 0.29916197 -0.3187352 -0.11407775
-0.060840756 -0.023036297 -0.23468557 0.30556118 0.023756478 -0.0096018175 -0.11742083 -0.07584167
-0.118212044 0.16015744 0.023894096 0.24982917 -0.059340257 0.34757164 0.08070852 0.013036598
0.0241224 0.34304464 -0.05668455 -0.105394684 0.045272354 -0.18365683 0.051583983 0.06795161
0.2561428 0.2200435 -0.12397827 -0.03902831 -0.05180649 -0.12686066 -0.023824073 0.013579668
-0.033424135 0.3157084 0.054060165 0.11565668 -0.18598245 -0.08871205 -0.08761115 0.046726935
-0.0525889 0.18213172 -0.023165056 0.16596879 -0.08026152 -0.15920119 0.09212345 0.058604233
0.006470091 0.34796107 0.13024381 -0.10107891 -0.3206041 0.008783398 -0.014867609 -0.047744155
-0.0034326299 0.21640006 -0.022026666 0.10822842 0.07599292 -0.01549269 -0.17145513 0.04928463
-0.13975425 0.05649517 -0.027390998 -0.08324674 -0.083128095 0.1640844 0.03026653 -0.09695075
0.06818863 -0.06278259 0.26997828 -0.039710518 0.05321524 0.12438853 0.1597484 0.14892808
0.120360486 -0.052391738 0.2470383 -0.018110197 -0.054406967 -0.03510014 0.2742442 -0.049475968
-0.025927095 0.29716313 -0.082477815 -0.03679292 0.06712913 -0.019698475 -0.053490024 0.037569664
-0.040835008 0.2988842 0.022921382 0.016567893 0.06587916 0.0108885635 0.08918783 0.047920577
-0.027589727 0.08486535 0.10847058 -0.085477635 0.19660868 -0.07337022 0.013396792 -0.043775976
-0.044649746 -0.013574571 0.1508382 0.3398361 0.07944158 0.18114714 0.3195986 0.06407457
-0.04278345 0.017813941 0.110234 0.27901214 -0.0029449034 -0.13451055 -0.032264486 0.012998333
-0.04326011 0.030514339 -0.0012026733 -0.20100237 0.019205244 0.018458746 0.18176301 -0.24164337
0.0009188949 -0.046539035 -0.20544595 -0.14514454 0.010195001 -0.20228961 -0.0005836781 -0.16011342
-0.06486829 0.024718603 0.051612362 -0.02501446 -0.022688864 0.034998827 -0.042840943 -0.031763643

actor.weight f4 [3, 256]
00000000: 8bf0 e13d 505b 5dbd 29a3 45bd b03b 433c
00000010: 0059 bebe 58ed 85bd a229 f5bb f09d cf3b
00000020: 696d 0c3d 10e1 9d3d 3feb 9b3e 102f 89bc
00000030: 70aa 403e 6171 373c 5b88 8d3e c106 74bd
00000040: 3b24 1e3e c8f1 3c3d 4ab0 1f3c 59cc 123d
00000050: d773 c63d fcec 8a3d bedd 1bbe 2011 4fbb
00000060: 2974 a0bb 5334 31ba a095 073d 608b 803d
00000070: 95ce 37be b8c6 3b3c d7fa 75be 9ae5 8b3c
00000080: 1ab9 8f3d 8062 16bb 97bd ed3e a36f 003d
00000090: 011a 063e 42d6 70bd 444c 28be bfda b0bd
000000a0: 7a57 333d 9802 643d 8e97 8abd 694b ca3d
000000b0: d21a 993d 027f 093d 0287 c13d 6137 5c3e
000000c0: 1216 ab3d 5d30 f03d d317 06be f71c e4bd
000000d0: 6aff 013d f29f 783e e051 9c3e 53b6 fd3d
000000e0: a550 6ebc 00d7 c03e 0bcf 8c3e b923 c5bb
000000f0: e271 a73c 2592 6b3e 39a5 6cbe 8f3d 45bd
00000100: c0a4 04bf 2259 1e3d 35c9 343d 6322 de3c
00000110: daa4 a63e 85da c9bb b116 923d a2f8 903e
00000120: 15a6 983d fcf9 6dbe 4c2c bebe b896 ad3d
00000130: 9af5 38bd ddc2 773b 90ab ab3c 4142 413e
00000140: 048b 913d ee85 a93b 9a70 04bd ea19 373d
00000150: b70c b93b 3230 573e 09b4 5f3e 1045 4c3d
00000160: ab85 22bd acaa 623e 95f2 3ebd 341c 3e3e
00000170: 1a42 b73c c94d b73d 9008 353e fb97 823d
00000180: ad23 1a3c e4a7 8fbc 42ff 6e3d 2520 9d3d
00000190: b61d f63d e553 813d 64d1 84bc 628e 0d3c
000001a0: fc3f 20be 23d8 183d 7d14 55bd f026 9abe
000001b0: 8961 96be c39b cabb ea9e c63d 6087 ac3d
000001c0: c9b2 053e d259 9a3d 73ba 553e 7d8f 21bd
000001d0: dbb0 8a3e 7816 2b3d 8476 313e 8beb 48be
000001e0: 229e 283d 1234 cb3d c931 473d bd26 e83c
000001f0: 7408 febc 4218 9fbc c165 08be bd97 8039
00000200: 0690 7fbc 62a6 103e 1290 643b b792 383d
00000210: fa70 5ebd 551a ea3c 029d 093d 9af9 0fbe
00000220: 9d10 593e bbf2 11bf a9f9 90be 7de2 20bb
00000230: b0c7 bd3d f94d cabc 6421 5ebc 04f4 c93e
00000240: 1bc6 123c 1e32 dc3e 306b d13c b6a7 593e
00000250: bfdf b73c 0313 853c 6d22 b13c 5951 fe3c
00000260: 89eb 9b3d a138 ecbd ff41 e6bd 5a97 383d
00000270: c3e6 0d3d 2263 bebc 3cae 633c 5a26 ab3c
00000280: 2136 783d 520b c23d f93b 8dbd d5fd b13d
00000290: 2782 f53d c2c6 983d e41d 74bd e976 033d
000002a0: 7bcb f43d 164e 5d3e 9db2 ef3d 433d 16ba
000002b0: e00a 853c 8f4a 613e 0b3c 85bc 8f3c 703b
000002c0: 4007 c8bd 7b6e 663e 4bdd 6a3e 911c 1abd
000002d0: 41f2 ba3c b0f8 b8bd 8ad2 8a3d b540 373e
000002e0: b2a4 aabc 4a29 6bbd 2b88 a3bd b5c8 573d
000002f0: 24f3 413d 2a4d 85bd 7ff2 673e d06f f1bc
00000300: ce04 a73c 02b6 023d 49a6 3a3d 339a 95bd
00000310: 7dce dabd 8ff5 a83c 8f3d 8b3c 9802 d23c
00000320: 0775 cf3b c4be 213d 1156 2b3e 8bf9 aabd
00000330: 2c47 47bd 2cd9 d13d 6504 e33e 6fb7 ccbd
00000340: 3fc6 ae3d 5e5d af3c 3e96 f43d 4aac f13d
00000350: cabb 873b 95c7 143e adb6 2a3d 9d87 bcbd
00000360: 6b0f 013d 6286 00bd 151f cd3e 728f efbe
00000370: ea30 f13e f04a a6be 8f28 743d 0c08 31be
00000380: 9dc7 753e 112e e2bd ad53 e43d f3a0 173d
00000390: 8336 a9bd 4be9 b33d 8e5b 413e 8763 8ebe
000003a0: 9c38 b03d 8d4c b2bc fb0a 13bd 7442 623d
000003b0: 920f a3bb aae9 c73c 6e71 b2be 4d27 2f3e
000003c0: ea5f 483d 25c7 5bbb 6706 813d a4d9 a53c
000003d0: 02ad dcbc 0a8c 6c3e e419 983c d21d a63d
000003e0: 8e1a 97bd 2291 ef3e 0e02 d8bd ba8f 0abf
000003f0: e86c 87bd 65e0 4b3e 2c68 1d3d 5b9b 173c
0.11032208 -0.05404216 -0.048251305 0.011916086 -0.37177277 -0.0653941 -0.0074817697 0.0063359663
0.03428403 0.07708943 0.30452916 -0.016746074 0.18815017 0.011196465 0.27643093 -0.059576754
0.15443508 0.046129018 0.00974662 0.035839412 0.096900634 0.067834824 -0.15221307 -0.00315959
-0.00489666 -0.0006759811 0.033101678 0.06276584 -0.17949899 0.011460952 -0.24021469 0.017077256
0.07017727 -0.0022946894 0.46433708 0.031356465 0.13095857 -0.058798082 -0.16435343 -0.086354725
0.043784596 0.055666536 -0.06767188 0.098776646 0.07475819 0.03356839 0.09449579 0.215055
0.08353819 0.117279746 -0.13095026 -0.11138337 0.031737722 0.24279764 0.30531216 0.12388291
-0.014545594 0.37664032 0.2750171 -0.0060162214 0.020440046 0.23004968 -0.23109902 -0.04815441
-0.5181389 0.038659222 0.0441372 0.027116006 0.32547647 -0.0061600828 0.07133234 0.28314692
0.07453553 -0.23239893 -0.3714317 0.08476013 -0.0451561 0.0037805357 0.02095583 0.1887293
0.07106593 0.0051734364 -0.032333948 0.044702448 0.0056472677 0.21014479 0.21846022 0.04987055
-0.039678257 0.22135419 -0.046618063 0.18565446 0.022370387 0.08950383 0.17679048 0.06376644
0.00940792 -0.017536111 0.0583489 0.07672147 0.12017386 0.0631483 -0.016213126 0.008639904
-0.15649408 0.0373155 -0.052021492 -0.30107832 -0.29371288 -0.006183119 0.09698279 0.08424258
0.13056482 0.07536663 0.20871906 -0.03944348 0.27088055 0.041769475 0.17330366 -0.19621103
0.041166432 0.09922041 0.048631463 0.028338784 -0.03100989 -0.019420747 -0.13320066 0.00024527116
-0.015598303 0.1412597 0.0034875912 0.045061793 -0.05430696 0.02857701 0.033597 -0.14060059
0.21197744 -0.57011 -0.28315476 -0.002454906 0.09266603 -0.024695383 -0.013557766 0.39443982
0.008958365 0.43006986 0.025563806 0.21255383 0.022445558 0.016244417 0.02162286 0.031044649
0.07613284 -0.115342386 -0.112430565 0.045066215 0.0346439 -0.02324063 0.013896521 0.02089231
0.060598496 0.094748154 -0.068962045 0.08690993 0.11987715 0.07459785 -0.05959882 0.032095823
0.11952873 0.21611819 0.1170399 -0.00057311746 0.016240537 0.22001098 -0.016263982 0.003665719
-0.09767008 0.22503082 0.22935979 -0.0376249 0.022820594 -0.090318084 0.067784384 0.17895778
-0.020830486 -0.057412423 -0.07984956 0.052681644 0.047351018 -0.065088585 0.22651099 -0.029472262
0.020388033 0.031911857 0.045568738 -0.07304802 -0.10683916 0.020624904 0.016997127 0.025636002
0.0063310894 0.03948857 0.1673205 -0.08348378 -0.04865186 0.102465004 0.4433929 -0.09995925
0.08533906 0.021406826 0.11942719 0.1180044 0.0041422592 0.1452926 0.04167812 -0.09205554
0.031508844 -0.031378157 0.40062776 -0.46789128 0.4710763 -0.32479048 0.059608992 -0.17288226
0.24001928 -0.11043943 0.111487724 0.037018728 -0.082623504 0.087847315 0.18882582 -0.27810308
0.086045474 -0.021765018 -0.035899144 0.055239156 -0.0049762214 0.024403412 -0.34852165 0.17104836
0.048919596 -0.0033535447 0.06300049 0.02024538 -0.026937965 0.23100296 0.018567033 0.081111565
-0.07378112 0.46790415 -0.10547267 -0.5412556 -0.06612569 0.19909818 0.038429424 0.009253348

actor.bias f4 [3]
00000000: 4125 7b3d 8257 24bc 1098 873c
0.061314825 -0.010030629 0.016552001

critic.weight f4 [1, 256]
00000000: 5628 a7be 06ac a93d 3b36 a6be e468 463d
00000010: 0ce5 383c 5a6e a4bb 9b2c ee3c 6be9 2fbf
00000020: 1127 2a3d 139a 00bf 2aeb c8be 5b01 d43c
00000030: ea11 653d 52fb 23bf 8c34 ec3d 76dd febb
00000040: 792b 50be 42a5 ecbe 1c97 ae3a ac30 38bd
00000050: 8e67 d0be fd19 d6bd 626d 083f 2d83 1a3d
00000060: 1cb3 df3b aabb 8c3e 1591 a7ba bcc5 a73e
00000070: bfb8 593e eec7 123d dbf3 143e c20f 083d
00000080: c31b a03b 7023 b73c 0941 cbbe 1967 f3be
00000090: 166f 193e 5a16 36bf 2e03 9abe df05 183d
000000a0: 1ff4 0f3d 8c5e 2f3e dae1 ec3c bd08 913c
000000b0: 20a0 0e3e 9b61 81bc f3f0 25be e78e ec3e
000000c0: 4554 43be ecdf 2fbb e2c0 babe 765c 7f3c
000000d0: 0a66 103d e988 463e 6a1a eabd 01e7 1a3e
000000e0: 8982 14be 3de9 323e 5e02 51be 5739 f639
000000f0: 7069 51bd 7891 85bd 16a9 a13b 8009 6e3d
00000100: 872e ec3e 8d80 40bf 5ebb 0abf ba1f debe
00000110: 059a eabe 7a3b 6f3d 6d9f 22bf 11db 353e
00000120: ee9b 06be 2b72 603e b530 3dbe 2088 773d
00000130: 7a6b 8cbe 77a5 1b3d 2c5e 2e3d ab35 9e3e
00000140: ea62 43be c43f 873d b89a 533d 185a 1d3d
00000150: 8df0 833d e02a 57be ebbd 1e3d 6749 293d
00000160: ae48 1b3d 46fb d0bc c153 093e f783 923d
00000170: 7225 cb3c 3ae0 a5be cbca 70be c2af 993d
00000180: ba35 953d 329f b93c ae1f 4b3d 6dd9 2abf
00000190: 50ed a6bc a64b 093e c954 e2bb cdad 8b3d
000001a0: da67 143d 9684 3f3c f095 03bc f38e 6d3e
000001b0: be62 bf3e 0684 1a3d feb8 bdbe d89e 0f3e
000001c0: 13c9 fc3d 409c 533d 44b9 95bd af95 103d
000001d0: 7b85 c93e 7cf8 5e3e 30b1 41be e6b9 c23d
000001e0: 1e3d a5bd bee3 163e ee3b d03d 6b4c 983a
000001f0: d171 ae3d 7c21 57bf 0c34 d33c c4ea 42be
00000200: fc4f 573e 5ebe b4be 658d 1abf 58d0 a639
00000210: b5bc 103d 4b26 603d d9d5 dd3c 0495 2dbb
00000220: b0cc babe 9743 083f bbaf 953c d2e8 36be
00000230: ddf6 793d 182f dbbb 2830 12bf 63ed 923d
00000240: c70c 273d 352b 2bbe 2a63 c43c d655 89be
00000250: 7412 d73b 0881 3ebf 80b0 1bbe 07e6 08be
00000260: 4730 10be 110f 423e 373d 133c 18bc d2be
00000270: c2ac 243e 3bf8 c03c dfeb 0d3d f7c1 013d
00000280: a1b2 7a3b 428e aa3d 4484 673d 3fea d03d
00000290: 44eb 8bbe db9d 4bbf 4820 b73d 637e 153b
000002a0: f56c 433d d582 8b3d 4827 01bf fad5 5bbc
000002b0: 2521 16bf 8805 ddbe f445 7a3b 4eaa 17bc
000002c0: b367 16be da1d b53d af9f 913e 34da 17bd
000002d0: 21d2 c0bd 85bd f6bd 6945 973d bffb d6be
000002e0: fa91 b33c 156b 3ebd 1cb6 8d3e e74e f33b
000002f0: 35e3 853d fb5a 503d 1d05 5e3e c8cd 433d
00000300: 35ea 4f3d 8b71 5d3e e987 30bf a899 63be
00000310: 95af dbbd 7347 67bc e663 bf3d d3dd 303d
00000320: 0788 b93c 8853 ca3d eea8 9dbd 05a1 e6ba
00000330: 600d b6bc 135f 06bf 67b8 06be e7b2 7ebe
00000340: 34d1 19bf 0554 5abe 5900 8bbd aa34 b03d
00000350: e182 7e3d 9e56 fcbb 9f54 9abc 0898 f63d
00000360: d6f7 d5bc 00b7 eebe f712 0dbe 6088 d73e
00000370: 0755 38ba 6805 203e 2f44 723e e692 af3c
00000380: e14a 543e afcc 9fbd acde 793d 16f8 da3d
00000390: 7005 de3c 9a37 41bf 5ef5 70bb 1d1d 50bb
000003a0: fbd4 ddbe e467 babe b045 f13e c420 34be
000003b0: 50c7 d83c 6dfa 8f3c 721c 213e abe2 343d
000003c0: 06f2 5c3d 6537 32be cb2c 0d3d 6e14 91bb
000003d0: 7ab2 f83c 7d9d 283e 5bdc 0c3d 8af2 48bf
000003e0: 3145 aebc 1c1d 093e 6dbb 5dbd 4883 a73e
000003f0: b359 86bb f0b0 cabd 9112 12bf 327f 213d
-0.3264796 0.08284764 -0.3246325 0.048439875 0.011285078 -0.0050180377 0.029074004 -0.6871554
0.041541163 -0.502351 -0.39241916 0.025879553 0.055925287 -0.6405536 0.1153346 -0.007777865
-0.20329084 -0.46219832 0.0013320181 -0.044968292 -0.40704006 -0.104541756 0.53291905 0.037722755
0.0068267714 0.27486926 -0.0012784327 0.32768047 0.21261881 0.0358352 0.14546148 0.033218153
0.004886122 0.022355765 -0.39698055 -0.47539595 0.14983782 -0.71127856 -0.3008055 0.037114974
0.03514492 0.1712591 0.028916288 0.017704362 0.1392827 -0.015793612 -0.16205196 0.46202776
-0.19075115 -0.0026836349 -0.36475283 0.015586009 0.035253562 0.19388165 -0.11430819 0.15127183
-0.1450292 0.17471786 -0.2041106 0.00046963498 -0.051125944 -0.065218866 0.0049334867 0.05811453
0.46129248 -0.7519615 -0.5419215 -0.4338358 -0.45820633 0.05840633 -0.63524514 0.17759348
-0.1314542 0.21918552 -0.18475612 0.060432553 -0.27425748 0.037999596 0.042570278 0.3090032
-0.19080701 0.06603959 0.051661223 0.038416 0.06442366 -0.2101245 0.03875534 0.041329768
0.03791111 -0.025510442 0.13410856 0.071540765 0.024798129 -0.32397634 -0.2351486 0.07504226
0.07285638 0.022658918 0.04959076 -0.66738015 -0.020376831 0.13407764 -0.00690708 0.06820259
0.036231853 0.011689326 -0.008031353 0.23199062 0.37380022 0.037723564 -0.370552 0.14025438
0.12343039 0.051662683 -0.07310727 0.035299 0.3935965 0.21774477 -0.18915248 0.095081136
-0.08068298 0.14735314 0.10167681 0.0011619454 0.085178025 -0.8403547 0.025781654 -0.19034868
0.21026605 -0.3530149 -0.60372 0.00031817215 0.035336215 0.05472402 0.02707951 -0.0026486525
-0.3648429 0.53228134 0.018272271 -0.17862251 0.061026443 -0.0066889636 -0.5710473 0.07174184
0.04078367 -0.16715701 0.023973066 -0.268233 0.006563479 -0.74415636 -0.15204048 -0.13368998
-0.14080916 0.1895106 0.008986763 -0.4115913 0.16081527 0.023555866 0.034648772 0.03167912
0.0038253444 0.08327915 0.056522623 0.10200929 -0.2732793 -0.79537743 0.08941704 0.0022810928
0.04771133 0.068120636 -0.50450563 -0.013417715 -0.58644325 -0.43168283 0.0038188668 -0.009256912
-0.14687996 0.08843584 0.2844214 -0.03707333 -0.09415079 -0.12047867 0.07386286 -0.41988942
0.021920193 -0.04648884 0.27678 0.0074251774 0.06537477 0.050868016 0.21681638 0.04780367
0.050760467 0.21625344 -0.6895738 -0.22226584 -0.10726849 -0.014116156 0.09345226 0.043180298
0.02264787 0.098792136 -0.076982364 -0.0017595595 -0.022223175 -0.5248882 -0.13156281 -0.24872933
-0.60084844 -0.21321113 -0.06787176 0.08603795 0.062136535 -0.0077007553 -0.018839179 0.120407164
-0.026119154 -0.46623993 -0.13776766 0.42096233 -0.0007031713 0.15627062 0.23658822 0.021432351
0.20731689 -0.07802712 0.061003372 0.1069185 0.027102202 -0.75475466 -0.0036767344 -0.0031755634
-0.43326554 -0.36407387 0.4712348 -0.17590624 0.026462227 0.017575467 0.15733507 0.04416148
0.05394175 -0.17403944 0.034466546 -0.0044274842 0.030358542 0.16466327 0.034389835 -0.78495085
-0.021273227 0.1339001 -0.05413382 0.32717347 -0.0041000484 -0.098970294 -0.5705958 0.039427944
