Experimenten/Experiment1Snake/PPO/ppo_snake_1000.pth (torch, 280852 bytes, 7 tensors)

shared.0.weight f4 [256, 9]
000000 c0 33 27 3e 2b d3 4e bd bb fd dd 3e 8e 4b 59 be
       0.16328335 -0.050494354 0.43357643 -0.21220228
000010 71 ab 9b 3c b7 00 6a 3d 54 05 fe 3e 20 29 83 3e
       0.019002648 0.057129588 0.4961344 0.25617313
000020 81 32 51 be 98 17 a4 be 3d 68 56 3e f2 8a a9 bb
       -0.20429422 -0.3204925 0.20938201 -0.0051740343
000030 ca 36 6b be f2 32 31 bd 9c 17 a9 be 62 8b 57 3d
       -0.22970119 -0.043261476 -0.33025825 0.05262316
000040 c0 9c 56 be a1 3e 92 be 67 58 09 3e d5 8d 86 3b
       -0.20958233 -0.28563407 0.13412629 0.004106263
000050 42 f8 57 3e 35 81 81 bd c7 79 94 3d e8 6b a9 be
       0.21090797 -0.063234724 0.0724979 -0.33090138
000060 eb 52 72 be 61 30 d0 3d cf c8 ae be f6 65 0b be
       -0.23664443 0.101654775 -0.3413758 -0.13613114
000070 dc bc 06 be e4 5e 6c 3e 96 a8 ce be 33 eb 8b be
       -0.13157982 0.23083073 -0.40362996 -0.2732788
000080 e8 ca 82 3e 16 96 4f 3e 4f 73 8c 3e 9c b0 11 3c
       0.2554543 0.20272097 0.27431723 0.008892205
000090 29 6c 74 be 17 f8 32 be 46 a1 b1 be 22 be 86 be
       -0.23869385 -0.17477451 -0.34693354 -0.26316935
0000a0 f8 ce b1 be b9 fb 4d be 1d df 89 be 62 40 8b be
       -0.34728217 -0.20115556 -0.26928034 -0.27197558
0000b0 e3 9d 4d bd fb 0f cd 3e 9d 4f 66 3e ba 0a b6 3e
       -0.0501994 0.40051255 0.22491308 0.3555506
0000c0 d0 98 83 be 6b c7 02 bc 83 33 a0 bc 1c 40 1f be
       -0.25702524 -0.007982115 -0.019555813 -0.155518
0000d0 71 d0 b5 3e 30 52 22 3e 1a 2b b2 bd b1 77 5d be
       0.3551059 0.15851665 -0.08699627 -0.2162769
0000e0 33 f9 d0 3e bd b7 cd 3e 09 c5 8b bc 8b 62 e6 3c
       0.40815124 0.40179244 -0.017061727 0.02812316
0000f0 98 75 4a 3d 5f 28 44 3e 0d 48 ef 3e 96 a2 35 3e
       0.049428552 0.19156025 0.46734658 0.17737803
000100 ed 56 16 bd bd f8 1f be 9c cc af 3d 91 48 45 bc
       -0.036703993 -0.1562223 0.08583948 -0.012041227
000110 42 04 3a bc 60 a5 96 bd 00 96 e1 3d 2a b0 6a be
       -0.011353554 -0.073557615 0.11014938 -0.22918764
000120 09 1b 69 be d7 e1 31 be 12 5b 88 3e 8a 1c bd bd
       -0.2276422 -0.17371307 0.2663198 -0.09233959
000130 ac e7 40 be bb a4 01 3c 59 6b 81 ba 1d 4d 85 3d
       -0.18838376 0.00791281 -0.0009873911 0.06508849
000140 75 6b 1a be 21 d1 24 3d a3 f5 e1 bd a1 53 de 3e
       -0.15080054 0.040238503 -0.110331796 0.4342318
000150 cc 2a 8d 3d 03 6a 39 3e 4a 04 ec bd 80 23 7a be
       0.068929285 0.18106847 -0.115242556 -0.24427605
000160 c7 2a 82 3e 50 4c c6 be 80 bd 80 be 1d f7 18 3d
       0.25423262 -0.38730097 -0.25144577 0.03734504
000170 52 4a 9e 3e b7 d3 b2 be 16 a8 7a be 4b 94 7a bd
       0.30916077 -0.3492715 -0.24478182 -0.06117658
000180 1f 8b a9 bc a0 80 e2 3d 1c d8 dd 3e 9a 0a 76 3e
       -0.02069622 0.110596895 0.4332894 0.24027482
000190 9c cc 27 be 22 83 3f be 20 4b 49 be 1f 47 cd bd
       -0.16386646 -0.18702367 -0.19657564 -0.10023331
0001a0 ec 4e 46 bd b1 da bc bd 65 9e c0 bd 33 db ff 3e
       -0.04841511 -0.092213996 -0.09405211 0.49971923
0001b0 ef d0 be bc e5 bf 93 3e cf 2c b9 3c 1c 7c 4a 3e
       -0.023292987 0.2885734 0.022604374 0.19773906
0001c0 83 67 0f 3e 37 45 2b bd 2d a8 76 3e 75 e2 96 bd
       0.1400433 -0.041814055 0.24087591 -0.07367412
0001d0 f0 ad ff 3e 28 08 bb 3e d3 b2 83 bc 2d 5c 5e be
       0.4993739 0.3652966 -0.016076481 -0.2171485
0001e0 95 ee 44 3d 06 96 9a 3e aa 0e 36 3e 81 3d e8 3c
       0.048079092 0.30192584 0.17779031 0.02834964
0001f0 5a 65 ba bd 0d 0a 4a be aa c0 c3 be 6e a3 9e be
       -0.091013625 -0.19730397 -0.3823293 -0.30984062
000200 16 ba c2 3e 04 c8 a1 be 6d 09 be 3d 3c f2 44 be
       0.38032597 -0.31597912 0.092791416 -0.1923303
000210 27 dd 39 be 30 db 47 3e e0 e7 08 bd 9e f4 99 be
       -0.18150769 0.19517207 -0.03342426 -0.3006944
000220 a0 9a 99 be 9e 8e 93 3e f9 d8 64 3e c9 b6 2f 3e
       -0.30000782 0.28819746 0.22348393 0.17159571
000230 05 00 1f be 07 18 8b 3e 56 c8 54 bd ea d7 3f 3e
       -0.15527351 0.2716677 -0.051948868 0.18734708
000240 9c f2 b1 bd 2a 33 06 be 51 29 b1 3e c9 07 ae 3d
       -0.08688852 -0.13105455 0.34601834 0.08497579
000250 0b 18 95 3c 6b 68 e9 bd 09 26 cb 3e 47 a7 1f be
       0.018199941 -0.11396869 0.39677456 -0.15591155
000260 a2 21 3d be db 80 18 3e 6f da 61 3e c1 e5 b8 3e
       -0.18469861 0.14892904 0.22055982 0.36112788
000270 bc ea 70 3d 1b e9 dc 3d 5c 96 10 3e a5 e4 d5 3e
       0.05881761 0.10786649 0.14119858 0.41776004
000280 b7 71 c2 3e 7e d5 bc 3e cf 05 38 3e c7 75 c6 3e
       0.37977383 0.36881632 0.17970966 0.38761732
000290 b4 f4 0a 3e 17 5f ce bd f2 59 93 3e ed e4 2a be
       0.1356991 -0.10076731 0.2877956 -0.16688891
0002a0 45 8f e0 3e 3f 5e 0e bd a4 99 05 3d 7c 7c ab bd
       0.43859306 -0.03475785 0.032617226 -0.08373353
0002b0 a6 33 52 3e ff 36 87 3e 3c 80 d0 3e 28 27 81 3e
       0.20527515 0.26409146 0.40722835 0.25225186
0002c0 3f f2 ab 3d bd 78 4d bd 70 4f 97 3e 53 4e 1f 3e
       0.08395814 -0.050163973 0.29552794 0.15557222
0002d0 84 b9 c9 3c b7 1c f6 bd e6 65 6a 3d 78 ef 87 be
       0.024624594 -0.12017196 0.057226084 -0.26549888
0002e0 4b 6e 42 be d6 cd 62 bd 54 97 ac be d3 73 9b 3e
       -0.18987386 -0.05537208 -0.33709204 0.30361804
0002f0 a6 c0 85 be d2 c7 aa 3d 5f b1 1b 3e c3 cb 92 3e
       -0.26123542 0.08338894 0.1520438 0.28671083
000300 4d 3d 4c 3d 78 d2 46 be 13 9f 11 bd 33 16 e7 bc
       0.04986315 -0.19416225 -0.035552096 -0.028208828
000310 22 99 04 be 6c 09 b4 3d 8f a2 d0 bd 7d ae d0 3d
       -0.1294904 0.087908596 -0.101872556 0.10189531
000320 7d 6c aa 3e 36 e0 be 3e 58 68 1b be ff df 23 be
       0.33285895 0.37280434 -0.15176523 -0.16003416
000330 89 cc be 3e 4e 6e a1 3e dc ef 02 3e cb 15 34 be
       0.37265423 0.31529468 0.12786812 -0.17586438
000340 b0 7f bf bd 10 b3 68 3e 84 a9 61 3d fd ba 04 3d
       -0.09350526 0.22724557 0.055093303 0.03240489
000350 98 96 a8 3e 25 00 40 3d fb 90 71 be bc 97 92 be
       0.32927394 0.046875138 -0.23590462 -0.2863139
000360 96 02 bb be bb 1e 0e 3e 0b ad 74 3d 35 71 8e 3d
       -0.3652541 0.1387891 0.05973534 0.06955186
000370 6f 34 23 bd 11 a3 72 be 98 3d df 3e 2c 98 b2 3e
       -0.039844926 -0.23695017 0.4360168 0.34881723
000380 a3 7e ee bd f3 d3 81 bd 42 18 1a 3e 1d 9b e7 3e
       -0.11645248 -0.06339254 0.15048316 0.4523553
000390 bd 15 83 bb 8f 7b 70 3e 5a 63 cb bd fc 00 9d 3e
       -0.004000394 0.23484634 -0.09931059 0.30664814
0003a0 8f d1 9b 3e 64 c6 50 be dc d5 15 be 51 d5 aa 3d
       0.30433318 -0.2038818 -0.14632362 0.08341468
0003b0 d6 31 a7 3d 1d 6c 98 be af 82 46 3e b4 f4 20 3d
       0.08163802 -0.29769984 0.1938579 0.039295867
0003c0 d7 e0 b9 3e 08 a8 b3 3d c2 2d 4a 3e a2 60 ae be
       0.36304352 0.08772284 0.19744018 -0.340581
0003d0 0d 05 3f be d0 11 36 3e 96 76 d3 be 75 9e 79 3e
       -0.1865427 0.17780232 -0.4130141 0.24376853
0003e0 b2 12 9a 3d 88 4e 4d be 75 83 96 3e ad 2f 97 be
       0.07523097 -0.20049489 0.2939717 -0.2952856
0003f0 c2 d7 08 be 4e 8c 81 3e be e1 04 3c 3d 14 98 3e
       -0.13363555 0.25302356 0.008110462 0.2970294

shared.0.bias f4 [256]
000000 20 76 37 3e ea b7 57 be af 2f 86 be 51 da 23 be
       0.17916155 -0.21066251 -0.26208255 -0.1600125
000010 25 52 cf bd 95 06 69 3e 4e 94 94 3e d8 c0 a1 3e
       -0.1012309 0.22756417 0.29019397 0.3159244
000020 ca d7 05 3e 3d b9 bb be 15 58 9c 3a 06 cb 78 3e
       0.13070598 -0.36664763 0.0011928106 0.24296197
000030 37 51 f0 3e f3 89 c7 3d cd e7 9b be fd 93 bc be
       0.46936962 0.097431086 -0.30450287 -0.36831656
000040 5e 9f 18 3e 69 70 85 3b 0b a0 74 3e 67 be a0 3e
       0.14904544 0.004072238 0.23889177 0.31395265
000050 47 36 c5 be 36 d2 b7 3e 5e 22 ed 3c a8 b7 9c be
       -0.38517973 0.35902566 0.028947052 -0.3060887
000060 1f a0 31 be 66 4e af 3e 10 88 f2 bc fe c2 28 be
       -0.17346238 0.342395 -0.029605895 -0.16480634
000070 0b 96 dc 3e c0 c8 8b be 72 42 8f be 9c d9 af be
       0.43083224 -0.27301598 -0.2798038 -0.3434571
000080 32 42 99 3e 95 35 96 3e f4 cf bf 3e 92 cc 3c be
       0.29933316 0.29337755 0.37463343 -0.18437412
000090 b2 70 cd 3e 1e 49 9d 3d a2 67 9f be 50 45 28 be
       0.40125042 0.076799616 -0.31133753 -0.1643269
0000a0 28 0f 90 3e 24 24 00 be 3a 16 d3 3e b9 bd 05 be
       0.28136563 -0.12513787 0.41227895 -0.13060655
0000b0 40 96 0e 3f f8 e5 1f 3e 5f 6a 28 be 2f e4 78 bd
       0.55698013 0.1561507 -0.16446827 -0.060764488
0000c0 ec 63 b6 3c a3 3c 6f be fa 8e 02 3e b2 d8 f2 bd
       0.022264443 -0.23362975 0.12749854 -0.118577376
0000d0 ff 77 3a 3e 36 a3 3b 3e bc 24 b7 3c c9 0d a0 be
       0.18209837 0.18323979 0.022356384 -0.31260517
0000e0 e5 e2 d7 3e 74 64 de 3d 59 7d f3 3c 1e 84 a6 3e
       0.42165294 0.10859004 0.029722856 0.32522672
0000f0 65 d7 08 3f f8 c0 d2 bd 4a 3f e5 3e 54 a8 85 3e
       0.53453666 -0.10290712 0.44774848 0.26104987
000100 18 b2 18 be 62 d8 75 3d f1 91 b3 3e 8a 2f bb 3e
       -0.14911687 0.06002081 0.35072282 0.36559707
000110 14 49 d0 3e 0c 38 30 3e 9b 7e f3 3e fb 7c dc 3e
       0.40680754 0.1720888 0.4755753 0.43064103
000120 6b 6f 85 3e 93 3b d6 be af 84 cb bd b8 57 c1 3e
       0.26061568 -0.41842327 -0.09937417 0.37762237
000130 41 8e b5 3d 03 a8 99 be 87 e2 4b 3e a3 d4 ce bd
       0.088650234 -0.30010995 0.19910632 -0.10099151
000140 b3 02 98 be 21 7b e6 3e d2 8b 43 3e 70 b4 35 be
       -0.2968956 0.45015815 0.19096306 -0.17744613
000150 16 ea 79 3e b2 81 bf 3e de 1c 90 bc 46 70 8a 3d
       0.24405703 0.37403637 -0.01759189 0.06759696
000160 81 af 1c be 2e 0d 48 bd 98 3b 09 3e 2b 4b 0a be
       -0.15301324 -0.048840694 0.1340164 -0.13505237
000170 03 f2 54 3e 01 87 dd 3d 8c dc b5 3e 06 5e 3d 3e
       0.20795445 0.108167656 0.35519826 0.18492898
000180 8f 97 98 3e a0 37 e4 bd 18 e0 83 be a5 0d 07 bd
       0.2980313 -0.11143422 -0.25756907 -0.032971997
000190 8a a8 00 3e 62 0f 3a be c7 bb ab 3e d2 5f aa 3e
       0.12564293 -0.1816993 0.335417 0.3327623
0001a0 e6 c6 dc 3e 21 3d a6 bd 9a a8 cc 3e 32 b5 a5 be
       0.43120497 -0.08117128 0.39972383 -0.32364804
0001b0 bf fb 33 bd 11 09 cd be 2b c9 c2 be ac 85 5e bc
       -0.043941256 -0.4004598 -0.38044104 -0.013581675
0001c0 20 39 61 be 53 ad 1a be 0f a3 48 3d 2a 8b bb 3e
       -0.21994448 -0.1510518 0.04898363 0.3662961
0001d0 dc eb f2 3e d5 6b 95 be 05 9f 89 3c a7 d8 d3 be
       0.4744557 -0.29183832 0.01679946 -0.4137623
0001e0 5b a4 cf be ec e3 85 be 7e a1 4e 3e 5e 0c 9e 3e
       -0.4055508 -0.26150453 0.20178792 0.3086881
0001f0 f9 b0 85 be 69 1f a0 be 63 3f 94 be 6e 62 d4 3e
       -0.26111582 -0.31273964 -0.2895461 0.41481346
000200 25 44 8f 3e 61 de 6d be bb 12 ab 3e dc 17 83 3c
       0.27981678 -0.23229362 0.33412728 0.016002588
000210 04 5c df 3d d5 85 97 be 24 6b 4e 3e 4b e7 97 be
       0.109062225 -0.29594293 0.20158058 -0.2966865
000220 2d a5 5e be 50 40 3f be 78 16 ff 3d 9a 65 29 3e
       -0.21742697 -0.18676877 0.124554574 0.16542664
000230 87 35 fd 39 b1 83 b8 bb 30 cc 06 be fa 10 a4 3e
       0.000482958 -0.005630933 -0.13163829 0.32044202
000240 ad 18 ce 3e ee 3b db be 82 16 8d 3e da 95 f8 3d
       0.402532 -0.4281916 0.27556235 0.12137957
000250 a5 00 6b 3e 7f f9 9d 3e e3 ae 67 3d ad fd af 3e
       0.22949465 0.30854413 0.05656327 0.34373227
000260 31 c2 04 be c5 4a 9f be e6 96 f8 3d 46 e8 a6 3e
       -0.12964703 -0.31111732 0.121381566 0.32599086
000270 c4 b3 82 3e e9 a5 3c 3e 1b c1 c4 3c 78 c2 a6 3e
       0.25527775 0.18422665 0.024017861 0.32570243
000280 37 be da be fa 38 72 be a3 4f 7e 3e 93 61 e7 3e
       -0.42723247 -0.23654547 0.24835066 0.4519163
000290 8c f2 02 3e 0f 20 61 be 6e 92 d2 3e bc 2d 4e 3d
       0.12787837 -0.21984886 0.41127342 0.050336584
0002a0 7c ec af 3e 3d 80 43 3e d9 44 ab 3e e9 93 51 3e
       0.3436011 0.19091888 0.33450964 0.2046658
0002b0 8b 78 80 be 25 6c c1 be f8 6e 8c 3e 68 89 cf 3e
       -0.25091967 -0.3777782 0.27428412 0.4053452
0002c0 eb 92 59 3e 5c 25 91 bd 20 9c 58 3e 99 cc 33 be
       0.21247451 -0.07087204 0.21153307 -0.17558517
0002d0 13 b3 a1 3d d6 3c 1f be 20 f8 66 be a0 03 13 3f
       0.07895484 -0.15550551 -0.2255559 0.57427406
0002e0 ee f5 72 bd 3c fe c6 be 52 7c 46 3c 0a f6 bd 3d
       -0.059316568 -0.3886584 0.012114601 0.09275444
0002f0 33 5f 27 be 71 17 39 be 2c d6 0f be 0b 72 79 3e
       -0.1634491 -0.18075348 -0.14046544 0.2435991
000300 78 0c 53 be 30 0b be be 17 8f dd 3e d7 0e d5 3e
       -0.20610225 -0.3711791 0.4327323 0.41612884
000310 f1 ff 9a 3e 70 7a 67 bd aa 53 52 3e d8 fa ef 3e
       0.30273393 -0.05651325 0.20539728 0.46871066
000320 d6 10 28 be 5a c8 b7 be fd 3b b5 bd f4 47 85 be
       -0.16412672 -0.35895044 -0.088493325 -0.26031458
000330 31 65 76 be dd 94 89 be 12 4b 59 be c0 0e 9d be
       -0.24062039 -0.26871386 -0.21220043 -0.30675316
000340 98 0a b3 be 48 04 63 3e 34 be 81 be 6b 18 83 3e
       -0.3496902 0.22169602 -0.25340426 0.25604567
000350 e5 26 ad 3c 6a 00 2e 3d ed 2e 04 3f f5 9c f9 bd
       0.02113671 0.042480864 0.51634103 -0.1218814
000360 a4 67 22 3e 06 62 11 3d 3a 32 d9 be 3a 86 d3 be
       0.15859848 0.035493873 -0.42421132 -0.41313344
000370 1e 0f ea 3e 47 68 b1 3d b4 ef 65 be 5a 9b e4 3e
       0.45714658 0.086624674 -0.2245472 0.44649774
000380 19 e9 77 3e 4e cd 38 be ff 10 13 be 99 b0 aa be
       0.24210013 -0.18047068 -0.14361952 -0.33337858
000390 bc 47 b0 be 69 8e c8 3d 2d ed f8 3e b3 8e 6e 3e
       -0.3442973 0.097927876 0.4861845 0.23296623
0003a0 cb 0a 0b 3f 35 14 bb be a7 b5 74 be 25 d3 ab 3e
       0.54313344 -0.36538854 -0.2389742 0.33559528
0003b0 5c 1b e5 be 5f 96 e3 bd 8c 61 1d 3c 2c d4 02 3f
       -0.44747436 -0.111126654 0.0096057765 0.51105
0003c0 66 1c 89 be 25 68 9f 3d 17 f3 74 3d 0c 5b 0d 3e
       -0.2677948 0.07783536 0.05980214 0.13804263
0003d0 81 c8 a1 bd 69 0d 25 3e 29 9e 0e 3e 29 f2 80 be
       -0.07899571 0.16118397 0.13927521 -0.25184754
0003e0 78 69 82 3e b5 63 24 3e 2c c3 f0 3c e6 36 e5 3e
       0.2547109 0.1605366 0.02938994 0.44768447
0003f0 89 aa d5 be 25 78 6e 3e 49 a3 b2 3b 97 87 a5 3e
       -0.4173167 0.23288019 0.005451594 0.3233001

shared.2.weight f4 [256, 256]
000000 ff c0 04 3c e5 15 24 bd bc 57 7f bc 13 d5 07 bd
       0.0081026545 -0.040059943 -0.015584882 -0.033162188
000010 b8 ba d0 3c 5c c6 23 3e 1c 83 ca 3d d9 a4 3f 3d
       0.02547966 0.15993637 0.098882884 0.04678807
000020 81 aa 55 bd 12 36 2a 3b 55 e0 78 3c 00 c8 74 3c
       -0.05216456 0.002597217 0.015190204 0.014940262
000030 a1 12 ba 3d 6f 4a 95 bc 92 e3 9f bd 08 d3 da bc
       0.090855844 -0.01822397 -0.078070775 -0.026711956
000040 f4 d1 64 3d bd c0 4e 3d fe c0 0b bd 3b e9 9d bc
       0.05586429 0.05047678 -0.0341196 -0.019276252
000050 0e d3 c1 bd 4d 32 a9 3d ca 73 88 3d fb 25 14 bd
       -0.094640836 0.08261547 0.0666271 -0.036169033
000060 52 76 17 bd 4a 2f 1e bc 13 10 80 bd 64 ec 97 bd
       -0.036978073 -0.009654829 -0.06253066 -0.07418135
000070 45 30 5e 3d 7b 92 1f bd 2b 10 51 bd d9 54 8d bd
       0.054245252 -0.038958054 -0.05104081 -0.06900949
000080 83 57 5f bd f0 d0 bc 3c 11 54 23 bd 02 ad 8b 3d
       -0.054526817 0.023048848 -0.039875094 0.06820108
000090 44 81 17 bd 93 0a 34 3d 49 70 50 3c 40 b0 86 bc
       -0.03698851 0.043955397 0.012722083 -0.016441464
0000a0 e6 e3 dc 3c 63 f7 14 bc 1d cf d2 3c 4f be e8 bc
       0.02696414 -0.009092185 0.025733525 -0.028411059
0000b0 26 84 41 3e ee 44 0b bd c3 06 19 bd 2d 8b 58 3d
       0.18898067 -0.034001283 -0.037359964 0.052867103
0000c0 d1 d7 5b 3d 92 7e 3b 3d 5b e3 c3 bc 7b 11 c9 3b
       0.053672615 0.045775004 -0.023912122 0.006136117
0000d0 5f cf 30 bb 35 1f 92 3d 9c 0b 97 bc 59 25 ad bd
       -0.0026979072 0.071348585 -0.018438153 -0.08454389
0000e0 19 0d 95 3d d3 d1 81 3d 8d 47 53 3c 47 07 4f 3d
       0.07277889 0.06338849 0.012895477 0.05054405
0000f0 68 22 cf 3d e3 0f 5a 3b 6a 21 56 3d 5c 66 23 3d
       0.10113984 0.003327363 0.05227796 0.03989254
000100 43 6e 4c ba a6 37 0d 3c 16 a9 05 3d 39 ff 87 3d
       -0.00077984127 0.008619225 0.032631956 0.06640477
000110 c6 41 bf 3d c5 19 64 bb ad 39 03 3e c4 6d 87 3d
       0.09338717 -0.00348054 0.1281497 0.06612733
000120 d7 bd 9d 3a 4f 44 2c 3c 50 00 7b 3d e2 1b 99 3c
       0.0012034726 0.010514333 0.061279595 0.018690053
000130 31 4d d0 bb b7 e7 44 bd d6 a4 b5 3c e1 56 5c 3c
       -0.006356858 -0.048072543 0.022173326 0.013448448
000140 af 37 5d bd eb 45 91 3d f2 f9 6f 3d f9 80 27 bd
       -0.054008182 0.07093414 0.058587976 -0.040894482
000150 4a 61 6f 3d ac 0e aa 3d 6a b5 ba 3c 63 5c 5f 3d
       0.05844239 0.0830358 0.022791583 0.054531466
000160 2e 70 85 3d ee 2e 8b bc ab e6 ec bb f1 4f 7a 3c
       0.06515537 -0.016990151 -0.007229646 0.015277849
000170 75 bf d6 3a 31 f5 d9 3c c7 6d a4 3d 66 1a 68 bc
       0.0016383963 0.026606174 0.08028751 -0.01416645
000180 b2 85 31 3d 88 8f 2b bc 91 9a 09 bd bb 56 1f 3c
       0.043340392 -0.010471232 -0.03359467 0.009725268
000190 6d 13 9f bb 76 5a 3b 3d 27 84 3a bc f6 5f de bc
       -0.0048546107 0.045740567 -0.011384047 -0.027145367
0001a0 c9 7b 7c 3d b3 72 b3 bd af da 45 bc 7d c4 8c bd
       0.06164149 -0.087621115 -0.012076064 -0.06873415
0001b0 c2 09 fb 3c 75 ab 25 bd 8d 41 11 be 0a 88 24 3d
       0.030644301 -0.040446717 -0.14185162 0.0401688
0001c0 34 7c 5d 3c fd 02 bf 3c 33 25 a4 3d a8 a3 ee bc
       0.013518382 0.023316855 0.08014908 -0.029130772
0001d0 01 93 d1 3d 7d 94 d7 b9 a8 9f be 3c 06 2e 88 3d
       0.10233117 -0.00041118628 0.02326949 0.06649403
0001e0 6a 0f 63 bd 0d 8d 21 bd 69 95 ad 3d 77 7e 01 3e
       -0.055434622 -0.039441157 0.08475763 0.12645899
0001f0 15 1d 0a 3d 7c 9a 92 bd a8 9d 93 bc 04 80 af 3d
       0.03371914 -0.07158372 -0.018019512 0.08569339
000200 22 00 2c 3d 0d 7e 67 3d 8e 3e a9 3d 3d 51 d1 3b
       0.041992314 0.056516696 0.082638845 0.006387858
000210 00 cb 0e 3d 44 c1 67 bb 85 21 a8 bc fc e1 40 3d
       0.034861565 -0.0035362998 -0.020523796 0.047090515
000220 92 5b aa bc b3 c1 82 3d b6 ac 0c 3d 04 1b 13 3d
       -0.020795617 0.063846014 0.034344397 0.035914436
000230 c5 ef 2a 3d dd c7 97 bc 43 88 ae bc a4 5b e0 bc
       0.04173257 -0.01852792 -0.021305209 -0.027387448
000240 5c ca 13 bc 0d 04 63 bd 82 21 75 3d a1 02 d4 3c
       -0.009020414 -0.055423785 0.05984641 0.02588016
000250 aa 10 47 3d 4c 94 a0 3d 3c 1f df bb 2f 9d bf 3c
       0.048599876 0.078407854 -0.0068091433 0.02339038
000260 a2 84 82 3c 18 9b 61 bd 04 4c 86 3c d2 f8 19 3c
       0.015932385 -0.05507955 0.016393669 0.009397702
000270 00 2a ab 3d 85 c3 ed bb 8a 6a 4f bc 1b 15 81 bc
       0.0835762 -0.0072559738 -0.012659678 -0.015757134
000280 e5 51 9d bd f4 20 a2 bc 4f 28 d8 39 27 c3 04 3e
       -0.07681636 -0.019791104 0.00041228763 0.1296507
000290 dd ae 8f 3d 0f 28 40 bd 93 df 44 bc be 72 da bc
       0.070157744 -0.046913203 -0.012016195 -0.026666041
0002a0 4e cf 80 3d f5 2e 3f 3d 5b 6e de bc f0 f6 93 bb
       0.0628954 0.04667564 -0.027152231 -0.004515521
0002b0 99 a2 0b bd 14 62 8d bd ea d3 9a bb 98 5a 39 3e
       -0.034090612 -0.069034725 -0.004724969 0.18100965
0002c0 69 64 c7 3c 1b 51 e1 3c 46 b3 82 3d 8a c9 1e bd
       0.024339871 0.027504494 0.0638185 -0.03876642
0002d0 8e 20 45 3d 3f a7 b0 3c fa 51 20 3e 7c 88 a6 3d
       0.04812675 0.021564124 0.15656272 0.08131501
0002e0 01 28 e8 bc 6f aa 07 bd 8e 7d 2a bb 50 ec db bc
       -0.028339388 -0.033121523 -0.0026014778 -0.026846081
0002f0 4e 5a 59 3c 3b 3c bb bc a5 20 31 3c c5 4c b8 3d
       0.013266159 -0.022855869 0.010811006 0.089990176
000300 4c 93 26 bd bd e6 4b bd 05 86 3c 3c e2 8b aa bc
       -0.040667817 -0.049780596 0.011506562 -0.020818654
000310 4b bd 8e 3d 6f 56 aa 3c 33 64 7c 3c f9 94 2b 3d
       0.069696985 0.020793168 0.015404749 0.04189012
000320 c5 21 58 bc a0 e7 17 bd e5 2c 87 bd 89 a5 80 3b
       -0.013191645 -0.03708613 -0.0660036 0.0039259833
000330 d4 eb 83 bd 0b d3 58 3d 8c 1f d2 3c 2f 1b 06 3c
       -0.06441465 0.05293564 0.025649808 0.008185192
000340 34 d8 9f bd 10 a9 3f 3d ff 4d 48 bd b1 dc 0e 3d
       -0.07804909 0.04679209 -0.048902508 0.034878436
000350 e8 60 51 3d cf f6 3f bd ba 3e 84 3c e1 46 03 bc
       0.051117808 -0.046866234 0.016143192 -0.008012504
000360 65 86 0e 3d 65 f5 e3 3c bc 9d dd 3c b7 48 b6 bd
       0.034796137 0.027826974 0.027052753 -0.08900588
000370 df de a5 3d c3 22 5e 3d 6b 9c 1f 3d 29 4a 02 3d
       0.0809915 0.05423237 0.03896753 0.031809006
000380 66 0e d2 3c dd 81 08 3d 31 a6 19 bc 2e 74 a9 3c
       0.025641631 0.033326972 -0.009378002 0.020685282
000390 e2 c2 56 bd a3 42 88 bc 85 f1 d5 3d e0 88 88 bc
       -0.05243195 -0.016633337 0.10446457 -0.01666683
0003a0 de d8 d2 3d 9b ea f6 3c 55 e6 93 bd 19 e0 80 3d
       0.102952704 0.030141165 -0.07221667 0.06292743
0003b0 53 65 89 bd 4d 37 3e bd 09 bf 10 3d 73 a6 a3 ba
       -0.06708779 -0.046439458 0.035338435 -0.0012485519
0003c0 5c 11 34 bd d7 e2 a0 3c 49 3a 5f 3d 88 91 9e bc
       -0.043961868 0.019639416 0.054498944 -0.019356504
0003d0 3d 86 95 3d 24 48 a6 3c 62 e1 00 3a 8f fe 92 bc
       0.073009945 0.020298071 0.0004916397 -0.017943649
0003e0 0f 56 5b 3d ce ba 57 3d a7 05 2b bd ae d1 15 3c
       0.05354887 0.052668385 -0.041753437 0.00914423
0003f0 6d 3e 6d bd f3 ce 8b bd e5 ed 8f 3d e5 37 84 3d
       -0.057920862 -0.06826582 0.07027797 0.064559735

shared.2.bias f4 [256]
000000 9b 75 f6 3d b3 32 ec 3c 83 87 18 3e 83 2c 5c 3c
       0.1203415 0.028832769 0.14895444 0.013438347
000010 68 fa ed 3d f1 2e f9 3d a5 59 8b be 90 01 11 3e
       0.11620027 0.121671565 -0.2721683 0.14160752
000020 2f 22 e5 3c 30 11 72 3e 0d e9 39 3e 15 45 8f 3c
       0.027970402 0.23639369 0.18155308 0.017488996
000030 64 25 26 3e c9 fb 66 3e 9e 3d 20 3e 2b 6a 54 3e
       0.16225201 0.22556986 0.15648505 0.20743625
000040 a9 34 5e 3e e8 41 75 3e 98 1f b7 bc ab ac d7 3d
       0.21699776 0.23950922 -0.022353932 0.10530981
000050 57 6d 80 3e d9 c2 58 3e 1e 4a ee bc 2d 61 42 bd
       0.2508342 0.21168078 -0.029088076 -0.047455955
000060 d5 be d3 3c ee f8 75 3c 06 62 0a bd 1a dc be bd
       0.025847832 0.015012963 -0.03378489 -0.09319325
000070 16 fb 44 3e 64 f7 d9 bc 80 f0 08 3e f3 ac 0a 3d
       0.19236407 -0.026607223 0.13372993 0.033856343
000080 5f 17 3b be 0e 40 5b bd d1 26 4b 3e 8b 6e 15 3e
       -0.18270634 -0.053527884 0.19839026 0.1459295
000090 83 bd 4b 3e e5 c3 5a 3e cc bf 70 3e b4 bb aa bc
       0.19896512 0.2136379 0.23510665 -0.020841457
0000a0 74 c3 b1 bc ea fe 34 3e bc b5 2a 3e a2 9d 99 ba
       -0.021699645 0.17675367 0.16670889 -0.0011719952
0000b0 7c f1 34 be e9 f8 e3 3d 29 f8 24 3e 6a 42 c6 bd
       -0.17670244 0.1113146 0.1611029 -0.09680636
0000c0 fc ce 1e 3e 40 45 fc 3d 83 14 59 3e a1 d8 e4 bd
       0.15508646 0.12317896 0.21199231 -0.11174131
0000d0 68 95 90 3a 09 2a f6 3d ba ae 1c 3e ba a4 57 3e
       0.0011030855 0.12019736 0.15301028 0.21058932
0000e0 3d 36 74 3e 9e 64 2c 3e 1d a8 40 3e e6 3b 64 3e
       0.23848815 0.16835257 0.1881413 0.22288474
0000f0 ff 93 e4 3d 0f 09 4c 3e 1c d3 4b 3e c8 e5 e6 bc
       0.111610405 0.1992533 0.1990475 -0.02818574
000100 aa 2c a6 bd 30 aa 1b 3e d2 4c 34 3e cf 52 52 3e
       -0.08113988 0.1520164 0.1760743 0.20539401
000110 42 3d 5e 3e 99 28 e7 3c 16 23 2a 3e c8 64 50 3e
       0.21703056 0.0282176 0.16614947 0.20350945
000120 06 bc 5c 3e 54 4c 48 3e 67 63 4f 3e 64 3a 10 3e
       0.215561 0.19560367 0.20252763 0.14084774
000130 77 6d 1f 3e c1 ec 9d bc a3 03 88 bc 01 cf be bc
       0.15569101 -0.019277932 -0.016603297 -0.023292067
000140 ba 15 2e 3e f3 ba f8 bd 83 fd 09 bd 55 0f 74 bc
       0.17000476 -0.12145033 -0.033689033 -0.014896234
000150 13 82 36 be a8 e5 33 3e f0 96 6d 3e 79 19 28 bc
       -0.17823057 0.17568076 0.2320211 -0.010259979
000160 c4 e1 00 3d 19 e0 15 3e 05 d3 24 3e 54 38 4b 3e
       0.031465307 0.14636268 0.16096123 0.19845706
000170 e5 fe 44 bc 6a 8c 3c 3e ff 27 43 3e 9d 10 f3 3d
       -0.012023662 0.18412939 0.19058226 0.11868403
000180 a8 e7 3a 3e b6 63 9c 3b 7d 2b 25 bd 2c e4 df 3d
       0.18252432 0.0047726287 -0.040324677 0.10932192
000190 dd 59 e5 3d 11 98 1d 3e c2 66 86 be d3 e7 08 3e
       0.11198781 0.1539004 -0.26250273 0.13369684
0001a0 6b 01 38 3e 1d 57 8e 3b 4b 69 64 be 79 a5 47 3e
       0.17969291 0.004343881 -0.22305791 0.19496717
0001b0 20 0b df bd f1 50 1d bc fc 3f 60 3e bd 1a 0d 3e
       -0.10890794 -0.0096018175 0.21899408 0.13779731
0001c0 67 26 f0 3d 33 9b b1 3c 67 bc 1b 3e fd b5 e2 3c
       0.11726075 0.02168045 0.15208589 0.02767467
0001d0 42 d9 45 be 88 05 93 3d e4 da fd 3d 06 e2 06 be
       -0.19321159 0.071787894 0.12395266 -0.13172159
0001e0 1e 4b 45 3e 75 a5 3a 3d 34 a7 22 3e 5f c7 0f 3e
       0.19266936 0.04556795 0.15884095 0.14040898
0001f0 b0 f3 3a 3e a2 5f 0f 3e bb 24 46 3e c8 68 20 3e
       0.18257022 0.14001325 0.19349949 0.15664971
000200 39 3b d3 3b 6d d3 74 3e d1 c7 4c 3e 5a 11 13 bd
       0.006446269 0.23908778 0.19998099 -0.03590522
000210 28 37 47 bd c3 42 dd bd 82 47 a9 bc eb e1 1a 3e
       -0.048636585 -0.108037494 -0.02066398 0.15125243
000220 75 29 38 3e a1 02 60 3d 1d a0 28 3e 4f c3 4e 3e
       0.17984565 0.054690007 0.16467328 0.20191692
000230 2d 3a 00 be 43 ac 61 bd 7c 70 42 3e 75 76 02 3e
       -0.12522192 -0.055095922 0.18988222 0.127405
000240 75 67 57 bd ce 18 73 3e 43 60 53 bd 4a 7d 45 3e
       -0.0525889 0.23739931 -0.051605474 0.19286075
000250 27 60 a4 bd a8 c1 09 3e 76 98 66 3e 18 f4 1c 3e
       -0.08026152 0.1345278 0.22519097 0.1532749
000260 23 79 3a 3e a9 f7 33 3d 14 bf ea 3b 5a d3 03 3e
       0.18210272 0.04393736 0.0071638916 0.12873593
000270 02 6d 5c be 17 df 47 3c 6c b8 3c bc f3 c7 16 3e
       -0.21525958 0.012199185 -0.011518579 0.14724712
000280 38 99 53 3e 10 9e 10 bd 12 e0 00 3e ae 0f 62 bd
       0.20663917 -0.03530699 0.12585476 -0.055190735
000290 af 4b 2b 3e 98 9a 78 3e a5 4a 20 be 5c f1 8b 3a
       0.1672809 0.24277723 -0.15653475 0.0010676789
0002a0 cc 25 00 be f7 8d 15 3d 4c c1 72 3e a5 be 36 bd
       -0.12514418 0.03651234 0.2370655 -0.044615407
0002b0 d9 39 24 3e ad f2 65 3e 84 f1 f7 3c fa 74 78 bd
       0.16037692 0.22455855 0.03026653 -0.060658433
0002c0 30 13 05 3e 3d 5a 1a 3e 01 ea 0a 3e 63 34 23 3e
       0.129956 0.15073486 0.13565828 0.15937953
0002d0 fd b4 69 3e f5 3f 35 3e 78 4e 6b bb 1f 1d 27 3e
       0.22822948 0.17700179 -0.0035904925 0.16319703
0002e0 05 6d 0c bd f0 cc 14 3e e8 df 1b bc 80 b4 75 bc
       -0.034283657 0.14531302 -0.009513833 -0.014996648
0002f0 f5 46 ce bc 79 87 28 3e f4 6c 19 3e 50 a7 4a bd
       -0.02518032 0.16457929 0.14982969 -0.049475968
000300 0f 65 d4 bc 35 62 07 3c d0 42 28 3e b9 aa 5f 3e
       -0.025927095 0.0082631605 0.16431737 0.2184247
000310 f2 19 58 3e 18 6c 3a 3e fb 80 30 3e a6 e2 19 3d
       0.21103647 0.18205297 0.17236702 0.037569664
000320 bd 70 1a bd fd 18 12 3e 1c 67 30 3e c4 73 4f 3e
       -0.03770517 0.14267345 0.17226833 0.20259005
000330 f2 58 53 3e 39 74 60 3e 95 5f 25 3e 3c 06 03 3e
       0.20639399 0.21919335 0.16149743 0.12795347
000340 7d cc 70 3e c4 56 1f 3e 84 11 5d 3e 83 6d 19 3e
       0.23515506 0.15560442 0.21588713 0.14983182
000350 6a 39 3a 3d e1 91 e7 3d 1d d0 66 3e 37 fb 52 3e
       0.04546491 0.11307121 0.22540326 0.20603643
000360 a7 e2 36 bd d1 ab 5a 3e 09 fc 2e 3e c3 4b 98 3d
       -0.044649746 0.21354605 0.17088331 0.074363254
000370 51 7a 20 3e be 06 75 3e a1 62 94 3d 66 27 36 3e
       0.1567166 0.23928353 0.072453745 0.17788467
000380 0f c5 28 3e bd cf 38 3e e4 e2 5b bd b1 51 1b 3d
       0.16481422 0.18047996 -0.053683177 0.037919704
000390 70 fc 47 3e a0 8d 10 3e 1d b5 03 3e 9c 9a 17 3e
       0.19529891 0.14116526 0.12862058 0.14805073
0003a0 7e 76 26 3e 31 d6 6a 3e 87 5f 28 bd 25 ab 2a be
       0.16256139 0.2293327 -0.041106727 -0.16666849
0003b0 51 54 9d 3c cc 36 97 3c f7 64 0b 3e 2f fd 69 be
       0.019205244 0.018458746 0.13612734 -0.22850488
0003c0 fe e1 70 3a 87 d5 1b 3e b2 61 43 be f7 53 25 be
       0.0009188949 0.15218173 -0.19080237 -0.16145311
0003d0 ef 08 27 3c 2e 9e 0c be d8 d3 45 3e c9 d2 1e 3e
       0.010195001 -0.13732216 0.19319093 0.15510096
0003e0 bd be f8 3d 09 6f eb 3d 47 7e 0b 3e 97 4f da bd
       0.121457554 0.11495788 0.1362239 -0.10659712
0003f0 b9 5f 2b 3e 42 d0 1c 3e 7a 48 7a 3e c9 68 fd bc
       0.16735734 0.15313819 0.2444171 -0.030933755

actor.weight f4 [3, 256]
000000 8c 3d 48 3d b6 fc c8 bc 7e cc 32 3c b9 1c 10 bd
       0.04888682 -0.024534564 0.010913013 -0.035183642
000010 a0 fd 6e bd 78 fd 61 bd e1 d1 8c bd 4e 37 ae bc
       -0.058347344 -0.055173367 -0.06875969 -0.021266606
000020 69 6d 0c 3d 59 ad 30 3d e7 84 60 3d 10 2f 89 bc
       0.03428403 0.043134067 0.054814246 -0.016746074
000030 8e 7d 52 3d 70 31 7e bb 84 63 9a 3c a2 a2 05 3c
       0.05138927 -0.0038786791 0.01884628 0.00815645
000040 91 00 b6 3d dd b2 b5 3c 48 2e 22 3c 25 08 18 bc
       0.08886827 0.022180015 0.00989873 -0.009279286
000050 24 24 27 3d c8 ff 0d 3d 8c 94 e3 bd ad c8 d3 bc
       0.04080595 0.03466776 -0.111123174 -0.025852526
000060 99 17 b5 bb ac 25 27 3c 85 1d fb 3c a3 15 c2 bd
       -0.0055264947 0.010201853 0.030653724 -0.09476783
000070 c9 eb 53 bd b8 c6 3b 3c 1f 64 91 bd ee ee af bb
       -0.051738534 0.011460952 -0.07099175 -0.005369059
000080 99 44 7d 3c a6 60 92 bc e3 fa 92 3d ca fb c0 b9
       0.0154582495 -0.017868351 0.07176759 -0.0003680869
000090 e6 0c 98 3d ce 21 0f bd fd 55 69 bd 6f 6e 91 bc
       0.07424335 -0.034944348 -0.05696677 -0.017752854
0000a0 ec 95 27 3d 91 04 4a 3d f3 40 03 3d 9a 24 22 3d
       0.04091446 0.04932076 0.032044362 0.039585687
0000b0 b5 75 ed 3b 9d 0a cc bc 52 de 0f 3d d0 64 d0 3d
       0.007246698 -0.024907405 0.03512413 0.101754785
0000c0 ae 13 42 bc 39 50 6d 3b 06 e8 6f bd e5 e0 5b bc
       -0.011845512 0.0036211147 -0.058570884 -0.013420318
0000d0 80 08 02 3d a9 31 e4 3d e5 04 92 3d 72 bd 81 3c
       0.031746387 0.111422844 0.0712984 0.015837405
0000e0 dc df 7a bd 46 d5 2b 3d b4 d5 1b 3d 42 d2 7b 3c
       -0.061248645 0.04195144 0.0380456 0.015369954
0000f0 fe 3a 25 3d ad a2 99 3d 46 45 5e bd 09 48 79 bd
       0.040339462 0.07501731 -0.054265283 -0.060859714
000100 14 ee e2 bd b2 41 be bc 70 1c cf bb 32 a3 e1 3c
       -0.11080566 -0.023224685 -0.0063205287 0.027543638
000110 85 ae 35 3c 4a c1 a7 bb 9f d4 49 3d 5c e3 98 3d
       0.011088972 -0.0051194774 0.049275037 0.0746524
000120 27 09 9e bd 11 11 fa 3a f1 f9 04 bc ce 01 35 3c
       -0.077165894 0.0019078573 -0.008116231 0.011047794
000130 13 8b c9 3b c8 85 4c 3b 61 77 b9 3c 54 87 ab 3d
       0.006150612 0.003120767 0.022639932 0.08375421
000140 b7 38 51 bd 60 9d ac 3b 9a 70 04 bd b2 22 38 3d
       -0.051079478 0.005267784 -0.032333948 0.044954963
000150 79 4e 99 3b 5f 27 89 3d f6 5a 8a 3d 10 45 4c 3d
       0.004678544 0.066969626 0.06755631 0.04987055
000160 ab 85 22 bd 5c a7 76 3d 7c c8 e6 bb bb 28 0b 3d
       -0.039678257 0.0602182 -0.0070429426 0.03397439
000170 de 88 c3 3c 6c e7 c4 3b 86 5d 13 bd c2 ff cf bc
       0.023868974 0.006009033 -0.035977863 -0.02539051
000180 5e 48 99 bc e4 a7 8f bc 39 bb 5e 3d f8 fd 86 3b
       -0.018711265 -0.017536111 0.05437777 0.004119631
000190 8c c8 77 3d 62 26 0d 3d 1d 92 01 bd e0 73 cf 3c
       0.06049399 0.034460433 -0.031633485 0.025323808
0001a0 92 c6 0a bd 76 18 e8 3c 36 f4 2d bd 5c f7 80 bd
       -0.033880778 0.028331976 -0.042469226 -0.0629718
0001b0 06 e1 b9 bd c3 9b ca bb 84 01 8f 3d 86 ee cb bc
       -0.09076123 -0.006183119 0.06982711 -0.02489401
0001c0 68 33 27 3d 89 a6 4b 3d 7e 8b 68 3d 81 f9 d7 bc
       0.04082051 0.049719367 0.056773655 -0.02636409
0001d0 a4 42 a3 3d af 9b 95 3c 91 d2 c0 bc b7 51 fd 3b
       0.07971695 0.018262712 -0.023537906 0.0077306884
0001e0 ba 61 3d 3d 3a de c2 3c a6 f2 bf 3b 09 a1 03 bd
       0.046235777 0.023787607 0.0058577834 -0.032135997
0001f0 9d f4 42 3d 2b 26 d1 bc fa dc 1c bd d6 fd a2 3d
       0.047596563 -0.025530895 -0.038296677 0.079585716
000200 a7 7c 9c 3c 20 5e 7b 3c ca 22 a2 bc 40 38 2e 3d
       0.019102408 0.015342265 -0.01979198 0.042534113
000210 10 99 5b bd fe e4 d7 3c 25 24 09 3d 68 ec 0d bc
       -0.05361277 0.02635431 0.033481736 -0.008662321
000220 a1 08 8d 3d cd 78 e3 bd 2a eb f0 bc 6d 80 83 bd
       0.068864115 -0.11107025 -0.02940901 -0.0642098
000230 b3 0f 99 3d 90 16 57 bd a1 31 9c 3c c6 06 d0 3b
       0.074736975 -0.05251175 0.019066634 0.0063484637
000240 1b c6 12 3c 6e 3b db 3c ce e5 df 3c 53 6a ca 3b
       0.008958365 0.026761737 0.02733126 0.0061772256
000250 bf df b7 3c 67 f0 fd ba 39 6d 4b 3c ef 8d 34 bc
       0.022445558 -0.0019374014 0.012416177 -0.011020168
000260 5a e1 3f 3d 9d cd 2e bd 7c 62 5c bd cc a8 8c ba
       0.04684577 -0.042676557 -0.05380486 -0.0010731458
000270 3f b9 60 3c 64 4c ba bc 25 28 67 3c f4 54 1d 3c
       0.013716041 -0.022741504 0.014108692 0.009602774
000280 13 f8 87 3b 41 7d 72 3d 74 b3 9f bd 0c d0 49 3d
       0.004149446 0.059201483 -0.077979 0.049270675
000290 c4 1e 9b bc 3b 37 0f 3d b2 45 8b bd 5d 54 97 3c
       -0.018935569 0.03496478 -0.06800403 0.018472845
0002a0 e7 4a e8 3d fe e3 9b 3c 2b 23 4d 3d bd 9c 8a bc
       0.113424115 0.019029614 0.050082367 -0.016920442
0002b0 f2 ec 08 3d 01 ba a9 bc 0b 3c 85 bc d0 08 fa 3b
       0.033429094 -0.020718576 -0.016263982 0.007630445
0002c0 e9 ea f4 bc ed 42 4f 3d 7b 53 b6 3d 01 9b 01 bd
       -0.02989717 0.050600935 0.089026414 -0.031641964
0002d0 66 2e 96 3c 73 0f ae bd f5 1d 1b bd 2f aa 9b 3b
       0.018332671 -0.084990405 -0.037870366 0.004750512
0002e0 5a 65 08 bd 05 af aa bd 58 9c 57 bb 16 99 57 3d
       -0.03329978 -0.083341636 -0.0032899585 0.05263623
0002f0 73 31 77 3d 3e c4 1e 3c ee 22 c2 3d d0 6f f1 bc
       0.060349893 0.0096903425 0.094793186 -0.029472262
000300 ce 04 a7 3c ae 5b ab 3c ba 8d 06 bd 58 28 08 bd
       0.020388033 0.02091774 -0.032850005 -0.0332416
000310 7d fb 99 bd a2 27 6c bc a5 81 19 bd 98 02 d2 3c
       -0.07518671 -0.014413746 -0.037477154 0.025636002
000320 d5 7a ca 3b 81 54 10 3d 87 75 a9 3d 23 8c 7a bd
       0.0061791935 0.03523684 0.0827437 -0.0611688
000330 10 ee 3d bd c3 f1 d9 3c d1 97 52 3c 36 08 a3 bd
       -0.046369612 0.026604539 0.012853579 -0.079605505
000340 47 0b 13 3d 1c 15 7e 3d 20 31 01 3d b8 1f 47 3d
       0.035899427 0.06203185 0.03154099 0.048614234
000350 74 e7 32 ba 87 c4 7f 3d be 6b 53 bd 46 b3 a5 bc
       -0.00068246503 0.062443282 -0.051616423 -0.020227086
000360 6b 0f 01 3d fb a9 74 bc 71 c5 da bb 75 7a ec bd
       0.031508844 -0.014933105 -0.006676369 -0.11546794
000370 81 4b 9c 3c b6 ed 8c bd cc 5f 37 3b 30 e6 a5 3c
       0.019078972 -0.06881277 0.0027980683 0.020251364
000380 21 a5 4c 3d 43 f9 25 bd 6b dd be bc 7d 5a 29 3d
       0.049962167 -0.040520918 -0.02329894 0.041346062
000390 96 6d 2c bd b1 ca fe 3b 8e 8d 3a 3d 1f 02 86 bd
       -0.042096697 0.0077756275 0.045545153 -0.06543373
0003a0 42 a4 4c 3d 25 69 2c bd ab 88 d7 bc 3a ae c9 3c
       0.049961336 -0.04209246 -0.026310286 0.02461921
0003b0 92 0f a3 bb aa e9 c7 3c c5 60 9a bd 78 23 ad 3d
       -0.0049762214 0.024403412 -0.075379886 0.08454031
0003c0 ea 5f 48 3d 0e 50 3f bd b3 a7 6b 3d 2a 2f e2 3b
       0.048919596 -0.046707205 0.057532977 0.006902595
0003d0 02 ad dc bc 5e d5 8d 3d 2d 98 7d bc 84 1d 2d 3d
       -0.026937965 0.06925462 -0.015478176 0.042264476
0003e0 32 a4 53 bd 43 f7 30 3d 76 ea 2b bd e7 5b 86 bc
       -0.05167026 0.043204557 -0.041971646 -0.016401244
0003f0 49 67 0a bd bb 7f 9f 3d 52 c2 9d 3c 6a 9b 17 3c
       -0.033789907 0.077880345 0.019257698 0.009253362

actor.bias f4 [3]
000000 77 bc 81 3d 8e 4c e6 bc e4 6e 96 3c
       0.06334775 -0.028112676 0.018363424

critic.weight f4 [1, 256]
000000 0f 7c 5b bd 54 fb c0 3b 85 c6 5a bd b8 05 62 3d
       -0.05358511 0.0058893356 -0.05341198 0.055181235
000010 c5 ef a4 bd a6 8e b1 bd 2d f2 e3 3d bc d7 a1 bd
       -0.08053545 -0.08669786 0.11130176 -0.07902476
000020 11 27 2a 3d 65 41 46 bd b2 95 49 bd 5b 01 d4 3c
       0.041541163 -0.04840221 -0.049215026 0.025879553
000030 de e4 97 bd 29 77 8b bd f7 dd 34 bd e9 96 b1 bd
       -0.074167 -0.06809837 -0.044156995 -0.08671362
000040 15 9d 97 bd 87 0e 10 bd 80 9a 36 ba 79 86 cd bd
       -0.07403008 -0.035170104 -0.00069657713 -0.10035414
000050 1f 59 49 bd 4c 8e 80 bd b0 11 84 3d 01 cb 11 3c
       -0.049157258 -0.06277141 0.06448686 0.008898498
000060 1c b3 df 3b 64 20 f1 3b 36 0f 05 3d 94 c6 82 3d
       0.0068267714 0.0073585976 0.03248521 0.06385532
000070 ff e1 4f bd ee c7 12 3d 42 53 3f bd 75 df 5d 3d
       -0.050752636 0.0358352 -0.04671026 0.054168183
000080 70 33 a4 3d bc e3 01 3c 89 2b 31 bd f2 d1 9a bd
       0.080176234 0.007927831 -0.04325441 -0.07559575
000090 cd ae c8 bd 54 1b 80 bd d7 2e 61 bd 80 79 26 3d
       -0.097989656 -0.062552124 -0.05497631 0.040643215
0000a0 a0 e5 1c 3d be 34 16 bd be 8d a4 bd 70 97 a5 3c
       0.038304925 -0.036671393 -0.08034848 0.020213813
0000b0 9a ed f3 3d 42 3c ca bd 4f 5f 79 bd 7a fc 96 3d
       0.11910553 -0.098747745 -0.06088191 0.07372375
0000c0 44 bf bb bd c7 b0 a9 bd 90 6d 76 bd c6 bf 8c 3d
       -0.091673404 -0.08285671 -0.06016308 0.068725154
0000d0 2f d8 1c 3d 52 57 31 bd 59 2b 71 bd 84 0e 9b bd
       0.038292106 -0.043296166 -0.05887923 -0.07571128
0000e0 bc fd 89 bd a2 fd 50 bd 92 be 6c bd f2 a0 c1 bd
       -0.06737849 -0.051023133 -0.05779893 -0.09454526
0000f0 2f 74 57 bd a4 ed 8c bd 53 a5 9e bd 50 fa 54 3d
       -0.052601036 -0.06881264 -0.07746377 0.05199653
000100 ff 9c 8f 3d 37 66 86 bd e9 eb 35 bd df c9 9b bd
       0.070123665 -0.06562465 -0.044414435 -0.07606863
000110 a6 0c 27 bd 13 5f 40 3d 08 34 52 bd ba 76 07 bd
       -0.040783547 0.04696567 -0.051319152 -0.03307221
000120 2e fe b4 bd bc 06 80 bd 31 ad 2a bd 05 ad d2 bd
       -0.088375434 -0.062512845 -0.041669074 -0.10286907
000130 b7 ac 41 bd 88 8c 25 3d cc 79 1f 3d 54 a9 87 3d
       -0.047283854 0.040417224 0.038934514 0.06624094
000140 12 9b 9c bd 1a 07 8f 3d b8 9a 53 3d b4 b4 1e 3d
       -0.07646765 0.069837764 0.051661223 0.03874655
000150 23 97 80 3d d8 72 8b bd bd b4 ea bd 67 49 29 3d
       0.06278827 -0.06809014 -0.11460254 0.041329768
000160 ae 48 1b 3d 53 92 ac bd 20 3d 10 bd 6a 71 3c bd
       0.03791111 -0.08426347 -0.035214543 -0.046006598
000170 21 65 cc 3c 86 a6 a8 bd 89 1d 80 bd 58 18 c5 bd
       0.024950566 -0.08234887 -0.062556334 -0.09623784
000180 a1 b7 9e bd 32 9f b9 3c aa c9 58 3d 9a 61 4b bd
       -0.07749868 0.022658918 0.052926697 -0.049653627
000190 64 07 bd bd 20 2b 45 bd 7b 1d 93 3d 99 5b ce bd
       -0.09229925 -0.04813683 0.07183357 -0.100760646
0001a0 36 34 cf bd c8 e4 43 3c 61 ff d5 3d 98 27 25 bd
       -0.1011738 0.011956401 0.104491 -0.040320963
0001b0 65 0c 96 3d 06 84 1a 3d 74 d4 9a bd 37 e4 a0 bd
       0.07326583 0.037723564 -0.075600535 -0.078560285
0001c0 56 46 9b bd 8d 5e 65 3d d6 15 70 bd fd 25 16 3d
       -0.07581775 0.055998374 -0.058614574 0.036657322
0001d0 3d 02 ad 3d 37 2c 86 3d ee b0 32 bd d0 32 94 3d
       0.084476925 0.06551402 -0.043625765 0.07236254
0001e0 5d 6c c3 bd 8d e3 69 3d 7e a6 a5 bd 12 39 c7 bd
       -0.09542153 0.057101775 -0.080883965 -0.09727682
0001f0 48 0b da bd fb 7b 59 bd a0 f8 aa bd 10 93 8c bd
       -0.10646683 -0.053096753 -0.08348203 -0.068639874
000200 d2 e6 0c 3d c1 ed 3f bd c3 d7 96 bd cf 97 64 3b
       0.034399815 -0.0468576 -0.07365372 0.0034880524
000210 68 6f 1d 3d 02 9e 8a 3d c8 39 f3 3c b8 6d af bd
       0.038436323 0.06768419 0.029690638 -0.08565849
000220 20 b4 6e bd 10 43 58 3b aa a9 bb bd 8b 75 b5 bd
       -0.05827725 0.0032998957 -0.0916322 -0.0886031
000230 43 ad 87 3d d2 9f 5f 3d 36 11 41 bd 06 d6 95 bd
       0.06624844 0.054595776 -0.047135554 -0.07316212
000240 c7 0c 27 3d 4d 55 45 bd 97 67 18 3d 3f 72 4a bd
       0.04078367 -0.048177052 0.037208166 -0.04942536
000250 74 12 d7 3b 27 1c a7 bd 6f a1 b5 bd 0b 5d b6 bd
       0.006563479 -0.081596665 -0.08868682 -0.08904465
000260 2c 11 5f bd b6 1c ff 3c 7d 35 4b 3c bd cb 59 bd
       -0.054459736 0.03114162 0.012402889 -0.053172816
000270 35 6e 0b 3e 07 62 d6 3c d0 37 1a 3d 89 e3 ba bd
       0.1361626 0.02616979 0.037650883 -0.0912543
000280 ab 00 ad bd cb 32 64 3d d1 ba 80 bd 9a 49 bb 3d
       -0.08447393 0.055712502 -0.062856324 0.09144898
000290 9f 74 ad bd d3 f2 82 bd e7 9d df 3d 60 fd 4f 3d
       -0.08469509 -0.06393971 0.10918789 0.050778747
0002a0 e7 c9 8a 3d 26 9e 30 3c 30 f2 98 bd 8b 37 88 bb
       0.06776791 0.010779893 -0.074680686 -0.004157012
0002b0 59 de c0 bd 7f c1 2f bd f4 45 7a 3b 57 34 98 3b
       -0.094174094 -0.04290914 0.0038188668 0.0046449113
0002c0 a9 bc a5 bd 44 5d 96 bd 0d bc d6 bc c0 a1 bf bd
       -0.08092625 -0.07342008 -0.026212716 -0.09357023
0002d0 f3 ee c4 bd 0c 93 57 bd 5e 85 fa 3c 37 11 26 bd
       -0.096158884 -0.05263047 0.030581173 -0.04054376
0002e0 ea c5 30 3d 2d 2c b4 bd fb e4 3f 3d a2 96 1b 3c
       0.043157496 -0.08797488 0.046849232 0.009496363
0002f0 0d 22 00 3d 29 ff 9d bd 6d fe fc bc c8 cd 43 3d
       0.031282473 -0.077146836 -0.030883038 0.04780367
000300 35 ea 4f 3d f6 1a a1 3d 49 78 51 bd 61 0c 89 bd
       0.050760467 0.078664705 -0.051140103 -0.06691814
000310 a4 2f 8e bd 10 6c d9 bd d7 d9 b9 bd d3 dd 30 3d
       -0.069426805 -0.106163144 -0.09074753 0.043180298
000320 9d 18 d2 3c aa 30 08 bd 13 81 45 bd 06 d7 b4 bd
       0.025646502 -0.033249535 -0.048218798 -0.08830075
000330 e1 32 95 bd 5a 1e 5e bd 83 64 3c bd 56 a7 ad bd
       -0.07285095 -0.054228164 -0.045994293 -0.084791824
000340 35 57 84 bd c6 cd a8 bd 03 e4 43 bd 49 2c 9f bd
       -0.06461946 -0.08242373 -0.04782487 -0.077721186
000350 be a9 c4 3b 7a 0d ba bd 08 00 08 be e0 9a bf bd
       0.00600168 -0.09084602 -0.13281262 -0.09355712
000360 d6 f7 d5 bc 8d 3a 88 bd eb d2 44 bd bf 7e c5 3c
       -0.026119154 -0.06651793 -0.04805271 0.024108289
000370 c7 30 73 bd b9 d6 58 bd f8 70 0e 3d dc 71 a4 bd
       -0.05937269 -0.05293915 0.034775704 -0.080295295
000380 10 e9 99 bd 1e 1b 5f bd 15 e1 5a 3c e2 cc 1f 3d
       -0.07515156 -0.05446922 0.013359328 0.03901375
000390 2a a2 ca bd 30 d7 71 bd 8b a1 a7 bd 11 9c b2 bd
       -0.098942116 -0.05904311 -0.08185109 -0.087211736
0003a0 4d 0e 2b bd 57 68 45 bd c6 ab af 3d 1d b7 fb 3d
       -0.041761685 -0.04819521 0.08577685 0.122907855
0003b0 50 c7 d8 3c 6d fa 8f 3c 5e b3 3f bd 5e 37 ea 3d
       0.026462227 0.017575467 -0.046801917 0.11436342
0003c0 06 f2 5c 3d 5f aa bf bd 8a 50 6e 3d 10 55 88 3d
       0.05394175 -0.093586676 0.058182277 0.066568494
0003d0 7a b2 f8 3c 57 82 b8 3d e2 35 c6 bd 11 dd 82 bd
       0.030358542 0.09009235 -0.09678246 -0.06389821
0003e0 06 21 bd bd 24 d0 9b bd 09 f4 9f bd b0 f6 97 3d
       -0.09234814 -0.07608059 -0.07810218 0.07420099
0003f0 0c 44 c3 bd d7 ef 94 bd e9 c6 80 bd d2 8a 21 3d
       -0.09534463 -0.07272308 -0.06287939 0.03943903
