Experimenten/Experiment1Snake/PPO/ppo_snake_7500.pth (torch, 280852 bytes, 7 tensors)

shared.0.weight f4 [256, 9]
0.13058205 -0.05325104 0.33158782 -0.29218537 0.010662024 0.0132840155 0.59960043 0.54266006
-0.06355768 -0.515573 0.27845654 0.1342139 -0.4225845 -0.015739027 -0.24683277 0.3908965
-0.2260233 -0.22411439 -0.050020047 0.15604043 0.33538318 -0.26216307 0.035821643 -0.18667991
-0.040595632 0.16491218 -0.570168 -0.3312593 -0.11422979 0.2101353 -0.43481305 -0.2312191
0.24026725 0.29917854 0.33673063 0.28692243 -0.24115355 -0.07526275 -0.41019684 -0.3150286
-0.3057533 -0.16078655 -0.18313774 -0.27718487 0.2318996 0.36797336 0.2267853 0.3026817
-0.38356194 -0.005363226 -0.000219065 -0.082809396 0.4770568 0.14844202 -0.2137385 -0.3093601
0.31165874 0.3720489 -0.003799797 0.030355943 0.16045192 0.30913934 0.57965875 0.1741851
0.020543167 0.00034087247 0.107036114 0.0093239555 -0.0030388245 -0.613298 0.25974375 -0.6613892
-0.50493157 -0.30817807 0.3746059 -0.0168258 -0.032844346 -0.020312317 0.13966271 0.30468827
-0.73945445 0.015089025 0.090983905 0.51992095 -0.24740472 0.027139118 -0.08064661 -0.16596366
0.34621453 -0.7556165 -0.31599045 0.19936273 0.21175201 -0.5028768 -0.17549275 -0.06362857
0.098049566 0.28344974 0.8244241 0.1977759 -0.15346137 -0.3314982 -0.2610791 0.003533526
-0.119844355 -0.077304244 0.09670255 1.0998776 0.029245038 0.2949529 -0.0064676716 0.28274366
0.039790876 -0.01088925 0.3494656 -0.31539223 0.63499707 0.40580422 -0.13080682 -0.39639005
-0.0668876 0.21940252 0.21168673 0.19695637 0.07832764 -0.18779254 -0.38142568 -0.2949363
0.5590599 -0.42614698 0.09842794 -0.19195828 -0.06444301 0.15925226 -0.3500025 -0.43919757
-0.29038927 0.25155863 0.11510123 0.019894058 -0.09972671 0.48056534 0.05179034 0.35539868
-0.4529895 -0.10913346 0.44265106 0.036109637 -0.06332081 -0.12622824 0.7210228 0.2530598
-0.24586058 0.15854055 0.0654836 0.18280782 0.14921364 0.012388304 0.06103633 0.6240841
0.5941784 0.5324859 0.18569449 0.5412064 -0.008015245 -0.4838982 0.20295133 -0.074357755
0.6113229 0.060533926 0.0016348477 -0.3307271 0.14529411 0.20390399 0.48830512 0.15867868
0.042814642 0.05096159 0.2347032 0.20618176 0.017045397 -0.0050468654 -0.10884463 -0.41631514
-0.16655022 -0.04668013 -0.40435156 0.20253363 0.040309377 0.1331197 0.30355388 0.448871
0.047514234 -0.05531571 -0.05417043 -0.1365535 -0.17582525 0.05273017 -0.408357 0.061900266
0.4151856 0.22150545 -0.08855987 -0.1182654 0.6404806 0.58978915 0.09390384 -0.47058764
-0.10834058 0.53003395 -0.059636734 0.122469164 0.16632713 0.16221152 -0.28392878 -0.06524813
-0.547794 0.13292542 0.3069641 0.017948601 -0.060353752 -0.1694615 0.7871304 0.6617535
0.09467983 -0.07559997 0.3177258 0.4404789 -0.15609375 0.16079755 -0.09620578 0.47868028
0.4406277 -0.40898094 0.04774962 0.14571379 -0.034957524 -0.5402357 0.07631406 -0.009306247
0.7405173 0.3131301 0.25198433 -0.5637304 -0.082168676 0.42572755 -0.4478336 0.1277201
0.11968976 -0.035572913 0.17270447 -0.19017336 -0.14513096 0.31510982 0.19427587 0.30220747
00000000: 4db7 053e c31d 5abd e1c5 a93e 5299 95be
00000010: c5af 2e3c 33a5 593c 6a7f 193f c5eb 0a3f
00000020: 872a 82bd 98fc 03bf db91 8e3e 5e6f 093e
00000030: ff5c d8be 22ef 80bc bbc1 7cbe 9623 c83e
00000040: a772 67be 3e7e 65be d2e1 4cbd 10c9 1f3e
00000050: 58b7 ab3e 3d3a 86be b7b9 123d 0529 3fbe
00000060: 9b47 26bd bdde 283e 88f6 11bf d29a a9be
00000070: 4ff1 e9bd b52d 573e d19f debe b3c4 6cbe
00000080: 9e08 763e ee2d 993e f567 ac3e 7fe7 923e
00000090: f5f0 76be 5b23 9abd 5205 d2be 6e4b a1be
000000a0: b28b 9cbe 3ba5 24be 7688 3bbe 2deb 8dbe
000000b0: 1777 6d3e 0167 bc3e 683a 683e 19f9 9a3e
000000c0: 3b62 c4be 00be afbb d0b4 65b9 f997 a9bd
000000d0: ca40 f43e 2f01 183e 44de 5abe 7264 9ebe
000000e0: bc91 9f3e 327d be3e 0406 79bb 07ad f83c
000000f0: 824d 243e 8347 9e3e 8464 143f 945d 323e
00000100: 254a a83c 21b7 b239 c035 db3d 81c3 183c
00000110: 0427 47bb 1901 1dbf 22fd 843e cd50 29bf
00000120: 3243 01bf 84c9 9dbe 58cc bf3e 43d6 89bc
00000130: cb87 06bd 0466 a6bc be03 0f3e 1a00 9c3e
00000140: e34c 3dbf f537 773c c555 ba3d 8a19 053f
00000150: aa57 7dbe db52 de3c 0d2a a5bd 61f2 29be
00000160: 0843 b13e 1570 41bf 80c9 a1be be25 4c3e
00000170: 85d5 583e 89bc 00bf 5fb4 33be b24f 82bd
00000180: 36ce c83d 5320 913e 750d 533f c485 4a3e
00000190: fa24 1dbe 22ba a9be 29ac 85be bb92 673b
000001a0: f570 f5bd b051 9ebd fd0b c63d cac8 8c3f
000001b0: 4a93 ef3c 1104 973e c3ee d3bb c7c3 903e
000001c0: c2fb 223d d368 32bc 28ed b23e 177b a1be
000001d0: 2b8f 223f 92c5 cf3e 39f2 05be a3f3 cabe
000001e0: 5efc 88bd 0eab 603e 68c4 583e eeae 493e
000001f0: 3e6a a03d b04c 40be 3a4a c3be e401 97be
00000200: 8d1e 0f3f f02f dabe 9694 c93d b690 44be
00000210: b2fa 83bd 0613 233e 8733 b3be 81de e0be
00000220: e7ad 94be 4bcc 803e 32ba eb3d ddf8 a23c
00000230: 843d ccbd a90c f63e 1c22 543d d1f6 b53e
00000240: 3dee e7be 5d81 dfbd 29a3 e23e b3e7 133d
00000250: 57ae 81bd fa41 01be f394 383f 0e91 813e
00000260: e0c2 7bbe 7458 223e 441c 863d f931 3b3e
00000270: 76cb 183e 50f8 4a3c 3b01 7a3d fac3 1f3f
00000280: 131c 183f ff50 083f b226 3e3e 818c 0a3f
00000290: 6052 03bc 81c1 f7be 79d2 4f3e e148 98bd
000002a0: a87f 1c3f 6cf2 773d 6348 d63a 1055 a9be
000002b0: fbc7 143e 35cc 503e 2103 fa3e aa7c 223e
000002c0: 685e 2f3d 1abd 503d 0956 703e 5021 533e
000002d0: caa2 8b3c 2d60 a5bb efe9 debd 4227 d5be
000002e0: 248c 2abe aa33 3fbd 2b07 cfbe fa64 4f3e
000002f0: 721b 253d 8850 083e 6a6b 9b3e 6bd2 e53e
00000300: 499e 423d ba92 62bd d0e1 5dbd aed4 0bbe
00000310: 890b 34be 97fb 573d 2b14 d1be 228b 7d3d
00000320: 3593 d43e 53d2 623e e15e b5bd 2135 f2bd
00000330: 89f6 233f 6cfc 163f a850 c03d ddf0 f0be
00000340: aae1 ddbd 4eb0 073f a645 74bd 1dd1 fa3d
00000350: a951 2a3e c71a 263e 1d5f 91be d0a0 85bd
00000360: 3a3c 0cbf 9a1d 083e 662a 9d3e f208 933c
00000370: 7f35 77bd 5187 2dbe 6181 493f ad68 293f
00000380: 80e7 c13d 28d4 9abd f5ac a23e 7386 e13e
00000390: 0ad7 1fbe 1da8 243e 8907 c5bd 9515 f53e
000003a0: f499 e13e f365 d1be 1b95 433d ff35 153e
000003b0: 9f2f 0fbd e34c 0abf 8c4a 9c3d 3b79 18bc
000003c0: 8b92 3d3f 9752 a03e 1704 813e a350 10bf
000003d0: 0d48 a8bd f6f8 d93e 724a e5be 0fc9 023e
000003e0: e81f f53d e7b4 11bd 71d9 303e cebc 42be
000003f0: 369d 14be 1356 a13e 41f0 463e f0ba 9a3e

shared.0.bias f4 [256]
0.07615235 -0.25895444 -0.32028443 -0.25165322 -0.089329675 0.13843079 0.1135381 0.42213526
0.09901876 -0.36290684 -0.047207836 0.14029129 0.531543 -0.06470811 -0.21844919 -0.4895096
0.033898726 -0.122143015 0.05708964 0.19415504 -0.48565528 0.53822356 -0.1676419 -0.2655731
-0.13542998 0.3383059 -0.040540587 -0.043431997 0.54399216 -0.08930982 -0.26203364 -0.3817211
0.2915452 0.087812826 0.12574373 -0.16545565 0.4550674 -0.0027581379 -0.4137375 -0.026276091
0.48861867 -0.16165186 0.45907968 -0.24111608 0.59817106 -0.037151445 -0.009798556 -0.040004175
-0.2379949 -0.27540043 -0.106488794 -0.0055011986 0.034019846 0.1650388 0.108961 -0.2928476
0.4134685 0.19075738 -0.06269509 0.33148426 0.64000356 -0.20426947 0.64286107 0.3309794
-0.11096396 0.16390112 0.29612118 0.3807921 0.48651242 0.21268706 0.26748797 0.21520318
0.09649874 -0.38678727 0.07359517 0.09965314 0.020491458 -0.25335947 0.22162963 -0.10796432
-0.45054546 0.5347908 0.036754973 -0.33876446 0.35632178 0.13808504 -0.10590936 -0.041012008
-0.12111729 0.068569034 0.059503905 0.028430995 0.30790356 -0.05691906 0.48514724 -0.032903776
0.069190025 0.16350532 -0.30143115 -0.17226425 0.12364889 -0.23367275 0.166347 0.057071593
0.1945368 -0.05609905 0.5000763 -0.24093188 -0.08085477 -0.40297863 -0.29493126 -0.036847666
-0.20143081 -0.21548353 0.017016724 0.20092964 0.5473799 -0.32421312 -0.20675771 -0.50416636
-0.560491 -0.16667327 0.19013688 0.33561808 -0.3170773 -0.20065023 -0.32479578 0.40134662
0.12323366 -0.32167307 0.24173735 -0.106594846 0.004218808 -0.23449486 0.07374482 -0.38350886
-0.30748287 -0.077510804 -0.024898507 -0.06182933 -0.21965268 -0.041006617 -0.03871023 0.43295214
0.58260494 -0.32578048 0.36537957 0.17568107 0.04916375 0.19896166 0.21982959 0.44253054
-0.25946814 -0.27359778 0.25845933 0.27715823 0.16505633 0.39418596 -0.007481339 0.5028991
-0.5457622 -0.30504256 0.18957436 0.4270227 -0.032892417 -0.19470102 0.5492644 -0.11703151
0.046017352 -0.02679896 0.5131283 -0.029980326 -0.22704987 -0.2840986 0.41514847 0.42858437
0.26521105 -0.3061557 0.16860196 -0.12801641 -0.075438105 -0.15632759 -0.2975681 0.6163866
-0.09614459 -0.37705603 -0.15329812 0.1413478 -0.24036716 -0.08170178 -0.06799915 0.011556874
-0.108255185 -0.37151304 0.59784734 0.15021202 0.054304402 0.041986786 -0.07241905 0.492979
-0.16389936 -0.2502401 -0.053471275 -0.27674344 -0.11223416 -0.21383955 -0.16258782 -0.26710644
-0.33614475 -0.045312967 -0.3956276 0.4831157 0.117881626 0.13262789 0.60229146 -0.20089726
-0.022605125 9.334952e-06 -0.5432249 -0.46499756 0.23234917 -0.14687178 -0.21882308 0.47911584
0.060481273 -0.15082312 -0.10848013 -0.27170378 -0.2387074 -0.06603768 0.60368514 0.39964828
0.68430245 -0.36960894 -0.30037794 0.54655445 -0.34130016 -0.07505969 -0.061649647 0.5974947
-0.15486172 0.019913048 0.11242733 -0.03816565 -0.2149351 -0.00989456 0.017222764 -0.29359525
0.034434177 0.035436444 -0.13656951 0.4785971 -0.5457317 0.43159643 0.041332755 0.4087036
00000000: c3f5 9b3d ad95 84be 52fc a3be b1d8 80be
00000010: 7af2 b6bd cdc0 0d3e aa86 e83d 1d22 d83e
00000020: 59ca ca3d edce b9be 015d 41bd 85a8 0f3e
00000030: 3413 083f b085 84bd 25b1 5fbe 01a1 fabe
00000040: 64d9 0a3d 1e26 fabd d4d6 693d 94d0 463e
00000050: cfa7 f8be 05c9 093f 51aa 2bbe 33f9 87be
00000060: 28ae 0abe 6e36 ad3e e30d 26bd c0e5 31bd
00000070: 1243 0b3f 11e8 b6bd 4629 86be f370 c3be
00000080: 6a45 953e 36d7 b33d f7c2 003e 356d 29be
00000090: 98fe e83e e0c1 34bb 67d5 d3be f540 d7bc
000000a0: 3a2c fa3e 1188 25be 7e0c eb3e 22e7 76be
000000b0: bd21 193f 1d2c 18bd 1f8a 20bc 6bdb 23bd
000000c0: efb4 73be 4901 8dbe cc16 dabd 6643 b4bb
000000d0: 6558 0b3d eeff 283e f226 df3d 1ff0 95be
000000e0: 25b2 d33e e755 433e 4966 80bd 4eb8 a93e
000000f0: 46d7 233f 042c 51be 8b92 243f 2276 a93e
00000100: 1341 e3bd b2d5 273e 329d 973e 2ff7 c23e
00000110: 2818 f93e a3ca 593e 2ff4 883e 395e 5c3e
00000120: 22a1 c53d fb08 c6be 11b9 963d f216 cc3d
00000130: b4dd a73c 55b8 81be e1f2 623e 661c ddbd
00000140: e5ad e6be 0de8 083f 628c 163d 8972 adbe
00000150: cf6f b63e 2a66 0d3e 02e7 d8bd 35fc 27bd
00000160: 570c f8bd ec6d 8c3d 5eba 733d 1ee8 e83c
00000170: 89a5 9d3e f623 69bd 3865 f83e 1cc6 06bd
00000180: 80b3 8d3d f06d 273e 2f55 9abe 0a66 30be
00000190: a13b fd3d e947 6fbe de56 2a3e e7c3 693d
000001a0: a834 473e 1ec8 65bd 0005 003f d9b6 76be
000001b0: 3097 a5bd 3753 cebe 3b01 97be 94ed 16bd
000001c0: e143 4ebe b7a7 5cbe a866 8b3c 80c0 4d3e
000001d0: 1721 0c3f 43ff a5be 4bb8 53be 0c11 01bf
000001e0: 577c 0fbf 66ac 2abe 3eb3 423e 22d6 ab3e
000001f0: f557 a2be 4177 4dbe a24b a6be 4e7d cd3e
00000200: ee61 fc3d 55b2 a4be ff89 773e 664e dabd
00000210: ed3d 8a3b 6c1f 70be 8607 973d 465b c4be
00000220: 656e 9dbe fcbd 9ebd f4f7 cbbc c040 7dbd
00000230: a2ec 60be 8ef6 27bd 9e8e 1ebd e7ab dd3e
00000240: 9925 153f b3cc a6be 0813 bb3e bde5 333e
00000250: ee5f 493d 9bbc 4b3e 021b 613e 5d93 e23e
00000260: 02d9 84be 0215 8cbe c854 843e afe7 8d3e
00000270: 8704 293e bed2 c93e 0526 f5bb ffbd 003f
00000280: 12b7 0bbf 8a2e 9cbe c81f 423e b8a2 da3e
00000290: 33ba 06bd b45f 47be 979c 0c3f 37ae efbd
000002a0: b17c 3c3d 7e89 dbbc 605c 033f 4d99 f5bc
000002b0: c37f 68be 5f75 91be 578e d43e 696f db3e
000002c0: bec9 873e 71c0 9cbe fea5 2c3e bc16 03be
000002d0: 4b7f 9abd 5714 20be d95a 98be 83cb 1d3f
000002e0: 74e7 c4bd 7d0d c1be 2ffa 1cbe 7abd 103e
000002f0: cf22 76be 4353 a7bd 2343 8bbd 0b59 3d3c
00000300: e5b4 ddbd f536 bebe 860c 193f 2ed1 193e
00000310: 4b6e 5e3d 56fa 2b3d 7050 94bd be67 fc3e
00000320: 3cd5 27be 781f 80be b204 5bbd 51b1 8dbe
00000330: 06db e5bd c1f8 5abe 6c7d 26be 2dc2 88be
00000340: 2a1b acbe 179a 39bd b38f cabe f15a f73e
00000350: ec6b f13d 9bcf 073e c62f 1a3f 03b8 4dbe
00000360: 622e b9bc 509d 1c37 c910 0bbf 2914 eebe
00000370: f1ec 6d3e 8e65 16be 2813 60be ac4e f53e
00000380: 36bb 773d 6071 1abe d52a debd c21c 8bbe
00000390: b66f 74be c33e 87bd 1c8b 1a3f b39e cc3e
000003a0: 722e 2f3f 623d bdbe 23cb 99be feea 0b3f
000003b0: e5be aebe e5b8 99bd 5784 7cbd 6af5 183f
000003c0: 1294 1ebe b020 a33c 4d40 e63d 9653 1cbd
000003d0: f217 5cbe cb1c 22bc c116 8d3c 1e52 96be
000003e0: da0a 0d3d ce25 113d e1d8 0bbe ae0a f53e
000003f0: 13b5 0bbf 35fa dc3e 894c 293d 9941 d13e

shared.2.weight f4 [256, 256]
-0.1385447 -0.099106476 -0.10629655 -0.06456153 -0.08018872 0.18630749 0.05801421 0.09183007
-0.18257381 -0.10934585 0.04580105 0.080539875 0.08072392 0.048958946 -0.12630354 -0.07500006
-0.060651056 0.020992994 -0.03347553 -0.06282358 -0.31406224 0.044448487 -0.017900832 -0.12928584
-0.08489126 -0.07737032 -0.05297042 -0.16050658 -0.10271061 -0.027055558 -0.13189197 -0.27521044
-0.07887706 -0.049926195 -0.06499249 0.11147679 -0.06807604 0.045958936 -0.104481936 -0.15087652
0.07621849 0.079854466 -0.018345196 -0.06726432 0.14764008 -0.11127926 -0.014186699 0.06376245
-0.0031852247 0.0076883347 -0.13405944 -0.13248263 -0.02459821 -0.078699075 0.010968127 -0.13506068
0.058955617 -0.12878092 -0.030944085 0.07617544 0.07271512 -0.06100565 0.0061681615 -0.006454443
-0.11390068 0.03834439 0.028077135 -0.09921093 0.045683775 -0.20608164 0.121619366 -0.026730055
0.012285154 -0.10352116 -0.22668122 -0.031395987 0.054032873 -0.05679969 -0.13944684 -0.02175909
-0.118999556 0.062683575 0.039459128 -0.08528913 0.039090283 0.048921984 0.044430643 -0.0020744326
0.11808188 -0.19792502 0.029754164 0.040723406 -0.12042672 0.018631803 0.10867638 -0.042688493
0.06544265 0.0396566 -0.019676702 -0.11952808 -0.04150591 0.025493307 -0.1383678 -0.018554177
0.05782585 -0.30378705 -0.13426977 -0.09099313 0.08860123 -0.06483801 -0.10040788 -0.0965668
-0.020383203 -0.10739104 -0.0016259894 -0.0034283542 0.01785333 -0.18356052 -0.1001691 -0.057940353
-0.1700919 -0.04628117 -0.0425207 0.07452181 0.011422866 -0.31361255 -0.013387485 0.022000132
-0.021738637 0.068402916 -0.0818548 0.012380726 -0.020775665 -0.066292115 -0.0092615625 -0.042582966
-0.012483362 0.040278964 0.041319072 -0.078089885 -0.036023173 -0.19516785 -0.078686595 0.02738234
-0.109714895 -0.16684149 0.0801684 -0.15944602 -0.09748897 0.005239107 -0.04057108 -0.081513286
0.011379583 -0.19407128 -0.04496105 -0.027537988 0.033116594 -0.09795295 0.038963433 -0.010443329
-0.17339684 -0.05105165 0.03294613 0.014108779 0.06101774 -0.21411374 -0.16949415 0.074911274
0.10537579 0.052386425 0.009384152 -0.012951477 -0.24245629 -0.14769332 -0.11241113 0.13824455
0.009878037 0.024274608 0.080847956 -0.08785349 -0.0377729 0.028735057 0.49689522 0.07970668
-0.05860503 -0.020832092 0.029177321 -0.16524735 -0.00041698056 -0.2126761 -0.09629403 0.10088314
-0.04279873 -0.18041062 -0.05747086 -0.10688687 0.05867274 -0.056266498 -0.03475606 -0.12210945
0.032998834 0.019817388 -0.24006563 -0.045796093 -0.21421397 -0.044594947 0.036231022 -0.14474425
-0.16172564 0.0026024282 -0.11341257 -0.003400234 0.032657478 -0.055614095 -0.009775197 -0.07475098
0.043029297 0.029214645 -0.08203516 -0.13804622 0.061673075 -0.06568077 0.05793273 -0.041963466
-0.0001341698 -0.0036193675 0.007616314 -0.16415358 -0.123391405 -0.020217903 -0.01883135 -0.103683844
0.012076769 -0.25894675 -0.038682263 -0.0009613133 -0.152783 -0.4158141 0.084166504 -0.026231647
-0.26770312 -0.006693004 0.03784693 -0.06970951 0.06450943 -0.08036273 -0.0008070688 -0.0059618237
0.004365785 0.044853836 -0.17658709 -0.096079074 -0.187098 -0.08710701 0.07084054 -0.033155255
00000000: a9de 0dbe 56f8 cabd 01b2 d9bd d638 84bd
00000010: fc39 a4bd 64c7 3e3e 4fa0 6d3d 6711 bc3d
00000020: a1f4 3abe b8f0 dfbd e299 3b3d 17f2 a43d
00000030: 9552 a53d 2d89 483d b755 01be a299 99bd
00000040: 3e6d 78bd 80f9 ab3c a31d 09bd a6a9 80bd
00000050: c4cc a0be 9e0f 363d c4a4 92bc 8263 04be
00000060: 78db adbd 5574 9ebd 83f7 58bd d65b 24be
00000070: f159 d2bd 9ea3 ddbc b00e 07be 62e8 8cbe
00000080: 4c8a a1bd 697f 4cbd c81a 85bd f14d e43d
00000090: 736b 8bbd 703f 3c3d a0fa d5bd 607f 1abe
000000a0: 7118 9c3d bd8a a33d aa48 96bc e0c1 89bd
000000b0: f62e 173e 61e6 e3bd 546f 68bc e395 823d
000000c0: 34bf 50bb 6dee fb3b e146 09be 87a9 07be
000000d0: 2f82 c9bc fb2c a1bd a9b3 333c 594d 0abe
000000e0: 727b 713d 25df 03be 737e fdbc de01 9c3d
000000f0: aaeb 943d 0fe1 79bd 4a1e ca3b cb7f d3bb
00000100: c244 e9bd 020f 1d3d 0502 e63c 1a2f cbbd
00000110: e91e 3b3d 1107 53be 9313 f93d fdf8 dabc
00000120: ac47 493c e702 d4bd 1f1f 68be 1499 00bd
00000130: 9351 5d3d cba6 68bd 27cb 0ebe 1e40 b2bc
00000140: 0ab6 f3bd 3f60 803d e59f 213d 11ac aebd
00000150: 221d 203d 6b62 483d e8fc 353d 34f3 07bb
00000160: ead4 f13d dbac 4abe 01bf f33c 96cd 263d
00000170: 49a2 f6bd b9a1 983c b991 de3d 21da 2ebd
00000180: cc06 863d f66e 223d 0931 a1bc 23cb f4bd
00000190: 1a02 2abd 57d7 d03c 4ab0 0dbe eefe 97bc
000001a0: ccda 6c3d fa89 9bbe 047e 09be 9b5a babd
000001b0: 9074 b53d cac9 84bd a6a2 cdbd d0c4 c5bd
000001c0: adfa a6bc d5ef dbbd 271f d5ba 3dae 60bb
000001d0: 2641 923c 4af7 3bbe 7525 cdbd dd52 6dbd
000001e0: 922c 2ebe 5391 3dbd 2f2a 2ebd e49e 983d
000001f0: f926 3b3c d391 a0be 2f57 5bbc 9f39 b43c
00000200: 3a15 b2bc d416 8c3d 7da3 a7bd 87d8 4a3c
00000210: ba31 aabc 29c4 87bd cfbd 17bc 7a6b 2ebd
00000220: 0487 4cbc 8efb 243d 303e 293d 97ed 9fbd
00000230: 098d 13bd 15da 47be 7026 a1bd ee50 e03c
00000240: 34b2 e0bd 7fd8 2abe 552f a43d d145 23be
00000250: 4ca8 c7bd d1ac ab3b dc2d 26bd 70f0 a6bd
00000260: 6e71 3a3c 9fba 46be 1429 38bd 5997 e1bc
00000270: 44a5 073d 8e9b c8bd 1f98 1f3d 7f1a 2bbc
00000280: f18e 31be 891b 51bd 85f2 063d 8228 673c
00000290: bded 793d a240 5bbe e08f 2dbe 156b 993d
000002a0: 43cf d73d 2693 563d fcbf 193c 6f32 54bc
000002b0: 7646 78be eb3c 17be ce37 e6bd fb8f 0d3e
000002c0: 7dd7 213c 8bdb c63c 9d93 a53d 88ec b3bd
000002d0: c2b7 1abd c865 eb3c 0d69 fe3e 413d a33d
000002e0: d40b 70bd 10a8 aabc 4705 ef3c 9a36 29be
000002f0: 2f9e dab9 c3c7 59be ce35 c5bd d29b ce3d
00000300: b94d 2fbd 90bd 38be 9166 6bbd 81e7 dabd
00000310: d452 703d b377 66bd 5f5c 0ebd 8514 fabd
00000320: c929 073d 1358 a23c c4d3 75be af94 3bbd
00000330: e85a 5bbe 31a9 36bd fb66 143d d637 14be
00000340: 689b 25be 808d 2a3b d944 e8bd 76d6 5ebb
00000350: d9c3 053d 9bcb 63bd 2628 20bc 0b17 99bd
00000360: 7d3f 303d 8d53 ef3c 0d02 a8bd fd5b 0dbe
00000370: e89c 7c3d a483 86bd df4a 6d3d e2e1 2bbd
00000380: eeaf 0cb9 e932 6dbb 4692 f93b e017 28be
00000390: a2b4 fcbd 04a0 a5bc 3444 9abc 3258 d4bd
000003a0: a4dd 453c ab94 84be 4b71 1ebd a500 7cba
000003b0: 2673 1cbe 96e5 d4be 7d5f ac3d c0e3 d6bc
000003c0: 6210 89be fd50 dbbb 6205 1b3d dcc3 8ebd
000003d0: 851d 843d 3795 a4bd 7891 53ba 675b c3bb
000003e0: dc0e 8f3b a8b8 373d 3fd3 34be 1bc5 c4bd
000003f0: 9e96 3fbe 2965 b2bd d814 913d cecd 07bd

shared.2.bias f4 [256]
0.04685643 0.27118313 -0.06020788 0.18773226 0.017780952 -0.024146989 -0.27795574 -0.1434147
0.027970402 0.038404882 0.104191795 0.017488996 0.03372926 -0.05691552 0.14178012 0.06547744
-0.010242276 0.043617662 -0.023555184 -0.0042589805 0.073667586 0.030506011 -0.0064905835 0.02499014
0.024355184 0.22430754 0.021299487 -0.05265096 0.20429605 -0.026607223 0.24068834 0.05670618
-0.20407413 0.04129567 0.16081913 -0.1135776 0.0012046637 -0.04788461 0.011177982 0.12679705
-0.024873974 0.27070466 0.021744091 0.16033626 -0.08639322 -0.050408274 -0.008517686 0.067638375
0.073442176 -0.027698947 -0.007654905 -0.08004125 -0.0020687045 0.24413297 0.06550026 0.033354435
0.14859374 0.20631827 0.12008892 0.06342843 -0.047969606 0.11823405 0.08883979 0.059446424
0.019997232 -0.12000023 -0.0181725 -0.041912943 0.17680387 0.0282176 -0.092896506 0.28504732
0.1302474 -0.020183943 0.13140719 -0.004778378 0.107530035 -0.02231358 -0.034197923 0.1761107
0.075816914 -0.13399419 -0.033689033 -0.017175628 -0.19180495 0.039917406 0.073848955 -0.010259979
0.031465307 0.037026584 0.25336382 0.2813244 -0.01314379 0.12755476 0.12651886 -0.052769754
-0.020618321 0.0047726287 0.0026533238 -0.13965288 -0.042327344 0.25494593 -0.31475756 -0.08238467
0.0101215765 -0.01998409 -0.20817119 0.2531068 -0.010382284 -0.0096018175 -0.057800215 -0.042713292
-0.069967836 0.1174784 0.023894096 0.21294932 -0.07712015 0.30417275 0.07943926 0.0007020278
0.027293373 0.30318886 -0.030913433 -0.02180032 0.03631809 -0.12839775 0.06442217 0.05140655
0.19783938 0.1906143 -0.061229695 -0.03902831 -0.05180649 -0.12686066 -0.023824073 0.0043630227
-0.04869754 0.2715883 0.042194128 0.07904273 -0.18598245 -0.062982515 -0.06570628 0.031207385
-0.0525889 0.18469925 -0.051605474 0.14565675 -0.08026152 -0.1607584 0.0505672 0.019564746
0.006470091 0.30542752 0.1033637 -0.08205643 -0.27027464 0.008783398 -0.011813896 -0.011947745
0.049369503 0.17430407 -0.006977947 0.081474274 0.1136407 -0.029415403 -0.17145513 0.0010676789
-0.13975425 0.08797398 -0.01926422 -0.08324674 -0.0910714 0.1458507 0.03026653 -0.060658433
0.06520176 -0.03419042 0.22986211 -0.014598458 0.057109695 0.10730767 0.13324217 0.1288036
0.09733858 -0.016976789 0.20218 -0.018110197 -0.0324737 -0.0047691897 0.24028043 -0.049475968
-0.025927095 0.25705293 -0.0763384 -0.0060121296 0.06718111 0.013212111 -0.0006295604 0.037569664
-0.040835008 0.24836993 0.022921382 0.053573404 0.06901383 0.011167525 0.124249436 0.032855097
-0.033694584 0.08192033 0.10847058 -0.02596794 0.15516414 -0.03547698 0.06179973 -0.0102142785
-0.044649746 -0.02654457 0.12235209 0.29663813 0.06516016 0.18389083 0.27977097 0.029783638
-0.0036074938 0.017813941 0.07192518 0.23857976 0.057205822 -0.1197524 -0.007030389 -0.0042828047
-0.029715477 0.04036151 -0.0033728853 -0.1621844 0.019205244 0.018458746 0.160754 -0.20453116
0.0009188949 -0.02211711 -0.20544595 -0.1359172 0.010195001 -0.15648693 0.01597507 -0.15682675
-0.025922833 0.031584546 0.024374425 -0.01978617 0.014198875 0.04310427 -0.042453434 -0.031763643
00000000: 87ec 3f3d 84d8 8a3e 8a9c 76bd e33c 403e
00000010: 5ca9 913c e8cf c5bc 3750 8ebe 4edb 12be
00000020: 2f22 e53c 704e 1d3d 8262 d53d 1545 8f3c
00000030: b127 0a3d 4020 69bd cf2e 113e 0919 863d
00000040: 38cf 27bc 6fa8 323d cdf6 c0bc eb8e 8bbb
00000050: 08df 963d bee7 f93c f6ae d4bb 1fb8 cc3c
00000060: 8684 c73c e0b0 653e 437c ae3c 88a8 57bd
00000070: fc32 513e 64f7 d9bc 0177 763e bd44 683d
00000080: cff8 50be a625 293d c5ad 243e 5f9b e8bd
00000090: cee5 9d3a a722 44bd db23 373c 16d7 013e
000000a0: 81c4 cbbc cd99 8a3e aa20 b23c 302f 243e
000000b0: eeee b0bd e878 4ebd c48d 0bbc fd85 8a3d
000000c0: da68 963d e7e8 e2bc ffd5 fabb abec a3bd
000000d0: 1a93 07bb fefd 793e 0025 863d a99e 083d
000000e0: f528 183e 1945 533e 2ef1 f53d c4e6 813d
000000f0: c77b 44bd b224 f23d a3f1 b53d 187e 733d
00000100: 3cd1 a33c aec2 f5bd 7fde 94bc e8ac 2bbd
00000110: 130c 353e 9928 e73c 8640 bebd b9f1 913e
00000120: 935f 053e cc58 a5bc 9b8f 063e f193 9cbb
00000130: b538 dc3d f8ca b6bc 1f13 0cbd 5d56 343e
00000140: e645 9b3d c635 09be 83fd 09bd e7b3 8cbc
00000150: 8468 44be 6f80 233d 1f3e 973d 7919 28bc
00000160: c4e1 003d 30a9 173d e7b8 813e c009 903e
00000170: 0d59 57bc b79d 023e 298e 013e 1925 58bd
00000180: c1e7 a8bc b663 9c3b 63e3 2d3b 2a01 0fbe
00000190: 705f 2dbd 4688 823e e727 a1be 4bb9 a8bd
000001a0: f8d4 253c adb5 a3bc d42a 55be 3797 813e
000001b0: 751a 2abc f150 1dbc ebbf 6cbd 22f4 2ebd
000001c0: 4c4b 8fbd 8498 f03d 8dbd c33c 630f 5a3e
000001d0: 2bf1 9dbd 88bc 9b3e 0db1 a23d 4a08 383a
000001e0: 5a96 df3c 923b 9b3e 2b3e fdbc 9696 b2bc
000001f0: 47c2 143d b37a 03be c5ef 833d ad8f 523d
00000200: 6896 4a3e 6530 433e fdcb 7abd 26dc 1fbd
00000210: 0b33 54bd c3e7 01be b42a c3bc b0f7 8e3b
00000220: 1277 47bd 9f0d 8b3e c0d3 2c3d 28e1 a13d
00000230: 2f72 3ebe fafc 80bd 0491 86bd a1a6 ff3c
00000240: 7567 57bd cd21 3d3e 4360 53bd 0b27 153e
00000250: 2760 a4bd da9d 24be 8d1f 4f3d 3f46 a03c
00000260: 0f03 d43b ff60 9c3e 59b0 d33d 340d a8bd
00000270: 7061 8abe 3ee8 0f3c 128f 41bc 7ac0 43bc
00000280: ad37 4a3d c47c 323e 43a7 e4bb fcdb a63d
00000290: 75bc e83d 92f8 f0bc ef91 2fbe 5cf1 8b3a
000002a0: bd1b 0fbe b42b b43d ffcf 9dbc 447d aabd
000002b0: a483 babd e359 153e 84f1 f73c fa74 78bd
000002c0: 8088 853d 410b 0cbd f960 6b3e 5f2e 6fbc
000002d0: dbeb 693d 20c4 db3d a370 083e 17e5 033e
000002e0: 7359 c73d e812 8bbc 4608 4f3e d65b 94bc
000002f0: 2403 05bd dd46 9cbb 130c 763e 50a7 4abd
00000300: 0f65 d4bc 719c 833e 4f57 9cbd 6601 c5bb
00000310: 4096 893d 9c77 583c 1509 25ba a6e2 193d
00000320: 9c42 27bd b054 7e3e 9fc5 bb3c c96f 5b3d
00000330: 1f57 8d3d fff7 363c 7d76 fe3d 1193 063d
00000340: 5503 0abd d9c5 a73d d325 de3d b8ba d4bc
00000350: 59e3 1e3e 4f50 11bd b721 7d3d ca59 27bc
00000360: a7e2 36bd 0074 d9bc bc93 fa3d f4e0 973e
00000370: b172 853d e14d 3c3e 243e 8f3e d1fc f33c
00000380: b46b 6cbb 8bee 913c 824d 933d 414e 743e
00000390: a750 6a3d bf40 f5bd 2d5f e6bb c556 8cbb
000003a0: df6d f3bc 1c52 253d a00b 5dbb ab13 26be
000003b0: 5154 9d3c cc36 973c b29c 243e 9e70 51be
000003c0: fee1 703a f12e b5bc 6c60 52be e12d 0bbe
000003d0: ef08 273c 1c3e 20be 26de 823c 3197 20be
000003e0: 1f5c d4bc cc5e 013d e0ac c73c 9b16 a2bc
000003f0: 66a2 683c 1a8e 303d a7e3 2dbd 981a 02bd

actor.weight f4 [3, 256]
0.1313514 -0.050058424 -0.022987334 -0.005156793 -0.25886002 -0.07919966 -0.050740227 -0.030786688
0.03428403 0.05016929 0.23137961 -0.016746074 0.14352559 -0.021331359 0.18866222 -0.032400087
0.12995489 0.022733377 0.009987508 0.07140914 0.111440755 0.067834824 -0.18670757 -0.033512414
-0.00489666 0.044086963 0.02475386 0.03319266 -0.18287861 0.011460952 -0.23443136 -0.009416812
0.07017727 0.0007574143 0.37429821 -0.016179705 0.12118617 -0.070909396 -0.19623949 -0.061199922
0.043784596 0.088089004 -0.03759389 0.07505585 -0.0047622416 -0.0059966506 0.09449579 0.22891149
0.111483745 0.01631969 -0.12134715 -0.09114929 0.031737722 0.2454494 0.30531216 0.08236613
0.04012805 0.3546758 0.22657658 -0.012477954 -0.019938236 0.19499773 -0.12495409 -0.07563709
-0.46775824 -0.015328541 0.028946107 -0.008654101 0.23463918 -0.0051194774 0.06299235 0.26916122
0.07484708 -0.21994177 -0.32183245 0.031244455 -0.054411665 0.0037805357 0.02095583 0.195176
0.077026665 0.0051734364 -0.032333948 0.044702448 0.0056472677 0.21143672 0.14897989 0.04987055
-0.039678257 0.2214108 -0.062095433 0.15828218 0.022370387 0.056093864 0.101203926 0.008411489
0.013393229 -0.017536111 0.049343996 0.056678575 0.09603385 0.07434837 -0.016550915 0.039992727
-0.12383555 0.03723094 -0.040909816 -0.30108735 -0.29998952 -0.006183119 0.078145005 0.052083854
0.103985086 0.06809812 0.20871906 -0.040259518 0.16511364 0.04192018 0.1530838 -0.13445501
0.03864092 0.09348301 0.0076502096 -0.009227076 0.02490323 -0.033859197 -0.09153311 0.040950276
-0.023053356 0.10770823 -0.026058132 0.045061793 -0.05430696 0.02857701 0.033597 -0.05967004
0.16127747 -0.57802033 -0.15956646 -0.034745358 0.09266603 -0.04443806 -0.036698025 0.1271662
0.008958365 0.33000794 0.02733126 0.24615303 0.022445558 -0.0013099232 0.0065509747 0.015136358
0.07613284 -0.11836709 -0.09926436 0.06233709 0.040363546 -0.02324063 0.013896521 0.011467795
0.024586262 0.08252041 -0.0478914 0.056259282 0.112538315 0.050802354 -0.05959882 0.018472845
0.11952873 0.037126858 0.066574104 -0.00057311746 0.008243551 0.10954492 -0.016263982 0.007630445
-0.074113734 0.13704635 0.24572381 -0.03417829 -0.004526767 -0.022240533 0.043011945 0.1459551
-0.02052965 -0.13533208 -0.09058843 0.052681644 0.04587743 -0.02607329 0.2457528 -0.029472262
0.020388033 0.033419307 0.020479394 -0.05550524 -0.10683916 0.0023483909 -0.032499343 0.025636002
0.0063310894 0.020435967 0.1673205 -0.08559074 -0.04865186 0.057382602 0.3461467 -0.06561852
0.06212272 0.0439385 0.11942719 0.10554939 0.0050956546 0.11659714 -0.040729307 -0.082127966
0.031508844 -0.036181033 0.31206492 -0.47487217 0.25972632 -0.24794021 0.067883946 -0.06699401
0.15695716 -0.11043943 0.09575866 0.036998548 -0.06096022 0.06422606 0.14643034 -0.1757727
0.09976955 -0.02913299 -0.061721694 0.024882732 -0.0049762214 0.024403412 -0.33079827 0.12319588
0.048919596 -0.034849755 0.06300049 -0.012505537 -0.026937965 0.20873427 -0.0024261004 0.06715206
-0.09881055 0.24336977 -0.09665379 -0.3623253 -0.07274523 0.15440999 0.02670071 0.009253348
00000000: fb80 063e 100a 4dbd ef4f bcbc 51fa a8bb
00000010: 4d89 84be 6e33 a2bd fcd4 4fbd 5d34 fcbc
00000020: 696d 0c3d 507e 4d3d c7ee 6c3e 102f 89bc
00000030: 5ff8 123e 1abf aebc ab30 413e f4b5 04bd
00000040: e512 053e 593b ba3c a5a2 233c f53e 923d
00000050: 0d3b e43d fcec 8a3d 4530 3fbe 5044 09bd
00000060: 2974 a0bb 8894 343d 9bc8 ca3c 07f5 073d
00000070: 8844 3bbe b8c6 3b3c c60e 70be f948 1abc
00000080: 1ab9 8f3d 378d 463a 04a4 bf3e 4d8b 84bc
00000090: 7430 f83d f238 91bd 01f3 48be c5ac 7abd
000000a0: 7a57 333d 0268 b43d 0dfc 19bd e2b6 993d
000000b0: 940c 9cbb 8d7f c4bb 0287 c13d c667 6a3e
000000c0: 9751 e43d dfb0 853c db84 f8bd 7bac babd
000000d0: 6aff 013d 1657 7b3e e051 9c3e 93af a83d
000000e0: 4f5d 243d 1198 b53e b103 683e 5570 4cbc
000000f0: 8355 a3bc 7cad 473e eee7 ffbd 9ee7 9abd
00000100: 027e efbe 9024 7bbc 6320 ed3c eec9 0dbc
00000110: 4145 703e 4ac1 a7bb 2202 813d 80cf 893e
00000120: 6d49 993d 6a38 61be 39c7 a4be 5ff4 ff3c
00000130: c4de 5ebd ddc2 773b 90ab ab3c 38dc 473e
00000140: 28c0 9d3d ee85 a93b 9a70 04bd ea19 373d
00000150: b70c b93b de82 583e 2f8e 183e 1045 4c3d
00000160: ab85 22bd 83b9 623e c857 7ebd b914 223e
00000170: 1a42 b73c aec2 653d 0144 cf3d 58d0 093c
00000180: 466f 5b3c e4a7 8fbc ee1c 4a3d cb27 683d
00000190: 65ad c43d f543 983d c995 87bc 6acf 233d
000001a0: 7e9d fdbd 787f 183d 0d91 27bd 1f28 9abe
000001b0: 3a98 99be c39b cabb 7d0a a03d e155 553d
000001c0: 22f6 d43d 0777 8b3d 73ba 553e 2ae7 24bd
000001d0: 8d13 293e 7fb4 2b3d 00c2 1c3e 93ae 09be
000001e0: f145 1e3d 0574 bf3d 9cae fa3b 292d 17bc
000001f0: dc01 cc3c f1af 0abd b675 bbbd 7abb 273d
00000200: 64da bcbc 2296 dc3d dd77 d5bc b792 383d
00000210: fa70 5ebd 551a ea3c 029d 093d 9268 74bd
00000220: ec25 253e 24f9 13bf 6465 23be 2651 0ebd
00000230: b0c7 bd3d af04 36bd ab50 16bd db37 023e
00000240: 1bc6 123c cdf6 a83e cee5 df3c 8a0f 7c3e
00000250: bfdf b73c bbb1 abba 8fa9 d63b 7dfe 773c
00000260: 89eb 9b3d 726a f2bd 1d4b cbbd 2d55 7f3d
00000270: 3f54 253d 2263 bebc 3cae 633c 6be3 3b3c
00000280: 2169 c93c 7600 a93d c629 44bd 2270 663d
00000290: 7d7a e63d 2116 503d e41d 74bd 5d54 973c
000002a0: 7bcb f43d 5512 183d 0158 883d 433d 16ba
000002b0: f50f 073c 1659 e03d 0b3c 85bc d008 fa3b
000002c0: f1c8 97bd e155 0c3e 069f 7b3e 89fe 0bbd
000002d0: 4655 94bb c731 b6bc 4b2d 303d 4175 153e
000002e0: cc2d a8bc 7e94 0abe 6d86 b9bd b5c8 573d
000002f0: f9e9 3b3d a797 d5bc 9fa6 7b3e d06f f1bc
00000300: ce04 a73c afe2 083d 67c4 a73c 7659 63bd
00000310: 7dce dabd 76e7 193b 081e 05bd 9802 d23c
00000320: 0775 cf3b 5469 a73c 1156 2b3e 334a afbd
00000330: 2c47 47bd 050a 6b3d 243a b13e 0163 86bd
00000340: 6574 7e3d dbf8 333d 3e96 f43d 472a d83d
00000350: 73f9 a63b 7bca ee3d c6d3 26bd b532 a8bd
00000360: 6b0f 013d 9032 14bd f9c6 9f3e 7222 f3be
00000370: d9fa 843e 0ae4 7dbe bd06 8b3d 2834 89bd
00000380: 61b9 203e 112e e2bd 1e1d c43d ca8b 173d
00000390: 6cb1 79bd f488 833d d6f1 153e c2fd 33be
000003a0: fa53 cc3d 4fa8 eebc e3cf 7cbd dfd6 cb3c
000003b0: 920f a3bb aae9 c73c 645e a9be 1f4e fc3d
000003c0: ea5f 483d 9ebe 0ebd 6706 813d 06e4 4cbc
000003d0: 02ad dcbc 70be 553e 36ff 1ebb 0587 893d
000003e0: 305d cabd ed35 793e 6cf2 c5bd b482 b9be
000003f0: 73fb 94bd a71d 1e3e 73bb da3c 5b9b 173c

actor.bias f4 [3]
0.05206838 -0.0031342164 0.019146776
00000000: a745 553d 6d67 4dbb b3d9 9c3c

critic.weight f4 [1, 256]
-0.097364955 0.09166171 -0.2978273 0.0709136 0.003679662 -0.014011445 0.026689908 -0.6381
0.041541163 -0.4835371 -0.31295478 0.025879553 0.002209061 -0.56753844 0.110487126 -0.0015379275
-0.23006123 -0.4531108 -0.0015904673 -0.04414093 -0.4000477 -0.104541756 0.4677748 0.029242435
0.0068267714 0.27425608 0.02108811 0.25612947 0.2133964 0.0358352 0.14868553 0.043319277
0.004886122 0.056311626 -0.26537552 -0.45641384 0.06510186 -0.6317503 -0.29693955 0.04435582
0.03514492 0.16677435 0.04208083 0.038798008 0.0063526495 -0.010600995 -0.16205196 0.46146598
-0.10386792 -0.01775149 -0.3137316 0.012533237 0.035253562 0.19948103 -0.11430819 0.009722958
-0.10747646 0.18273318 -0.07024232 -0.025454096 -0.090815924 -0.043424524 0.004798874 0.07716244
0.40238956 -0.6981574 -0.5257792 -0.3892406 -0.3247757 0.04696567 -0.6238547 0.17554048
-0.10173039 0.18357234 -0.08733275 -0.0036250972 -0.16938075 0.037999596 0.042570278 0.31228366
-0.0852353 0.06603959 0.051661223 0.038416 0.06442366 -0.21574311 -0.02118281 0.041329768
0.03791111 -0.02841981 0.1281984 0.085119605 0.024798129 -0.19377424 -0.13814361 0.0010096796
0.04871985 0.022658918 0.037953563 -0.6252815 -0.044657968 0.13976823 -0.007520537 0.08757893
0.011348101 0.012184232 -0.01908157 0.2362482 0.33327565 0.037723564 -0.30684894 0.06184451
0.027345916 0.087024376 -0.07310727 0.053199135 0.24346419 0.2197853 -0.16650924 0.07540806
-0.08380682 0.15321481 0.059855994 -0.009330021 0.05579695 -0.7324569 0.025148595 -0.07398752
0.18643701 -0.280512 -0.5306211 0.00031817215 0.035336215 0.05472402 0.02707951 0.0011752001
-0.28279945 0.53737104 0.0039096856 -0.08050796 0.061026443 0.05554647 -0.54398954 0.01534729
0.04078367 -0.13591856 0.037208166 -0.13925472 0.006563479 -0.7055991 -0.11154678 -0.018332139
-0.14080916 0.19801214 0.026952684 -0.36257908 0.08968563 0.023555866 0.037650812 -0.0101313805
-0.015089598 0.09825272 -0.0015405875 0.08390705 -0.21183364 -0.7626351 0.08941704 0.050778747
0.04771133 -0.0004433339 -0.46851397 -0.013417715 -0.5686798 -0.23604693 0.0038188668 0.0046449113
-0.04223947 0.00663489 0.28556475 -0.01733089 -0.0013808981 -0.069680735 0.06620971 -0.2621657
0.044787075 0.00020879041 0.28301254 0.0074251774 0.04769556 0.027383126 0.21408173 0.04780367
0.050760467 0.2159847 -0.66502774 -0.2299351 -0.107280575 -0.0035770708 0.025669042 0.043180298
0.02264787 0.108484566 -0.076982364 -0.025939919 -0.025296379 -0.515394 -0.12624763 -0.18033509
-0.5587524 -0.115751565 -0.06787176 0.011227668 0.092734925 -0.030455032 -0.030176707 0.11027328
-0.026119154 -0.46027905 -0.115640774 0.43057862 -0.0012965025 0.13706774 0.24021827 0.026414625
0.038647316 -0.07802712 0.06093978 0.11880572 -0.0037342021 -0.6963667 0.002757715 0.0039377795
-0.4379385 -0.36112595 0.2872082 -0.11214211 0.026462227 0.017575467 0.14847498 0.02554854
0.05394175 -0.18447089 0.034466546 0.09959598 0.030358542 0.0068985526 0.003205075 -0.7573592
-0.0043391446 0.0075600017 0.0058377082 0.27219498 -0.028200112 0.009188432 -0.5713459 0.039427944
00000000: 4767 c7bd 22b9 bb3d d27c 98be 263b 913d
00000010: 7c26 713b 4390 65bc cba4 da3c 865a 23bf
00000020: 1127 2a3d 2d92 f7be 9c3b a0be 5b01 d43c
00000030: e5c5 103b 334a 11bf 1347 e23d 4994 c9ba
00000040: 2c95 6bbe 24fe e7be 3a77 d0ba 1fcd 34bd
00000050: 0dd3 ccbe fd19 d6bd 2e80 ef3e d58d ef3c
00000060: 1cb3 df3b 4b6b 8c3e f9c0 ac3c 6723 833e
00000070: 9684 5a3e eec7 123d 0541 183e 8e6f 313d
00000080: c31b a03b 05a7 663d 4ddf 87be 13af e9be
00000090: 2054 853d 63ba 21bf 7608 98be 73ae 353d
000000a0: 1ff4 0f3d e5c6 2a3e f35c 2c3d a9ea 1e3d
000000b0: e329 d03b ccaf 2dbc f3f0 25be 4545 ec3e
000000c0: b4b8 d4bd 936b 91bc 6ea1 a0be 3558 4d3c
000000d0: 0a66 103d c144 4c3e 6a1a eabd 0b4d 1f3c
000000e0: 9e1c dcbd 681e 3b3e 35db 8fbd 1c85 d0bc
000000f0: b3fd b9bd eadd 31bd df3f 9d3b 5707 9e3d
00000100: 0106 ce3e 72ba 32bf 7799 06bf 8b4a c7be
00000110: 0049 a6be 135f 403d f1b4 1fbf e2c0 333e
00000120: 0658 d0bd 63fa 3b3e 83db b2bd 0a93 6dbb
00000130: 2672 2dbe 77a5 1b3d 2c5e 2e3d a5e3 9f3e
00000140: d88f aebd c43f 873d b89a 533d 185a 1d3d
00000150: 8df0 833d c3eb 5cbe 9387 adbc 6749 293d
00000160: ae48 1b3d a9d0 e8bc 7146 033e 3053 ae3d
00000170: 7225 cb3c c16c 46be 8575 0dbe 3a57 843a
00000180: 778e 473d 329f b93c 3275 1b3d 7312 20bf
00000190: 46eb 36bd 671f 0f3e d66e f6bb 955c b33d
000001a0: 63ed 393c 5fa0 473c f450 9cbc 0ceb 713e
000001b0: 1ba3 aa3e 0684 1a3d 4e1b 9dbe ab50 7d3d
000001c0: 8b04 e03c d639 b23d 44b9 95bd 56e7 593d
000001d0: ad4e 793e 660f 613e 6681 2abe 8a6f 9a3d
000001e0: e9a2 abbd 58e4 1c3e 8f2b 753d f2dc 18bc
000001f0: 588b 643d 4c82 3bbf 6d04 ce3c c586 97bd
00000200: 58e9 3e3e 459f 8fbe c9d6 07bf 58d0 a639
00000210: b5bc 103d 4b26 603d d9d5 dd3c 2c09 9a3a
00000220: 17cb 90be 2691 093f d21c 803b 5be1 a4bd
00000230: ddf6 793d b284 633d e642 0bbf 3373 7b3c
00000240: c70c 273d 3c2e 0bbe 9767 183d ca98 0ebe
00000250: 7412 d73b 25a2 34bf a372 e4bd 482d 96bc
00000260: 4730 10be b2c3 4a3e e0cb dc3c f7a3 b9be
00000270: 19ad b73d 3bf8 c03c bd37 1a3d 17fe 25bc
00000280: 5c3a 77bc b938 c93d 8aed c9ba 76d7 ab3d
00000290: ebea 58be 0e3c 43bf 4820 b73d 60fd 4f3d
000002a0: f56c 433d 456f e8b9 10e1 efbe fad5 5bbc
000002b0: 0095 11bf 49b6 71be f445 7a3b 5734 983b
000002c0: 4b03 2dbd 7e69 d93b 8b35 923e 83f9 8dbc
000002d0: 40ff b4ba c6b4 8ebd f598 873d 953a 86be
000002e0: a772 373d c0ee 5a39 05e7 903e e74e f33b
000002f0: 6b5c 433d 9452 e03c 3e38 5b3e c8cd 433d
00000300: 35ea 4f3d 182b 5d3e 423f 2abf 1b74 6bbe
00000310: ebb5 dbbd 4a6d 6abb e247 d23c d3dd 303d
00000320: 0788 b93c 282d de3d eea8 9dbd f47f d4bc
00000330: 5a3a cfbc dcf0 03bf 0f47 01be c3a9 38be
00000340: 660a 0fbf 280f edbd 5900 8bbd 41f4 373c
00000350: cfeb bd3d d57c f9bc 2435 f7bc f5d6 e13d
00000360: d6f7 d5bc b2a9 ebbe 12d5 ecbd cd74 dc3e
00000370: 68ef a9ba 7c5b 0c3e c7fb 753e 7c63 d83c
00000380: a64c 1e3d afcc 9fbd fe9b 793d 6a50 f33d
00000390: 84b9 74bb 1745 32bf c8ba 343b 7d08 813b
000003a0: 7a39 e0be 80e5 b8be f40c 933e c3aa e5bd
000003b0: 50c7 d83c 6dfa 8f3c d309 183e 2c4b d13c
000003c0: 06f2 5c3d f0e5 3cbe cb2c 0d3d faf8 cb3d
000003d0: 7ab2 f83c 410d e23b 3c0c 523b 4be2 41bf
000003e0: 622f 8ebb e4b9 f73b 3f4a bf3b 245d 8b3e
000003f0: ec03 e7bc 148b 163c ba43 12bf 327f 213d
