Experimenten/Experiment1Snake/DQN/snake_model.pth_model.pth (torch, 151292 bytes, 10 tensors)

fc1.weight f4 [256, 10]
000000 7b b2 51 3f 42 46 82 be e5 23 a0 bc 7f 93 27 3f
       0.81912965 -0.25444227 -0.019548366 0.65459436
000010 6f 66 79 3e 2b bb a6 bd d2 2a 4d 3e 22 32 1b 3f
       0.24355482 -0.08141168 0.20035866 0.6062337
000020 62 46 2b 3e fe 96 c4 3d 3d 05 18 3f eb 99 a5 bf
       0.16726068 0.09599112 0.59382993 -1.2937597
000030 bf e0 b9 bd d8 8d 3c be 4b 92 c9 bf 0a 00 dc be
       -0.0907607 -0.18413484 -1.574777 -0.4296878
000040 da 86 cb be c2 66 d0 3e 18 d5 07 3f 47 d8 1c 3f
       -0.3975132 0.40703398 0.5305953 0.61267513
000050 25 0d 0f 3e 06 3e 4f be c5 92 99 3d ca 69 d3 3e
       0.13969858 -0.20238504 0.07498697 0.41291648
000060 a6 de 54 3e c8 e0 3a be d1 02 44 3e c6 bb 00 3f
       0.20788059 -0.1824981 0.191417 0.5028652
000070 ee 8b 47 3e 85 7f 08 3e 42 f8 3a be bf 42 03 bf
       0.19486973 0.13329895 -0.18258765 -0.5127372
000080 b1 76 ab bc 9e 37 d7 3e 81 21 4c 3b 2c 22 5b bd
       -0.02093062 0.4203462 0.00311479 -0.053499386
000090 81 e1 18 3e f9 0c 8e 3e 41 47 89 3e 32 ed 61 3d
       0.14929773 0.27744272 0.26812175 0.055157848
0000a0 d4 10 f8 3e 0b 1a 8d 3c 31 55 19 be a4 ed a7 3d
       0.4845034 0.017224332 -0.14973904 0.08199623
0000b0 24 a4 52 be 7b 55 d7 be 96 23 f3 bd ba 1c 13 be
       -0.20570427 -0.42057404 -0.11872022 -0.14366427
0000c0 f6 7a ff bd 82 c7 85 3e 4b 80 d2 3c 70 08 a8 be
       -0.12474625 0.26128775 0.02569594 -0.32818937
0000d0 85 d5 b9 3d 9e bf b9 bd 78 ae bb 3d a5 06 51 3d
       0.09073929 -0.09069751 0.09164137 0.051031727
0000e0 b0 52 57 3c 7a 01 ea 3e 39 4d 72 3e a6 d9 46 bd
       0.013142273 0.45704252 0.2366227 -0.04854741
0000f0 c6 02 d0 be 9c 56 9e be 61 cf ee bd 90 f0 11 3f
       -0.40627116 -0.30925453 -0.11660648 0.57007694
000100 c4 a8 65 3d a8 ab 34 be ef 91 cc 3e e7 da 3b 3f
       0.05606915 -0.17643607 0.39955088 0.73380893
000110 9c 0b 97 3e 70 12 d4 3d de d8 0b be ef 3e 04 bd
       0.29501045 0.10355079 -0.13656947 -0.03228658
000120 14 fe 31 be 6c e2 a7 3e 19 e7 a3 bd f1 96 b3 be
       -0.1738208 0.32789934 -0.08003063 -0.35076097
000130 77 d9 a6 3e 5b 53 1b 3f 28 52 b0 3e ed 20 b6 3e
       0.32587788 0.60674065 0.3443768 0.35571995
000140 db cb 5a bc 55 f8 bb 3c 52 4c 83 3e 7b 37 21 bf
       -0.013354267 0.022945562 0.25644165 -0.6297528
000150 b3 34 6b 3d 5e 3f 94 bd fb 18 8f 3d b5 1c dc bf
       0.057423305 -0.07238649 0.069871865 -1.7196261
000160 12 c9 ac bd ed 77 82 be 49 6f 0f bf c9 e3 de 3c
       -0.084367886 -0.2548212 -0.5602918 0.027208226
000170 9f 63 2e 3d 22 6b 30 3e 4b 24 a7 3f f7 6f c8 3e
       0.042575475 0.17228368 1.3057951 0.39147922
000180 fa fc 33 bd 06 23 58 3e d9 97 82 bf 83 40 83 be
       -0.04394243 0.2110711 -1.020259 -0.25635156
000190 b4 14 95 bd 6f c2 57 3f 86 8a 11 3f d5 91 ef be
       -0.072793394 0.8428106 0.56851995 -0.4679095
0001a0 33 e7 24 bf a2 cc 56 bf 09 46 08 3f e6 b5 7e 3e
       -0.6441528 -0.83905995 0.53231865 0.24874076
0001b0 1c 95 79 3b 80 79 86 3c 81 76 3a be 66 da 99 be
       0.003808326 0.016415358 -0.18209268 -0.30049437
0001c0 17 4b ff 3e 87 b0 8c be 46 c7 1f 3e 98 e1 73 be
       0.49861977 -0.2747843 0.1560336 -0.23816526
0001d0 5e 4a 93 3f 6e 80 cf be 2a fe ca 3e 51 87 52 bf
       1.150707 -0.40527672 0.39647037 -0.82237726
0001e0 65 24 b7 3e 7c be cc be 8e 6a 14 3f c3 51 61 3f
       0.35769954 -0.39989078 0.5797509 0.88015383
0001f0 7f e7 a7 3c 40 25 bc bd 6b 0b 00 3f c3 a5 ef bf
       0.020496128 -0.091867924 0.5001742 -1.8722461
000200 74 b6 b3 3e 0c be cc be f1 cb 9f be 84 50 c4 be
       0.35100138 -0.39988744 -0.31210282 -0.3834268
000210 14 03 04 3d 8a f4 b1 3e 76 38 63 3e 34 52 bc bd
       0.032229498 0.3475688 0.22189507 -0.091953665
000220 a1 5e c4 3e 27 c7 00 3f fc b0 20 3e 25 45 ca bd
       0.38353446 0.5030388 0.15692514 -0.098764695
000230 51 9b ef 3d 8a b1 f4 be ec cc 8d bf a8 aa d7 bf
       0.11699546 -0.47791702 -1.1078162 -1.6848955
000240 8b d8 98 be 72 09 cc 3b 0a 0e c9 bd ec 80 a6 3f
       -0.2985271 0.006226712 -0.09817131 1.3008094
000250 25 58 8b 3e 07 8c 02 3f f6 88 3e 3e 1b 0d e8 be
       0.27215686 0.50994915 0.18606934 -0.453225
000260 a4 75 6e be 9d e6 dd 3e 69 6a d6 3d 60 d2 02 3c
       -0.23287064 0.43340006 0.10469515 0.007984728
000270 ed a8 32 3e 3c f1 1f 3f 21 44 96 bc 06 b1 1f 3e
       0.17447253 0.6247747 -0.018343033 0.15594873
000280 4f 8b 0f 3e 5f 0f c6 3e 09 62 98 3e 14 05 d4 be
       0.14017986 0.38683602 0.29762295 -0.41410124
000290 f4 48 ad 3e 56 6e 63 3d 18 15 23 bf ab eb ad 3e
       0.3384472 0.055525146 -0.6370406 0.33968863
0002a0 7d a9 90 3d bf 02 e8 3d 23 33 c3 3f d4 eb e1 bc
       0.07063577 0.11328649 1.5249981 -0.027578272
0002b0 b2 10 75 be 1e 81 82 3d 52 e9 20 3f 5f 30 d4 bc
       -0.2393215 0.063722834 0.6285602 -0.025901971
0002c0 eb 49 ab bd c8 b7 12 3f ee 96 bb 3d 01 b7 fd 3d
       -0.08363708 0.5731168 0.09159647 0.12388421
0002d0 a6 2a 11 be 2b 9f a0 be 7e 88 60 bd 0e d4 46 3e
       -0.14176425 -0.31371436 -0.05481767 0.1941683
0002e0 c4 f5 a3 3e 3d 1b 05 3d 4a 01 f3 3e d0 64 eb 3d
       0.32023442 0.03249668 0.4746192 0.11493838
0002f0 b6 bc 96 3d 81 f1 ac 3d 74 ca f7 bc 8b 16 98 3e
       0.073602125 0.08444501 -0.030247904 0.297047
000300 c8 6a 21 3f 49 be 1c bf c7 ef f6 3e 24 09 52 be
       0.6305356 -0.6122785 0.4822981 -0.205113
000310 18 65 95 bf 9f 56 38 3f 21 56 d2 3c c1 4b 6b 3f
       -1.1671476 0.72007173 0.025675835 0.91912466
000320 53 a8 0c 3f 60 17 3d 3f 72 b0 4c 3f 76 9d 24 bf
       0.5494434 0.7386379 0.79956734 -0.64302766
000330 dd 51 67 be de dc 31 3e 61 b4 1c bf a9 d7 94 3f
       -0.22589822 0.1736941 -0.61212736 1.1628314
000340 23 ab 44 be ee b4 2d 3f f6 79 a4 3f c4 cc 45 3e
       -0.19205908 0.678542 1.284972 0.19316393
000350 47 32 8e be 4c d7 a5 be 7d 5c c9 be 9d 54 90 be
       -0.27772734 -0.3239082 -0.39328375 -0.28189555
000360 39 3d aa bc 6e 1d f8 3e 5c 03 15 3e eb 54 90 3e
       -0.020781146 0.48459953 0.14552063 0.28189787
000370 1f 7a c9 be 99 90 79 bf e8 3c 99 3e 61 90 98 be
       -0.39350984 -0.97486264 0.2992928 -0.29797652
000380 b5 72 d9 3f e2 9c 99 3e 99 b2 1b 3e 32 70 47 be
       1.6988131 0.30002505 0.15204848 -0.19476393
000390 00 82 0f 3e 80 9d d5 3c 79 10 dc 3e c2 5e 2e 3f
       0.14014435 0.026076078 0.42981318 0.6811334
0003a0 b1 cd dc 3e b5 7d 12 bf fd 2d 1a bf bc c3 9a 3e
       0.4312568 -0.57223064 -0.6022642 0.30227458
0003b0 85 ca 18 bf 2b 17 c2 bf e6 9a 5b 3c f3 7c c4 be
       -0.5968402 -1.516332 0.01340363 -0.3837658
0003c0 b9 72 c9 be 1b c8 45 3e 8b 87 a0 be 6e c8 e5 3d
       -0.3934534 0.19314615 -0.3135341 0.112198696
0003d0 6e 85 3c 3f 4e 37 d0 bd ea e1 87 3f ad f4 9b bf
       0.736411 -0.101667985 1.0615819 -1.2184044
0003e0 1c 5e 2b be 89 d2 d2 3d 8a 6e 3b 3f 9d 8f 1f bd
       -0.16735119 0.10294063 0.73215544 -0.03895532
0003f0 08 fe 1d be c6 a3 10 3f d7 81 d0 3e 70 f9 35 3f
       -0.15428936 0.564999 0.4072406 0.71083736

fc1.bias f4 [256]
000000 f6 e3 4f 3e d8 21 0b 3f 24 b8 ad 3e 25 10 e9 3e
       0.20301804 0.54348516 0.3392955 0.4552013
000010 28 71 04 3f a6 92 92 3e cf 90 4f 3e fd a1 3d 3e
       0.5173516 0.2862751 0.20270084 0.18518825
000020 27 d5 4d 3f e3 e5 fd be 54 c6 4d 3e 26 5a 4e 3c
       0.8040337 -0.49589452 0.20095187 0.012594735
000030 3c a9 32 be 77 3f c5 3e b7 b4 a8 3e 40 7e b5 3e
       -0.1744737 0.38524982 0.32950374 0.35447884
000040 1b bd 1c 3e b2 7b 9c bc 27 ed 82 3e eb 3a a0 3c
       0.15306513 -0.019101951 0.25571558 0.019559344
000050 60 52 db bd 77 83 1a 3f dd e5 04 bf 0a ac 18 3f
       -0.10709071 0.6035685 -0.51913244 0.5963751
000060 70 75 07 bf 40 69 95 3e 1d 0b 87 3e 62 b0 0b be
       -0.5291357 0.29181862 0.26375666 -0.13641503
000070 c1 cb 05 3d 06 aa b7 3e 7a 1a 2a be 46 88 49 3e
       0.032665018 0.35871905 -0.16611663 0.1968089
000080 59 35 9e 3e 28 23 8c 3e 11 20 61 3e 09 82 71 3e
       0.30900076 0.27370572 0.21984889 0.2358476
000090 58 58 e4 3e 23 82 ab 3e 11 5b a0 3e 18 36 11 be
       0.4459865 0.33497724 0.31319478 -0.14180791
0000a0 3d 40 28 3e c1 02 e1 3e 2c 70 79 be dd c1 0d 3d
       0.16430755 0.43947414 -0.24359196 0.03460871
0000b0 c7 29 8f be 51 7e 78 3e 62 75 64 3d 30 ee 8d 3e
       -0.2796156 0.24266936 0.055776007 0.27720785
0000c0 6a be ea 3d 99 88 ba 3e 85 c3 45 bd 14 66 ce 3d
       0.114621 0.3643234 -0.048282165 0.100780636
0000d0 16 78 ab 3d 1a 26 15 3d 24 6d 8c 3e 9b 02 ee 3e
       0.08372514 0.03641329 0.27427018 0.46486363
0000e0 53 5e 08 3f e4 ce da 3e ea 00 10 3f 22 d9 e0 3d
       0.5326893 0.4273597 0.56251395 0.10978915
0000f0 8e 6e a8 3e 21 5d da 3e 9b f0 d8 3e fb be 2c 3e
       0.32896847 0.42649177 0.42371067 0.16869728
000100 52 16 bd be 84 5c f1 3e 01 23 f7 3e 26 bc 6e 3e
       -0.36931092 0.47140896 0.48268893 0.2331396
000110 c7 06 89 3e 32 bf 9c 3e 46 9e ac 3e c9 df a4 be
       0.26762983 0.3061462 0.33714503 -0.32201985
000120 27 37 35 3d 54 47 03 3f f0 7c 92 3e 1b 9b bc 3e
       0.04424205 0.51280713 0.28610945 0.36837086
000130 ae b0 a2 3e 3b 42 bb 3d cb da be be 9d fd 56 bd
       0.3177542 0.09143492 -0.372763 -0.05248796
000140 f7 80 07 3e 5c 31 dd 3d 8b 6b 08 be f0 56 e3 3d
       0.1323279 0.1080043 -0.13322274 0.111005664
000150 f1 f2 53 bd 00 e7 16 3e 48 aa e8 3e a7 12 d5 3c
       -0.05174536 0.14736557 0.45442414 0.02600987
000160 87 eb 22 bb 98 54 06 3f ad 3e fe 3e 9f dd 19 3e
       -0.0024859624 0.5247283 0.49657193 0.15025948
000170 b6 ca 40 3e 64 96 f1 3e 34 09 bd 3e 25 22 79 3e
       0.18827328 0.4718505 0.36921084 0.24329431
000180 4c 23 4f 3e 70 70 e1 bd b5 72 5b bd d5 f7 0c be
       0.20228308 -0.11007774 -0.05357619 -0.13766415
000190 2e 01 9f 3e 90 f2 03 3f dd d5 36 3e fe 82 5a be
       0.31055588 0.51541996 0.1785502 -0.21339032
0001a0 af 4e de 3e 48 86 6e 3e 48 68 75 3e 9e a4 4f 3e
       0.43419406 0.23293412 0.23965561 0.2027764
0001b0 55 60 5c 3c e8 ab 55 be 47 86 b1 3e 5f 44 c9 3d
       0.013450702 -0.20866358 0.34672758 0.09827494
0001c0 fc c3 6d 3e 77 47 1b 3e e9 f4 99 3e b7 e3 99 3e
       0.23219293 0.1516398 0.30069664 0.30056545
0001d0 c1 9f 70 3e bf 77 d6 3d e1 f6 86 3e a0 a7 97 be
       0.23498441 0.104720585 0.2636023 -0.29620075
0001e0 2f 48 3f 3f f5 ed d9 be 6d 12 94 3e f3 24 34 3e
       0.7471952 -0.4256436 0.28920308 0.1759222
0001f0 15 c9 92 3e c9 de 31 3f 44 5c b2 bc 65 24 b0 3d
       0.28669038 0.6948057 -0.021772511 0.08600692
000200 7d c9 d9 3e 12 c7 dc 3e 04 9f 1b be d2 71 5b 3e
       0.42536536 0.4312063 -0.15197378 0.21430138
000210 5c 20 11 bd ff 7a 63 3e aa bf fa 3e 85 55 0a bf
       -0.03543125 0.22214888 0.48974353 -0.5403674
000220 58 06 21 3f 02 9b b3 3e 39 85 bb 3e f6 69 c9 3e
       0.62900305 0.350792 0.36625078 0.39338654
000230 41 b8 aa 3d 11 b2 d6 3e aa 55 a6 3e 10 35 61 3d
       0.08335925 0.4193273 0.32487231 0.054982245
000240 43 fa 01 be 01 30 a3 3e e9 6a fb 3e 5b 5c 55 3d
       -0.12693124 0.31872562 0.49105003 0.05209003
000250 c7 9b bf be 48 84 46 3f 58 42 cc be bd d2 b3 be
       -0.37423536 0.77545595 -0.39894366 -0.35121718
000260 05 81 8c be 99 c9 bb 3e 14 14 5f 3f 98 ad ab 3e
       -0.27442184 0.36677244 0.8714001 0.3353088
000270 1a 79 fe 3e ac 93 df 3e be eb 00 3f 6d 6d 0a 3f
       0.49701768 0.43667352 0.50359714 0.5407322
000280 9a 3d 3b 3e 34 f5 35 3d 3f 5b 75 3e 50 c7 a2 3c
       0.18285218 0.044423297 0.23960589 0.01987043
000290 0d d6 e3 3e 63 64 1e 3e cb db ed bd 17 c4 5f 3d
       0.44499245 0.15467982 -0.11614188 0.054630365
0002a0 93 3b 6a 3e 64 c6 b5 3e 90 96 e0 3e 88 1e 1d bd
       0.22874288 0.35502923 0.4386487 -0.038359195
0002b0 06 b3 10 3f ad 49 10 bd b1 9c 95 3e b9 31 cd 3e
       0.5652317 -0.035226513 0.2922111 0.40076998
0002c0 a6 3a 0f 3f 2d 2c 83 be 5d 26 99 3e 99 6b 3b bd
       0.55948865 -0.2561964 0.2991208 -0.04575691
0002d0 fb 4b 87 3e 7f 96 d8 3e e2 42 e3 bd 4d 59 c8 3e
       0.26425156 0.4230232 -0.11096741 0.3913063
0002e0 9c 9c 07 3e 98 39 43 3d b3 9d 88 3e 85 10 46 3e
       0.13243335 0.047662348 0.26682815 0.19342239
0002f0 4d 99 53 3e d8 e7 f5 be 10 5f c3 3d bd 78 b2 3c
       0.20663948 -0.48028445 0.09539616 0.021786088
000300 de 08 f2 be f7 f4 65 be 43 77 ee be 54 92 58 bd
       -0.4727239 -0.22456728 -0.46575364 -0.052873924
000310 43 49 60 be 8b 70 e4 bb 51 03 76 3e af a9 ae bd
       -0.21902947 -0.006971424 0.24024703 -0.08528458
000320 92 b4 e7 3e 6d f7 b2 3e 5e 5c 42 3c a0 43 ce 3e
       0.45254952 0.34954396 0.011862842 0.4028597
000330 46 f0 f0 3e 93 bc 00 3f df 12 d2 3e 3a 1d 31 bf
       0.47058314 0.5028774 0.41030023 -0.6918522
000340 eb 6a c0 3e ab 5c 41 bc 49 91 1d bf 67 2d ab 3e
       0.37581572 -0.011801879 -0.6154981 0.33433077
000350 2e b8 01 3f 72 15 98 be dc 20 08 bf eb 0c 42 be
       0.5067166 -0.2970386 -0.5317514 -0.1895024
000360 f4 7d 2d be 81 9c f0 3e bd 16 9c 3e 88 ca 95 3e
       -0.16942579 0.46994403 0.30486098 0.29256082
000370 b2 c4 d2 3e e1 6a a4 be d4 af c9 3e 0d 81 cf 3e
       0.41165692 -0.32112792 0.3939196 0.40528145
000380 31 7e 52 3e e8 b8 40 bf 8c 90 db be 07 22 35 be
       0.2055595 -0.75282145 -0.42883718 -0.17688762
000390 1b 51 99 be cf 46 fa 3e ce ff ce 3e 34 e4 b6 3e
       -0.2994469 0.48882148 0.40429538 0.3572098
0003a0 78 a8 5b 3e ca fb c1 3e 71 09 66 3e 36 1e 26 be
       0.21450984 0.37887412 0.22464539 -0.16222462
0003b0 a1 22 44 3e c5 f5 f6 bc f1 21 c2 3e 3d 67 70 be
       0.19153835 -0.030146489 0.3791652 -0.23476882
0003c0 fb c7 96 3e a8 e5 98 3e 73 8d 93 3e ed 5b 5d 3e
       0.29449448 0.29862714 0.28818855 0.21617098
0003d0 25 2e 23 be f9 10 12 3e ae 46 b2 3e 29 03 43 3a
       -0.15935571 0.14264287 0.3481955 0.00074391306
0003e0 0e 6a c6 3e de 66 c8 3d ac b2 a4 3e b7 0a 9d 3e
       0.38752788 0.09785245 0.32167566 0.30672237
0003f0 62 84 c6 bc 7b 67 90 3e 98 6b f7 3e 93 72 05 3f
       -0.024233047 0.2820395 0.48324275 0.5212795

ln1.weight f4 [256]
000000 39 9c cf 3e 23 e9 30 40 b8 c9 bc 3e 52 6d a7 3e
       0.40548876 2.7642295 0.3687265 0.32700592
000010 c6 9e 4c 3f bc 22 bb 3e 98 42 87 3e f9 b1 b2 3e
       0.7992977 0.36549938 0.26417994 0.34901407
000020 e8 b3 05 40 d1 87 28 40 28 2d 01 40 7b 1f c0 3f
       2.0891056 2.6332896 2.018381 1.5009607
000030 da 65 06 40 c8 f9 65 3e f9 1b 30 40 36 bd d1 3e
       2.0999665 0.22458565 2.7517073 0.4096467
000040 79 20 cc 3f a2 bd 5e 3f d7 d7 e9 3e 12 6c 24 40
       1.594741 0.87008107 0.45672485 2.569096
000050 09 30 14 40 91 91 56 3f c9 aa fe 3f f5 ee 60 40
       2.3154318 0.83815867 1.989587 3.5145848
000060 5d 83 07 40 9a 83 71 3f d0 11 8d 3f 96 e9 44 3f
       2.1173928 0.94341433 1.1021061 0.76918924
000070 23 d7 04 3f de ca 15 40 f5 f8 d7 3f 5c e4 70 3f
       0.5189077 2.340507 1.6872851 0.9409845
000080 13 68 cb 3e 9c fc 8f 3e 42 4c ab 3e a1 a4 04 40
       0.3972784 0.28122413 0.33456618 2.0725482
000090 10 ea 29 3f 6b 74 36 40 b7 a8 c1 3f e7 33 72 3f
       0.66372776 2.8508556 1.5129613 0.94610447
0000a0 d9 b7 5f 3f 17 2f ca 3e cc 7e 45 3f ef 9a 5e 3f
       0.87389904 0.39489052 0.771466 0.8695516
0000b0 c6 4c 01 40 9a a6 c4 3e 88 e3 aa 3f 28 1e 9d 3e
       2.0203109 0.38408357 1.3350687 0.3068707
0000c0 49 c8 d8 3e 91 46 ea 3e 18 7e 37 3f e8 3b 36 3f
       0.42340305 0.45756963 0.7167678 0.7118516
0000d0 94 58 08 3f 9f 87 a7 3f be fe 38 3f fa 42 e4 3e
       0.5326016 1.3088263 0.72263706 0.4458235
0000e0 d6 68 1a 40 5e df 9b 3e c8 94 43 3e a4 e0 d3 3e
       2.4126487 0.30443853 0.19099724 0.41382325
0000f0 1b 7f 64 3f 42 28 2d 3f 6e 26 9d 3f b1 1c 9a 3e
       0.8925645 0.67639554 1.2277353 0.30100015
000100 99 6a 24 40 22 8e d4 3f 95 78 5b 3e 56 31 e2 3e
       2.5690062 1.6605875 0.21432717 0.44178265
000110 05 cd 2f 3f 83 9a 32 3f 9e e2 b5 3e e9 03 b8 3f
       0.6867221 0.69767016 0.35524458 1.4376193
000120 dc 1d 2d 3f c7 60 81 3e f4 f5 0e 3f 5b a2 e5 3e
       0.67623687 0.25269148 0.55844045 0.4485043
000130 0c 63 08 40 e4 e8 94 3f 28 e8 52 40 c4 ac b6 3f
       2.1310453 1.1633573 3.2954197 1.4271474
000140 90 06 0d 40 86 44 b1 3f 60 30 73 3f 8c 6b 80 3e
       2.2035255 1.3849037 0.9499569 0.25082052
000150 08 5f d7 3e 0c 8c ea 3e 6e 59 dc 3e 4e ce bb 3e
       0.4206469 0.45809972 0.4303698 0.36680835
000160 34 21 09 40 41 ac c9 3f f7 66 35 3f 81 c7 48 40
       2.1426516 1.5755693 0.70860237 3.1371768
000170 54 aa 13 3f 76 de b2 3e e9 95 88 3f fb 24 bb 3e
       0.57681775 0.3493535 1.0670749 0.3655165
000180 8c 1a a9 3e b0 e1 cf 3e fe a7 91 3f 03 e0 12 3f
       0.33028066 0.40601873 1.1379392 0.57373065
000190 86 f0 bc 3f 64 eb b3 3e 29 f8 17 40 80 97 dd 3f
       1.4760902 0.35140526 2.3745215 1.7311859
0001a0 35 0c 21 3e e0 57 1e 3f 67 bd df 3e 4f 49 79 3f
       0.15727313 0.61852837 0.4369919 0.97377485
0001b0 de fc 30 3f d1 03 be 3f 62 3e d0 3f 28 c2 ec 3e
       0.69135845 1.4844915 1.6269038 0.4624188
0001c0 6e e0 8e 3e e9 b7 a3 3e 81 50 fc 3e a7 94 18 3f
       0.279056 0.3197625 0.4928017 0.59601825
0001d0 d9 03 f0 3e 64 fc de 3f 96 f9 c2 3e b8 6e 8f 3f
       0.46877936 1.7420774 0.38081044 1.1205664
0001e0 6a 08 28 40 fd 45 24 40 1c a5 65 3e e4 ea f5 3e
       2.6255136 2.5667717 0.22426265 0.4803077
0001f0 26 94 f7 3e f2 a7 bd 3f f2 e0 2e 3f 03 3a 08 3f
       0.48355216 1.4816878 0.6831199 0.5321352
000200 81 c4 ab 3e 45 93 af 3d ec 35 49 3f 1e 7e 6e 3f
       0.33548358 0.08573011 0.78597903 0.9316119
000210 2b a7 11 40 58 20 06 40 a9 25 39 3e 62 bb b7 3f
       2.2758281 2.095724 0.18080772 1.435406
000220 6f 72 0a 40 75 6d 5f 3e 0b 15 7d 3f 7c 8b 20 40
       2.1632345 0.21819098 0.98860234 2.5085135
000230 56 71 23 3f 3a 20 c4 3f 4c 1b a9 3e 80 6e 49 3f
       0.6384481 1.5322335 0.33028638 0.78684235
000240 16 00 d5 3f 07 a9 27 3f a2 5e 0c 3f 57 be 23 3f
       1.6640651 0.6549229 0.548319 0.6396231
000250 78 e2 c0 3f f0 0e 12 40 53 2e 8d 3f 1e 05 d8 3f
       1.5069113 2.2821617 1.1029762 1.6876562
000260 37 ec 82 3f 1e 83 bc 3e f2 13 36 40 29 fc 0d 3f
       1.0228337 0.36818784 2.8449674 0.5546289
000270 a1 55 50 3e 0d 6a 07 3f 81 6c a6 3e 48 04 5a 3f
       0.20345165 0.52896196 0.32504657 0.8516278
000280 3e 69 1e 40 d9 4a 7f 3f 62 ab 76 3e 3e 55 54 3f
       2.4751735 0.99723583 0.24088815 0.8294257
000290 0a a3 bb 3f 2e fa be 3e aa 76 15 3f 32 8b 5e 3f
       1.465913 0.37300247 0.5838419 0.86931145
0002a0 5b d7 b5 3e db 00 0d 3f 06 19 0f 3e 92 3d 33 3f
       0.35515866 0.5507943 0.1397439 0.70015824
0002b0 3f 9b 41 3f b1 fb 1c 3f d6 2c c7 3e fe d9 d2 3e
       0.7562751 0.6132155 0.38901395 0.4118194
0002c0 4b ad 93 3f 73 09 04 3f 63 cf 26 3f 54 bc eb 3f
       1.153726 0.5157692 0.65160197 1.8416848
0002d0 8b 28 a7 3e d4 1d b8 3e ad 7f 66 3f ac 84 37 3f
       0.3264812 0.35960257 0.9003857 0.71686816
0002e0 87 13 d0 3e 30 04 ce 3f 1f 9a 0f 40 54 e3 e0 3e
       0.40639898 1.6095028 2.2437818 0.43923438
0002f0 2c 21 0b 3f 70 85 b6 3f da a9 b2 3f 5a 0b d1 3f
       0.5434749 1.4259472 1.3958085 1.6331589
000300 0b ac 7a 3f db 43 c6 3f c2 cd bc 3f c1 0a a9 3e
       0.97918767 1.5489458 1.4750292 0.33016017
000310 29 30 14 40 b7 ed 10 3f be a4 9f 3e ee 86 04 40
       2.3154395 0.56612724 0.31180376 2.0707355
000320 4a 83 d1 3e 34 f4 f0 3e 1f 71 0b 40 33 b1 af 3e
       0.40920478 0.47061312 2.1787794 0.3431488
000330 d6 60 b0 3e b5 c4 22 3f db 21 f9 3e a8 b1 1d 40
       0.3444888 0.635814 0.48658642 2.4639683
000340 59 da 55 3f 90 dc 5d 3f ef cb a3 3f 5a 77 1a 3f
       0.835363 0.86664677 1.279661 0.60338366
000350 42 a7 5e 3d 71 4e d5 3f 6c 2c 8a 3f 83 e4 86 3f
       0.05435873 1.6664563 1.0794806 1.0538486
000360 cd 89 01 40 60 50 1a 3e 05 df 91 3e 2a f9 bd 3e
       2.0240357 0.15069723 0.28490463 0.3710416
000370 f2 fd 5b 3f af 0d 4f 3f 2f 24 9c 3f 9a 4d fc 3e
       0.85934365 0.80880255 1.2198542 0.49277955
000380 8d 55 ba 3f 41 be ec 3f 30 a1 2b 40 c7 b3 51 3f
       1.4557358 1.8495561 2.681713 0.81914943
000390 25 fe 53 3f 18 07 eb 3e 20 16 da 3e 33 5b 88 3f
       0.8280967 0.4590385 0.42595005 1.0652832
0003a0 dd 4c 95 3e 44 55 1e 3f ef 04 f3 3e ee bd 12 40
       0.29160205 0.61848855 0.47464702 2.2928424
0003b0 be 2e b4 3e 1f b5 1a 40 db 5e 2c 3e 89 01 29 40
       0.3519191 2.4173048 0.1683306 2.6407187
0003c0 4e 32 42 3f b0 fe d8 3f 25 b5 a9 3e 32 ba 8d 3e
       0.7585801 1.6952724 0.33146015 0.27681118
0003d0 86 f2 be 3f c2 03 96 3e 40 e4 81 3f d7 a2 ca 3e
       1.4917762 0.29299742 1.0147781 0.39577362
0003e0 11 1e ab 3e bd 96 0d 40 68 5c 1c 3f d1 e4 8c 3f
       0.33421376 2.2123253 0.610785 1.1007329
0003f0 46 74 5d 3f 61 56 e2 3e 5f ea 79 3e 1c 5d 95 3e
       0.86505544 0.44206527 0.24405812 0.291726

ln1.bias f4 [256]
000000 f5 a2 54 bf 31 0e 85 bd 9a dd 15 bf 64 4f 24 bf
       -0.8306115 -0.064968474 -0.5854126 -0.6418364
000010 9a cd b5 be 35 db 09 bf 1b 07 11 bf 9e 34 f5 be
       -0.35508424 -0.5385011 -0.5665147 -0.47891706
000020 77 5f 44 be 81 c5 42 be df a2 1a be 34 a9 57 be
       -0.19177042 -0.19020654 -0.15101193 -0.2106064
000030 c9 03 94 bd 35 e3 33 bf be a3 1f 3e 5c e4 18 bf
       -0.072272845 -0.70268565 0.15589806 -0.5972345
000040 df f3 0e bf 68 89 0c bf 23 c5 2f bf 96 e7 63 be
       -0.5584087 -0.54897165 -0.6866018 -0.22256312
000050 44 8c da 3c 08 92 08 bf f3 bf 62 be 59 f6 49 bc
       0.026678212 -0.53347826 -0.22143535 -0.0123268
000060 0b fd db bd 23 63 8c be ee 84 e8 be ed 6c d2 be
       -0.107416235 -0.27419385 -0.45413917 -0.4109873
000070 03 24 e6 be 0a 28 8a bd 26 66 75 3c 1d d9 3e bb
       -0.4494935 -0.06745918 0.014977967 -0.0029121109
000080 e6 db e8 be 84 c3 75 bf e7 e5 11 bf 99 f4 ce be
       -0.4548027 -0.9600146 -0.5699143 -0.40420988
000090 4f 44 07 bf 32 b1 b7 be 08 fc 40 bd 3c aa 0e 3e
       -0.52838606 -0.35877377 -0.047115356 0.13932127
0000a0 7a 6c 95 be 0c fb 20 bf 0f 54 8a be 6e 46 13 bf
       -0.29184324 -0.6288307 -0.27017257 -0.5752934
0000b0 61 e7 30 be b6 ad 2e bf 21 96 07 bf d3 e4 12 bf
       -0.17275764 -0.6823381 -0.52963454 -0.5738041
0000c0 cf f2 3d bf 71 26 07 bf 97 93 0f bf 61 ed e3 be
       -0.7419862 -0.5279303 -0.5608458 -0.44517043
0000d0 1e 86 4b bf dd 97 10 bf 01 7f 69 bf 6c a9 3f bf
       -0.7950152 -0.56481725 -0.9120942 -0.7486789
0000e0 68 fc 9b be 37 7c 2c bf 5f 47 17 bf da 05 f9 be
       -0.30466008 -0.67377037 -0.5909328 -0.48637277
0000f0 8f 4e cd be 0e 7f be be 44 79 94 be a1 ca fc be
       -0.40098998 -0.3720631 -0.28998768 -0.49373344
000100 91 5c 60 be 64 b0 34 be 0b 06 1c bf 07 64 29 bf
       -0.21910311 -0.17645413 -0.6094672 -0.66168255
000110 42 54 38 bf 59 0d 15 bf 6e 67 00 bf 5f 31 46 be
       -0.7200357 -0.5822349 -0.5015782 -0.19354771
000120 4a 9a 60 bf 61 9c da be b5 69 1a bf 84 54 cc be
       -0.87735426 -0.42697433 -0.60317546 -0.3990823
000130 36 ef b9 bb 13 d1 01 bf 9f 8c dd be a8 c4 69 be
       -0.005674268 -0.50709647 -0.43271348 -0.22828925
000140 9f ad 10 be 6a 3b 53 be 97 5c ff be 09 69 00 bf
       -0.14128731 -0.20628133 -0.49875328 -0.5016027
000150 2c 0e 20 bf 8e ce 11 bf 91 0c 0e bf 68 d5 2a bf
       -0.62521625 -0.569558 -0.55487925 -0.6673188
000160 fb 85 c8 be 6f 66 d0 3c db b7 f9 be d6 35 27 3d
       -0.3916472 0.02543947 -0.48773083 0.040822826
000170 7b 80 10 bf b0 b8 1f bf 11 bc f4 be 57 ac 38 bf
       -0.56446046 -0.62391186 -0.47799733 -0.7213797
000180 d7 a6 0e bf eb 55 22 bf 3b 1d b1 be b0 6f 99 be
       -0.5572333 -0.6341235 -0.34592614 -0.29968023
000190 6e 79 a7 be 84 f5 3e bf 9f c6 98 3d 49 70 83 be
       -0.3270983 -0.7459338 0.07459759 -0.25671604
0001a0 1f 18 15 bf 92 0c 36 bf bf 38 22 bf 6d 76 a1 be
       -0.5823993 -0.7111293 -0.6336784 -0.31535664
0001b0 10 6e 22 bf 4a 8b ba be f9 44 1b bf 52 bf 0f bf
       -0.6344919 -0.36434394 -0.6065212 -0.56151307
0001c0 d9 dc e3 be 9f 1c 56 bf 9e cf 05 bf 6e 87 0f bf
       -0.4450443 -0.8363742 -0.52269924 -0.56066024
0001d0 9f a8 0c bf 01 90 de 3d 3d 08 43 bf 3c ac 50 be
       -0.54944795 0.1086731 -0.76184446 -0.20378202
0001e0 1f 93 c8 3d cf 70 11 bd 15 ff 40 bf e6 7d 1e bf
       0.09793686 -0.035507973 -0.75389224 -0.61910856
0001f0 cf 2b 28 bf 61 ac 16 bf 53 fe 1c bf 15 b0 2d bf
       -0.65691847 -0.5885678 -0.6132557 -0.67846805
000200 49 f8 23 bf 40 9e 00 bf c3 aa b4 be 0c f9 c2 bd
       -0.6405073 -0.5024147 -0.3528653 -0.09520158
000210 6c 95 3d be 4a 6a d5 bd 4a e5 25 bf 96 ac 42 be
       -0.18514031 -0.10420664 -0.6480299 -0.19011149
000220 2e 8e c7 be bb f9 40 bf db 46 ee be a1 bb 0f be
       -0.38975662 -0.7538106 -0.46538433 -0.14036418
000230 ac 29 eb be 3b f0 de 3d 3f f8 1e bf ed 9f e8 be
       -0.4593023 0.10885664 -0.62097543 -0.45434514
000240 9e ff 5c be fb 44 0a bf f5 9c 1e bf 93 1c 15 be
       -0.21581885 -0.54011506 -0.6195825 -0.14561681
000250 92 fe 89 be 68 d9 13 be 1c 09 2e be 6f 07 d4 be
       -0.26952034 -0.14438403 -0.16995662 -0.4141192
000260 c1 15 b1 be 5c ce 15 bf 6d 01 0b bd a3 8d 44 bf
       -0.3458691 -0.58518004 -0.033936907 -0.7677862
000270 19 71 27 bf be 23 2a bf ac 6c 23 bf 82 34 d4 be
       -0.6540695 -0.6646079 -0.63837695 -0.4144631
000280 8f 7c 7b bc 76 a0 d9 be d5 85 0d bf 29 1f 83 be
       -0.015349521 -0.42505234 -0.55282336 -0.2560971
000290 ed 39 4e be f4 89 0b bf 86 19 1c bf f6 e8 8d be
       -0.20139284 -0.54507375 -0.60976446 -0.27716798
0002a0 6e 7e 27 bf 19 f2 11 bf 3f bd 24 bf 8b 0a 10 bf
       -0.6542729 -0.57010037 -0.64351267 -0.5626609
0002b0 d7 76 89 3d 4e ac 03 bf 5f c6 28 bf 9f fb 42 bf
       0.0671212 -0.5143479 -0.6592769 -0.76165193
0002c0 89 98 46 bd 90 c0 15 bf fd 16 1e bf cf e8 a1 bd
       -0.048485313 -0.5849695 -0.6175383 -0.07905733
0002d0 8b 18 31 bf 4f a4 15 bf 06 2f e0 be 65 48 18 bf
       -0.69178075 -0.5845384 -0.43785876 -0.59485465
0002e0 92 a6 13 bf 83 f6 a9 3d ba 10 20 bf ec bc 28 bf
       -0.5767604 0.082989715 -0.6252552 -0.6591327
0002f0 8e 7c 37 bf 2f 53 1f be 7a d8 d4 be 58 6f 9c 3c
       -0.7167443 -0.15559076 -0.4157141 0.019096062
000300 83 7e 8b be 28 06 cb be 09 69 b3 be 0b 91 fd be
       -0.27244958 -0.39653134 -0.35041073 -0.49524722
000310 cc 4d f8 3c d0 47 cd be 3d fc 15 bf 3c 6a 7d be
       0.030310534 -0.4009385 -0.5858801 -0.24747556
000320 af 12 28 bf 6d d4 17 bf 21 1c c6 3d 02 5a eb be
       -0.6565351 -0.5930851 0.09673334 -0.45967108
000330 70 47 16 bf 45 81 35 bf 39 7a 3f bf 87 7c 19 bd
       -0.58702755 -0.70900375 -0.7479587 -0.037472274
000340 f5 aa 07 be a5 63 ed be dc 4f 4e bd 12 62 1d bf
       -0.13248809 -0.46365085 -0.05036913 -0.6147777
000350 e6 03 0a bf e7 a6 8f be f8 56 ec 3c 5b cd 0f be
       -0.539122 -0.28057024 0.028850064 -0.1404318
000360 8a 7c 0c be 35 3d 13 bf 8e 95 3a bf c1 59 15 bf
       -0.13719383 -0.5751527 -0.7288445 -0.5834008
000370 e1 07 e7 be f1 5f 26 bf 23 a3 86 be ab de 19 bf
       -0.451232 -0.64990145 -0.26296338 -0.6010539
000380 d0 f5 89 be b2 66 ed bd 0f 75 84 3d 95 bc 1f bf
       -0.26945353 -0.11591853 0.0646764 -0.6239713
000390 2e 87 55 be 82 17 27 bf 95 92 fe be 41 e0 05 bf
       -0.20852348 -0.65270245 -0.49721208 -0.5229531
0003a0 1a 83 0d bf 5c c8 22 bf 6f dd 2e bf ff 22 07 be
       -0.5527817 -0.63586974 -0.6830663 -0.13196944
0003b0 4a eb 29 bf d3 9e 2a be ac 34 31 bf b7 d9 89 bd
       -0.6637465 -0.16662149 -0.69220996 -0.06730979
0003c0 ed 1d a0 be 35 4f 9e be 1b 16 f1 be ca 58 0b bf
       -0.31272832 -0.30919805 -0.47087178 -0.54432356
0003d0 91 62 ad be 56 42 1e bf 79 3a 34 bf e2 17 da be
       -0.33864263 -0.6181997 -0.7040172 -0.42596346
0003e0 cf a6 15 bf 87 d3 14 bd 29 f0 b6 be fa 54 f5 be
       -0.58457655 -0.03633454 -0.35730103 -0.47916394
0003f0 73 82 ea 3d a6 9e 1b bf 9c 08 25 bf 8d 7f 37 bf
       0.114506625 -0.60788953 -0.6446626 -0.71679

fc2.weight f4 [128, 256]
000000 97 3c f7 bc 91 ee 92 be a4 54 c1 3b b2 b4 f7 3b
       -0.030180259 -0.28697637 0.0058999825 0.0075593824
000010 3d 30 7e 3e c5 e9 68 3d cc 06 df 3d 6e 0d 18 bc
       0.24823089 0.056863565 0.10889968 -0.009280546
000020 dc dd 5d 3f a9 68 ac 3f 87 a5 17 bf d1 4e cc 3e
       0.86666656 1.346944 -0.5923695 0.39903882
000030 1f f8 e8 3e bc f9 b6 3d 70 08 a0 3d dd c1 27 bd
       0.455018 0.08934352 0.07814109 -0.040956367
000040 7f 49 1b 3f e8 29 81 3e 58 c9 56 bc 64 bd 59 3e
       0.6065902 0.25227284 -0.0131095275 0.21263653
000050 c1 ad 00 3f be 29 c6 bd a2 1c 84 bf af b7 01 bf
       0.5026513 -0.096759304 -1.0321238 -0.50670904
000060 e9 5f 2c be 4d 1e ba 3e 7a b8 13 3e 78 d0 85 3e
       -0.16833462 0.36351243 0.14425841 0.26135612
000070 6a a1 3e 3c e8 cb 90 3e d2 c9 e4 bf 54 5e 9f 3d
       0.011635164 0.28280568 -1.7874091 0.077816635
000080 0d b7 88 3d a5 50 8c bd 20 f3 93 bd 30 c6 01 bf
       0.06675539 -0.06851319 -0.07224107 -0.50693035
000090 86 28 ad bd 87 95 93 3e e0 17 45 3f 3e 11 e5 bd
       -0.08454995 0.28825018 0.76989555 -0.11184929
0000a0 f3 7f 83 bd a3 bc 89 bc 98 3f b1 bd d8 ce c8 be
       -0.06420889 -0.016813582 -0.08654708 -0.3922031
0000b0 ba 97 c5 be 0b ec 00 be 03 81 04 be ba fd 55 bd
       -0.3859232 -0.12590043 -0.12939839 -0.052243926
0000c0 32 b1 f7 bd 54 1f 81 3b e3 48 21 bd d0 b5 18 be
       -0.12094344 0.003940502 -0.03937615 -0.14913106
0000d0 9f 6b 80 3e 10 6f 45 3e a2 16 d2 bd 09 16 0c 3d
       0.25082108 0.19280648 -0.10258223 0.0342007
0000e0 01 66 12 3d b6 96 ce bd 96 85 15 3d 6b 72 88 3e
       0.03574181 -0.100873396 0.03650435 0.26649794
0000f0 1e c3 48 3c dc 73 f6 bd 14 f3 6f be 5e b8 89 3c
       0.012253551 -0.12033817 -0.2343257 0.016811546
000100 06 8b 9c 3e e4 5a ee 3e f3 50 d4 3d d2 bf b9 3c
       0.30574816 0.4655372 0.10367002 0.022674475
000110 0d 2c 6b 3d 0d 81 25 3d 09 a9 b6 3c 6c 83 61 3f
       0.057415057 0.040406276 0.0222974 0.8809116
000120 47 a6 9e 3e 63 5a 02 3d 2b a7 b2 3e 4d e7 63 3d
       0.30986235 0.03182448 0.34893164 0.055640507
000130 02 10 a4 3e 85 13 52 3f 19 62 7e bf ed 56 d2 3e
       0.32043463 0.82061034 -0.99368435 0.41081944
000140 2a 57 7e 3e 3f cb 03 3f d4 dc dc 3c 77 2c 45 bd
       0.24837938 0.51482004 0.026960768 -0.048138108
000150 e9 26 ed 3d c7 db 94 3d 58 d7 9c 3d b4 e5 37 3d
       0.11579687 0.07268482 0.07658261 0.044896796
000160 ea cf 70 bf e1 99 a4 be 4d 4b 47 3e 90 18 2f 3f
       -0.9406725 -0.3214865 0.19462319 0.68396854
000170 81 2c 91 3e 73 9b 5d 3d c6 3b a2 bd ca 27 22 3e
       0.28354266 0.054103326 -0.07921557 0.15835491
000180 a6 b5 3f 3d ce 27 81 be 3a f2 57 3e 1a 53 4f ba
       0.046804093 -0.2522568 0.21088496 -0.00079088064
000190 99 9c 5c 3f 2b 31 42 3c ea 64 f5 bd b4 fd 20 3e
       0.8617645 0.011852543 -0.119821385 0.1572178
0001a0 81 9a a6 3b bc 4a a8 3e 70 84 1c bd e0 d5 41 bf
       0.0050843363 0.32869518 -0.03821224 -0.7571697
0001b0 65 5c 5d 3d 75 c5 86 3d c4 62 23 be 6d 68 43 3e
       0.054043192 0.06580631 -0.15955645 0.19082804
0001c0 f0 ca 03 be ab 54 65 bd c5 9a a6 bd 1c 93 af bd
       -0.12870383 -0.05598895 -0.08134989 -0.08572981
0001d0 c0 4c f7 3d d9 dd f1 3e b3 3d 0b 3d c3 69 80 3e
       0.12075186 0.4723957 0.033994388 0.2508069
0001e0 0c 7b 9e be 52 31 ee 3d a2 0b 8b bb de e3 2e 3e
       -0.30953252 0.11630501 -0.00424333 0.17079112
0001f0 92 52 4c 3e 28 d5 62 be 37 17 13 bd f9 da 54 3d
       0.19953373 -0.22151625 -0.03591081 0.05196664
000200 07 c1 e6 3e c7 58 c4 3b da 50 8b be e9 26 d3 3d
       0.45069143 0.0059920284 -0.27210122 0.10310156
000210 fe c7 70 3f 8f a6 01 3f 80 f9 b2 bc 5a 26 1b 3f
       0.94055164 0.50644773 -0.021847486 0.60605395
000220 cc b2 ce 3e 35 1f 98 3c f0 3e 0e 3e a6 11 19 3b
       0.40370786 0.018569568 0.13891196 0.0023356467
000230 88 df 8b bf 00 bc c2 3e 08 d2 25 bd f8 39 82 3e
       -1.0927591 0.38034058 -0.040483505 0.25434852
000240 f5 21 54 3f 4a e6 6c 3d 49 b6 d5 bd 67 1c bb 3e
       0.82864314 0.05783681 -0.10435159 0.36545107
000250 c1 4f 98 3e 7d b2 c1 be c8 e0 26 3f de 3f 20 be
       0.29748347 -0.37831488 0.6518674 -0.15649363
000260 fe cf ad bf 5d 82 bf bd 02 13 0f bf 8d 5e dd 3d
       -1.3579099 -0.09351037 -0.5588838 0.1080905
000270 34 45 9f bd ec 79 48 3b 2b 30 14 3e 45 80 e4 bb
       -0.07776871 0.003059025 0.144715 -0.0069732987
000280 72 bd 04 3e 38 13 8a bd c6 58 8d bd ec 14 1e 3e
       0.12962893 -0.06741947 -0.06901698 0.15437669
000290 4b 10 90 bb c5 b1 9b 3c ca 33 4d 3d 99 42 b4 3e
       -0.0043964735 0.019005666 0.050098218 0.3520706
0002a0 92 93 27 3d 0e d4 93 bb cf 8e 6f bd 86 c7 fd be
       0.04091222 -0.004511363 -0.058485802 -0.49566287
0002b0 09 19 e7 3e da 7c e0 be 6e 04 5e bd 06 bb d1 3d
       0.45136288 -0.43845254 -0.054203443 0.1024075
0002c0 b5 d8 d5 3d ab 55 29 3e 7c 10 af bd 76 bf 3e 3f
       0.10441724 0.16536586 -0.08548066 0.74510896
0002d0 88 7a 92 bd b6 1f fc bd c7 c3 f4 be 8e 4e 8e bd
       -0.07152277 -0.12310736 -0.47805616 -0.06948577
0002e0 01 97 89 bd c0 53 26 3e cb 80 9e be 28 d7 72 bd
       -0.06718255 0.16242886 -0.30957636 -0.05928722
0002f0 f7 05 00 3e 31 a0 cf 3c 92 e0 8b 3e 42 f5 f5 bc
       0.12502275 0.02534494 0.2731977 -0.030024175
000300 42 82 90 3e 95 99 a9 3e 82 a9 66 3f 47 a1 55 39
       0.2822438 0.33124986 0.901024 0.00020373343
000310 8a 83 7d 3d ee d1 40 be 5b 3a 18 3d ca cd 6a 3d
       0.061893024 -0.18830082 0.037165027 0.057325162
000320 95 99 14 be 8c 20 39 3d 7b 4f 82 3e 40 54 e6 bd
       -0.14511712 0.045197055 0.25451264 -0.11246538
000330 cb 74 28 bd be 64 5a 3d e9 92 90 3d 44 74 95 3d
       -0.041127007 0.05331873 0.07059271 0.072975665
000340 f0 a5 9c 3e 7a f8 31 3f 94 5d c3 3e a2 a0 26 3d
       0.3059535 0.6951977 0.38157332 0.040680535
000350 82 ed 29 3e 7b c5 e7 3d c6 3c 94 3e 88 e1 13 bf
       0.16594508 0.11316963 0.28952616 -0.5776601
000360 32 51 95 be 8d 7c fa bc be ea cc bd 83 e5 41 bc
       -0.2916351 -0.030576969 -0.10005711 -0.011834505
000370 a4 0d 83 be 7a e6 8e 3e dd d3 88 3e e0 3a 07 3c
       -0.25596344 0.27910215 0.2672414 0.008253783
000380 c6 7c 6d be 8f 88 6f 3e b1 ed 61 bf f9 b3 03 bd
       -0.23192129 0.23391937 -0.88253313 -0.032154057
000390 b2 c9 26 3f 61 b2 85 3d 61 0c 79 bc 3b 58 10 3e
       0.6515151 0.06528164 -0.015200705 0.14096157
0003a0 34 5d da 3d 33 be 4e 3d 64 95 de bd 81 27 65 be
       0.10662308 0.050474357 -0.10868338 -0.22378351
0003b0 bc 2f bc 3d 07 5b a0 3e b3 78 fc 3d 55 e6 a8 bf
       0.09188792 0.31319448 0.12327709 -1.3195292
0003c0 70 f1 9c bd 0d 74 19 be 83 5b 0b be a3 c5 87 3e
       -0.07663238 -0.14985676 -0.13609128 0.26517972
0003d0 be 15 eb 3e f3 f0 b5 bb 4b a6 c7 3e b1 d6 aa 3d
       0.45915025 -0.005552405 0.3899406 0.083417304
0003e0 3a ad 97 bd 92 dc 16 3f 65 b7 18 bd 43 41 ba be
       -0.07406087 0.58930314 -0.037284274 -0.36377916
0003f0 fc 1b 1d 3f bb 98 95 bd 9f 07 b5 bd 67 15 82 bd
       0.61370826 -0.07304522 -0.08839344 -0.063517384

fc2.bias f4 [128]
000000 f0 7b 51 3e ac 41 c5 3e 31 4e e8 3e 18 4f ca 3d
       0.20457435 0.38526666 0.45372155 0.09878367
000010 d0 63 38 bd c0 8d c9 3c 48 45 c2 3e 0a 0d 7e be
       -0.045017064 0.024603724 0.37943482 -0.24809662
000020 53 06 99 be e5 d2 aa 3e 48 5a e0 3c f8 b6 57 3e
       -0.29887637 0.33364025 0.0273868 0.21065891
000030 52 c4 b9 be ab c4 d4 3c fb 38 3f 3e b3 27 55 3d
       -0.36282593 0.025972685 0.1867408 0.052039813
000040 a9 78 74 bd 89 4d 67 3e fe bf 67 be d1 80 96 be
       -0.059685383 0.22588171 -0.22631833 -0.29395154
000050 b5 b6 69 bd 8a 9b d9 3d fd 62 08 bf f1 04 08 be
       -0.05705901 0.1062537 -0.53276044 -0.13283135
000060 13 5b c1 3d b4 e7 cc 3e 1d 95 af be 8e e4 94 3e
       0.09441199 0.40020525 -0.34293452 0.29080623
000070 b8 64 fb bc f3 7d 85 be c4 00 1c be 00 c0 50 3d
       -0.030687675 -0.26072654 -0.15234667 0.050964355
000080 ca ce b1 3c 89 c7 65 be 5a f9 80 bf 79 d3 a2 3e
       0.02170505 -0.22439398 -1.0076096 0.31801966
000090 c3 0e 2c 3e f2 63 a4 3e 37 d8 58 bd 5c 8d b1 bb
       0.16802506 0.32107502 -0.052940574 -0.0054184627
0000a0 30 63 83 be 78 33 ae 3e d5 5a 72 3e ac da 32 bf
       -0.25661612 0.34023643 0.23667462 -0.69864917
0000b0 73 f6 ea 3e 88 b5 9b bd 1b f6 91 3d 64 bf ba 3d
       0.4589115 -0.07602984 0.07127019 0.09118536
0000c0 27 2d 27 bd 8b fc 0a bf ac 9e 3a 3d d0 dc 52 3e
       -0.040814545 -0.542916 0.045561478 0.20592046
0000d0 e2 d5 19 3f cd b5 dd 3e d2 4e 55 be 64 67 8e 3b
       0.60091984 0.43302765 -0.20830849 0.004345821
0000e0 b5 4d ba bd 2e 5b 5a be 40 2f 93 3e 7b 0d d6 be
       -0.09096853 -0.21323845 0.28746986 -0.4180716
0000f0 88 fd 07 3e 6a 01 5e bc 62 ea 5a 3e 84 b3 5d bc
       0.13280308 -0.013550142 0.21378472 -0.013531569
000100 ff a9 c4 3e b7 e2 32 3e ab d2 04 3b 8a 02 7f 3e
       0.38410947 0.17469297 0.002026717 0.24903312
000110 07 31 da 3d 8c ee 5c 3e ca a7 ce 3d a8 8a 07 3e
       0.106538825 0.21575373 0.10090597 0.13236487
000120 62 92 3e 3d 4d dd a4 3d 52 26 22 3e 1f 9d e7 be
       0.04652632 0.08050022 0.1583493 -0.4523706
000130 60 1b b0 3e 7e 06 ea 3d 2c 12 26 3f 94 40 f0 3d
       0.34395885 0.114270195 0.6487148 0.11731067
000140 7a 6d db 3e d6 fc 23 be af 01 55 3d e2 12 97 3d
       0.4285696 -0.16014418 0.05200356 0.073766485
000150 13 c9 21 bf ff 94 3d be 9a a0 8f 3e 5b ce 0d 3e
       -0.6319744 -0.18513869 0.28052217 0.1384825
000160 d3 9c a6 3e c6 2e 0a 3d 79 19 43 3e fb 9f 7d 3e
       0.32541522 0.033736013 0.19052686 0.24768059
000170 6c 2e 14 3e db ef 8a 3e 72 b9 12 3f 89 9e be bd
       0.14470834 0.2713612 0.5731422 -0.09307582
000180 fa 2c 01 3f 17 cf 85 be 85 14 fb 3e 33 7b 3d 3e
       0.50459254 -0.2613456 0.49039093 0.18504028
000190 fa 66 9e 3e 27 7b 75 bf 2a 69 2d bd b0 a5 2a be
       0.3093794 -0.9589104 -0.04233662 -0.16664767
0001a0 a8 0a ac bd 30 0d 9e be 3b 5d 85 bc 3c 11 68 be
       -0.0840047 -0.30869436 -0.016279807 -0.22662824
0001b0 cb 5b 77 3e 89 19 af be 4f 19 cb 3b 57 61 0d 3e
       0.2415611 -0.3419917 0.0061980854 0.13806663
0001c0 c6 76 0b be ac 4f 80 3e ca 37 cb be 7b 5b e6 3d
       -0.13619527 0.25060785 -0.39691 0.11247917
0001d0 59 34 d7 3d 2b 55 8c 3e 72 3f d3 3e 07 ff 29 3f
       0.105080314 0.27408728 0.41259342 0.66404766
0001e0 2e 7e 3d bf ac 12 85 3d 2e 09 b5 3e 5c 71 b8 bd
       -0.7402066 0.06497702 0.35358566 -0.090059966
0001f0 d5 8d be 3d e9 16 90 3e 1a c6 f3 3d c7 97 7b 3e
       0.09304396 0.2814248 0.11903019 0.24569617

ln2.weight f4 [128]
000000 41 59 38 3f f4 6e 33 3f 26 e0 9d 3f 3c 89 6e 3f
       0.7201119 0.70091176 1.233403 0.93178153
000010 8c 42 65 3f 92 f5 84 3f da 22 91 3f 9c 9f 9e 3f
       0.8955467 1.0387442 1.1338761 1.2392459
000020 d3 37 c8 3f ad d7 8a 3f f8 bc 87 3f 08 4b c8 3f
       1.5642036 1.0847069 1.0604544 1.5647898
000030 c0 5c 12 40 45 df 2b 3f a8 6b 90 3f e1 35 c4 3e
       2.286911 0.6713756 1.1282854 0.38322356
000040 03 7e c1 3f 2a 98 74 3f 76 f3 98 3f ce 4e 90 3f
       1.5116581 0.95544684 1.1949298 1.1274049
000050 b0 59 04 40 84 3c 37 3f a4 c5 1e 40 39 1a f7 3f
       2.067974 0.71576715 2.480813 1.9304878
000060 c7 f8 83 3f e5 f7 8c 3f b7 24 a0 3f b2 aa 8e 3f
       1.0310296 1.1013151 1.2511204 1.1145842
000070 b9 f6 bb 3f 2b ee aa 3f 57 27 b8 3f c1 3a d4 3e
       1.4684669 1.3353933 1.4387006 0.41451076
000080 8a 37 6b 3f bd 6f 0a 40 ae af fd 3f 0e 29 71 3f
       0.9188162 2.16307 1.9819238 0.9420327
000090 a2 af 40 3f f5 3f 34 3f 36 ed 24 40 d8 b9 a6 3f
       0.75267994 0.7041009 2.5769782 1.3025465
0000a0 08 84 97 3f 1d 08 68 3f 43 a9 28 3f 72 6c 41 40
       1.1837168 0.9063738 0.6588327 3.022244
0000b0 eb 80 aa 3f 69 85 76 3f 66 e2 97 3f 41 59 fa 3e
       1.3320593 0.9629732 1.1865966 0.4889622
0000c0 27 eb 98 3f 98 b3 ae 3f 0e a6 93 3e b6 33 43 3f
       1.1946763 1.3648558 0.28837627 0.7625078
0000d0 06 a7 70 3f 3a d7 4f 3f ba 10 5c 3f 1c 29 9b 3e
       0.9400486 0.81187785 0.8596302 0.303048
0000e0 f7 7c ab 3f e4 3e 12 40 6b f2 30 3f e1 68 ae 3f
       1.3397511 2.2850885 0.691199 1.3625757
0000f0 35 05 c5 3f ea ef c1 3f 84 85 73 3f ac 3f 99 3f
       1.5392214 1.5151341 0.95125604 1.1972556
000100 23 1b 5d 3f 3e 8d 85 3f 1a cf d1 3e 72 55 b4 3f
       0.8636953 1.0433729 0.40978318 1.4088576
000110 45 d9 88 3f 8b 68 9c 3f 47 a4 de 3f f1 a4 7f 3f
       1.0691305 1.2219404 1.7393883 0.99861056
000120 d7 c9 96 3f 01 c7 64 3f aa 05 8e 3f a5 71 0f 40
       1.1780347 0.89366156 1.1095479 2.2413113
000130 c6 5e 95 3f 75 f9 72 3f 63 02 62 3f 5c be 74 3f
       1.1669548 0.9491189 0.8828489 0.95602965
000140 fe 74 6f 3f 1b 28 ef 3f 15 6f 5c 3f a6 47 c9 3f
       0.9353789 1.8684114 0.86107 1.572499
000150 a7 39 9a 3f 5c 2b 85 3f 61 48 8e 3f dc fe de 3f
       1.2048844 1.0403857 1.1115838 1.7421527
000160 c5 10 3f 3f 0b c6 75 3f 46 d6 87 3f c1 f7 1b 3f
       0.74634963 0.96005315 1.0612266 0.6092492
000170 a5 d6 6b 3f 71 d3 b1 3e a1 f8 91 3f a7 79 e1 3f
       0.92124397 0.3473163 1.1404 1.761525
000180 b8 d5 97 3f 2e fa c2 3f 0a 54 6b 3f 99 38 96 3f
       1.1862097 1.5232599 0.9192511 1.1736022
000190 91 3f 77 3f 1c af 34 40 66 1d c1 3f 39 5d af 3f
       0.9658137 2.8231878 1.5087097 1.3700324
0001a0 c2 6c 4c 3f 3b f3 40 3f e8 48 2d 3f e3 f5 07 40
       0.7985345 0.7537114 0.6768937 2.1243827
0001b0 41 65 c2 3f 58 15 d7 3f a3 b3 c7 3f cb 8c 61 3f
       1.518715 1.6803389 1.5601696 0.8810546
0001c0 26 75 87 3e 8b 1d 6f 3f 48 79 15 40 88 3b 9e 3f
       0.26456565 0.93404454 2.3355274 1.2361917
0001d0 13 4c 96 3f f0 d6 90 3f c1 57 9c 3f 91 39 88 3f
       1.1741966 1.1315594 1.221428 1.0642568
0001e0 9d 32 26 40 31 e9 02 3f c4 d4 80 3f e0 60 8f 3e
       2.5968392 0.5113707 1.0064931 0.28003597
0001f0 a4 49 1d 3f 3f 38 5c 3f aa f7 59 3e 6f 1b 7c 3f
       0.6144049 0.86023325 0.21285883 0.9847936

ln2.bias f4 [128]
000000 09 19 c3 be f4 8e ad be 34 6f 33 bf bb e1 e7 be
       -0.38105038 -0.33898127 -0.7009156 -0.45289406
000010 b5 02 03 bf 2e c6 32 bf fd e3 1d bf 77 3d 80 bf
       -0.51176006 -0.6983365 -0.6167601 -1.0018758
000020 6a cc 02 bf a6 5d 0d bf c6 00 2d bf 7b 6d 5b bf
       -0.5109316 -0.5522102 -0.67579305 -0.8571393
000030 df d6 cb be d7 c1 f6 be 08 9c 89 bf 93 61 68 bf
       -0.3981237 -0.48194763 -1.0750742 -0.90773886
000040 9e 0f 20 bf b9 e0 2e bf 3f 46 60 bf ee ec 3a bf
       -0.6252383 -0.6831165 -0.8760719 -0.73017776
000050 40 f0 2f bf 3b b2 eb be d5 b6 96 bf 1d 72 4c bf
       -0.6872597 -0.46034417 -1.1774546 -0.79861623
000060 62 40 18 bf d6 04 14 bf 83 ef 0a bf b9 76 87 be
       -0.5947324 -0.5781988 -0.54271716 -0.26457766
000070 da c9 39 bf 2c 4e 17 bf 08 9c 5a be 71 1f 18 bf
       -0.72573626 -0.59103656 -0.21348584 -0.59422976
000080 5a 9f 07 bf 20 63 f8 be 17 51 f9 be ec d5 0d bf
       -0.52977526 -0.48513126 -0.4869468 -0.55404544
000090 5e d2 3b bf 32 4a 9d be 1c 71 29 bf f8 44 29 3e
       -0.7336787 -0.3072067 -0.66188216 0.16530216
0000a0 0a 7f c8 be 15 0f 02 bf ee 76 82 bf 6a b9 de be
       -0.39159423 -0.50804263 -1.0192544 -0.43500835
0000b0 2c 64 0b bf 06 d4 13 bf 2b 49 21 bf 4e d0 a9 be
       -0.54449725 -0.577454 -0.6300227 -0.33166736
0000c0 46 5c 00 bf 1b 09 54 bf b7 1b 68 bf 1e 51 64 bf
       -0.501408 -0.82826394 -0.9066729 -0.89186275
0000d0 90 c4 b1 be ce 95 2d bf b6 cc 2b bf 74 0b 5b bf
       -0.34720278 -0.6780671 -0.6710924 -0.8556435
0000e0 ba 43 0a bf 79 13 6b bf 12 d3 e5 be f8 80 40 bf
       -0.5400959 -0.9182659 -0.44887596 -0.7519679
0000f0 60 e6 37 bf f5 d8 51 bf a9 f1 38 bf fa 89 ae be
       -0.718359 -0.81971675 -0.72243744 -0.34089643
000100 4d 48 16 bf 80 18 32 bf 00 31 2f bf 78 1d 1d bf
       -0.5870407 -0.69568634 -0.68434143 -0.6137309
000110 82 d8 c5 be 9f 62 fb be 25 54 46 bf 89 4d d9 be
       -0.38641745 -0.4909868 -0.77472144 -0.42441967
000120 97 68 23 bf 6c 1b 48 bf b2 8e 09 bf ac 30 48 bf
       -0.63831466 -0.7816684 -0.5373336 -0.7819927
000130 a2 de a6 be 89 09 0f bf 1b 0b 20 bf 92 f3 e4 be
       -0.3259173 -0.55873924 -0.62516946 -0.4471708
000140 56 60 10 bf b8 23 45 bf a2 e3 05 bf 8c bd 7e be
       -0.56396997 -0.7700763 -0.52300465 -0.24876994
000150 ce dd 79 bf fd 72 2d bf 1c f7 e8 be 8b c4 a6 3d
       -0.9760407 -0.67753583 -0.4550103 0.08142956
000160 c4 86 37 bf 6d db 9c bf b9 70 e6 be 9a 4a ac be
       -0.7169001 -1.2254463 -0.45007876 -0.33650666
000170 16 cb d1 be 52 83 51 bf 80 76 9e be cc a0 0a bf
       -0.40975255 -0.81841004 -0.30949783 -0.54151607
000180 40 0a 05 bf e6 99 a4 bf eb c9 05 bf 7c 3a 0b bf
       -0.51968765 -1.2859466 -0.5226123 -0.54386115
000190 43 a2 1b bf d9 a0 a8 be 66 49 1c bf ec 27 14 bf
       -0.60794467 -0.32935217 -0.610495 -0.57873416
0001a0 31 22 60 bf 6d 5a 2f bf 06 8c 43 bf 02 bd 50 bf
       -0.8755217 -0.68497354 -0.76385534 -0.81538403
0001b0 e0 c7 1b bf 2e 0a 32 bf c9 4e 4c bf b9 62 e8 be
       -0.6085186 -0.6954678 -0.79807717 -0.4538782
0001c0 0e fd 26 bf 71 2d 37 bf 17 a9 e7 be 5f 7b 49 bf
       -0.6522988 -0.71553713 -0.45246193 -0.78703874
0001d0 c9 27 ed be 55 42 f5 be 33 91 6a bf 94 2b 44 bf
       -0.46319416 -0.4790217 -0.91627806 -0.76628995
0001e0 9d 53 b7 bf d8 d2 1a bf 9f b0 1b bf ee f2 40 bf
       -1.4322392 -0.6047797 -0.6081638 -0.7537068
0001f0 87 df f3 be 80 8f 13 bf 87 3b 5b bf 44 da 18 bf
       -0.47631475 -0.5764084 -0.85637707 -0.59708047
