Experimenten/Snake/PPO/ppo_snake_150.pth (torch, 280840 bytes, 7 tensors)

shared.0.weight f4 [256, 9]
000000 7f 10 94 3e b1 28 76 be 1a 8c e0 bc ea 82 07 be
       0.28918836 -0.2403896 -0.027410556 -0.13233534
000010 95 b3 81 be ed e2 5b 3e 83 9a a7 be eb 45 36 3e
       -0.25332323 0.21473284 -0.3273507 0.17800109
000020 28 1a 83 3e 7c ca 0e be b9 fc 75 bd e2 12 b4 3d
       0.25605893 -0.13944429 -0.06005547 0.08792664
000030 b0 3b 8b be 8e a4 02 bd d6 c3 33 be 80 09 03 be
       -0.27193975 -0.031895213 -0.17555174 -0.12796593
000040 db e9 e2 3d a4 7d 5c be e8 86 9c bd 7b d6 cd bd
       0.11079761 -0.21532303 -0.07642919 -0.100506745
000050 0c 61 1d be db f6 d2 3d c4 9e 96 be 63 91 c0 bd
       -0.15369052 0.1030099 -0.29418004 -0.0940273
000060 f8 3f a4 3e 69 96 07 3e 85 c3 0c 3e 9e 6f 52 3e
       0.32080054 0.1324097 0.1374646 0.20550391
000070 89 0b 24 3d 60 a9 14 bd 9c 5c dd bb 39 6a 3a 3e
       0.040050063 -0.03629434 -0.0067554247 0.18204583
000080 20 00 8f be 0e 96 a9 3c f9 da 55 be e3 37 9d 3e
       -0.27929783 0.020701434 -0.20884313 0.307067
000090 50 0d 3e 3e ad e8 8b be 6c b7 ad 3d af d8 23 be
       0.18559766 -0.27325955 0.084822506 -0.16000627
0000a0 7a 49 52 3e 7f 71 33 be 2f fa 54 be 42 d6 73 bc
       0.20535842 -0.17523764 -0.20798562 -0.014882626
0000b0 51 cb 7c 3e c8 86 8c be 77 b6 ac bd b8 e9 82 be
       0.24686934 -0.2744658 -0.0843324 -0.25568938
0000c0 93 03 48 3e 31 62 3f 3e 4c 17 81 be 8a 95 9e 3d
       0.19532613 0.18689801 -0.25213087 0.07743366
0000d0 17 fc 2f bd 9a b7 5a 3d 55 a4 34 3e 49 0b 81 3e
       -0.04296502 0.053397752 0.17640813 0.25203922
0000e0 fd 93 9c be 7c f7 61 3e 26 1d 5b be d7 12 06 3e
       -0.30581656 0.22067064 -0.21397838 0.13093124
0000f0 5a 60 09 3d 58 13 5c 3e 92 f9 f7 3d 1d 86 c0 3e
       0.033539154 0.21491754 0.12108149 0.3760232
000100 0b f9 ad be 69 75 80 bd 10 5a 3f bc 85 dd 26 3e
       -0.33979067 -0.06272394 -0.011679187 0.1629544
000110 2e ee 0d be 79 a0 6f 3e 0d 0b 16 3d 9e c1 f2 bb
       -0.1386039 0.23401059 0.036631633 -0.007408335
000120 50 df 09 3e 44 e5 9a be 6e ce 54 3e 14 83 21 3d
       0.13464093 -0.3025304 0.20781872 0.039431646
000130 5c ad 2e 3d 33 ed 23 be c1 7f a5 3e 2e 42 4b 3e
       0.042645797 -0.16008453 0.3232403 0.19849464
000140 23 6d 37 be 74 49 84 be 53 20 82 be d6 4c 8b be
       -0.17912726 -0.2583729 -0.25415286 -0.2720706
000150 d3 3e 74 be 00 44 74 3d 64 8e 42 be 08 c2 41 3d
       -0.2385209 0.059635162 -0.1899963 0.047304183
000160 03 bc ca 3d 0a 22 a8 be 91 79 7e be 2d 04 a9 3d
       0.09899142 -0.3283847 -0.24851061 0.082527496
000170 07 3d 0e 3e 90 48 ad be ba be 96 be df 7f 20 3e
       0.13890468 -0.33844423 -0.29442388 0.15673779
000180 1e 1f 24 3e 05 b2 8e bc 30 ab b3 3e 0f d4 4e be
       0.16027495 -0.01741887 0.35091543 -0.20198081
000190 dc 01 a9 bd 44 ec 7f be 53 a1 30 3e 0c 4c 42 be
       -0.08252308 -0.24992472 0.1724904 -0.18974322
0001a0 0e 5c 04 be 63 b4 b6 3e 04 93 15 3d 6c b1 81 be
       -0.12925741 0.356845 0.03651716 -0.25330675
0001b0 08 66 cd 3e d9 9f 41 3e 81 e4 35 3d 78 a4 69 3b
       0.40116906 0.18908633 0.04440737 0.003565101
0001c0 3d f5 90 be 04 5c a0 be d7 8a 95 3e 01 ce 32 be
       -0.28312102 -0.31320202 0.2920749 -0.17461397
0001d0 18 ab 07 3d dd 75 9b be a0 e5 6c 3e 86 13 8b 3e
       0.033122152 -0.3036336 0.2313447 0.27163333
0001e0 60 6e 5f be 08 0c b9 3d 18 c9 a8 3e 43 df a6 3e
       -0.21819448 0.09035498 0.32965922 0.3259221
0001f0 0c 8a b7 3b c6 03 82 bd f5 bc 21 3e 35 85 9d 3e
       0.0056011733 -0.06348376 0.15794738 0.3076569
000200 04 f5 0d 3e f7 7e 15 bd 78 31 2f be 5e cb 4c 3c
       0.13862997 -0.036498036 -0.17108715 0.012499658
000210 5d b8 90 3d f9 fa 86 be 24 7b 36 be 34 a1 30 3e
       0.070664145 -0.26363352 -0.17820412 0.17248994
000220 64 c3 b1 bd f6 e2 97 bd d9 69 9b be 46 c2 96 bd
       -0.08679846 -0.07416336 -0.30354193 -0.073612735
000230 c7 99 1e bd 90 d1 99 be 48 7d b0 3e 27 09 d8 3e
       -0.038720872 -0.30042696 0.34470582 0.42194483
000240 c6 68 83 bd 1f ca 39 3e 8c 0e 65 3e e7 7c cc 3e
       -0.06416468 0.1814351 0.2236883 0.39939043
000250 2b 58 86 3e f4 a4 90 bc d5 2b 05 3e 20 c5 b8 bc
       0.26239142 -0.01765678 0.13005002 -0.022554934
000260 cf 92 2a bd 0d 60 ad 3e 0d 05 8b 3e 40 e5 2e be
       -0.041643914 0.33862343 0.2715229 -0.1707964
000270 df a8 91 3e d6 6a e8 bd 04 13 da bd 62 3c 21 3c
       0.2844915 -0.11348502 -0.10648158 0.009841057
000280 2e 6c 1b 3e f0 97 9d 3e eb bb b3 3e 78 fe ae 3e
       0.15177986 0.30779982 0.35104308 0.3417852
000290 88 e0 b2 3e 88 5b af bd ff c1 42 3e 84 d0 a1 be
       0.3493693 -0.0856238 0.19019316 -0.31604397
0002a0 f8 b4 12 be dd ae 54 3b 0f e2 9d bd 29 dd fe bc
       -0.14326847 0.003245286 -0.07709133 -0.031111317
0002b0 b8 d5 a7 bc 6a 0f a8 be 2a 2b 8b 3e 53 40 c8 3b
       -0.020487651 -0.3282426 0.2718137 0.0061111837
0002c0 44 56 64 be c1 86 13 3d df 0d e9 bd 4a e5 29 3e
       -0.22298533 0.036017183 -0.11379599 0.16591373
0002d0 17 fa 92 3e 0a fd 92 3e 08 7f d7 3d 8e 5e 0e be
       0.28706428 0.28708678 0.10522276 -0.13903257
0002e0 51 95 97 be 23 1b 9b be ca ec 73 be 18 be 86 3e
       -0.29606107 -0.3029414 -0.23820797 0.26316905
0002f0 e9 71 39 3e 9a 15 1b 3e 90 5b a5 be 53 60 9f be
       0.1810986 0.15144959 -0.3229642 -0.31128177
000300 28 c3 83 3e 8c e4 81 bc 0f 9b 74 be 1c 1c 2d 3d
       0.2573483 -0.01585605 -0.23887275 0.042263135
000310 a2 ad a1 be b3 66 53 3e aa 55 83 3e 44 bd a3 3e
       -0.31577784 0.20644645 0.25651294 0.31980336
000320 55 a8 94 bd 7b 87 39 be a0 2c 5e bb 87 67 6a 3e
       -0.07258669 -0.18118088 -0.003390111 0.22891055
000330 4a 66 f1 bd c7 27 3a be 93 4e e2 bd 1e f1 a4 be
       -0.11787088 -0.18179236 -0.11050143 -0.32215208
000340 bd ad 63 be 9e 38 99 3e 9e 69 32 be b2 a7 69 3e
       -0.22234245 0.29926008 -0.17423102 0.22817877
000350 28 35 e3 bc c3 b7 17 3c 03 03 61 be c0 99 c7 3e
       -0.027735308 0.009260121 -0.21973805 0.3898449
000360 fb f4 14 3e 6f be 6b 3d 10 2b 94 3e ce 42 68 3e
       0.14546578 0.05755466 0.28939104 0.22681734
000370 60 f2 67 3c 41 f0 d5 3d 7f 5a 17 3d d6 a4 63 3e
       0.014156908 0.104462154 0.03695154 0.22230849
000380 3c 9b 44 bd 8b 05 76 be c8 c4 aa 3e 45 b8 b7 3e
       -0.047999606 -0.24025552 0.33353257 0.35882774
000390 34 3a 01 3e a4 86 59 be 6c 78 80 3e 17 0f 28 3d
       0.12619859 -0.21242768 0.25091875 0.041030016
0003a0 c5 0d e1 3d 39 11 9c bc 27 85 9f be 17 9c f3 bd
       0.109889545 -0.019051181 -0.31156275 -0.11895006
0003b0 60 3c a4 3e b2 65 4b be de fd d1 bd 5a da 48 3e
       0.32077312 -0.19863012 -0.102534994 0.19614545
0003c0 03 ea 05 3d 5a d5 5a be 19 64 d1 3d c8 ae 88 bd
       0.032693874 -0.2137045 0.1022417 -0.06673962
0003d0 73 68 a6 3e 65 f7 0c 3e 2b 95 57 be 05 fd 66 be
       0.32501563 0.13766249 -0.21052997 -0.22557457
0003e0 e7 5c 8b be 18 73 9b be 94 17 a8 3e 44 4b 20 3e
       -0.27219316 -0.30361247 0.3283049 0.15653712
0003f0 bc 82 af bc 18 36 c4 bc c9 7a a8 3e 9a 9b 8c be
       -0.021424644 -0.023951575 0.32906178 -0.27462465

shared.0.bias f4 [256]
000000 96 a0 ad 3c f1 82 db bd 2a 6f e7 3d c1 87 86 3d
       0.021194737 -0.107183345 0.113005 0.06568862
000010 ee 5e 16 3e c6 ab 0c 3e d7 6d 11 3e 2b d2 b5 3e
       0.1468465 0.13737401 0.14202057 0.35511908
000020 42 f1 a9 bd e7 b1 e9 3d b0 57 9c 3e f7 67 c6 3d
       -0.082979694 0.11410885 0.3053565 0.096877985
000030 e2 84 49 3e 77 1e e3 bc 2f 85 75 be 05 51 1b be
       0.19679597 -0.027724488 -0.23976587 -0.15167625
000040 09 d0 7b be 8b 27 37 be 60 89 b2 3e a3 65 7d 3e
       -0.24591078 -0.17886178 0.34870434 0.24745803
000050 c2 f3 91 3d 04 47 c2 bd d5 7e 51 3c 3d ad 9d be
       0.07126571 -0.094862014 0.012786587 -0.30796233
000060 fd ac 8c 3e 83 12 e2 bb 8d 30 97 be e7 4e 5d 3e
       0.2747573 -0.0068991794 -0.2952923 0.2161213
000070 6d e3 bb 3d d2 bd 7a bd 4d 0c 5d be f8 20 1d 3e
       0.091742374 -0.061216183 -0.21586724 0.15344608
000080 c6 c9 e0 3d d8 1d 87 bd 88 cf 36 3e d6 87 cd 3e
       0.10975985 -0.06597489 0.17852604 0.40142697
000090 73 b9 12 be 73 9a 5a 3e da 79 67 3c 8f 78 64 be
       -0.14328556 0.2134798 0.014128173 -0.22311614
0000a0 24 17 a8 3d d1 64 8c be 1a 84 54 3d 93 c2 27 be
       0.08207539 -0.27420667 0.051883794 -0.16382818
0000b0 64 01 8c 3e 15 07 22 bd 97 75 fb 3d 9f 55 6d 3e
       0.2734481 -0.039557535 0.12278288 0.23177193
0000c0 44 f0 09 3e 1d 78 96 b9 b5 eb 0a 3e fe 3b a5 3e
       0.1347056 -0.0002869972 0.13566478 0.32272333
0000d0 e6 59 b1 3c e7 af 2a be e7 67 4f 3d 42 0a c1 3d
       0.021649312 -0.16668664 0.0506362 0.09425785
0000e0 b3 3a 72 bd e8 78 c6 3e 49 df 81 3e 2a bd 8e be
       -0.05913801 0.3876412 0.25365666 -0.27878696
0000f0 5c 93 c5 3d 14 3d 07 3e 64 3d 8e be 5b 48 21 be
       0.09647247 0.13206893 -0.27781212 -0.15750258
000100 5a c1 3e 3e 6d 84 a2 3b c8 6f 0e be 49 70 9b 3e
       0.18628445 0.004959634 -0.13909829 0.30359104
000110 03 b0 0d 3d 18 ce c3 bc 3d f6 79 be c8 8b 67 bd
       0.034591686 -0.023901984 -0.24410339 -0.05652979
000120 da d7 b7 3e 5e 75 d5 3e b8 43 2a 3e 21 a4 81 3d
       0.3590687 0.41691107 0.16627395 0.06330133
000130 e9 ca ce 3e 63 a9 62 be 9d ae 4e 3a ba bd 56 3e
       0.40389183 -0.22134928 0.0007884296 0.20970812
000140 50 ab 82 3e d3 35 10 be e2 2a 6a be 42 0e a5 be
       0.25521326 -0.14083032 -0.22867921 -0.3223744
000150 d9 34 6c be cd 61 d0 3e d6 fa 8b bd 03 a1 23 3d
       -0.23067035 0.40699616 -0.068349525 0.039948475
000160 f1 5d a0 3c 4b 2b f1 3d 69 22 34 3e b6 3f 68 be
       0.019576045 0.117758356 0.17591251 -0.22680554
000170 51 c6 6a 3e 88 69 9b 3e 82 f5 86 3c bc 61 09 be
       0.22927214 0.3035395 0.01647449 -0.13416189
000180 ff 37 43 be c9 72 c6 3e 9b c2 12 be 6c 39 0d be
       -0.1906433 0.3875945 -0.14332049 -0.13791436
000190 a9 55 2b 3e 53 56 9c be 7c 67 01 be b5 1f 8b be
       0.16731896 -0.3053461 -0.12637132 -0.27172628
0001a0 e1 a8 20 3d 6c 18 16 bc bb b3 74 be 79 d5 27 be
       0.039223555 -0.009161096 -0.23896687 -0.16390027
0001b0 b6 54 0d 3e 7e f3 a6 bd b8 57 3d 3e 56 7e 2b bd
       0.13801846 -0.08151911 0.18490493 -0.04186853
0001c0 66 64 82 3c 9d eb 70 bd c4 17 14 3e 7b bc 0a be
       0.015917014 -0.05881845 0.14462191 -0.13548462
0001d0 61 de 4d be fb 08 c9 3e e1 bf 8f 3e d7 43 16 bd
       -0.20104362 0.39264664 0.2807608 -0.03668579
0001e0 f1 fb e8 bd f9 05 b9 3d 12 50 85 3e 4d 3e e3 ba
       -0.11376179 0.09034342 0.2603765 -0.0017337293
0001f0 e3 1b b4 3d 0a 69 24 be 7c 4b 8c be 18 3f a3 3e
       0.087943815 -0.16055694 -0.2740134 0.31884074
000200 af 07 bc 3e 3c 28 10 3d 75 d8 38 bd 5c 97 1d 3d
       0.36724612 0.03519462 -0.045128305 0.038474426
000210 84 8d 79 3d bf 63 2f 3e c1 59 64 be ad ff 9b 3e
       0.060925975 0.17127894 -0.22299863 0.30468503
000220 1e ff 85 3e 47 13 35 3e 9d fb 88 3e 96 ae b3 3e
       0.261712 0.17683135 0.26754466 0.35094136
000230 f8 b8 86 be 3f ac 0b be 54 45 6f be f8 45 41 be
       -0.26312995 -0.13639925 -0.2336629 -0.18874347
000240 c6 f0 88 3c 46 bc 82 3c 4e 0f 32 bd 5c b0 83 be
       0.016716372 0.015958916 -0.043471627 -0.2572049
000250 20 d3 0b bd 73 dc c6 3d 0e 8e 52 3e 6b 10 af bc
       -0.03413689 0.09710016 0.20562002 -0.021370133
000260 67 04 a3 bc 87 cb c5 bd 9d 82 02 3c 67 0e 9c 3e
       -0.01989956 -0.096579604 0.007965711 0.30479738
000270 4a 6a 72 3e 9e 23 57 be b8 25 2b bd ec a6 95 3e
       0.23673359 -0.2100968 -0.04178402 0.29228914
000280 ef e5 58 be 18 d7 8f be d9 07 92 3d 72 7a a9 3e
       -0.21181463 -0.2809379 0.07130403 0.3310123
000290 5b 93 00 3e 41 99 62 3e 28 62 9f 3d 11 5b 38 3e
       0.12556212 0.22128774 0.07782394 0.18003489
0002a0 79 8c ac 3e 61 1c 07 3c a0 11 88 3e 01 5f a7 be
       0.33700922 0.008246512 0.26575947 -0.3268967
0002b0 60 f2 d0 3e 9a 74 7b 3c 8c 97 54 be 40 50 b3 3e
       0.40809917 0.015347624 -0.20760936 0.35022163
0002c0 f5 a0 c2 3e 41 b2 53 3e 97 43 6a 3e d9 54 a3 3d
       0.38013425 0.20673467 0.22877346 0.07975168
0002d0 1a 2a 93 3d e4 3f d2 bd 7e e4 cc 3d e4 ea a6 3d
       0.071857646 -0.102660924 0.10004519 0.081502706
0002e0 c5 c1 3f be 8e f1 bc bd 3b 73 a8 3e 7c 3b 58 bd
       -0.18726261 -0.092257604 0.32900414 -0.052791104
0002f0 02 3c 66 be 83 e2 34 3e 71 a5 b3 3e 8e ab 41 3e
       -0.22483829 0.17664532 0.3508716 0.18913099
000300 ad a2 c2 bd fc 1f 95 3e 93 e5 24 3e 34 50 3e 3d
       -0.09503684 0.29125965 0.161032 0.046463206
000310 83 76 24 be a2 4b be 3e 71 21 bd 3d 73 7c 20 bd
       -0.16060834 0.37167078 0.09234894 -0.039181184
000320 f5 e6 07 be 9d 59 81 3e d5 c2 8d 3e 58 17 84 3e
       -0.13271697 0.25263682 0.27687708 0.2579906
000330 76 eb 60 be 74 64 04 bc 37 95 af 3b 25 01 96 3e
       -0.21964821 -0.0080805905 0.005358364 0.29297748
000340 be 4c 71 3e 85 bf ee 3d 41 47 72 3e 14 88 9a 3e
       0.23564431 0.11657623 0.23659994 0.30181944
000350 02 89 a6 bc cb 15 7a be 5d 37 1c bd e1 c7 c0 3e
       -0.020329002 -0.24422376 -0.038138736 0.37652496
000360 36 c8 ef 3d 6b 0d 82 3e 0d 47 60 be 65 d1 93 3c
       0.11708109 0.25400862 -0.21902104 0.018044183
000370 37 72 da bd a1 10 af be da c2 52 be af 00 19 bc
       -0.10666316 -0.34192374 -0.20582142 -0.009338542
000380 c8 e1 6d be 7d 26 6e 3e b7 e2 99 3e 0a 4e b7 3e
       -0.2323066 0.2325687 0.30055782 0.35801727
000390 e3 19 92 3d c4 a6 b4 3e 10 90 7b 3e a9 02 a1 3e
       0.07133844 0.35283482 0.24566674 0.31447342
0003a0 b5 1b 8b be 37 c0 6a be f9 8f 23 3c 46 8b 27 be
       -0.27169576 -0.22924887 0.009983056 -0.16361722
0003b0 08 10 ca 3e 04 81 f0 3d 7a 3e 92 be a8 a4 52 be
       0.39465356 0.11743358 -0.2856329 -0.20570624
0003c0 cd dd 94 3e a5 39 95 bd f8 39 68 be fa 33 87 bd
       0.2907547 -0.072863854 -0.22678363 -0.066017106
0003d0 4d 09 bb 3e 5a 50 22 bd 42 02 5b 3e 12 7c 31 3e
       0.36530533 -0.03962741 0.2138758 0.17332485
0003e0 22 bb 6c be 37 9f 46 3e 95 c1 65 3d d3 88 64 3d
       -0.2311826 0.19396673 0.056092817 0.05579455
0003f0 a8 a8 01 be 87 9a ad be ea 7d 54 be 00 ee 85 3e
       -0.12661994 -0.33906958 -0.20751157 0.26158142

shared.2.weight f4 [256, 256]
000000 89 7f b0 bc f0 d4 84 3d ca ad 0a 3d 7e f9 2b bd
       -0.021545189 0.06485927 0.033857144 -0.04198598
000010 3e 0d 3f 3d 4e 67 28 3d e6 12 df bd fd cc 02 bd
       0.046643488 0.041114144 -0.108922765 -0.031933773
000020 c5 6f 36 bc 98 31 04 3d cc 74 6d bc 1c c6 19 bd
       -0.011135046 0.03227386 -0.014493179 -0.037542447
000030 68 49 be bb 27 5d 0a 3d d0 e1 78 3d 7a 49 aa bd
       -0.0058070906 0.033780243 0.060762227 -0.08314796
000040 34 1b b8 3c 53 90 76 3c e1 f1 53 3a b2 e2 ee 3c
       0.022473909 0.015049058 0.0008085054 0.029160831
000050 e1 3c be bc e0 84 76 bd 4f 67 3f bc de ac fe 3c
       -0.023222389 -0.060185313 -0.0116823455 0.031088289
000060 02 61 13 bd f7 4d 22 3c ad e5 ca 3c f4 b0 78 ba
       -0.035981186 0.009906284 0.024767721 -0.0009486817
000070 3e f8 26 3c ce ab 0a bd 20 2a b5 3d a2 76 73 3c
       0.0101910215 -0.033855252 0.08845925 0.014859827
000080 c8 fa 10 bd e4 f6 21 3d 94 95 09 bd d3 e8 95 bd
       -0.035395414 0.039542094 -0.033589914 -0.07319798
000090 ba f1 27 bd 02 97 de 3c 39 b9 96 3d fc 6e a4 bc
       -0.041002013 0.027171616 0.07359547 -0.020072453
0000a0 43 53 3f bc 18 c1 10 ba c4 9c 2b 3d 71 87 bb bc
       -0.011677566 -0.0005521937 0.04189755 -0.022891732
0000b0 31 68 80 3c ab 47 66 3b 8b 1e c2 3c 72 0a c2 3d
       0.015674682 0.0035137932 0.023696205 0.094746485
0000c0 b7 4e 52 bb 3b 66 ef 3b cf 39 04 3b 7d 49 55 3d
       -0.0032090375 0.007305888 0.0020176058 0.052072037
0000d0 b3 03 05 3d ef bf e8 bc 6a b0 34 3d 64 56 de 3c
       0.03247423 -0.028411834 0.044113554 0.027140804
0000e0 38 50 b5 bc d2 59 b1 ba b7 47 60 3c 67 3b 98 3d
       -0.022132978 -0.0013530797 0.013688973 0.07433205
0000f0 51 f4 3b 3d 03 08 a1 bc c6 67 53 3d 51 fb 32 bd
       0.045887295 -0.01965714 0.051612638 -0.043696705
000100 ec f4 29 3d ce 07 c3 3c 9a 52 49 bc 1d 46 de bc
       0.04149334 0.023807433 -0.01228776 -0.027133042
000110 6c ca 88 3c 2a b0 43 3d 4a 0b d4 3c 83 18 15 3d
       0.016698085 0.047775425 0.02588429 0.03640033
000120 b5 18 09 3d 96 ed 34 bd 85 3d 35 bb 2a e7 53 3d
       0.033470828 -0.044171892 -0.0027655077 0.051734127
000130 0e 56 28 3d 39 3d c3 3c 26 55 94 bd dd ae 86 3c
       0.041097693 0.023832904 -0.07242803 0.016440803
000140 ea eb 97 3d b9 fd 70 3d a0 23 fc ba e5 54 4d 3d
       0.07418044 0.05883572 -0.0019236691 0.05012979
000150 60 ac f0 bb bb 95 23 bc 31 13 39 bd c2 7a 2b 3d
       -0.0073447675 -0.009984429 -0.045184318 0.041865118
000160 a4 8d 96 bd eb ad 40 bc 37 a8 b7 3c e8 62 be 3d
       -0.073512346 -0.011760215 0.022419078 0.092962086
000170 d8 f6 66 3d 5f df b1 bc a5 74 2f 3d 62 e1 d8 bc
       0.056387752 -0.021712957 0.04283585 -0.026474658
000180 e8 ca b0 bd 6d 9b 38 bd 0c cc 62 bd 84 d8 66 bd
       -0.08632451 -0.0450701 -0.055370376 -0.05635883
000190 75 2c be 3c 7d d1 2c bd da f3 1d 3d 81 29 b6 3c
       0.023214558 -0.04219197 0.038562633 0.022236587
0001a0 58 af ae 3c 4f 15 c4 bc 4d 68 f1 3b 45 0b 4f 3b
       0.021323845 -0.023935942 0.00736717 0.003159241
0001b0 73 57 84 3d b4 16 78 3b 41 55 2c bd 83 fa af 3d
       0.06461992 0.003785533 -0.042073492 0.08592703
0001c0 b9 cc bc b8 63 6a 50 bc f9 de 55 bd 05 c9 38 3b
       -9.002671e-05 -0.012720677 -0.052214596 0.002819599
0001d0 3d aa 10 bd 4c b1 4a bd 4f e8 5b 3d 26 eb 18 bd
       -0.035318602 -0.04948549 0.053688344 -0.03733363
0001e0 8e c9 b8 bd 83 ba d5 bd cb 69 8d bb 97 6a 1f bd
       -0.090228185 -0.10435965 -0.00431559 -0.03892001
0001f0 78 a7 6f 3d 8c 25 f9 3b 0d 82 14 3d cb 4a 96 bd
       0.05850932 0.007603353 0.03625684 -0.073384844
000200 7d fb bf 3c 59 1f f4 3b 2d 17 69 bc 8c d1 6c bd
       0.023435349 0.007450026 -0.014226717 -0.057817027
000210 5c 8b 5c bd 10 2c d1 3b 3d 6a a1 3a e0 2a c5 bc
       -0.05384384 0.0063834265 0.0012314987 -0.024068296
000220 a2 20 e7 bb e0 fc a8 3c 44 fe 95 bd 3e b9 fa bb
       -0.0070534507 0.020628393 -0.07323888 -0.007651477
000230 c9 5f 66 3d ff da 8f bd 2b a2 28 3d 22 34 b4 bc
       0.05624369 -0.07024192 0.04117028 -0.021997515
000240 77 4f 34 bc 61 2d 2d 3d cb 3b 6d ba 63 c1 97 bd
       -0.011005274 0.042279605 -0.00090497424 -0.074099325
000250 49 b5 80 3d 6e 2c d0 3c 7e 06 93 bd 31 6b bf 3c
       0.062845774 0.02541181 -0.07178973 0.023366543
000260 a5 25 46 3d 9c 99 ad bc 78 85 cb 3c fa 25 1e bd
       0.048375744 -0.02119141 0.024843916 -0.038610436
000270 8a 70 13 3c a7 66 49 3d e6 98 66 3c ba 4d 85 3b
       0.008998999 0.049170163 0.01407454 0.0040681036
000280 50 5f 9a 3d 06 03 84 3d de 3a ea bc 7f 84 f0 3c
       0.07537711 0.06445889 -0.028592523 0.029360054
000290 2d c2 b4 bc 90 27 32 bd 2f 15 3b bd 2d eb 17 bd
       -0.022065246 -0.04349476 -0.0456745 -0.037089515
0002a0 b5 c3 77 bd 34 b6 a3 ba d2 a1 f0 bc 30 1c 11 bd
       -0.060489375 -0.0012490214 -0.029374037 -0.035427272
0002b0 46 30 80 bd ec 37 23 bd 7b 36 7e 3d 09 d8 af bc
       -0.062592074 -0.039848253 0.062063675 -0.021465318
0002c0 52 3a bb 3c ba cf 88 3d 14 cb 64 3d ef ee 4c bc
       0.022854958 0.06680246 0.055857733 -0.012508138
0002d0 1e b6 cf bb d7 76 b7 bc b9 e5 33 bd 08 e8 b4 bd
       -0.0063388487 -0.022395534 -0.043920252 -0.08833319
0002e0 c6 24 2e 3c 3b 97 67 3d 9d e4 f9 bb b7 19 a5 bc
       0.010628885 0.05654071 -0.00762613 -0.020153863
0002f0 65 ef 96 bb bc be 87 3d 94 d2 57 bd 08 89 fd 3c
       -0.004606175 0.066281766 -0.052691057 0.03094913
000300 85 c2 ad 3d 55 86 13 3d 68 4a 6a 3c ab 9d 67 bd
       0.08484367 0.03601678 0.014299966 -0.05654685
000310 26 6d 03 3d 2c 0f ef 3c f4 c4 d3 bc 6c ba 59 3d
       0.032086514 0.02918204 -0.02585075 0.0531563
000320 f0 a8 c0 3a c5 bd a6 bc c4 1d 79 3d 88 bd bf 3c
       0.0014698785 -0.020354161 0.060819402 0.023405805
000330 fc 76 65 bd 5e 55 73 3d 44 b3 ee bc be 19 d1 3b
       -0.056021675 0.059407584 -0.029138215 0.0063812425
000340 8f 37 52 bc 36 53 3f bd db 55 2c bd 30 bc 6c 3c
       -0.012830629 -0.046710216 -0.042074066 0.014449164
000350 4a 4c a9 bc 8f 33 87 bd 31 47 33 bd da c4 66 3c
       -0.02066626 -0.06601631 -0.043769065 0.014085019
000360 83 4d 84 bc 09 2a 5b bd 07 1d 18 bd c8 5a ec bc
       -0.016150242 -0.053506885 -0.037137058 -0.028851882
000370 9b 93 62 3c 1c 99 71 3d 60 fc 83 3c db cd f5 bc
       0.013829137 0.058983907 0.016111553 -0.030005386
000380 16 e1 4c 3d 9b f8 78 bd 30 5a 21 3a 7f d9 eb 3c
       0.050019346 -0.060783964 0.00061551016 0.028790234
000390 be e6 ba bc b4 3a a0 bd f6 98 09 bc 9a 6c 4c bd
       -0.022815105 -0.07823697 -0.008398285 -0.049908258
0003a0 8b c3 5c 3d 8e 5f 65 bd f5 db 15 bd 09 36 d8 bc
       0.05389742 -0.05599933 -0.03658672 -0.026392953
0003b0 4c 50 8c bd 99 74 b9 3c 52 c4 29 bd ac 2a af b9
       -0.06851253 0.022638606 -0.04144699 -0.00033410394
0003c0 3d cc 3f 3d 47 89 68 bd 30 13 52 bd 56 10 03 bd
       0.046825636 -0.056771543 -0.05128783 -0.031998
0003d0 89 ee c7 bb 66 c3 12 3d f6 2a a3 3d 42 32 83 3d
       -0.0061014337 0.035830878 0.079671785 0.0640607
0003e0 2b 2f 8d bc 2c c0 52 3d 4d f6 41 3d 69 ab 7f 3c
       -0.017234406 0.0514528 0.04735403 0.015604832
0003f0 fe e9 ac bd b8 b5 be bb 68 10 a8 bb c4 bc 93 bb
       -0.08443068 -0.0058200024 -0.005128909 -0.0045085866

shared.2.bias f4 [256]
000000 5a 50 43 bd 29 26 13 bd cb 94 bf 3b 7a 7b 61 bd
       -0.04768405 -0.035925064 0.005846595 -0.055049397
000010 8b 0b ab 3d b9 8e 24 3d c3 fc f0 3d 9d 4b 05 3e
       0.08351811 0.040175173 0.117669605 0.13017125
000020 0d 2a 8a bd 97 55 35 bb bf 97 83 3d fb 06 9d 3c
       -0.06746302 -0.0027669424 0.06425428 0.019168368
000030 bb bc 0d 3e 90 0c 44 3d 87 ec 66 3d e5 c5 4a 3d
       0.13841526 0.047863543 0.056377914 0.049505133
000040 0e 17 3e bd b7 cc 13 3c 40 17 40 bd 1b 94 8b 3b
       -0.046408705 0.009020976 -0.046897173 0.004259599
000050 c0 df 18 3d 1c f8 c8 bc 9a 0a 0f 3e 98 d1 01 3d
       0.03732276 -0.02453237 0.13968888 0.031694025
000060 de 2d 06 3e 6a af d2 3d 6f 77 c6 3d e1 2b 9f 3d
       0.13103434 0.10287364 0.09690749 0.07772041
000070 1c df a0 3c b4 32 34 3d 9f 25 e7 bc a4 2c fd 3c
       0.019637637 0.043993667 -0.028216181 0.030905075
000080 a4 5d 67 bd 24 fc bd 3d 20 76 0c 3c bc 93 41 3d
       -0.056485787 0.09276608 0.008573085 0.04726003
000090 19 01 2e 3d c6 67 8a bc 61 21 4a 3d 16 af 72 3d
       0.042481516 -0.016895186 0.04934824 0.059249006
0000a0 1b be 6d bb c1 dd d8 3d 3e 92 7b bd 67 e2 24 bd
       -0.0036276642 0.10589171 -0.061418764 -0.040254977
0000b0 3a 48 11 bc 7f 7c 02 bc 54 4e 2a 3d 50 25 74 3c
       -0.008867318 -0.0079642525 0.041578606 0.014901474
0000c0 69 4f 90 bc c0 af 32 bc 00 34 ad b8 23 7e 30 bd
       -0.01761599 -0.01090616 -8.2589686e-05 -0.043089043
0000d0 e5 ce e5 3c c3 75 80 bd 2c 3f 34 3d d2 f2 0b 3d
       0.028052757 -0.06272461 0.044005558 0.03416712
0000e0 7b b2 2c 3c 17 24 6c bd 92 d1 24 bd 60 44 03 3e
       0.0105406 -0.057651605 -0.040238924 0.12819052
0000f0 bb 4c 89 3d 5b e8 ab 3d 80 97 9b 3c e3 5d d9 3c
       0.06704088 0.08393928 0.01899314 0.026534026
000100 7c f4 29 3d 4f 66 0d 3d aa a7 89 bc f3 59 a1 3c
       0.041492924 0.034521397 -0.016803581 0.019696211
000110 94 f4 c1 3c 95 e2 4c bd 61 89 f7 3c 2d 14 03 3e
       0.023676194 -0.050020773 0.030216875 0.12800665
000120 2d fb 13 bd a2 61 f1 3d b2 c5 88 3c 6b 34 bd 3c
       -0.03612821 0.117862 0.016695831 0.023096284
000130 3f ac 93 bd 40 2f 09 3e 67 28 bc 3c 3a b9 86 bd
       -0.07210588 0.1339693 0.022968484 -0.06578298
000140 92 de 7e bd 93 10 26 3d ac ed f2 3b 28 8a 10 3d
       -0.06222398 0.04054315 0.0074135866 0.035288006
000150 6d f2 9c 3c 94 03 c2 bc 1d 4c 05 3e 07 90 fd 3c
       0.019158566 -0.023683347 0.13017316 0.030952467
000160 41 88 86 3d 42 2b 7f 3c 60 0c ee 3d ec 5c 98 3d
       0.06568957 0.015574278 0.11623454 0.074395984
000170 95 b0 8e bc f0 ca 9c bc ab d6 fa 3c 76 d0 c7 bc
       -0.017418185 -0.019139737 0.03061994 -0.024391394
000180 fc 0e c1 bc 51 47 2f 3c 38 55 a1 3d 39 56 0f 3d
       -0.023566715 0.0106981555 0.07877582 0.034994338
000190 c2 ff b7 3d 8f 94 25 bc 1f b8 55 3d 0f f0 ea bc
       0.08984329 -0.01010622 0.052177545 -0.028678922
0001a0 94 7a 27 3d eb a4 af 3d fa 02 67 3d b4 ea a1 3c
       0.040888384 0.085763775 0.056399323 0.019765235
0001b0 6c 63 a6 3d 47 91 42 3d ed e3 5e 3d d6 f2 47 bb
       0.08124432 0.04750183 0.054416586 -0.0030509732
0001c0 cc b7 8b bd 08 a5 68 bd 11 58 74 bc b3 f1 ed 3d
       -0.06822166 -0.05679801 -0.014913575 0.11618366
0001d0 ab 2c 56 3c c0 e0 d7 3d dd 07 10 bd 7d db 07 bd
       0.013072173 0.105409145 -0.03516375 -0.033168305
0001e0 e1 c3 01 3e 2c 25 18 bd 86 27 97 3d 71 13 0b 3e
       0.12672378 -0.037144825 0.07380585 0.13581635
0001f0 87 74 ad 3c 1e 18 09 3e ac f3 cb 3d cb c2 54 bd
       0.021173729 0.13388106 0.09958586 -0.05194358
000200 6b 31 81 3d b2 6b e2 3d 59 8a 71 bd e3 e5 50 3c
       0.06308254 0.110556975 -0.05896983 0.012750122
000210 29 51 9e 3c 0e 64 20 3d eb c9 a3 3d bf 83 dc bc
       0.01932581 0.03915792 0.07997497 -0.02691829
000220 f8 f3 3c 3d a9 e6 b1 bd fe 74 22 3c cc 13 2b 3d
       0.046131104 -0.08686573 0.009915588 0.041766927
000230 35 7c 15 bd c8 c8 e3 3d a2 e1 b7 3c d2 04 c3 3d
       -0.036495406 0.1112228 0.022446457 0.09522404
000240 16 88 1e 3c 26 ec 36 3d 83 4c 11 bd 97 af 8f 3d
       0.009676 0.044658802 -0.035473358 0.07015913
000250 ef 7f 40 bd 23 74 8b 3d 33 a7 71 bd b0 94 66 bc
       -0.046997007 0.06809261 -0.058997344 -0.014073536
000260 b9 a4 57 3d ca 23 93 3d 16 7f 08 3e 0e 58 1c 3d
       0.052647326 0.071845606 0.1332973 0.038169913
000270 6a 6b 46 3d ea 3b e7 3b 28 85 70 bd 0c b4 2e 3d
       0.04844228 0.007056703 -0.058720738 0.042652175
000280 1f 66 00 3b a5 ad 39 3d 3c 7d 50 3d 6b 8d 9b 3c
       0.001959212 0.045331616 0.050900683 0.018988332
000290 b6 a2 98 3b 28 10 e2 3d a1 cb ee 3c 1a 20 00 bd
       0.0046580685 0.11038238 0.029149832 -0.031280614
0002a0 92 b0 c8 3c 99 a9 0c 3e ca c7 2d 3d 06 0a 6b 3c
       0.024498258 0.13736571 0.04242686 0.0143456515
0002b0 9d cc 0e 3d 00 80 0e 3d 94 b8 15 3d 12 97 a8 3c
       0.034863103 0.03479004 0.03655298 0.020579848
0002c0 4b f6 cc bb 4d 3f 4e 3d 52 fe 7e 3d a8 27 91 3d
       -0.0062549463 0.050353337 0.062254258 0.07087642
0002d0 10 5a 39 3d 2e c5 a5 3d e4 76 1e bd f9 7b 9d 3d
       0.045251906 0.0809425 -0.0386876 0.076896615
0002e0 ef 56 93 bb 14 d1 dd 3d 94 34 98 3d 74 b1 54 bd
       -0.0044964473 0.10830894 0.074319035 -0.051927045
0002f0 e2 ee 00 bd 4c 38 bf 3c 28 49 94 3d 66 7f 03 3e
       -0.031477816 0.023342274 0.07240516 0.12841567
000300 7c a4 0d 3d 48 1d 59 bd d4 84 f9 3d 20 ef 51 bd
       0.034580693 -0.05300644 0.12183538 -0.051253438
000310 96 a0 16 3e 5f e8 22 3d 7e f2 90 bd 24 f7 8c 3c
       0.14709696 0.039772388 -0.07077502 0.01720769
000320 20 90 05 3d d9 d4 5c bd d3 a7 1f 3d 2d 65 4b 3d
       0.03260815 -0.053913925 0.03897841 0.049657036
000330 57 54 3f 3d 67 0a fc 3d 15 f2 1f bd 1f a6 e3 3d
       0.046711292 0.123066716 -0.039049227 0.111156695
000340 8d 52 93 3d 0a 65 d9 3d 0f ca 53 bd 8a 69 bd 3d
       0.0719348 0.10614975 -0.05170637 0.092486456
000350 67 19 2f 3d 79 d6 c2 3d b6 b8 99 3d 20 dd 3c 3c
       0.042748835 0.09513564 0.07505934 0.01152733
000360 e5 10 5d 3d 01 db 44 3c a6 d3 2e bd 14 d6 0c 3e
       0.05397119 0.012015105 -0.042682312 0.1375354
000370 d4 cc 07 3e 72 30 6c 3c cc c5 02 3d d6 88 a6 bb
       0.1326173 0.014415847 0.031926915 -0.00508223
000380 3f e2 af bb 2a bf 90 bc bc de 69 bd c7 49 4b 3d
       -0.005367547 -0.01766928 -0.05709718 0.049630906
000390 e3 98 55 3d f2 7d ad 3d ca ca b0 3b 1a 99 a5 3d
       0.052147757 0.08471288 0.005395268 0.080858424
0003a0 91 93 44 3c 74 e7 d5 3c d7 0f fe 3c 90 c8 52 bd
       0.011998073 0.026111342 0.031013412 -0.051460803
0003b0 ac 6c 9f 3d 2b 03 c6 3c 8d 0b 3f 3d 40 6a 55 bd
       0.077843994 0.024171432 0.046641875 -0.05210328
0003c0 6c 8b 15 3e 96 42 7a 3d 19 8c 91 3c d8 2b 3a 3c
       0.14603966 0.061098658 0.017767 0.011362992
0003d0 e3 f6 b8 3c ff 44 26 3d d0 5c 28 3d eb 65 ed 3d
       0.022578662 0.040593144 0.041104138 0.11591705
0003e0 0d b2 08 3e 67 54 8f bc 02 71 a0 bc b9 ef d7 3c
       0.13349171 -0.0174963 -0.019585136 0.026359426
0003f0 52 b9 8e bd 79 b7 69 bc 21 d0 82 3d 6e 85 6c 3d
       -0.06968941 -0.014264935 0.06387354 0.057744436

actor.weight f4 [3, 256]
000000 a8 35 a0 bc 47 54 5e bd d5 53 c7 3c 14 48 3a bd
       -0.019556835 -0.054279592 0.024331966 -0.045478895
000010 96 a9 3a bd 40 30 0d bb 3d a0 bf 3c 2a c6 79 bd
       -0.045571886 -0.0021543652 0.023391837 -0.06098
000020 04 17 fb bc 51 18 5b bd 36 45 01 3d dc 09 0b bd
       -0.030650623 -0.053489987 0.031560145 -0.03394495
000030 9e 2e f1 bc d2 4d c5 3c 23 9d 15 3d f6 02 1b 3d
       -0.029441174 0.02408496 0.03652681 0.03784462
000040 fc 5a 7e 3d e9 99 c3 bc 55 c5 b3 bc a8 e9 1e 3d
       0.06209849 -0.023877101 -0.021944681 0.03879705
000050 1f 52 3c 3a 9c 7f 5e 3c dd 63 c4 bc e6 df 6d 3d
       0.0007183868 0.013580229 -0.0239734 0.058074854
000060 1f ae 3b bd 03 fe 79 3d 8a 57 4f 3c 46 b0 72 bd
       -0.04582035 0.06103326 0.012655148 -0.05925014
000070 8e 0d b7 3c 49 01 4f 3b e4 25 61 3c 2a 39 02 bd
       0.02234533 0.003158646 0.013741944 -0.031792797
000080 79 84 51 bd c4 86 85 bd 52 3c 59 bd 85 7d 55 bd
       -0.051151726 -0.06519845 -0.05303604 -0.052121658
000090 c9 04 c9 bc da 4f af bc 18 72 6d 3d 85 e5 9e 3c
       -0.024538415 -0.02140038 0.057970136 0.019396553
0000a0 66 90 34 bd 86 2c 1a bd 4c 5f 2f bd e4 4a 67 bd
       -0.04408302 -0.037640117 -0.04281549 -0.056467906
0000b0 84 ea 64 3d c9 36 7a bd 01 a3 22 bd e8 46 cc 3c
       0.055887714 -0.061087403 -0.039706234 0.024936154
0000c0 6e 65 09 bc 89 54 d8 3b d8 17 50 bd c4 9a 99 3b
       -0.008385999 0.0066018743 -0.05080399 0.004687639
0000d0 d1 69 fa bc 54 34 09 bd 20 34 0f 3d 59 a7 9b bc
       -0.030568035 -0.03349717 0.03496182 -0.019000696
0000e0 f3 44 25 3d 42 53 af bd 1e 0e 57 3d 6d 07 ee 3c
       0.04034896 -0.08560802 0.052503698 0.029056275
0000f0 81 92 1e 3d 47 99 29 bd ae 99 bb 3c 28 38 e8 bc
       0.038713936 -0.041405942 0.022900429 -0.02834709
000100 35 f4 96 3b 3c c9 68 3c 75 00 47 3d b3 38 90 3c
       0.0046067485 0.014208134 0.04858442 0.017605161
000110 34 03 5d 3d f9 f1 56 bd 69 bc 05 bd 05 81 4f 3b
       0.053958133 -0.052476857 -0.032650385 0.0031662595
000120 a3 5e 62 bd c3 8d 52 bd 55 19 36 3b ae f7 11 3d
       -0.055266034 -0.051404726 0.0027786095 0.035636596
000130 b6 e3 9a bc 14 b2 e2 bc cc 6c 09 3d ef ae 4d bd
       -0.01890741 -0.027672805 0.033551022 -0.050215658
000140 43 bb 80 3c e4 92 71 bd 6a b6 ce 3c 74 d5 46 bd
       0.015714293 -0.058977976 0.025233466 -0.04854341
000150 f6 a7 58 bd 24 f3 1a bd 14 69 1f 3c 20 89 70 bd
       -0.052894555 -0.037829533 0.009729642 -0.058724523
000160 b9 73 09 bd 4c b0 a9 bc b6 59 81 bd ca a5 81 3c
       -0.033557627 -0.020713948 -0.06315939 0.015826125
000170 28 17 cb bc 90 7e 3f 3c 6f 8b 59 bd 71 2a 31 3d
       -0.024791315 0.01168789 -0.05311149 0.043253366
000180 2a 6d 1e 3c af 4f 38 3c 30 ce 3d 3d be cc dc 3c
       0.009669581 0.011249467 0.046339214 0.026953097
000190 27 a5 21 bd 7b 12 e1 3a 3f b7 71 bd 71 bd 1d 3d
       -0.039464142 0.0017171645 -0.059012648 0.038510744
0001a0 ca ca 0d 3d 74 39 8c 3d f2 66 4d 3d e8 3e 08 bd
       0.034617223 0.06846896 0.050147004 -0.033263117
0001b0 c8 1f 1c 3d d3 08 bd 3c 9f d6 78 bd 40 9b 1d 3d
       0.038116246 0.023075497 -0.060751554 0.038478136
0001c0 0e e1 d4 bb 4f 6d 6d 3d 35 74 e8 39 6e 30 44 3d
       -0.006496555 0.057965573 0.0004433707 0.04789775
0001d0 93 a0 2d 3d 3c b9 cc 3c 25 08 4d bd d2 70 8e bc
       0.042389464 0.02499067 -0.050056595 -0.017387781
0001e0 56 ab 72 bd 2e 90 27 bd 47 fa 3a 3d 9d d4 bb bb
       -0.05924543 -0.040908985 0.04564884 -0.0057321326
0001f0 43 45 88 bd a4 ce 1d 3c 38 84 50 bd 4a 5e 24 3b
       -0.066538356 0.0096317865 -0.050907344 0.0025080615
000200 7e 20 89 3d 3f 7a 68 bc 37 b6 97 3c d6 0d e2 bc
       0.066956505 -0.014189302 0.018519504 -0.027594488
000210 75 d7 0b bd f3 94 84 bd e6 c9 0c bc e4 93 04 bc
       -0.034141023 -0.06473722 -0.008593058 -0.0080919005
000220 1e 39 87 3c bd 06 7a bc 73 ce 47 bc 0e 58 85 3d
       0.016506728 -0.015260396 -0.012195217 0.06510936
000230 e5 15 ad 3c 24 b0 1d bd ee 9c 6e 3c 2a 99 4c 3d
       0.021128604 -0.03849806 0.014563782 0.049950756
000240 b8 3e 44 bd 62 46 3e 3d 96 85 89 bc f2 73 70 3d
       -0.047911376 0.04645384 -0.016787332 0.058704324
000250 08 cd 85 bd 2a 7f fb bc e3 b0 14 3d 62 a7 58 3d
       -0.06533247 -0.030700285 0.036301505 0.052894004
000260 8d 57 1f 3d 81 d6 e3 3c a6 7b 47 3c 90 7e 2a bd
       0.038901854 0.027812244 0.012175476 -0.041624606
000270 d0 be 61 bd a1 4a 79 3d b1 95 ed bb e3 82 8d bd
       -0.055113614 0.060862187 -0.0072505106 -0.0690973
000280 6e 5c d8 bd a3 01 0b 3d 84 84 b6 bc e6 8b 13 be
       -0.105645046 0.033937108 -0.022279985 -0.14408836
000290 f5 67 db bc 9d e8 41 3d 36 fa 5e 3d 7a 8f cf bc
       -0.026782969 0.047340978 0.05443784 -0.02533697
0002a0 26 ce af 3c b8 09 c9 bc ef ed 3a bd 47 f3 af 3b
       0.021460604 -0.024540767 -0.045637067 0.005369577
0002b0 c9 3c 76 bd 34 18 b5 bc 1a c1 a8 bb 09 0d 3f 3d
       -0.060116563 -0.022106268 -0.0051499726 0.04664329
0002c0 7e 5a 24 bd 5e 36 78 3d e0 e5 cb 3c 4c 5a 21 3c
       -0.040125363 0.060598724 0.024889886 0.009848189
0002d0 4a f1 74 bd a7 57 0e 3b 7b 4a cd bb bc ee 15 3a
       -0.059800424 0.0021719725 -0.0062649823 0.0005719473
0002e0 94 47 21 bc e4 ae 8c 3c 8a b5 3a bd 50 d6 23 bc
       -0.009843726 0.017173238 -0.045583285 -0.009999827
0002f0 e3 2b d3 3c a1 e9 74 bd 73 4c 09 3d 97 3a 9e bb
       0.025777763 -0.05979312 0.033520173 -0.004828762
000300 48 60 96 3c 85 27 c4 bd 23 17 1d bd 03 90 ea 3c
       0.018356457 -0.0957785 -0.038352143 0.028633123
000310 b0 af 91 3c 7a 9a 0e 3d 9f 2a 39 bd 07 29 03 bd
       0.01778397 0.03481529 -0.045206662 -0.03202155
000320 5c d0 4d bb d5 ba 6e 3c 49 bc 1b 3a ae 8e 7e 3d
       -0.003140471 0.014570911 0.00059408374 0.06214779
000330 87 75 4e 3d d9 58 87 bd b2 41 fc bb 22 4f 12 3c
       0.05040505 -0.06608743 -0.007698261 0.00893
000340 12 27 70 3d bc ef 82 bb 6d 3b 20 bd 44 85 0a 3d
       0.05863101 -0.0039958637 -0.039119173 0.0338185
000350 cf f0 55 3d cc 9d 71 bd 9a d9 f5 3a 5f b8 fa 3c
       0.052231606 -0.058988377 0.0018756867 0.030605493
000360 2b 4d 9a bc 80 dd cd bc 1f 74 83 bd 49 06 46 3d
       -0.018835625 -0.025130033 -0.06418633 0.048345838
000370 1b 3b 26 3d b5 0a d3 bc c2 88 c5 3c 48 de 5e 3d
       0.04058371 -0.025761941 0.024113063 0.054411203
000380 3a 1f b9 bc 88 16 b2 bc 38 44 21 3c a8 e2 4c 3d
       -0.022597898 -0.02173926 0.009842925 0.050020844
000390 f2 19 0f 3d b4 8a 08 3d 67 f6 13 3d 52 56 46 bd
       0.034936853 0.033335403 0.03612366 -0.048422165
0003a0 90 2c ba bb eb 06 0f 3b 5b 33 3f 3c 91 72 37 3c
       -0.005681582 0.0021824192 0.011669959 0.011196748
0003b0 bf 5d b1 bc c5 58 06 be 3d 10 08 bd e4 86 70 3d
       -0.021651147 -0.131198 -0.03321861 0.05872239
0003c0 e6 2c 4b bd fd 4b 74 bd 97 c2 6e 3a 97 ac 04 bc
       -0.049603365 -0.05964278 0.00091079756 -0.008097789
0003d0 c0 77 db 3c 9c 48 07 bd a8 ed 43 bd 01 c6 50 3d
       0.0267905 -0.03302823 -0.04783407 0.05097008
0003e0 66 90 fc bb 8e dd 04 bd 2f 89 24 3d aa a2 6a bd
       -0.0077076433 -0.032437854 0.04016989 -0.057284035
0003f0 12 f3 02 b8 a3 02 e9 bb 94 e8 5a 3d ac b2 32 ba
       -3.1220792e-05 -0.00711091 0.05344446 -0.00068167853

actor.bias f4 [3]
000000 9e 12 91 bd 4f bf ab bc c9 d4 87 3d
       -0.07083629 -0.020965246 0.066323824

critic.weight f4 [1, 256]
000000 50 41 89 3c d4 0f 4c 3c 39 99 07 3c 34 4a 75 3d
       0.016754776 0.012454946 0.008276277 0.05988522
000010 10 0d 9f bd 24 a2 b5 bd 3e 5b 7d bd 1b 1c c0 bd
       -0.07766163 -0.088688165 -0.061854593 -0.09380361
000020 84 5a d1 3c a8 26 db 3c 6e 9d 36 bd d1 69 a8 3b
       0.025555857 0.026751831 -0.04458373 0.0051395674
000030 06 11 94 bd e5 b2 92 bd 0b 05 8e bd 79 7e 41 bd
       -0.072298095 -0.07163028 -0.069345556 -0.047239754
000040 37 bc 30 3c ab f1 61 3b 4e c6 10 3d 13 4a bc 3c
       0.010787061 0.003447632 0.035345368 0.02298454
000050 63 cf bc bd d3 a4 1b 3d c6 5d 96 bd 9e dd 22 3d
       -0.092192434 0.037998985 -0.073421046 0.039762132
000060 3d 2a 7b bd 42 b5 72 bd c2 da 42 bd 0e 9e c7 bd
       -0.06131958 -0.059254892 -0.047571905 -0.097469434
000070 f3 2e 56 3d 99 27 8e bd 57 1f 3e 3d 85 7b c5 bd
       0.052290868 -0.069411464 0.046416607 -0.096427
000080 dd 68 2e 3d 8b 13 1a bd e8 dd 15 bc 05 97 1b 3d
       0.042580474 -0.037616294 -0.009147145 0.03798582
000090 bf 53 72 3d 0b f0 4c 3d 83 6c 28 3d 94 7e 56 bd
       0.059161898 0.05003361 0.04111911 -0.052366808
0000a0 ba 93 4e 3b 48 c5 6d bd 7c 29 19 3d 2d 5e 1a 3d
       0.0031521157 -0.05804947 0.03739308 0.03768747
0000b0 09 bb 56 3d c3 a1 54 3d ed e7 05 3d 72 b3 6f 3d
       0.052424464 0.05191208 0.032691885 0.05852074
0000c0 23 58 0c 3c b8 7f f9 3c ce 68 32 bd 9d 38 bd 3c
       0.008565935 0.030456409 -0.04355698 0.023098284
0000d0 0b 50 46 bd ff 4b 25 3c 4f 97 a4 bd b7 b9 6e 3d
       -0.04841618 0.01008892 -0.08036672 0.05828258
0000e0 88 f0 af bd 7f c2 30 3d 39 e0 27 3d 40 dd 89 bd
       -0.085907996 0.043154236 0.04098532 -0.06731653
0000f0 42 f2 8c bd fb d0 80 bd 82 68 0a 3d d2 ed 28 bd
       -0.068821445 -0.0628986 0.033791073 -0.041242428
000100 27 4e 26 3d f0 81 7a bd d4 d5 6f 3d f7 be 63 bd
       0.040601876 -0.061159074 0.05855353 -0.05560204
000110 4e d9 97 3c 2e be 67 3d 15 80 b7 3b 89 e7 a5 bd
       0.018536236 0.056577854 0.0055999854 -0.081008025
000120 bf 7b cf 3c 0f 4d b8 bd b2 fd 36 3d bd b9 8e bd
       0.025327561 -0.08999073 0.044675536 -0.069690205
000130 34 04 49 3c 73 d5 4e bd 97 b3 0b 3d bd d8 f5 3c
       0.0122690685 -0.05049653 0.034106817 0.030010575
000140 40 46 10 3d 87 b7 05 3c fe 02 40 3d 57 2c 43 3d
       0.035223246 0.008161432 0.046877854 0.047649708
000150 9b e8 6d 3d 0a 6d 48 3c 4a 3a a7 bd 4b 0c 44 3c
       0.058083158 0.012233028 -0.08165415 0.0119658215
000160 22 c9 98 bd 74 33 8d bd a3 21 2b bd c5 27 5f bd
       -0.07460238 -0.068945795 -0.041780125 -0.054481287
000170 f5 f6 f3 39 98 99 68 3d a9 f2 80 bb 98 d1 58 3d
       0.0004653257 0.056787103 -0.0039351773 0.05293426
000180 45 ba 98 3d ff e9 fb 3b 8f 99 c0 bd 72 03 27 bd
       0.07457403 0.0076878066 -0.09404289 -0.04077477
000190 be 25 87 bd 1d d5 52 3d 5b bc a9 bd 66 57 eb 3c
       -0.065989956 0.051472772 -0.08287879 0.028728198
0001a0 8c 96 cf bd 4c 21 8a bd b0 04 29 bc 8c cb e2 bc
       -0.101361364 -0.06744632 -0.010316059 -0.02768495
0001b0 13 e4 1d bd 8b 21 1b 3d ba 9b ba 3c be 11 0f 3d
       -0.038547587 0.037873786 0.022779334 0.03492903
0001c0 df cd 30 3d f4 f5 74 3d ed d8 25 3d 0e 50 66 bd
       0.043165084 0.05980487 0.04049008 -0.05622869
0001d0 22 da 63 3d 24 ee 29 bd 06 40 00 3d df 10 76 3c
       0.05562795 -0.041486874 0.031311058 0.015018671
0001e0 35 34 be bd 82 22 4f bd fb 54 29 bd be e0 80 bd
       -0.092873015 -0.05057002 -0.04134081 -0.06292866
0001f0 8d 33 ad bd e5 f6 9b bd 64 3c 83 bd f9 a4 30 3c
       -0.08457098 -0.07615451 -0.06408003 0.01078152
000200 3d 1e 32 bd 8b 99 49 bd 3a 36 aa 3c 42 f8 25 3d
       -0.04348587 -0.049218696 0.02077781 0.04051996
000210 f4 3f 5d bd 19 d7 1f bd 69 cd 90 bd 8c 79 48 3d
       -0.05401607 -0.039023492 -0.07070429 0.04894404
000220 1b 01 82 3c 2d f7 1d 3d 6b 03 af 3c b8 05 bb bd
       0.015869668 0.038565803 0.021363935 -0.0913195
000230 26 0a 95 3c 02 46 90 bd 9b b7 b8 bd d6 d2 35 bd
       0.018193316 -0.07044603 -0.09019395 -0.044390522
000240 57 c4 4f 3d 38 91 9e bd 5d 61 32 3d 3e 16 a3 bd
       0.050724354 -0.07742542 0.043549884 -0.07963227
000250 14 d2 c7 3a cd b7 9c bd 9d 43 44 3d 4c 2a 31 3d
       0.0015245103 -0.07652245 0.047916044 0.043253228
000260 53 9b 66 bd a3 2c af bd 90 d0 a6 bd bc 7a 83 bd
       -0.056300472 -0.08553436 -0.08145249 -0.06419894
000270 ee 06 64 3b 93 fe c4 bd 33 56 10 3d d0 4a 3d 3d
       0.003479417 -0.09618869 0.035238456 0.046213925
000280 2b 69 61 bb fd 23 36 bd 6e a0 3b 3d 49 51 70 3c
       -0.003439496 -0.044467915 0.045807295 0.014667817
000290 82 cd a4 3c d3 75 76 bd 5d ac c4 bd 2b fe 50 3d
       0.020117525 -0.06017096 -0.09603188 0.051023643
0002a0 5b 8c ae bd a1 9d 20 bd 5d d7 93 bd ca 19 67 3c
       -0.085228644 -0.039212827 -0.07218812 0.01410527
0002b0 e8 ae 49 bd 84 7e 32 3d 91 89 4e 3d 77 7d a0 bd
       -0.04923907 0.043577686 0.050424162 -0.078364305
0002c0 c9 d7 ec 3c fb 4a 12 3d 6e 7f 8b bd 16 a8 46 bd
       0.028911488 0.03571604 -0.06811415 -0.048500143
0002d0 87 99 a2 3c b3 18 8a bd 0e 33 37 3c e1 28 4f bd
       0.019848598 -0.06742992 0.011181606 -0.050576095
0002e0 a1 59 d9 bc a9 92 32 bd 19 ac a3 bd 88 ed 73 bc
       -0.026531996 -0.043596897 -0.079918094 -0.014888175
0002f0 98 e6 12 3d 7f bc 3e 3d 4a 53 bc bd 90 5d 70 bd
       0.035864443 0.046566483 -0.09195574 -0.05868298
000300 e8 8d 67 3d 44 6d a4 3c 1d f7 14 bd 57 84 d8 3c
       0.056531817 0.020071633 -0.036368478 0.026430292
000310 04 e6 2c bd 40 02 ba bd c9 04 14 3d 3c 62 67 3d
       -0.042211547 -0.090824604 0.036137376 0.056490168
000320 51 f4 1b bd dd 85 40 3d ff 88 8e bd 27 c5 3c 3d
       -0.038074795 0.047002662 -0.06959724 0.046086457
000330 fb f7 a8 bd a3 40 96 bd 7f 43 65 3d d2 ad ba bd
       -0.082504235 -0.07336547 0.055972572 -0.09115185
000340 bc db 12 bd b0 41 b1 bd 80 43 84 3d 8f 22 b9 bd
       -0.035854086 -0.08655107 0.06458187 -0.09039795
000350 16 52 55 3c 74 a6 44 bd e6 23 55 bd 9a 8e c3 3c
       0.013020059 -0.048010305 -0.05203619 0.023871709
000360 dd 11 ae bd 6f 3b 81 bd 00 5a 58 3d e5 cd 33 bd
       -0.08499501 -0.06310164 0.052820206 -0.04389753
000370 9b ac 3e bd 08 af a6 3c 24 5a 95 bd 7e fb 4e 3d
       -0.04655133 0.020347133 -0.072925836 0.05053281
000380 a1 bf 08 3c 33 f1 55 3d 40 91 97 bb 9c 6e 2b bd
       0.008346469 0.05223198 -0.0046254694 -0.041853532
000390 a9 6b 67 bd ec 25 c3 bd d6 0c 93 3d aa dd 92 bd
       -0.056499157 -0.095287174 0.07180183 -0.07171185
0003a0 15 6a 20 3d 35 5d 96 3d 09 af 66 3c 10 d0 22 3d
       0.039163668 0.073419966 0.014079818 0.039749205
0003b0 ad c1 3f bd 57 70 70 3c 09 da f8 3b ac 65 ce bc
       -0.046815563 0.014675221 0.007594351 -0.025194965
0003c0 6a 83 3e bd eb f4 19 bd 82 03 46 3d 0f 79 0f 3d
       -0.046512045 -0.037587088 0.04834319 0.03502756
0003d0 4a 2b 4f 3d 67 c9 45 bd 1a 11 04 3d 9c 85 b5 bd
       0.050578393 -0.048287775 0.03224287 -0.088633746
0003e0 ac 58 87 bd ad df 3c 3d 82 e8 e2 3c c4 16 1d 3d
       -0.0660871 0.04611175 0.027698759 0.03835179
0003f0 2d 5d 66 3d f9 5b 7d 3c 05 84 c4 bd d9 ec af bd
       0.056241203 0.0154638225 -0.09595493 -0.08590097
